vwgym/saved_model/vwgym_f_net_step_5700000.pt (torch_old, 382117 bytes, 57 tensors)

f_percept.percept.0.weight f4 [16, 3, 3, 3]
00000000: 40f1 893d 971f 90bd 3bf4 bebd 8959 84be
00000010: afd1 f83d 5b60 8f3d 7b4c a6be 1e49 1cbe
00000020: 2064 57be 4e4b 9c3e 5837 0abe d5a6 e2be
00000030: 891f b13b 6212 ad3d 4518 953e cdae 83bc
00000040: 5c81 57be 4ed8 2bbe 635a 5e3e e818 a5be
00000050: 97c4 b33d 8b5f 38be b1b1 82bb f156 b33b
00000060: d870 ebbd eba7 433e 37eb cbbd a1ab 70be
00000070: 04ac 52bd 0cc6 923e 7217 bfbd 802f 853c
00000080: 5296 303e 5d2f 70be a12d 03be bcce 393e
00000090: d113 87bd 4796 ce3e a228 263c 07b9 bbbb
000000a0: 4a5c 3e3e d1e4 633e 1d2d 8ebe 66c0 c73d
000000b0: 88af 87be 1510 3dbe 9edb 3f3d fd42 19be
000000c0: afb2 c9bd 6bdc ab3e d344 72be b932 5b3d
000000d0: 2641 36bc f0b1 853e ed9c f9bd e180 193e
000000e0: dfff 913e 3d5c 873e fbce 87bd 4b18 e93d
000000f0: da07 c4bc c155 083e 5d00 57be 1fcd 573e
00000100: 8566 59bd 1335 fdbd daed 393d 878a 19bd
00000110: 010f ebbd b002 8fbb 23e3 343d e565 4a3e
00000120: 5f01 943e 372d bebd e314 70be 7c0a f2bd
00000130: 41eb f23e 468d c93e 3bb2 023e 4303 69be
00000140: 9210 c63c a625 023e 3e33 38be 9ce0 893c
00000150: 04d8 613e 2e8c 9b3e 00e2 1b3e 53a9 d63d
00000160: 3be6 3ebe 1297 92bc e57f bb3e 0155 0b3e
00000170: 6ce0 123e 3f3b 14be 8a52 063d 82ee 1bbe
00000180: 15c8 82be a4b3 f5bd 98b5 f3bd c890 b33d
00000190: f33b 913e 395e c03d 5c15 403d ca84 c33d
000001a0: 9940 1cbe 89b3 9d3d c4e0 92bd 03ee 08bf
000001b0: 01bd 943e 96bf 65bd 470e 083d 7368 d4bd
000001c0: e5c9 42be 803d debe 0547 48bc 8688 b93d
000001d0: a94a 983e f11e 6c3d e6f4 03be 5135 f13d
000001e0: e6ef c7be dd4f b13d 2602 a93d fdf7 1b3e
000001f0: 1c78 8dbe 0a7d 5b3c 0a79 babc bb9c aa3d
00000200: e38b 593d 75f9 b9be dd6c b13e a689 76bd
00000210: a998 a23d 4598 99bd 4f7c bab9 341a 6e3e
00000220: d8c5 713e 9d76 21be 8f31 acbe e8b0 a73e
00000230: e15f 1e3e a254 25bd 0dcd 603d 143c 253e
00000240: f622 78be a75e 4b3e f788 e6bc 83de 0abe
00000250: a71b 8fbd 9a56 8e3c d471 0b3e ad61 633e
00000260: 6891 0f3e 3b7e 603e 9b8f a4bd cb28 f63d
00000270: 6975 633e 718f 8d3e 3e12 863d e4b2 c23e
00000280: 3aac 1c3e 6dff eebd 2f3d a8bd 0281 92be
00000290: 85ae e63a 6064 b3be 7054 4cbe 5ae8 683c
000002a0: 02a6 cc3d b314 653e 3fe2 5f3e ee17 843c
000002b0: ac84 0c3e 7873 7a3e ccac 8e3e 0354 02be
000002c0: 9fc4 8d3d cbcb 783b e362 08bd e839 9cbe
000002d0: cba2 483e 44f0 9dbd 3fbe a4be da11 98bd
000002e0: 1bf4 d9bd 8230 9a3e c658 903d 3d53 823c
000002f0: 0fce a8be 589a 8fbd f450 87be 886a 6b3e
00000300: 8b9f bcbd fe82 9dbc ac09 c73e 898e 173e
00000310: 1509 e3be e010 fd3d b07a 09be f05c 66be
00000320: 417b 933d 36e5 a1be dc90 e73d c629 343e
00000330: c4cf 0e3e 9e4f 10be f1e2 5a3e feb6 1e3e
00000340: 1177 423d 7adf d1bd f295 e93b b826 73be
00000350: 52a3 253e e172 313e 24ea c5bd 5290 0b3e
00000360: 9d88 d1be 37a1 d03d ea7b 4a3c cdb7 823d
00000370: 2841 443e 80c1 63bd 927a ba3e 2bb8 8c3e
00000380: fc2f 1a3e f431 74bd 88fd 7dbe af4f e9bd
00000390: 2eda 233d 3286 763d d116 4c3e 3680 71bd
000003a0: 4458 e4bd 6392 43be 0309 df3e 6f24 8a3e
000003b0: 14b4 363e 0cfd 903b 24fd 793d 78e6 1fbe
000003c0: 4d56 233b f122 363e ff1b 093e eacd b3bd
000003d0: 5b9b 703e 04e9 07bd df78 34be 2c3d 633d
000003e0: 24de f23c bde6 ae3e 5ab4 f0bd 3851 c3be
000003f0: f766 873e cc7c 343e e6af a33e efaf 9bbd
0.06735468 -0.07037275 -0.09323927 -0.2584956 0.12149369 0.070008 -0.32480225 -0.15262267
-0.21034288 0.30526203 -0.13497674 -0.44267908 0.0054053706 0.08450772 0.2912008 -0.016074562
-0.2104544 -0.16781732 0.21714167 -0.32245564 0.08777731 -0.18005197 -0.0039884676 0.0054730107
-0.114961326 0.19107024 -0.09956973 -0.23502971 -0.051433578 0.28666723 -0.09330644 0.016258001
0.17244843 -0.23455568 -0.12810375 0.18145269 -0.065955766 0.40349028 0.010141524 -0.005728844
0.18589893 0.22255255 -0.27768794 0.09753494 -0.26501107 -0.18463166 0.046840303 -0.1496696
-0.09848534 0.33566603 -0.23659067 0.05351517 -0.011123931 0.26112318 -0.12188134 0.1499057
0.28515527 0.2643756 -0.06631275 0.11381587 -0.023929525 0.13313963 -0.20996232 0.21074341
-0.053076286 -0.12363639 0.04539285 -0.037485626 -0.11477471 -0.004364334 0.044161927 0.19765432
0.28907296 -0.09285968 -0.23445468 -0.11818406 0.4744511 0.39365596 0.12763302 -0.2275515
0.024177823 0.12709674 -0.17988297 0.016830735 0.2205506 0.30380386 0.15222931 0.10481515
-0.18642513 -0.017894302 0.36621013 0.13606645 0.14343423 -0.14475726 0.03279356 -0.15227702
-0.25543275 -0.11997154 -0.11899871 0.08767849 0.2836605 0.093929715 0.04689537 0.09546812
-0.15259017 0.07700259 -0.07171777 -0.5348818 0.2905045 -0.056090914 0.03321674 -0.103714846
-0.19022329 -0.43406296 -0.012223964 0.09059243 0.2974446 0.057646696 -0.1288639 0.117777474
-0.39050215 0.08657811 0.08252363 0.15231319 -0.276307 0.013396511 -0.022762794 0.08330675
0.053111922 -0.36323133 0.3465337 -0.060189866 0.07939274 -0.07499746 -0.00035569302 0.23252183
0.23610628 -0.15767904 -0.3363156 0.32752156 0.15466262 -0.040363915 0.05488305 0.16136199
-0.24232087 0.19860326 -0.028141482 -0.13561444 -0.06987696 0.01737528 0.1361764 0.22205229
0.14020312 0.21923153 -0.08035203 0.120194994 0.22212757 0.276485 0.06546448 0.38027108
0.15300074 -0.11669812 -0.08214795 -0.2861405 0.0017599618 -0.35037518 -0.19954085 0.014215553
0.09992601 0.22371177 0.2186365 0.016124692 0.13722485 0.2445811 0.2786621 -0.1272736
0.06922268 0.0037963267 -0.03329743 -0.3051293 0.1959335 -0.07711843 -0.32176396 -0.0742528
-0.106422625 0.30115134 0.07048182 0.015908832 -0.3296971 -0.070118606 -0.2642895 0.22989857
-0.09210118 -0.019227501 0.38874567 0.14800467 -0.44342867 0.12356734 -0.13425708 -0.2249639
0.07201243 -0.31620187 0.113069266 0.1759406 0.13946444 -0.14092872 0.21375634 0.15499493
0.04747683 -0.10247703 0.0071284706 -0.23745239 0.16175583 0.17328979 -0.096637994 0.13629273
-0.4092454 0.10186999 0.012358645 0.063827135 0.1916548 -0.055604458 0.3642164 0.2748426
0.15057367 -0.05961795 -0.24803746 -0.113921516 0.040002994 0.060186572 0.19930579 -0.058960162
-0.11149648 -0.19098811 0.43561563 0.26980922 0.17842132 0.004424697 0.06103243 -0.1561526
0.0024923265 0.17786767 0.13389586 -0.08779509 0.23496763 -0.033181205 -0.17624234 0.05547826
0.02964694 0.34160414 -0.11753149 -0.38147902 0.26445743 0.17625731 0.31970137 -0.07601916

f_percept.percept.0.bias f4 [16]
00000000: 29f0 9eba 0189 1c3a d8a3 bd3a 805f e93a
00000010: 9ec6 d0ba 9b6b b9ba 20dc 0cbb 8974 0dba
00000020: 110d 83ba a04e f5b9 4533 8dba 0505 17ba
00000030: 16c1 5bb9 f08b bdba e97a 9bb9 20b1 6c3a
-0.0012126017 0.0005971343 0.0014468385 0.001780495 -0.0015928333 -0.0014146449 -0.002149351 -0.0005396088
-0.0009998401 -0.00046788622 -0.0010772726 -0.0005760941 -0.00020957398 -0.001446126 -0.0002965548 0.0009029079

f_percept.percept.3.weight f4 [64, 16]
00000000: cda8 923d 3320 0a3d 86a8 b13c 9a6c 25be
00000010: 759a 98bd 8d50 6fbd b4ec 84bd b511 17be
00000020: 7a86 523d 34f5 09be 1a16 d73d 624d b7bd
00000030: 5c6d 233c 53b3 11be 9c2f 18be 502f d6bc
00000040: 9460 173e 54c2 07be a302 1a3e 96dc e2bd
00000050: f671 31bd 6409 67be 3adc 1fbe 2890 113e
00000060: 8827 1dbd 97f1 57bb 4ed6 adbb 3a3e 843d
00000070: c4a3 d9bd 5ae4 f2bd 04ec 8ebe 7914 8dbd
00000080: 9047 d43c e8c4 753e 4186 74bd 4680 0abe
00000090: a07d c73d 8a7f bfbc b512 293e ff8b 993d
000000a0: 6ac6 ae3d f41f 7b3d a416 83bd b981 a9bd
000000b0: 7964 8b3e 343e 80bd 9f8f 52be 3586 1dbd
000000c0: cc4d 153e f0fc 693d fc94 6cbd a994 25bd
000000d0: fcc3 c6bd da5c 20be 5400 623d 077d 32be
000000e0: e131 d2bd 961c 93be 9a30 953c 1352 be3d
000000f0: de9c a13d 2198 2abd 17f9 95bb df7e dd3d
00000100: 88e5 febd 57cf 0cbe 14fc 973d ed79 0a3e
00000110: f9c0 053e 465a 013e 05cb 3ebe ee4d abbc
00000120: df24 ea3d cb75 373e 3df8 78be ec04 f33c
00000130: b8bb 97bc 46b6 d5be 33df f23c 752a 5abd
00000140: 016e f6bd 679c 40bd 7d34 253e 3157 123e
00000150: 8f2c 943d 1874 8abc f556 0e3e 0e0a 27be
00000160: 0b45 5b3d c670 f5bd 426a 433e 65d3 05be
00000170: dfd9 ddbd 0fa8 f63c a5bb c83d 0c17 0d3e
00000180: 29ed cbbd 5a51 50bd 8e09 003e deee 983d
00000190: e494 05be 32c5 2b3e 127a 333d 69f3 003e
000001a0: 3785 0b3e 8276 853a 8d1f 7b3d 997e 6dbd
000001b0: d132 d23c c377 703d 4724 bebd 5126 81bd
000001c0: f1ee d1bd 6d58 a6bd 1b1a 96be 2674 243e
000001d0: 7610 233e 6aaf 35bd d283 8dbe 46a5 91bc
000001e0: bfff 4ebe 83cb ae3d 41e4 0ebe 19b7 1fbd
000001f0: 99b8 04be a6f9 463d 0e6c 24bd dcb4 123e
00000200: 51e0 813c ae06 64be 1efe d9bd 6e4e b43d
00000210: 6733 5dbe 8f4f 18be 3788 e43d ceb8 55be
00000220: 27a1 313e 1ed3 16be a496 e8bd 74b9 3bbe
00000230: 9b84 75bd 0a7b 4a3e 3637 92bd 98a1 c6bc
00000240: ddd5 d73d 97bb 723e 85f2 60bc 8e1d d93d
00000250: 839d 0f3e 7ae1 ebbc 0a1a 073d a8cc 1ebe
00000260: 3a54 a13d 62ec dc3d 89de 9bbd 66b2 4f3e
00000270: 5a6e bbbc 72cf 923c 6892 bc3d 5812 c23c
00000280: 8f38 8f3d ba88 00be 3d61 dfbc e38d 68be
00000290: 3470 093d 0e6a bfbd 7d59 283e b1cf e43c
000002a0: d622 ef3d 1f2c c03c 9982 3ebe 9869 af3d
000002b0: e381 18be c520 14ba 7c85 1b3e 1cd9 b0bd
000002c0: 5b01 ec3d 6448 96bd 192d 313e 2a48 36bd
000002d0: e1f3 6dbd 9d44 bcbd f26e f33d 5b84 f5bd
000002e0: 8d82 82bc d784 c33d b379 acbd 46a7 22bd
000002f0: 1235 06bd 83fb 2abe ddd9 6dbc b5b6 573e
00000300: 4125 c93d 814f 56be 64ec 183d 0224 333e
00000310: 7643 83bd 6194 ea3c d7e7 10bd ef89 84be
00000320: efe8 183d cf2f b83d e859 a8bc 928a 6fbe
00000330: 443f 973d 3370 0f3e 75d3 3abd 8064 20bc
00000340: dd67 81be 20cd fb3c feca 383e e8f3 8a3e
00000350: 0d29 4bbc 30af 28be a939 9dbc bb12 003e
00000360: bcbe 053e aa22 e83c bb99 063d fbd9 bebc
00000370: 027a 923d c4d6 81bd d96d 683d 5581 ba3d
00000380: 747d 0d3e a386 3e3d 214a 56bd ca14 183e
00000390: 55fb 2c3e 4303 f3bc 35e8 023d 4ce5 593e
000003a0: bcf6 8e3c a31e adbd f910 8d3d 96bf 36be
000003b0: 5baa a6bd f957 2fbe 8437 883c edc0 b73a
000003c0: 99f1 033e a3c4 1fbe 957c fdbc 36ff 90be
000003d0: 6d17 913e 75fa 4abd 0c79 2c3d 38cb f83d
000003e0: e4da 84bb a315 70bc 1764 383e d0dc 0e3c
000003f0: caa6 953d 35eb 6e3e f967 c2bc cb2a c7bc
0.071611024 0.033722114 0.021686804 -0.1615471 -0.07451335 -0.05842643 -0.0649046 -0.14752848
0.051397778 -0.13472444 0.105022624 -0.089503065 0.009974804 -0.14228563 -0.14861912 -0.026145607
0.14782935 -0.13257724 0.15040068 -0.1107723 -0.043321572 -0.22562176 -0.15611354 0.14215147
-0.038367778 -0.0032950395 -0.005305088 0.06457181 -0.10626939 -0.11859961 -0.2791444 -0.068886705
0.02591303 0.24000895 -0.059698347 -0.13525495 0.09740758 -0.023376245 0.16511042 0.07497405
0.08533938 0.06130977 -0.06400803 -0.08276696 0.27225092 -0.06261864 -0.205626 -0.038458068
0.14580458 0.057125986 -0.05775927 -0.040424976 -0.0970535 -0.1566042 0.055176094 -0.17430507
-0.1026342 -0.28732747 0.018211652 0.09292998 0.07891248 -0.041648988 -0.004576813 0.10815214
-0.12446123 -0.13750969 0.07421127 0.13523073 0.13061894 0.12632093 -0.18632133 -0.020911183
0.11432814 0.17916028 -0.24313445 0.029665433 -0.018522128 -0.41740626 0.029647445 -0.053263146
-0.120327 -0.047024157 0.16133304 0.14291073 0.072350614 -0.016901061 0.13900359 -0.1631243
0.05353264 -0.119844005 0.19083503 -0.13068922 -0.10832571 0.030109433 0.09801415 0.13778323
-0.09957344 -0.050858833 0.12503645 0.07467435 -0.13045079 0.16774443 0.043817587 0.12592854
0.13625036 0.0010182413 0.061309386 -0.05798206 0.025658997 0.058707964 -0.09284263 -0.063061364
-0.102506526 -0.08122335 -0.29316792 0.16059932 0.15924248 -0.04435674 -0.27639633 -0.017779004
-0.20214747 0.085349105 -0.1395426 -0.038992975 -0.12961043 0.048577927 -0.04014211 0.14326805
0.015854033 -0.22268173 -0.10644172 0.08804022 -0.2160164 -0.14874099 0.111587934 -0.20871279
0.17346631 -0.14728972 -0.113568574 -0.18332464 -0.059940916 0.19773498 -0.07139437 -0.024246976
0.10538838 0.23704372 -0.013729696 0.1060134 0.1402493 -0.028794039 0.032983817 -0.15507758
0.07877393 0.10787274 -0.076108046 0.20282897 -0.022879768 0.017921183 0.09207612 0.023690388
0.069932096 -0.12552157 -0.027268047 -0.22710375 0.03355427 -0.093464 0.16440387 0.027931066
0.11676566 0.023458539 -0.18604507 0.08565062 -0.14893298 -0.0005650635 0.15187639 -0.0863516
0.11523696 -0.07338026 0.1730236 -0.044502415 -0.05809391 -0.091927744 0.118863955 -0.119881354
-0.015931392 0.095468216 -0.0842165 -0.039710306 -0.032765456 -0.16697507 -0.014517275 0.21065791
0.09821559 -0.20928766 0.037334815 0.17494205 -0.064093515 0.028635206 -0.03537735 -0.25886485
0.037331518 0.08993494 -0.020550683 -0.23392704 0.07385114 0.14007644 -0.045611817 -0.009789586
-0.25274554 0.03073746 0.18046185 0.2713921 -0.012399924 -0.16473079 -0.019192534 0.12507145
0.1306104 0.028336842 0.032861453 -0.0232973 0.071521774 -0.063397914 0.056745384 0.091066994
0.13817388 0.04651512 -0.05231679 0.1485168 0.1689275 -0.029664641 0.03195973 0.21278876
0.017451636 -0.08453109 0.06888003 -0.17846522 -0.081379615 -0.17123403 0.016628034 0.0014019288
0.12885131 -0.15602355 -0.030943194 -0.2831971 0.28338185 -0.04955526 0.042107627 0.12148136
-0.004054414 -0.014653596 0.18006931 0.008719638 0.07307203 0.23331912 -0.023731219 -0.024312397

f_percept.percept.3.bias f4 [64]
00000000: cd92 13bb 00de 5c3b 8244 573b 8ffb 313b
00000010: 1327 313b b3a1 9b3b 063c b4ba 38f4 243b
00000020: 7577 95ba 0ee7 503b 4b8a 923b dc15 2fbb
00000030: 7a3e 873a ada6 963b ee55 af39 a508 9dbb
00000040: 1a7f 25bb 597a 3fbb 6eaf 443b 60c6 a1b7
00000050: 273c 093b 8aa3 e13a ba93 683b dd38 a33a
00000060: e4e2 5bba cce9 8b3a 556b 893b 0063 2abb
00000070: 8f75 8abb 95e1 9cba 27c5 2e3b d70d 71bb
00000080: 0549 503b f447 9c3b 9099 dbb9 7753 a6ba
00000090: e0e2 093b 15d1 2b3b 508d 663b 86f9 95ba
000000a0: 9884 51bb 7452 d539 0cb3 c63b 4317 d039
000000b0: a738 d339 c057 f2b7 c194 773b f41e e03a
000000c0: 3f00 28ba a056 f73b bdc4 30bb 54be 8c3b
000000d0: 2a21 943b c393 a03b 6167 68bb 62c7 0f3b
000000e0: 4056 a5ba 7b45 703b 495a bcbb f1ed 583b
000000f0: b97c 3cb9 cd00 af3b a4e3 c8ba b5cc 003b
-0.002251792 0.0033701658 0.003284723 0.0027157997 0.0027031347 0.0047495007 -0.0013750799 0.002516998
-0.0011403399 0.0031876 0.004472052 -0.002671591 0.0010318302 0.004597506 0.00033442624 -0.0047922903
-0.002525276 -0.0029217212 0.003001179 -1.9285071e-05 0.0020940395 0.0017214876 0.0035488443 0.001245286
-0.00083879963 0.0010674535 0.004193703 -0.002599895 -0.00422544 -0.0011969084 0.0026667805 -0.003678193
0.0031781804 0.0047693197 -0.00041885348 -0.0012689669 0.002103977 0.0026217152 0.0035179444 -0.0011442162
-0.0031969901 0.00040687958 0.0060638245 0.00039690183 0.00040287265 -2.888951e-05 0.0037777873 0.0017099069
-0.0006408728 0.0075481683 -0.0026972734 0.00429515 0.004520555 0.004900427 -0.003546201 0.002193891
-0.0012614205 0.0036662507 -0.0057480675 0.0033100809 -0.0001797554 0.0053406716 -0.0015326631 0.0019653265

manager.M_space.weight f4 [64, 64]
00000000: 59d5 00bd 505b f83d 8ee6 a23e 5f3a 26bd
00000010: 8daf 8c3d 553c 363e cae6 55bd ba1e 393e
00000020: d02d 423e 7a10 18bd 7512 e6bc f03a ddbd
00000030: a25f 04be 534f 0e3e 1828 11be 87eb fc3d
00000040: f46b 4abc f720 2e3d cb20 e1bd 3003 07be
00000050: bfa3 71be 0c01 8ebc 1576 48bd 2ff2 6d3d
00000060: 0db5 453e a3e8 b1bd 6588 68be a97c 4f3d
00000070: 9a26 023d 644a 7dbe a4de 06be 4100 3ebd
00000080: 5159 9dbd 0ce3 f7ba e9d3 27bd 8d17 f6bd
00000090: 358f 3ebe 2a2c fe3d b044 983d 3dfe 483e
000000a0: 3b56 32be 27d7 b5bd 5180 863e 3a18 6ebc
000000b0: 8212 1dbd fb17 19bd 9ad8 bebd 063d e33c
000000c0: 318b 91bd 3a9a fbbd 55d1 0abe 501e a9bc
000000d0: 699c e03d b0aa 06be e437 a63d bf48 343e
000000e0: 2ead 0dbe 4ae2 9d3d 8323 a5bd 2c0d 093e
000000f0: b9d3 20bd 7ebc 42bc b0a8 b3bd 1310 f13d
00000100: 0b60 ca3c d6be debb 26eb 30b8 31b0 e33d
00000110: 71ac 53bc ccb0 07bd d31a 333e 7f0d 5d3e
00000120: e491 e13d eb28 c43d bda1 3cbd 607b cbbd
00000130: 31cd 40bc 37b7 d7bd 978c 2dbd f956 70be
00000140: 23f4 b3bd 016d d7bd ec60 39bd 44c6 c3bd
00000150: 7754 2bbd 75c5 483d dfb2 8bbd 90f3 963e
00000160: 682b c5bd 9d33 ea3d d59f abbd cc7e 003c
00000170: f144 35be e598 203e 8ddf 633e 7004 663e
00000180: 2fc1 ec3d b81b 043e df22 8dbc 16c3 ea3d
00000190: 2c36 f6bd 25b9 3abc 138f 3fbd 8d8a dfbd
000001a0: 6945 12be 64e2 76bc 16af 523d d54d 2e3d
000001b0: ae87 f1bd 70cd 1c3e 80fe 3e3c 0f37 c33d
000001c0: 7195 be3d c2ac c63d 17ef d4be 12eb c53d
000001d0: 3cb7 82be cef6 84bd 4232 403e 0a02 17bd
000001e0: cc1f c93d 4239 803d 81d3 f0bd d0d7 f2bc
000001f0: 548d e53c 2f4f 5a3d a1b1 9f3d 8189 bb3d
00000200: d8c7 17be dd75 c7bc 932a f23d 6927 05bb
00000210: 9548 e73d 7657 41be ccfe 1fbd fc3a cc3e
00000220: 30bd 023e 96b6 1ebe a746 4fbd 7d08 cc3c
00000230: 896e af3d 7bb8 063b 5baa 903d c56e ca3b
00000240: 0fa9 23bd cf88 4c3e baff 32be cbe9 eb3d
00000250: 5653 683e 145a 23bd 208b 68be 8607 58be
00000260: 7da7 adbd eac9 f43c 43cd fc3c d3e4 d73c
00000270: 0d6d 09be ac99 88bd 19d5 aa3d a114 0e3e
00000280: e7ed 003e 3685 a33d f6c7 8939 9b67 d63d
00000290: 3f36 683c f5c9 413d 2c45 553d 3042 e93c
000002a0: 5a8f ffbd 5ebd 0d3e 879e d1bc 91c6 eabd
000002b0: 634d e5bd b139 23be 786f 823a 7253 1b3e
000002c0: 4600 1c3e b540 60bd d4ca fa3d 26e0 0fbe
000002d0: 24ee d33d f130 313d 57a2 f9bc 6008 923c
000002e0: 3c12 a1bd d5bb 053e 9dec 0e3d 90e6 ec3d
000002f0: 1c80 823d 2457 c03c 0ce5 663e 6fbe 97be
00000300: b0f8 373d 7a38 6c3e aa95 e8bd e1f0 633e
00000310: 9cca aa3e ca8f 76bd 4d1c 24bb 4b20 b83d
00000320: 7661 023e c1e2 883c c6f9 203d 452f 54be
00000330: f7d4 b63d 4b8b 123d b441 c53d d4fa 1ebd
00000340: d6d1 9f3e 8923 b83b 3f7e 033d db9d 0e3e
00000350: a3e4 bebd 57ec 1e3d cb92 003c 6436 9bbb
00000360: 35ff daba 9f4b edbd b73b 323c 9772 c93d
00000370: 469f d4bd 46ce 463d 9ae3 863d b831 0abe
00000380: 9b00 55bb ac2b dbbc 5a7a 903d 07a6 403e
00000390: 5fb5 893d d5d9 3c3e b4fe c53d d8b7 f83d
000003a0: 5d5d 8f3c c5f6 413e 3d37 383e 787c 223e
000003b0: e9dc cf3c 71d4 a73d d0c4 503e ce10 733d
000003c0: 8818 4dbe 0408 87be f91e a2bc c995 1e3e
000003d0: 3010 a2bd c1aa 923d cfe5 6abe 31e7 debd
000003e0: 4ada 8f3d 3108 04be 38d8 1b3d 2e25 bdbd
000003f0: f9b1 c03a 2540 cbbc 548b a3bb b59e ea3c
-0.031453464 0.121267915 0.31816524 -0.04058301 0.06869421 0.17796452 -0.05222205 0.18078128
0.18962789 -0.03712509 -0.028084973 -0.10802257 -0.12927106 0.13897447 -0.14175451 0.12349611
-0.01235484 0.042511906 -0.10992583 -0.1318481 -0.2359762 -0.017334484 -0.048940737 0.058092292
0.19307347 -0.0868695 -0.2270828 0.050655995 0.031775095 -0.24735409 -0.13170868 -0.04638696
-0.076830514 -0.001891227 -0.040973578 -0.12016211 -0.18609317 0.124107674 0.07434976 0.19628234
-0.17415707 -0.08878928 0.26269773 -0.014532143 -0.03834773 -0.037376385 -0.09318657 0.02773906
-0.07106627 -0.12285276 -0.13556416 -0.020644337 0.10967333 -0.1315105 0.08116129 0.17605875
-0.13835594 0.07709177 -0.08063414 0.13383931 -0.039264414 -0.01188576 -0.08772409 0.11770644
0.024704 -0.0067976518 -4.218067e-05 0.1111759 -0.012919531 -0.03312759 0.17490701 0.2158718
0.110141546 0.09578117 -0.046052683 -0.09935641 -0.011767671 -0.10532992 -0.042370405 -0.23470677
-0.087868 -0.10518838 -0.045258448 -0.095593005 -0.0418286 0.049016435 -0.06821226 0.29482698
-0.0962742 0.11435626 -0.08380095 0.007842731 -0.1770208 0.15683325 0.22253247 0.2246263
0.11560284 0.12901199 -0.017228542 0.11462991 -0.12022051 -0.011396681 -0.046767306 -0.10915098
-0.1428429 -0.015068624 0.051436506 0.042554695 -0.11793457 0.15312743 0.011657357 0.09531986
0.093058474 0.0970092 -0.4158866 0.09663977 -0.25530422 -0.06492387 0.18769172 -0.03686718
0.09820518 0.06260921 -0.11759091 -0.029643923 0.028021492 0.05329817 0.07797552 0.09157086
-0.14822328 -0.024348194 0.11824527 -0.002031768 0.11293141 -0.1888102 -0.039061353 0.39888752
0.12767482 -0.15499339 -0.05060449 0.024906391 0.08566005 0.0020556736 0.07063743 0.0061777555
-0.03995615 0.19974063 -0.17480364 0.11519202 0.2268804 -0.039880827 -0.22709322 -0.2109662
-0.084792115 0.029881436 0.030859595 0.02635423 -0.13420506 -0.066699356 0.083414264 0.13875057
0.12590753 0.07984392 0.0002627966 0.1046898 0.0141730895 0.04731174 0.05206792 0.028473943
-0.12478514 0.13841769 -0.025588287 -0.11463655 -0.11196401 -0.15939976 0.0009951433 0.1516855
0.1523448 -0.05474921 0.12245718 -0.1405035 0.10348156 0.043259565 -0.030472917 0.01782626
-0.07864806 0.13059933 0.03489362 0.11567414 0.06372091 0.023479052 0.22548312 -0.29637477
0.0449149 0.23068419 -0.11356671 0.22259857 0.33357704 -0.06019572 -0.0025041283 0.089905344
0.12732491 0.016709687 0.039300703 -0.20721157 0.089273386 0.03577737 0.096316725 -0.038813427
0.3121478 0.0056194705 0.03210282 0.13927405 -0.09320953 0.03879961 0.007847498 -0.0047367085
-0.0016708138 -0.11586689 0.010878495 0.098363094 -0.103819415 0.04853656 0.0658638 -0.13495529
-0.0032501582 -0.026754223 0.07054587 0.18813334 0.06724047 0.18442471 0.096677214 0.121444404
0.017500574 0.18941791 0.17989822 0.15867794 0.025373893 0.08194817 0.20387578 0.059342198
-0.20028889 -0.26373303 -0.01979016 0.15486826 -0.07913244 0.07161475 -0.22939228 -0.1088394
0.07024057 -0.1289375 0.038048 -0.09235607 0.0014701477 -0.02481086 -0.0049909744 0.02864013

manager.M_space.bias f4 [64]
00000000: 46b4 36ba 897a 103b c8e3 d23a c8c9 2a3b
00000010: f495 2d3a 99aa 4e3b 8505 3fbb 1fcf 61bb
00000020: 5cb8 103b b11e 4c3b 8e1d 843a 76a3 653a
00000030: 5c96 48bb 0788 a43b 5f58 8d3a dad9 873a
00000040: 4f4d 213a 7a9c 7f3b bba6 52ba 6625 42bb
00000050: f769 2d3b 3cb2 253a eb6e 03b8 2f5c 803b
00000060: 8047 443b ae21 d0ba d7a0 b1b9 6d71 c03a
00000070: 6090 25bb ee7f 2c3b 4511 ccba f3ee 723b
00000080: 69ba 433b 993b ba3b 34cb 113a 0b12 88bb
00000090: a063 6ebb b662 67bb 52b2 55ba a343 9f3a
000000a0: 0aac 64ba 5496 aaba a0f3 61bb ebe4 8dbb
000000b0: 4637 d43a 676f 423b e056 41bb fb93 3ebb
000000c0: eafb a93a 99de 1c3b d4c1 33bb 0f9a 133b
000000d0: 6c61 35bb 6d08 9ebb f724 933b ee6e 1bbb
000000e0: 74ab 3fbb f40b 23ba 2535 2e3a f7f2 a2b9
000000f0: 3ee2 9d39 c735 b3bb b961 b2bb dee2 4a3b
-0.0006969612 0.0022045693 0.0016089613 0.0026060212 0.0006621771 0.003153479 -0.0029147577 -0.003445573
0.0022082543 0.0031146223 0.0010079609 0.00087600143 -0.00306072 0.0050210985 0.0010783783 0.0010364607
0.00061531825 0.003900318 -0.0008035709 -0.0029624342 0.0026460865 0.00063208095 -3.1336134e-05 0.003917239
0.0029949844 -0.0015879178 -0.00033879906 0.0014682241 -0.0025263056 0.002632137 -0.0015569112 0.0037068694
0.0029865748 0.005683374 0.00055615907 -0.0041525415 -0.00363753 -0.003530664 -0.0008151877 0.0012150895
-0.00087231456 -0.0013014772 -0.0034477487 -0.0043302677 0.0016190789 0.0029668452 -0.0029501244 -0.0029079902
0.0012968753 0.002393639 -0.0027428763 0.0022522246 -0.0027676476 -0.004822782 0.0044904905 -0.0023717242
-0.002924648 -0.00062197377 0.00066454924 -0.0003108007 0.00030113937 -0.0054690572 -0.0054437784 0.0030957977

manager.M_goals.weight f4 [64, 128]
00000000: 5ca4 91bd 8245 0bbd feaa 15bd 87ff d3bd
00000010: d709 273e f9e5 073e c83c 0e3d e10b 763d
00000020: ff2a 0dbe 251b 2a3e 98de e53c 009f a0be
00000030: 8ab8 2a3e c4fb 1a3e d31f c33c 2793 2a3e
00000040: adda 60bd a6c6 b93c 50e2 f4bd c4e8 6d3c
00000050: 103b 98bd 6e93 6a3d 7207 083b 28b6 2a3c
00000060: 4d32 cbbc 45dc 82bd 6da2 dabb 38bd 20be
00000070: 90d4 4f3a 6f95 60be a2fb 4bbd d4bc eebc
00000080: 9db4 c53d e202 fcbc a4fc bbbc 8bcc af3d
00000090: 32df 26bd faaa 94bd b844 ec3d 88d1 8cbd
000000a0: 722f 81bd 2dbb d8bd 9181 103e 2337 2e3d
000000b0: 5c56 843c a82c 8e3c cbae cebd 2429 fabd
000000c0: d80e dfbc e952 223b 5e73 1d3d 8c70 833d
000000d0: c054 ac3d a814 1b3e 793a 70bd b145 1f3e
000000e0: 4bfa 2e3c 5e16 3c3d 46a0 2abe 91c5 03bd
000000f0: 9764 323d 4fe9 b53d 9386 6abd 7908 a03b
00000100: 3bfc ae3d a2ea 2a3e 2cd6 c6bd 9016 963c
00000110: 0055 82bc d781 2abd 8bba ec3d b35e a0bd
00000120: 1f1c 36bd f919 31bc c985 943d c2b3 73bd
00000130: 95c3 233e cc25 7abd e562 66bd f523 683d
00000140: a13c e33c 6d76 cebc 349f 3c3c 16a1 073d
00000150: 3606 a03c 06c8 57bd 5c69 ba3a e6aa 7bbd
00000160: dd2d 54be e818 193c f04c 94b9 dd6c 2a3d
00000170: 1ca3 4a3d fd8e 093e 2323 ff3c 216b d83c
00000180: 3478 d53d 1346 25bd 742f 923d 10cf a0bc
00000190: 9464 49be 0191 84bd 03da fb3d 55ea 1e3b
000001a0: 933d 793d 20e6 b03d 2585 8ebc 1311 a13c
000001b0: a5d4 cf3d 630a 9f3c 5122 dd3b 21bd b1bc
000001c0: 3206 c4bd 1107 203d 0f37 0fbc af31 013d
000001d0: 0c2a 173d fd4d 8b3d 74ec 223e 6828 a2bd
000001e0: 5106 0ebd 3ffd 2e3c 27b1 0bbe e181 163e
000001f0: 7203 1e3c c71c 63bd 0936 b73b c465 ed3c
00000200: 9af3 db3d f218 63bd b002 e5bd 26bf c5bd
00000210: 31fd e83d 132f 0cbe 7916 b23d 4d35 2f3e
00000220: e06a 87bd 2bdb 12bb cfda 87bd bc70 b2bc
00000230: 9c2b 16bd 86c9 5ebd 4890 2f3d 8331 4dbd
00000240: b3f8 d6bd 8f99 f4bb 347e 42bd 606e 8e3d
00000250: ba95 4d3e ba44 b53d c3ff 58bd 86b9 203e
00000260: 1af7 093e f798 473e 801e 25be b8fb 433d
00000270: 705c 0a3d c761 b53c 526a 803c 71ba 3cbd
00000280: 5a02 0b3d 60a0 2c3d 9a01 a03d 67d7 bb3c
00000290: e2cf 59bd 4e75 663d ca90 d43c aec3 4cbd
000002a0: 94b3 6ebc f407 c63b 47cc 0d3e 634a 0fbc
000002b0: d896 20be 7385 c73d 02e4 5f3c bd8b b1bd
000002c0: 8918 a2bd 85fd bf3d 1e7a 0fbe d741 c03d
000002d0: 4bfa 67bd dd35 7abd 15de 83bd 3f2a 173c
000002e0: 284d 803c 9352 91bd 7866 893b b8c4 70bd
000002f0: b95b a7bd 4c40 cbbd 8b0a f23d 40f4 b0bc
00000300: c892 cabc b03e 893d cf76 cbbd 5f94 893d
00000310: 04c4 053d 61bb b1bc 9275 8d3d deee fa3d
00000320: cd81 763c 3576 a2bd 0090 e2bd f1db 42be
00000330: 3ebd fb3c 8501 ad3c 8ea1 ae3d d6a7 ecbd
00000340: e1bb 883d 143f 413d 5e04 dbbc 91fc 51bb
00000350: 338b 8e3d e415 a73c c4c1 f03b b1fb 053e
00000360: 1547 f7bc 508d 563d 4e4a 19bd 832c 6c3e
00000370: e104 dabd 22e6 a1bd b7a0 c2bc b62d 15bd
00000380: 1e51 8cbd 5b9e fe3d 645d d13d 86ca babd
00000390: 2667 83bd 785c 263e 0c07 43bd 3ec5 45bd
000003a0: 686f ff3b ca3e 323e 93a6 1b3c 2fb2 10be
000003b0: 9384 ad3d ce98 253d feeb 803d f667 f03b
000003c0: 885b c4bc 907b 45bd b041 043e a1cc a6bb
000003d0: 5d18 bcbd 40ce 1cbe 9493 f5bc 7762 af3d
000003e0: d2ef d13c 392c 283d 8759 1bbe c178 dcbd
000003f0: 9af0 7e3d 2a18 c8bc 36a1 5dbe 3288 c7bd
-0.07111427 -0.034001835 -0.036540024 -0.10351472 0.16312347 0.13271321 0.034725934 0.060069922
-0.13785933 0.16611917 0.028060243 -0.31371307 0.16671959 0.15135103 0.023818886 0.16657697
-0.054896045 0.02267773 -0.11957228 0.014520828 -0.0743314 0.057269506 0.002075639 0.010419406
-0.024804259 -0.06389669 -0.0066721947 -0.15697181 0.00079280976 -0.21932004 -0.049800523 -0.029142775
0.0965359 -0.030763093 -0.022947617 0.08583935 -0.0407402 -0.07259174 0.115365446 -0.068759024
-0.063078776 -0.10582576 0.14111926 0.04253305 0.01615446 0.017355278 -0.10091933 -0.12214878
-0.027228758 0.0024768657 0.0384401 0.06417951 0.08414602 0.15144598 -0.058649514 0.15553929
0.010679792 0.04591977 -0.16662702 -0.032170836 0.04355296 0.08882391 -0.057257246 0.0048838225
0.08544203 0.16691068 -0.09708819 0.018321306 -0.015909672 -0.04162773 0.11559018 -0.078305624
-0.044460412 -0.010809415 0.0725208 -0.059497602 0.15992577 -0.061071202 -0.056246657 0.056674916
0.027738871 -0.025202954 0.011512566 0.033112608 0.019534212 -0.05268099 0.0014222073 -0.06144228
-0.2072062 0.009344317 -0.00028286083 0.041607726 0.04947196 0.13433452 0.031144684 0.02641827
0.104233176 -0.04035003 0.07137957 -0.019629985 -0.19667274 -0.0647297 0.12297442 0.002424856
0.060849737 0.08637643 -0.017397473 0.019661462 0.101479806 0.019414132 0.0067484756 -0.021696629
-0.09571494 0.03906924 -0.008741154 0.031541523 0.036905333 0.068019845 0.15910512 -0.07917863
-0.034673993 0.010680496 -0.13641797 0.14697982 0.009644376 -0.055447366 0.0055911583 0.02897919
0.10739823 -0.05544371 -0.11182153 -0.09655599 0.113764174 -0.13689832 0.086956926 0.17110176
-0.06612182 -0.0022408466 -0.06633531 -0.021782272 -0.036662683 -0.054391406 0.042862207 -0.050096046
-0.10496654 -0.0074645947 -0.047483638 0.06954646 0.20076647 0.08850999 -0.05297829 0.15695772
0.13473168 0.19491945 -0.16124916 0.04784748 0.03377956 0.02214135 0.015675697 -0.046076242
0.03393779 0.042145133 0.078128055 0.02292986 -0.053176768 0.056264214 0.025947947 -0.049991302
-0.014569182 0.0060434286 0.13847457 -0.0087457625 -0.15682542 0.0974225 0.013665201 -0.08669231
-0.07914836 0.09374527 -0.14011428 0.09387558 -0.056635182 -0.061086524 -0.06438843 0.009226381
0.015661791 -0.07095828 0.0041931234 -0.058781356 -0.081717916 -0.09924373 0.11818417 -0.021600842
-0.024728194 0.0670141 -0.0993477 0.06717753 0.03265764 -0.021695795 0.069071904 0.122525916
0.015045595 -0.079327025 -0.11062622 -0.19029213 0.030729886 0.021118889 0.08526908 -0.1155545
0.0667646 0.047179297 -0.02673548 -0.003204141 0.06960144 0.02039618 0.0073473174 0.13084294
-0.030185262 0.05238086 -0.037424378 0.23063855 -0.10645462 -0.079052225 -0.023758275 -0.036420546
-0.068514094 0.12432548 0.10222891 -0.091206595 -0.064161584 0.16246212 -0.047614142 -0.048283808
0.007795263 0.17406765 0.009500164 -0.14130472 0.08472552 0.04042893 0.06295012 0.007336612
-0.023969427 -0.04821354 0.12915683 -0.0050903116 -0.091843344 -0.15313053 -0.029977597 0.085637026
0.02562705 0.0410578 -0.1517087 -0.107652195 0.062241174 -0.024425585 -0.21643528 -0.09742774

manager.M_goals.bias f4 [64]
00000000: 23aa 0139 30a6 2bbb 1cd2 4f3b 9fd2 213b
00000010: b667 86bb 046f 86bb 74bf 413b dc4a 2cbb
00000020: 2610 8bbb 5ee4 463b 8bf8 383a ae3c 373b
00000030: af2e 2a3b 6cc4 51bb bb19 dc3a 3710 31bb
00000040: 0f18 bebb 5b97 3e3b 8e41 3a3b 6057 e3b8
00000050: 2bb3 36bb d802 c839 fa16 1c3b 5e0d 603b
00000060: 2f7d 01bb dadc 7cbb 0d95 5abb caa4 253b
00000070: ed85 1a3b c95c 5e3b 58e2 7abb 8d73 18bb
00000080: cf43 bdbb b08d ebba 5a51 3fbb 2de7 773b
00000090: 723f 94bb 416e 15bb 3b2a 70bb 5a34 303b
000000a0: e269 eb3a a910 a9ba da07 62b9 bd56 fcb7
000000b0: bb84 7e3b bb6e 45bb 2ab3 08bb 48a6 3bb9
000000c0: 9124 993b 2147 04bb 801b 613b 96f0 5b3b
000000d0: de56 76bb 2e88 323b 287c 6e3b 05bd 453b
000000e0: 83e1 a33b c4d9 9fbb b627 22bb 15d1 243b
000000f0: 7d54 113a b0a2 093b 2df3 583a f7b1 1b3b
0.0001236578 -0.0026191585 0.0031710928 0.002469219 -0.004101719 -0.0041025896 0.0029563578 -0.0026289737
-0.0042438684 0.003034852 0.0007056079 0.0027959752 0.0025967767 -0.0032007946 0.0016792336 -0.0027017721
-0.005801208 0.0029081914 0.0028420421 -0.00010840478 -0.0027877789 0.0003814909 0.0023817406 0.0034187655
-0.0019758453 -0.0038583786 -0.0033353001 0.0025275224 0.002357836 0.0033929816 -0.0038281884 -0.0023262233
-0.0057759057 -0.0017971303 -0.0029192776 0.0037827 -0.004524165 -0.0022801312 -0.0036646265 0.0026886673
0.0017960633 -0.0012898642 -0.00021555964 -3.0081132e-05 0.0038836438 -0.0030125815 -0.0020858743 -0.00017895654
0.0046735485 -0.0020183998 0.0034348667 0.0033560148 -0.0037588398 0.0027241814 0.003638992 0.003017248
0.0050012483 -0.0048782546 -0.0024742908 0.0025149037 0.0005543901 0.002100151 0.0008275982 0.0023757198

manager.M_value.0.weight f4 [32, 64]
00000000: 2e96 173e f757 273e af62 1abe bb8e 1e3e
00000010: 4a1e 2b3e 35b2 00bd 2d62 06bd 0097 ff3c
00000020: 15e0 0abe 66f9 9fbd 1746 9bbe 2a09 0b3e
00000030: 27b6 143c d097 44ba cc8e a43d 97c9 3fbd
00000040: af02 b23d 245d 08bd b42e e2bc 2887 88bc
00000050: 4966 fa3b 96e4 15bd 721e 00be b346 573e
00000060: 310a d0bc f9dd 903e e144 b43d 5cae 73be
00000070: 9864 273d e12c 3d3c 2859 24be 6902 2a3e
00000080: d05e 0d3e d6d9 083e 10fa 49bd 92b5 bbbd
00000090: 7345 d23d 925b 65bd 2109 aabc a0e3 b43d
000000a0: dbce 103e 54cf aa3d 2758 e4bd 56ce 1dbb
000000b0: 83e4 26be 8919 49be 137a 493d cc2a 3b3e
000000c0: 2f7f bb3d e32b 73bd 0e82 e23d 2b9f 8a3d
000000d0: 2421 643e 8bac a43c a9db 15be 1be1 b9bb
000000e0: 58bf 4dbe a695 8b3d 6195 bcbc 8ad3 783d
000000f0: daed 00be 1903 45be 0e7d f73d 46da 273e
00000100: 5294 29be b598 523e db61 0abd c17c 32bd
00000110: a199 d43c bcc6 453d 6b47 1abe 6288 283d
00000120: e3f7 2bbd c1a4 aabe aefc de3d 4a76 563d
00000130: 6db9 a9be 31b0 c73c 9c5b 28bb 7794 cabd
00000140: 6c45 653d eee0 7f3c 7421 2e3e 8509 4cbe
00000150: cce0 15bc 2674 913d 0923 cb3d 27b0 343d
00000160: dc64 ddbb d4ad 91bd d5f9 e13d ce40 32be
00000170: f260 1abe 2731 73bd 8203 21bd 43e3 613a
00000180: c807 1a3e b7fe 5b3b d735 d13d c3a4 293e
00000190: 8d91 093e 85dc 453e bb14 f63c 479a 87bd
000001a0: c746 8a3c e728 453c 9de8 913e 508f d63d
000001b0: 2b3c 75bd 0c5a b13d e332 823e 822f d7bd
000001c0: 2f3e 35be 38ea 143d 0015 d83c fd73 14be
000001d0: c678 a6bd 56b6 753d d0f2 003e 86df 11be
000001e0: d0bb 533d 48b0 723d fc92 dc3d fa8b 013e
000001f0: e8fe 3ebe 7e67 c8bd f8f7 583d 01f1 88ba
00000200: 74b9 11be e0d0 b5bd 9249 153d 3d64 503e
00000210: 544b 8a3c 2dde 11bd f7d6 2b3c 8412 233d
00000220: 6c2d f23d ed01 753e 2272 3bbd 4e12 113e
00000230: 1529 20bd bfa7 373d fad2 44bb 0019 cdbe
00000240: 7a8a 9bbc afdb 273e 1cad 33bd bdf2 843d
00000250: f6cd 84be d7a7 253e 8554 1b3e 94d6 113e
00000260: 12b7 063e a0f3 8bbd 7c15 a8bd a84a feba
00000270: 3d5c 313e 8189 563e 4c1d 243d 80d1 96bc
00000280: 9d34 183e 57af d63d 33a3 f6bd 2368 babd
00000290: 4a64 313d c635 f1ba af68 c4bb f469 273e
000002a0: 9197 ff3d 3227 273e b610 753d 10c6 c43d
000002b0: 0fb2 243e bcee 963d d170 24bd 43a3 26be
000002c0: 2aa4 0f3e a1bd d93d 8d5a 1cbe b7fd 773b
000002d0: ca1d dbbd ffb5 90bc a010 aa3d 0239 9abc
000002e0: 9497 b8bb 66a5 ddbc 9780 3a3e 8761 8abb
000002f0: 011a 0bbe 385f f33c f425 cfb8 4a20 883e
00000300: b7ba 3c3e ed67 9cbd 81c2 953e f9b1 423d
00000310: 9b8b 48be a57a 10bd 1bdf 1ebe 146d bf3c
00000320: 744a 37bb 2b12 94bd d560 2d3e 0d23 a63d
00000330: 2dcc b33c a07e 84bc fc55 853d 495b 4a3e
00000340: c0b8 6b3c 3a5c 743c 6bd2 27be 0acb a63d
00000350: c253 69bd 85df 043b 07a3 07be ae7c e9bd
00000360: 7893 a7bc 1e0e 843e dba4 8bbd 82c2 58bd
00000370: 9964 4bbe 5e49 3d3e 7c2d b8bc ba19 6d3d
00000380: 7d6e 07bd 7483 d13d 20e5 02be c0dd 42bd
00000390: d491 8d3d 8b2d 583d b21a 78bc f9c8 6cbd
000003a0: 99d0 5c3c eb1a a9bd a8b0 fe3d b6ce c3bd
000003b0: 754a 753d 835e 763e f136 223e f612 0c3c
000003c0: 024e 913e 6ea1 1a3e 8b0f efbd 8507 d03c
000003d0: a090 93bd fd04 483e e4fc 63be fc08 ec3c
000003e0: beda 89bd 4fca 783c 5634 893e 5f20 483e
000003f0: e199 d3bc da17 9a3c 748d aa3d c397 90bd
0.14803383 0.1634215 -0.15076707 0.15484135 0.16710773 -0.03141995 -0.03280847 0.031199932
-0.13562043 -0.07811241 -0.30326912 0.13577715 0.009076632 -0.00074994285 0.08035049 -0.04682311
0.08691918 -0.03329195 -0.02761016 -0.01666601 0.007641588 -0.03659495 -0.12511614 0.21023063
-0.025395485 0.28294352 0.088022 -0.23796982 0.040867418 0.0115463445 -0.16049635 0.16602482
0.138057 0.13364348 -0.049310744 -0.09165491 0.10267153 -0.05599553 -0.020756306 0.088324785
0.14141409 0.08340326 -0.11149626 -0.0024079285 -0.16298108 -0.19638647 0.049188685 0.18278044
0.09155118 -0.059368026 0.11059962 0.0676864 0.22278267 0.020101806 -0.14634575 -0.0056725866
-0.20092523 0.068156525 -0.023020448 0.060748614 -0.12590733 -0.19239463 0.12084399 0.16391858
-0.16560486 0.20566066 -0.03378473 -0.043576006 0.025952162 0.04828523 -0.15066306 0.04114569
-0.04198445 -0.33328822 0.108880386 0.052358903 -0.3314928 0.024376007 -0.002568937 -0.09891599
0.05597441 0.015617592 0.17004949 -0.19925506 -0.009147834 0.07102232 0.09918792 0.044113304
-0.006756408 -0.07113233 0.1103398 -0.17407534 -0.15076044 -0.059373047 -0.039309986 0.00086169335
0.15042031 0.003356857 0.10215347 0.16566758 0.1343443 0.19322403 0.030039182 -0.06621223
0.016879452 0.012033678 0.28497782 0.104765534 -0.059871834 0.08659753 0.25429448 -0.10507108
-0.17699502 0.03635618 0.026377201 -0.14497371 -0.081285045 0.059988342 0.12592626 -0.14245424
0.051692784 0.059250146 0.107702225 0.12651053 -0.18651927 -0.097853646 0.052970856 -0.0010447801
-0.14230901 -0.0887773 0.036447115 0.20350738 0.016881622 -0.035612274 0.010488263 0.03981258
0.1182507 0.23926516 -0.045763142 0.14167139 -0.03910168 0.04483771 -0.0030032978 -0.40058136
-0.01898693 0.16392396 -0.04386626 0.06491611 -0.25938386 0.16177307 0.1516896 0.14242011
0.13155773 -0.06833577 -0.08207223 -0.0019400911 0.17320342 0.20950891 0.040067002 -0.018410444
0.1486382 0.10482662 -0.120428465 -0.09101894 0.043308534 -0.0018402867 -0.0059939246 0.16349012
0.12480081 0.16323546 0.05983039 0.0960809 0.16083549 0.07369754 -0.040146653 -0.16273217
0.14027467 0.10631872 -0.15268917 0.0037840435 -0.10699041 -0.017664908 0.08303952 -0.018826012
-0.005633304 -0.027056407 0.18213116 -0.004223052 -0.13584138 0.02970849 -9.8775985e-05 0.26587135
0.18430601 -0.0763701 0.29249957 0.04753301 -0.19584505 -0.035273213 -0.15514795 0.023367442
-0.0027967962 -0.07230028 0.1693147 0.08112154 0.021947945 -0.01617366 0.06510541 0.19761385
0.01438731 0.014914567 -0.16388862 0.081441954 -0.056964643 0.002027483 -0.13245784 -0.11400734
-0.02045606 0.2579202 -0.06818553 -0.052919872 -0.19862594 0.18485019 -0.022482626 0.057885863
-0.033064354 0.10230151 -0.12782717 -0.04757476 0.0691258 0.05277781 -0.015143083 -0.05780885
0.013477468 -0.08257087 0.12436038 -0.09560911 0.05988546 0.24059491 0.15841271 0.0085494425
0.28379828 0.15100643 -0.116728865 0.02539421 -0.072053194 0.19533153 -0.22264439 0.028812878
-0.06731175 0.015184953 0.26797742 0.19543599 -0.025830211 0.018810201 0.08327761 -0.07060196

manager.M_value.0.bias f4 [32]
00000000: 9fb2 3fbb c1dc c1bb b76a 4a3b 246f 2dbb
00000010: d94d 6cbb 68ad 65bb f1b6 4d3b 16e8 e339
00000020: a9b5 653b 175d 82bb 4796 5abb feba 43bb
00000030: 179b 033a a22f 77ba 8c7a 53bb a227 3d3b
00000040: 1c22 263b 6dcf 78bb 6f72 4a3b b926 7d3b
00000050: 3265 4c3b 4836 57bb b7bb 6bbb ae12 85bb
00000060: 53b4 283b 4275 573b a389 4a3b 39fd 18bb
00000070: 32e0 eab9 481f 6fbb abb2 4d3b f8d3 f23a
-0.0029250754 -0.0059162085 0.003088636 -0.002646395 -0.0036057143 -0.0035045985 0.003138956 0.00043469731
0.0035050905 -0.0039783823 -0.0033353732 -0.0029866095 0.00050203636 -0.00094294 -0.0032269089 0.0028862734
0.002534992 -0.0037965432 0.0030890962 0.0038627817 0.0031188247 -0.003283875 -0.003597004 -0.0040610647
0.0025742247 0.0032876288 0.0030904792 -0.0023344292 -0.00044798997 -0.003648715 0.0031387012 0.0018526306

manager.M_value.2.weight f4 [1, 32]
00000000: 46f6 e93d 73f1 443e 79bb adbe 8d58 073e
00000010: 2fa7 673e b921 d33d 34cd 62bd 8b1d 33bc
00000020: 742a 64be 40dc 2a3e c2d0 0b3e 47d9 e73d
00000030: e326 52bd 01f9 8f3d 4288 ef3d ed56 94bd
00000040: 15ac a6bd fb08 ab3d bd33 19bd 3d79 5ebd
00000050: 06a8 0abe 81ca 203e 2b06 a03e deb7 a73e
00000060: c4d8 c7bc f4c3 75be 0901 58be ad6f 753d
00000070: 607f 4bbe d6d2 d83e 4b9b 78bd fde6 8fbd
0.11423926 0.1923273 -0.33932093 0.13217373 0.22622369 0.103091665 -0.05537148 -0.010932337
-0.2228182 0.16685581 0.13653854 0.11320739 -0.051306617 0.070299156 0.11695911 -0.07243142
-0.08138291 0.08351322 -0.037402857 -0.05431484 -0.13540658 0.15702249 0.31254706 0.32757467
-0.024395354 -0.24000531 -0.21094145 0.059920955 -0.19872808 0.42348355 -0.060694974 -0.070264794

worker.f_stateW.0.weight f4 [128, 64]
00000000: c482 7f3d 1a56 4e3d 2f36 55bd d7bb 1dbd
00000010: a039 b0bd 646f 5e3d 1631 29bc 678e 4fbe
00000020: 9247 c63d 812e a9bd 84f4 a3ba e571 97bb
00000030: 86fd 3dbc aa0c df3c c25c 073e 0911 e1bc
00000040: 61bf be3d 6863 9cbb aa4b 6c3e 22d1 b7bd
00000050: 3560 e4bd 8ea0 f5bd 5925 08bd ca75 af3c
00000060: b0c2 5c3e 115e c1bd 799f 1c3e 834e f6bd
00000070: 5b92 eabc d8d7 febc aaec 9a3d 289a 403d
00000080: 5f86 ca3d 9e5a 503d 82b0 ad3b 3a5e 9c3c
00000090: 7605 debc 3381 b9bc 47cd 8a3d a169 91bd
000000a0: 10e1 18be 3527 7d3d 811e a73d f02a 3c3b
000000b0: 462e 43bd a7b1 143d 4e52 f9ba a695 663d
000000c0: 6a7a 5bbd 1744 fcbd 9bc1 793d 3976 833d
000000d0: aa62 fc3d 7269 7ebd 35dd 653d f6b5 1cbe
000000e0: 874c 47bc d31e ee3c 276c 16be dc64 2d3c
000000f0: 3878 943c 170a fc3d 32cb 123d fc2f b8bc
00000100: 55bd 2f3d 1f92 083d 8ed6 0dbe dc51 4cbd
00000110: fb43 c0bd 95fe 903c 8921 c43d 0be5 1a3d
00000120: 3f28 e33d 97e5 703d 094e fa3c a093 e9bd
00000130: 8d94 c4bb cf2b cfbd 4f8e 973c 0b05 1a3b
00000140: 9321 a33d e059 493d 112a 44bd c997 2f3d
00000150: e0ff 8b3d d368 6ebb aefe 883d 0e83 dbbc
00000160: f754 89be a940 cabd f40b ae3d d8f2 c7bd
00000170: c312 af3c e4af 213e 8d15 ee3c 1fe4 95bd
00000180: c608 bcbd 6a89 bbbd cb46 00bc c012 63ba
00000190: de7b 1ebd 4dee b1bd a5d9 cb3c d6cd a8bd
000001a0: 1f6f 2d3d a7a4 eabd afa9 11bd 3839 a73d
000001b0: 86b3 093c 7b59 a63d 4393 35be 12ff d6bd
000001c0: 5b5c 373e 59d6 b83b 777a c93d 7d01 0dbe
000001d0: 39de 143e add8 123c b198 c0bd 884e 173e
000001e0: 827f 083d e216 e73d ee99 da3d 96d2 023e
000001f0: d008 103c ac95 c93d 4bd0 933d bfa4 95bd
00000200: 8b42 41bc 9dfd 9cbc 5874 0bbe 5c2e 293e
00000210: c61c cabd 6f29 fdbc 22fc dfbd 31be b43c
00000220: b882 de3d c249 9bbc 1409 873d 8246 e3bd
00000230: 2b04 91bd df7a 1e3d e001 a2bc 2c5e 40bd
00000240: 3a80 51be a51e 6cbd 1f60 1abd 79bc dabd
00000250: 15ea 9b3d 2e94 543d 317e 843b 892b 253e
00000260: 7d29 ee3d c002 873d 31af 253d 7522 8a3c
00000270: 0afb 583d 3bbd 82bc c221 ed3a 2c3d b73d
00000280: b095 debd 1f6d 9abd a5a2 54be 7b5f d0bc
00000290: e427 46bd 253b af3c a0eb ba39 b07c 0b3d
000002a0: ec66 88bd dbd0 373d a3c4 85bc 7f59 c73d
000002b0: ede2 d8bd e694 293d 6a7c b93d 045b adbd
000002c0: fffa 4c3d 697a ae3d 3d23 fe3d 2162 933c
000002d0: 7548 963d 765d 0fbd e1bf 2ebe c981 02be
000002e0: ce0e 253d 4217 e5bc 60bd 463d ec22 af3c
000002f0: a03e 77bd c7b9 b4bd f4e0 3b3d 7aa8 253e
00000300: 70f3 0cbe 3cb4 84bc a80f ed3d b1d2 a13d
00000310: 6ca3 85bd af1b efbd a6e3 b4bd a5b4 e039
00000320: 39c8 103c 8a46 3abd 5da2 783d 4e0f 17be
00000330: 7f59 10be 40be 82bd d0fa b6bd 4264 4c3e
00000340: 39c1 f9bc 188c 0d3d 4231 08be 17ac 673c
00000350: a5aa 2ebe 881d e9bc cf16 3cbe 2a13 56bd
00000360: a0a4 c5bd 507e 78bd bdbf 543d 626f 2dbe
00000370: cceb 8abd 81df 703d 70a0 1e3d dc03 4bbd
00000380: aa17 483d 33d6 ee3c 732f ad3d d27b 053e
00000390: 759f 153c c909 d33d 8b1d ea3c c003 ae3d
000003a0: 53a2 503c e469 c13b c052 f63d 36c8 11be
000003b0: c7fc 18be 475d b53d 0b11 653d 6e07 b23b
000003c0: 1b70 3dbe b080 213d c318 f03c 4682 e1bc
000003d0: c537 e4bd f14c 23bd 392f a5bb dbde d8bd
000003e0: 7a06 adbd c135 703d e69b 39bd 8824 edbc
000003f0: b847 ca3c 7151 27be 3f53 b13c e113 27be
0.062380567 0.05037508 -0.052053627 -0.038509216 -0.08604741 0.05430545 -0.010326644 -0.20269166
0.0968162 -0.08260823 -0.0012508784 -0.0046217316 -0.011596089 0.027227718 0.13218978 -0.027473943
0.093138464 -0.0047725923 0.23075739 -0.08975436 -0.111511625 -0.11993514 -0.033238743 0.02141847
0.21558642 -0.0944177 0.15295209 -0.12026694 -0.02863424 -0.031108782 0.07564671 0.047022015
0.098889105 0.05086767 0.0053005824 0.0190879 -0.027102213 -0.022644615 0.06777435 -0.07100225
-0.14929605 0.06180497 0.08160115 0.0028712116 -0.04765155 0.036302235 -0.0019021721 0.05629506
-0.05358354 -0.123176746 0.060975652 0.064190336 0.12323506 -0.06211228 0.056119163 -0.15303788
-0.012164242 0.029067433 -0.14689694 0.010583129 0.018123731 0.12306612 0.035838313 -0.022483818
0.04290517 0.033342477 -0.13851377 -0.049882755 -0.09387966 0.01769952 0.09576709 0.03781609
0.11091661 0.058812704 0.030554788 -0.1140511 -0.005999154 -0.10115778 0.018500475 0.002350154
0.07965388 0.049157977 -0.04789168 0.042869363 0.06835914 -0.0036378398 0.06689201 -0.02679589
-0.26822636 -0.09875614 0.08498374 -0.09763116 0.021371251 0.15789753 0.02906301 -0.07318901
-0.09181361 -0.09157069 -0.007829378 -0.0008662157 -0.038692348 -0.086880304 0.024884054 -0.08242385
0.0423423 -0.11457186 -0.035562214 0.081652105 0.008404618 0.08122536 -0.17731957 -0.104978696
0.17906325 0.0056407866 0.098378114 -0.13770099 0.14537896 0.008962792 -0.094041236 0.14776051
0.033324726 0.112836614 0.10673891 0.12775645 0.008791164 0.09843001 0.07217463 -0.073068134
-0.01179565 -0.019163901 -0.136186 0.16521591 -0.09868769 -0.030903546 -0.109367624 0.022063347
0.108647764 -0.018956069 0.065935284 -0.11097433 -0.07080873 0.038691398 -0.019776285 -0.04696481
-0.20459071 -0.057646412 -0.037689324 -0.106804796 0.07613007 0.051899128 0.0040433635 0.16129889
0.11629007 0.065923214 0.04045028 0.016862134 0.052973785 -0.015959373 0.0018091726 0.089472145
-0.108683944 -0.075403444 -0.20765169 -0.025436154 -0.048377886 0.021390507 0.0003565224 0.03405446
-0.06660256 0.044876914 -0.016329115 0.09733867 -0.10590158 0.041401766 0.09056933 -0.084646255
0.050044056 0.08519442 0.12409065 0.017991127 0.07338039 -0.03500124 -0.17065383 -0.12744822
0.040297322 -0.027965192 0.048520446 0.021378957 -0.06036246 -0.08824497 0.04586883 0.1617755
-0.13764739 -0.016199224 0.11575252 0.07901514 -0.06525311 -0.11675202 -0.08832483 0.000428592
0.008836799 -0.045477428 0.060701717 -0.14751932 -0.1409664 -0.063839436 -0.089345574 0.1996012
-0.030487644 0.034557432 -0.1330004 0.0141401505 -0.17057283 -0.028456464 -0.18368076 -0.05226437
-0.0965054 -0.060667336 0.05194067 -0.1693702 -0.06783256 0.0588069 0.038727224 -0.049564227
0.048850693 0.029154873 0.08456316 0.13035515 0.009132256 0.10304601 0.02857854 0.08496809
0.012734014 0.0059025157 0.12027502 -0.1423653 -0.14940177 0.08855682 0.055924457 0.0054330146
-0.18499796 0.039429367 0.029308682 -0.02752794 -0.1114345 -0.0398683 -0.00504103 -0.10589381
-0.08448501 0.058645014 -0.045314692 -0.028948084 0.024692401 -0.16339661 0.02164614 -0.16316177

worker.f_stateW.0.bias f4 [128]
00000000: 496d d93b 3f77 7b3b e836 81bb d8b7 fd3a
00000010: fc38 14bb b63d d5ba 87d9 cfbb a266 27bb
00000020: ca53 8a3b aa69 ad3a 672b 873b e5af d13b
00000030: f674 463b 8040 a2bb c12d d7bb db80 98bb
00000040: d56c c0bb 8a20 a43a 075c 403b 0a3c ad39
00000050: 7925 4ebb 8909 03bb 42c7 9d3b 4b24 b03b
00000060: f23b 11ba b329 9cb9 c751 a43b 5921 383b
00000070: 41c9 8fbb 7697 35bb db82 6c3b 1f2e 63bb
00000080: 0db5 54bb 057f d33a c4b7 40bb 029a ce3b
00000090: c721 37bb 2fe1 613a 37d0 813b 22d7 80bb
000000a0: 086e f5bb ca0d 653a 4fa9 8ebb 9440 a8bb
000000b0: 3e10 6abb ee98 d43b cfb3 0b3b e3f9 9f3b
000000c0: b658 933a 5c3b d7b9 3f1c a5b8 4fc4 e53b
000000d0: a8f6 8dbb 0ebb 233b 3870 a53b 2765 813b
000000e0: e8d8 eb3b 6e8a 98bb 1b17 6f3b 1e03 853b
000000f0: ffe6 d33b 55c2 87bb 692f abbb 1813 2f3a
00000100: 13cb a13b 6b6f bd39 d7f8 023c 1ca2 00bb
00000110: d2ee 2f39 e83f 3b3b 17e6 d63b 0660 01bc
00000120: b691 ba3b 61f9 80ba e549 b5bb 4d8e db3b
00000130: 1c64 bf3a 8b67 16bb ff8e 87b9 cfd1 8d3b
00000140: 4b83 f7bb 5ad2 c13b 9610 aa3b 5b0a 0dbb
00000150: e13a 9e3b e5d0 753b 9a8a f0ba 5e79 9abb
00000160: 102f 6d3a 1923 c4ba 84c1 233b 56fd adbb
00000170: f4c1 98b9 756e e5bb 9f6e ba3b b5d3 a7bb
00000180: 5518 d73a 94bd 6bbb 8649 d1b9 96ed f73a
00000190: e3b4 283b 27b6 8dbb 50ed 9a3a ebe1 303a
000001a0: 3cfb 9fbb 91b4 1b3b 965f 813b f90d 16bb
000001b0: 1bad d3bb 1db1 02ba 8ae2 953b 5d9b 833b
000001c0: baba 153b a242 7ebb 88df a5bb 960c b9bb
000001d0: 0e20 5bbb 0209 bdbb 7a2a b23a ea66 083b
000001e0: 5219 d73b 57d7 abbb 73a8 4dbb 15d6 b5ba
000001f0: 9802 e5ba df29 3dba 9648 0ebb e133 7b39
0.0066353423 0.0038370637 -0.003943313 0.0019357158 -0.0022616973 -0.0016269002 -0.00634307 -0.0025543352
0.004221414 0.0013230343 0.004125047 0.006399142 0.0030282116 -0.0049515367 -0.0065667336 -0.0046540326
-0.005872349 0.0012521904 0.0029351728 0.00033041864 -0.003145544 -0.0019994697 0.004815013 0.00537542
-0.00055402436 -0.00029785707 0.0050146314 0.0028096049 -0.004388005 -0.0027708686 0.0036088738 -0.0034664941
-0.0032456547 0.0016135877 -0.0029406408 0.0063049803 -0.0027943717 0.0008616624 0.0039615887 -0.003931896
-0.0074899234 0.00087377115 -0.0043536793 -0.0051346514 -0.0035715248 0.006487957 0.002131689 0.0048820837
0.0011241648 -0.00041052222 -7.873074e-05 0.007011927 -0.004332382 0.002498332 0.005048778 0.003948826
0.007197488 -0.004655174 0.0036482278 0.0040592095 0.006466746 -0.004143039 -0.0052241576 0.00066785654
0.0049375384 0.00036131902 0.007993898 -0.0019627875 0.00016778268 0.0028572027 0.0065581906 -0.007896429
0.0056936396 -0.0009839946 -0.0055324906 0.006700313 0.0014601978 -0.00229499 -0.00025855747 0.0043279896
-0.007553493 0.0059149684 0.0051899655 -0.0021521065 0.0048287963 0.0037508544 -0.0018351853 -0.004714175
0.00090478454 -0.0014964073 0.002498717 -0.005309741 -0.00029136206 -0.007001693 0.0056894566 -0.005121673
0.001641045 -0.0035971152 -0.00039918366 0.0018915411 0.0025742583 -0.0043246928 0.0011819992 0.00067475316
-0.0048822444 0.002375875 0.0039481623 -0.0022896512 -0.0064598448 -0.00049854984 0.0045741247 0.0040163235
0.0022846893 -0.003879704 -0.0050620474 -0.0056472523 -0.0033435854 -0.005768896 0.0013592981 0.0020813295
0.0065642977 -0.0052441764 -0.003138092 -0.0013873006 -0.0017472086 -0.0007216017 -0.0021710745 0.00023956552
