vwgym/saved_model/vwgym_f_net_step_4700000.pt (torch_old, 382117 bytes, 57 tensors)

f_percept.percept.0.weight f4 [16, 3, 3, 3]
0.06689222 -0.06957089 -0.0934493 -0.2587695 0.12111841 0.0697938 -0.32498878 -0.15212303
-0.21051575 0.30498266 -0.13397391 -0.4429952 0.0051675495 0.08421838 0.291004 -0.016305694
-0.21054232 -0.16804986 0.21680419 -0.3228888 0.087486245 -0.18019141 -0.0044842134 0.0057660635
-0.1149501 0.19116655 -0.10021067 -0.23530124 -0.05207646 0.28661826 -0.09323938 0.01701049
0.17254768 -0.23425926 -0.12872727 0.18167979 -0.06633889 0.4031021 0.010200683 -0.0055684517
0.18683001 0.22253284 -0.2774679 0.096946575 -0.26480493 -0.18520434 0.04681423 -0.14871396
-0.09849536 0.33464172 -0.23808296 0.053532165 -0.0109814685 0.26074994 -0.121626385 0.15029253
0.28542936 0.2638606 -0.06674973 0.11374397 -0.02475445 0.13418281 -0.20928231 0.21117869
-0.05282451 -0.123350345 0.045275025 -0.037680835 -0.11512612 -0.004993741 0.04508072 0.1981363
0.2892754 -0.09225269 -0.23475492 -0.11860118 0.47401193 0.39374968 0.12804027 -0.2273454
0.023659723 0.1262011 -0.1801392 0.016964447 0.2214159 0.3037688 0.1529586 0.10480411
-0.18612535 -0.018280985 0.3655868 0.13606225 0.14359091 -0.14428127 0.032749698 -0.15152286
-0.25523248 -0.11977008 -0.11943416 0.08784297 0.28338024 0.09398873 0.0470214 0.09567544
-0.15195994 0.07732525 -0.07144459 -0.5352948 0.29030883 -0.056082632 0.033068363 -0.10339497
-0.19092041 -0.43345222 -0.012586576 0.090915464 0.29728913 0.05733714 -0.12874214 0.117547564
-0.3903515 0.08617091 0.08316874 0.15221536 -0.2759061 0.013284497 -0.021631079 0.08401456
0.053088065 -0.3634261 0.34710807 -0.06055327 0.07997709 -0.07432774 -0.00016227455 0.2324026
0.2362482 -0.15788914 -0.33657926 0.32732633 0.15488324 -0.03998577 0.054841775 0.16137971
-0.24236822 0.1986874 -0.028274111 -0.13579652 -0.07016681 0.017592838 0.1363495 0.22197291
0.14032224 0.21866356 -0.080566004 0.11972905 0.22202843 0.2766881 0.065336406 0.38049147
0.15278473 -0.1164855 -0.08212954 -0.2854392 0.0013235458 -0.35136062 -0.2004648 0.014012451
0.09969847 0.22414304 0.218822 0.016097901 0.13735513 0.24393918 0.27771935 -0.12820742
0.068921484 0.003322829 -0.033451956 -0.30511317 0.1967021 -0.07718356 -0.32196894 -0.07382557
-0.10597794 0.3011449 0.07023067 0.015601162 -0.3293966 -0.070688576 -0.26368642 0.23049161
-0.09148436 -0.018196823 0.38883513 0.14796254 -0.44329804 0.122362524 -0.13434885 -0.2244107
0.07272135 -0.31572127 0.11368931 0.17602368 0.13947524 -0.14082485 0.21225145 0.15625452
0.04825047 -0.103405714 0.0071303584 -0.238066 0.16145647 0.17297491 -0.09756315 0.13566783
-0.4093824 0.10229267 0.012229539 0.0639337 0.1915228 -0.05567104 0.36426422 0.27403933
0.15075609 -0.05975343 -0.24777532 -0.113930166 0.03994963 0.060071584 0.19917047 -0.05894636
-0.111783184 -0.19100025 0.43519282 0.2697788 0.17881145 0.0045687836 0.06082829 -0.156508
0.0026801561 0.17820176 0.1341234 -0.087371536 0.23522891 -0.03443793 -0.17587592 0.056184832
0.030378912 0.34143245 -0.11715973 -0.38111183 0.26489136 0.17656715 0.3186239 -0.07565213
00000000: cafe 883d 2f7b 8ebd 5962 bfbd 707d 84be
00000010: ee0c f83d 0df0 8e3d ee64 a6be 24c6 1bbe
00000020: 7191 57be b026 9c3e 7530 09be 44d0 e2be
00000030: 8c54 a93b b07a ac3d 7afe 943e 8593 85bc
00000040: 6898 57be 4315 2cbe eb01 5e3e ae51 a5be
00000050: fd2b b33d 1984 38be 4ff0 92bb 3ff1 bc3b
00000060: f56a ebbd 2ac1 433e 403b cdbd cff2 70be
00000070: 204e 55bd a1bf 923e 4af4 bebd 9559 8b3c
00000080: 57b0 303e a9e1 6fbe 15d1 03be 440a 3a3e
00000090: afdc 87bd 6663 ce3e c420 273c 8f77 b6bb
000000a0: 5e50 3f3e a6df 633e 4610 8ebe ed8b c63d
000000b0: 8394 87be 35a6 3dbe 47c0 3f3d 7948 18be
000000c0: efb7 c9bd 2956 ab3e 05cc 73be 8b44 5b3d
000000d0: 9eeb 33bc 0481 853e 4117 f9bd 49e6 193e
000000e0: cc23 923e bd18 873e 15b4 88bd 99f2 e83d
000000f0: d8c9 cabc 3867 093e 1a4e 56be 3a3f 583e
00000100: 835e 58bd 1b9f fcbd 4e72 393d 3857 1abd
00000110: 3ec7 ebbd 89a2 a3bb 90a6 383d 3ee4 4a3e
00000120: e81b 943e faee bcbd 9863 70be 2de5 f2bd
00000130: b1b1 f23e 8f99 c93e fd1c 033e 3ccd 68be
00000140: 09d2 c13c dc3a 013e 6976 38be 06f9 8a3c
00000150: daba 623e 9687 9b3e 2ea1 1c3e 8aa3 d63d
00000160: a597 3ebe 01c2 95bc 312e bb3e e753 0b3e
00000170: 7f09 133e 78be 13be 8c24 063d cf28 1bbe
00000180: d5ad 82be 044a f5bd e699 f4bd 04e7 b33d
00000190: 3717 913e 2a7d c03d 8399 403d 7cf1 c33d
000001a0: 639b 1bbe b35c 9e3d 8b51 92bd 1409 09bf
000001b0: 5ca3 943e e7b6 65bd b172 073d bec0 d3bd
000001c0: a480 43be 73ed ddbe ed37 4ebc e331 ba3d
000001d0: 4836 983e 59da 6a3d fbd4 03be c7bc f03d
000001e0: 27dc c7be 607a b03d 5f54 aa3d 58de 1b3e
000001f0: 9043 8dbe 38a7 593c a933 b1bc d30f ac3d
00000200: df72 593d fc12 babe 26b8 b13e b506 78bd
00000210: 07cb a33d 2439 98bd 3e28 2ab9 f2fa 6d3e
00000220: 0ceb 713e b1ad 21be 1e54 acbe 5197 a73e
00000230: b699 1e3e 1ec8 23bd c5a1 603d b940 253e
00000240: 602f 78be b674 4b3e 1c9f e7bc 3e0e 0bbe
00000250: 9eb3 8fbd db1e 903c 349f 0b3e de4c 633e
00000260: a2b0 0f3e 57e9 5f3e caff a4bd 8134 f53d
00000270: 6c5b 633e 10aa 8d3e 18cf 853d c7cf c23e
00000280: 9a73 1c3e f38f eebd 8833 a8bd 1625 92be
00000290: d47a ad3a 8ae5 b3be a546 4dbe 7b94 653c
000002a0: b62e cc3d c185 653e e012 603e bfdf 833c
000002b0: d3a6 0c3e 31cb 793e 3b31 8e3e ce48 03be
000002c0: b526 8d3d d2c3 593b eb04 09bd cb37 9cbe
000002d0: 466c 493e 6a12 9ebd 1dd9 a4be dc31 97bd
000002e0: f60a d9bd aa2f 9a3e 19d5 8f3d 049c 7f3c
000002f0: aca6 a8be 2cc5 90bd e801 87be fe05 6c3e
00000300: 275c bbbd 8111 95bc 6615 c73e 7e83 173e
00000310: f6f7 e2be 3499 fa3d bf92 09be ebcb 65be
00000320: eeee 943d 38a6 a1be f1d5 e83d 8d3f 343e
00000330: 99d2 0e3e 6434 10be 7258 593e 2f01 203e
00000340: 49a2 453d 60c6 d3bd c8a5 e93b 93c7 73be
00000350: d854 253e 5620 313e 30cf c7bd 82ec 0a3e
00000360: 929a d1be d27e d13d 685e 483c acef 823d
00000370: 8e1e 443e 5107 64bd d780 ba3e e24e 8c3e
00000380: ce5f 1a3e 03c0 74bd d0b8 7dbe 3854 e9bd
00000390: 39a2 233d 9f0d 763d 58f3 4b3e bd71 71bd
000003a0: 95ee e4bd 9295 43be 98d1 de3e 7220 8a3e
000003b0: 591a 373e bcb5 953b 1627 793d a243 20be
000003c0: 8fa5 2f3b 867a 363e a557 093e d9ef b2bd
000003d0: d9df 703e c90e 0dbd d118 34be 1122 663d
000003e0: 32dd f83c 3cd0 ae3e 71f1 efbd 1721 c3be
000003f0: d79f 873e 05ce 343e ac22 a33e 81ef 9abd

f_percept.percept.0.bias f4 [16]
-0.0010437805 0.0004578589 0.0012380544 0.0015993196 -0.0014864472 -0.0013005247 -0.0011385066 -0.0006212792
-0.0008059757 -0.000822883 -0.00087264023 -0.00075747364 -0.000117860116 -0.0011470356 -0.00031620706 0.0007101066
00000000: 76cf 88ba c80c f039 3646 a23a 43a0 d13a
00000010: e4d4 c2ba 5e76 aaba f139 95ba 57dd 22ba
00000020: 1d48 53ba beb6 57ba e5c1 64ba 3291 46ba
00000030: ab2b f7b8 2158 96ba 98c8 a5b9 7226 3a3a

f_percept.percept.3.weight f4 [64, 16]
0.07160067 0.033591427 0.021228487 -0.16255005 -0.07461231 -0.058427874 -0.0650837 -0.14645307
0.05270254 -0.13464439 0.104829274 -0.0893129 0.010170592 -0.1424903 -0.14842665 -0.025257105
0.14815497 -0.13137975 0.15052617 -0.11043914 -0.04264592 -0.22510745 -0.15589704 0.14117423
-0.0385284 -0.0024434247 -0.0059632584 0.06397051 -0.106230885 -0.118626386 -0.27947202 -0.06993652
0.027186794 0.24030717 -0.05994771 -0.13522354 0.09689693 -0.022781674 0.16478679 0.07437544
0.08607363 0.061559845 -0.064761125 -0.08295907 0.2720053 -0.06347317 -0.20557098 -0.03827755
0.14635928 0.05743661 -0.058188673 -0.04057228 -0.09650477 -0.15735619 0.05441958 -0.17503922
-0.1019509 -0.2864213 0.017840648 0.09263609 0.07921138 -0.042727172 -0.0050399154 0.10716164
-0.124679014 -0.13782056 0.0750353 0.13513753 0.13112776 0.12714112 -0.18640102 -0.02017709
0.11422947 0.17886344 -0.24337946 0.029441513 -0.01888251 -0.41769165 0.028658755 -0.05427106
-0.1203426 -0.046812702 0.16135828 0.14432186 0.07250849 -0.016272299 0.13867348 -0.16351575
0.053731587 -0.12072606 0.19065534 -0.13136362 -0.10825926 0.029572386 0.09711372 0.13748522
-0.0989964 -0.05111066 0.124996215 0.07301437 -0.13049777 0.16767423 0.04331284 0.12598732
0.13644357 0.0015110273 0.06183439 -0.057774723 0.025937812 0.059114717 -0.09350831 -0.06265267
-0.103000775 -0.08082737 -0.29191235 0.16028416 0.16002518 -0.04484078 -0.27565482 -0.017554069
-0.20235543 0.08590098 -0.14038536 -0.039060477 -0.13001837 0.047878977 -0.040523697 0.14254439
0.015773589 -0.2233803 -0.10552767 0.08888637 -0.21524543 -0.14934367 0.11227488 -0.20869692
0.17314254 -0.14778212 -0.11349025 -0.18381198 -0.060289644 0.19739956 -0.07220872 -0.024940483
0.10497018 0.23734593 -0.012745547 0.10664239 0.14128673 -0.0291771 0.0337025 -0.1546962
0.07870816 0.108999826 -0.07635287 0.20320095 -0.023443345 0.016321672 0.09154008 0.024318488
0.06891378 -0.12454232 -0.02719435 -0.2266404 0.035034247 -0.09372936 0.1646789 0.027303671
0.11666465 0.024167301 -0.1861122 0.08585135 -0.14844643 -0.0004015066 0.15188566 -0.08667583
0.1152771 -0.07304173 0.17302886 -0.0441279 -0.059275422 -0.09206842 0.11800582 -0.11957428
-0.016837496 0.09416083 -0.08391753 -0.03906367 -0.032754205 -0.16692217 -0.014013554 0.21082172
0.098005645 -0.20925054 0.037597887 0.17438339 -0.06355005 0.02924069 -0.035476387 -0.25938883
0.03790691 0.09076557 -0.020840587 -0.23366709 0.07372959 0.14006948 -0.046805926 -0.010099139
-0.25283864 0.031112932 0.18076608 0.27161974 -0.011598151 -0.16443002 -0.018944213 0.12457864
0.13104671 0.029148685 0.032366324 -0.023932261 0.07120932 -0.06415996 0.05586843 0.08984036
0.13878539 0.046264738 -0.051381 0.1490515 0.1703319 -0.03008672 0.032808762 0.21253513
0.017219665 -0.08472159 0.068842284 -0.17974454 -0.080795 -0.17162661 0.015403904 0.0011178467
0.12934653 -0.15673102 -0.03145754 -0.2825796 0.28337348 -0.049024343 0.041732788 0.12064986
-0.0042302557 -0.015831335 0.17991231 0.008425324 0.07310219 0.23379172 -0.024716493 -0.024027871
00000000: 5fa3 923d 2a97 093d 5de7 ad3c 8573 26be
00000010: 57ce 98bd 1152 6fbd 9a4a 85bd cbf7 15be
00000020: 9ede 573d 38e0 09be bbb0 d63d afe9 b6bd
00000030: 8ea2 263c fae8 11be 28fd 17be fde7 cebc
00000040: f0b5 173e 6a88 06be 8823 1a3e ea2d e2bd
00000050: 7dad 2ebd 9182 66be 79a3 1fbe fa8f 103e
00000060: f5cf 1dbd dd21 20bb 7067 c3bb f902 833d
00000070: 948f d9bd 64f2 f2bd f516 8fbe e13a 8fbd
00000080: d7b6 de3c 1513 763e bb8b 75bd 0a78 0abe
00000090: e671 c63d a2a0 babc debd 283e 2752 983d
000000a0: 5f47 b03d 2d26 7c3d 7ba1 84bd 72e6 a9bd
000000b0: 4744 8b3e 39fe 81bd 3381 52be ecc8 1cbd
000000c0: 35df 153e a742 6b3d 3f57 6ebd 1e2f 26bd
000000d0: 4ba4 c5bd fb21 21be 11e7 5e3d 7b3d 33be
000000e0: a2cb d0bd d0a5 92be 8d26 923c feb7 bd3d
000000f0: 9339 a23d b002 2fbd e025 a5bb 9077 db3d
00000100: b657 ffbd d520 0dbe 1bac 993d 7e61 0a3e
00000110: 5b46 063e 4831 023e e9df 3ebe 6d4a a5bc
00000120: 24f1 e93d fa27 373e 7738 79be 542f f13c
00000130: 7eaf 9abc aedb d5be c4c5 ea3c 554b 5ebd
00000140: 2e76 f6bd adbe 3fbd 1b3b 253e 1cc9 133e
00000150: 557f 943d 7c4d 85bc 6c00 0e3e ac70 27be
00000160: a715 5c3d 393f f7bd 273b 433e 2f84 06be
00000170: 08b7 ddbd ca41 f23c 8fe3 c63d edc8 0c3e
00000180: a0be cabd 6959 51bd 04fe ff3d 8f88 953d
00000190: 35a1 05be cbb2 2b3e ce68 313d d202 013e
000001a0: ddb7 0b3e aa0d c63a 0f46 7d3d 30a5 6cbd
000001b0: 897b d43c 4622 723d 4981 bfbd 0b50 80bd
000001c0: 12f2 d2bd d288 a5bd 8975 95be 8821 243e
000001d0: a4dd 233e f7aa 37bd a122 8dbe 8dcd 8fbc
000001e0: 4336 4fbe daec af3d 2ec1 0fbe e1fd 1fbd
000001f0: 8923 05be bf1c 443d 2dfc 25bd 28f7 113e
00000200: 9d37 813c cebd 64be e41e d8bd 0f0a b63d
00000210: 4c69 5cbe 8ced 18be 5ff0 e53d a5b4 55be
00000220: 474c 313e 3254 17be 946d e8bd 3539 3cbe
00000230: 46f2 76bd 1c23 4a3e 2ae2 93bd fc4f ccbc
00000240: 9bfa d63d d00a 733e b3d2 50bc 5367 da3d
00000250: 78ad 103e d004 efbc a20b 0a3d ae68 1ebe
00000260: be31 a13d 4d3b df3d e55e 9cbd e913 503e
00000270: 420c c0bc 07b5 853c 5e79 bb3d 9137 c73c
00000280: ab22 8d3d 0b10 ffbd afc6 debc 6c14 68be
00000290: 1280 0f3d 2ef5 bfbd 96a1 283e f3ab df3c
000002a0: e0ed ee3d 81fa c53c 3294 3ebe d5d2 af3d
000002b0: 5702 18be 4e81 d2b9 ea87 1b3e 1983 b1bd
000002c0: 6616 ec3d e796 95bd 7a2e 313e 75bf 34bd
000002d0: c9ca 72bd 5e8e bcbd 09ad f13d 5ce3 f4bd
000002e0: caee 89bc 65d7 c03d f4dc abbd 3a01 20bd
000002f0: 4629 06bd a5ed 2abe 1b99 65bc a6e1 573e
00000300: 2fb7 c83d c645 56be 3e00 1a3d 8f91 323e
00000310: 8726 82bd 2c8a ef3c b04f 11bd 9dce 84be
00000320: 4744 1b3d 4de3 b93d e1b9 aabc 6d46 6fbe
00000330: 8aff 963d 606e 0f3e 92b7 3fbd dc76 25bc
00000340: 1174 81be 8ce0 fe3c be1a 393e be11 8b3e
00000350: 2c06 3ebc 5860 28be e530 9bbc 1623 ff3d
00000360: 1c31 063e 39c9 ee3c 8d92 043d 970d c4bc
00000370: 31d6 913d 4c66 83bd 4bd6 643d 39fe b73d
00000380: c21d 0e3e 1880 3d3d e274 52bd f5a0 183e
00000390: 7c6b 2e3e 6d78 f6bc 7b62 063d cfa2 593e
000003a0: 4110 8d3c 8382 adbd 2ffd 8c3d f40e 38be
000003b0: d977 a5bd e3be 2fbe a860 7c3c b684 923a
000003c0: 6b73 043e 197e 20be 9fd9 00bd 46ae 90be
000003d0: 5416 913e c0cd 48bd 00f0 2a3d 4617 f73d
000003e0: f59d 8abb b7b0 81bc ef3a 383e 5f0a 0a3c
000003f0: 9ab6 953d 1967 6f3e 3e7a cabc 19d6 c4bc

f_percept.percept.3.bias f4 [64]
-0.0021858066 0.0031985305 0.0029462797 0.002175624 0.0029284344 0.004709632 -0.0014382717 0.002487266
-0.0008888191 0.0034332208 0.0040154452 -0.003075303 0.0012184726 0.0042661233 0.00090886164 -0.004814462
-0.0020284245 -0.0030732704 0.0030791222 0.0006314837 0.0015138868 0.002018473 0.0026236172 0.00154108
-0.0006036797 0.00089598785 0.0038898115 -0.0021273713 -0.0043320274 -0.00083868805 0.002705835 -0.0036166923
0.0036725 0.004363992 3.165104e-05 -0.0014211457 0.0019511157 0.0029831324 0.0035640956 -0.0011502999
-0.0029847703 0.0004263177 0.0056868624 0.000831914 0.0006771709 0.0006035267 0.0036012835 0.0010634231
-0.00027626543 0.0071390355 -0.001565383 0.00438334 0.004264638 0.004921157 -0.0030646313 0.0019645127
-0.0016135046 0.003467877 -0.0048986766 0.0033479037 0.00014102683 0.005996562 -0.0011066186 0.0018766258
00000000: c03f 0fbb 709e 513b 5f16 413b ea94 0e3b
00000010: faea 3f3b 4253 9a3b 6484 bcba 6601 233b
00000020: a4ff 68ba e3ff 603b ff93 833b 068b 49bb
00000030: 28b5 9f3a d6ca 8b3b ac40 6e3a a2c2 9dbb
00000040: 51ef 04bb ec68 49bb 19cb 493b 278a 253a
00000050: 9d6d c63a 5c48 043b fef0 2b3b 10fe c93a
00000060: 4240 1eba bae0 6a3a 35ec 7e3b 5e6b 0bbb
00000070: aef3 8dbb 67db 5bba 6154 313b 0706 6dbb
00000080: 53ae 703b d1ff 8e3b 0cc1 0438 bd45 baba
00000090: 94bc ff3a a880 433b 9a93 693b a9c5 96ba
000000a0: 239c 43bb 6583 df39 dc58 ba3b ce14 5a3a
000000b0: 2b84 313a fe35 1e3a 8303 6c3b 8f62 8b3a
000000c0: b8d7 90b9 92ee e93b 8a2d cdba 1fa2 8f3b
000000d0: 60be 8b3b a841 a13b fbd7 48bb 0ebf 003b
000000e0: 3b7c d3ba 5245 633b 1485 a0bb 8168 5b3b
000000f0: 9ae0 1339 cf7e c43b f50b 91ba 1df9 f53a

manager.M_space.weight f4 [64, 64]
-0.03215347 0.120893225 0.31706047 -0.040805634 0.0690974 0.1782654 -0.052236706 0.18070258
0.18983735 -0.036740616 -0.027815968 -0.108474635 -0.12917969 0.13874426 -0.1424201 0.12340661
-0.012757868 0.042344414 -0.10977419 -0.13172969 -0.23577213 -0.017105209 -0.048816267 0.05886407
0.19260232 -0.08703478 -0.22762017 0.05134218 0.032422625 -0.24740343 -0.13210647 -0.046998087
-0.07799212 -0.0011150019 -0.041423034 -0.11964409 -0.18679877 0.12417653 0.0738957 0.19584057
-0.17353217 -0.08837078 0.26323316 -0.014710071 -0.037936624 -0.03673865 -0.093385115 0.027389856
-0.07108887 -0.12268307 -0.13553308 -0.020851536 0.10984586 -0.13172291 0.08117004 0.17603323
-0.13856725 0.07660396 -0.081015 0.13355584 -0.03993392 -0.011702264 -0.08813742 0.118136324
0.02499638 -0.0067284917 0.00058453565 0.110618785 -0.012611976 -0.033177026 0.17496887 0.21558383
0.10972381 0.096169 -0.046087485 -0.09943241 -0.011977891 -0.10524036 -0.04259764 -0.23497991
-0.08781976 -0.1049755 -0.045004427 -0.096207574 -0.04229517 0.048785277 -0.06841349 0.29474446
-0.09652877 0.1150061 -0.083923936 0.0074326023 -0.17750649 0.1566096 0.22179773 0.22435224
0.11622956 0.12845038 -0.017334715 0.11410032 -0.12001188 -0.01135048 -0.04661188 -0.10846919
-0.14280558 -0.015024896 0.050661042 0.042968813 -0.11757947 0.1531991 0.0120001 0.09533565
0.093125045 0.09685773 -0.41632533 0.09686299 -0.25570077 -0.06511417 0.18718976 -0.03700211
0.09793054 0.06275332 -0.11737384 -0.029405454 0.028309152 0.053784505 0.07786795 0.091159485
-0.14759403 -0.024287445 0.11873221 -0.0022330985 0.113028035 -0.1886327 -0.039162833 0.39866766
0.12786096 -0.15487112 -0.05063601 0.025510022 0.08609757 0.0022055584 0.070793845 0.0062084445
-0.039823275 0.20018446 -0.17454018 0.114996925 0.22659096 -0.039869033 -0.22707649 -0.21142134
-0.084820084 0.030157806 0.030976536 0.026122384 -0.13473867 -0.06669539 0.08324333 0.13867144
0.12624098 0.07914987 0.00048336736 0.104208134 0.014489329 0.04742065 0.052191213 0.029094715
-0.12509224 0.13872288 -0.026040286 -0.11401277 -0.111961134 -0.15948007 0.0010709413 0.15193146
0.15245709 -0.055264033 0.12234718 -0.1404532 0.103238024 0.04338588 -0.031040959 0.017682109
-0.07837376 0.13081259 0.034818552 0.11600445 0.06384773 0.023633793 0.22555155 -0.29651
0.045060195 0.23062561 -0.11307798 0.22223498 0.33374622 -0.060398977 -0.0026623767 0.0898519
0.12705275 0.01699243 0.039355468 -0.20707297 0.08937874 0.035684977 0.09617136 -0.03908002
0.3124695 0.0057876287 0.032192178 0.13879389 -0.0936982 0.038910218 0.007569088 -0.0052846344
-0.0018563332 -0.115651265 0.010811317 0.09781038 -0.10441393 0.048502296 0.06531816 -0.13526517
-0.002637726 -0.027337786 0.070419505 0.18774728 0.0674276 0.18442944 0.096752554 0.12208569
0.017145952 0.1897517 0.1790599 0.15902254 0.025474463 0.08187172 0.20429562 0.05958602
-0.19990969 -0.2642536 -0.020128293 0.15511969 -0.07953359 0.07179038 -0.22993562 -0.109116696
0.07026757 -0.12858719 0.03795089 -0.092239864 0.001797486 -0.02442399 -0.0051698512 0.028310621
00000000: 5bb3 03bd de96 f73d c055 a23e cf23 27bd
00000010: f082 8d3d 348b 363e 28f6 55bd 190a 393e
00000020: b964 423e 547d 16bd 50de e3bc f327 debd
00000030: ae47 04be fa12 0e3e 93d6 11be 9bbc fc3d
00000040: 6006 51bc 5671 2d3d 4ad1 e0bd 26e4 06be
00000050: 406e 71be 3920 8cbc 91f3 47bd 731b 713d
00000060: 8b39 453e 4a3f b2bd 4315 69be 2e4c 523d
00000070: 96cd 043d 5357 7dbe eb46 07be 1181 40bd
00000080: 55ba 9fbd 4125 92ba 33ab 29bd f607 f5bd
00000090: 2d48 3fbe 4450 fe3d a156 973d 6e8a 483e
000000a0: 6bb2 31be bdfb b4bd 7fc6 863e 8202 71bc
000000b0: 6f63 1bbd 447b 16bd b240 bfbd b160 e03c
000000c0: 0b97 91bd 4341 fbbd 2fc9 0abe d7d0 aabc
000000d0: def6 e03d 5fe2 06be 7a3c a63d 0e42 343e
000000e0: 93e4 0dbe 89e2 9c3d 31eb a5bd ddc2 083e
000000f0: c091 23bd daba 3fbc 6481 b4bd 75f1 f13d
00000100: 35c5 cc3c ae7a dcbb 863b 193a 1a8c e23d
00000110: 76a2 4ebc a2e4 07bd 0a2b 333e 02c2 5c3e
00000120: e0b6 e03d 41f4 c43d 3bc6 3cbd 38a3 cbbd
00000130: eb3e 44bc 4288 d7bd dd7a 2ebd 939e 70be
00000140: d9da b3bd 65fd d6bd 9056 38bd 7a08 c5bd
00000150: b33d 2dbd 12d3 473d 5f1c 8cbd bfe8 963e
00000160: e0b0 c5bd 5188 eb3d 50e0 abbd 308d f33b
00000170: 43c4 35be 445e 203e f21e 633e 98bc 653e
00000180: c309 ee3d 7f88 033e 8801 8ebc 6ead e93d
00000190: cac8 f5bd 5df7 39bc 19ec 3ebd 1825 debd
000001a0: a03b 12be fb2a 76bc f481 4f3d 1100 303d
000001b0: 81cd f0bd 3ae0 1c3e 119c 443c 563f c33d
000001c0: 58b8 be3d 585d c63d 9828 d5be 1a60 c63d
000001d0: 36eb 82be 945a 85bd acae 3f3e 868f 17bd
000001e0: cf8f c83d d084 803d b261 f0bd b5e3 f0bc
000001f0: 98e8 e73c 244d 5c3d 3b79 9f3d d3b1 ba3d
00000200: e422 17be 77f6 c6bc df29 f33d 2d59 12bb
00000210: 3e7b e73d ee28 41be 3569 20bd 2b1e cc3e
00000220: fced 023e 8996 1ebe b467 4fbd 65fa d03c
00000230: ec53 b03d 218b 103b 5dfc 903d 3570 cb3b
00000240: bb1d 23bd 28fd 4c3e a9ba 32be 8283 eb3d
00000250: 7607 683e b64d 23bd bd86 68be d67e 58be
00000260: 27b6 adbd 810d f73c 81c2 fd3c 9cfe d53c
00000270: eff8 09be 9897 88bd 7b7b aa3d e3ff 0d3e
00000280: 5145 013e 5419 a23d 786c fd39 136b d53d
00000290: a764 6d3c 283c 423d 74c6 553d 0a58 ee3c
000002a0: 2e18 00be 5f0d 0e3e 7052 d5bc 877f e9bd
000002b0: e14b e5bd be4e 23be d45e 8c3a ec93 1b3e
000002c0: b61d 1c3e 8a5c 62bd 2991 fa3d f7d2 0fbe
000002d0: 756e d33d 64b5 313d 9c49 febc 12da 903c
000002e0: 6c82 a0bd bcf3 053e e69d 0e3d be93 ed3d
000002f0: 99c2 823d a89b c13c fcf6 663e 29d0 97be
00000300: 0a91 383d 1f29 6c3e 6e95 e7bd 9191 633e
00000310: c9e0 aa3e eb64 77bd 457b 2ebb 4604 b83d
00000320: 1e1a 023e b533 8b3c 3333 213d f00a 54be
00000330: 330c b73d 692a 123d 7df5 c43d 5f12 20bd
00000340: 01fc 9f3e 26a6 bd3b f2db 033d fc1f 0e3e
00000350: d8e4 bfbd 5260 1f3d 1d06 f83b ba2a adbb
00000360: 3550 f3ba 92da ecbd f321 313c cf50 c83d
00000370: f8d6 d5bd 58aa 463d 87c5 853d f482 0abe
00000380: b3dd 2cbb 7ef3 dfbc 1a38 903d d340 403e
00000390: 7b17 8a3d 12db 3c3e 3426 c63d 1008 fa3d
000003a0: ab75 8c3c 454e 423e 7a5b 373e ced6 223e
000003b0: d2af d03c 5cac a73d df32 513e 7810 743d
000003c0: 20b5 4cbe 3f4c 87be 17e4 a4bc b2d7 1e3e
000003d0: 82e2 a2bd d606 933d 3e74 6bbe 9378 dfbd
000003e0: 72e8 8f3d 5cac 03be 6472 1b3d 41e8 bcbd
000003f0: 9f99 eb3a d214 c8bc db67 a9bb adeb e73c

manager.M_space.bias f4 [64]
-0.0007670005 0.0020714896 0.0016093209 0.0025094626 0.00044732876 0.0030242517 -0.0023294236 -0.0030556943
0.0021233037 0.002845448 0.0010918569 0.00038159383 -0.0027031407 0.004701131 0.0004245194 0.0009999796
0.00038112662 0.0031331996 -0.0007554694 -0.0024745627 0.0030398068 0.0009259187 0.00038543865 0.0034793448
0.0027394278 -0.001469167 -6.2309555e-05 0.0012160384 -0.0021167768 0.0020865214 -0.0014128082 0.0032214127
0.0027054518 0.0046744635 0.0007672587 -0.0035208093 -0.003353568 -0.0033386322 -0.00039892172 0.0009384015
-0.00029908327 -0.0005531296 -0.003209049 -0.0040132613 0.0016617111 0.002260157 -0.0028590779 -0.0025395113
0.0014724422 0.0022011357 -0.002249133 0.0020616495 -0.0021463083 -0.004538429 0.0035929503 -0.0021009084
-0.0028952004 -0.000753407 0.00037252303 0.00058139313 0.0004839671 -0.0046484824 -0.0042113895 0.0028555845
00000000: 8810 49ba d4c1 073b d9ef d23a cc75 243b
00000010: 7387 ea39 8632 463b 3ea9 18bb 0b42 48bb
00000020: 2027 0b3b b27a 3a3b a31c 8f3a a810 c839
00000030: 2d27 31bb f20b 9a3b 0892 de39 bf11 833a
00000040: f3d1 c739 5e56 4d3b b10a 46ba 462c 22bb
00000050: 7f37 473b 5ab9 723a b314 ca39 b805 643b
00000060: f987 333b 1091 c0ba 30ac 82b8 7a63 9f3a
00000070: 9fb9 0abb 05be 083b fa2d b9ba 561e 533b
00000080: f34d 313b 3e2c 993b dc21 493a 61bd 66bb
00000090: 89c7 5bbb f4cc 5abb 5e26 d1b9 0fff 753a
000000a0: 47ce 9cb9 e6ff 10ba e94e 52bb ad81 83bb
000000b0: c6cd d93a 241f 143b 5e5f 3bbb ee6d 26bb
000000c0: f6fe c03a ee40 103b 3166 13bb bd1c 073b
000000d0: 14a9 0cbb 1ab7 94bb b477 6b3b 65af 09bb
000000e0: 67bd 3dbb 4a80 45ba 324f c339 a268 183a
000000f0: f7bc fd39 4c52 98bb b2ff 89bb c224 3b3b

manager.M_goals.weight f4 [64, 128]
-0.07043409 -0.03412322 -0.036922 -0.10383673 0.16282429 0.13184334 0.034214552 0.06030952
-0.13829896 0.16586146 0.028069418 -0.3143158 0.16663113 0.15116031 0.023890559 0.16675444
-0.055565238 0.022300454 -0.11952622 0.01410745 -0.07478385 0.056772627 0.00095375616 0.010592518
-0.024947539 -0.06463634 -0.007132616 -0.15717913 0.0007245486 -0.2194163 -0.049356986 -0.02960203
0.09636719 -0.031096654 -0.022791361 0.08626002 -0.04112925 -0.07187036 0.11496023 -0.06867483
-0.06373715 -0.1057582 0.14133951 0.042464998 0.016551359 0.017477522 -0.10131487 -0.122564994
-0.02780392 0.0020212624 0.03825294 0.064120226 0.08365256 0.1510094 -0.058197904 0.15547585
0.010779406 0.045478202 -0.16641225 -0.03255358 0.04309125 0.089142255 -0.05719934 0.0046816273
0.08620607 0.16671395 -0.09741931 0.018003048 -0.016137615 -0.04256344 0.11508545 -0.07803186
-0.044920024 -0.011014159 0.07250898 -0.06018945 0.15997446 -0.061323717 -0.056131203 0.056780647
0.02716437 -0.025577169 0.011604207 0.03275243 0.01895266 -0.053083196 0.00025000196 -0.06133699
-0.20740154 0.008620736 -0.00073915743 0.04131967 0.049519602 0.13422601 0.031580932 0.02601638
0.104076125 -0.040851977 0.07138424 -0.019258158 -0.19705419 -0.06406047 0.1224574 0.0026018196
0.06027964 0.08637722 -0.017206572 0.019651435 0.10187063 0.01948478 0.0063584414 -0.02206275
-0.09619607 0.03865667 -0.008745565 0.03145537 0.036476273 0.067552745 0.15955095 -0.07919116
-0.03460399 0.010058893 -0.13608871 0.14658342 0.009404571 -0.054974247 0.0056483084 0.028765636
0.10777203 -0.05504944 -0.111908354 -0.096418545 0.11376026 -0.13673586 0.086748995 0.17132618
-0.06589131 -0.0023628187 -0.06619926 -0.022146773 -0.036383264 -0.054138433 0.04261543 -0.049904704
-0.105394095 -0.0072788727 -0.047764186 0.069743305 0.20086955 0.08882502 -0.05284347 0.15712225
0.13478258 0.19474524 -0.16130778 0.047963243 0.03351237 0.02208772 0.016296148 -0.04643748
0.0340745 0.042048488 0.07824112 0.023259148 -0.052864805 0.056242798 0.025892824 -0.050046317
-0.014359089 0.006036181 0.13846706 -0.00854958 -0.15691008 0.09815959 0.014325899 -0.08650773
-0.08015994 0.093597025 -0.14063428 0.094066635 -0.056408573 -0.060913887 -0.06370694 0.009175503
0.016354876 -0.070447065 0.0044118073 -0.058877386 -0.08253511 -0.09861124 0.118412666 -0.021681285
-0.02442762 0.067459635 -0.09936367 0.06735755 0.03275953 -0.021554966 0.068897724 0.12278538
0.015269633 -0.079446934 -0.110441424 -0.19075587 0.03116442 0.021324536 0.085048765 -0.11546803
0.06629162 0.04735002 -0.027159726 -0.0028681508 0.06955274 0.020732328 0.0075352252 0.13095872
-0.030214595 0.05216155 -0.037585404 0.23069793 -0.10685674 -0.07915058 -0.023148246 -0.03675863
-0.068381585 0.12427161 0.10243927 -0.09077965 -0.06384587 0.16235222 -0.047682427 -0.048387233
0.0079667205 0.17406967 0.00944168 -0.14112285 0.08484857 0.041046035 0.063529074 0.007566178
-0.025017107 -0.048287183 0.12871243 -0.00489069 -0.09166227 -0.15292294 -0.02928452 0.085682675
0.02635728 0.041467637 -0.15139744 -0.107734226 0.061549813 -0.02381326 -0.21617647 -0.0975853
00000000: c03f 90bd cac4 0bbd 863b 17bd 5aa8 d4bd
00000010: 69bb 263e f101 073e 8f24 0c3d 1e07 773d
00000020: 3e9e 0dbe 96d7 293e d6f1 e53c 00ee a0be
00000030: 5aa1 2a3e c5c9 1a3e 22b6 c33c adc1 2a3e
00000040: 6098 63bd 71af b63c 2aca f4bd ef22 673c
00000050: 4628 99bd 6a8a 683d 7e05 7a3a 3e8c 2d3c
00000060: c85e ccbc 0f60 84bd b8b8 e9bb 91f3 20be
00000070: a2ef 3d3a abae 60be 8d2a 4abd f57f f2bc
00000080: 295c c53d 69be febc f3b4 babc 18a9 b03d
00000090: 2577 28bd c430 93bd 4570 eb3d 64a5 8cbd
000000a0: 9f88 82bd c197 d8bd 4ebb 103e c7ef 2d3d
000000b0: b796 873c 052d 8f3c 2c7e cfbd 5b03 fbbd
000000c0: 0cc5 e3bc 2877 043b 1daf 1c3d 7751 833d
000000d0: 0952 ab3d 35a2 1a3e ed60 6ebd 1035 1f3e
000000e0: 1b9c 303c 5a47 3a3d f967 2abe e756 05bd
000000f0: 7380 303d 3790 b63d db49 6abd 5668 993b
00000100: cf8c b03d 10b7 2a3e c683 c7bd 217b 933c
00000110: 0833 84bc 0057 2ebd ecb1 eb3d 2bcf 9fbd
00000120: 0ffe 37bd bb74 34bc 977f 943d 3689 76bd
00000130: 58d0 233e 942e 7bbd d5e9 65bd d392 683d
00000140: d087 de3c 3687 d1bc 921f 3e3c 6927 063d
00000150: 9c42 9b3c c46d 59bd b212 8339 7f3c 7bbd
00000160: 1261 54be fd3d 0d3c 04c4 41ba d03e 293d
00000170: 11d5 4a3d 8b72 093e 025b 013d 4e20 d53c
00000180: dd25 d53d 6754 27bd e731 923d 49c3 9dbc
00000190: 93c8 49be 2332 83bd f2ca fa3d 4a83 2a3b
000001a0: c9e7 763d 8ae6 b03d ccf4 8cbc 0cfc a03c
000001b0: 8da1 d03d 8c9e 9f3c 795a d03b f1bc b4bc
000001c0: 7202 c5bd 7556 1e3d 8f49 0fbc 59d7 003d
000001d0: 2568 153d 1859 8a3d 5361 233e fa2e a2bd
000001e0: eabc 0dbd 0ece 243c d75a 0bbe f719 163e
000001f0: a115 1a3c ad2c 61bd 7215 b93b e9a5 eb3c
00000200: 95b7 dc3d 867b 61bd 3530 e5bd 1677 c5bd
00000210: 24fb e83d 7c04 0cbe 75a9 b13d 2170 2f3e
00000220: 06f2 86bd 85d9 1abb 7a93 87bd 266d b5bc
00000230: 9e06 15bd 43c0 5dbd 848d 2e3d e068 4cbd
00000240: dcd8 d7bd 9c83 eebb 61a4 43bd 94d5 8e3d
00000250: bfb0 4d3e e4e9 b53d 6572 58bd a8e4 203e
00000260: 7204 0a3e 4c6b 473e de2d 25be 1b75 443d
00000270: 4444 093d 4ef1 b43c 807f 853c 3a35 3ebd
00000280: b491 0b3d 093b 2c3d e13c a03d f889 be3c
00000290: c488 58bd d95e 663d 301d d43c 5efd 4cbd
000002a0: 6242 6bbc 28cb c53b 4fca 0d3e 8a13 0cbc
000002b0: 09ad 20be e507 c93d 2db7 6a3c f72a b1bd
000002c0: e52a a4bd ccaf bf3d 6f02 10be 02a6 c03d
000002d0: ad0c 67bd d780 79bd c978 82bd d954 163c
000002e0: a9fa 853c 8d46 90bd ec90 903b 6a29 71bd
000002f0: 2b08 a9bd b1f4 c9bd 5782 f23d f39c b1bc
00000300: 6f1c c8bc 4728 8a3d 2e7f cbbd c1f2 893d
00000310: db2e 063d 0a94 b0bc 401a 8d3d e776 fb3d
00000320: 7c2d 7a3c 13b5 a2bd 1d2f e2bd 8255 43be
00000330: 874c ff3c cbb0 ae3c 0c2e ae3d 817a ecbd
00000340: e7c3 873d 18f2 413d 137e debc 96f7 3bbb
00000350: ab71 8e3d d8d6 a93c 0dea f63b 0b1a 063e
00000360: 9984 f7bc 59a7 553d 27f3 19bd 143c 6c3e
00000370: b5d7 dabd b319 a2bd 64a1 bdbc 3890 16bd
00000380: a50b 8cbd 1d82 fe3d aecb d13d aeea b9bd
00000390: a0c1 82bd a93f 263e a64e 43bd b131 46bd
000003a0: d986 023c 523f 323e 47b1 1a3c 8282 10be
000003b0: 16c5 ad3d e31f 283d 881b 823d b4ed f73b
000003c0: adf0 ccbc c8c8 45bd 31cd 033e 1542 a0bb
000003d0: 6eb9 bbbd d597 1cbe 17e6 efbc 667a af3d
000003e0: 39eb d73c f8d9 293d ee07 1bbe c3a3 dcbd
000003f0: a81b 7c3d 0714 c3bc 5d5d 5dbe cdda c7bd

manager.M_goals.bias f4 [64]
4.619185e-05 -0.002433791 0.0029517803 0.0023667938 -0.0037877026 -0.003591538 0.002470308 -0.0034255453
-0.0032722654 0.002806253 0.0005252339 0.0025058622 0.0019442979 -0.002846198 0.0016888753 -0.0026313455
-0.00493322 0.0030939034 0.0026214325 -5.5530294e-05 -0.0025432543 0.00030967948 0.0018457244 0.0030411903
-0.0016966319 -0.0034100476 -0.0027619784 0.0022088063 0.002247876 0.0031479895 -0.0029526164 -0.0020935305
-0.0047903345 -0.0012890971 -0.002570782 0.0036347231 -0.0038731704 -0.0022375686 -0.0032744287 0.0024486626
0.0017654009 -0.0008860749 -0.00027176802 -5.564602e-05 0.003393283 -0.002667538 -0.0020244624 -0.0003973363
0.0040964214 -0.0017858978 0.002935706 0.0029746136 -0.0033528584 0.0025781575 0.0030959612 0.003103801
0.004051731 -0.004109489 -0.0021277477 0.0024070698 0.00096558995 0.0020597894 0.0009785842 0.002234991
00000000: 1fbe 4138 3d80 1fbb a872 413b 361c 1b3b
00000010: 1b3b 78bb 0260 6bbb e4e4 213b 1d7f 60bb
00000020: 8173 56bb 1de9 373b daaf 093a 6439 243b
00000030: d0d7 fe3a 4787 3abb 405d dd3a a772 2cbb
00000040: d9a6 a1bb 16c3 4a3b 57cc 2b3b 33e9 68b8
00000050: baac 26bb 7a5c a239 3cec f13a b54e 473b
00000060: 8561 deba 1b7b 5fbb 4f02 35bb 9fc1 103b
00000070: 1a51 133b 804e 4e3b af80 41bb 9d33 09bb
00000080: 3df8 9cbb ecf6 a8ba 917a 28bb 8934 6e3b
00000090: 04d5 7dbb 2ca4 12bb cc97 56bb be79 203b
000000a0: 0665 e73a 7b47 68ba 167c 8eb9 7665 69b8
000000b0: d861 5e3b dcd1 2ebb d8ac 04bb 9351 d0b9
000000c0: 463b 863b c914 eaba f964 403b bcf1 423b
000000d0: a1bb 5bbb 4ef6 283b 9ce5 4a3b 2469 4b3b
000000e0: 62c4 843b e4a8 86bb af71 0bbb eebf 1d3b
000000f0: a51f 7d3a 88fd 063b d643 803a ed78 123b

manager.M_value.0.weight f4 [32, 64]
0.14827333 0.16378145 -0.15077911 0.15493134 0.16749324 -0.031217337 -0.032665875 0.030231552
-0.13496125 -0.07816475 -0.3031479 0.1357356 0.008744131 -0.0005210116 0.080590345 -0.046868015
0.08631029 -0.034044534 -0.02776713 -0.016454712 0.00785918 -0.03645419 -0.12515056 0.210059
-0.025025094 0.28341734 0.0885627 -0.23779202 0.040896412 0.0112595055 -0.15957975 0.16624378
0.13788131 0.13378865 -0.048938278 -0.0916356 0.10268801 -0.055979922 -0.020678518 0.088172
0.14124496 0.08318059 -0.11082445 -0.0028259777 -0.16317946 -0.19599965 0.04937261 0.1828547
0.091454774 -0.0600834 0.11047137 0.06744171 0.22302538 0.019782843 -0.14604807 -0.006048595
-0.2009629 0.068276905 -0.023093568 0.060882818 -0.1263473 -0.19255179 0.120193325 0.16394666
-0.1647693 0.20698637 -0.032922678 -0.042373545 0.026636941 0.049683183 -0.15027072 0.04215336
-0.04139318 -0.33242586 0.10990349 0.05344412 -0.33202475 0.025962152 -0.0012573692 -0.09845496
0.056453258 0.015942065 0.17099504 -0.19942367 -0.008050607 0.07237445 0.09977176 0.045134537
-0.0059958966 -0.069888294 0.11098536 -0.17321889 -0.14949106 -0.058170397 -0.038259186 0.0015777209
0.15093045 0.0034152865 0.10323061 0.16698654 0.1348659 0.19302736 0.031209216 -0.064855784
0.017525857 0.012033678 0.28678986 0.10546765 -0.059395865 0.0868659 0.25485945 -0.10398601
-0.17583895 0.03605975 0.026719525 -0.14428392 -0.08004375 0.060870223 0.12652463 -0.14225204
0.05331489 0.060140025 0.10885246 0.1268636 -0.18610346 -0.09698716 0.05312095 -8.050931e-05
-0.14257465 -0.0893162 0.036286905 0.20332882 0.016391793 -0.035964012 0.01036747 0.04008971
0.11750905 0.23920926 -0.046092086 0.14142208 -0.038517587 0.044470616 -0.00321802 -0.40063336
-0.018647296 0.16399775 -0.043894503 0.06461011 -0.25962704 0.16131426 0.15157613 0.14249575
0.1311597 -0.06876544 -0.08264266 -0.0021579603 0.1730603 0.20962162 0.039240662 -0.018745907
0.14866559 0.104459174 -0.12075368 -0.09099289 0.043170057 -0.0015092094 -0.006204566 0.16354914
0.12483056 0.16348536 0.059009876 0.09637076 0.16102451 0.07380563 -0.040370073 -0.1629438
0.14021541 0.10682625 -0.15255655 0.0038285179 -0.107206464 -0.01753165 0.08241165 -0.01851189
-0.005729181 -0.027379256 0.18214011 -0.0041057556 -0.1357346 0.029680355 0.0003553544 0.2657105
0.18450755 -0.07585427 0.29262385 0.047662422 -0.19548216 -0.0349395 -0.15495151 0.023054862
-0.00211217 -0.0722953 0.16964063 0.081367075 0.02122601 -0.0158351 0.065256506 0.19764298
0.014013536 0.014804003 -0.16391419 0.081707895 -0.05691365 0.0024989927 -0.13229623 -0.11410285
-0.020065056 0.2583726 -0.06759394 -0.05274292 -0.19855879 0.18468955 -0.021608364 0.05815304
-0.033118457 0.102696285 -0.1275984 -0.047598075 0.06925687 0.05278126 -0.014965312 -0.0578835
0.013433606 -0.08274042 0.12520766 -0.09587011 0.05965978 0.2404935 0.15863849 0.008734238
0.28382817 0.15047027 -0.11696123 0.025323251 -0.07180791 0.19517222 -0.2220369 0.028493108
-0.06720738 0.015489634 0.26797673 0.19517677 -0.025984965 0.01879452 0.08286375 -0.07045524
00000000: f7d4 173e 53b6 273e d765 1abe 52a6 1e3e
00000010: 5983 2b3e 80bb ffbc a7cc 05bd 29a8 f73c
00000020: 4833 0abe d714 a0bd 3436 9bbe 46fe 0a3e
00000030: 8b43 0f3c 7f94 08ba 8d0c a53d adf8 3fbd
00000040: 73c3 b03d 4872 0bbd e477 e3bc 08cc 86bc
00000050: cac3 003c fd50 15bd 7827 00be b519 573e
00000060: 6d01 cdbc 141c 913e 5c60 b53d c07f 73be
00000070: ff82 273d ca79 383c e068 23be cf3b 2a3e
00000080: c230 0d3e e4ff 083e 8173 48bd 72ab bbbd
00000090: 174e d23d 344b 65bd ff65 a9bc 8693 b43d
000000a0: 85a2 103e 965a aa3d eef7 e2bd 0a34 39bb
000000b0: 8418 27be 22b4 48be ef3a 4a3d 433e 3b3e
000000c0: a44c bb3d 031a 76bd d03e e23d e11e 8a3d
000000d0: c460 643e a10f a23c a08d 15be 4b33 c6bb
000000e0: 38c9 4dbe c3d4 8b3d b92e bdbc 4360 793d
000000f0: 3061 01be 4c2c 45be eb27 f63d a2e1 273e
00000100: 49b9 28be 3cf4 533e eed9 06bd e28f 2dbd
00000110: b735 da3c 9880 4b3d 91e0 19be 00a9 2c3d
00000120: e58b 29bd b933 aabe 1515 e13d 39e8 5a3d
00000130: 26ff a9be 94ae d43c 4fce a4ba c1a2 c9bd
00000140: 883b 673d ef98 823c 5319 2f3e b835 4cbe
00000150: b1e6 03bc 0e39 943d 2355 cc3d fede 383d
00000160: 3a79 c4bb 9821 8fbd 4b4c e33d 4b60 31be
00000170: 2f14 19be 1544 6ebd aab5 1cbd 87cb ce3a
00000180: 838d 1a3e 00d3 5f3b 926a d33d 85fe 2a3e
00000190: 491a 0a3e f7a8 453e 78aa ff3c 1cd3 84bd
000001a0: 6392 8f3c e728 453c 1fd6 923e 6cff d73d
000001b0: 1449 73bd c0e6 b13d f07c 823e 9ef6 d4bd
000001c0: 200f 34be 63b3 133d e8e2 da3c 2abf 13be
000001d0: faed a3bd 0e53 793d ac8f 013e 85aa 11be
000001e0: b760 5a3d 6355 763d 0aee de3d 88e8 013e
000001f0: e891 3ebe 34a1 c6bd 5a95 593d 1bd7 a8b8
00000200: 17ff 11be 69eb b6bd 94a1 143d 6e35 503e
00000210: 1548 863c 004f 13bd 52dc 293c 1c35 243d
00000220: 96a8 f03d 46f3 743e 0ecb 3cbd f3d0 103e
00000230: 9ec4 1dbd d226 363d 6be5 52bb d11f cdbe
00000240: 37c2 98bc 07ef 273e b9ca 33bd 4e52 843d
00000250: d6ed 84be 912f 253e c636 1b3e 68ea 113e
00000260: ba4e 063e e5d4 8cbd 8e40 a9bd 916c 0dbb
00000270: b836 313e 0da7 563e d1ba 203d 0491 99bc
00000280: cb3b 183e b1ee d53d b54d f7bd 7b5a babd
00000290: 16d3 303d aad0 c5ba ac4f cbbb 6d79 273e
000002a0: 2aa7 ff3d b568 273e 57b4 713d 085e c53d
000002b0: 9ce3 243e 6827 973d 175b 25bd bdda 26be
000002c0: a194 0f3e b9c7 da3d c937 1cbe dfe7 7a3b
000002d0: 108f dbbd 899e 8fbc 70c7 a83d 3fa6 97bc
000002e0: dbbb bbbb 764a e0bc f082 3a3e 9389 86bb
000002f0: 03fe 0abe 3724 f33c dc4e ba39 350b 883e
00000300: 8cef 3c3e 7c59 9bbd cbd2 953e ac39 433d
00000310: 7a2c 48be b91c 0fbd 9cab 1ebe 8ddd bc3c
00000320: 556c 0abb 8f0f 94bd 46b6 2d3e c8a3 a63d
00000330: 2be2 ad3c 9db8 81bc 34a5 853d ec62 4a3e
00000340: 0899 653c 7d8c 723c 1fd9 27be 7856 a73d
00000350: 4a1e 69bd 24c6 233b aa78 07be c1ae e9bd
00000360: 795f a4bc 6a49 843e b16e 8abd f608 58bd
00000370: ff52 4bbe 421f 3d3e 0604 b1bc e231 6e3d
00000380: 38a7 07bd 6e52 d23d 28a9 02be 33f6 42bd
00000390: 8cd6 8d3d 2a31 583d 1131 75bc 4017 6dbd
000003a0: a118 5c3c cf73 a9bd 7036 003e 8c57 c4bd
000003b0: d05d 743d ee43 763e 2172 223e 0d1a 0f3c
000003c0: ed51 913e e114 1a3e 5f89 efbd b572 cf3c
000003d0: 0710 93bd 3adb 473e a45d 63be 616a e93c
000003e0: 06a4 89bd 3cc8 7d3c 3f34 893e 6bdc 473e
000003f0: 6cde d4bc f7f6 993c 78b4 a93d d64a 90bd

manager.M_value.0.bias f4 [32]
-0.0028607282 -0.004760646 0.0028538688 -0.0024372272 -0.0033004489 -0.0031928958 0.002906236 0.00026369633
0.0033349437 -0.0035366013 -0.0029335704 -0.0028861216 0.0005678375 -0.0010622989 -0.003030159 0.0025422084
0.0023932222 -0.0034065114 0.0028470685 0.0035675971 0.0028853652 -0.0034756425 -0.0032674966 -0.003626619
0.0025549207 0.0030261637 0.0028766044 -0.002193313 0.00017686251 -0.0032444468 0.0030055146 0.0018403906
00000000: 0e7b 3bbb 31ff 9bbb f907 3b3b e3b9 1fbb
00000010: 584c 58bb e73f 51bb 8d76 3e3b b940 8a39
00000020: 128f 5a3b 53c6 67bb 2541 40bb 1625 3dbb
00000030: eeda 143a d63c 8bba a295 46bb 2e9b 263b
00000040: 9bd7 1c3b c73f 5fbb e295 3a3b 59ce 693b
00000050: 6518 3d3b 9bc7 63bb 7f23 56bb 92ac 6dbb
00000060: 7570 273b 9a52 463b 6a85 3c3b b0bd 0fbb
00000070: 2b74 3939 c9a0 54bb 2bf8 443b 4339 f13a

manager.M_value.2.weight f4 [1, 32]
0.11426351 0.19349244 -0.33928123 0.13219361 0.2266246 0.103565745 -0.05526516 -0.010825774
-0.2227535 0.16760221 0.13711713 0.11309696 -0.051405624 0.07010873 0.11715966 -0.07210007
-0.08129917 0.08398105 -0.037260726 -0.054444984 -0.13541165 0.15704842 0.3130603 0.32833353
-0.024283512 -0.2397643 -0.21099743 0.059795603 -0.19977713 0.42410588 -0.06062485 -0.07058047
00000000: fd02 ea3d e222 463e 45b6 adbe c35d 073e
00000010: 4710 683e 471a d43d b85d 62bd 965e 31bc
00000020: 7e19 64be ea9f 2b3e 6f68 0c3e 619f e73d
00000030: b48e 52bd 2a95 8f3d 67f1 ef3d 34a9 93bd
00000040: 2e80 a6bd 42fe ab3d b49e 18bd b401 5fbd
00000050: 5aa9 0abe 4dd1 203e 7149 a03e 551b a83e
00000060: 37ee c6bc c684 75be b60f 58be 3cec 743d
00000070: 6092 4cbe 6824 d93e c351 78bd 7e8c 90bd

worker.f_stateW.0.weight f4 [128, 64]
0.06260156 0.050342254 -0.0524113 -0.038240172 -0.08571761 0.05486934 -0.009883629 -0.20271936
0.09745219 -0.08227263 -0.0018053768 -0.0045996616 -0.010961045 0.027480375 0.1326179 -0.028170595
0.09300465 -0.0045398185 0.23079431 -0.08918286 -0.11105395 -0.12048725 -0.033121414 0.021748273
0.21578972 -0.09412009 0.15226072 -0.120724335 -0.028462172 -0.030980408 0.076098494 0.04656008
0.09951762 0.05065938 0.005635466 0.018497076 -0.027207023 -0.022673728 0.067825966 -0.07074844
-0.14852227 0.06153351 0.081693545 0.0031500682 -0.04836631 0.03689233 -0.002234456 0.055942014
-0.05363956 -0.12295205 0.061161347 0.064850494 0.12304463 -0.061528914 0.05584619 -0.15363857
-0.011553091 0.02943539 -0.146534 0.010976034 0.018611765 0.12353382 0.03565021 -0.022139177
0.04312361 0.034089077 -0.13864902 -0.04978081 -0.09329782 0.017820599 0.09597675 0.038453646
0.11144616 0.059306983 0.030261386 -0.114153385 -0.0050845467 -0.10029705 0.018777164 0.0017980533
0.079765394 0.049704835 -0.04766263 0.043660305 0.068696536 -0.0036342978 0.0666091 -0.026562395
-0.26823872 -0.09887246 0.08535652 -0.09815933 0.021736633 0.15820312 0.02907933 -0.0733476
-0.09097633 -0.09130763 -0.0075200074 -0.001696394 -0.039397318 -0.08680082 0.02479256 -0.08166295
0.042893764 -0.11476398 -0.035667285 0.08215457 0.00843466 0.08136682 -0.17753363 -0.105126604
0.17872436 0.0058326777 0.098331556 -0.13722265 0.14575106 0.009834094 -0.09407747 0.14763506
0.034083627 0.11364101 0.10698251 0.12766957 0.009690801 0.09885596 0.0721074 -0.07264842
-0.01225953 -0.018832156 -0.13625555 0.16497283 -0.09888814 -0.031853177 -0.10973415 0.021988045
0.10843756 -0.019369023 0.06535352 -0.11122445 -0.070940584 0.03790586 -0.019849425 -0.047524124
-0.2047279 -0.057284657 -0.03823267 -0.107719176 0.07612219 0.05165716 0.0033299478 0.16100147
0.116413675 0.065390475 0.039879344 0.016173806 0.05197523 -0.015981391 0.0013545377 0.089382336
-0.10923053 -0.076147184 -0.2071558 -0.02606304 -0.0492475 0.02122556 0.00023256485 0.034117
-0.0669329 0.044208646 -0.017089296 0.096730456 -0.10598446 0.04105654 0.0903503 -0.084985875
0.04913292 0.08469272 0.12365104 0.017906528 0.073257565 -0.035140485 -0.17100996 -0.12742557
0.040230267 -0.028293695 0.048127558 0.02049173 -0.059963286 -0.08900812 0.045904472 0.16197631
-0.1381302 -0.016389685 0.11517674 0.0787887 -0.06545996 -0.11812102 -0.08943753 -0.00018229605
0.009031134 -0.04583066 0.059944425 -0.1481913 -0.14112398 -0.06481629 -0.089700066 0.19841267
-0.031121964 0.033947375 -0.13407591 0.013769009 -0.17123827 -0.028705671 -0.18433824 -0.052875623
-0.096527204 -0.060881298 0.05068552 -0.17038596 -0.06868293 0.05820118 0.037851114 -0.05079251
0.049123928 0.027901638 0.08416092 0.12916254 0.008418235 0.102673635 0.028695626 0.08467609
0.012714114 0.004770373 0.11922473 -0.14282884 -0.15032892 0.08736105 0.055793952 0.0052556368
-0.18602522 0.03839694 0.028949426 -0.0269142 -0.112212695 -0.039476164 -0.005725259 -0.106909595
-0.085088104 0.05824475 -0.04582882 -0.029546726 0.024823988 -0.16397445 0.021357326 -0.16394342
00000000: 3f35 803d ae33 4e3d 3bad 56bd baa1 1cbd
00000010: b78c afbd acbe 603d f2ee 21bc aa95 4fbe
00000020: 0495 c73d 8d7e a8bd 65a2 ecba c2b8 96bb
00000030: f495 33bc 861e e13c fdcc 073e 05c6 e6bc
00000040: 3979 be3d c2c2 94bb 5855 6c3e 81a5 b6bd
00000050: 4170 e3bd 05c2 f6bd 52aa 07bd 6f29 b23c
00000060: fbf7 5c3e 09c2 c0bd 3cea 1b3e 523e f7bd
00000070: 8029 e9bc a0ca fdbc 87d9 9b3d c8b5 3e3d
00000080: e5cf cb3d 3680 4f3d b7a9 b83b 2e87 973c
00000090: 43e1 debc 41be b9bc 57e8 8a3d 8fe4 90bd
000000a0: 3916 18be 900a 7c3d f24e a73d 6071 4e3b
000000b0: c01b 46bd 691c 173d f36f 12bb 7423 653d
000000c0: 28b5 5bbd 49ce fbbd 5284 7a3d 56d0 843d
000000d0: d3fe fb3d be05 7cbd f9be 643d 6e53 1dbe
000000e0: 2d49 3dbc 7d22 f13c 020d 16be d3d4 333c
000000f0: b377 983c 4dff fc3d f405 123d 385d b5bc
00000100: 62a2 303d fda0 0b3d 02fa 0dbe f6e6 4bbd
00000110: ed12 bfbd 81fc 913c 758f c43d 9281 1d3d
00000120: e23d e43d e1eb 723d bae6 f73c 40c9 e9bd
00000130: 459c a6bb 8a68 cdbd 91d2 993c a8ac eb3a
00000140: 0a5c a33d 4c97 4b3d e439 43bd 26d5 323d
00000150: c5b0 8c3d 662d 6ebb 5a6a 883d 6199 d9bc
00000160: 9656 89be a57d cabd 66cf ae3d c207 c9bd
00000170: 0611 b23c 0000 223e c637 ee3c 4437 96bd
00000180: cc51 babd 7fff babd 656a f6bb 8a59 deba
00000190: 155f 21bd a1c4 b1bd c419 cb3c e83e a7bd
000001a0: 5fb1 2f3d 6109 ebbd dc17 12bd a840 a83d
000001b0: 8731 0a3c a6a3 a63d 60cb 35be 9e4c d7bd
000001c0: 8503 373e 0c20 bf3b 0e62 c93d 1884 0cbe
000001d0: c43f 153e 2e1f 213c b0ab c0bd a52d 173e
000001e0: 469b 0b3d 9ebc e83d a519 db3d d0bb 023e
000001f0: 2ac6 1e3c fe74 ca3d 0bad 933d b2c8 94bd
00000200: 32dc 48bc e545 9abc 9386 0bbe a3ee 283e
00000210: dd85 cabd 7a78 02bd 4cbc e0bd 4620 b43c
00000220: 8314 de3d c9ab 9ebc 11d8 853d a5c9 e3bd
00000230: 4c49 91bd 2d43 1b3d 439b a2bc a8a8 42bd
00000240: 31a4 51be 51a3 6abd dc99 1cbd df9b dcbd
00000250: f3e5 9b3d 7596 533d 413b 5a3b 92dd 243e
00000260: 4b6a ee3d 71eb 853d 8658 233d ee7e 843c
00000270: fbe3 543d 68eb 82bc be8a b13a 160e b73d
00000280: 42b4 dfbd 0ef3 9bbd a620 54be 2882 d5bc
00000290: bfb7 49bd 3ae1 ad3c a7dc 7339 44be 0b3d
000002a0: 1e14 89bd 2014 353d dafe 8bbc 9e1a c63d
000002b0: 610e d9bd e72a 283d 9409 b93d 130d aebd
000002c0: 9a3f 493d 6073 ad3d c23c fd3d b6b0 923c
000002d0: 1008 963d 78ef 0fbd 3c1d 2fbe d97b 02be
000002e0: 7ec8 243d 2ec8 e7bc 6721 453d 46de a73c
000002f0: 109c 75bd e449 b6bd 5406 3c3d 1edd 253e
00000300: 0172 0dbe a943 86bc c8e1 eb3d f85b a13d
00000310: df0f 86bd 6fe9 f1bd 062b b7bd b926 3fb9
00000320: 52f7 133c eeb8 3bbd 4988 753d 76bf 17be
00000330: ce82 10be 67be 84bd abb4 b7bd b12c 4b3e
00000340: 7df3 febc 670c 0b3d 324b 09be 6997 613c
00000350: 1659 2fbe 2828 ebbc 2ac3 3cbe 1c94 58bd
00000360: 0eb0 c5bd ab5e 79bd 9f9b 4f3d a879 2ebe
00000370: a3a9 8cbd 5c64 6e3d c509 1b3d cf0b 50bd
00000380: 2c36 493d fa91 e43c 8f5c ac3d 2f43 043e
00000390: a3ec 093c 8e46 d23d 1713 eb3c a86a ad3d
000003a0: dc4e 503c ca50 9c3b 182c f43d b941 12be
000003b0: d3ef 19be 5aea b23d 3388 643d 7a37 ac3b
000003c0: 657d 3ebe 1c46 1d3d 5927 ed3c 2b7b dcbc
000003d0: c5cf e5bd c2b1 21bd f49a bbbb 6bf3 dabd
000003e0: ac42 aebd 0c92 6e3d 00b7 3bbd fa0b f2bc
000003f0: ad5b cb3c ebe8 27be 8ff5 ae3c c9e0 27be

worker.f_stateW.0.bias f4 [128]
0.0066479035 0.00405807 -0.004574048 0.0007298049 -0.002388969 -0.0022487526 -0.004947445 -0.0030529061
0.004063958 0.0012426794 0.0040156296 0.0065905983 0.0030354129 -0.0048615066 -0.005961253 -0.0036878672
-0.005826283 0.000739822 0.0028697008 0.00031577313 -0.003479358 -0.0026017625 0.004722787 0.005400213
-0.0013960461 -0.000222798 0.0050112 0.0026775184 -0.004416396 -0.0023686138 0.002718254 -0.0035714684
-0.0033143496 0.0015311076 -0.0031282587 0.0063423095 -0.0027397275 0.0004432167 0.0040899324 -0.004182354
-0.0069797924 0.0013513397 -0.004242532 -0.004924379 -0.0038976616 0.0060715936 0.0023602962 0.0052736714
0.0007505714 0.00024379841 -0.00042843886 0.006784708 -0.0040092343 0.00272379 0.004663069 0.0038340264
0.006746674 -0.0049045947 0.003693419 0.004153446 0.0062271813 -0.0037038059 -0.0047325343 0.0012495788
0.0048291488 0.00014403717 0.007375285 -0.0013474902 -0.00018598934 0.0023298713 0.006219344 -0.007396462
0.005767857 -0.0010009021 -0.00508366 0.005769386 0.0015861898 -0.0021715886 0.00028764782 0.004014075
-0.0072391736 0.005814271 0.0052023986 -0.0017634678 0.0052957 0.003464614 -0.00042438347 -0.0042003384
0.0007974134 -0.0011796465 0.0026895297 -0.0048627444 -8.72739e-05 -0.0065849833 0.005784704 -0.004300437
0.0016096869 -0.0036089397 -0.00016808331 0.0011921 0.0024099601 -0.0041121785 0.001058211 0.0011019532
-0.0050006397 0.0025238208 0.004146039 -0.0020566005 -0.005941097 -0.0005040441 0.004314829 0.003500777
0.0022126278 -0.0039842874 -0.0049007456 -0.005173649 -0.0033958072 -0.0052333744 0.0015387366 0.0024529067
0.006006462 -0.0052093696 -0.0024336835 -0.00068391796 -0.002207293 -0.00092139107 -0.0017921494 0.00047596634
00000000: a8d6 d93b 8ff9 843b e5e1 95bb 6150 3f3a
00000010: 4090 1cbb cf5f 13bb 2d1e a2bb 4413 48bb
00000020: f32a 853b 67e1 a23a 8b95 833b f2f5 d73b
00000030: c7ed 463b 464d 9fbb 9d56 c3bb 25b0 71bb
00000040: 67ea bebb 9df0 413a 9711 3c3b 5a8e a539
00000050: f105 64bb 5582 2abb 9cc1 9a3b 45f4 b03b
00000060: 89fb b6ba e29e 69b9 fe34 a43b 4e79 2f3b
00000070: 6ab7 90bb bf3a 1bbb bc24 323b 4c0f 6abb
00000080: 8f35 59bb 72af c83a 7903 4dbb 26d3 cf3b
00000090: 008d 33bb 8a5f e839 d704 863b 210c 89bb
000000a0: beb6 e4bb 701f b13a f004 8bbb af5c a1bb
000000b0: e96f 7fbb 38f4 c63b 33af 1a3b c3ce ac3b
000000c0: fec1 443a 23a4 7f39 17a0 e0b9 4152 de3b
000000d0: e55f 83bb 9d81 323b a8cc 983b 4a44 7b3b
000000e0: 3413 dd3b b9b6 a0bb 4a0d 723b a119 883b
000000f0: 620d cc3b 8dbb 72bb 6013 9bbb e8c8 a33a
00000100: d63d 9e3b af08 1739 60ac f13b 459e b0ba
00000110: 2206 43b9 c1b0 183b a4cb cb3b 055e f2bb
00000120: 4b00 bd3b b430 83ba d594 a6bb 1e0d bd3b
00000130: b3e7 cf3a 3651 0ebb 70cf 9639 8088 833b
00000140: 9736 edbb a485 be3b e278 aa3b 2924 e7ba
00000150: 8d87 ad3b 940e 633b c97f deb9 fea2 89bb
00000160: 8209 513a 5e9e 9aba d242 303b a857 9fbb
00000170: d106 b7b8 d8c6 d7bb 9d8d bd3b aeea 8cbb
00000180: 21fc d23a f683 6cbb 853f 30b9 3d40 9c3a
00000190: 6cf0 1d3b 74bf 86bb abb3 8a3a 6a6f 903a
000001a0: 68dc a3bb b066 253b 7fdb 873b 08c8 06bb
000001b0: 89ad c2bb d421 04ba 6963 8d3b 4b6d 653b
000001c0: bc01 113b a08e 82bb 6f96 a0bb b787 a9bb
000001d0: 318c 5ebb ba7c abbb 6faf c93a f2c0 203b
000001e0: dbd1 c43b 5cb3 aabb 6f7e 1fbb f548 33ba
000001f0: 3ba8 10bb 8289 71ba 8ee6 eaba 1f8b f939
