vwgym/saved_model/vwgym_f_net_step_3000000.pt (torch_old, 382116 bytes, 57 tensors)

f_percept.percept.0.weight f4 [16, 3, 3, 3]
000000 83 ed 89 3d 07 55 8e bd 6f 37 be bd 73 6d 84 be
       0.06734755 -0.069498114 -0.09287917 -0.25864753
000010 44 6f f8 3d b6 9b 8f 3d ec ae a6 be 8a 68 1b be
       0.12130597 0.070121214 -0.3255533 -0.15176597
000020 f3 35 59 be a4 4c 9c 3e d3 1c 09 be f3 70 e2 be
       -0.21211986 0.30527222 -0.13389902 -0.44226798
000030 08 df aa 3b e7 29 ad 3d 7e 53 95 3e 58 a5 8a bc
       0.0052145757 0.08455258 0.29165262 -0.016924545
000040 34 42 57 be 5f ab 2d be 0c 3b 5e 3e aa fb a4 be
       -0.21021348 -0.16959904 0.21702212 -0.32223254
000050 d1 d4 b2 3d 4c f6 37 be 2f bd 78 bb 7c f1 d1 3b
       0.08731998 -0.17965049 -0.003795456 0.006406961
000060 10 5f e8 bd b6 0d 43 3e 30 7c cc bd dc 99 70 be
       -0.11346257 0.19048199 -0.099846244 -0.23496193
000070 6d 8a 51 bd 7d c9 92 3e 52 06 bf bd a4 e0 8c 3c
       -0.051157404 0.28669348 -0.093273774 0.01719696
000080 58 cd 30 3e 6a b5 6f be 28 51 03 be 94 65 39 3e
       0.17265832 -0.23409048 -0.12823927 0.18105155
000090 ad 73 87 bd 2f d3 ce 3e ff 2f 28 3c a6 bb b7 bb
       -0.0661386 0.40395495 0.010265349 -0.0056070862
0000a0 e6 69 3f 3e 2e 2f 64 3e 2f fe 8d be 3c 4b c7 3d
       0.18692741 0.22283623 -0.2773299 0.09731147
0000b0 3f d7 87 be 75 e9 3d be eb ea 3f 3d 89 b2 18 be
       -0.26531407 -0.18546088 0.046854895 -0.14911856
0000c0 ec 98 c7 bd a5 b6 ab 3e 2e 9f 72 be a8 1c 59 3d
       -0.097459644 0.33537784 -0.23693535 0.053005844
0000d0 7a 22 2e bc 57 a9 85 3e 50 fb f6 bd f9 ea 18 3e
       -0.010628337 0.2610576 -0.12059653 0.14933385
0000e0 14 78 92 3e 49 8b 87 3e f4 7a 87 bd 4f 1a e8 3d
       0.28607237 0.26473454 -0.06615248 0.11333143
0000f0 fe c3 ca bc 65 1a 09 3e da b2 56 be 4b 12 59 3e
       -0.02475166 0.13388975 -0.20966664 0.21198384
000100 a5 a7 59 bd 22 06 fb bd 44 70 3d 3d 61 16 16 bd
       -0.053138394 -0.12257029 0.046249643 -0.036642436
000110 58 76 ec bd 0a 1f 9b bb 79 33 37 3d db f5 4a 3e
       -0.1154601 -0.0047339248 0.044726823 0.19820349
000120 03 ed 93 3e 6c 77 bd bd 46 ee 6f be 13 9c f4 bd
       0.28891763 -0.092512935 -0.23430738 -0.11943831
000130 68 c9 f2 3e 18 d7 c9 3e c2 b9 01 3e 26 b5 68 be
       0.47419286 0.39421916 0.12668517 -0.22725353
000140 e1 72 be 3c ed 4a 01 3e 44 9f 38 be 57 f0 88 3c
       0.023248138 0.12626238 -0.18029505 0.016716165
000150 0c 9c 63 3e e2 de 9b 3e 8c 70 1d 3e 27 e1 d6 3d
       0.22227496 0.30443484 0.15374964 0.10492163
000160 7b 61 3e be cd 5c 9b bc 64 0e bb 3e d3 33 0b 3e
       -0.18591873 -0.01896515 0.36534417 0.13593988
000170 b5 0f 13 3e dd 17 13 be 36 de 08 3d b5 b6 1a be
       0.1436146 -0.14364572 0.033415042 -0.1510876
000180 88 9a 82 be 65 ac f4 bd a3 04 f6 bd 81 ea b1 3d
       -0.25508523 -0.11946944 -0.12012603 0.08687306
000190 59 64 91 3e c8 f2 c0 3d f7 de 41 3d 37 a2 c4 3d
       0.28396872 0.09421307 0.047331776 0.096012525
0001a0 d9 cc 1a be b4 e0 9e 3d 3f d4 93 bd 5b dd 08 bf
       -0.15117206 0.077577025 -0.07218217 -0.5346276
0001b0 91 8c 94 3e 08 53 68 bd 36 6d 06 3d d7 d7 d4 bd
       0.29013494 -0.05671981 0.032818995 -0.10392731
0001c0 2e 78 43 be d5 df dd be 14 93 4c bc ab dc ba 3d
       -0.19088814 -0.43334833 -0.012486238 0.0912412
0001d0 15 9b 98 3e be f6 6a 3d 8d 31 04 be e3 96 f0 3d
       0.29805818 0.057364218 -0.12909527 0.11747529
0001e0 56 2b c8 be 9b 74 b0 3d 39 6f aa 3d 43 f6 1b 3e
       -0.39095563 0.08615991 0.08321995 0.1523066
0001f0 c3 28 8d be 8a 5c 62 3c 61 8c a8 bc 25 a2 ad 3d
       -0.2757016 0.013816008 -0.02057475 0.08478192
000200 df 9a 5c 3d ba b4 b9 be 16 a8 b1 3e 93 ce 77 bd
       0.053858634 -0.36270696 0.34698552 -0.06049974
000210 47 e7 a1 3d f1 24 9a bd 71 bc 43 ba 4c 99 6e 3e
       0.07905441 -0.07526577 -0.00074667396 0.23300666
000220 7e 69 71 3e 26 a3 22 be 4b f7 ac be 54 2f a7 3e
       0.23575398 -0.15882549 -0.3378242 0.32653296
000230 66 b1 1e 3e 8f 44 28 bd fd b9 5e 3d 8b 1e 26 3e
       0.1549736 -0.041081008 0.05437659 0.16222589
000240 20 88 77 be c2 9d 4a 3e 00 5f f6 bc 57 7d 0c be
       -0.24173021 0.19786742 -0.030074596 -0.13719688
000250 66 11 92 bd 49 b1 8a 3c c2 33 0a 3e dd 2d 62 3e
       -0.07132225 0.01693024 0.13496307 0.22087808
000260 b9 26 10 3e 59 f4 5e 3e 9c 1f a5 bd 0d 8d f4 3d
       0.14077272 0.21772899 -0.0806267 0.11940966
000270 dd ac 63 3e 9b aa 8d 3e 74 ec 87 3d 02 83 c2 3e
       0.22233911 0.27669224 0.06636897 0.37990576
000280 8b 49 1b 3e 71 26 ee bd ee a9 a8 bd f9 41 92 be
       0.15164773 -0.11628426 -0.082355365 -0.28565958
000290 ac ba 46 3a e4 be b3 be 25 f8 4c be 7b 70 60 3c
       0.0007580917 -0.35106575 -0.20016535 0.013698692
0002a0 6e 5a cf 3d 52 f0 63 3e f9 ea 5f 3e 58 42 82 3c
       0.1012467 0.22259644 0.21866979 0.015900776
0002b0 93 28 0c 3e 14 cb 78 3e ef 33 8e 3e 54 51 03 be
       0.13687353 0.24296218 0.27773997 -0.12823993
0002c0 18 70 8c 3d c9 39 9c 3b 29 0c 0e bd ae 56 9c be
       0.06857318 0.0047676307 -0.034679566 -0.3053488
0002d0 ef ca 49 3e 60 9f 9e bd 32 8a a4 be ca 79 98 bd
       0.1970632 -0.07745242 -0.32136685 -0.074451044
0002e0 00 5b d7 bd a5 92 9a 3e 86 bd 8d 3d 1e 5b 75 3c
       -0.10515404 0.30190006 0.06920914 0.014975337
0002f0 a1 f0 a8 be a6 fb 91 bd 68 be 86 be d0 c6 6b 3e
       -0.32996085 -0.07128076 -0.26317143 0.2302506
000300 d7 63 b9 bd 7f f8 97 bc 58 49 c7 3e 6d 93 17 3e
       -0.09052246 -0.01855111 0.38923144 0.14802332
000310 74 ba e2 be 96 d6 fa 3d 03 04 0a be 2f 25 65 be
       -0.44282877 0.1224796 -0.13478093 -0.22377466
000320 17 6b 95 3d aa 39 a1 be a8 fe e7 3d 9a b8 34 3e
       0.072958164 -0.31489307 0.11327869 0.17648545
000330 38 0f 0f 3e 2b b7 0f be d5 97 59 3e 98 f5 21 3e
       0.13970649 -0.14034717 0.21249326 0.15816343
000340 2f cd 46 3d 87 0b d2 bd 17 72 c9 3b aa 2a 74 be
       0.048535522 -0.10256105 0.006147634 -0.238444
000350 08 85 25 3e 77 a9 31 3e 00 0f c7 bd 2c f4 09 3e
       0.16164029 0.17349802 -0.09719658 0.1347205
000360 56 34 d1 be 3a 1f d2 3d c0 20 4c 3c 13 da 81 3d
       -0.40860242 0.10259862 0.01245898 0.063404225
000370 fc 2a 43 3e fa 72 65 bd 34 c9 ba 3e 5c 6a 8c 3e
       0.19059366 -0.056017853 0.3648163 0.27424896
000380 9e c0 1a 3e 38 75 71 bd 9a 4c 7d be ae 90 e8 bd
       0.1511254 -0.05894968 -0.24736252 -0.113557205
000390 36 57 21 3d 4f c7 72 3d 4c 8f 4b 3e 35 09 70 bd
       0.03938981 0.059272107 0.19878882 -0.05860253
0003a0 7c f4 e3 bd 3c 30 43 be b1 94 de 3e e9 60 8a 3e
       -0.11130616 -0.19061369 0.43472818 0.27027062
0003b0 88 20 37 3e b3 76 aa 3b c7 fe 7c 3d 33 11 20 be
       0.17883503 0.0052021383 0.061766412 -0.15631561
0003c0 ef 94 75 3b 4c c4 37 3e 9f d3 09 3e af 88 b1 bd
       0.0037472805 0.17945975 0.13459633 -0.086686485
0003d0 fe 7c 71 3e 48 43 11 bd 51 55 33 be 70 b7 68 3d
       0.23582837 -0.035464555 -0.17513014 0.056815565
0003e0 94 98 f2 3c e8 09 af 3e e9 d5 ed bd eb bc c2 be
       0.02961377 0.34187245 -0.11613066 -0.38034758
0003f0 3e ef 87 3e de 53 35 3e 50 9e a2 3e 36 53 99 bd
       0.26549715 0.17707774 0.31761408 -0.07486574

f_percept.percept.0.bias f4 [16]
000000 44 56 81 ba 1c c2 b0 39 82 b8 2f 39 da b8 a0 3a
       -0.0009867628 0.0003371396 0.00016758035 0.0012262121
000010 cb 46 7a ba 78 4c b7 37 bb 71 1f ba ec 3a 8b ba
       -0.0009547292 2.1850909e-05 -0.0006082316 -0.0010622418
000020 47 dd 95 ba 9c 7b cc ba af f9 c7 b9 4f 85 5b ba
       -0.0011433744 -0.0015600803 -0.00038142267 -0.00083740515
000030 e0 84 15 3a 24 ee 5a ba c6 1f c0 38 61 3f 5b b9
       0.0005703699 -0.0008351526 9.161192e-05 -0.00020909078

f_percept.percept.3.weight f4 [64, 16]
000000 7b 8b 90 3d 3a d3 0a 3d 03 b8 ad 3c 23 09 29 be
       0.07057854 0.033892848 0.021205908 -0.16507392
000010 ed ad 97 bd 48 73 6b bd 5b 8a 86 bd 6f e7 16 be
       -0.074062206 -0.057482988 -0.06569358 -0.14736722
000020 47 2a 5e 3d 6c 82 0a be 64 59 d7 3d e4 7b b8 bd
       0.054239538 -0.13526314 0.10515097 -0.09008005
000030 d1 ac 1c 3c 4f 6a 13 be da 7c 1a be db 5f e3 bc
       0.009562687 -0.14396022 -0.1508669 -0.027755668
000040 39 1b 18 3e 79 86 06 be a0 7b 19 3e d8 71 e1 bd
       0.14854135 -0.13137235 0.14988565 -0.11008042
000050 58 73 30 bd 02 30 66 be c6 f1 1f be 41 41 0f 3e
       -0.04307875 -0.22479251 -0.15619573 0.13989736
000060 b1 03 1d bd bb cb ef ba 5c b6 c4 bb c3 d6 81 3d
       -0.0383336 -0.0018294969 -0.0060031842 0.06339791
000070 e0 35 da bd 8b cd f0 bd 3a f8 8e be 09 ac 8d bd
       -0.10654807 -0.11757954 -0.27923757 -0.06917579
000080 64 ea cd 3c de 2f 74 3e f9 cc 71 bd 4e 63 0b be
       0.02513618 0.23846385 -0.059033368 -0.136121
000090 55 bb c7 3d 28 2d bc bc 47 1b 29 3e ab 49 96 3d
       0.097525276 -0.02297075 0.16514312 0.0733827
0000a0 2f 01 b3 3d b1 64 79 3d bb c4 86 bd 2d c1 a8 bd
       0.0874046 0.060887042 -0.06580492 -0.0823997
0000b0 8a 77 8b 3e 94 f9 84 bd d6 92 52 be 54 61 1b bd
       0.2723964 -0.06492916 -0.20563826 -0.037934616
0000c0 b0 23 17 3e 89 89 67 3d 8f e5 71 bd ab e6 2a bd
       0.14759707 0.056527648 -0.059056815 -0.04172389
0000d0 52 0f c7 bd 7f aa 1f be b1 89 5c 3d 0b 73 34 be
       -0.09719719 -0.15592383 0.05384225 -0.1762201
0000e0 ee e1 cc bd 1b c1 92 be d8 c0 86 3c 20 ac bc 3d
       -0.1000403 -0.28662953 0.016449377 0.09212518
0000f0 3b 16 a2 3d fc d6 30 bd 73 3f a6 bb fb 98 da 3d
       0.079143964 -0.043173775 -0.0050734817 0.1067371
000100 c7 4a fe bd 18 c7 0c be 48 2c 9a 3d 2a 83 09 3e
       -0.124166064 -0.13747823 0.07527977 0.13428941
000110 9f 10 06 3e 58 e5 00 3e e6 5e 3e be 44 3b ac bc
       0.13092278 0.12587488 -0.18590888 -0.021024354
000120 da 3b e8 3d e9 b2 36 3e 03 09 7a be de ae eb 3c
       0.11339541 0.17841686 -0.244175 0.028769907
000130 ec 31 9a bc 97 23 d5 be 8d 62 e3 3c 21 09 61 bd
       -0.018822633 -0.41628715 0.027756954 -0.054940347
000140 46 15 f4 bd 03 0b 39 bd 94 8d 24 3e 77 bd 12 3e
       -0.1191812 -0.045176517 0.16069633 0.14330088
000150 22 72 91 3d 89 e8 86 bc f3 c8 0c 3e c5 e1 27 be
       0.07101847 -0.016468303 0.13748531 -0.16394718
000160 ac d3 58 3d 3c b1 f6 bd 59 10 42 3e db f0 04 be
       0.05293624 -0.120455235 0.18951549 -0.12982504
000170 d4 97 db bd d0 bf fe 3c f2 7e c8 3d 3f d9 0d 3e
       -0.10722318 0.031097323 0.09789838 0.13852404
000180 01 26 cb bd fc 53 51 bd 63 2d 00 3e bb 0e 95 3d
       -0.09919358 -0.051105484 0.12517314 0.072782
000190 16 8a 05 be 5a e2 2d 3e a1 f5 36 3d 6e f8 02 3e
       -0.13040957 0.16980878 0.044667844 0.12790081
0001a0 07 45 0e 3e 8f 05 23 3b 47 91 7f 3d 0d 57 71 bd
       0.1389352 0.002487514 0.062394407 -0.05892091
0001b0 9e 93 c9 3c 54 1f 6e 3d 5f aa c1 bd dc 52 83 bd
       0.024606522 0.058135346 -0.09456324 -0.064122885
0001c0 0d 8d d2 bd 0f c3 a4 bd 8e 31 95 be 02 82 22 3e
       -0.102808096 -0.08045017 -0.2913937 0.15869907
0001d0 c3 d9 22 3e d8 23 34 bd 68 16 8d be d3 ea 96 bc
       0.15903382 -0.043979496 -0.27556157 -0.01842252
0001e0 28 6a 4e be 53 a2 ad 3d 59 03 10 be c9 66 1c bd
       -0.20157683 0.084782265 -0.14063777 -0.03818396
0001f0 e1 61 04 be 5a 08 46 3d 9e 8a 27 bd 51 9d 11 3e
       -0.12927963 0.04834781 -0.04090368 0.14220168
000200 31 cb 80 3c 9c f0 64 be a5 53 d7 bd c0 ac b6 3d
       0.01572189 -0.2235741 -0.10514001 0.08919668
000210 90 9c 5b be 5a c4 18 be 7a bd e7 3d e0 25 55 be
       -0.21446443 -0.14918652 0.11315437 -0.2081523
000220 5a 64 31 3e b6 4e 17 be 99 8d e4 bd ef 0d 3b be
       0.17323437 -0.1477612 -0.1115982 -0.18267034
000230 cb f5 72 bd e8 5a 49 3e d4 b5 93 bd 3e f0 c4 bc
       -0.059316438 0.19663584 -0.07212415 -0.024040338
000240 b0 23 d8 3d 61 db 71 3e d4 27 55 bc 0f c0 da 3d
       0.10553682 0.23618843 -0.013009984 0.106811635
000250 03 63 10 3e a7 b7 f5 bc 61 85 08 3d 13 80 1e be
       0.1410027 -0.029994799 0.033330325 -0.15478544
000260 74 b6 a2 3d b1 47 de 3d e3 0c 9b bd fe e4 4f 3e
       0.079449564 0.10853518 -0.07570817 0.20302197
000270 17 01 b8 bc ff 38 7c 3c 2f 7e b9 3d eb 22 ce 3c
       -0.022461457 0.015394448 0.09057271 0.025163135
000280 c6 9c 8f 3d 2a 48 fe bd 93 04 e3 bc 87 3c 67 be
       0.07012324 -0.12416108 -0.027712142 -0.22581683
000290 9c 5b 0e 3d b7 dc c3 bd ab 0c 27 3e f8 15 cb 3c
       0.034755334 -0.095635824 0.16313426 0.024790749
0002a0 c6 38 ee 3d c4 a5 be 3c 97 23 3e be b1 48 af 3d
       0.116319224 0.023272403 -0.18568264 0.08558787
0002b0 53 3c 16 be 31 2d 69 b9 10 26 1a 3e df bb b1 bd
       -0.1467145 -0.00022237447 0.15053582 -0.08678412
0002c0 e3 c5 ec 3d d6 d1 95 bd 0f d5 30 3e 7d ab 33 bd
       0.115611814 -0.07315414 0.17268775 -0.043864716
0002d0 83 6c 71 bd fd 80 bb bd f6 68 f2 3d bf 14 f2 bd
       -0.058941375 -0.09155462 0.11836426 -0.11820363
0002e0 eb ec 84 bc b5 a2 c2 3d 83 6b ac bd a9 12 1f bd
       -0.016226253 0.0950369 -0.08418944 -0.038836155
0002f0 ae 7f 06 bd 51 e8 2a be 38 f7 5b bc 8c 16 59 3e
       -0.03283661 -0.16690184 -0.013425641 0.21200007
000300 fa 62 c9 3d b1 1c 56 be 55 e5 17 3d 68 43 32 3e
       0.098333314 -0.20909382 0.037083942 0.17408526
000310 ba 93 82 bd 65 ea fc 3c 86 36 13 bd d3 f3 84 be
       -0.06375833 0.030873487 -0.03594067 -0.25967273
000320 f2 fd 1d 3d b0 a3 bb 3d ac b4 b4 bc b0 76 6f be
       0.03857226 0.0916208 -0.022058807 -0.2338512
000330 68 08 96 3d 04 6c 10 3e fa 4c 41 bd 64 8c 23 bc
       0.07325822 0.14103705 -0.04719255 -0.009982202
000340 a4 60 81 be 68 4c fd 3c 46 9c 38 3e 2b 75 8a 3e
       -0.25269043 0.030920222 0.18028364 0.27042517
000350 37 16 44 bc 5d 59 27 be d6 42 9e bc 96 07 fc 3d
       -0.011968187 -0.16342683 -0.01931898 0.123061344
000360 96 aa 06 3e c9 1f f2 3c ad 0b 02 3d b5 d5 bf bc
       0.13151011 0.029556172 0.031749416 -0.023417333
000370 f7 08 92 3d b6 6e 84 bd b0 0f 63 3d d5 44 b6 3d
       0.07130616 -0.06466429 0.055434883 0.088998474
000380 40 bd 0e 3e 90 d8 40 3d b5 f0 50 bd e9 f9 17 3e
       0.1393938 0.04708153 -0.051010806 0.14841427
000390 1a c4 2c 3e 32 1e ee bc ea a6 04 3d a3 0a 59 3e
       0.16871682 -0.029067133 0.032385744 0.21195464
0003a0 5b 9d 8b 3c ca a8 ae bd ed c9 8b 3d 95 b8 36 be
       0.017042806 -0.08528288 0.06825624 -0.1784385
0003b0 69 c6 a2 bd d2 6c 2f be f5 d7 7b 3c c9 eb 7f 3a
       -0.07948 -0.17131355 0.015371312 0.0009762613
0003c0 6a fc 04 3e 4c 3f 20 be 66 14 05 bd 6b 38 90 be
       0.12986913 -0.15649146 -0.032490157 -0.28168043
0003d0 20 15 91 3e 44 b6 4a bd 79 45 26 3d b8 07 f5 3d
       0.2833643 -0.04949023 0.040593598 0.11964363
0003e0 4c a5 9c bb d2 e0 81 bc c1 3d 38 3e f2 ba f0 3b
       -0.004780447 -0.015854273 0.17992307 0.0073465044
0003f0 da 12 97 3d 72 34 6f 3e 14 5e ca bc fe af be bc
       0.073766425 0.2335985 -0.024703063 -0.023277279

f_percept.percept.3.bias f4 [64]
000000 23 41 8a 39 0d b2 25 3b 40 9c 19 3b 00 42 12 3b
       0.00026369942 0.0025283128 0.002343908 0.002231717
000010 51 45 b6 3a 2f 4f 0e 3b 7d 5c 7e 3a 0e d5 68 3a
       0.0013906156 0.0021714678 0.0009703113 0.0008881845
000020 d0 0f 29 bb b3 a6 ea 3a 53 ae e2 3a b5 da 3f bb
       -0.0025796779 0.0017902463 0.0017294384 -0.0029274647
000030 1a 2e c4 3a 21 58 4a 3b 04 ad 79 b8 98 78 95 bb
       0.0014967353 0.0030875283 -5.952736e-05 -0.004561495
000040 52 1c 01 bb 27 c6 28 bb 49 52 15 3a 0d 9c c0 37
       -0.0019700718 -0.0025752874 0.00056961604 2.296085e-05
000050 97 ba d1 39 22 e6 8b 3a 7c b5 bc 3a 4a 96 39 39
       0.00040002607 0.0010673443 0.0014397348 0.00017698962
000060 ba fa 0a 3a 72 db c5 3a 9a 81 31 3b c9 f9 af b9
       0.00053016434 0.0015095307 0.0027085305 -0.00033564706
000070 f4 da 43 bb 56 41 98 38 b4 24 dd 3a a2 bc 8c ba
       -0.0029885145 7.2600946e-05 0.00168719 -0.0010737369
000080 66 52 3a 3b e1 88 1f 3b 26 54 8b ba 3c 30 69 b9
       0.002843046 0.002434306 -0.0010629937 -0.0002223858
000090 be 7b 8b 3a 40 3c 49 3a af 81 89 3a 58 66 e4 36
       0.0010641736 0.00076765195 0.0010490919 6.806844e-06
0000a0 6e 3e 46 bb c6 d8 8c 3a 18 87 64 3b 5b 9b 62 ba
       -0.0030249613 0.0010745756 0.0034870561 -0.00086443656
0000b0 c2 bb 53 b9 41 38 0f 3a 6c fa 21 3b b7 4c af 3a
       -0.00020192473 0.00054633996 0.0024715913 0.0013374303
0000c0 d4 23 c4 b8 0a 32 9d 3b a2 0c 0f bb 17 d9 45 3b
       -9.352682e-05 0.004797225 -0.0021827598 0.003018921
0000d0 c1 0c 3b 3b 6f e9 6f 3b e7 a2 22 bb c1 01 0c 3b
       0.0028541537 0.0036607643 -0.0024816336 0.002136335
0000e0 df 6f 04 bb da 32 03 3b bb 84 92 bb 5e bf a8 3a
       -0.0020208282 0.0020019324 -0.004471389 0.0012874415
0000f0 2a cf 42 ba 51 3e 90 3b f0 35 a4 35 28 85 c1 3a
       -0.00074313825 0.00440196 1.223465e-06 0.0014764415

manager.M_space.weight f4 [64, 64]
000000 25 55 07 bd 91 9f f6 3d 97 fa a1 3e d1 cc 2a bd
       -0.033040185 0.120421536 0.31636497 -0.041699234
000010 9f 98 8c 3d e4 11 35 3e ee da 56 bd 03 67 38 3e
       0.06865048 0.17682606 -0.05245488 0.18008046
000020 53 95 41 3e 6e 43 18 bd 22 f3 e1 bc ea c8 df bd
       0.18904619 -0.03717368 -0.027581755 -0.10926993
000030 79 93 05 be 45 47 0d 3e 73 0f 13 be 7a 81 fc 3d
       -0.13044538 0.13796718 -0.14361362 0.12329383
000040 80 a3 53 bc 2b 35 29 3d cf 8a e2 bd 83 b0 07 be
       -0.012917399 0.04131047 -0.11061632 -0.13250928
000050 0d d4 71 be 17 61 8d bc 45 54 4c bd 75 4e 6e 3d
       -0.23616047 -0.01725821 -0.049885053 0.05818029
000060 19 27 44 3e 53 19 b3 bd 96 c2 69 be a0 d4 51 3d
       0.1915554 -0.087450646 -0.22828135 0.051228166
000070 92 e4 04 3d 5e 59 7d be ef 34 08 be aa c9 41 bd
       0.032444544 -0.24741122 -0.13301443 -0.047311462
000080 5d d3 a1 bd 7b ac d6 ba 10 90 2b bd cd 26 f6 bd
       -0.079016425 -0.0016378307 -0.041885436 -0.120191194
000090 10 0e 40 be 31 88 fc 3d 95 66 96 3d fc 9a 47 3e
       -0.18755364 0.12330664 0.07343785 0.19492716
0000a0 60 09 33 be 27 50 b5 bd e1 a3 86 3e 05 19 82 bc
       -0.17484045 -0.088531785 0.26296905 -0.01588107
0000b0 a8 e6 1b bd 00 6e 1a bd c5 c1 c0 bd 89 47 d8 3c
       -0.038061768 -0.03770256 -0.094119586 0.026401298
0000c0 87 88 92 bd ee a7 fc bd 54 d6 0a be ac c4 b1 bc
       -0.07154947 -0.123367175 -0.13558322 -0.021700226
0000d0 30 16 e0 3d 66 bf 07 be c9 28 a5 3d b9 ac 33 3e
       0.10941732 -0.13256606 0.0806442 0.17546357
0000e0 25 fa 0e be d2 bf 9b 3d 11 a8 a6 bd d5 20 08 3e
       -0.1396261 0.07604946 -0.08137525 0.13293774
0000f0 60 73 26 bd 2e 65 46 bc cf 67 b4 bd 07 0c f0 3d
       -0.040637374 -0.012109084 -0.088088624 0.11721044
000100 2f 86 d1 3c 40 33 cf bb 3d bc a9 3a 99 e7 e2 3d
       0.025576679 -0.006323248 0.0012949776 0.1107933
000110 6c b3 41 bc 06 44 05 bd ad a4 33 3e 83 80 5d 3e
       -0.011822563 -0.032535575 0.17543288 0.21631055
000120 1e 5f e1 3d 39 63 c5 3d c3 b8 3d bd 20 6b ca bd
       0.1100447 0.09638066 -0.04631878 -0.09883714
000130 e0 46 36 bc 79 24 d7 bd 59 1e 2b bd d6 d1 70 be
       -0.011125296 -0.105050035 -0.04177699 -0.23517546
000140 c6 93 b3 bd c4 1d d6 bd 62 0e 35 bd 9b 6b c5 bd
       -0.0876842 -0.10454896 -0.04420317 -0.09639665
000150 8f d0 2e bd 54 20 48 3d f2 81 8b bd fe 85 96 3e
       -0.042679366 0.048858956 -0.068118945 0.29399103
000160 2c a2 c4 bd 2e 09 ee 3d 72 5f ac bd 4e 4a ed 3b
       -0.09601244 0.11622845 -0.08416642 0.007241524
000170 36 0e 36 be a8 6c 20 3e c0 7d 63 3e aa f2 65 3e
       -0.17778859 0.15666449 0.22215939 0.2245585
000180 09 ff ef 3d e1 f9 02 3e 06 fb 8d bc f8 02 ea 3d
       0.11718566 0.12790634 -0.017331611 0.114263475
000190 fe 15 f4 bd 92 68 2e bc b2 1e 3b bd e4 24 dd bd
       -0.11918257 -0.010645049 -0.04568357 -0.10798052
0001a0 72 d4 11 be b0 18 76 bc 96 94 4f 3d b3 29 31 3d
       -0.14241198 -0.015020534 0.050678812 0.043252658
0001b0 3b 6a f0 bd bc 75 1d 3e 14 29 51 3c a8 b9 c4 3d
       -0.11739012 0.15376943 0.012766141 0.096057236
0001c0 f4 97 bf 3d ca 5a c7 3d 71 02 d5 be 70 44 c8 3d
       0.09355155 0.097341135 -0.41603425 0.097786784
0001d0 66 ee 82 be 9c 9c 84 bd ff d7 3f 3e 85 2f 16 bd
       -0.2557251 -0.06475183 0.1873474 -0.036666412
0001e0 c4 51 c9 3d 37 1b 81 3d f0 50 ee bd dc 24 eb bc
       0.09830049 0.06304019 -0.11636531 -0.0287041
0001f0 fb 27 ec 3c 23 c9 5e 3d c0 fc 9f 3d 28 5c bb 3d
       0.028827658 0.054391038 0.0781188 0.09148437
000200 e3 ac 16 be 26 f4 c6 bc c3 32 f4 3d 56 99 0d bb
       -0.14714389 -0.02428634 0.119237445 -0.0021606288
000210 f9 b9 e7 3d e5 1c 41 be 5d c7 1f bd 75 6b cc 3e
       0.11314768 -0.18858679 -0.039008487 0.39925733
000220 49 b9 03 3e de eb 1d be c9 d2 4c bd 81 14 d1 3c
       0.1286365 -0.15422007 -0.050005708 0.025522472
000230 2e c3 b1 3d f6 bb 01 3b 7b 63 91 3d e5 58 df 3b
       0.08679806 0.0019795871 0.070990525 0.006816017
000240 05 51 24 bd bc 32 4d 3e bf 07 32 be 19 58 ec 3d
       -0.04011633 0.20038885 -0.17385767 0.11540241
000250 39 59 68 3e bf b5 20 bd fa 8f 67 be 01 2e 59 be
       0.22690286 -0.039235827 -0.22613516 -0.21208955
000260 8c f8 ac bd ea d0 fe 3c 01 51 01 3d 9c 09 d9 3c
       -0.08445844 0.031105477 0.031571392 0.02649384
000270 de 73 09 be fb 3a 87 bd 8e 0a ab 3d 32 16 0e 3e
       -0.13423106 -0.066030465 0.083516225 0.13875654
000280 f6 f7 01 3e f6 61 a2 3d 83 48 c5 39 eb 26 d6 3d
       0.12692246 0.07928841 0.00037628794 0.10456642
000290 69 bc 7b 3c f7 f3 46 3d f1 d7 59 3d 40 0a f5 3c
       0.015364745 0.048572507 0.053184453 0.029912114
0002a0 65 3e 00 be a6 97 0e 3e b0 ea d1 bc ca 0c e8 bd
       -0.12523802 0.13925037 -0.025624603 -0.11330564
0002b0 26 da e4 bd ff 40 23 be d1 fb 29 3b f9 7a 1d 3e
       -0.11174421 -0.15942763 0.0025937448 0.15378942
0002c0 0b c3 1c 3e 1d de 61 bd 85 3a fc 3d 76 dc 0e be
       0.15308778 -0.055143464 0.12315849 -0.13951287
0002d0 24 f8 d3 3d 6c 62 30 3d 24 db fa bc 98 ba 93 3c
       0.103500634 0.043062612 -0.030622073 0.01803331
0002e0 bd c7 a0 bd d4 c0 06 3e 97 6f 10 3d 19 f0 ef 3d
       -0.07850597 0.13159496 0.03526267 0.11715717
0002f0 52 fc 82 3d c4 1f c5 3c 4c 8e 67 3e 20 c9 97 be
       0.063957825 0.024062999 0.22612876 -0.29645634
000300 36 b6 3b 3d 1f 72 6c 3e 37 36 e7 bd 7c b2 63 3e
       0.045828067 0.23090409 -0.112896375 0.22236055
000310 dd 31 ab 3e 35 d5 77 bd 54 2e 2f bb dc 9a b8 3d
       0.3343648 -0.060506064 -0.0026730495 0.09013912
000320 29 8c 02 3e 83 19 88 3c c3 eb 1f 3d 9d 21 54 be
       0.1274878 0.016613727 0.0390432 -0.20715947
000330 46 b9 b8 3d 1e 8c 0f 3d 7e 3d c5 3d f4 59 21 bd
       0.09019713 0.035045736 0.09630869 -0.039392427
000340 4d d2 9f 3e 01 9e d0 3b 60 93 05 3d af 91 0d 3e
       0.31215134 0.006366492 0.03261125 0.13825105
000350 08 9a c0 bd b9 13 20 3d 7d 4e f9 3b 37 36 d1 bb
       -0.09404379 0.03908131 0.0076082335 -0.0063846367
000360 4e 02 f8 ba d2 2b eb bd 3b af 29 3c a4 b7 c7 3d
       -0.0018921585 -0.114829674 0.01035672 0.097518235
000370 85 89 d7 bd 1b 22 47 3d cf c2 85 3d 2e f6 0a be
       -0.10524277 0.04861651 0.065312974 -0.13570473
000380 92 f0 ed ba c5 58 e6 bc 2e b7 8f 3d 64 56 40 3e
       -0.001815336 -0.0281185 0.07017361 0.18782955
000390 d5 b5 8b 3d 50 8a 3d 3e d3 c5 c7 3d 1f 0d fc 3d
       0.06821791 0.18509793 0.09754529 0.1230719
0003a0 6f ec 8f 3c eb 92 42 3e f0 f7 36 3e 61 32 23 3e
       0.017568795 0.19001357 0.17868018 0.15937187
0003b0 6b 4e cf 3c 1e 1c a8 3d d0 e0 51 3e 70 c8 78 3d
       0.025305947 0.08208488 0.20495915 0.060738027
0003c0 2b 27 4c be 18 60 87 be 34 c0 a3 bc 8e 94 1f 3e
       -0.19936816 -0.264405 -0.01998911 0.15584013
0003d0 00 dd a2 bd 94 c6 92 3d 38 40 6b be c3 4a df bd
       -0.07952309 0.07166782 -0.22973716 -0.109029315
0003e0 83 ed 8f 3d 51 04 03 be 28 c1 1b 3d 06 00 bc bd
       0.07027724 -0.12794615 0.038026005 -0.09179692
0003f0 d9 56 09 3b 0f 57 c5 bc 60 78 a9 bb b5 61 ea 3c
       0.0020956306 -0.024089364 -0.0051718205 0.028611043

manager.M_space.bias f4 [64]
000000 3c cc c4 ba b4 e8 1d 3b 49 53 07 3b c1 5d 27 3b
       -0.001501448 0.0024095 0.0020649007 0.002553806
000010 a5 c3 e7 b8 e0 72 43 3b f4 11 af ba 0d f1 36 bb
       -0.0001105138 0.002982311 -0.0013356791 -0.0027914674
000020 d5 45 09 3b e4 5f 2b 3b ce d0 df 3a ed 71 93 39
       0.0020946164 0.0026149685 0.0017075778 0.00028122906
000030 05 38 24 bb 3d 78 70 3b ad dd 01 3a b2 f3 e3 3a
       -0.0025057804 0.0036692761 0.0004953992 0.0017391352
000040 9f af 7e 3a 63 59 3b 3a 9f cc 6b ba 4a bf 2c bb
       0.00097155006 0.00071468035 -0.00089950295 -0.0026359134
000050 5f 98 3f 3b 34 6d 8d 3a 71 64 80 39 29 b8 4b 3b
       0.0029235107 0.0010789991 0.00024488897 0.003108511
000060 58 63 33 3b 54 52 e5 ba e6 2b 19 3a bf d4 bf 3a
       0.0027372446 -0.0017495849 0.0005843028 0.0014635547
000070 20 b1 d1 ba 87 fb ef 3a 67 02 85 ba eb 43 3b 3b
       -0.0015998222 0.0018309214 -0.0010147811 0.0028574418
000080 60 1c 1d 3b 2d 04 4a 3b 2f 04 02 3a 2f a0 33 bb
       0.0023973212 0.0030825243 0.000495973 -0.002740871
000090 57 3c 46 bb 56 c7 4d bb 5e a0 ef b8 d7 ae 41 3a
       -0.0030248368 -0.003139933 -0.00011426279 0.0007388419
0000a0 5b 05 8c 3a 01 2e a9 b9 a0 cf 29 bb c1 f6 6f bb
       0.0010682748 -0.00032268467 -0.0025911108 -0.0036615583
0000b0 55 be 06 3b 88 c7 26 3b 21 e4 39 bb fa 63 ae ba
       0.0020560224 0.002544852 -0.0028364735 -0.0013304942
0000c0 f3 03 be 3a 3b c6 17 3b 03 81 fd ba 70 25 19 3b
       0.0014497027 0.0023158926 -0.0019340817 0.0023368262
0000d0 ab bc 25 bb 47 b2 51 bb 66 ea e6 3a b6 5d 0e bb
       -0.0025289457 -0.003199713 0.0017617464 -0.0021723337
0000e0 ce 15 4a bb f1 3f 92 ba c5 75 af 39 94 97 d2 3a
       -0.003083575 -0.0011157972 0.00033466346 0.0016066902
0000f0 6d 10 9f b8 a2 e5 8e bb 0c d4 39 bb 6b 9d 40 3b
       -7.58477e-05 -0.0043608705 -0.002835515 0.0029390703

manager.M_goals.weight f4 [64, 128]
000000 8b a2 90 bd a8 e6 0c bd c1 31 1b bd a4 56 d5 bd
       -0.070622526 -0.03439966 -0.037889246 -0.10416916
000010 e0 42 26 3e e4 3d 06 3e f1 85 0c 3d 6b 62 75 3d
       0.16236448 0.13109547 0.034307424 0.05990831
000020 40 08 0e be 16 62 29 3e 3e ce e5 3c 21 0d a1 be
       -0.13870335 0.16541323 0.028052446 -0.3145533
000030 8d b0 2a 3e 81 01 1b 3e 2e 03 bb 3c ec ba 2a 3e
       0.16668911 0.15137292 0.022828665 0.16672868
000040 e2 44 68 bd fd 26 b3 3c 44 42 f5 bd 29 4f 5f 3c
       -0.056706317 0.021869177 -0.1197553 0.013629713
000050 23 1b 99 bd 72 c7 67 3d ee 85 b8 38 f8 86 30 3c
       -0.07475879 0.05658669 8.79875e-05 0.010774367
000060 2d 7f ce bc 9c 7e 85 bd 2d 00 e9 bb b6 f4 21 be
       -0.025207127 -0.065182894 -0.0071106167 -0.15816006
000070 a8 3d 90 3a 70 96 60 be d2 bf 49 bd 71 9f f6 bc
       0.0011004703 -0.21932387 -0.0492552 -0.030105324
000080 3f 33 c5 3d 8b 77 01 bd d1 18 b8 bc 23 e9 b0 3d
       0.09628915 -0.031608146 -0.02247277 0.08638217
000090 91 1d 29 bd 57 26 93 bd d2 ae ea 3d 82 4a 90 bd
       -0.041287962 -0.07185047 0.114591256 -0.07045461
0000a0 c4 7f 84 bd dc 1f d9 bd 14 59 11 3e 3e 75 2d 3d
       -0.06469682 -0.1060178 0.14194137 0.04234814
0000b0 3e 04 86 3c 74 a9 90 3c 17 bf cf bd 06 aa fb bd
       0.016359445 0.017658927 -0.10143869 -0.12288289
0000c0 72 a2 e2 bc 60 9f 4b 3a bb dc 19 3d fe b9 82 3d
       -0.02766535 0.0007767584 0.03756402 0.063831314
0000d0 98 4e ac 3d 22 7b 1a 3e 0a 51 6e bd bf 04 1f 3e
       0.08413428 0.15086034 -0.058182754 0.15529154
0000e0 0a 3a 39 3c b1 fc 38 3d ba 58 2a be a6 ac 06 bd
       0.0113053415 0.04516286 -0.16635409 -0.032879494
0000f0 7f 35 2a 3d 6d c9 b6 3d 7a 08 6c bd 1f 19 a0 3b
       0.041554924 0.08925138 -0.05762527 0.004885807
000100 45 43 b0 3d 25 92 2a 3e 61 78 c9 bd 41 d5 91 3c
       0.08606581 0.16657312 -0.098374136 0.017801883
000110 d4 c7 86 bc 12 4d 32 bd e7 15 ec 3d 2a b3 a0 bd
       -0.016452707 -0.04353053 0.11527615 -0.07846673
000120 6b 0b 3a bd 00 0f 3a bc b5 47 94 3d 6d 18 78 bd
       -0.045421045 -0.011356115 0.072402395 -0.06057017
000130 1b 62 24 3e 5a 9e 7a bd 4a 54 6a bd 31 3a 67 3d
       0.1605305 -0.061186172 -0.05720929 0.05645198
000140 8c 90 d4 3c 67 59 d6 bc 26 6f 38 3c 7f 5c 05 3d
       0.025947832 -0.026165677 0.011256969 0.032558914
000150 b1 7f 99 3c a9 b7 59 bd 81 dd 12 ba 32 74 7a bd
       0.018737646 -0.053153668 -0.00056024647 -0.06114597
000160 74 d0 54 be c2 1b 02 3c 7c ba 54 ba cd 71 24 3d
       -0.20782644 0.007941188 -0.00081149465 0.04014759
000170 5f bb 4b 3d f1 55 09 3e 11 ae 01 3d 8d 60 d0 3c
       0.049739238 0.1341169 0.031660143 0.025436664
000180 a3 17 d5 3d 84 4a 29 bd e9 c1 92 3d 4e 2d 9d bc
       0.10404899 -0.04133083 0.07165892 -0.019186642
000190 91 15 4a be 54 46 83 bd ef bc f9 3d 04 dd 98 3a
       -0.1973479 -0.064098984 0.12194239 0.0011662547
0001a0 59 87 73 3d e6 82 b0 3d b2 68 8a bc a2 74 a0 3c
       0.05945525 0.08618717 -0.016895626 0.019586865
0001b0 7b b2 d0 3d 61 dd 9f 3c 20 f9 ca 3b 59 13 ba bc
       0.101902924 0.019514741 0.006194249 -0.022714304
0001c0 12 46 c4 bd 15 57 19 3d 52 a5 14 bc ee 25 fe 3c
       -0.09583677 0.037436564 -0.009072619 0.031023946
0001d0 ba db 17 3d 02 02 8a 3d 63 64 23 3e 2b f5 a1 bd
       0.037074782 0.06738664 0.15956263 -0.0790809
0001e0 d3 de 0b bd ed bc 1a 3c 32 36 0b be 02 de 15 3e
       -0.03414805 0.0094444575 -0.13594893 0.1463547
0001f0 b8 0a 10 3c 33 b5 5f bd 19 72 ac 3b 9f 79 ec 3c
       0.008791618 -0.054616164 0.005262625 0.028866587
000200 f9 97 dd 3d d7 0b 62 bd ae 1d e6 bd b2 56 c6 bd
       0.10820002 -0.055187073 -0.1123613 -0.096845046
000210 69 4a e8 3d d3 68 0c be 9f 31 b2 3d d4 23 2f 3e
       0.113423176 -0.13711862 0.08700871 0.17103511
000220 38 61 87 bd 99 da 20 bb bc 3d 87 bd 0c f6 b5 bc
       -0.0661034 -0.0024544357 -0.06603572 -0.02221205
000230 40 ba 15 bd 40 89 5e bd 24 95 2b 3d 22 eb 49 bd
       -0.036554575 -0.05433011 0.04189028 -0.049296506
000240 9b 63 d9 bd 59 9f 01 bc c3 c2 40 bd 5b 98 8e 3d
       -0.10614701 -0.007911527 -0.04706074 0.06962653
000250 8b 76 4d 3e 99 a8 b4 3d e9 bc 5a bd d4 7b 20 3e
       0.20064752 0.0882122 -0.053402815 0.15672237
000260 e3 19 0a 3e e2 54 47 3e b3 3d 25 be 94 4a 43 3d
       0.13486437 0.19465974 -0.16136818 0.047678545
000270 6c 75 08 3d be 4d b5 3c 9d 56 82 3c 74 92 3d bd
       0.033315107 0.022131797 0.015910441 -0.046282247
000280 be 93 0d 3d 14 24 2b 3d b1 ae 9f 3d 57 fa c6 3c
       0.034564726 0.041782454 0.077969916 0.024289293
000290 12 a9 57 bd fe 4f 66 3d 13 72 d0 3c 5e 57 4f bd
       -0.052651472 0.05622863 0.02544502 -0.05062043
0002a0 bd fc 72 bc 7f c5 c5 3b 69 f6 0e 3e 4a b1 1c bc
       -0.014830765 0.0060355063 0.13961186 -0.009563753
0002b0 f0 a9 20 be b1 e2 c7 3d 18 ca 66 3c 45 14 b3 bd
       -0.15689826 0.09760035 0.014086269 -0.087441005
0002c0 e5 ab a5 bd c3 8e bd 3d 15 45 10 be 40 38 c0 3d
       -0.08089427 0.09255745 -0.14088853 0.09385729
0002d0 aa a0 63 bd 24 7e 7b bd 13 bd 81 bd d5 8b 1f 3c
       -0.055573143 -0.061399594 -0.06334891 0.009737928
0002e0 54 fd 8b 3c 5d d9 8f bd 66 e2 a9 3b 18 8e 73 bd
       0.01708857 -0.07023881 0.0051844595 -0.059461683
0002f0 62 87 a9 bd f9 d5 c9 bd 45 2b f1 3d 7a de b1 bc
       -0.08277775 -0.09855265 0.11775831 -0.02171253
000300 0f 07 c4 bc 8c 01 8a 3d 10 20 cc bd b5 59 89 3d
       -0.023929147 0.06738576 -0.09967053 0.067065634
000310 55 4b 05 3d e7 e3 b2 bc 56 b7 8d 3d 5e bd fa 3d
       0.032542545 -0.021837188 0.06919734 0.1224315
000320 ce 7a 74 3c 56 cb a2 bd 4c 39 e2 bd ca 68 43 be
       0.014921857 -0.079489395 -0.11046085 -0.19082943
000330 55 3a 00 3d 4e c7 ad 3c 97 e7 ac 3d 40 a8 eb bd
       0.03130563 0.0212132 0.0844261 -0.115067005
000340 63 4f 86 3d a6 75 3f 3d 2b cd d8 bc 48 ba 37 bb
       0.065581106 0.046743058 -0.02646502 -0.0028034616
000350 4a 08 8e 3d 89 de a4 3c b1 6f e6 3b 8a a9 05 3e
       0.06935175 0.020125644 0.0070323576 0.13052955
000360 2b 82 f7 bc 6a aa 55 3d 53 07 1b bd b8 17 6c 3e
       -0.030213436 0.052164473 -0.03784878 0.23055923
000370 d1 5a db bd 9d 28 a2 bd f7 b3 c1 bc f5 7b 15 bd
       -0.10710681 -0.079179026 -0.023645384 -0.036495168
000380 98 34 8b bd 86 4f fe 3d 5b 72 d1 3d 49 b9 b7 bd
       -0.06797141 0.12417512 0.1022689 -0.08970887
000390 87 04 82 bd 4a 2d 26 3e a8 c5 44 bd e1 37 48 bd
       -0.0634852 0.16228214 -0.048040062 -0.048881415
0003a0 c4 fa fa 3b ed 40 32 3e f0 3f 2d 3c d6 72 11 be
       0.007659288 0.1740758 0.010574326 -0.14203963
0003b0 9c 98 ae 3d e8 e9 25 3d b9 00 81 3d fc 33 d8 3b
       0.08525202 0.040506274 0.06298966 0.006597994
0003c0 cf c9 d1 bc 5d 63 49 bd e1 9e 03 3e 2a c4 ab bb
       -0.025608925 -0.049167026 0.12853576 -0.0052418904
0003d0 cc a3 b9 bd 16 01 1d be 5f d4 ed bc 8f 24 b1 3d
       -0.09064445 -0.15332446 -0.02903193 0.08649551
0003e0 ea 23 de 3c 00 c7 2a 3d 3c f7 19 be 18 d2 dd bd
       0.027116735 0.041693687 -0.15035719 -0.10831088
0003f0 e8 c9 7b 3d 89 66 c3 bc 7f e2 5d be ad 2d c8 bd
       0.06147185 -0.023852604 -0.21668433 -0.09774337

manager.M_goals.bias f4 [64]
000000 07 3b d4 b8 e5 fb 24 bb c4 2c 56 3b dc 95 29 3b
       -0.000101199425 -0.0025174555 0.003268049 0.0025876677
000010 28 c1 74 bb a1 0f 63 bb 5e d2 32 3b 9d 51 2c bb
       -0.0037346575 -0.0034646767 0.0027286033 -0.0026293762
000020 10 33 2c bb f8 58 3c 3b 89 bd 67 3a 6d 6c 2c 3b
       -0.0026275553 0.0028739553 0.00088401936 0.0026309744
000030 39 58 d9 3a d4 a1 51 bb 12 3e 11 3b 14 a2 3d bb
       0.0016582079 -0.0031987326 0.002216224 -0.0028935717
000040 f4 91 7e bb c8 ea 1c 3b ea 80 34 3b 66 08 aa 38
       -0.003884432 0.0023943651 0.002754266 8.107796e-05
000050 12 aa 27 bb 35 bd 9b 39 ad fd ee 3a b3 f2 44 3b
       -0.0025583548 0.00029704874 0.001823356 0.0030051887
000060 c9 47 00 bb 82 63 46 bb 34 11 31 bb 29 d4 1f 3b
       -0.0019574037 -0.0030271714 -0.002701831 0.0024387932
000070 87 ae 23 3b 49 1c 44 3b e4 35 fe ba b9 73 11 bb
       0.0024975853 0.0029924086 -0.0019394723 -0.002219422
000080 6a f3 75 bb a7 d7 b6 ba f2 e0 39 bb b9 0c 79 3b
       -0.003752912 -0.0013949767 -0.0028362838 0.0038001968
000090 de 6f 43 bb a5 3c aa ba b0 96 40 bb 34 4b 34 3b
       -0.0029821317 -0.0012988044 -0.0029386692 0.0027510645
0000a0 87 02 03 3b 38 c3 41 39 02 94 6d ba 78 ac 01 3a
       0.001999052 0.00018478639 -0.00090628874 0.00049466593
0000b0 c4 1f 5a 3b 18 a5 1c bb 15 86 c1 ba dd 26 a7 ba
       0.0033283094 -0.0023902114 -0.0014764691 -0.0012752671
0000c0 88 73 70 3b af f5 e6 ba 17 3a 27 3b d1 64 1a 3b
       0.0036689956 -0.0017620827 0.0025516802 0.0023558626
0000d0 bb 74 6c bb 0a 23 2f 3b c2 24 32 3b 20 b6 5c 3b
       -0.003608032 0.0026723766 0.0027182554 0.003367789
0000e0 3a ab 42 3b e1 88 82 bb ea 3a fa ba f4 13 37 3b
       0.002970411 -0.0039836024 -0.0019091044 0.0027935477
0000f0 d5 4c 40 3a ed 7b 10 3b b8 b0 6d 3a 84 63 13 3b
       0.00073356676 0.0022046522 0.00090671657 0.0022489736

manager.M_value.0.weight f4 [32, 64]
000000 50 5f 18 3e e4 41 27 3e 51 d2 1a be 89 5d 1e 3e
       0.14880109 0.16333729 -0.15119292 0.15465368
000010 81 c9 2b 3e 70 42 ff bc 46 5d 08 bd f6 ab ec 3c
       0.16776086 -0.03115961 -0.033292077 0.028890591
000020 46 4e 0a be 18 ae a0 bd d9 15 9b be 38 ea 0a 3e
       -0.13506421 -0.07845706 -0.30290106 0.1356591
000030 43 7b 06 3c 5d ee 76 ba 24 de a4 3d 76 bb 41 bd
       0.008208099 -0.0009419674 0.080501825 -0.047297917
000040 c0 af ad 3d ff cd 06 bd f9 6a e6 bc 2d b5 82 bc
       0.08480787 -0.032911297 -0.02812718 -0.015955532
000050 e9 95 f3 3b e9 b9 14 bd 20 fc 00 be 4e 38 57 3e
       0.007433642 -0.03631011 -0.12596178 0.21017572
000060 20 f5 ca bc 41 5d 91 3e 6f 4b b7 3d e0 67 73 be
       -0.024775088 0.2839146 0.08949935 -0.23770094
000070 9d 4b 25 3d 6c 72 33 3c 3d 51 23 be bf 70 2a 3e
       0.040355314 0.010952573 -0.15948959 0.16644572
000080 8d 43 0d 3e 1b 14 09 3e 49 58 48 bd 4f ef bc bd
       0.137953 0.13386576 -0.04891232 -0.09225332
000090 3a d8 d0 3d f8 e6 65 bd 8b ab a7 bc cf da b3 3d
       0.10197492 -0.056128472 -0.02046754 0.08781969
0000a0 90 a6 0f 3e f4 50 a8 3d 1c 45 e0 bd 80 8f 29 bb
       0.14028382 0.082185656 -0.109506816 -0.0025872886
0000b0 a4 09 28 be 5c c1 48 be 9a 60 4a 3d e9 f7 3a 3e
       -0.16409928 -0.19605011 0.049408533 0.18258633
0000c0 62 f4 ba 3d c2 23 7e bd f0 60 e1 3d 90 8c 89 3d
       0.091286436 -0.06204582 0.110048175 0.06716263
0000d0 5f 42 64 3e d6 57 9c 3c 6e 32 16 be a1 7e f2 bb
       0.22290944 0.019084852 -0.14667675 -0.0074003492
0000e0 00 4a 4e be 3a e4 8b 3d 4f 84 c0 bc 53 0b 78 3d
       -0.20145416 0.0683064 -0.02350059 0.060557675
0000f0 bb 5f 02 be d5 84 45 be 16 2a f7 3d f6 8a 27 3e
       -0.12731831 -0.19288953 0.12068574 0.16361603
000100 eb a1 28 be 71 a7 54 3e d9 d4 04 bd ab 25 2b bd
       -0.16468017 0.20766999 -0.03242955 -0.04178397
000110 60 dd d3 3c eb 1c 4f 3d b4 ea 19 be 4e 4e 2c 3d
       0.025862396 0.050564688 -0.15030938 0.042066865
000120 0d 5a 28 bd 1c f0 a9 be 66 58 e2 3d 3d 4e 5d 3d
       -0.041101504 -0.33191 0.11052017 0.054029692
000130 9a cd a9 be 8a 42 da 3c fe f1 8e b9 26 2a c8 bd
       -0.33164674 0.026643056 -0.0002726465 -0.09773664
000140 50 05 66 3d 57 b3 79 3c 42 93 2f 3e a2 5a 4b be
       0.05615741 0.015240512 0.17146018 -0.19858792
000150 30 e3 df bb 2b 90 95 3d 41 c5 cc 3d 14 0b 3b 3d
       -0.006832503 0.073028885 0.09998561 0.04566486
000160 01 3d c6 bb 9e d0 8c bd fd ae e3 3d 44 d5 30 be
       -0.0060497527 -0.06875728 0.11117361 -0.17268854
000170 f3 ad 18 be ac 28 6d bd 68 f6 17 bd ad 1e 0c 3b
       -0.14910106 -0.057900116 -0.037100226 0.002138059
000180 3f ac 1a 3e c9 de 86 3b 84 d3 d4 3d 8c ba 2b 3e
       0.15104769 0.0041159135 0.10391906 0.1677038
000190 7c 8a 0a 3e a3 fd 45 3e f0 18 03 3d 02 37 83 bd
       0.1352939 0.19335036 0.032006204 -0.06406976
0001a0 9b f9 8a 3c 1e 39 45 3c ff 04 93 3e a3 13 d8 3d
       0.016964724 0.012037544 0.2871475 0.105506204
0001b0 8d 70 70 bd 9a 45 b4 3d 04 b4 82 3e 06 f7 d3 bd
       -0.058701087 0.08802338 0.25527966 -0.1034985
0001c0 90 be 33 be 35 36 11 3d 7f 03 e2 3c 41 02 13 be
       -0.17553163 0.035452086 0.027589558 -0.14356329
0001d0 5a 9f a2 bd 87 99 7b 3d bd d7 01 3e 6b f3 10 be
       -0.0794055 0.061425712 0.12679954 -0.14155357
0001e0 b3 2e 5f 3d ac bb 76 3d 0f 09 e0 3d f1 e3 01 3e
       0.054487895 0.06023757 0.10939228 0.12684609
0001f0 4b 88 3d be 98 14 c7 bd 3a c9 5c 3d 89 0b 6b 3a
       -0.18509023 -0.09720725 0.053902842 0.00089662574
000200 79 5a 12 be c1 86 b6 bd b0 9f 15 3d a4 5e 50 3e
       -0.14292325 -0.08912421 0.036529243 0.20348603
000210 3a 55 85 3c 64 13 14 bd 02 d5 39 3c 9b 28 28 3d
       0.01627599 -0.036151305 0.011342289 0.04105435
000220 d0 90 ef 3d 45 38 75 3e f0 ed 3d bd 77 ab 10 3e
       0.11697543 0.23947246 -0.046369493 0.14127909
000230 e4 2e 1b bd de 40 37 3d 54 bc 4f bb 7f fb cc be
       -0.037886515 0.044739597 -0.0031697946 -0.40035626
000240 5d af 8f bc b4 89 27 3e c1 d0 32 bd 6a 6e 83 3d
       -0.017539674 0.16361123 -0.043656114 0.06417544
000250 e3 d6 84 be a8 d6 24 3e 8e e8 1b 3e f1 05 12 3e
       -0.25945196 0.1609751 0.15225431 0.14260079
000260 02 c8 05 3e c4 ea 8e bd e8 a1 aa bd 4f 90 10 bb
       0.13064578 -0.06978372 -0.083316624 -0.002205867
000270 7f b8 31 3e a9 e3 56 3e 30 47 1e 3d 88 cb 9c bc
       0.17355536 0.20985283 0.03864211 -0.01914002
000280 d8 57 18 3e aa dd d5 3d a6 20 f7 bd 58 bf b9 bd
       0.1487726 0.1044267 -0.12066774 -0.09069699
000290 a9 78 32 3d 73 24 d0 ba 41 1a d6 bb f7 d2 27 3e
       0.0435721 -0.0015880003 -0.0065338914 0.1638907
0002a0 54 5d 00 3e b7 70 28 3e 50 68 6e 3d a5 c2 c5 3d
       0.12535602 0.16449247 0.05820495 0.09656266
0002b0 9c a8 25 3e c0 95 97 3d 6a 9f 25 bd 59 bb 26 be
       0.161776 0.074016094 -0.040435232 -0.16282405
0002c0 2f c2 0f 3e e8 fc de 3d 21 25 1c be fd 9e 80 3b
       0.14038919 0.10888082 -0.15248539 0.003925203
0002d0 2e 26 db bd f4 ff 8a bc 83 91 a8 3d 8b 74 8e bc
       -0.107006416 -0.016967751 0.08230879 -0.017389556
0002e0 59 14 b2 bb dc 1b e0 bc 64 1f 3b 3e 4d 98 5c bb
       -0.0054345545 -0.027357034 0.18273693 -0.0033660114
0002f0 00 2d 0a be 20 54 f5 3c 55 e7 ce 38 46 1e 88 3e
       -0.13493729 0.02994734 9.8659344e-05 0.26585597
000300 e3 27 3d 3e 03 d0 9b bd 9d ba 95 3e f5 e0 42 3d
       0.18472247 -0.076080345 0.29243937 0.047577817
000310 3b 11 48 be e6 19 0e bd 49 97 1f be 1c ba b4 3c
       -0.19537823 -0.034692667 -0.15585054 0.0220614
000320 4d 13 de ba 16 71 94 bd d4 0d 2e 3e 1c 22 a7 3d
       -0.0016943008 -0.07248132 0.16997463 0.08160803
000330 b3 ae ab 3c 28 83 82 bc e6 f1 85 3d 9b 1d 4a 3e
       0.020957327 -0.01593168 0.06540279 0.19737856
000340 25 84 53 3c c5 af 78 3c 3a 16 28 be 37 37 a8 3d
       0.012909924 0.0151786255 -0.16414729 0.082136564
000350 86 96 69 bd 06 f3 41 3b a3 0c 08 be 44 e3 e9 bd
       -0.057028316 0.0029594316 -0.1328607 -0.114203006
000360 66 f3 9f bc 37 b9 84 3e b7 e9 89 bd 7a ce 57 bd
       -0.019525241 0.25922558 -0.06734031 -0.052687146
000370 c5 c2 4b be 4e ce 3c 3e c9 07 ab bc 71 86 70 3d
       -0.19898517 0.18438074 -0.020877736 0.058721963
000380 ea 1f 08 bd 0b 86 d2 3d a0 bc 02 be 60 9e 43 bd
       -0.03323356 0.10279473 -0.12767267 -0.04775846
000390 cf 40 8d 3d 68 19 57 3d a3 6f 70 bc fa c1 6e bd
       0.06897127 0.052514464 -0.014675054 -0.05829046
0003a0 64 64 54 3c a3 55 ab bd 28 13 01 3e 4d 96 c4 bd
       0.012963388 -0.08365943 0.12604964 -0.0959898
0003b0 63 ba 71 3d b6 10 76 3e cf 8d 22 3e 87 fd 0d 3c
       0.059015643 0.24029812 0.15874408 0.008666403
0003c0 e3 3f 91 3e 47 02 18 3e 0d 91 ef bd a7 f9 ce 3c
       0.28369054 0.14844619 -0.11697588 0.025265528
0003d0 ea ff 92 bd b7 5c 47 3e dc 4b 63 be 4f 8f e1 3c
       -0.07177718 0.19468962 -0.22196907 0.027534155
0003e0 10 17 8a bd 69 ff 7e 3c bb f1 88 3e 16 0a 47 3e
       -0.0674268 0.015563824 0.26746926 0.19437441
0003f0 e4 9d da bc df cc 97 3c 30 86 a9 3d 6c 4e 90 bd
       -0.026686616 0.018530307 0.08277547 -0.07046208

manager.M_value.0.bias f4 [32]
000000 4b 3f 42 bb 31 15 86 bb 50 5e 3b 3b 8a c1 1c bb
       -0.0029639776 -0.0040918817 0.002859015 -0.002391907
000010 eb 0a 4a bb 09 54 54 bb 8e f5 3e 3b e1 de 0b 39
       -0.0030829262 -0.0032398722 0.0029138061 0.00013339102
000020 e9 50 4d 3b 23 02 5d bb 32 b0 53 bb 49 07 db ba
       0.0031328744 -0.0033723197 -0.0032301066 -0.0016710545
000030 e9 78 ec 39 71 19 cb ba 4b a4 3c bb 0a 6c 38 3b
       0.00045103513 -0.0015495253 -0.002878445 0.0028140568
000040 e1 e7 23 3b e5 9b 64 bb 69 57 3d 3b e1 17 58 3b
       0.0025010037 -0.003488296 0.0028891212 0.0032973217
000050 7d 81 3d 3b cb bc 29 bb 36 df 48 bb c6 b9 5d bb
       0.0028916292 -0.0025899883 -0.0030650622 -0.0033832653
000060 c2 bc 3e 3b c7 15 48 3b 61 86 3d 3b 2e 67 17 bb
       0.0029104208 0.0030530558 0.0028919207 -0.0023102271
000070 c1 0c 89 3a ad ff 55 bb d7 bc 34 3b e2 46 14 3b
       0.0010456071 -0.0032653615 0.0027578378 0.0022625257

manager.M_value.2.weight f4 [1, 32]
000000 92 8e e9 3d f3 0a 47 3e ac da ad be 7f 4f 07 3e
       0.11404146 0.1943777 -0.33955896 0.13213919
000010 e9 6b 68 3e d6 26 d4 3d 8e f6 62 bd 3f f1 2b bc
       0.22697414 0.1035897 -0.055410914 -0.010494529
000020 a0 56 64 be 09 02 2c 3e 0f d1 0b 3e e5 25 ea 3d
       -0.2229867 0.16797651 0.13653968 0.11433009
000030 38 03 52 bd f0 3f 8e 3d 1f 4a f0 3d 80 3f 94 bd
       -0.0512726 0.06945789 0.117328875 -0.07238674
000040 14 56 a7 bd c2 c2 ab 3d be 46 19 bd 45 af 5f bd
       -0.08170715 0.083867565 -0.03742098 -0.05461051
000050 14 0c 0b be 08 81 20 3e c1 9c a0 3e 59 4c a8 3e
       -0.13578826 0.15674222 0.31369594 0.3287075
000060 1c 8f c9 bc 05 ba 75 be e0 7f 58 be f5 5a 73 3d
       -0.024604373 -0.23996742 -0.2114253 0.059412915
000070 7a 5a 4e be 65 73 d9 3e bc 3d 76 bd 84 11 93 bd
       -0.20151702 0.42470852 -0.06011747 -0.07181075

worker.f_stateW.0.weight f4 [128, 64]
000000 36 9a 77 3d 7d b1 42 3d 46 b9 5e bd e5 3d 23 bd
       0.0604498 0.047532547 -0.05437591 -0.03985395
000010 83 f4 b3 bd c0 96 59 3d 0c 84 47 bc 84 df 51 be
       -0.08786871 0.053122282 -0.0121774785 -0.2049542
000020 03 08 c4 3d 62 13 ac bd 88 1f 80 bb 2d 35 dd bb
       0.095718406 -0.084021345 -0.003910009 -0.006750724
000030 5c 05 58 bc a2 c6 cf 3c 45 71 05 3e 4f c4 fa bc
       -0.0131848715 0.02536327 0.1303149 -0.030611185
000040 1d ca b8 3d c6 7a ec bb 44 b7 69 3e c7 54 ba bd
       0.09022925 -0.007216784 0.22823817 -0.09098201
000050 57 65 e7 bd a1 02 fb bd c6 71 0c bd 7a 44 a8 3c
       -0.11298626 -0.12256361 -0.03428819 0.020540465
000060 51 02 5b 3e 81 fa c4 bd 52 c2 19 3e 35 82 fb bd
       0.21387602 -0.09618092 0.15015534 -0.122806944
000070 23 e4 fa bc 48 2d 07 bd a2 0e 98 3d 69 d9 33 3d
       -0.030626362 -0.033002168 0.07424666 0.04390851
000080 7a 9e c6 3d 3a cb 48 3d 8a c6 56 3b a2 55 8c 3c
       0.09698196 0.049021937 0.0032772147 0.017130677
000090 9d 8b ec bc 9d d1 c6 bc 18 93 87 3d 85 db 95 bd
       -0.028875167 -0.024269873 0.06619853 -0.07317261
0000a0 9f bf 19 be a2 0c 71 3d 35 8c a4 3d 63 99 99 3a
       -0.15014504 0.05884994 0.08034555 0.0011718686
0000b0 72 1b 51 bd b8 86 0e 3d 7a 54 8e bb bf 32 5d 3d
       -0.051051565 0.034796447 -0.0043435665 0.054003473
0000c0 b8 2a 65 bd 45 fb ff bd 86 e1 74 3d cd 1a 80 3d
       -0.055948943 -0.12499098 0.05978539 0.06255112
0000d0 28 a9 f8 3d bc 03 83 bd ae 7a 5c 3d a6 08 1f be
       0.12141639 -0.06397197 0.053827934 -0.15530643
0000e0 27 60 5f bc f2 d9 e5 3c 93 6e 18 be d9 15 0f 3c
       -0.013633764 0.028058026 -0.1488593 0.008733236
0000f0 3b 2a 87 3c d1 fd f7 3d 61 fc 08 3d 8f 78 c2 bc
       0.01649963 0.121089585 0.033443812 -0.023739127
000100 65 09 2a 3d a1 44 02 3d 23 4a 10 be 5d 3d 50 bd
       0.041512866 0.03180373 -0.14090781 -0.05083977
000110 2b 96 c1 bd f1 96 91 3c 66 e5 c0 3d db 58 1a 3d
       -0.094524704 0.01777217 0.09418754 0.037682395
000120 c3 1f e2 3d 44 ff 6b 3d c7 0c ea 3c 69 a6 ea bd
       0.11041214 0.057616487 0.028570546 -0.114575215
000130 b4 3f c5 bb 7c 28 cf bd 4c bf 93 3c 5e 98 f5 39
       -0.006019557 -0.10115144 0.018035553 0.00046843564
000140 33 21 a0 3d c5 5d 45 3d 49 72 4a bd 34 30 2c 3d
       0.07818832 0.04818513 -0.049425397 0.042038158
000150 82 a3 89 3d f1 29 b2 bb 92 e6 86 3d 47 a6 e2 bc
       0.0672064 -0.0054371287 0.065869465 -0.027667178
000160 58 6b 89 be 50 35 ce bd 22 e6 ab 3d 02 74 cc bd
       -0.2683971 -0.10068762 0.08393504 -0.09983064
000170 e6 37 a3 3c 7f 06 20 3e e9 6a e8 3c 47 0f 9a bd
       0.019924115 0.15627478 0.028371291 -0.07522445
000180 66 d2 bd bd af 67 bd bd 0d ee 18 bc 80 7f 2e bb
       -0.09268646 -0.09248292 -0.0093340995 -0.002662629
000190 e2 f0 28 bd 5c 3c b4 bd d7 5d bf 3c bc 52 ab bd
       -0.04124535 -0.08800575 0.023360176 -0.0836539
0001a0 b3 6d 2b 3d 40 6a ee bd 56 97 15 bd 5a 4c a4 3d
       0.041852664 -0.11641359 -0.03652128 0.080223754
0001b0 55 cf e1 3b 5c ab a4 3d b6 b8 37 be bd 31 da bd
       0.006891171 0.08040497 -0.17941555 -0.10654018
0001c0 f5 f1 34 3e 63 a6 8d 3b bb 3b c7 3d 4d 2c 0e be
       0.17670424 0.0043228134 0.097281896 -0.13884087
0001d0 ec 61 14 3e ad 17 13 3c b8 87 c3 bd 0a 7d 15 3e
       0.14490479 0.008977813 -0.09547371 0.1459848
0001e0 88 06 07 3d 4f 6e e5 3d d3 c1 d6 3d 57 ca 00 3e
       0.032965213 0.1120268 0.10486188 0.12577187
0001f0 15 ed 0a 3c 6c d8 c6 3d d2 3f 90 3d 8c b7 96 bd
       0.008479376 0.09709248 0.07043423 -0.073592275
000200 31 70 42 bc 96 ef 92 bc 6f 1c 0a be db 24 29 3e
       -0.011867569 -0.01793651 -0.13487409 0.16517965
000210 45 cf c7 bd 84 a7 01 bd 64 19 dd bd 3c 24 bf 3c
       -0.097563304 -0.031653896 -0.107958585 0.023332708
000220 c6 12 e1 3d 83 9e 9b bc 83 2f 8a 3d 86 ac e3 bd
       0.10989909 -0.018996483 0.067473434 -0.111168906
000230 fa e0 8e bd a0 3b 1d 3d 68 7b 99 bc 10 9f 3e bd
       -0.069765046 0.03838694 -0.018735602 -0.046538413
000240 d9 b5 50 be bc 37 65 bd 14 14 17 bd 33 e9 da bd
       -0.2038187 -0.055961356 -0.036884382 -0.106890105
000250 87 8a 9e 3d 3e 03 57 3d 23 12 86 3b 68 79 25 3e
       0.07741266 0.052493326 0.0040915175 0.16159594
000260 cc 83 f1 3d 1b 9a 88 3d 07 b6 2a 3d d6 e1 8f 3c
       0.117927164 0.06670018 0.0416775 0.017563742
000270 3d 7e 58 3d 55 03 62 bc 1c 67 13 3b 9c f9 b8 3d
       0.052854765 -0.01379474 0.0022491878 0.09031984
000280 6e 51 dc bd 4a 2a 9c bd ba 82 52 be 9b 27 d3 bc
       -0.10757719 -0.076252535 -0.2055768 -0.025775721
000290 1a 62 47 bd 93 f7 b2 3c ac 48 ae 3a 08 58 0e 3d
       -0.04867754 0.021846568 0.0013296804 0.034751922
0002a0 74 98 87 bd 74 b0 3b 3d e4 24 87 bc 82 f3 c7 3d
       -0.06620875 0.045822576 -0.016497083 0.09763242
0002b0 73 83 d7 bd 72 8b 2c 3d 7a 81 ba 3d 88 96 ab bd
       -0.10523119 0.042125173 0.09106727 -0.08378321
0002c0 9c 84 49 3d b5 90 ae 3d dc 80 00 3e 17 e1 9d 3c
       0.04919873 0.085236944 0.12549156 0.01927237
0002d0 c5 37 98 3d 67 b6 0c bd c8 a9 2e be c1 81 01 be
       0.07432512 -0.03435364 -0.17056954 -0.12647153
0002e0 92 15 2a 3d 30 4f dc bc e5 69 4c 3d 39 f1 b2 3c
       0.041524477 -0.026893228 0.049905676 0.02184354
0002f0 30 69 74 bd e9 f2 b1 bd e2 60 43 3d f2 be 26 3e
       -0.059670627 -0.086889096 0.047699817 0.16283777
000300 c1 e8 0e be 27 a3 8c bc d4 ac e8 3d d5 51 a0 3d
       -0.13955976 -0.01716764 0.11361089 0.07828108
000310 f5 17 87 bd b9 77 f0 bd 4a 4a b9 bd 64 08 a7 b9
       -0.06596366 -0.11741585 -0.09047373 -0.00031858974
000320 1a b0 07 3c c1 90 3a bd 27 79 78 3d 51 59 18 be
       0.008281732 -0.045548204 0.060662415 -0.14877822
000330 4f 80 11 be 0b b3 83 bd 00 b3 b9 bd 0e ab 4a 3e
       -0.14209102 -0.06430634 -0.09067345 0.19791815
000340 74 e6 00 bd 88 5b 07 3d 4c f8 09 be 81 8f 5b 3c
       -0.031469777 0.033046275 -0.13473624 0.013400913
000350 df 55 2f be 2a f3 f1 bc 5c 56 3c be 9d db 5a bd
       -0.17122601 -0.029534895 -0.18392318 -0.053432096
000360 61 6b c7 bd fc f4 7d bd aa 3f 4f 3d fb d8 2e be
       -0.09737278 -0.062001213 0.050597824 -0.17074959
000370 ff aa 8a bd 91 da 69 3d 67 6a 17 3d 1a b0 50 bd
       -0.06770896 0.057093207 0.036966708 -0.050949194
000380 5b 66 46 3d f8 aa de 3c 67 25 a9 3d 8b 53 04 3e
       0.048437458 0.027181134 0.08259087 0.12922494
000390 7e 1a eb 3b cb 78 d2 3d 4b 66 e9 3c cd d3 ab 3d
       0.007174789 0.10276946 0.02849116 0.08390007
0003a0 aa d3 4e 3c 4f c0 96 3b e6 0f f4 3d 45 0a 14 be
       0.012623707 0.0046005617 0.11917095 -0.14457043
0003b0 b9 3f 19 be b2 44 b1 3d 27 f3 65 3d 55 a4 9f 3b
       -0.14965715 0.08655681 0.05614009 0.004871885
0003c0 01 a8 3e be 0a 1d 21 3d c0 ef e8 3c 16 2b e2 bc
       -0.18618776 0.039334334 0.028434634 -0.027608436
0003d0 22 4f e5 bd 43 15 24 bd 7c 09 be bb d7 1c dd bd
       -0.11196734 -0.04005934 -0.0057994705 -0.107965164
0003e0 04 64 b0 bd c8 04 69 3d a7 53 40 bd 5b 00 fa bc
       -0.086128265 0.056889325 -0.046954777 -0.030517748
0003f0 45 0e c3 3c a8 ee 28 be 0f 73 aa 3c 2a eb 28 be
       0.023810515 -0.1649729 0.020806817 -0.16495958
