vwgym/saved_model/vwgym_f_net_step_6900000.pt (torch_old, 382118 bytes, 57 tensors)

f_percept.percept.0.weight f4 [16, 3, 3, 3]
000000 83 eb 8a 3d 13 4e 90 bd 4f d7 be bd fb 56 84 be
       0.067832015 -0.070461415 -0.093184106 -0.2584761
000010 8d a5 f8 3d 99 a2 8f 3d f6 40 a6 be 40 18 1c be
       0.12140951 0.07013435 -0.32471436 -0.15243626
000020 b9 94 57 be 54 7f 9c 3e 08 4b 0a be 4f 7d e2 be
       -0.21052827 0.30565894 -0.13505185 -0.44236228
000030 12 02 af 3b 46 f6 ac 3d 6b 40 95 3e 12 e9 82 bc
       0.005340823 0.084454104 0.2915071 -0.015980277
000040 7c 0b 57 be ed ef 2b be 1c 96 5d 3e 24 73 a5 be
       -0.21000475 -0.16790743 0.21639293 -0.32314408
000050 3e 43 b5 3d 09 8c 38 be 43 1b 64 bb 19 c6 ce 3b
       0.08850716 -0.18022169 -0.0034806288 0.006310236
000060 08 5f ec bd 2a 4c 43 3e 0f c9 cc bd 69 6e 71 be
       -0.11541563 0.19072023 -0.099992864 -0.23577274
000070 cf 68 50 bd a8 9c 92 3e 32 55 be bd 4b 18 89 3c
       -0.050881203 0.28635144 -0.092935935 0.016735217
000080 60 b3 30 3e 66 ed 6f be 21 32 03 be 00 1b 3a 3e
       0.17255926 -0.23430404 -0.12812091 0.18174362
000090 e6 ef 88 bd 13 e8 ce 3e 69 62 21 3c ca f6 aa bb
       -0.06686382 0.40411434 0.009850123 -0.005217408
0000a0 8f 01 3f 3e ac e9 63 3e c8 e4 8d be 74 94 c7 3d
       0.18652938 0.22257107 -0.2771361 0.09745112
0000b0 06 83 87 be 0a 18 3d be af fd 3b 3d 04 a0 19 be
       -0.2646715 -0.18466201 0.04589623 -0.15002447
0000c0 63 29 ca bd 4e 97 ab 3e b7 71 72 be 66 c9 5a 3d
       -0.09871175 0.33513874 -0.23676191 0.053414725
0000d0 5b 9a 28 bc 5e 77 85 3e 56 24 f8 bd 98 41 1a 3e
       -0.010290707 0.26067632 -0.121163055 0.15064085
0000e0 b8 c5 91 3e d0 43 87 3e 72 0c 88 bd 0e dd e9 3d
       0.2847116 0.26418924 -0.06642999 0.11419116
0000f0 6f 89 c9 bc 50 61 08 3e 06 78 56 be 35 9c 58 3e
       -0.024601666 0.13318372 -0.20944223 0.21153338
000100 b4 e8 55 bd 6d 5a fd bd 90 4c 3a 3d 64 b9 19 bd
       -0.052223876 -0.12370763 0.045483172 -0.037530318
000110 56 96 e9 bd 4f 34 a6 bb 9e ed 34 3d 55 eb 4a 3e
       -0.114056274 -0.0050721536 0.044171922 0.19816335
000120 be 2f 94 3e 13 5a bf bd fd 9a 70 be 52 f4 f2 bd
       0.28942674 -0.09343352 -0.23496623 -0.11863007
000130 94 d2 f2 3e bf 32 c9 3e 58 5c 03 3e 6e 27 69 be
       0.47426283 0.3929653 0.12828195 -0.22768947
000140 6a 8b c3 3c c5 e3 01 3e ce ee 38 be 16 2b 89 3c
       0.023870189 0.12684543 -0.18059847 0.016744178
000150 4e f5 60 3e 81 89 9b 3e 1c df 1b 3e f5 29 d9 3d
       0.21968576 0.30378345 0.15221828 0.10603706
000160 41 87 3e be ca b0 95 bc 3d 69 bb 3e c2 84 0a 3e
       -0.18606283 -0.018272776 0.36603728 0.13527206
000170 9c bc 12 3e 81 35 15 be b4 12 06 3d a1 a0 1b be
       0.14329761 -0.14571191 0.03273268 -0.15197994
000180 cd 1e 82 be 89 07 f5 bd 64 05 f4 bd d1 cd b3 3d
       -0.25414124 -0.11964328 -0.11915091 0.08779491
000190 2c da 91 3e 36 41 c1 3d 2e 20 42 3d 32 9c c3 3d
       0.28486764 0.09436266 0.04739397 0.09551276
0001a0 17 99 1b be 2f ae 9b 3d dd 26 92 bd 2a 0e 09 bf
       -0.15195118 0.07601582 -0.07136319 -0.5353724
0001b0 dd f9 94 3e e5 13 63 bd 7d 6c 04 3d 10 8f d6 bd
       0.2909688 -0.055438895 0.032330025 -0.10476506
0001c0 c0 96 43 be ae 78 de be e4 b2 44 bc a1 4b b9 3d
       -0.19100475 -0.43451446 -0.0120055415 0.09047628
0001d0 d5 6d 98 3e c7 fc 6d 3d 3c 69 03 be 0c 58 ed 3d
       0.29771295 0.058102395 -0.12833112 0.11589059
0001e0 c8 7c c8 be f6 a9 af 3d ae 47 a8 3d 66 9a 1b 3e
       -0.391577 0.08577339 0.08216797 0.15195617
0001f0 60 88 8d be f5 47 5d 3c 0f eb bf bc 67 ca ab 3d
       -0.27643108 0.013505925 -0.023427514 0.083882146
000200 75 61 58 3d 92 cf b9 be df 4b b1 3e 7d 8e 79 bd
       0.052827317 -0.36291176 0.34628198 -0.060926903
000210 fb c6 a1 3d 59 e3 98 bd 8e 74 91 ba fb 7d 6e 3e
       0.07899281 -0.07465238 -0.0011097358 0.23290245
000220 0c 9d 70 3e 96 f7 20 be a2 4d ac be 84 59 a7 3e
       0.23497409 -0.15719447 -0.3365298 0.32685483
000230 84 21 1f 3e 8b 91 25 bd 2a cf 60 3d 85 f3 24 3e
       0.15540129 -0.040422004 0.054885067 0.1610852
000240 2d bd 77 be b8 ab 4a 3e a2 83 e2 bc c1 df 0a be
       -0.24193259 0.19792068 -0.027650658 -0.13561918
000250 00 59 90 bd 84 74 92 3c c9 61 0b 3e cc 03 63 3e
       -0.070482254 0.017877825 0.13611521 0.22169417
000260 4f e8 0e 3e b0 16 61 3e 59 de a6 bd db 32 f5 3d
       0.13955806 0.21981311 -0.08147878 0.119725905
000270 52 34 64 3e a6 95 8d 3e 23 67 85 3d e2 c6 c2 3e
       0.22285584 0.27653235 0.065138124 0.3804236
000280 32 f3 1c 3e c3 26 f0 bd 9a 0a a8 bd 7d e7 92 be
       0.15327147 -0.11726143 -0.08205147 -0.28692237
000290 2d 7a a5 3a 60 cc b3 be 25 1c 4d be 36 fd 6e 3c
       0.0012624912 -0.35116863 -0.20030268 0.014586737
0002a0 97 44 cd 3d ef 78 64 3e 70 54 60 3e 64 32 86 3c
       0.10022848 0.22311758 0.2190721 0.01638145
0002b0 37 58 0b 3e d1 78 79 3e 3f 29 8e 3e a5 3f 03 be
       0.1360787 0.24362494 0.27765843 -0.12817247
0002c0 06 d9 8d 3d 07 17 86 3b d4 16 0c bd 9f 01 9c be
       0.069261596 0.0040921005 -0.034201458 -0.30469987
0002d0 6f d1 48 3e 63 00 9e bd b1 23 a5 be 86 47 98 bd
       0.19611143 -0.077149175 -0.32253793 -0.07435517
0002e0 1a 96 d9 bd 05 b0 99 3e ef be 8f 3d c6 e3 8d 3c
       -0.10624333 0.30017105 0.070188396 0.017320525
0002f0 77 be a8 be 3c f6 8e bd ee 75 86 be ca 34 6c 3e
       -0.32957813 -0.06980559 -0.26261848 0.23067012
000300 ce 3a bd bd 81 2f a4 bc 58 5f c7 3e c3 80 17 3e
       -0.09239732 -0.020042183 0.3893993 0.14795212
000310 11 99 e2 be d5 36 fc 3d 86 a9 08 be 63 a6 64 be
       -0.44257405 0.12315146 -0.13345918 -0.22329096
000320 21 1a 95 3d 93 01 a2 be a6 cb e5 3d 40 d5 34 3e
       0.07280374 -0.31641826 0.112204835 0.17659473
000330 c8 e3 0e 3e 9e 82 0f be c7 9f 5a 3e 73 00 1f 3e
       0.13954079 -0.1401467 0.21350013 0.15527515
000340 37 7a 42 3d 10 84 d1 bd d2 c1 cc 3b f1 9a 73 be
       0.047479834 -0.10230267 0.006248691 -0.23789574
000350 a6 fe 26 3e e8 09 32 3e 20 3f c6 bd bd e1 0b 3e
       0.16308078 0.17386591 -0.09680009 0.13660331
000360 30 d5 d1 be f0 03 d0 3d 70 98 4c 3c 5e 87 83 3d
       -0.40982962 0.10157001 0.012487516 0.064223036
000370 04 c1 43 3e ce 18 64 bd c9 56 ba 3e bc 07 8d 3e
       0.19116598 -0.055687718 0.36394337 0.27544963
000380 82 b4 19 3e 67 2f 76 bd ea fc 7d be 60 96 e8 bd
       0.15010265 -0.0601038 -0.2480351 -0.11356807
000390 29 9b 25 3d 5d a0 74 3d 63 b4 4b 3e 37 c7 72 bd
       0.040431175 0.059723247 0.19893031 -0.059272017
0003a0 36 16 e3 bd 41 46 44 be 57 aa de 3e 8b 5f 8a 3e
       -0.11088221 -0.19167425 0.43489334 0.27026019
0003b0 aa 58 36 3e c5 a4 7f 3b d4 1b 7b 3d 1a 94 20 be
       0.1780726 0.0039008122 0.061305836 -0.15681496
0003c0 db 18 40 3b ba cd 35 3e b4 9c 08 3e f9 c0 b5 bd
       0.002931169 0.1775426 0.13341027 -0.08874697
0003d0 c4 a7 6f 3e 77 5c 04 bd 6d af 34 be cf 08 63 3d
       0.23403841 -0.032314744 -0.17645045 0.055428322
0003e0 a5 71 f2 3c 97 f3 ae 3e 57 0b f1 bd c2 6d c3 be
       0.029595206 0.3417022 -0.11769741 -0.38169676
0003f0 dc f1 86 3e 7a c7 33 3e dc 13 a4 3e cb 1c 9c bd
       0.263564 0.17556563 0.32046402 -0.07622679

f_percept.percept.0.bias f4 [16]
000000 5b 5e cf ba 70 70 57 39 02 b0 85 3a e4 8e ea 3a
       -0.0015820967 0.00020545884 0.0010199549 0.0017895368
000010 2e 30 44 ba 7f 0f b3 ba 70 c7 9a ba 5c 26 98 ba
       -0.0007483986 -0.0013661234 -0.0011808705 -0.0011608112
000020 3f ff 0c ba 3e 05 89 b9 56 7b a3 ba c2 2b 5e ba
       -0.0005378611 -0.00026134582 -0.001247267 -0.00084751484
000030 f8 17 ca b7 43 73 c2 ba 4b 1e 57 ba e4 39 0b 3a
       -2.4091438e-05 -0.0014835376 -0.0008206113 0.00053110556

f_percept.percept.3.weight f4 [64, 16]
000000 bc 70 93 3d b0 9e 0a 3d 59 de b1 3c 65 41 24 be
       0.07199237 0.033842742 0.021712469 -0.16040571
000010 fc 11 99 bd 65 06 6f bd b7 52 83 bd fd 25 17 be
       -0.07474133 -0.058355708 -0.06412261 -0.14760585
000020 93 8c 50 3d 48 c6 09 be 89 2e d7 3d 88 c1 b5 bd
       0.050915312 -0.13454545 0.10506923 -0.08874804
000030 66 65 19 3c 56 9b 11 be cc c2 17 be 3d 4d d8 bc
       0.009362554 -0.14219412 -0.14820403 -0.026404018
000040 fc 62 17 3e a3 0d 08 be b4 8e 19 3e 38 03 e3 bd
       0.14783853 -0.13286452 0.14995843 -0.11084598
000050 fe 55 39 bd 42 1c 67 be 68 ec 1f be ac 45 12 3e
       -0.045248024 -0.22569373 -0.15617526 0.1428439
000060 a6 97 19 bd 7e b9 59 bb 4f cb a9 bb df d5 83 3d
       -0.03749814 -0.0033222134 -0.005181707 0.06437277
000070 07 f5 d8 bd b2 d4 f1 bd bb c6 8e be bf da 8c bd
       -0.1059361 -0.118081465 -0.27885994 -0.0687766
000080 9a a4 d8 3c ae 40 76 3e d2 45 76 bd f8 39 0a be
       0.026445676 0.24048111 -0.06012518 -0.13498676
000090 3f 39 c5 3d a0 e9 b8 bc ba 9a 28 3e 78 e5 99 3d
       0.096300595 -0.022572339 0.16465273 0.07514471
0000a0 cd 13 af 3d f1 30 7b 3d 1b 9e 82 bd 31 30 aa bd
       0.085486986 0.06132597 -0.063778125 -0.08309973
0000b0 cc 80 8b 3e 35 07 7e bd 95 ef 52 be b6 7e 1e bd
       0.27246702 -0.062018592 -0.20599206 -0.03869506
0000c0 71 9a 15 3e d7 4b 67 3d ec 30 6f bd 9c f6 23 bd
       0.14609696 0.05646881 -0.058396265 -0.040030107
0000d0 6f 1c c7 bd 9d 96 20 be 4c fe 61 3d 7a 36 32 be
       -0.0972222 -0.15682454 0.055174157 -0.17403594
0000e0 2e b1 cf bd ed c3 92 be 93 5b 92 3c 52 88 bd 3d
       -0.10141216 -0.28665105 0.017865932 0.09254517
0000f0 87 0e a2 3d 83 95 27 bd a5 a1 86 bb 04 59 dd 3d
       0.07912927 -0.04091407 -0.004108625 0.10807994
000100 57 af fe bd bc 82 0c be f6 2d 97 3d 3c 80 0a 3e
       -0.12435787 -0.13721746 0.07381813 0.1352548
000110 f3 4c 05 3e 24 74 00 3e 56 63 3f be f3 3a ad bc
       0.13017635 0.12544304 -0.18690237 -0.021146273
000120 02 cd ea 3d 36 0e 37 3e f5 82 78 be 30 cb ed 3c
       0.114648834 0.17876515 -0.24268706 0.029027551
000130 60 65 9b bc b3 b5 d5 be a3 37 f0 3c 27 38 58 bd
       -0.018969238 -0.41740188 0.029323405 -0.052787926
000140 6a 28 f5 bd ee f3 42 bd b7 d8 24 3e f3 a0 11 3e
       -0.11970599 -0.04759591 0.16098295 0.14221554
000150 14 d4 92 3d 3d 8b 8e bc 8b ca 0d 3e bf 01 27 be
       0.07169357 -0.017400378 0.13846795 -0.1630926
000160 7d 6d 5a 3d 91 95 f4 bd 0f 78 43 3e 07 44 06 be
       0.053327072 -0.1194259 0.19088767 -0.13111888
000170 d7 df db bd 51 f5 f4 3c e3 f5 c8 3d 2f 3c 0d 3e
       -0.107360534 0.029902132 0.09812524 0.1379249
000180 74 b0 cb bd 8a 68 4f bd bf 18 00 3e ed 3b 9a 3d
       -0.09945765 -0.050636806 0.1250944 0.07530961
000190 6e 6c 06 be 7d 60 2b 3e 97 3b 35 3d 82 8c 00 3e
       -0.131273 0.16736026 0.044246282 0.125536
0001a0 b3 62 0b 3e 86 8e 6a b9 63 c7 77 3d 8e 72 6d bd
       0.1361187 -0.00022369073 0.060492884 -0.057970576
0001b0 68 4d cf 3c 21 75 71 3d ff e8 bb bd 1a d9 80 bd
       0.025305465 0.058949593 -0.091753 -0.06291409
0001c0 e9 1a d3 bd 10 f0 a6 bd 1f 40 96 be c7 6a 23 3e
       -0.10307867 -0.08151257 -0.29345796 0.15958701
0001d0 bb b4 22 3e 0a de 36 bd 8b 86 8d be cb 55 8d bc
       0.15889256 -0.044645347 -0.2764171 -0.017252823
0001e0 e2 42 4f be b9 db b0 3d 2c b8 0e be dd df 20 bd
       -0.20240358 0.08635659 -0.13937443 -0.039275993
0001f0 4f 58 04 be de b4 47 3d 87 4a 22 bd 69 bc 12 3e
       -0.12924312 0.048756473 -0.039621856 0.14329685
000200 16 69 81 3c a5 bb 63 be 58 db d9 bd 2b 15 b1 3d
       0.01579718 -0.2223955 -0.106375396 0.086466156
000210 f4 cc 5c be b8 dd 17 be 7f 6a e3 3d e4 1b 56 be
       -0.21562558 -0.14830673 0.11104297 -0.20909077
000220 16 a4 31 3e 84 9c 16 be d3 dc e7 bd 20 93 3b be
       0.1734775 -0.14708143 -0.11321416 -0.18317842
000230 1d 5c 75 bd 5f 55 4a 3e a2 69 92 bd 8a 8a c6 bc
       -0.0599023 0.19759129 -0.07149054 -0.024235982
000240 6a cc d9 3d c3 38 72 3e 7b eb 66 bc 5c 95 d5 3d
       0.10634692 0.23654465 -0.014094229 0.10428879
000250 36 76 0f 3e 1f 7a e9 bc 1d 66 05 3d 35 ef 1f be
       0.14009938 -0.028500615 0.032568086 -0.15618594
000260 4b 2b a0 3d a7 14 dc 3d f2 f3 9a bd 7f 20 4f 3e
       0.078207575 0.107461266 -0.0756606 0.2022724
000270 32 88 b6 bc 8c 0d 9c 3c 24 2e bb 3d 02 ec b9 3c
       -0.02228174 0.019049428 0.0913966 0.022695545
000280 1d 04 90 3d 35 25 00 be d5 5d df bc 96 4d 69 be
       0.070320345 -0.12514193 -0.027266422 -0.22783503
000290 84 ec 05 3d 6e 32 bf bd 59 1d 28 3e 85 48 e7 3c
       0.032696262 -0.093357906 0.16417445 0.028232822
0002a0 66 40 ef 3d 5d fb c3 3c 94 6c 3e be f1 07 af 3d
       0.11682205 0.02392357 -0.18596107 0.085464366
0002b0 0f 8d 18 be 18 80 4b b9 a8 3d 1b 3e 3d dd b0 bd
       -0.1489756 -0.00019407307 0.15160239 -0.08635948
0002c0 0b 47 ed 3d 0d 33 97 bd 4e 5a 31 3e 42 7e 39 bd
       0.11585816 -0.07382784 0.17319605 -0.045286424
0002d0 81 99 66 bd d0 da ba bd 71 e4 f2 3d 89 2d f5 bd
       -0.056298736 -0.091237664 0.11859978 -0.11971576
0002e0 38 33 8a bc 59 54 c3 3d 49 48 aa bd f9 5c 23 bd
       -0.016870126 0.095375724 -0.083145685 -0.039883588
0002f0 62 7a 06 bd f5 e0 2b be cd 80 83 bc 9c d0 57 3e
       -0.032831557 -0.16785033 -0.016052628 0.21075672
000300 f9 f9 ca 3d 59 14 56 be d9 60 17 3d 40 ed 32 3e
       0.0991096 -0.209062 0.036957595 0.17473316
000310 f8 21 84 bd 7f 75 e8 3c 2d 19 12 bd 2f 62 84 be
       -0.064517915 0.028376339 -0.03566854 -0.25856158
000320 73 1d 1a 3d 5e 1b b8 3d 46 69 ab bc f3 94 6f be
       0.03762574 0.08989595 -0.020924222 -0.23396663
000330 5a 82 97 3d 87 c0 0f 3e 5d 82 37 bd ad 38 21 bc
       0.073979095 0.14038287 -0.04480206 -0.009840173
000340 1a 03 81 be 63 a4 f8 3c a8 a2 38 3e 66 e1 8a 3e
       -0.2519768 0.030351823 0.18030798 0.2712509
000350 7d 05 59 bc e4 8d 28 be bb a8 a2 bc 07 94 ff 3d
       -0.013245937 -0.16460377 -0.019855848 0.12479406
000360 86 de 05 3e 53 30 ea 3c 2f d0 09 3d b7 17 c2 bc
       0.13073167 0.028587496 0.033645805 -0.023692949
000370 09 ec 92 3d 20 4e 80 bd cc 24 69 3d 78 e4 bb 3d
       0.071739264 -0.06264901 0.056919858 0.09174436
000380 5a 7c 0d 3e 29 0c 3f 3d fe 84 58 bd 54 6e 17 3e
       0.13816968 0.046642456 -0.052861206 0.1478818
000390 90 81 2c 3e e4 72 fd bc 20 58 00 3d 39 21 5a 3e
       0.16846299 -0.030938573 0.031334043 0.21301736
0003a0 c9 97 8d 3c 6d 02 ab bd 85 e3 8e 3d ca b6 36 be
       0.01728429 -0.08350072 0.0697699 -0.17843166
0003b0 fb b0 a5 bd c4 bf 2e be 30 52 89 3c 28 2c b6 3a
       -0.08090397 -0.1706534 0.016762823 0.0013898658
0003c0 ee 90 03 3e 78 46 20 be 86 e4 f5 bc 07 46 91 be
       0.12848255 -0.15651882 -0.030016195 -0.2837374
0003d0 28 8b 91 3e 2a b1 47 bd 28 07 31 3d bd 0f fb 3d
       0.2842648 -0.04875294 0.043219715 0.12258861
0003e0 e7 f3 a4 bb 70 0c 81 bc d9 0d 38 3e e7 4c 0f 3c
       -0.0050339582 -0.015753001 0.17974032 0.008746362
0003f0 a9 25 96 3d 20 69 6f 3e a2 5d c3 bc 1f fa cc bc
       0.07331402 0.23379946 -0.023848359 -0.02502161

f_percept.percept.3.bias f4 [64]
000000 e9 4a 31 bb 7a ce 49 3b c0 8c 4b 3b d0 ec 0c 3b
       -0.0027052707 0.0030793236 0.0031059235 0.0021503456
000010 8a c2 33 3b d9 40 95 3b 10 e2 bf ba fd 8a 2b 3b
       0.0027429187 0.0045548496 -0.0014639515 0.0026175373
000020 76 5f b1 ba 9d ec 27 3b ca de 90 3b b1 9d 03 bb
       -0.0013532478 0.002562321 0.00442109 -0.0020083005
000030 1c dc 5d 3a 91 94 8f 3b e0 8c a8 b8 4e ee 8e bb
       0.000846328 0.004381724 -8.037104e-05 -0.004361904
000040 f7 8a 38 bb 0b ca 73 bb e9 a1 66 3b c0 7d b9 39
       -0.0028159001 -0.0037199284 0.003519172 0.0003537964
000050 ee 6c 0f 3b 40 7b 06 3b a7 d2 5b 3b d8 95 a7 3a
       0.0021884996 0.002052024 0.0033542307 0.0012785746
000060 d8 b3 80 ba 78 4d 6b 3a aa 55 94 3b 49 0e 0b bb
       -0.0009819223 0.00089760823 0.0045268135 -0.0021218231
000070 e6 e2 91 bb 15 e8 d3 ba 2f 7c 26 3b 52 5d a3 bb
       -0.004452097 -0.0016167188 0.002540361 -0.00498549
000080 4e a3 76 3b e9 11 a1 3b 80 4a 2e 39 50 12 cb ba
       0.0037633958 0.004915465 0.00016621687 -0.0015493128
000090 cf 5f ee 3a e2 7c 51 3b d9 32 72 3b 09 3f de ba
       0.0018186512 0.0031965305 0.0036956577 -0.0016956042
0000a0 f4 18 3a bb 51 46 e0 38 88 16 bd 3b ff fe 23 3a
       -0.002839622 0.0001069425 0.005770508 0.0006255954
0000b0 c0 73 ac 39 71 43 af ba f9 b7 74 3b 81 86 d5 3a
       0.00032892637 -0.001337154 0.0037341102 0.0016290696
0000c0 7e 82 34 ba 80 47 02 3c c7 04 01 bb d0 13 87 3b
       -0.00068859 0.007951617 -0.0019686685 0.004122235
0000d0 35 ee 9d 3b 0f be 94 3b 68 b4 64 bb ba e6 f4 3a
       0.0048196563 0.0045392583 -0.003489757 0.0018684485
0000e0 46 36 92 ba ae 4f 86 3b fd ce c1 bb 86 52 5b 3b
       -0.0011155091 0.004098854 -0.0059145675 0.0033465936
0000f0 bf a1 1e 37 80 95 b3 3b 0f 8f bc ba 34 d9 f4 3a
       9.455193e-06 0.0054804683 -0.0014385897 0.0018680454

manager.M_space.weight f4 [64, 64]
000000 e0 48 fd bc a8 8b f9 3d 3f 13 a3 3e 31 e7 23 bd
       -0.030918539 0.121848404 0.3185062 -0.040015403
000010 46 dd 8d 3d 00 34 36 3e 32 68 53 bd 34 93 39 3e
       0.0692697 0.17793274 -0.05161304 0.1812256
000020 4d 3b 42 3e f5 6a 16 bd 56 d5 de bc 5f bc db bd
       0.18967934 -0.036723096 -0.027201336 -0.10729288
000030 b6 2d 04 be 96 94 0e 3e 33 84 10 be 61 54 fc 3d
       -0.12908062 0.13923869 -0.1411293 0.123207815
000040 a5 74 44 bc 5d 01 30 3d db b7 e1 bd 8f 83 06 be
       -0.011990701 0.04297005 -0.11021396 -0.13136123
000050 54 19 71 be 00 7b 8b bc ce 4a 46 bd 6c 02 6c 3d
       -0.23544818 -0.017026424 -0.048411183 0.057619497
000060 5c 86 45 3e 0c c8 b0 bd ab 30 68 be 22 19 4f 3d
       0.19289535 -0.08631906 -0.22674815 0.050561078
000070 bb db fc 3c fc db 7d be af fb 05 be 3e 41 3f bd
       0.030866494 -0.24790949 -0.13084291 -0.04669308
000080 c4 8f 9c bd 26 78 c4 ba af 97 25 bd f9 33 f4 bd
       -0.076446086 -0.001498942 -0.04042786 -0.119239755
000090 de f5 3d be 2f 5e ff 3d f6 7f 99 3d 84 50 49 3e
       -0.18550822 0.12469136 0.0749511 0.1965962
0000a0 ff e9 31 be 26 e3 b4 bd 1e f2 86 3e f3 6b 66 bc
       -0.17374419 -0.088323876 0.26356596 -0.014063823
0000b0 7c d6 1b bd a4 e0 16 bd 89 ee be bd 4c 63 e6 3c
       -0.038046345 -0.036835328 -0.09322841 0.02812352
0000c0 ac 3b 91 bd b8 72 fa bd 8c b8 0a be b2 93 ab bc
       -0.0709146 -0.12228912 -0.13546962 -0.02094445
0000d0 7c f7 e1 3d c9 3d 06 be 69 22 a7 3d ec 2d 35 3e
       0.11033532 -0.13109507 0.0816086 0.17693299
0000e0 62 f0 0c be f1 d6 9f 3d 73 fc a4 bd 36 a0 08 3e
       -0.13763574 0.07804669 -0.08055963 0.13342366
0000f0 87 f8 1e bd 37 a8 47 bc e4 d2 b2 bd c6 81 f1 3d
       -0.038811233 -0.012186102 -0.087316304 0.117923304
000100 22 7f c4 3c c5 43 f6 bb 7c 9d 99 ba 4c 50 e2 3d
       0.023986403 -0.007515403 -0.0011719908 0.11050472
000110 cc 33 5b bc 3a 46 09 bd a6 78 32 3e 3e 97 5c 3e
       -0.013379049 -0.03351424 0.17428836 0.2154207
000120 86 4a e1 3d 44 d2 c2 3d e6 b6 3c bd c6 09 cc bd
       0.11000542 0.09512761 -0.046072863 -0.09962802
000130 f0 73 43 bc 12 4a d8 bd 5f 55 30 bd b2 73 71 be
       -0.011929497 -0.10561003 -0.043050166 -0.2357929
000140 c8 78 b4 bd 89 28 d8 bd 8c 98 3c bd af 73 c4 bd
       -0.088121 -0.105546065 -0.046043918 -0.095923774
000150 7c d7 2b bd 85 aa 48 3d 2e 44 8c bd c2 8a 96 3e
       -0.04195355 0.048990745 -0.06848942 0.2940274
000160 57 08 c6 bd 73 a9 e8 3d bf e5 ac bd 06 00 f5 3b
       -0.096695594 0.11360445 -0.08442258 0.0074768094
000170 52 a3 35 be 6b 63 20 3e 6e 0e 63 3e 4a 80 65 3e
       -0.17738083 0.15662925 0.22173473 0.2241222
000180 13 b2 eb 3d 56 b5 03 3e 9c c3 93 bc ab 82 ea 3d
       0.11508574 0.12862143 -0.01803761 0.11450704
000190 e7 54 f8 bd eb 66 45 bc 20 e1 40 bd 6d f8 e0 bd
       -0.12125569 -0.012048463 -0.047089696 -0.109848835
0001a0 b8 c2 12 be f1 0f 7d bc 01 b3 4f 3d f9 9c 2b 3d
       -0.14332092 -0.015445695 0.05070782 0.041897748
0001b0 ff 64 f2 bd 75 35 1c 3e e1 1b 35 3c 54 7c c2 3d
       -0.1183567 0.15254767 0.01105401 0.0949637
0001c0 87 63 bd 3d 20 c4 c5 3d 04 ff d4 be b0 72 c4 3d
       0.09247499 0.096565485 -0.4160081 0.095921874
0001d0 24 cb 82 be cc f0 85 bd da b5 3f 3e 1c c7 1a bd
       -0.2554561 -0.06540069 0.18721715 -0.03778754
0001e0 c0 38 c8 3d a8 7a 7d 3d 8f 71 f2 bd fe 69 f9 bc
       0.09776449 0.061884552 -0.11838066 -0.030446049
0001f0 38 87 de 3c 8c ab 57 3d fb 04 9f 3d d8 45 ba 3d
       0.027164087 0.052653834 0.07764622 0.09095353
000200 02 42 18 be 04 56 c8 bc 52 55 f1 3d 39 7f 1b bb
       -0.1486893 -0.024455078 0.11783852 -0.0023726954
000210 8d f2 e6 3d b3 57 41 be a5 df 1f bd d8 4a cc 3e
       0.11276732 -0.18881111 -0.039031643 0.3990085
000220 94 ef 02 3e f7 ad 1e be b6 66 50 bd c9 6c cc 3c
       0.12786704 -0.1549605 -0.050879203 0.024954217
000230 44 ac af 3d 2b 76 05 3b 31 69 90 3d 3a 98 c0 3b
       0.08577779 0.0020364623 0.07051314 0.005877522
000240 97 e4 24 bd e5 a5 4c 3e f5 6c 33 be 6e 40 ec 3d
       -0.040257063 0.19985159 -0.17522033 0.115357265
000250 73 66 68 3e 6a 98 22 bd 5b b8 68 be 70 d7 58 be
       0.22695331 -0.039696135 -0.22726576 -0.21175933
000260 d4 47 ad bd b9 9a f3 3c 67 c6 fa 3c 3d 36 db 3c
       -0.08460966 0.029736863 0.030612184 0.026759261
000270 39 1f 09 be 04 f4 87 bd 80 71 aa 3d 19 f0 0d 3e
       -0.13390817 -0.06638339 0.0832243 0.13861121
000280 a3 c1 00 3e 51 57 a3 3d 86 2d 57 39 55 33 d6 3d
       0.12573867 0.07975639 0.00020520957 0.104590096
000290 c0 1e 5f 3c 3d 7f 41 3d a7 d6 56 3d 74 81 e8 3c
       0.013618171 0.047240485 0.052450802 0.02838204
0002a0 59 96 fe bd e0 83 0d 3e c1 dd d2 bc 98 7a ec bd
       -0.1243102 0.13819838 -0.025740506 -0.115468204
0002b0 7c 40 e5 bd d1 6b 23 be 02 52 ad 3a a0 7a 1b 3e
       -0.1119394 -0.15959097 0.0013223293 0.15183496
0002c0 c2 87 1b 3e 61 34 5f bd a4 bb fb 3d 35 00 10 be
       0.15188506 -0.05449331 0.12291649 -0.14062579
0002d0 dc 0a d4 3d 1c ff 30 3d 2b 25 f8 bc 17 46 92 3c
       0.10353634 0.04321204 -0.03029116 0.017855687
0002e0 45 86 a0 bd 0b 41 05 3e c6 98 0e 3d b8 c7 eb 3d
       -0.0783811 0.13013093 0.034813665 0.11512703
0002f0 7c ab 82 3d b5 ee bd 3c 3c 77 67 3e de b1 97 be
       0.06380364 0.023185113 0.22604078 -0.2962789
000300 4c 3f 35 3d a0 ab 6b 3e 23 fe e9 bd 53 66 63 3e
       0.044249818 0.23014688 -0.11425426 0.22207002
000310 6c 88 aa 3e 31 f8 76 bd 30 87 25 bb f2 9f b7 3d
       0.33307207 -0.060295288 -0.002525758 0.08966054
000320 0e 94 02 3e 55 e0 83 3c 3b 05 1e 3d b5 9d 54 be
       0.12751791 0.01609818 0.038579207 -0.20763285
000330 c5 a5 b6 3d 06 39 12 3d e1 c2 c4 3d 4c 49 22 bd
       0.08918337 0.035698913 0.09607483 -0.039620683
000340 26 88 9f 3e fe 1e b4 3b 32 9e 00 3d a6 80 0e 3e
       0.3115856 0.0054968586 0.031400867 0.13916263
000350 19 4f be bd dc e4 1e 3d cd 64 f4 3b e3 1c b7 bb
       -0.092924304 0.038792476 0.0074583055 -0.0055881604
000360 b0 f3 de ba ef 09 ee bd 15 f7 26 3c f7 61 c9 3d
       -0.001700988 -0.116229884 0.010190745 0.098331384
000370 b6 84 d4 bd 43 3f 47 3d ef 5b 86 3d 0e 57 0a be
       -0.10376875 0.048644315 0.06560504 -0.13509771
000380 91 7e 76 bb 78 5a db bc b9 ae 8f 3d 1d 39 40 3e
       -0.003761206 -0.026776537 0.070157476 0.18771787
000390 57 18 88 3d 51 3f 3c 3e d5 df c5 3d ea 32 f7 3d
       0.066452675 0.18383528 0.09661833 0.12070258
0003a0 83 35 8e 3c 05 f8 40 3e 15 d3 37 3e 7b bc 21 3e
       0.0173595 0.18844612 0.17951615 0.15794556
0003b0 01 2e cc 3c 11 38 a7 3d b8 39 50 3e 3e 7d 71 3d
       0.02492428 0.08164991 0.20334518 0.05895733
0003c0 28 f9 4d be 69 16 87 be 37 d5 9f bc 7c 47 1e 3e
       -0.20114577 -0.26384285 -0.019510848 0.15456957
0003d0 f0 3f a2 bd 4d 13 92 3d 5d 08 6b be 46 75 df bd
       -0.07922351 0.071325876 -0.22952409 -0.1091104
0003e0 cb 81 8f 3d 63 bb 04 be 75 2a 1b 3d 6e 6f be bd
       0.07007178 -0.12962107 0.037882287 -0.09298597
0003f0 47 32 6d 3a 62 93 ce bc 48 68 9c bb db 26 e6 3c
       0.00090483244 -0.025216762 -0.0047731735 0.0280947

manager.M_space.bias f4 [64]
000000 75 c2 d6 b9 9b a4 d3 3a 69 ed c9 3a 13 c3 0e 3b
       -0.00040962143 0.0016147079 0.0015405837 0.0021783754
000010 01 fd 96 3a a2 d8 4e 3b 46 dc 2f bb 85 cb 56 bb
       0.0011519493 0.0031562229 -0.0026834174 -0.0032775116
000020 fe 98 07 3b fc df 3f 3b 63 0c cb 39 52 3b 9e 3a
       0.0020690556 0.0029277792 0.00038728406 0.0012072122
000030 cd d9 41 bb 3d 4d b3 3b 1c 17 eb 39 5a 30 ac 3a
       -0.0029579282 0.005471854 0.0004483991 0.0013136968
000040 a6 08 b1 39 39 8e 7e 3b 6b 8d 9d ba 86 88 2c bb
       0.00033766514 0.0038842096 -0.0012020295 -0.0026326491
000050 aa 67 64 3b c0 bf 13 3a f6 d2 48 ba af 02 7a 3b
       0.0034851828 0.0005636178 -0.000766083 0.0038148572
000060 ad db 2e 3b b1 4f 9c ba 56 ef 57 ba c0 34 88 3a
       0.002668123 -0.0011925605 -0.0008237263 0.0010391697
000070 c7 15 3b bb 79 5d 35 3b 8e 6e d2 ba 17 3c 72 3b
       -0.0028546916 0.0027674122 -0.0016054676 0.0036962086
000080 b5 64 46 3b 73 fe d0 3b c4 11 49 3a 67 15 84 bb
       0.0030272428 0.006377989 0.0007670189 -0.0040308717
000090 b9 c1 59 bb ef b3 81 bb 59 80 9a b9 73 a1 8d 3a
       -0.003322704 -0.0039582173 -0.00029468795 0.0010805562
0000a0 d6 d9 f7 ba 9f d6 04 bb 6f 73 48 bb a1 97 91 bb
       -0.0018909525 -0.0020269526 -0.0030586382 -0.0044431244
0000b0 93 ed bc 3a 05 54 2e 3b f9 5f 4a bb 05 36 78 bb
       0.0014414064 0.0026600373 -0.0030879958 -0.0037873995
0000c0 1e e3 68 3a d6 b4 0a 3b 34 30 05 bb d8 60 fb 3a
       0.0008883941 0.0021164916 -0.002032292 0.0019178642
0000d0 d3 8f 5a bb 8d a0 af bb 05 b1 95 3b 87 dc fa ba
       -0.0033349886 -0.0053597153 0.0045682215 -0.0019139209
0000e0 6c 14 24 bb 08 80 e4 b9 42 8a 80 3a 98 90 c8 b9
       -0.0025036586 -0.0004358294 0.0009806829 -0.00038254703
0000f0 d6 21 58 3a 04 1d bc bb 84 5f c7 bb bc 87 36 3b
       0.0008244788 -0.0057407636 -0.0060843844 0.00278519

manager.M_goals.weight f4 [64, 128]
000000 95 1d 92 bd 66 6f 0b bd 1f 57 16 bd 50 d6 d3 bd
       -0.071345486 -0.034041785 -0.03670418 -0.10343611
000010 96 13 27 3e 85 d8 07 3e e2 66 0b 3d 9b 7d 75 3d
       0.16316065 0.1326619 0.034033664 0.05993424
000020 05 2d 0d be 00 e0 29 3e ad 25 e4 3c a6 b1 a0 be
       -0.13786705 0.16589355 0.027849996 -0.31385535
000030 76 8f 2a 3e 56 5c 1b 3e fe c6 c4 3c 60 29 2a 3e
       0.16656289 0.15171942 0.024020668 0.16617346
000040 24 26 61 bd 28 e5 b6 3c e0 c1 f5 bd 4f c7 64 3c
       -0.054968014 0.022326067 -0.11999869 0.0139635345
000050 82 0c 99 bd 5c 9b 68 3d ef 55 f8 3a 26 c6 23 3c
       -0.07473089 0.056788787 0.0018946509 0.009995973
000060 6a 79 cd bc bc 07 84 bd 32 a6 e7 bb 4f f6 20 be
       -0.025082309 -0.06446788 -0.0070693726 -0.1571896
000070 b0 46 d4 39 bb fd 60 be 91 db 4b bd 57 b6 ee bc
       0.00040488457 -0.2197179 -0.04976994 -0.02913968
000080 94 8a c4 3d f6 2c ff bc 95 23 ba bc 48 a7 ae 3d
       0.09596744 -0.031149369 -0.022722045 0.08528
000090 f4 e6 25 bd b4 6d 95 bd 2d bc eb 3d 0f ae 8d bd
       -0.040503457 -0.07296315 0.11510501 -0.06917965
0000a0 29 4e 81 bd b9 71 d8 bd 6f 05 10 3e 7e 38 2e 3d
       -0.06313736 -0.10568566 0.14064573 0.042534344
0000b0 ba 27 84 3c 87 78 8c 3c 30 18 cf bd ac 37 fb bd
       0.016132224 0.017147316 -0.10112035 -0.12266478
0000c0 34 3d e1 bc 99 3f 11 3b 19 c4 1e 3d c0 e1 82 3d
       -0.027495004 0.0022163151 0.038761232 0.06390715
0000d0 09 3d ad 3d 82 e4 1a 3e 9b c8 70 bd d3 e8 1e 3e
       0.08458907 0.15126231 -0.058785062 0.15518503
0000e0 f4 ca 2d 3c d5 7f 3c 3d 1b d2 2a be 67 0c 02 bd
       0.01060747 0.046020348 -0.16681711 -0.03175011
0000f0 ba 31 35 3d d0 c5 b4 3d 46 a3 6a bd 39 95 93 3b
       0.044236876 0.08826792 -0.057284616 0.0045038727
000100 29 ea ae 3d 82 ec 2a 3e 75 46 c7 bd 7e 89 96 3c
       0.08540756 0.16691783 -0.097302355 0.018376108
000110 73 71 82 bc 6d a0 2a bd ce 67 eb 3d 73 fb a0 bd
       -0.015923237 -0.0416569 0.114944085 -0.0786046
000120 c0 bf 35 bd 12 10 36 bc fc f3 93 3d ad 15 74 bd
       -0.04437232 -0.01111223 0.07224271 -0.059590984
000130 5c 55 23 3e 86 49 78 bd 35 35 66 bd 80 e8 66 3d
       0.15950531 -0.060616992 -0.056203086 0.056374073
000140 36 11 e3 3c 13 8d d0 bc d1 b7 33 3c 75 a2 04 3d
       0.027718168 -0.025457894 0.010969118 0.032381494
000150 99 2e 9e 3c 31 bf 59 bd 0c dd 9e 3a 4d 18 7d bd
       0.019309329 -0.05316085 0.001212032 -0.061790753
000160 20 64 54 be 02 d7 11 3c dd 76 02 ba 32 22 2a 3d
       -0.2074132 0.0089013595 -0.00049768185 0.041536517
000170 be 4c 49 3d a0 39 09 3e 4e e6 fd 3c 79 c6 d6 3c
       0.049145453 0.13400888 0.030993607 0.026217686
000180 fe 4b d4 3d 55 70 27 bd de 5a 92 3d 9a dc a3 bc
       0.10366057 -0.040878613 0.07146238 -0.020002652
000190 4a fa 48 be 1b 49 85 bd 29 2a fb 3d 5b a8 05 3b
       -0.19626728 -0.065080844 0.12263901 0.0020394537
0001a0 2f cd 78 3d 99 0d b1 3d 01 a9 90 bc bd 41 a0 3c
       0.060742553 0.08645172 -0.017658712 0.019562596
0001b0 45 b6 ce 3d f5 5b 9d 3c 6d b9 cf 3b 92 cd b4 bc
       0.10093359 0.019208888 0.006339243 -0.02207068
0001c0 0f 96 c4 bd d0 dc 1d 3d df 8f 09 bc eb c1 00 3d
       -0.09598934 0.03854066 -0.008396118 0.031434935
0001d0 70 92 18 3d 57 fe 8a 3d 98 db 22 3e bf dd a2 bd
       0.03724903 0.06786793 0.15904081 -0.07952451
0001e0 77 77 0e bd a2 57 30 3c b1 08 0c be 92 ea 16 3e
       -0.0347819 0.010763081 -0.1367519 0.14737919
0001f0 6e 47 30 3c 35 e6 64 bd 80 aa b2 3b 62 e9 eb 3c
       0.010759218 -0.055883605 0.005452454 0.028797809
000200 86 12 dd 3d ed 8d 61 bd 0b f4 e4 bd 5d 61 c5 bd
       0.10794549 -0.05506699 -0.1117936 -0.09637711
000210 44 1b ea 3d fc db 0b be ea 3d b2 3d 45 3d 2f 3e
       0.11430982 -0.13658136 0.087032154 0.17113216
000220 6d e3 86 bd 04 f1 01 bb 30 92 87 bd 15 9e b4 bc
       -0.06586347 -0.0019827494 -0.0661968 -0.022048036
000230 8c 7f 15 bd dd 74 5d bd 8d d9 2f 3d 9f ba 4f bd
       -0.03649859 -0.054066528 0.042932082 -0.050715085
000240 54 74 d6 bd 9c 24 ea bb 2f c5 42 bd f5 ea 8d 3d
       -0.104714066 -0.0071454775 -0.04755133 0.0692958
000250 fc 4a 4d 3e 2c f5 b5 3d a6 0e 55 bd 89 e6 20 3e
       0.20048136 0.088846534 -0.052015923 0.15712942
000260 30 09 0a 3e d2 79 47 3e 62 49 25 be 40 3a 42 3d
       0.13480067 0.19480065 -0.16141275 0.047418833
000270 25 6e 09 3d 3f 02 b6 3c 3a 89 7d 3c d0 d7 3f bd
       0.033552308 0.022217868 0.015474612 -0.046836674
000280 3a 2e 0a 3d 6c 23 2d 3d ab fa a0 3d 52 8b bf 3c
       0.03373549 0.04227011 0.07860311 0.023381863
000290 6f 05 56 bd c1 59 65 3d 38 b0 d2 3c 92 f5 48 bd
       -0.052251276 0.0559938 0.025718793 -0.04906232
0002a0 15 c7 6d bc 92 9f c5 3b df bb 0d 3e f2 2d 0a bc
       -0.014512797 0.006030985 0.13841198 -0.008433806
0002b0 cc 65 20 be 8f 3b c8 3d fa 28 62 3c 51 2e b2 bd
       -0.15663832 0.09776985 0.013803715 -0.087002404
0002c0 16 57 a2 bd b9 10 c1 3d 14 cf 0e be f5 cf c0 3d
       -0.079267666 0.09427018 -0.13946182 0.09414665
0002d0 e0 f1 66 bd 0d f0 78 bd 15 8d 82 bd ee f1 15 3c
       -0.056383014 -0.060775805 -0.063745655 0.009151919
0002e0 9c 81 84 3c ac b6 91 bd ba 26 a2 3b 42 8c 6e bd
       0.016175084 -0.0711492 0.004948464 -0.05823923
0002f0 b8 dc a5 bd 7a 50 ca bd 0b ca f2 3d a2 d4 b1 bc
       -0.080987394 -0.09878631 0.11854943 -0.021707837
000300 ca da c5 bc 61 0c 8a 3d f3 cb cb bd 0b dc 89 3d
       -0.024152178 0.06740642 -0.099510096 0.06731423
000310 2d aa 07 3d 40 0d af bc 1d 5a 8d 3d 0e 06 fb 3d
       0.033121277 -0.021368623 0.06901953 0.12257014
000320 b0 bd 7b 3c de 0d a2 bd fb c1 e1 bd d4 18 43 be
       0.015365049 -0.07912801 -0.11023327 -0.1905244
000330 28 15 fb 3c af 63 b0 3c 76 76 ae 3d 9c bd ed bd
       0.030649737 0.021531908 0.085186884 -0.11608431
000340 eb 31 89 3d 37 87 42 3d 9b f3 da bc cb f4 6b bb
       0.06698974 0.047492232 -0.026727488 -0.0036004062
000350 ef 14 8e 3d 5e f5 a8 3c 1c 93 07 3c c6 2b 06 3e
       0.069375865 0.020624813 0.00827482 0.13102636
000360 8e 45 f6 bc a9 b5 55 3d 90 b6 19 bd ab c2 6b 3e
       -0.030062463 0.052175198 -0.03752762 0.23023479
000370 19 ab da bd 9d b2 a1 bd 81 c7 c2 bc e9 42 18 bd
       -0.106771655 -0.07895396 -0.023776772 -0.037173185
000380 89 cc 8c bd 83 c3 fe 3d 24 ea d1 3d 84 e2 b9 bd
       -0.068749495 0.12439635 0.10249737 -0.090764076
000390 42 74 81 bd 01 23 26 3e 65 7b 43 bd c8 78 41 bd
       -0.063210025 0.1622429 -0.0477251 -0.047234327
0003a0 a1 89 fd 3b 00 42 32 3e be a8 1d 3c ed 90 10 be
       0.007737354 0.1740799 0.009622751 -0.14117785
0003b0 a6 f0 ad 3d ac c3 27 3d 91 a9 81 3d 72 88 e8 3b
       0.08493166 0.04095809 0.0633117 0.0070963437
0003c0 bd 3f c6 bc be 7a 43 bd 47 cb 04 3e ce 01 9b bb
       -0.024200315 -0.047724478 0.12968169 -0.0047304397
0003d0 9e 46 bb bd dd 95 1c be aa 96 f0 bc 63 bb ae 3d
       -0.091443285 -0.15291543 -0.029368717 0.08531835
0003e0 24 c0 d6 3c 12 51 28 3d 9b ad 1a be 38 70 db bd
       0.026214667 0.04109294 -0.15105288 -0.107147634
0003f0 18 96 80 3d 7c ea c4 bc 18 60 5d be 88 a7 c7 bd
       0.06278628 -0.024037592 -0.21618688 -0.09748751

manager.M_goals.bias f4 [64]
000000 4d 09 51 b9 92 34 22 bb bc cc 26 3b ef 84 0f 3b
       -0.00019935258 -0.0024750573 0.002545162 0.0021899303
000010 61 f9 84 bb f5 d4 83 bb ea 6b 2b 3b c9 71 20 bb
       -0.0040580486 -0.004023189 0.002615685 -0.0024481884
000020 10 62 88 bb f0 fb 36 3b e4 53 ff 39 4f cc 28 3b
       -0.0041620806 0.0027921163 0.00048699894 0.0025756543
000030 07 a5 17 3b e6 d3 39 bb 72 20 9c 3a 32 68 36 bb
       0.0023139135 -0.002835506 0.0011911525 -0.0027833101
000040 b4 12 da bb ff 53 3a 3b 22 a9 2b 3b c5 fd 48 b9
       -0.0066550616 0.0028431413 0.002619334 -0.00019168023
000050 6d b6 1a bb f1 a0 0b 3a cc a4 f7 3a 3b 9a 47 3b
       -0.002360727 0.00053264113 0.0018893718 0.0030456919
000060 50 c6 0b bb 25 5a 83 bb a4 39 3c bb 62 8e 05 3b
       -0.002132792 -0.004008549 -0.002872088 0.0020379056
000070 ac 3f 00 3b 34 b0 5c 3b 8f 3c 1a bb 4a bd 17 bb
       0.0019569201 0.0033674361 -0.002353463 -0.0023153597
000080 1a fe dd bb 79 d9 0a bb 3b e9 43 bb 5d b6 6c 3b
       -0.006774676 -0.0021186753 -0.0029893655 0.003611944
000090 18 6a 9c bb c3 40 1d bb b8 f3 6b bb 53 56 0f 3b
       -0.0047733895 -0.00239949 -0.0036003422 0.0021871522
0000a0 44 cb bd 3a e1 f6 70 ba d4 67 04 ba 1c ff 16 b9
       0.0014480134 -0.0009192061 -0.0005050872 -0.0001440015
0000b0 7b 34 80 3b 91 42 4c bb e0 a4 e1 ba 84 99 21 39
       0.003912506 -0.0031167606 -0.0017215274 0.00015411346
0000c0 50 27 97 3b 09 4b 02 bb a9 22 59 3b d9 d7 80 3b
       0.0046128407 -0.001988115 0.0033132231 0.003931981
0000d0 2a 38 4c bb 8f 14 14 3b 1e 88 73 3b f2 a6 3a 3b
       -0.0031161406 0.0022595262 0.003715999 0.0028480855
0000e0 b5 60 9e 3b ef 0e ab bb a4 8b 00 bb ff 97 23 3b
       0.0048333057 -0.005220286 -0.0019614482 0.0024962423
0000f0 18 d2 42 3a 21 02 f1 3a 0a 3b 04 b9 51 22 0a 3b
       0.0007431819 0.0018387475 -0.00012610495 0.0021077583

manager.M_value.0.weight f4 [32, 64]
000000 ad 74 17 3e 16 0d 27 3e da 55 1a be 66 8d 1e 3e
       0.14790602 0.16313586 -0.15071812 0.15483627
000010 3e 9f 2a 3e 1e 92 00 bd 64 64 06 bd a1 27 01 3d
       0.16662309 -0.03138935 -0.032810584 0.031531934
000020 5a e2 0a be 29 97 9f bd f5 40 9b be 37 23 0b 3e
       -0.13562909 -0.077925034 -0.30322996 0.13587652
000030 bb 87 18 3c c7 78 4b ba 83 24 a5 3d fa 36 41 bd
       0.009309704 -0.00077618327 0.08063605 -0.04717157
000040 8b cd b1 3d da 60 07 bd 57 1e e2 bc d1 6a 89 bc
       0.08681782 -0.03305135 -0.027602358 -0.016774567
000050 e3 6e fa 3b 38 20 15 bd c5 90 fe bd 7b ab 57 3e
       0.0076426133 -0.03640768 -0.12429956 0.21061508
000060 5e c4 cf bc fe 7f 90 3e b6 9f b3 3d 85 a3 73 be
       -0.02536219 0.2822265 0.08770697 -0.23792847
000070 d5 4f 28 3d b9 38 3f 3c f6 f5 23 be 3c c7 29 3e
       0.04109176 0.011671239 -0.16011795 0.16579908
000080 7b 78 0d 3e 2e 47 09 3e 18 69 4a bd 24 01 bb bd
       0.13815491 0.13406059 -0.04941663 -0.09131077
000090 04 5e d2 3d 55 cc 65 bd 83 ce ab bc 08 30 b5 3d
       0.10271838 -0.05610307 -0.020972496 0.08847052
0000a0 a0 c0 10 3e 6c fd a9 3d bf 9e e4 bd 74 4c 19 bb
       0.1413598 0.083002895 -0.11163091 -0.0023391517
0000b0 9b dd 26 be ea f8 48 be 25 0d 49 3d 46 3c 3b 3e
       -0.16295473 -0.19626203 0.0490848 0.18284711
0000c0 89 a5 bb 3d 24 5b 71 bd f2 06 e3 3d 21 59 8a 3d
       0.09162433 -0.05892481 0.11085309 0.06755281
0000d0 b0 76 64 3e 03 36 a6 3c 3a f3 15 be 52 21 bf bb
       0.223109 0.020289427 -0.14643565 -0.0058328295
0000e0 3a 81 4d be 46 3c 8b 3d 26 04 bb bc 95 dd 79 3d
       -0.20068827 0.067986056 -0.022829127 0.061002333
0000f0 63 74 00 be 4f 11 45 be 02 d7 f9 3d 13 02 28 3e
       -0.12544398 -0.19244884 0.121992126 0.16407041
000100 be 82 2a be dd 43 52 3e 8c da 0c bd 76 f1 34 bd
       -0.16651437 0.205337 -0.03438811 -0.044175588
000110 93 c1 d3 3c 8d 03 43 3d 08 7c 1a be f5 7c 29 3d
       0.02584914 0.04761081 -0.15086377 0.041378934
000120 31 c2 2e bd 89 dc aa be 70 9e dd 3d 59 1a 53 3d
       -0.042665664 -0.3337138 0.10821235 0.0515388
000130 ab 76 a9 be cd aa c6 3c 1b d0 3d bb 3d d8 ca bd
       -0.3309835 0.024251366 -0.0028963152 -0.099045254
000140 d1 0b 65 3d a8 73 7c 3c ce 7d 2d 3e 5c ce 4b be
       0.055919472 0.015408434 0.16942522 -0.19902939
000150 cd 94 17 bc 89 87 90 3d 9a 21 cb 3d 00 ec 30 3d
       -0.009251785 0.07057101 0.09918518 0.043193817
000160 59 07 ec bb 60 41 94 bd c1 f1 e1 3d 34 1e 33 be
       -0.0072030243 -0.07239032 0.11032439 -0.1749199
000170 9b 1d 1b be b9 2e 76 bd b6 1e 23 bd 36 b6 0c b9
       -0.15148012 -0.060103152 -0.03982421 -0.0001341932
000180 79 9f 19 3e 43 c7 4d 3b 19 03 ce 3d 12 ee 28 3e
       0.1500224 0.0031399287 0.100591846 0.16497067
000190 5e 45 09 3e 5f c0 45 3e 05 67 ee 3c b4 b2 89 bd
       0.13405368 0.19311665 0.029101858 -0.06723538
0001a0 b7 7d 88 3c df 28 45 3c af a5 91 3e be b0 d4 3d
       0.016661508 0.01203367 0.2844672 0.103852734
0001b0 02 8f 76 bd f7 6d b0 3d 7a 16 82 3e fe 2f d8 bd
       -0.060194977 0.08614724 0.25407773 -0.10556029
0001c0 f0 a1 35 be 0a ef 14 3d 22 90 d7 3c 59 12 15 be
       -0.17737556 0.036360778 0.026313845 -0.1455778
0001d0 fb f6 a7 bd 7a 16 74 3d df c8 00 3e 68 32 12 be
       -0.08201405 0.059591748 0.12576626 -0.14277041
0001e0 fb 2e 50 3d 86 5c 6e 3d 5d 45 da 3d e7 b5 00 3e
       0.050826054 0.058193706 0.10657761 0.1256939
0001f0 d3 66 3f be 64 2d c9 bd b4 2d 59 3d 6f 9f c5 ba
       -0.18691568 -0.09823111 0.0530221 -0.0015077422
000200 f0 8f 11 be 8a 87 b5 bd b8 f4 13 3d 01 25 50 3e
       -0.14215064 -0.08863743 0.036122054 0.20326616
000210 d9 94 8b 3c 9d 4c 12 bd 91 a6 28 3c 35 41 1f 3d
       0.01703875 -0.035717595 0.010293619 0.038880546
000220 b9 72 f1 3d d1 86 74 3e 96 4d 3c bd 17 f2 10 3e
       0.1178946 0.23879553 -0.04597243 0.1415485
000230 c0 1f 21 bd 36 16 36 3d e4 07 57 bb d2 04 cd be
       -0.03933692 0.044454776 -0.00328111 -0.4004274
000240 75 f5 9b bc 4e e2 27 3e d0 97 34 bd c4 2b 84 3d
       -0.019037941 0.16394922 -0.044090092 0.0645366
000250 2c f4 84 be 50 67 25 3e b7 88 1a 3e 5f 56 11 3e
       -0.25967538 0.16152692 0.15091215 0.14193104
000260 a5 71 06 3e 9c 69 8a bd b0 82 a7 bd 1a e2 0e bb
       0.1312929 -0.06758425 -0.081792235 -0.0021802248
000270 54 e6 30 3e e3 1e 56 3e 7b 6f 21 3d f6 2d 96 bc
       0.17275363 0.2091022 0.039412957 -0.018332463
000280 4a e3 17 3e 35 7f d5 3d c4 18 f6 bd 63 dc bb bd
       0.14832798 0.104246534 -0.120164424 -0.09172895
000290 f2 27 30 3d 2b 1a f6 ba 1f ce c5 bb b6 20 27 3e
       0.043006845 -0.0018776109 -0.0060365344 0.16321072
0002a0 d8 26 ff 3d 3c 87 27 3e 09 31 75 3d 75 9b c4 3d
       0.12458581 0.16360182 0.059861217 0.095999636
0002b0 07 7a 24 3e 29 ce 95 3d 11 7b 25 bd 38 ed 26 be
       0.16062175 0.073147126 -0.04040057 -0.1630143
0002c0 3e 34 0f 3e 3a 75 d8 3d 15 fb 1c be 24 8b 73 3b
       0.13984773 0.10569234 -0.15330155 0.0037161792
0002d0 5e 0d dc bd 76 20 95 bc b9 72 a9 3d 70 91 98 bc
       -0.10744737 -0.018203955 0.08273835 -0.018624038
0002e0 63 57 c2 bb f3 b9 dd bc b5 2b 3a 3e b2 f0 95 bb
       -0.0059308275 -0.027066207 0.18180735 -0.0045758123
0002f0 cb b5 0b be 1b dd ef 3c 11 b5 9e ba 6a fe 87 3e
       -0.13643567 0.029280236 -0.0012108405 0.2656129
000300 81 9a 3c 3e a1 9e 9c bd 8b ee 95 3e 07 b8 43 3d
       0.18418314 -0.076474436 0.29283556 0.047782924
000310 c6 ae 48 be 03 00 10 bd fb aa 1e be 78 19 c7 3c
       -0.19597921 -0.03515626 -0.15494911 0.024304137
000320 94 fc 1c bb 2b 0d 93 bd 62 9b 2d 3e 2f 68 a6 3d
       -0.002395426 -0.07180246 0.16953805 0.0812534
000330 f9 e9 b5 3c 4a 78 81 bc ef 9a 85 3d 87 31 4a 3e
       0.022206293 -0.015804429 0.06523692 0.19745456
000340 e9 a4 6c 3c 3d 6b 74 3c 9c 8b 27 be fa 84 a7 3d
       0.0144436145 0.014918146 -0.1636185 0.0817966
000350 e0 25 68 bd 08 30 16 3b 51 fb 06 be d4 6b e8 bd
       -0.056676745 0.0022916812 -0.13181807 -0.113486916
000360 0e 6b a5 bc be ba 83 3e 17 4b 8c bd d3 b9 57 bd
       -0.02019265 0.2572841 -0.0685026 -0.05266745
000370 94 ea 4a be a6 c5 3d 3e 3d 26 b2 bc 6d 87 6c 3d
       -0.19816047 0.18532428 -0.021746749 0.05774634
000380 71 17 06 bd b4 c8 d2 3d d7 0c 03 be 4d 01 40 bd
       -0.0327372 0.10292187 -0.12797867 -0.04687624
000390 6e 22 8e 3d 95 cb 57 3d 96 4a 76 bc 6d 63 6b bd
       0.06940161 0.052684385 -0.015032431 -0.057467867
0003a0 d8 fe 5f 3c a1 e9 a9 bd 01 a4 fe 3d 94 a0 c3 bd
       0.013671599 -0.08296514 0.12433625 -0.09552112
0003b0 b0 3f 76 3d a3 ee 76 3e fd 77 22 3e ad 57 10 3c
       0.06011933 0.2411447 0.15866084 0.008809966
0003c0 d2 85 91 3e ce 45 1b 3e 9f c8 ed bd 2c 0b d1 3c
       0.2842241 0.15163347 -0.11610531 0.025518022
0003d0 6b 8e 92 bd 11 8c 48 3e 9c a6 63 be bf 17 ea 3c
       -0.0715607 0.19584681 -0.22231525 0.028575776
0003e0 9c 41 89 bd b2 7e 78 3c c8 66 89 3e d6 79 48 3e
       -0.06701967 0.015166925 0.26836228 0.19577727
0003f0 59 03 ce bc ef b7 9d 3c e1 20 ad 3d 78 04 90 bd
       -0.02514808 0.019252745 0.08453537 -0.07032102

manager.M_value.0.bias f4 [32]
000000 ac 09 3e bb a6 54 d6 bb a9 df 39 3b 19 c9 1b bb
       -0.0028997464 -0.0065408526 0.0028362072 -0.0023770987
000010 ef bd 61 bb c2 f3 57 bb f1 af 3c 3b e6 9f e2 39
       -0.0034445485 -0.0032951687 0.0028791393 0.00043225213
000020 19 15 79 3b e9 1a 83 bb f5 81 33 bb 9c 7d 55 bb
       0.003800696 -0.0040010107 -0.0027390693 -0.003257609
000030 3a 90 31 3a 8a ec 3f ba 94 fa 3d bb 2f e4 31 3b
       0.00067735056 -0.0007321319 -0.0028988468 0.0027144065
000040 da 35 12 3b 94 c8 5a bb 68 c8 39 3b 9f 1f 7b 3b
       0.002230993 -0.0033383714 0.0028348211 0.0038318408
000050 6f a1 3b 3b d8 10 57 bb 55 30 6d bb 49 92 7c bb
       0.0028630157 -0.0032816436 -0.0036192138 -0.0038539341
000060 1a e2 1c 3b 89 d8 3e 3b 87 a6 39 3b 84 28 09 bb
       0.0023938478 0.0029120764 0.0028328018 -0.002092869
000070 4e fc 4a ba 15 7c 60 bb 6a 7d 48 3b 03 79 bf 3a
       -0.0007743285 -0.0034253646 0.003059233 0.0014608208

manager.M_value.2.weight f4 [1, 32]
000000 30 eb e9 3d 81 2c 44 3e d2 81 ad be a7 b7 07 3e
       0.114218116 0.19157602 -0.33888108 0.13253652
000010 aa bf 67 3e b6 fb d2 3d a0 ab 61 bd 73 c7 32 bc
       0.22631708 0.10301916 -0.055095315 -0.01091181
000020 a5 49 64 be bb d2 2a 3e b1 28 0c 3e 0c 1a e7 3d
       -0.22293718 0.1668195 0.13687398 0.11284265
000030 43 54 51 bd 84 6d 90 3d c3 75 f0 3d 96 37 94 bd
       -0.05110575 0.070521384 0.11741211 -0.07237165
000040 e1 ec a5 bd b9 cd ab 3d bf 9e 18 bd 8f cc 5e bd
       -0.08101822 0.08388848 -0.037260767 -0.0543943
000050 63 28 0a be 66 b4 20 3e 48 e5 9f 3e 1b b3 a7 3e
       -0.13491969 0.15693817 0.31229615 0.32753834
000060 b5 83 c6 bc 26 50 75 be da 7b 57 be 01 5e 76 3d
       -0.024232725 -0.23956355 -0.2104334 0.060148243
000070 36 04 4b be 3c a0 d8 3e 4f c6 78 bd e5 a0 8e bd
       -0.19825825 0.4230975 -0.060735997 -0.06964282

worker.f_stateW.0.weight f4 [128, 64]
000000 e2 39 80 3d 26 f5 50 3d 14 4f 54 bd 4c d1 1c bd
       0.0626104 0.05101504 -0.051833227 -0.03828554
000010 55 1d b0 bd 48 3e 5e 3d 78 9b 26 bc 7e 65 4f be
       -0.08599345 0.054258615 -0.010168903 -0.2025356
000020 e0 fa c5 3d 0a b4 a9 bd 15 ae 23 ba b5 d0 94 bb
       0.09666991 -0.08286293 -0.0006243897 -0.0045414814
000030 ea 31 40 bc 1e ab df 3c 30 40 07 3e 2e d8 d7 bc
       -0.01173065 0.027303275 0.1320808 -0.0263482
000040 0e 16 bf 3d 1c 29 9a bb fe c8 6c 3e 2c a4 b7 bd
       0.093303785 -0.0047046077 0.23123547 -0.0896686
000050 a7 d3 e4 bd df 4f f5 bd 6e 79 07 bd ec 2d ae 3c
       -0.11173182 -0.11978125 -0.03307479 0.021262132
000060 dd 8e 5c 3e 0f f0 c0 bd 7a 6b 1d 3e aa 7b f4 bd
       0.21538873 -0.094207875 0.1537303 -0.119376495
000070 fa 5b e7 bc 1b 34 fc bc e8 1b 9b 3d 92 6d 42 3d
       -0.0282421 -0.030786565 0.07573682 0.047467776
000080 9f 40 ca 3d e3 ef 4e 3d f4 45 b0 3b 0a 89 9f 3c
       0.09875607 0.050521743 0.005379433 0.019474525
000090 2c ea da bc 02 c0 b9 bc ee dd 8a 3d d0 ed 90 bd
       -0.02672299 -0.022674564 0.06780611 -0.07076609
0000a0 a7 31 19 be 50 58 80 3d a0 c2 a6 3d 7a ad 4a 3b
       -0.14960347 0.06266844 0.081425905 0.0030926154
0000b0 92 1f 41 bd 0c d4 13 3d 99 b0 f5 ba 5c 43 69 3d
       -0.04714925 0.036090896 -0.0018744647 0.056949005
0000c0 2c 63 5a bd 59 41 fc bd 85 81 7a 3d 20 ef 82 3d
       -0.053317234 -0.123171516 0.061158676 0.06393266
0000d0 f8 31 fc 3d f9 2c 7f bd c7 8a 67 3d 3d 48 1c be
       0.12314218 -0.06229875 0.056528833 -0.15261932
0000e0 78 26 48 bc ae f2 ef 3c e9 14 16 be 70 8a 33 3c
       -0.012216203 0.029290523 -0.14656414 0.010958299
0000f0 0a a4 94 3c 49 06 fc 3d 7d 3d 14 3d 9e 9b bb bc
       0.018144626 0.12305886 0.036191452 -0.022901352
000100 51 79 2f 3d 32 6f 0a 3d 50 f2 0d be f6 68 4e bd
       0.042840306 0.03379745 -0.13861966 -0.050393067
000110 ce cd c0 bd 63 0a 92 3c 99 b5 c3 3d 42 23 17 3d
       -0.09414254 0.017827218 0.095561214 0.03689886
000120 e4 5e e1 3d 06 b3 6f 3d 1e f9 fb 3c 48 ae e8 bd
       0.11004427 0.05852034 0.030758437 -0.113613665
000130 9f cc cd bb 96 9f cf bd a4 cb 95 3c 97 d0 62 3b
       -0.0062804963 -0.101378605 0.01828558 0.0034609193
000140 a5 21 a3 3d 1d 82 49 3d 18 9f 44 bd 5d d3 2d 3d
       0.079654016 0.04919635 -0.048003286 0.0424379
000150 b9 26 8a 3d 81 70 86 bb 56 09 89 3d 87 00 de bc
       0.06745667 -0.004102767 0.06691234 -0.02709986
000160 43 4a 89 be 7a c5 ca bd 68 c1 ae 3d 75 75 c7 bd
       -0.2681447 -0.09900947 0.08532983 -0.097392
000170 a9 1a ae 3c b1 15 21 3e 22 26 ed 3c 9e b6 94 bd
       0.021252947 0.15730931 0.028948847 -0.07261394
000180 a4 32 bd bd 87 70 bc bd 39 95 01 bc 7c af 16 ba
       -0.092381746 -0.092011504 -0.007909113 -0.0005748195
000190 ea 69 1d bd c2 81 b2 bd b6 fa ca 3c 73 6b a9 bd
       -0.038431086 -0.087161556 0.024777751 -0.082724474
0001a0 59 1e 2c 3d 28 43 e9 bd 49 77 12 bd 34 27 a7 3d
       0.04202113 -0.11389762 -0.03575829 0.08161774
0001b0 41 51 0c 3c fa c9 a5 3d 91 7e 35 be ac 93 d7 bd
       0.008564294 0.080951646 -0.17724063 -0.10526213
0001c0 6f fc 37 3e aa ce b2 3b f7 01 c8 3d f3 e7 0d be
       0.1796739 0.005456765 0.09766 -0.13858013
0001d0 9c 9d 14 3e 62 32 11 3c a5 5e c1 bd 99 2a 17 3e
       0.14513248 0.00886211 -0.0944188 0.14762343
0001e0 aa cf 07 3d a6 81 e6 3d da bd d9 3d 48 e0 02 3e
       0.03315703 0.11255197 0.106319144 0.12780869
0001f0 d3 c8 0d 3c 33 3c c8 3d 20 08 94 3d 2b 62 96 bd
       0.008653837 0.09777107 0.07228112 -0.07342943
000200 3f cc 44 bc 03 6f a4 bc e3 a6 0b be da f0 28 3e
       -0.012011587 -0.020072466 -0.13637881 0.16498128
000210 66 b6 c9 bd 7b 0b 00 bd 84 0e e1 bd 3b c4 b2 3c
       -0.09849243 -0.03126095 -0.10989097 0.021822086
000220 69 f6 dd 3d 2a 72 9d bc ca c2 85 3d 2f ce e3 bd
       0.10838015 -0.019219477 0.06531294 -0.11123311
000230 b9 33 91 bd 9a 3b 1d 3d 7f 26 a2 bc 93 b7 43 bd
       -0.070899434 0.03838692 -0.019793747 -0.047782492
000240 3c 0b 51 be bb 9d 6b bd 19 97 1e bd 91 e3 dc bd
       -0.20414442 -0.05752347 -0.038718317 -0.10785592
000250 88 f6 9b 3d 75 0c 55 3d 4a dd 4d 3b 61 77 24 3e
       0.076153815 0.052013833 0.0031412416 0.16061164
000260 2b 11 ee 3d 54 ab 86 3d a1 cc 22 3d 3c 33 84 3c
       0.11624368 0.06575647 0.03974593 0.016137712
000270 39 2d 56 3d 3f 7c 86 bc 60 38 cc 3a c7 7b b7 3d
       0.05228922 -0.016416667 0.0015580766 0.089591555
000280 13 bd de bd b7 22 9b bd 84 2f 55 be 14 d2 cf bc
       -0.10875907 -0.07574981 -0.20818907 -0.025368728
000290 71 1d 46 bd 3e 4e ae 3c e4 b0 ae 37 e2 ed 0b 3d
       -0.04836792 0.021277543 2.0824787e-05 0.03416241
0002a0 1c 19 89 bd df 1b 33 3d 10 16 88 bc c7 c0 c5 3d
       -0.06694242 0.04372775 -0.016612083 0.0965591
0002b0 24 0f d9 bd 22 57 29 3d e5 f1 b8 3d e8 bb ad bd
       -0.10598591 0.041342862 0.09030513 -0.08483106
0002c0 bc 77 49 3d 79 b0 ae 3d aa 5d fd 3d eb d0 92 3c
       0.049186453 0.08529753 0.123713806 0.017921885
0002d0 75 26 97 3d 19 87 11 bd 6f 54 2e be 79 2d 03 be
       0.07380382 -0.03552923 -0.17024396 -0.12810315
0002e0 28 b8 20 3d e7 80 e8 bc ee 57 44 3d b9 8c a6 3c
       0.039238125 -0.028381778 0.04793542 0.020330774
0002f0 b8 04 78 bd 10 69 b5 bd ff d9 38 3d b8 7f 25 3e
       -0.060551375 -0.0885793 0.045129772 0.16162002
000300 0c 4f 0c be 1f fe 7c bc be c6 ee 3d 91 46 a3 3d
       -0.13702029 -0.015441447 0.11659001 0.07972444
000310 76 f1 84 bd 19 9d ed bd 85 be b2 bd 7d cf 7e 3a
       -0.064913675 -0.116022296 -0.08727745 0.0009720249
000320 3f 08 1b 3c 13 b1 3a bd 92 68 7c 3d 5c 0d 16 be
       0.009462415 -0.045579027 0.061623164 -0.14653534
000330 7b 19 10 be f7 7e 83 bd 8a 17 b4 bd 30 9d 4d 3e
       -0.1407222 -0.06420701 -0.08793552 0.20079494
000340 ba f8 f5 bc 54 53 0f 3d 14 20 07 be 00 2b 70 3c
       -0.030025829 0.034991577 -0.1319583 0.0146586895
000350 25 a4 2e be 43 eb ec bc 72 86 3b be 1d 21 53 bd
       -0.17054804 -0.028920775 -0.18313006 -0.05154525
000360 90 42 c4 bd f5 17 73 bd 0e 36 57 3d ae 40 2c be
       -0.09583008 -0.05934902 0.052541785 -0.16821548
000370 53 9a 89 bd f9 ca 72 3d 6a ae 24 3d e8 2f 48 bd
       -0.06718888 0.0592756 0.040205397 -0.048873812
000380 38 5e 48 3d 03 00 ec 3c 94 0f af 3d bc 1f 06 3e
       0.04891798 0.0288086 0.08547893 0.13098043
000390 ab b9 29 3c b1 a0 d4 3d e7 3d f0 3c ba 3c ae 3d
       0.010359208 0.10382212 0.029326392 0.085076764
0003a0 42 44 59 3c 70 24 dc 3b ad a5 f8 3d c7 eb 11 be
       0.013260903 0.006718211 0.12140975 -0.14250098
0003b0 ce ea 18 be 61 f1 b7 3d a4 ee 64 3d 93 6b c6 3b
       -0.14933321 0.08981586 0.055891648 0.0060553043
0003c0 b6 f1 3c be 0b ae 25 3d 5a d4 f7 3c 62 c9 de bc
       -0.1845158 0.040449183 0.030252624 -0.027195636
0003d0 bc d7 e3 bd f4 5a 21 bd cb 60 82 bb 43 a2 d7 bd
       -0.111251324 -0.03939338 -0.003978824 -0.10528996
0003e0 50 ae ab bd d1 3d 72 3d e1 fe 34 bd c4 9c e4 bc
       -0.08382857 0.059140984 -0.044188384 -0.027906783
0003f0 4b f7 cc 3c fe bf 26 be 68 f4 b7 3c cd 4b 26 be
       0.025020262 -0.16284177 0.02245541 -0.16239853
