vwgym/saved_model/vwgym_f_net_step_4400000.pt (torch_old, 382116 bytes, 57 tensors)

f_percept.percept.0.weight f4 [16, 3, 3, 3]
00000000: bae3 883d c92e 8ebd dc0a bebd 7b7c 84be
00000010: caee f73d dbe0 8e3d 7a93 a6be bcc9 1bbe
00000020: 1cfb 57be d31e 9c3e 4634 09be f47f e2be
00000030: edbd a93b c25c ac3d 4ff9 943e 2cb4 87bc
00000040: 0fac 57be c685 2cbe 0339 5e3e 9a55 a5be
00000050: 5f86 b33d 9ded 37be 11f3 91bb f54b ca3b
00000060: 318d eabd 51b5 433e 9297 cdbd 9d3c 71be
00000070: 0530 54bd 77e5 923e 7f7b bfbd 8d1a 8b3c
00000080: 89a1 303e 36f0 6fbe 43b3 03be db0e 3a3e
00000090: 5343 88bd 9c82 ce3e 50c0 2a3c 00d6 bdbb
000000a0: 9749 3f3e ebdf 633e b317 8ebe a679 c63d
000000b0: df8c 87be 34b8 3dbe 5ea9 3f3d a758 18be
000000c0: 31bb c9bd 4f38 ab3e 0684 73be 6f46 5b3d
000000d0: 20c8 3abc 535d 853e 9b4d f8bd 2357 193e
000000e0: 1b23 923e f355 873e 2c5f 88bd 63de e83d
000000f0: 96d2 c8bc ad99 093e 9bbc 56be 2da8 583e
00000100: f18b 59bd ad44 fcbd 6f31 3b3d eec7 19bd
00000110: 7dcf ebbd 426b 97bb a795 393d 638a 4a3e
00000120: ce04 943e 8dbc bcbd c230 70be 2999 f3bd
00000130: ef69 f23e b2b6 c93e 2374 023e 226e 69be
00000140: a715 c33c 606a 013e 2dd9 38be 8833 8a3c
00000150: 9f95 633e d88c 9b3e 8aca 1c3e 65b0 d63d
00000160: e59a 3ebe 7026 98bc 8034 bb3e 5ef3 0a3e
00000170: 16c4 123e 6d1c 13be 3a52 063d 5105 1bbe
00000180: c2ae 82be 9d52 f5bd eb77 f5bd 3a10 b33d
00000190: e415 913e 9c7f c03d 21ff 3f3d f218 c43d
000001a0: d393 1bbe 38e3 9e3d d016 92bd 09f2 08bf
000001b0: e7aa 943e 5414 66bd 2f12 083d c6d5 d3bd
000001c0: 999b 43be 01eb ddbe c6d2 4dbc 772b ba3d
000001d0: f52b 983e c52e 6b3d 5a0b 04be 3f33 f13d
000001e0: dfd9 c7be 2160 b03d 5162 aa3d 1b08 1c3e
000001f0: 2348 8dbe dda2 593c 142b b0bc 2419 ac3d
00000200: e883 593d 0c0e babe 6cae b13e 8610 79bd
00000210: 4b3d a33d bb00 98bd 5111 b3b9 cf23 6e3e
00000220: f10b 723e 80f2 21be d16f acbe 7082 a73e
00000230: e4de 1e3e 1753 24bd bb73 5f3d 6b2e 253e
00000240: 230a 78be 1a84 4b3e 8535 eabc e23c 0bbe
00000250: e622 90bd 46b3 903c ee80 0b3e b207 633e
00000260: cc8c 0f3e 5cf2 5f3e b539 a5bd daa9 f43d
00000270: 2283 633e 1aaf 8d3e 4b88 853d 09a5 c23e
00000280: 4150 1c3e f793 eebd 2dc2 a8bd f422 92be
00000290: 9442 b43a 80bb b3be fe16 4dbe f67a 633c
000002a0: 842b cd3d c832 653e a3fb 5f3e de3b 813c
000002b0: 78a5 0c3e 2cd8 793e 265b 8e3e fb13 03be
000002c0: 0a13 8d3d 1df8 793b 6ee9 09bd 6545 9cbe
000002d0: 5c61 493e 49e4 9dbd 87bc a4be 5458 98bd
000002e0: 962e d9bd d827 9a3e d8c3 8e3d 7de3 783c
000002f0: 5dbd a8be db02 91bd 4f06 87be 4eeb 6b3e
00000300: dd3c bbbd d74b 92bc 8510 c73e 4290 173e
00000310: f2fc e2be e06e fa3d b5b4 09be c9d4 65be
00000320: 58c1 943d 4ba9 a1be 7e47 e93d bc35 343e
00000330: 7dbe 0e3e 8d3e 10be 194a 593e 1633 203e
00000340: b794 453d a7bb d3bd 7f75 e23b f3cf 73be
00000350: c04d 253e 4724 313e 05cf c7bd a1ed 0a3e
00000360: 978d d1be 4f2e d23d e179 483c 2532 823d
00000370: a543 443e 8f2c 62bd 96ab ba3e c46a 8c3e
00000380: 76e1 193e 334d 74bd 7870 7dbe 6582 e9bd
00000390: d683 213d 9899 763d 8d6d 4c3e 8c7b 70bd
000003a0: c966 e4bd 7b17 44be 7699 de3e c72b 8a3e
000003b0: 8f73 373e 5b15 9b3b ac20 7a3d 6600 20be
000003c0: 9ec3 433b 4ea9 363e 451b 093e af6a b3bd
000003d0: ecb8 703e 4f02 0ebd 8eeb 33be faa9 673d
000003e0: 1f47 fa3c 34bc ae3e d55f efbd 9c09 c3be
000003f0: c080 873e d48b 343e 9bff a23e e690 9abd
0.066840604 -0.06942517 -0.09279415 -0.2587622 0.12106092 0.069764815 -0.3253439 -0.15213674
-0.21091884 0.30492267 -0.13398847 -0.44238245 0.0051801116 0.0841613 0.29096457 -0.016565405
-0.21061729 -0.16847906 0.21701436 -0.3229187 0.087658636 -0.17961736 -0.0044540246 0.0061736056
-0.114527114 0.19112135 -0.10038675 -0.23558278 -0.051803607 0.28690693 -0.09349727 0.016980434
0.17249121 -0.23431477 -0.12861352 0.1816973 -0.06653466 0.40334022 0.010421827 -0.005793333
0.18680416 0.22253387 -0.27752456 0.09691171 -0.26474664 -0.18527299 0.04679238 -0.14877568
-0.09850157 0.33441398 -0.23780832 0.053533968 -0.011400253 0.26047763 -0.12124177 0.14974646
0.28542408 0.26432762 -0.066587776 0.11370542 -0.024514478 0.13437529 -0.20970385 0.21157904
-0.053111974 -0.12317786 0.04570144 -0.037544183 -0.115141846 -0.0046209404 0.045308735 0.19779353
0.28909916 -0.09215651 -0.234561 -0.11894447 0.47346446 0.39397198 0.12739615 -0.22795919
0.023814036 0.12638235 -0.18051596 0.016870275 0.22225045 0.30380893 0.15311638 0.10482863
-0.18613775 -0.018573016 0.36563492 0.135694 0.14332613 -0.14366312 0.03279326 -0.15138747
-0.25523955 -0.11978648 -0.11985763 0.08743329 0.28337014 0.093993396 0.04687417 0.095750704
-0.15193109 0.07758182 -0.071332574 -0.53494316 0.29036638 -0.05617173 0.033220466 -0.103435084
-0.19102325 -0.43343356 -0.012562459 0.090903215 0.29721037 0.05741765 -0.12894955 0.117773525
-0.3903341 0.08612085 0.083195336 0.15237467 -0.27594098 0.013283459 -0.021504916 0.08403233
0.05310431 -0.36338842 0.34703386 -0.060806774 0.07970675 -0.07422014 -0.00034154442 0.23255847
0.23637368 -0.15815163 -0.3367906 0.32716703 0.15514714 -0.040118303 0.05455373 0.16130988
-0.24222617 0.19874611 -0.028589973 -0.13597444 -0.07037906 0.01766361 0.13623402 0.22170904
0.14018553 0.21869797 -0.08067647 0.11946459 0.22217992 0.27672654 0.065201364 0.38016537
0.1526499 -0.11649316 -0.08240161 -0.28542292 0.0013752752 -0.3510399 -0.20028302 0.013884297
0.100180656 0.22382653 0.21873336 0.015775617 0.13734996 0.2439887 0.27803916 -0.1280059
0.06888397 0.0038142272 -0.03366988 -0.30521694 0.19666046 -0.077095576 -0.32175085 -0.07438722
-0.10604589 0.30108523 0.06970948 0.015190956 -0.32956973 -0.07080623 -0.26372 0.2303898
-0.09142468 -0.017858429 0.3887979 0.14801124 -0.44333607 0.12228179 -0.1344784 -0.22444452
0.0726344 -0.31574473 0.11390589 0.17598623 0.13939853 -0.14086361 0.21219672 0.15644488
0.04823753 -0.10338526 0.0069109793 -0.23809795 0.1614294 0.17298995 -0.09756283 0.1356721
-0.40928337 0.10262739 0.012236089 0.063572206 0.1916643 -0.055218276 0.36459035 0.27425206
0.15027413 -0.059643935 -0.24749935 -0.11401824 0.03943237 0.060205072 0.19963665 -0.058711573
-0.11152417 -0.19149582 0.43476456 0.26986524 0.17915176 0.0047327704 0.061066315 -0.15625152
0.0029871236 0.17838022 0.13389309 -0.08760583 0.23508042 -0.03467017 -0.17570326 0.056558587
0.030551491 0.34127963 -0.116882004 -0.3809327 0.26465416 0.17631465 0.31835636 -0.075471684

f_percept.percept.0.bias f4 [16]
00000000: 600a 81ba d7b5 063a 3322 6b3a 5703 d53a
00000010: c928 cbba 3b7b 8cba 4944 afba ac42 19ba
00000020: 5f41 72ba e39f 82ba 0627 77ba 4df9 beb9
00000030: be94 6139 da1c 76ba 36c7 a4b9 8898 d439
-0.0009845011 0.00051387906 0.00089696347 0.0016251606 -0.0015499826 -0.0010717878 -0.0013371791 -0.00058464217
-0.00092413084 -0.0009965863 -0.0009428117 -0.00036425368 0.00021513083 -0.00093884545 -0.0003142894 0.00040549436

f_percept.percept.3.weight f4 [64, 16]
00000000: 0db5 923d a800 093d 7e56 ac3c 888c 26be
00000010: 585b 98bd bba3 6fbd 2ba1 84bd 22b9 15be
00000020: c83d 583d baa6 09be e8e2 d63d f1a5 b6bd
00000030: 746f 273c 62fe 11be 7206 18be 0d88 d0bc
00000040: 0381 173e b9b8 06be 662a 1a3e 16f3 e2bd
00000050: 07a2 2fbd 5eb5 66be e7aa 1fbe be84 103e
00000060: 5739 1ebd bd57 38bb fc6d cbbb f317 833d
00000070: b1fd d9bd a15e f2bd e923 8fbe 305e 8ebd
00000080: 155e db3c e3a7 753e b875 74bd 5969 0abe
00000090: 61c5 c63d 42d0 bbbc 9abe 283e 92b1 973d
000000a0: 2211 b03d b642 7b3d 529f 84bd 87f9 a9bd
000000b0: 0847 8b3e 26d4 81bd 8772 52be 19aa 1cbd
000000c0: 76ef 153e dc67 6b3d 7130 6fbd b61e 28bd
000000d0: 79d0 c5bd 30ba 20be e1ea 5e3d ff6d 33be
000000e0: d1b1 d0bd a3d3 92be b5f3 8e3c 756f bd3d
000000f0: 1b6e a13d a4f4 2cbd acfb 9fbb d62d dc3d
00000100: 3527 ffbd ce36 0dbe 8f4b 9a3d 052f 0a3e
00000110: 3538 063e ec3d 023e 5fea 3ebe 3349 a7bc
00000120: f486 e93d 4c3c 373e af7a 79be e92b ee3c
00000130: b96d 9dbc dcdc d5be fa91 e93c d455 5ebd
00000140: ad11 f6bd 65b7 3fbd 123a 253e 89b6 133e
00000150: df6d 943d 0211 84bc fc22 0e3e a058 27be
00000160: 8443 5b3d ff0d f7bd 8022 433e 7161 06be
00000170: b00b debd 8d55 f33c 32c0 c63d 43d3 0c3e
00000180: 7345 cabd 1a32 51bd 7fa5 ff3d da78 953d
00000190: b382 05be b9f2 2b3e dbbb 323d bb6b 013e
000001a0: b945 0c3e 7e9b ea3a c6c6 7e3d cfdc 6dbd
000001b0: 78db d23c 4210 723d 0236 c0bd 30c0 80bd
000001c0: 56d4 d2bd ef59 a5bd ce84 95be 55f4 233e
000001d0: a38b 233e 421e 37bd 2f36 8dbe 1d74 90bc
000001e0: 839b 4fbe 5167 af3d 701a 10be dbad 20bd
000001f0: 9e6b 05be 5b18 453d 17e5 25bd c936 123e
00000200: b2d6 7e3c ed3b 65be de92 d7bd 2238 b63d
00000210: a590 5cbe 3706 19be 3ceb e53d 3808 56be
00000220: 6734 313e e88f 17be cabc e8bd 1229 3cbe
00000230: 4b6d 76bd 09be 493e a316 94bd 4d59 ccbc
00000240: ccef d63d a120 733e d663 50bc ab6a da3d
00000250: 807e 103e d83f efbc b739 0a3d 2289 1ebe
00000260: 828e a03d e3bb de3d 3e1d 9dbd bb40 503e
00000270: c89d c0bc b31d 873c 7c96 bb3d ccfa c93c
00000280: 3e9c 8d3d 17d8 febd 6ccd dcbc 5e00 68be
00000290: 5295 0e3d 636d c0bd a3b8 283e a5cd dd3c
000002a0: 112f ee3d aaea c33c b706 3fbe 3630 b03d
000002b0: 71bf 17be 7ec9 c8b9 a443 1b3e 5f6c b1bd
000002c0: 1fbf eb3d 4cf6 94bd a849 313e c045 33bd
000002d0: fb9c 72bd b985 bcbd 8274 f13d ffa1 f4bd
000002e0: a00e 88bc fc6a c13d de29 abbd 7da8 1fbd
000002f0: 6b3f 07bd fb11 2bbe 9b23 5fbc 8d42 583e
00000300: a708 c93d a769 56be 21db 183d 476b 323e
00000310: 664a 82bd c0d2 f43c 0b5c 11bd cc0b 85be
00000320: f087 1b3d 3436 b93d 0a52 adbc 1569 6fbe
00000330: d77a 963d 7e06 103e 6201 41bd 4628 25bc
00000340: ecc2 81be cbeb fe3c f60c 393e f4d6 8a3e
00000350: f358 3ebc 3f7f 28be 2ab5 9bbc 89a5 ff3d
00000360: e650 063e d965 ec3c 1160 033d 07f7 bfbc
00000370: d4a8 913d 6e40 83bd cc99 653d f78d b83d
00000380: d5ef 0d3e 079c 3e3d 18db 51bd ccc4 183e
00000390: 264a 2e3e 4871 f5bc f6eb 053d 175a 593e
000003a0: 3832 8b3c 22a1 adbd a992 8c3d f8b8 37be
000003b0: 413d a5bd 13d0 2fbe 561c 7d3c 88c7 963a
000003c0: 4129 043e 8383 20be e334 01bd dfda 90be
000003d0: bd43 913e ffe1 47bd bef5 2a3d 38f9 f63d
000003e0: 2836 81bb 04a3 81bc 2af4 373e adef 0c3c
000003f0: 4609 963d 17cd 6f3e 4ad4 cabc b009 c6bc
0.07163439 0.03344789 0.021037336 -0.16264546 -0.074392974 -0.058505755 -0.06476053 -0.14621404
0.052793294 -0.13442507 0.10492498 -0.089183696 0.010219444 -0.14257196 -0.14846209 -0.025455499
0.14795308 -0.13156404 0.15055236 -0.11081521 -0.04287913 -0.22530124 -0.15592538 0.14113137
-0.038628902 -0.0028128468 -0.0062081795 0.06401052 -0.10644091 -0.11834455 -0.27957085 -0.069515586
0.02677826 0.23989825 -0.059682578 -0.1351675 0.09705616 -0.022926454 0.16478959 0.07406916
0.08597018 0.061342917 -0.064757004 -0.08299547 0.2720263 -0.06339292 -0.20551501 -0.038248155
0.14642128 0.057472095 -0.058395807 -0.041044913 -0.09658904 -0.15696025 0.054423217 -0.17522429
-0.10190166 -0.2867709 0.017450193 0.09249774 0.07882329 -0.042225495 -0.0048822965 0.1075093
-0.1245865 -0.13790438 0.07533943 0.13494499 0.13107379 0.12718934 -0.18644093 -0.020420646
0.114026934 0.17894095 -0.24363206 0.029073672 -0.019217359 -0.41770065 0.02851199 -0.05428107
-0.1201509 -0.046805758 0.16135433 0.144251 0.07247519 -0.016121391 0.13880533 -0.16342402
0.053531185 -0.120632164 0.1905613 -0.13123108 -0.10842073 0.02970388 0.09704627 0.13752465
-0.09876528 -0.05107317 0.12482738 0.07298441 -0.13038139 0.1679181 0.043636184 0.12638752
0.13698472 0.0017899123 0.062201284 -0.058071908 0.025739416 0.059097536 -0.09385301 -0.06286657
-0.10294406 -0.08073794 -0.29202884 0.16011174 0.15971236 -0.04470659 -0.275804 -0.017633492
-0.20274167 0.08564628 -0.14072585 -0.0392283 -0.13029334 0.04811893 -0.04050168 0.14278711
0.015554117 -0.22386141 -0.105260596 0.08897425 -0.21539553 -0.14943777 0.11226508 -0.20901573
0.17305146 -0.1480099 -0.11364134 -0.18375042 -0.060162824 0.19701399 -0.0723088 -0.024944926
0.104949564 0.23742916 -0.012719115 0.106648766 0.14110756 -0.029205248 0.033746447 -0.15482
0.07839681 0.1087568 -0.07671593 0.20337193 -0.023512736 0.016493654 0.09159562 0.024655722
0.069145665 -0.124435596 -0.026953422 -0.2265639 0.03481037 -0.09395864 0.16476683 0.027075598
0.11630071 0.023915607 -0.18654905 0.086029455 -0.14819123 -0.00038297096 0.15162522 -0.08663248
0.11511063 -0.0727354 0.17313254 -0.04376769 -0.05923174 -0.09205193 0.117898 -0.11944961
-0.016608536 0.09444234 -0.08357595 -0.038979042 -0.033019464 -0.16706078 -0.013619329 0.21119137
0.098161034 -0.2093874 0.037318353 0.17423736 -0.063618466 0.02988565 -0.03548817 -0.25985563
0.037971437 0.090435416 -0.021157283 -0.2337993 0.073476486 0.14064977 -0.04712046 -0.010080403
-0.25344026 0.031118294 0.1807135 0.2711712 -0.011617887 -0.1645479 -0.019007284 0.12482745
0.13116798 0.028857158 0.032074038 -0.023433222 0.071122795 -0.06408773 0.056054875 0.09011453
0.1386102 0.046535518 -0.051234335 0.14918822 0.17020473 -0.029961243 0.032695733 0.21225773
0.01699172 -0.08477999 0.06863911 -0.17941654 -0.08068324 -0.17169218 0.01544865 0.0011503557
0.12906362 -0.15675168 -0.031544577 -0.28291985 0.28371993 -0.04879951 0.041738264 0.120592535
-0.0039432235 -0.015824802 0.17964235 0.008602065 0.073259875 0.2341808 -0.02475943 -0.024174541

f_percept.percept.3.bias f4 [64]
00000000: 24f6 12bb 3147 5c3b 58c9 273b d6e5 1c3b
00000010: 7dd7 3e3b 4292 923b d8b9 8dba 1e13 2d3b
00000020: 8e4d 6eba 8d98 623b c52e 7f3b 37ae 3dbb
00000030: 7018 d53a 7db6 8f3b edbd 223a 3586 8ebb
00000040: 5b1c dfba adfd 3dbb 6f32 343b a5fc 4b3a
00000050: 4d6c ef3a c323 f03a cb7f 203b 7ffa e13a
00000060: 5d41 0cba 9628 9b3a da63 883b 9c3e faba
00000070: 3bb8 88bb 2319 48ba 8597 363b 12e5 45bb
00000080: 0776 6a3b 7eff 963b 8f12 0039 e99a 86ba
00000090: b899 083b fed9 4b3b bb12 643b 36bd 85ba
000000a0: 86ab 5cbb c12b 113a 1436 c23b eda7 653a
000000b0: df91 083a b57f 453a df1e 7b3b c60b d53a
000000c0: 71cc f5b7 86ef ed3b b9f6 e9ba 9214 943b
000000d0: 62dd 903b 98c4 a13b 6ce5 57bb 67f2 073b
000000e0: 9683 d3ba cdfa 743b 41c4 a0bb a401 663b
000000f0: 5cff ae39 da6d c43b c757 53ba c52b 023b
-0.0022424543 0.003361177 0.0025602188 0.0023940704 0.002912014 0.0044730017 -0.0010812832 0.00264091
-0.0009090536 0.003457579 0.003893779 -0.0028942951 0.0016257893 0.004385768 0.0006208111 -0.004349495
-0.0017022 -0.0028990314 0.002749588 0.00077814824 0.0018266529 0.0018321205 0.0024490233 0.0017240791
-0.0005350316 0.0011837657 0.004162294 -0.0019092145 -0.0041723526 -0.000763314 0.0027861309 -0.003019635
0.0035775916 0.0046080938 0.00012213945 -0.0010269555 0.0020843577 0.0031105275 0.0034801203 -0.0010203484
-0.0033671572 0.0005537831 0.005926857 0.00087606796 0.0005209725 0.00075339834 0.003831796 0.0016254119
-2.9301476e-05 0.0072612194 -0.0017850018 0.0045190537 0.004420922 0.004936766 -0.0032943143 0.0020743848
-0.0016137238 0.0037380934 -0.004906208 0.0035096193 0.00033378124 0.0059945406 -0.0008062091 0.0019862514

manager.M_space.weight f4 [64, 64]
00000000: 706e 04bd e448 f73d cf2d a23e 1f6c 27bd
00000010: c547 8d3d 86a7 353e 6eac 56bd 3fb4 383e
00000020: b105 423e 68f8 15bd 9c5b e7bc bffa debd
00000030: 2398 04be b19f 0d3e 3e35 12be 94f4 fb3d
00000040: 8150 57bc 4aa1 2d3d cd14 e1bd d431 07be
00000050: d0b1 71be 6c12 8cbc 645a 49bd 7a9c 713d
00000060: b5d8 443e 90a5 b2bd 0ca5 69be ca86 523d
00000070: 2056 053d 7020 7dbe 7e8e 07be cbf0 41bd
00000080: 8f0e a0bd 5949 98ba 7289 29bd 4979 f5bd
00000090: 4f99 3fbe 36c6 fd3d ab30 973d fc8c 483e
000000a0: 4e0c 32be 74df b4bd 94aa 863e 3a5a 74bc
000000b0: a03a 1dbd 4325 18bd 5ecf bfbd 94e8 dd3c
000000c0: a8a2 92bd dc86 fbbd cb22 0bbe f8c2 abbc
000000d0: c801 e13d 85ef 06be cabc a53d 9442 343e
000000e0: 3e00 0ebe b1a8 9c3d be70 a6bd 6f90 083e
000000f0: c157 24bd f80a 41bc 3beb b3bd 52cc f13d
00000100: e12e ce3c 652c d9bb 31df 4c3a d709 e33d
00000110: 4b9f 4dbc f4ef 06bd 7e3e 333e cf21 5d3e
00000120: 1947 e13d b8e2 c43d b91b 3cbd c9f6 cabd
00000130: 630f 40bc 0554 d7bd ef61 2dbd 6e7f 70be
00000140: 0dc3 b3bd e731 d7bd 6f07 38bd 1bb4 c4bd
00000150: 57dd 2cbd e600 483d dddd 8bbd b1c4 963e
00000160: 0b45 c5bd b116 ec3d 3ce2 abbd d06e f53b
00000170: 0db3 35be 945d 203e f27b 633e 8ed5 653e
00000180: 0f01 ee3d e98d 033e 5a59 8ebc a9ed e93d
00000190: 9d08 f5bd 827a 36bc b8bd 3dbd 3c77 debd
000001a0: de18 12be 5ca6 75bc 0a20 503d 3fbd 2f3d
000001b0: 1bce f0bd 7a06 1d3e c576 473c 7abb c33d
000001c0: eb74 bf3d a984 c63d 9b03 d5be 8cd3 c63d
000001d0: cfee 82be 7f24 85bd b2f0 3f3e 1878 17bd
000001e0: 57be c83d d8a3 803d 890b f0bd 374e efbc
000001f0: 94e6 e83c b76a 5c3d c86e 9f3d aae4 ba3d
00000200: a8d6 16be abd3 c4bc 199f f33d fe3b 09bb
00000210: f588 e73d 0452 41be e65e 20bd 1d51 cc3e
00000220: 972c 033e 357f 1ebe 56fb 4dbd de1f cf3c
00000230: a278 b03d d3ba 073b d2ce 903d 4bfd dd3b
00000240: 697a 23bd 55fc 4c3e a757 32be a8cf eb3d
00000250: 511e 683e 69c7 22bd 6673 68be 9ba2 58be
00000260: 0bb9 adbd e5a1 f93c 948b 003d a666 d73c
00000270: cbca 09be 7933 88bd 83f4 aa3d c814 0e3e
00000280: 264c 013e a129 a23d 79f4 173a 9984 d53d
00000290: 0c58 733c 5185 433d 0585 563d a9e9 f03c
000002a0: 7e30 00be 962b 0e3e 6b31 d4bc ed42 e9bd
000002b0: 1d6b e4bd 113a 23be 72b1 c43a 012a 1c3e
000002c0: d57f 1c3e b876 62bd d50b fb3d 2a97 0fbe
000002d0: ff4d d33d ed43 303d d025 fbbc bd58 913c
000002e0: 85d6 a0bd e732 063e 5367 0f3d b735 ee3d
000002f0: 29b2 823d d859 c23c d701 673e dce4 97be
00000300: 8396 393d da62 6c3e 0d4d e7bd dbe6 633e
00000310: 91f4 aa3e a531 77bd da59 2bbb f3d7 b83d
00000320: b96e 023e faf6 8a3c 7c5e 223d 9207 54be
00000330: 3483 b73d a891 113d 8912 c53d 12bc 1ebd
00000340: eef2 9f3e 0e71 bc3b 84da 043d 0358 0e3e
00000350: e0d6 bfbd c809 203d e3d3 fe3b 10d3 b2bb
00000360: c095 eeba 8b0f ecbd a7a3 353c b999 c83d
00000370: e9c8 d5bd cd1c 473d 2157 863d 247b 0abe
00000380: c7fb 2dbb c289 dfbc 1e1d 903d e96b 403e
00000390: 3cf7 8a3d 3f2d 3d3e 0bbc c63d de32 fa3d
000003a0: b9c9 8d3c fb62 423e 2f7a 373e 95de 223e
000003b0: 4eca d13c a2f3 a73d 3a6d 513e 8552 763d
000003c0: a637 4cbe bb49 87be 0882 a2bc 8907 1f3e
000003d0: b3d8 a2bd e0a3 923d 3407 6bbe 9e39 dfbd
000003e0: fad4 8f3d e262 03be 0923 1c3d ca99 bcbd
000003f0: 1381 f33a 11a6 c7bc 2b28 abbb 73ba e83c
-0.032331884 0.1207445 0.31675574 -0.040874597 0.068984546 0.17739686 -0.052410536 0.18037508
0.18947484 -0.03661385 -0.028241925 -0.1088767 -0.1294866 0.13830449 -0.14278123 0.12302509
-0.013141752 0.042390145 -0.109902956 -0.13202602 -0.23602986 -0.017098628 -0.04915847 0.05898712
0.19223292 -0.08722985 -0.22816867 0.051398076 0.03255284 -0.24719405 -0.1323795 -0.04734878
-0.07815277 -0.0011618539 -0.041390844 -0.11986024 -0.18710826 0.12391321 0.073823296 0.19585031
-0.17387506 -0.08831683 0.26302016 -0.01491409 -0.038385987 -0.03714491 -0.09365724 0.027088441
-0.071599305 -0.12281582 -0.13587491 -0.020966992 0.10986668 -0.13177307 0.08092649 0.17603523
-0.1386728 0.07649363 -0.081269726 0.13336347 -0.04012275 -0.0117824 -0.08785101 0.11806549
0.025168838 -0.0066276067 0.00078152405 0.11085861 -0.012550185 -0.03294368 0.17504308 0.21594928
0.10999889 0.09613556 -0.045924876 -0.09910352 -0.0117224185 -0.10514072 -0.042329725 -0.2348611
-0.08777437 -0.10507565 -0.044928964 -0.09604665 -0.042203274 0.04882898 -0.068294264 0.2944694
-0.096323095 0.115277655 -0.0839276 0.0074900165 -0.17744084 0.15660697 0.2221525 0.22444746
0.11621296 0.12847103 -0.01737659 0.11422283 -0.119645335 -0.011137607 -0.046323508 -0.10862586
-0.14267299 -0.014993276 0.050811805 0.04290509 -0.117580615 0.15334502 0.012174313 0.09557243
0.09348472 0.09693272 -0.41604313 0.09708318 -0.25572821 -0.06501102 0.18744162 -0.036979765
0.098019294 0.06281251 -0.1172095 -0.0292121 0.02843026 0.05381271 0.07784802 0.091256455
-0.14730322 -0.024026712 0.1189558 -0.00209403 0.11305419 -0.18878943 -0.039153002 0.39905635
0.12809978 -0.15478213 -0.05028852 0.02528375 0.08616759 0.002071072 0.07070698 0.0067745796
-0.03991166 0.20018132 -0.17416249 0.11514217 0.22667815 -0.039740954 -0.22700271 -0.21155779
-0.0848256 0.030472705 0.031383112 0.026294064 -0.13456266 -0.06650443 0.08347418 0.13875115
0.12626705 0.07918096 0.0005796622 0.104256816 0.014852535 0.047734562 0.05237295 0.029408293
-0.12518498 0.13883814 -0.02590247 -0.11389718 -0.11153243 -0.1594012 0.0015006496 0.15250398
0.15283139 -0.055289 0.12258116 -0.14022508 0.10317611 0.04303353 -0.030657679 0.017742509
-0.07853416 0.13105355 0.035010647 0.11631339 0.063816376 0.023724481 0.22559296 -0.29666793
0.045309555 0.23084584 -0.11293993 0.22256033 0.33389714 -0.06035008 -0.0026146085 0.09025564
0.1273755 0.01696347 0.03964089 -0.20706013 0.08960572 0.0355393 0.09622676 -0.038753577
0.31240028 0.005750782 0.032434955 0.13900761 -0.09367156 0.039071828 0.0077767237 -0.0054572895
-0.0018202588 -0.11526402 0.011086381 0.09794945 -0.10438711 0.04861145 0.06559587 -0.13523537
-0.0026547776 -0.027287368 0.07036804 0.18791164 0.067854375 0.18474291 0.09703835 0.122167334
0.017308103 0.1898307 0.17917703 0.15905221 0.025609162 0.08200766 0.20451823 0.06013729
-0.19943103 -0.2642344 -0.019837394 0.15530218 -0.07951488 0.07160163 -0.22951967 -0.108996615
0.07023044 -0.1283069 0.03811935 -0.092090204 0.0018577896 -0.024371179 -0.0052232943 0.028409218

manager.M_space.bias f4 [64]
00000000: b7b8 89ba 9379 113b 499c ec3a 9e0c 313b
00000010: 7430 fd39 512f 4f3b c509 0cbb 6d87 57bb
00000020: 17f6 113b f32c 423b c761 ea3a 9974 ce39
00000030: 0a05 3bbb ddc4 9f3b b660 183a 3548 893a
00000040: ec72 0f3a 39fe 2f3b 8fdf 43ba c14e 31bb
00000050: d4d9 313b c2f1 853a 1e3c bc39 1651 703b
00000060: 0282 3e3b 04c4 d9ba 0feb dd38 0bf8 c43a
00000070: 95b3 0dbb 9d13 213b dc6c 97ba 9229 4d3b
00000080: bebb 3c3b 8ed9 9d3b c549 413a 59ac 74bb
00000090: 8bee 59bb e2dc 5dbb 291d 2aba 3dcf b53a
000000a0: f9b4 4e39 a293 14ba 14c6 64bb 3e5c 82bb
000000b0: 954f 193b 1b00 323b 4873 48bb 5664 02bb
000000c0: c3cc 103b 317f 1d3b 407e 1dbb 0413 143b
000000d0: 2c4b 26bb f059 84bb 5d49 623b 2c55 1dbb
000000e0: bd6d 42bb 62fd 6bba 0909 f039 9374 0d3a
000000f0: 778b 213a 7d54 a0bb 5aaa 89bb 0b7b 473b
-0.001050732 0.0022197708 0.0018051948 0.0027015577 0.0004829202 0.0031613896 -0.0021368128 -0.0032887117
0.0022271925 0.0029628843 0.0017881923 0.00039378254 -0.002853694 0.004875763 0.0005812751 0.001047379
0.0005472142 0.002685441 -0.00074719725 -0.0027054998 0.0027137892 0.0010219144 0.00035902945 0.0036669425
0.002906919 -0.0016614203 0.00010581884 0.0015027536 -0.0021621932 0.002457834 -0.0011552828 0.0031305295
0.0028798427 0.0048171943 0.0007373358 -0.0037334173 -0.0033253755 -0.003385358 -0.00064893306 0.0013870966
0.00019713108 -0.0005667751 -0.0034908103 -0.0039782813 0.0023393382 0.0027160707 -0.003058629 -0.001989623
0.0022094704 0.002403211 -0.002403155 0.0022594342 -0.0025374396 -0.0040390417 0.0034528591 -0.0024007065
-0.002966746 -0.00090022956 0.000457831 0.0005396094 0.00061624445 -0.0048928843 -0.0042012157 0.003043833

manager.M_goals.weight f4 [64, 128]
00000000: 6b02 91bd 68dd 0bbd c30a 18bd 8ca2 d4bd
00000010: 9896 263e df16 073e 4c5d 0c3d 9856 773d
00000020: daa3 0dbe 53d3 293e ea5f e63c 9fdf a0be
00000030: 39b4 2a3e 5bd0 1a3e e1df c23c 54ef 2a3e
00000040: d121 64bd f076 b53c fe71 f4bd 9470 683c
00000050: 48ec 98bd 8776 673d cc34 693a d427 2e3c
00000060: 13fb ccbc 9677 84bd 84e2 e7bb d326 21be
00000070: cae1 ff39 22b0 60be dfb4 49bd 5527 f3bc
00000080: 8675 c53d d7c8 fcbc ba10 babc badd b03d
00000090: 96a2 27bd 508f 93bd 3252 eb3d 6e68 8dbd
000000a0: 40b0 82bd e193 d8bd 810c 113e dd7a 2d3d
000000b0: 3711 843c c13d 8e3c 9275 cfbd 3b56 fbbd
000000c0: 0739 e5bc 3774 033b 4d1b 1c3d bd5c 833d
000000d0: 659a ab3d 029f 1a3e 0357 6ebd b72e 1f3e
000000e0: 17b7 323c df75 3a3d 806c 2abe dfcf 05bd
000000f0: e151 2f3d c248 b63d ee2d 6abd bb73 9b3b
00000100: a4df af3d 22bd 2a3e 02fb c7bd 93d5 933c
00000110: 042c 85bc d763 2ebd 9ad5 eb3d c0b5 9fbd
00000120: 7d10 38bd 6b45 34bc 4b91 943d 882b 76bd
00000130: d7fd 233e b124 7bbd 8a4e 66bd b33a 693d
00000140: e22d dd3c 447b d3bc 39f1 3f3c 0c8e 063d
00000150: f9b7 9b3c d76f 5abd bf27 4839 300d 7bbd
00000160: ad80 54be ece9 0b3c 4600 3cba 130b 283d
00000170: 4bbf 493d d361 093e 7db7 013d 9856 d43c
00000180: 784e d53d 7a6a 26bd 5752 923d 9686 9cbc
00000190: b09b 49be fe98 83bd 3290 fa3d f15a 193b
000001a0: d9a0 763d 08ec b03d bc0d 8abc c00a a03c
000001b0: 80ec cf3d 42d7 9d3c 8d78 cf3b 47ed b6bc
000001c0: 4714 c5bd e045 1e3d 24bb 0fbc a6d4 003d
000001d0: 2f16 163d 4f55 8a3d a663 233e 3b11 a2bd
000001e0: ed35 0dbd c72e 243c ba56 0bbe e403 163e
000001f0: 86ab 173c d94d 61bd 295b b93b 12e5 eb3c
00000200: ae22 dc3d 24ea 62bd 2bc9 e5bd 581c c6bd
00000210: c23b e83d ae47 0cbe 3159 b13d 2930 2f3e
00000220: 6599 87bd 6d16 26bb 3e10 88bd fb92 b5bc
00000230: 646b 15bd ce3c 5ebd 066b 2d3d 039a 4bbd
00000240: 5b47 d8bd e47a febb 8be0 43bd 3b50 8e3d
00000250: d69e 4d3e de93 b43d 715f 5abd d7a5 203e
00000260: a8ce 093e fd46 473e 7254 25be 4b47 433d
00000270: 01fc 073d 3fec b23c 761b 833c c802 3fbd
00000280: 925b 0b3d 8a1d 2c3d 77ad 9f3d d437 bd3c
00000290: afb1 58bd c0f6 653d a2a1 d03c 179a 4ebd
000002a0: 4327 71bc 28cb c53b 9805 0e3e 0b6f 18bc
000002b0: 8402 21be 5470 c73d 7595 613c 3d49 b2bd
000002c0: 89da a4bd ff34 bf3d 8e47 10be 671d c03d
000002d0: 2b83 67bd 83ab 7abd d7b5 82bd 186e 133c
000002e0: 6fcb 843c 5afb 8fbd 02c5 8d3b 7b95 71bd
000002f0: 2082 a9bd bb26 cbbd 6509 f23d 7c47 b2bc
00000300: 9208 cabc 5378 893d 8f0d ccbd a257 893d
00000310: a8c6 043d c42e b2bc e1d0 8c3d 95e2 fa3d
00000320: cf21 743c 2500 a3bd bcc2 e2bd 235c 43be
00000330: 64d4 fe3c 9d06 ae3c ffa4 ad3d 8922 ecbd
00000340: 6c6b 873d 4633 403d 12d9 debc 0d7f 4abb
00000350: c450 8e3d 29a7 a43c 11c5 e83b 46d8 053e
00000360: 602f f9bc 0829 553d b09d 1abd c7ff 6b3e
00000370: 2465 dbbd 6799 a2bd eef4 bfbc 8130 17bd
00000380: 4740 8cbd be7f fe3d 734a d13d d263 babd
00000390: 03bc 82bd ce2b 263e dfea 44bd c260 47bd
000003a0: 5c39 fa3b 0a3f 323e 3dbe 1d3c 9952 11be
000003b0: 6456 ad3d 09cd 243d 5fde 803d 0ce0 e53b
000003c0: cb91 cfbc 5684 46bd cb81 033e 83bf aabb
000003d0: 04e1 bbbd 47d9 1cbe a223 f1bc 5643 af3d
000003e0: 3b7d d63c b9b9 2a3d 830c 1bbe 2ae3 dcbd
000003f0: aa4d 7b3d 8df0 c7bc 278f 5dbe 221b c8bd
-0.07080539 -0.034146696 -0.03711964 -0.10382566 0.16268384 0.13192318 0.034268662 0.060385317
-0.13832036 0.1658452 0.028121907 -0.3142061 0.16670312 0.15118544 0.023788394 0.16692859
-0.055696312 0.02215144 -0.11935805 0.014186997 -0.07466942 0.05650952 0.0008896112 0.010629613
-0.025022065 -0.06468122 -0.0070765633 -0.15737467 0.00048805616 -0.2194219 -0.049244758 -0.02968184
0.096415564 -0.030857487 -0.022713054 0.08636041 -0.04092654 -0.07205069 0.11490287 -0.06904684
-0.06381273 -0.10575081 0.14164926 0.0423535 0.01612149 0.017363431 -0.10129847 -0.122723065
-0.027981294 0.0020058283 0.038111974 0.06414173 0.08379058 0.15099719 -0.05818845 0.15545164
0.01090791 0.045522567 -0.16642952 -0.032668944 0.042802695 0.08900596 -0.05717271 0.0047440208
0.08587578 0.16673711 -0.09764673 0.018046176 -0.01625634 -0.042575683 0.11515351 -0.07798338
-0.0449376 -0.011002879 0.07254275 -0.06010011 0.16014801 -0.06131429 -0.056227244 0.056940746
0.026999418 -0.025815614 0.011715227 0.03285031 0.019008623 -0.053329315 0.00019088293 -0.061291873
-0.20752211 0.008539658 -0.00071716716 0.041026186 0.049254697 0.13416223 0.03166913 0.025920197
0.10415357 -0.040628888 0.07144611 -0.019107144 -0.19688296 -0.06425665 0.12234534 0.0023400153
0.06021199 0.086387694 -0.016852252 0.019536376 0.10152531 0.019267682 0.0063315094 -0.02232994
-0.09623008 0.038640857 -0.008772645 0.031452797 0.03664225 0.067545526 0.15955982 -0.07913443
-0.034475256 0.010020918 -0.13607302 0.14649922 0.009257203 -0.055005882 0.005656619 0.028795753
0.10748802 -0.055399075 -0.1122001 -0.09673375 0.11339523 -0.13699219 0.0865959 0.17108215
-0.066210546 -0.0025342957 -0.06643723 -0.022164812 -0.03647937 -0.054257207 0.042338394 -0.049707424
-0.10560485 -0.0077661145 -0.047821563 0.069488965 0.20080122 0.08817266 -0.053313676 0.15688263
0.1345774 0.19460674 -0.16145495 0.047675412 0.033199314 0.021841167 0.016004305 -0.04663351
0.034022875 0.04202036 0.07796758 0.02309791 -0.052903827 0.056143522 0.025467698 -0.05043992
-0.014718833 0.006036181 0.13869321 -0.009303818 -0.15723616 0.09738222 0.0137685435 -0.08705375
-0.08049495 0.0933628 -0.14089796 0.09380608 -0.056521576 -0.061198723 -0.063823394 0.008998416
0.016210286 -0.070303634 0.0043264637 -0.058980446 -0.082767725 -0.099194966 0.11818198 -0.021762602
-0.02466229 0.06712403 -0.099635236 0.06706168 0.032416016 -0.021750815 0.06875778 0.12250248
0.014900639 -0.07959012 -0.11072299 -0.19078116 0.031107135 0.021243388 0.08478736 -0.115300246
0.06612286 0.0469239 -0.027203117 -0.0030898482 0.069489986 0.02009924 0.0071035703 0.13070783
-0.030418098 0.052041084 -0.03774804 0.2304679 -0.107126504 -0.079394154 -0.023432221 -0.03691149
-0.068481974 0.12426709 0.10219278 -0.091010705 -0.06383517 0.16227648 -0.048075553 -0.04867626
0.0076362323 0.1740686 0.009627876 -0.14191665 0.08463743 0.0402346 0.06292414 0.007015234
-0.025338074 -0.04846605 0.12842481 -0.0052108183 -0.09173778 -0.1531726 -0.029435936 0.08557765
0.026182761 0.041681025 -0.15141492 -0.107855156 0.061353363 -0.024406696 -0.2163664 -0.097708

manager.M_goals.bias f4 [64]
00000000: dddc dc37 ff01 30bb 41c0 563b 6ad6 1f3b
00000010: 24a4 81bb 317b 7dbb 46a0 473b 4ee9 5abb
00000020: 9e89 4ebb 258d 443b 37be 253a d413 383b
00000030: e32e f33a 7c9a 5abb ff4b 013b 187c 42bb
00000040: a463 9dbb e1ad 393b 5428 3c3b 76c4 75b8
00000050: cb07 32bb 93d0 083a f696 0c3b b461 513b
00000060: d753 fdba cf4c 4fbb 22e9 41bb 331b 293b
00000070: da67 213b e149 583b 5b21 47bb 54a1 13bb
00000080: 0e36 90bb 0da4 9aba aca1 32bb 8cd4 7a3b
00000090: 3e03 71bb 4f7d 13bb 1a28 5cbb 2181 2c3b
000000a0: 77b6 fd3a 9c4c 6338 0311 fab8 3924 a7b7
000000b0: 0b8a 6a3b 47ec 39bb ef00 07bb e9c7 6cba
000000c0: 5414 8d3b 6b6a 04bb 1534 473b f3e0 363b
000000d0: 0589 74bb e719 343b cd54 523b 012d 653b
000000e0: 38d5 8e3b 9f58 8ebb 8e4f 22bb 844e 353b
000000f0: 780d 4c3a 36b1 0d3b accf 9c3a 8c42 213b
2.6328891e-05 -0.0026856659 0.00327684 0.0024389275 -0.0039563347 -0.0038678164 0.003046052 -0.003340322
-0.0031515132 0.0029991355 0.00063225947 0.002808799 0.0018553402 -0.003335624 0.0019729135 -0.0029676016
-0.004803138 0.00283324 0.002871056 -5.859552e-05 -0.002716529 0.0005219068 0.0021452284 0.0031949105
-0.0019327354 -0.0031631475 -0.002958842 0.0025803566 0.002462855 0.003300302 -0.0030384872 -0.002252658
-0.004400975 -0.0011798159 -0.0027257008 0.003827366 -0.0036775614 -0.002250511 -0.0033593238 0.0026322084
0.0019356747 5.4192365e-05 -0.000119240976 -1.9924819e-05 0.0035787846 -0.0028369592 -0.0020599922 -0.00090324745
0.004305402 -0.0020205032 0.0030396034 0.0027905076 -0.0037313115 0.002748126 0.0032094002 0.0034969451
0.0043589137 -0.0043440606 -0.0024766657 0.0027665207 0.00077839894 0.0021620519 0.0011963747 0.0024606315

manager.M_value.0.weight f4 [32, 64]
00000000: 6cc8 173e 0050 273e 3cb4 1abe 7157 1e3e
00000010: 9972 2b3e 30e3 00bd 0d8f 08bd 28bc f43c
00000020: 8f49 0abe a479 a0bd b83e 9bbe fce1 0a3e
00000030: eebe 0d3c e234 82ba 1bc6 a43d 7135 41bd
00000040: 6605 b03d e15b 09bd c1c4 e4bc ef6d 85bc
00000050: 504d f73b 4508 15bd 57b0 00be b703 573e
00000060: fa17 cfbc d248 913e 1681 b53d 09b3 73be
00000070: ff25 263d 34ae 363c f9c0 23be dc2d 2a3e
00000080: 8f46 0d3e 4732 093e 39c7 48bd 596f bcbd
00000090: f798 d13d 2a54 65bd 1164 a8bc 1449 b43d
000000a0: 248b 103e 0fb2 a83d 2d84 e2bd f452 3fbb
000000b0: 3c7e 27be ebb4 48be 16d9 493d fffb 3a3e
000000c0: 1aef ba3d e84c 78bd 7fe3 e13d ce3b 8a3d
000000d0: eb08 643e 001d a03c 1bdc 15be aa26 dabb
000000e0: e006 4ebe dca3 8b3d b917 c0bc 436c 783d
000000f0: c164 01be 6f4d 45be 2cf4 f53d 3888 273e
00000100: 68d5 28be 9aca 533e e867 07bd 21e2 2dbd
00000110: f5de d93c 2e93 4b3d 50d7 19be 34fe 2b3d
00000120: 1963 29bd 4f3c aabe bb0b e13d 4b32 5b3d
00000130: 6bf7 a9be dd54 d53c 5032 89ba e1e8 c9bd
00000140: 6b4b 673d ac79 7d3c 9211 2f3e 2668 4cbe
00000150: d886 06bc 4b94 943d b2c8 cb3d 35cd 393d
00000160: 5fd9 bfbb d5af 8ebd d3ab e33d 1040 31be
00000170: 201c 19be fb2c 6ebd 40d0 1bbd 75f5 d13a
00000180: 35a0 1a3e 3691 7b3b 23ca d33d bb1b 2b3e
00000190: 48f8 093e 72b6 453e 3439 003d 998f 84bd
000001a0: 69d3 8d3c e728 453c 0edc 923e 2827 d83d
000001b0: ce51 73bd 7fcf b13d da6b 823e 2f16 d5bd
000001c0: e119 34be 4603 123d 951e da3c 2bcd 13be
000001d0: 62cd a3bd 83f5 783d b455 013e 3599 11be
000001e0: 67b7 5a3d b8d7 763d a00d df3d 86c1 013e
000001f0: 529b 3ebe def4 c6bd d15b 5a3d df89 90b8
00000200: fddf 11be aa31 b6bd 68e1 153d 0173 503e
00000210: 95f3 863c 2653 12bd d900 383c 3977 253d
00000220: 4589 f03d 312c 753e ff65 3cbd dee7 103e
00000230: 153d 1dbd 6df4 373d 5a37 4dbb b9fe ccbe
00000240: 4bd5 95bc 1a9b 273e b916 33bd c935 843d
00000250: b3c6 84be 4139 253e 77b2 1b3e 120c 123e
00000260: 9e82 063e a37f 8dbd ea31 a9bd d1f4 01bb
00000270: 6a90 313e 9dc1 563e d93e 213d b940 99bc
00000280: 7344 183e 99dd d53d f517 f7bd 1513 babd
00000290: 03f8 313d e596 cfba 83b7 ccbb 419f 273e
000002a0: b7f2 ff3d ff41 283e 6893 713d c191 c53d
000002b0: 803f 253e cc56 973d 9cb4 24bd cd9a 26be
000002c0: 27ca 0f3e 100a dc3d 2907 1cbe ec7c 7e3b
000002d0: 93f6 dabd e490 8dbc 7d3c a93d ad47 93bc
000002e0: e65c b6bb b82e dfbc 49dc 3a3e 43ab 79bb
000002f0: 53c8 0abe 0a84 f43c 618f bb39 3c36 883e
00000300: d5ce 3c3e 5f0a 9cbd 94ab 953e 5d62 423d
00000310: c43a 48be 160c 10bd d18c 1fbe f355 ba3c
00000320: c8e9 08bb 9074 94bd bfa0 2d3e 1a7e a63d
00000330: 7f30 ad3c b6e0 84bc b793 853d ad23 4a3e
00000340: 3246 5f3c 0103 783c d605 28be 3376 a73d
00000350: db4b 6abd 6a96 233b 46ec 07be b3ed e9bd
00000360: 3eec a5bc c769 843e 339f 8abd c9c0 58bd
00000370: 54a8 4bbe b103 3d3e cded b0bc 2024 6e3d
00000380: f3c4 07bd 6864 d23d f4b8 02be ce40 43bd
00000390: 8c62 8d3d 0186 583d 886c 74bc f393 6dbd
000003a0: 5bf0 593c f9f5 aabd 3d3c 003e 4266 c4bd
000003b0: d0fc 723d 9530 763e 164b 223e 4259 0b3c
000003c0: 453a 913e 1874 193e a7e3 efbd b60e cf3c
000003d0: 4089 93bd 249f 473e 6e94 63be 1607 e53c
000003e0: 59f5 89bd 88e3 7b3c f70c 893e e689 473e
000003f0: 2d59 d6bc dfbd 983c 02b6 a93d 5cf6 90bd
0.14822549 0.16339111 -0.15107816 0.15463044 0.16742934 -0.031466663 -0.03333955 0.029874876
-0.13504623 -0.07835701 -0.30321288 0.13562769 0.008651478 -0.0009933973 0.08045598 -0.047170106
0.0859478 -0.03353489 -0.02792585 -0.016287772 0.007547058 -0.03638484 -0.12567268 0.20997511
-0.025279988 0.2837587 0.08862512 -0.23798765 0.04056358 0.011149932 -0.15991582 0.16619056
0.13796447 0.13398086 -0.04901812 -0.092009254 0.10234254 -0.05598847 -0.020555528 0.08803001
0.14115578 0.08237087 -0.11060367 -0.002919373 -0.16356748 -0.19600265 0.049279295 0.18260191
0.09127636 -0.06062022 0.110297196 0.06749688 0.22269027 0.019545078 -0.14634745 -0.006657441
-0.2011981 0.06818363 -0.023448812 0.06065012 -0.12636091 -0.1926782 0.12009463 0.16360557
-0.16487658 0.20682755 -0.033058077 -0.04245198 0.026595572 0.04970091 -0.15023541 0.041990474
-0.041354273 -0.33249137 0.109885655 0.05351476 -0.33196577 0.026041443 -0.0010467265 -0.09858871
0.05646841 0.015470903 0.17096546 -0.19961604 -0.00821086 0.07254847 0.09950389 0.045361716
-0.00585477 -0.06967131 0.11116757 -0.17309594 -0.14952135 -0.058148365 -0.0380404 0.0016018586
0.15100177 0.0038386113 0.10341289 0.16709797 0.13473618 0.19307879 0.031304553 -0.064727016
0.017312722 0.012033678 0.28683513 0.105543435 -0.059404187 0.08682155 0.2547291 -0.10404622
-0.17587997 0.035647653 0.02662591 -0.14433734 -0.07998158 0.060781013 0.1263035 -0.142186
0.053397562 0.06026432 0.10891271 0.1267148 -0.18613937 -0.097146735 0.05331022 -6.8921356e-05
-0.14245601 -0.088961914 0.036591917 0.2035637 0.01647357 -0.035723828 0.011230671 0.040396903
0.11744932 0.23942639 -0.04599571 0.1415095 -0.03838833 0.044910837 -0.003131351 -0.40038088
-0.018290183 0.1636776 -0.043722842 0.06455571 -0.25932845 0.16135122 0.15204798 0.14262417
0.13135764 -0.069091104 -0.082614735 -0.001982976 0.17340246 0.20972295 0.039366577 -0.01870762
0.14869861 0.10442657 -0.12065116 -0.09085671 0.043449413 -0.0015837817 -0.0062474622 0.16369344
0.12497466 0.16431426 0.05897847 0.09646941 0.16137505 0.07389602 -0.040211305 -0.1626999
0.14041959 0.10744107 -0.15237106 0.0038831783 -0.106915615 -0.017281003 0.0826349 -0.017978514
-0.0055652736 -0.027243957 0.18248095 -0.0038096465 -0.1355298 0.029848117 0.00035774245 0.26603878
0.18438275 -0.07619166 0.29232466 0.047457088 -0.19553667 -0.035167776 -0.15581061 0.022746062
-0.0020891298 -0.07248795 0.16955851 0.08129521 0.021141289 -0.016220432 0.06522315 0.19740172
0.013627576 0.015137435 -0.16408476 0.081768416 -0.057201248 0.002496148 -0.13273725 -0.11422291
-0.02025425 0.25861952 -0.06768646 -0.05291823 -0.19888431 0.1845844 -0.021597767 0.05813992
-0.03314681 0.10273057 -0.12765867 -0.047669224 0.06903562 0.05286217 -0.014918454 -0.058002423
0.013301934 -0.08347697 0.12522979 -0.09589817 0.059323132 0.2404197 0.15848956 0.008505167
0.2836477 0.14985693 -0.11713343 0.02527557 -0.07203913 0.19494301 -0.2222459 0.02795748
-0.067362495 0.015374072 0.26767704 0.19486198 -0.02616557 0.018645225 0.08286668 -0.07078239

manager.M_value.0.bias f4 [32]
00000000: 89b3 47bb 9a86 9cbb b81a 473b 9467 2abb
00000010: f993 61bb a8a8 61bb 4985 4b3b 95af 8839
00000020: f7ba 693b 71f1 6ebb 6ceb 61bb 843a 3cbb
00000030: 7e70 2b3a 8311 a9ba b62e 4ebb cc93 3c3b
00000040: 2595 223b ef22 6fbb 4961 473b 20c4 6f3b
00000050: cc28 493b 85b1 60bb 0069 5ebb e55e 7dbb
00000060: 019e 3a3b c166 543b 2da0 483b 2d79 1ebb
00000070: 3e2e cf39 16ac 66bb 9966 4c3b 99e1 0a3b
-0.0030472002 -0.004776788 0.0030380916 -0.0026001679 -0.0034420474 -0.0034432802 0.0031054786 0.0002607076
0.0035664418 -0.0036459828 -0.0034472598 -0.0028721401 0.0006539895 -0.0012898896 -0.0031460947 0.0028774617
0.0024808135 -0.0036489328 0.0030422977 0.0036585405 0.0030694483 -0.0034285497 -0.0033937097 -0.0038661298
0.0028475525 0.003240988 0.003061305 -0.0024181113 0.0003951657 -0.0035197786 0.0031189083 0.0021191596

manager.M_value.2.weight f4 [1, 32]
00000000: 8b73 e93d 232f 463e 10d0 adbe 543d 073e
00000010: f7e3 673e b067 d33d 2c71 63bd 7856 31bc
00000020: b57e 64be 9891 2b3e eec4 0b3e b0a4 e73d
00000030: b9d4 52bd 94e7 8e3d f5bb ef3d 5e83 94bd
00000040: 750d a7bd da73 ab3d 9bcf 19bd 5db7 5fbd
00000050: 40f0 0abe 83dc 203e 794f a03e 04ff a73e
00000060: 5f68 c9bc b0dc 75be cf45 58be e4c1 733d
00000070: fcea 4cbe fa0d d93e 4f36 78bd af7b 91bd
0.11398991 0.19353919 -0.33947802 0.13206989 0.22645555 0.10322511 -0.05552785 -0.010823838
-0.2231396 0.16754758 0.13649341 0.113107085 -0.0514724 0.06977764 0.11705772 -0.07251619
-0.081568636 0.08371706 -0.037551504 -0.05461823 -0.1356821 0.15709119 0.31310633 0.3281175
-0.0245859 -0.24009967 -0.2112038 0.05951108 -0.20011514 0.42393476 -0.060598668 -0.07103669

worker.f_stateW.0.weight f4 [128, 64]
00000000: 152b 803d 82d5 4d3d 0ff3 55bd bf43 1cbd
00000010: 0171 afbd 612f 613d 9f3c 21bc ed9c 4fbe
00000020: 08c2 c73d 80ae a8bd d3fc dfba 43b0 95bb
00000030: dea2 33bc 57d4 e13c 94ce 073e 7f52 e7bc
00000040: 748a be3d e3fc 99bb 8b4c 6c3e e24e b6bd
00000050: d52c e3bd 88b9 f6bd 293a 07bd 6bbd b23c
00000060: c00d 5d3e 009c c0bd fbf1 1b3e 6423 f7bd
00000070: 3847 e8bc f7d8 fcbc 1a02 9c3d 60a9 3e3d
00000080: c2ec cb3d 06e3 4f3d b168 ba3b 929c 973c
00000090: 978c debc 91e6 b9bc 3422 8b3d f527 91bd
000000a0: 47fc 17be 4c58 7c3d 4f90 a73d c1bb 523b
000000b0: 1985 46bd 8f0b 173d aae3 16bb 3180 643d
000000c0: 385e 5bbd d5f0 fbbd f705 7b3d e906 853d
000000d0: b91c fc3d 8ade 7bbd e8c5 643d a53c 1dbe
000000e0: f40c 3abc 1d04 f33c dff4 15be 9ff3 353c
000000f0: eae7 983c 6d15 fd3d 7086 123d f2b4 b5bc
00000100: d6e0 303d 73ba 0b3d 6114 0ebe 5ec4 4abd
00000110: bf01 bfbd de17 933c 7073 c43d f150 1e3d
00000120: 477e e43d 9adf 723d 099e f83c 2d47 e9bd
00000130: 8d3d a4bb c258 cdbd 3247 993c 772c de3a
00000140: f139 a33d 118f 4b3d 86cf 43bd c3f8 323d
00000150: 17ea 8c3d b610 62bb 62bf 883d 354b d9bc
00000160: a655 89be ba84 cabd 08e4 ae3d aa1b c9bd
00000170: 0330 b23c 8cf9 213e 4caa ee3c 5a6f 96bd
00000180: 558b babd e39d babd 918b f9bb 1b46 dbba
00000190: 9e6e 21bd 33a3 b1bd fd3b cc3c 5349 a7bd
000001a0: 354e 303d d43c ebbd 19b1 11bd 1533 a83d
000001b0: 8b54 0b3c da99 a63d 91e2 35be 9b5d d7bd
000001c0: b20a 373e e58f c03b de7b c93d 8986 0cbe
000001d0: 1e6c 153e 39a1 223c a151 c0bd bd1e 173e
000001e0: 83d3 0b3d dba5 e83d 95f1 da3d a7ab 023e
000001f0: de3f 203c b25b ca3d 3fa0 933d 4756 94bd
00000200: 5c6b 4abc 2b10 9bbc a472 0bbe 371b 293e
00000210: 2dcd c9bd 2f4d 02bd 3e44 e1bd d84c b63c
00000220: ea96 dd3d 4890 9cbc 60f3 853d 66b2 e3bd
00000230: 57ae 91bd 38c4 1b3d 94d7 a0bc 06ac 41bd
00000240: eb77 51be 3bb2 69bd ad43 1bbd 2fc3 dcbd
00000250: c8f7 9b3d ef43 543d f414 633b dc1f 253e
00000260: 04e0 ee3d 3913 863d 0007 243d 7c4b 833c
00000270: b574 553d 6446 83bc 81ba d53a 8728 b73d
00000280: 28b4 dfbd 2f92 9bbd 5c0d 54be e345 d6bc
00000290: febb 48bd 9b18 ae3c f734 8837 1cf9 0c3d
000002a0: d451 89bd e839 353d a54a 87bc c9cb c53d
000002b0: 6972 d8bd deb7 283d 64a1 b83d b882 aebd
000002c0: bf78 493d 3f53 ad3d 7221 fd3d 27ff 923c
000002d0: 5afc 963d 7053 0fbd 7b12 2fbe e08b 02be
000002e0: 3898 243d 8f19 e9bc 9ad8 443d 590b a83c
000002f0: c356 75bd 44bd b5bd 1594 3b3d bc33 263e
00000300: 2272 0dbe bbbe 85bc 90ce eb3d 7690 a13d
00000310: d11f 86bd 31bb f1bd dfbb b7bd 43db b239
00000320: e7a7 103c f016 37bd b0e3 763d ea48 17be
00000330: 3478 10be 8d46 84bd 82fa b7bd e12b 4b3e
00000340: a093 ffbc df02 0a3d 7d4c 09be 3486 6b3c
00000350: e543 2fbe d947 e9bc 3d30 3cbe 8ade 57bd
00000360: 58ef c4bd 3cb4 79bd caa0 503d 79ad 2ebe
00000370: 9658 8bbd 70c4 6d3d 8595 1a3d e64a 50bd
00000380: 63fb 493d b705 e63c d934 ac3d 2c53 043e
00000390: 8c90 083c 9ab8 d23d 05d9 ed3c 02ed ad3d
000003a0: 6ca1 4d3c 076a 9d3b a7c6 f43d a35f 12be
000003b0: 9686 19be 023a b23d 6802 673d 5957 b33b
000003c0: a55b 3ebe e156 1e3d d47c ec3c 5094 dabc
000003d0: 48d2 e5bd 0079 21bd 9620 bcbb 7118 dbbd
000003e0: ebf8 adbd 7206 6f3d f715 3cbd ba09 f2bc
000003f0: 7447 cd3c 9407 28be 4fc4 ae3c bb3c 28be
0.06258217 0.050252445 -0.052233752 -0.038150545 -0.08566476 0.054976825 -0.009841113 -0.20274706
0.097538054 -0.08236408 -0.0017088897 -0.004568131 -0.0109641235 0.027567072 0.13262397 -0.02823758
0.093037516 -0.004699336 0.23076074 -0.089017645 -0.110925354 -0.12047106 -0.03301445 0.021818837
0.21587276 -0.09404755 0.15229027 -0.12067297 -0.028354272 -0.030865176 0.07617588 0.046548247
0.09957267 0.050753616 0.0056887497 0.018507276 -0.027166648 -0.02269295 0.06793633 -0.07087699
-0.1484233 0.061607644 0.081818216 0.0032155367 -0.048466776 0.036876258 -0.0023023882 0.055786315
-0.05355665 -0.123017944 0.061284985 0.06495459 0.12310166 -0.061491527 0.0558528 -0.15355165
-0.011355627 0.029665047 -0.14644192 0.011105447 0.018665273 0.12357602 0.03577274 -0.022181008
0.04318317 0.03411336 -0.13874961 -0.049503677 -0.09326505 0.017955717 0.095923305 0.03865141
0.11156898 0.059295274 0.030348795 -0.11390529 -0.0050122202 -0.10026695 0.018710706 0.0016950507
0.07970036 0.049696986 -0.04780533 0.04369427 0.068805866 -0.0034494824 0.066771284 -0.02652512
-0.26823157 -0.09888597 0.08539587 -0.098197296 0.02175141 0.15817851 0.029133938 -0.073454574
-0.09108607 -0.09112146 -0.0076155146 -0.0016729267 -0.039412133 -0.08673706 0.024930948 -0.08168282
0.043043334 -0.114862114 -0.035569284 0.08212868 0.008504043 0.081348136 -0.1776221 -0.10515901
0.17875174 0.0058765286 0.09838079 -0.13723196 0.14592025 0.009926134 -0.093905695 0.1475782
0.03413726 0.113597594 0.10690609 0.12760793 0.009780852 0.09880771 0.07208299 -0.072430186
-0.012354698 -0.018928608 -0.1361795 0.16514288 -0.09853587 -0.03181189 -0.10999344 0.022253439
0.108198 -0.019111767 0.06540561 -0.11118011 -0.07113331 0.038028926 -0.019634046 -0.047283195
-0.20455901 -0.05705474 -0.037906338 -0.10779416 0.0761562 0.0518226 0.003464994 0.16125435
0.11663821 0.06546635 0.04004574 0.016027205 0.052113254 -0.016024776 0.0016306193 0.08943277
-0.10923034 -0.07596242 -0.20708221 -0.026156371 -0.04900741 0.021251967 1.6237127e-05 0.034417257
-0.067050606 0.044244677 -0.016515085 0.096580096 -0.10568697 0.041190974 0.09015158 -0.085210264
0.049187418 0.084631436 0.12359895 0.017943932 0.07372351 -0.03499168 -0.17096893 -0.1274867
0.04018423 -0.02845457 0.04805813 0.020513223 -0.059897196 -0.0887399 0.04579552 0.16230673
-0.1381307 -0.016326299 0.11514008 0.07888882 -0.06549037 -0.11803282 -0.089713804 0.00034114168
0.008829094 -0.04469961 0.060275733 -0.14773908 -0.14108354 -0.06458769 -0.089833274 0.19840957
-0.031198323 0.033694144 -0.13408084 0.014375258 -0.17115743 -0.028476642 -0.18377776 -0.052702464
-0.09615964 -0.0609629 0.05093459 -0.17058362 -0.06804006 0.058048666 0.03774025 -0.05085268
0.049312007 0.028078897 0.084085174 0.12922353 0.008335244 0.10289116 0.029034147 0.08492471
0.012550693 0.004803899 0.119519524 -0.14294295 -0.14992747 0.0870247 0.05639878 0.005473059
-0.18589647 0.038657073 0.028868116 -0.026682049 -0.112217486 -0.039422035 -0.0057411892 -0.10698021
-0.08494743 0.058355756 -0.045919385 -0.029545654 0.025058486 -0.16409141 0.021333842 -0.16429417

worker.f_stateW.0.bias f4 [128]
00000000: 6a7f db3b 84fe 853b f050 90bb aca7 613a
00000010: f510 1bbb 2599 01bb aa7b 9fbb 0c32 4cbb
00000020: 77cf 8a3b 4638 d23a 1190 843b 86f7 d83b
00000030: f4c7 513b af3d aabb 3cef bcbb 2128 67bb
00000040: b8ff c2bb 388e 963a b371 493b 4ee8 2b39
00000050: 29a8 6ebb e8a4 21bb 3d20 9b3b c22e b53b
00000060: fb36 d1ba ae74 b839 9783 a43b 2f38 483b
00000070: 3368 94bb e72d 06bb b412 253b 1ba3 75bb
00000080: d197 59bb ed5d 0e3b 7922 33bb 26e3 ce3b
00000090: d508 46bb 8bba 2b3a 7f22 893b 1cca 90bb
000000a0: aa93 d5bb 74f8 e33a 0ef1 8bbb 83b0 a4bb
000000b0: 1a6a 6ebb 2228 cd3b c0bd 293b 7823 a63b
000000c0: 453a 663a 9e15 6d38 3ece b4b9 20fd db3b
000000d0: fa1a 70bb 7c4d 3b3b 12e8 883b bb54 873b
000000e0: c1b9 e43b be8a a0bb f468 623b 17e0 913b
000000f0: a3a4 ca3b 2a92 60bb 3329 93bb e760 a53a
00000100: 9bd1 a13b 4b20 15b8 f411 f13b d7fb b4ba
00000110: 0224 a835 987d 1c3b 7c0d ce3b 3bc3 e1bb
00000120: 9e83 bd3b dea1 a2ba a093 a1bb 33ab bb3b
00000130: 617a a03a 24a4 39bb e8c9 323a 8e06 8b3b
00000140: 45cf e6bb 5458 be3b 2292 a33b 8a02 ffba
00000150: 29a9 b03b 4a05 7e3b fbf5 ccb9 85e0 8abb
00000160: 1179 3f3a 9d58 aeba cd4b 113b bdf4 9abb
00000170: 8cef 0d39 b34f d3bb ad16 bd3b c969 83bb
00000180: 2ca1 cb3a 6a3f 77bb d32d aab9 8de7 a73a
00000190: 6281 243b 29ff 87bb 821d b23a a698 ad3a
000001a0: e938 a8bb c6e3 3d3b 6dc9 873b 6132 0cbb
000001b0: 8c77 babb fbb7 3eba 9d83 903b ed42 753b
000001c0: ce1c 1b3b 7116 8bbb 3b0b a3bb 8657 aabb
000001d0: a64c 63bb 54b1 abbb 739f d93a 8243 2a3b
000001e0: e474 cc3b 8020 adbb ee23 2dbb bc9a c3b9
000001f0: ac93 1abb 3aa0 70ba e451 ceba deca 013a
0.0066985385 0.0040891785 -0.0044041798 0.0008608054 -0.002366123 -0.001977512 -0.004867037 -0.003115776
0.0042361575 0.0016038499 0.0040454944 0.006621304 0.003201005 -0.0051953415 -0.0057658236 -0.0035271721
-0.005950894 0.0011486476 0.0030737936 0.00016394371 -0.003641615 -0.0024664942 0.0047340677 0.0055292556
-0.001596182 0.00035182148 0.0050205695 0.0030551066 -0.004529023 -0.0020474137 0.002518815 -0.0037481252
-0.0033202062 0.0021723465 -0.002733378 0.0063136993 -0.0030217667 0.00065509294 0.0041850205 -0.0044186246
-0.006517847 0.001739277 -0.0042706793 -0.0050259246 -0.003637916 0.0062608877 0.0025900453 0.005070146
0.00087824865 5.6525336e-05 -0.00034485938 0.0067135245 -0.0036637173 0.002858012 0.0041780556 0.0041299737
0.0069801514 -0.004899352 0.003454742 0.0044517624 0.006184177 -0.0034266808 -0.0044909953 0.001261738
0.004938317 -3.5554443e-05 0.0073568765 -0.0013807964 1.2527455e-06 0.002387857 0.0062882286 -0.0068897284
0.0057835123 -0.0012407859 -0.0049309283 0.0057271956 0.0012243503 -0.0028326595 0.00068202475 0.0042427247
-0.0070437514 0.0058088694 0.0049917856 -0.0019455713 0.005391259 0.0038760477 -0.00039093182 -0.0042381906
0.0007304112 -0.0013301555 0.0022170425 -0.004728882 0.00013536046 -0.00644871 0.0057705254 -0.0040104133
0.0015535704 -0.0037727007 -0.00032459068 0.0012810096 0.0025101532 -0.0041502905 0.0013589116 0.0013244345
-0.0051337373 0.0028974875 0.004143885 -0.0021392333 -0.0056905206 -0.000727534 0.004410221 0.0037423924
0.0023668292 -0.0042446186 -0.004975704 -0.005198422 -0.0034683137 -0.005239645 0.0016603306 0.002598018
0.0062395204 -0.0052834153 -0.002641912 -0.00037308584 -0.0023586554 -0.0009179149 -0.0015740958 0.0004951189
