vwgym/saved_model/vwgym_f_net_step_6600000.pt (torch_old, 382113 bytes, 57 tensors)

f_percept.percept.0.weight f4 [16, 3, 3, 3]
0.068176344 -0.07096984 -0.09342304 -0.2581877 0.121811025 0.07049739 -0.32450444 -0.1521681
-0.2103835 0.30618775 -0.13544114 -0.44253322 0.005652005 0.08484862 0.29189992 -0.01571967
-0.2096867 -0.16765538 0.21616076 -0.32284024 0.08841877 -0.18042956 -0.0036483696 0.005809691
-0.115342855 0.19083634 -0.10006798 -0.23555301 -0.05102565 0.28628954 -0.09321949 0.016548496
0.17252572 -0.234263 -0.12804161 0.1817678 -0.0666007 0.40393037 0.009803529 -0.0055185077
0.18629049 0.22252259 -0.27714986 0.09751918 -0.26468724 -0.18462415 0.0463874 -0.15018734
-0.098839626 0.3350672 -0.23716147 0.05332762 -0.010511121 0.26076466 -0.122023694 0.15064818
0.28491664 0.26419058 -0.06607802 0.11435992 -0.024629982 0.13353519 -0.2094765 0.21069902
-0.052265286 -0.123609126 0.045491457 -0.037324026 -0.11399313 -0.0050755413 0.044333763 0.19812417
0.28955328 -0.09349465 -0.2349847 -0.118678786 0.4741722 0.39289054 0.12795481 -0.22782557
0.024046933 0.12665161 -0.1806696 0.016662093 0.21977162 0.3035972 0.15194894 0.106087975
-0.18631 -0.01797509 0.3658292 0.13517539 0.14310776 -0.14569852 0.03251327 -0.15228856
-0.25415063 -0.119859256 -0.11886019 0.08786285 0.28505036 0.094123274 0.047266375 0.09534669
-0.15184295 0.07598969 -0.071426824 -0.5356818 0.29078624 -0.055416256 0.032918487 -0.104708694
-0.19126257 -0.43519607 -0.012119727 0.0902696 0.29750562 0.057915792 -0.12845162 0.1166942
-0.39167044 0.08548176 0.08150057 0.15170018 -0.2767962 0.013260072 -0.023497213 0.08376298
0.052523714 -0.36252028 0.34585685 -0.060740687 0.07941529 -0.0745769 -0.0010909513 0.23265345
0.2351817 -0.15733404 -0.33651742 0.3268907 0.15529719 -0.04044252 0.054816525 0.1614029
-0.2422292 0.19809844 -0.027741404 -0.1356048 -0.07046125 0.017813226 0.13607039 0.22170486
0.13997741 0.21963933 -0.0814418 0.119668186 0.22273572 0.27641565 0.06521224 0.3803111
0.15296565 -0.117410034 -0.082039095 -0.28661436 0.0014000776 -0.35109097 -0.20008701 0.014385998
0.10032301 0.22307783 0.21880183 0.016382772 0.13637167 0.24388286 0.27774388 -0.12806952
0.06914651 0.004178286 -0.03417921 -0.3049445 0.19618365 -0.07733147 -0.32233453 -0.074341215
-0.10630449 0.3006149 0.07028321 0.01731671 -0.3293771 -0.0699407 -0.26330584 0.23072132
-0.09232632 -0.019893607 0.389891 0.14816846 -0.44221446 0.12331737 -0.13343434 -0.22385232
0.07310927 -0.31617898 0.11246916 0.17708626 0.13984777 -0.13971056 0.21374047 0.15537336
0.047603395 -0.10231503 0.006295268 -0.23792708 0.16215134 0.17323644 -0.09672205 0.13612616
-0.4092695 0.101874426 0.012361521 0.064001635 0.19169828 -0.055319987 0.36417225 0.2751638
0.15008786 -0.059525866 -0.2477841 -0.11378448 0.040198844 0.060259443 0.19965999 -0.05897689
-0.111142494 -0.19155826 0.4354265 0.27009088 0.17850152 0.0039713797 0.060897794 -0.15649052
0.0027508447 0.17756736 0.13377054 -0.0879911 0.23428737 -0.03255052 -0.17624293 0.055647876
0.029265886 0.34165847 -0.1176413 -0.38149002 0.2641793 0.17573161 0.32029012 -0.07601937
00000000: 0aa0 8b3d a358 91bd 9454 bfbd 2e31 84be
00000010: 0f78 f93d f060 903d 7225 a6be f4d1 1bbe
00000020: c66e 57be a4c4 9c3e 15b1 0abe b793 e2be
00000030: 7434 b93b 1dc5 ad3d e873 953e 8ac6 80bc
00000040: 1cb8 56be daad 2bbe 3f59 5d3e 514b a5be
00000050: e614 b53d 87c2 38be 7c19 6fbb 385f be3b
00000060: e038 ecbd 9a6a 433e 71f0 ccbd cf34 71be
00000070: 4600 51bd 8b94 923e dce9 bebd b690 873c
00000080: 95aa 303e a4e2 6fbe 571d 03be 5721 3a3e
00000090: f365 88bd f6cf ce3e fb9e 203c 99d4 b4bb
000000a0: efc2 3e3e f6dc 633e 96e6 8dbe 23b8 c73d
000000b0: 1685 87be 1d0e 3dbe b700 3e3d b6ca 19be
000000c0: 6e6c cabd ee8d ab3e 75da 72be 106e 5a3d
000000d0: d636 2cbc f282 853e 8fe7 f9bd 8443 1a3e
000000e0: 98e0 913e fd43 873e ea53 87bd 8935 ea3d
000000f0: d1c4 c9bc 73bd 083e 0281 56be 7cc1 573e
00000100: 2014 56bd c826 fdbd 4055 3a3d 14e1 18bd
00000110: 3b75 e9bd ba50 a6bb 5297 353d 10e1 4a3e
00000120: 5440 943e 207a bfbd d49f 70be dd0d f3bd
00000130: b3c6 f23e f328 c93e 9606 033e 1b4b 69be
00000140: 13fe c43c f6b0 013e 7401 39be f17e 883c
00000150: d00b 613e 1871 9b3e 8198 1b3e a744 d93d
00000160: 0cc8 3ebe 7f40 93bc f74d bb3e 6b6b 0a3e
00000170: d78a 123e fe31 15be a22c 053d 88f1 1bbe
00000180: 0820 82be c578 f5bd f96c f3bd 70f1 b33d
00000190: 1ff2 913e b4c3 c03d 639a 413d 2045 c33d
000001a0: b87c 1bbe 7ca0 9b3d 3a48 92bd 7122 09bf
000001b0: efe1 943e 28fc 62bd 89d5 063d 8371 d6bd
000001c0: 56da 43be 05d2 debe d291 46bc 45df b83d
000001d0: a852 983e 1c39 6d3d d288 03be 5efd ee3d
000001e0: 0789 c8be 1011 af3d c5e9 a63d 4b57 1b3e
000001f0: 3bb8 8dbe c640 593c 3a7d c0bc ed8b ab3d
00000200: 1b23 573d 429c b9be 2614 b13e 3acb 78bd
00000210: 7ca4 a23d c6bb 98bd 40fe 8eba b53c 6e3e
00000220: 79d3 703e 2d1c 21be 034c acbe 385e a73e
00000230: 3a06 1f3e 0ea7 25bd 4b87 603d cd46 253e
00000240: ee0a 78be 51da 4a3e f141 e3bc fcdb 0abe
00000250: fd4d 90bd 0bed 913c 0956 0b3e 9906 633e
00000260: 3d56 0f3e 22e9 603e f5ca a6bd 9814 f53d
00000270: d514 643e 5a86 8d3e ff8d 853d 23b8 c23e
00000280: 07a3 1c3e ac74 f0bd 1d04 a8bd 1ebf 92be
00000290: cf82 b73a 32c2 b3be 9ce3 4cbe 40b3 6b3c
000002a0: 2676 cd3d 846e 643e 960d 603e 2a35 863c
000002b0: 04a5 0b3e 6ebc 793e 7234 8e3e a824 03be
000002c0: af9c 8d3d 01ea 883b 80ff 0bbd af21 9cbe
000002d0: 5ee4 483e f65f 9ebd 0809 a5be 3540 98bd
000002e0: 2bb6 d9bd 32ea 993e a5f0 8f3d c6db 8d3c
000002f0: 1ea4 a8be 123d 8fbd 06d0 86be 3642 6c3e
00000300: 9515 bdbd ebf7 a2bc cb9f c73e 79b9 173e
00000310: ef69 e2be d18d fc3d 03a3 08be 8b39 65be
00000320: 50ba 953d 36e2 a1be 3b56 e63d 1a56 353e
00000330: 4134 0f3e 4910 0fbe c8de 5a3e 321a 1f3e
00000340: c7fb 423d 8b8a d1bd 8948 ce3b 28a3 73be
00000350: 000b 263e e564 313e 3616 c6bd a864 0b3e
00000360: c68b d1be 8aa3 d03d fa87 4a3c 4a13 833d
00000370: 8e4c 443e 3697 62bd c974 ba3e 45e2 8c3e
00000380: a2b0 193e 65d1 73bd 1dbb 7dbe d607 e9bd
00000390: 8ba7 243d 9bd2 763d ab73 4c3e c091 71bd
000003a0: ad9e e3bd d927 44be 39f0 de3e 5a49 8a3e
000003b0: 1ac9 363e 5922 823b f76f 793d 0d3f 20be
000003c0: 8447 343b 38d4 353e 25fb 083e ae34 b4bd
000003d0: 07e9 6f3e b253 05bd 0779 34be 07ef 633d
000003e0: 03bf ef3c dced ae3e eced f0bd a952 c3be
000003f0: 8242 873e fdf2 333e 11fd a33e 0bb0 9bbd

f_percept.percept.0.bias f4 [16]
-0.001957718 0.00023532948 0.0010390296 0.001989466 -0.00043570888 -0.0013810077 -0.0012290728 -0.0016218252
-0.0010944357 -0.00046056992 -0.0012247793 -0.0005200134 9.2204595e-05 -0.0014020132 -0.00061213126 0.0005890242
00000000: 0f4d 00bb c7c2 7639 0c30 883a b361 023b
00000010: db6f e4b9 ee02 b5ba d718 a1ba 6c93 d4ba
00000020: 2b73 8fba a678 f1b9 c688 a0ba 8251 08ba
00000030: f75d c138 c2c3 b7ba 6f77 20ba bf68 1a3a

f_percept.percept.3.weight f4 [64, 16]
0.072002076 0.03324313 0.021377878 -0.16048314 -0.074795626 -0.058736455 -0.064323366 -0.14721034
0.050767884 -0.13411477 0.10540255 -0.0890467 0.009405475 -0.14203826 -0.14799768 -0.026224822
0.14791651 -0.13267544 0.15002225 -0.11120194 -0.044813436 -0.22569717 -0.15649818 0.14248616
-0.037987735 -0.0033864703 -0.005145869 0.0645093 -0.10606706 -0.1182487 -0.27911267 -0.06836721
0.026093503 0.24050187 -0.059930768 -0.13517334 0.097224936 -0.023120208 0.16485907 0.07535408
0.08521295 0.061734274 -0.06386066 -0.083099164 0.27198553 -0.062142126 -0.2060241 -0.038545817
0.14614573 0.056291193 -0.05786477 -0.040548008 -0.09727855 -0.15642047 0.055523284 -0.17395799
-0.102031395 -0.28717205 0.017882047 0.09252266 0.0788165 -0.04142285 -0.004377686 0.10840841
-0.124129444 -0.13733067 0.0739737 0.13504407 0.13051935 0.12574191 -0.18681256 -0.021163832
0.11479542 0.17904548 -0.24283011 0.029267374 -0.018969765 -0.41747853 0.029080072 -0.052881602
-0.11968339 -0.047236763 0.16112134 0.14249282 0.07178386 -0.017483046 0.1387167 -0.16294104
0.053037673 -0.11949293 0.1912454 -0.13127401 -0.107503705 0.030207962 0.09818785 0.13803779
-0.09930049 -0.050767463 0.12547213 0.075317755 -0.13149172 0.16737486 0.044003613 0.12566563
0.13613836 1.2273502e-05 0.060221206 -0.05792953 0.025587356 0.05849888 -0.09192417 -0.06237711
-0.10261824 -0.08150586 -0.29322428 0.1598263 0.15896438 -0.044579856 -0.2769139 -0.017652262
-0.20229773 0.08605173 -0.1387452 -0.03900383 -0.12878989 0.048398066 -0.039853107 0.14363559
0.015685812 -0.2222774 -0.10645459 0.086589985 -0.2156027 -0.14831966 0.11073533 -0.20908979
0.17345314 -0.14698598 -0.11282488 -0.18299924 -0.05918489 0.19765659 -0.07130399 -0.023810847
0.106214054 0.23674099 -0.013831641 0.10453273 0.14054425 -0.028305897 0.03242172 -0.15621889
0.07815132 0.10743825 -0.07527722 0.20255233 -0.022474412 0.018561766 0.09107396 0.02285981
0.070396625 -0.12544748 -0.027208557 -0.22826102 0.032492597 -0.093391076 0.16407794 0.027942764
0.11679834 0.023753405 -0.18586685 0.085640855 -0.149 -0.00024847814 0.15140773 -0.086481966
0.11556164 -0.07375743 0.17269878 -0.04457037 -0.05681119 -0.09156529 0.11876252 -0.119946785
-0.016277866 0.09583821 -0.08322393 -0.039442874 -0.03277177 -0.16753815 -0.015289992 0.21043417
0.09899985 -0.20908895 0.03716554 0.17517507 -0.06430713 0.028286101 -0.03573493 -0.2586308
0.037737492 0.08978527 -0.020697486 -0.23387277 0.07379867 0.14035244 -0.045195125 -0.009945194
-0.25215608 0.030583005 0.18043339 0.27106887 -0.013147362 -0.16458158 -0.019901568 0.12470896
0.1306338 0.028023986 0.033587113 -0.02384219 0.07169958 -0.06290138 0.056678403 0.091826975
0.1383059 0.04655039 -0.053016093 0.14767942 0.16877884 -0.030850418 0.03084887 0.21266274
0.01685609 -0.08353764 0.07013045 -0.17838608 -0.08093031 -0.17086285 0.016615007 0.0016015429
0.12852165 -0.15564774 -0.030410929 -0.28324473 0.2837619 -0.04862611 0.042552885 0.121865086
-0.0046626152 -0.015553847 0.17997685 0.008770136 0.073714346 0.23398006 -0.023803934 -0.025098303
00000000: d375 933d f329 083d a920 af3c b155 24be
00000010: 732e 99bd a395 70bd f8bb 83bd 4fbe 16be
00000020: fcf1 4f3d 6255 09be 4bdd d73d 1e5e b6bd
00000030: 6c19 1a3c 7a72 11be b48c 17be 70d5 d6bc
00000040: 6d77 173e 12dc 07be 6f9f 193e d8bd e3bd
00000050: 4b8e 37bd 291d 67be 0f41 20be e4e7 113e
00000060: 0799 1bbd 8bef 5dbb ae9e a8bb 741d 843d
00000070: b039 d9bd 602c f2bd dbe7 8ebe 1c04 8cbd
00000080: 0bc2 d53c 1f46 763e f779 75bd e16a 0abe
00000090: de1d c73d 9766 bdbc d1d0 283e 3d53 9a3d
000000a0: 2184 ae3d 14dd 7c3d 61c9 82bd e52f aabd
000000b0: b041 8b3e be88 7ebd fbf7 52be 38e2 1dbd
000000c0: 3aa7 153e 9891 663d 9c03 6dbd ab15 26bd
000000d0: fa39 c7bd b02c 20be 626c 633d 0b22 32be
000000e0: d6f5 d0bd 3708 93be 5f7d 923c 857c bd3d
000000f0: 8c6a a13d 02ab 29bd b172 8fbb 3a05 de3d
00000100: 9437 febd 69a0 0cbe 867f 973d fe48 0a3e
00000110: dda6 053e 7dc2 003e cb4b 3fbe c65f adbc
00000120: dc19 eb3d b357 373e 75a8 78be 22c2 ef3c
00000130: 7b66 9bbc bfbf d5be 5539 ee3c 619a 58bd
00000140: 911c f5bd 567b 41bd fefc 243e a3e9 113e
00000150: 6b03 933d 9b38 8fbc c00b 0e3e 04da 26be
00000160: 083e 593d b6b8 f4bd d6d5 433e b26c 06be
00000170: e72a dcbd b076 f73c b616 c93d c759 0d3e
00000180: 0e5e cbbd 8bf1 4fbd c47b 003e 3240 9a3d
00000190: c4a5 06be 5164 2b3e 223d 343d 7eae 003e
000001a0: db67 0b3e 4aea 4d37 83aa 763d 8447 6dbd
000001b0: 939c d13c 869c 6f3d bd42 bcbd 247f 7fbd
000001c0: 8329 d2bd 8bec a6bd 7e21 96be 81a9 233e
000001d0: 8fc7 223e 5e99 36bd a9c7 8dbe 7a9b 90bc
000001e0: 2327 4fbe e43b b03d 3913 0ebe 7bc2 1fbd
000001f0: 7fe1 03be 0d3d 463d 033d 23bd 3515 133e
00000200: 887f 803c b09c 63be dd04 dabd 1756 b13d
00000210: f4c6 5cbe 1ce1 17be 34c9 e23d a21b 56be
00000220: b39d 313e 7e83 16be bb10 e7bd 2764 3bbe
00000230: db6b 72bd 7d66 4a3e d407 92bd f70e c3bc
00000240: c186 d93d 3b6c 723e 1b9e 62bc 4215 d63d
00000250: d5ea 0f3e c5e1 e7bc a3cc 043d d8f7 1fbe
00000260: cd0d a03d 9608 dc3d f12a 9abd e169 4f3e
00000270: 421c b8bc d80e 983c fc84 ba3d 7f44 bb3c
00000280: 1b2c 903d 4e75 00be 7be4 debc 42bd 69be
00000290: f516 053d d243 bfbd 0c04 283e 39e8 e43c
000002a0: f833 ef3d 8096 c23c e153 3ebe 7964 af3d
000002b0: 7593 18be 2c46 82b9 a10a 1b3e 751d b1bd
000002c0: 95ab ec3d 230e 97bd f3d7 303e 6c8f 36bd
000002d0: dab2 68bd 9586 bbbd c439 f33d a9a6 f5bd
000002e0: 2959 85bc d346 c43d 4f71 aabd da8e 21bd
000002f0: b13b 06bd 1f8f 2bbe e082 7abc 0e7c 573e
00000300: 6fc0 ca3d 6a1b 56be e53a 183d 1861 333e
00000310: 75b3 83bd 41b8 e73c ca5e 12bd 426b 84be
00000320: a192 1a3d 57e1 b73d c68d a9bc 587c 6fbe
00000330: c223 973d 8db8 0f3e 861e 39bd 2bf1 22bc
00000340: 9a1a 81be 3689 fa3c 88c3 383e 8ac9 8a3e
00000350: 0868 57bc 1388 28be 9d08 a3bc 6967 ff3d
00000360: dec4 053e 8f92 e53c a492 093d b250 c3bc
00000370: 3bd7 923d 70d2 80bd 9d27 683d c80f bc3d
00000380: 10a0 0d3e 9fab 3e3d 6727 59bd 4639 173e
00000390: 5cd4 2c3e 04ba fcbc c5b6 fc3c 43c4 593e
000003a0: c815 8a3c c815 abbd 8ea0 8f3d d7aa 36be
000003b0: cabe a5bd acf6 2ebe 321c 883c ddea d13a
000003c0: 2e9b 033e 1f62 1fbe 5720 f9bc 7405 91be
000003d0: 3d49 913e 2c2c 47bd ef4b 2e3d 6794 f93d
000003e0: dac8 98bb 90d5 7ebc da4b 383e 9eb0 0f3c
000003f0: 8cf7 963d 7898 6f3e 7800 c3bc f59a cdbc

f_percept.percept.3.bias f4 [64]
-0.00300054 0.003303632 0.0034519671 0.0025941508 0.0029100105 0.004675447 -0.0013574264 0.0024180315
-0.00160254 0.0027416036 0.004535497 -0.002481781 0.00095184427 0.0044492576 0.00013367363 -0.004774623
-0.0028759078 -0.0038399524 0.003497779 9.249158e-05 0.0020786517 0.0019716132 0.0036060535 0.0015035103
-0.0007127102 0.0009084998 0.0044610845 -0.0021594139 -0.004327198 -0.0014018331 0.002595708 -0.0046674977
0.0038980062 0.004779446 -0.00010027712 -0.0014171489 0.0018186636 0.0032879456 0.0036168997 -0.001642309
-0.0027851309 0.00038427697 0.005800897 0.0006476233 0.0004920954 -0.0010911683 0.0038318147 0.0014995042
-0.00057816633 0.0079139145 -0.0022237005 0.004155411 0.0048927385 0.004659659 -0.0038040583 0.0020813947
-0.00079059054 0.003876554 -0.0061183088 0.003391904 0.00019752773 0.005316456 -0.0015278662 0.0022953115
00000000: b5a4 44bb bf81 583b 663a 623b a102 2a3b
00000010: e0b5 3e3b 7e34 993b aceb b1ba d677 1e3b
00000020: 520c d2ba 7aac 333b 829e 943b 60a5 22bb
00000030: 3085 793a 14cb 913b be2a 0c39 7174 9cbb
00000040: ba79 3cbb b6a7 7bbb fe3a 653b 0af8 c138
00000050: fd39 083b 2e36 013b 8a53 6c3b 6f11 c53a
00000060: 2cd5 3aba 6428 6e3a 4a2e 923b f484 0dbb
00000070: 2bcb 8dbb b7bd b7ba c11c 2a3b cff1 98bb
00000080: b175 7f3b e69c 9c3b de4b d2b8 a0bf b9ba
00000090: 3960 ee3a 937a 573b 8209 6d3b bf42 d7ba
000000a0: be86 36bb c878 c939 7315 be3b 44c5 293a
000000b0: f7ff 003a 8805 8fba 2f1f 7b3b 038b c43a
000000c0: 1690 17ba 5da9 013c 81bb 11bb 1d2a 883b
000000d0: 4453 a03b 0eb0 983b 824d 79bb 0268 083b
000000e0: a23f 4fba c90d 7e3b 187c c8bb b54a 5e3b
000000f0: 721f 4f39 aa35 ae3b af42 c8ba f06c 163b

manager.M_space.weight f4 [64, 64]
-0.0312711 0.12155945 0.31831536 -0.040340282 0.06918357 0.17803842 -0.051914252 0.18093681
0.18963246 -0.03668515 -0.027406843 -0.10763402 -0.12918617 0.13920867 -0.14145017 0.12321557
-0.011852748 0.042737313 -0.1101668 -0.13131973 -0.2357819 -0.01720243 -0.048750896 0.057654224
0.19311664 -0.08626953 -0.22704633 0.05033412 0.031145392 -0.24789263 -0.13148512 -0.04667318
-0.076706335 -0.0019100066 -0.040822323 -0.11979391 -0.185954 0.12447853 0.07480962 0.19647762
-0.17384839 -0.0888067 0.26322275 -0.014399919 -0.03792519 -0.037134863 -0.09322987 0.028030599
-0.07111531 -0.12219947 -0.13528326 -0.020857757 0.1102088 -0.13109657 0.081299566 0.176326
-0.13786064 0.077220514 -0.08044499 0.13347067 -0.03914286 -0.01189491 -0.08742593 0.11778302
0.024352055 -0.0069790315 -0.0007533105 0.1108291 -0.013227456 -0.033388287 0.17446521 0.21553944
0.11025016 0.09521159 -0.045927368 -0.0993304 -0.011815783 -0.10542886 -0.042787492 -0.23518664
-0.088087454 -0.10540412 -0.045852482 -0.09556737 -0.041693226 0.048988763 -0.06832259 0.29423574
-0.09660201 0.11386995 -0.08399265 0.0076970924 -0.17704497 0.15672393 0.22232072 0.22429454
0.11515571 0.12899683 -0.017624112 0.114617854 -0.12080958 -0.01179923 -0.046813846 -0.10963115
-0.1431252 -0.015256262 0.051263086 0.042125255 -0.118236996 0.15268594 0.011225873 0.095037736
0.092607945 0.09678891 -0.41586328 0.09614935 -0.25529957 -0.06512964 0.18770498 -0.037207693
0.09805122 0.0622993 -0.11811074 -0.030209918 0.02749498 0.052757163 0.077868916 0.091227755
-0.1485488 -0.024493145 0.11777069 -0.002295194 0.112609245 -0.18869716 -0.039219797 0.3990947
0.12758204 -0.15527308 -0.050973225 0.024906194 0.08555283 0.0019202671 0.07050927 0.0059571373
-0.04041663 0.19953516 -0.17508529 0.11492772 0.22673044 -0.03982459 -0.2270754 -0.2117197
-0.08471589 0.029542316 0.03057982 0.026563678 -0.13393061 -0.066728085 0.08335532 0.13867071
0.12569027 0.07977266 4.760083e-05 0.10464561 0.013797334 0.047208756 0.052337214 0.028374223
-0.12461853 0.13817814 -0.025861802 -0.115463465 -0.11206037 -0.15966174 0.0012551481 0.15168603
0.15197454 -0.05465289 0.12247357 -0.140592 0.103322566 0.043123867 -0.030233856 0.017793078
-0.07870656 0.13035372 0.03463979 0.11525879 0.063918546 0.023090964 0.2256925 -0.29654202
0.044585902 0.23054905 -0.11409528 0.2222424 0.3333037 -0.06032167 -0.0025904442 0.08988146
0.12759769 0.016130827 0.03893757 -0.20732516 0.08929881 0.03565373 0.09612833 -0.03909466
0.31182733 0.0055582533 0.03162962 0.1391974 -0.093057215 0.03879842 0.0075826165 -0.0054310076
-0.0017272535 -0.11607115 0.010525922 0.09843819 -0.10379218 0.048511297 0.06594013 -0.13505682
-0.0037057279 -0.02687368 0.07031897 0.18782543 0.06684016 0.18410376 0.09676181 0.12096108
0.01737498 0.18885505 0.17975236 0.15808171 0.025114862 0.08167063 0.20354785 0.059141155
-0.20080964 -0.26388323 -0.0195879 0.1546616 -0.07920332 0.071354985 -0.22926359 -0.10896456
0.07017279 -0.12923665 0.037888102 -0.092879355 0.0011556589 -0.025184782 -0.004834077 0.02827607
00000000: 2016 00bd 29f4 f83d 3bfa a23e da3b 25bd
00000010: 1eb0 8d3d b44f 363e 0aa4 54bd 8047 393e
00000020: 032f 423e 2b43 16bd 5184 e0bc 3a6f dcbd
00000030: 6149 04be b88c 0e3e 50d8 10be 7258 fc3d
00000040: 0732 42bc 520d 2f3d 229f e1bd ae78 06be
00000050: cf70 71be 1cec 8cbc 05af 47bd d626 6c3d
00000060: 5ec0 453e 14ae b0bd d57e 68be 262b 4e3d
00000070: 9f24 ff3c 91d7 7dbe 09a4 06be 602c 3fbd
00000080: 3618 9dbd 3059 faba 4f35 27bd 8256 f5bd
00000090: ba6a 3ebe 99ee fe3d c935 993d 6e31 493e
000000a0: 5005 32be 4ae0 b5bd 22c5 863e a3ed 6bbc
000000b0: 7257 1bbd ba1a 18bd 4def bebd 6da0 e53c
000000c0: e7a4 91bd b743 fabd b287 0abe e3dd aabc
000000d0: 27b5 e13d 2e3e 06be 6380 a63d ce8e 343e
000000e0: 572b 0dbe ca25 9e3d 58c0 a4bd 89ac 083e
000000f0: 4354 20bd dee2 42bc 5e0c b3bd 3938 f13d
00000100: f67d c73c 5cb0 e4bb d079 45ba 5efa e23d
00000110: f9b7 58bc 28c2 08bd 02a7 323e 5fb6 5c3e
00000120: d6ca e13d 4bfe c23d 561e 3cbd bd6d cbbd
00000130: fc96 41bc 16eb d7bd f041 2fbd c4d4 70be
00000140: 3267 b4bd 1ede d7bd d0cf 3bbd d3b8 c3bd
00000150: 84c6 2abd 71a8 483d b7ec 8bbd 11a6 963e
00000160: 46d7 c5bd a634 e93d 5704 acbd e437 fc3b
00000170: 474b 35be 3d7c 203e 0ba8 633e 78ad 653e
00000180: c2d6 eb3d bf17 043e 7160 90bc c4bc ea3d
00000190: 036b f7bd 8f51 41bc e0bf 3fbd 4c86 e0bd
000001a0: 6a8f 12be 67f5 79bc 3ef9 513d 888b 2c3d
000001b0: 3d26 f2bd b459 1c3e b9ec 373c 25a3 c23d
000001c0: 3ca9 bd3d 4439 c63d 08ec d4be f3e9 c43d
000001d0: a0b6 82be b062 85bd bc35 403e 1867 18bd
000001e0: 14cf c83d 8d2d 7f3d 0be4 f1bd ca7a f7bc
000001f0: 273d e13c e517 583d bd79 9f3d 9ed5 ba3d
00000200: 2d1d 18be d9a5 c8bc c231 f13d f76a 16bb
00000210: ad9f e63d d439 41be f0a4 20bd 2456 cc3e
00000220: dea4 023e e8ff 1ebe 4dc9 50bd 1308 cc3c
00000230: 5236 af3d 79b1 fb3a 2a67 903d 1734 c33b
00000240: e98b 25bd f252 4c3e 8f49 33be 395f eb3d
00000250: 062c 683e 1c1f 23bd 7486 68be 0dcd 58be
00000260: 867f adbd ba02 f23c 8882 fa3c 129c d93c
00000270: 1b25 09be bca8 88bd 32b6 aa3d b2ff 0d3e
00000280: f3b4 003e d95f a33d 01a7 4738 7050 d63d
00000290: 370e 623c f85d 413d 8c5f 563d 0f71 e83c
000002a0: 0038 ffbd 927e 0d3e 21dc d3bc 1c78 ecbd
000002b0: e87f e5bd 5e7e 23be c883 a43a 9553 1b3e
000002c0: 379f 1b3e b5db 5fbd 6cd3 fa3d 59f7 0fbe
000002d0: c89a d33d a7a2 303d feac f7bc cac2 913c
000002e0: e830 a1bd 727b 053e 74e2 0d3d cd0c ec3d
000002f0: bae7 823d 4329 bd3c ef1b 673e 5bd4 97be
00000300: b59f 363d 0d15 6c3e c9aa e9bd 8393 633e
00000310: c8a6 aa3e db13 77bd 71c4 29bb c513 b83d
00000320: f8a8 023e cc24 843c 007d 1f3d 0c4d 54be
00000330: 4be2 b63d a509 123d eede c43d b921 20bd
00000340: d5a7 9f3e 0222 b63b 0f8e 013d c389 0e3e
00000350: c894 bebd 18eb 1e3d 9977 f83b 98f6 b1bb
00000360: 0365 e2ba b6b6 edbd eb74 2c3c f699 c93d
00000370: ff90 d4bd c8b3 463d 9e0b 873d 564c 0abe
00000380: ccdb 72bb 3126 dcbc 6403 903d 4f55 403e
00000390: 7ee3 883d b285 3c3e 0e2b c63d 71ba f73d
000003a0: f955 8e3c 3863 413e 0111 383e 2ce0 213e
000003b0: afbd cd3c ee42 a73d d96e 503e ff3d 723d
000003c0: 0ba1 4dbe b41b 87be ce76 a0bc 9c5f 1e3e
000003d0: 5a35 a2bd 9022 923d 13c4 6abe d028 dfbd
000003e0: c0b6 8f3d 9d56 04be 8e30 1b3d 8837 bebd
000003f0: 7a79 973a 5150 cebc 2d67 9ebb 37a3 e73c

manager.M_space.bias f4 [64]
-0.0006026033 0.0018867918 0.0014694164 0.0023565798 0.0009063713 0.003301651 -0.0026145584 -0.0035063329
0.0022413363 0.00296295 0.00061734 0.0014663487 -0.0029967087 0.0053791325 0.0006740023 0.0012643352
0.0005368017 0.0038622278 -0.0011482779 -0.0028159842 0.00326146 0.00049217546 -0.00062430894 0.0038547888
0.0028148314 -0.001382715 -0.00056280114 0.001024032 -0.003009967 0.0028735963 -0.0014744584 0.0038440996
0.0030882654 0.006422285 0.0005993838 -0.0042540403 -0.003571725 -0.0038558797 -0.0003526436 0.0013606831
-0.0015729136 -0.0018978687 -0.00315825 -0.0047669406 0.0012662995 0.0026384126 -0.0032553552 -0.0033964075
0.001119102 0.0023999703 -0.002350343 0.0020840329 -0.0034034154 -0.0051733106 0.004550412 -0.001883291
-0.0027221334 -0.00040614497 0.0010413028 -0.00014688645 0.0011903427 -0.005881951 -0.005927394 0.0028995373
00000000: 06f8 1dba 3a4e f73a 6f99 c03a d970 1a3b
00000010: 8c99 6d3a 8360 583b 0359 2bbb 81ca 65bb
00000020: 62e3 123b 0d2e 423b fcd4 213a 7f32 c03a
00000030: 6e64 44bb 6f43 b03b 87af 303a 0db8 a53a
00000040: 27b8 0c3a 6e1d 7d3b d081 96ba 608c 38bb
00000050: 38be 553b 5605 013a aaa8 23ba a0a0 7c3b
00000060: 0979 383b 373c b5ba f288 13ba d038 863a
00000070: de42 45bb f252 3c3b 9d42 c1ba 4aed 7b3b
00000080: 7f64 4a3b 0872 d23b f71f 1d3a 7a65 8bbb
00000090: 9a13 6abb edb2 7cbb 06e3 b8b9 f358 b23a
000000a0: 392a ceba e8c1 f8ba a4fa 4ebb ff33 9cbb
000000b0: f6f9 a53a 38e9 2c3b cc57 55bb 4396 5ebb
000000c0: d5ae 923a d248 1d3b 3608 1abb 4594 083b
000000d0: d60b 5fbb e084 a9bb 9f1b 953b c3d8 f6ba
000000e0: d265 32bb dbef d4b9 537c 883a 8805 1ab9
000000f0: 4605 9c3a 62bd c0bb 963a c2bb 2a06 3e3b

manager.M_goals.weight f4 [64, 128]
-0.07110628 -0.033958495 -0.036574803 -0.10330735 0.16331737 0.13301726 0.034514826 0.06003345
-0.1376664 0.16615756 0.027993333 -0.31349462 0.16671427 0.1518129 0.024029793 0.16646214
-0.05481142 0.022536926 -0.11950681 0.014331483 -0.074457906 0.057131056 0.0022138387 0.010181959
-0.024779774 -0.064053 -0.006744324 -0.15704097 0.0006266826 -0.21937284 -0.049672924 -0.028861074
0.096285746 -0.030859746 -0.02271548 0.08592476 -0.040545672 -0.07278941 0.115342446 -0.06932582
-0.062938474 -0.10570125 0.1408585 0.04263274 0.016204359 0.01766661 -0.10080279 -0.122432016
-0.027358238 0.002224775 0.038672596 0.06410915 0.08466167 0.15155366 -0.058628 0.15551361
0.010841988 0.04612564 -0.16645457 -0.031666245 0.043935504 0.08824314 -0.057194635 0.004809158
0.085555404 0.1669859 -0.09716279 0.018508904 -0.015718417 -0.04134478 0.115427926 -0.07849863
-0.044201173 -0.010817263 0.07242849 -0.059269384 0.15970281 -0.06052114 -0.05619642 0.056623053
0.02786189 -0.025266098 0.011396932 0.032758497 0.019537007 -0.052829944 0.0015079536 -0.06160761
-0.20712945 0.009257256 -0.0002038709 0.04166812 0.049373727 0.13431695 0.031106442 0.026466647
0.10400391 -0.04058834 0.07147212 -0.019416373 -0.19635184 -0.06487903 0.12288131 0.0020072837
0.06090775 0.08644768 -0.017459946 0.01969427 0.10112339 0.01972245 0.0066725495 -0.02183123
-0.09583358 0.038578857 -0.008425212 0.03161415 0.03729857 0.06816419 0.15916811 -0.079158366
-0.034559578 0.010860159 -0.13639164 0.14740908 0.010604564 -0.055944636 0.005516362 0.029050397
0.1077141 -0.05554675 -0.11192761 -0.09664819 0.11370377 -0.13702595 0.086783126 0.17090076
-0.066339344 -0.002120815 -0.06625934 -0.022093497 -0.036624696 -0.054473944 0.042843193 -0.05066111
-0.10496239 -0.007547176 -0.047422305 0.06910314 0.20034356 0.08851332 -0.05258464 0.15672635
0.13460772 0.19469133 -0.16168602 0.04736164 0.033669133 0.021987244 0.015329136 -0.046818607
0.03363665 0.04227064 0.07834324 0.022898749 -0.052798 0.05596304 0.02558486 -0.049480006
-0.0145868845 0.0060114088 0.13851702 -0.008460902 -0.15670663 0.0975745 0.013363678 -0.08713607
-0.079531394 0.09396437 -0.13980483 0.09379549 -0.056599524 -0.061111145 -0.06422189 0.009379966
0.015839769 -0.07120532 0.0045826393 -0.05851034 -0.08100313 -0.09905078 0.118292905 -0.021716176
-0.024454962 0.06695578 -0.099559404 0.06704667 0.03254847 -0.02181578 0.06883746 0.122317865
0.014883015 -0.07921241 -0.110455394 -0.19055557 0.030575093 0.021119202 0.085184135 -0.116067514
0.06678415 0.04709479 -0.026583005 -0.003670379 0.06921544 0.02031353 0.0077248216 0.13063796
-0.030266503 0.05213195 -0.037808955 0.23014542 -0.106617294 -0.079179995 -0.02397151 -0.03716417
-0.06882605 0.12440785 0.102374166 -0.09124371 -0.06382665 0.16217917 -0.047912948 -0.047712557
0.0077138445 0.1740799 0.00974483 -0.14113374 0.08487957 0.040644452 0.06282307 0.006924925
-0.024402406 -0.04799673 0.12934831 -0.005114313 -0.09170207 -0.15321855 -0.029850243 0.08563204
0.025821052 0.040953808 -0.15136561 -0.107383914 0.06270329 -0.024300959 -0.21641038 -0.09754254
00000000: 2ba0 91bd 1018 0bbd 76cf 15bd ce92 d3bd
00000010: ab3c 273e ad35 083e 6b5f 0d3d a3e5 753d
00000020: 6cf8 0cbe 3525 2a3e 4652 e53c 5e82 a0be
00000030: 25b7 2a3e d774 1b3e 21da c43c 0d75 2a3e
00000040: f181 60bd 5c9f b83c fdbf f4bd 99ce 6a3c
00000050: 637d 98bd 4102 6a3d 0d16 113b 3bd2 263c
00000060: f4fe cabc 382e 83bd 7eff dcbb 59cf 20be
00000070: f547 243a 46a3 60be d675 4bbd 0f6e ecbc
00000080: 7631 c53d 94cd fcbc d015 babc 52f9 af3d
00000090: 3813 26bd 9d12 95bd a938 ec3d b2fa 8dbd
000000a0: e3e5 80bd e679 d8bd 363d 103e ab9f 2e3d
000000b0: 01bf 843c 91b9 903c b171 cebd a3bd fabd
000000c0: 621e e0bc 88cd 113b 2867 1e3d a84b 833d
000000d0: 1963 ad3d e230 1b3e ea23 70bd f63e 1f3e
000000e0: 98a2 313c 3dee 3c3d 1173 2abe 77b4 01bd
000000f0: b7f5 333d d2b8 b43d ec44 6abd 2496 9d3b
00000100: ac37 af3d 5afe 2a3e 49fd c6bd fc9f 973c
00000110: e9c3 80bc 2559 29bd 7a65 ec3d e4c3 a0bd
00000120: 4a0c 35bd e43a 31bc 6355 943d 74c4 72bd
00000130: 2289 233e 04e5 77bd 382e 66bd 93ed 673d
00000140: 9e3e e43c d9fa cebc 33ba 3a3c c62d 063d
00000150: 130c a03c 3664 58bd 87a6 c53a 4358 7cbd
00000160: be19 54be bfab 173c 2ec6 55b9 31ac 2a3d
00000170: 1b3c 4a3d 628a 093e f0d2 fe3c 95d0 d83c
00000180: 0100 d53d f63f 26bd fa5f 923d 160f 9fbc
00000190: 7510 49be 4cdf 84bd 32a9 fb3d a28c 033b
000001a0: 687a 793d 7b0b b13d 2908 8fbc e155 a13c
000001b0: c819 cf3d fa90 a13c 67a5 da3b 68d7 b2bc
000001c0: 6544 c4bd dd04 1e3d e709 0abc d77d 013d
000001d0: 63c6 183d ab99 8b3d f7fc 223e c81d a2bd
000001e0: 588e 0dbd cfee 313c 40aa 0bbe 68f2 163e
000001f0: c4be 2d3c 3426 65bd 99c2 b43b 19fb ed3c
00000200: 3699 dc3d fd84 63bd 4e3a e5bd 7cef c5bd
00000210: 86dd e83d 8850 0cbe 5abb b13d 9c00 2f3e
00000220: ecdc 87bd 5ffd 0abb fab2 87bd 6cfd b4bc
00000230: c703 16bd 1220 5fbd 587c 2f3d 0682 4fbd
00000240: 86f6 d6bd 4d4e f7bb e43d 42bd f285 8d3d
00000250: dd26 4d3e 7946 b53d fe62 57bd df7c 203e
00000260: 9bd6 093e 2a5d 473e 0591 25be 47fe 413d
00000270: a5e8 093d 981e b43c 0e27 7b3c dec4 3fbd
00000280: 95c6 093d fb23 2d3d 6c72 a03d 2896 bb3c
00000290: b742 58bd 8039 653d 5797 d13c 8cab 4abd
000002a0: d4fd 6ebc 5afb c43b 68d7 0d3e 989f 0abc
000002b0: b477 20be 24d5 c73d 54f3 5a3c 6574 b2bd
000002c0: 5be1 a2bd 6470 c03d ff28 0fbe da17 c03d
000002d0: e7d4 67bd ae4f 7abd c486 83bd 6eae 193c
000002e0: 67c2 813c 18d4 91bd f729 963b 8aa8 6fbd
000002f0: f8e4 a5bd 23db cabd 8d43 f23d 1fe6 b1bc
00000300: c655 c8bc 1d20 893d cde5 cbbd c44f 893d
00000310: 8b51 053d 02b7 b2bc a7fa 8c3d ca81 fa3d
00000320: e4d7 733c 1e3a a2bd 7036 e2bd 0021 43be
00000330: 9e78 fa3c 2d02 ad3c 0575 ae3d ceb4 edbd
00000340: 21c6 883d 77e6 403d 9ac4 d9bc be8a 70bb
00000350: d3c0 8d3d 8f68 a63c 8020 fd3b f5c5 053e
00000360: 75f1 f7bc 5088 553d 90dd 1abd 3eab 6b3e
00000370: 2b5a dabd 1f29 a2bd e65f c4bc 7539 18bd
00000380: acf4 8cbd 8bc9 fe3d 8ca9 d13d fbdd babd
00000390: 8cb7 82bd 4c12 263e 5e40 44bd 3e6e 43bd
000003a0: 6bc4 fc3b 0042 323e c8a8 1f3c 5d85 10be
000003b0: 57d5 ad3d cc7a 263d 62a9 803d 7bea e23b
000003c0: 8ee7 c7bc 3898 44bd e273 043e f895 a7bb
000003d0: 4bce bbbd 53e5 1cbe 7f88 f4bc da5f af3d
000003e0: ac86 d33c 2ebf 273d 96ff 1abe 19ec dbbd
000003f0: 956a 803d ce12 c7bc af9a 5dbe 62c4 c7bd

manager.M_goals.bias f4 [64]
6.382657e-05 -0.0027080767 0.003168227 0.002228498 -0.004121992 -0.004135357 0.002746764 -0.0023576193
-0.004091099 0.0028730137 0.00075745396 0.0026651784 0.0023630334 -0.0031879079 0.0015030262 -0.002843294
-0.006507771 0.0029123134 0.0027204477 -0.00013973171 -0.0026053193 0.00054469676 0.00198628 0.0032332567
-0.0019278798 -0.0037404103 -0.0031628017 0.002347081 0.0021246457 0.0034127522 -0.0028961587 -0.0025115628
-0.00635888 -0.0019173545 -0.0029863613 0.0038324308 -0.0052391686 -0.002488785 -0.003646618 0.0024103026
0.0014720216 -0.0010450959 -0.00037270636 -0.00016454884 0.004031219 -0.00310921 -0.0016229856 -0.00020879098
0.0047394615 -0.0019374056 0.0035173155 0.00373907 -0.0036263636 0.00244245 0.0036922635 0.0028775956
0.0052665677 -0.0052640825 -0.0022392678 0.0026170406 0.0006017323 0.0018934458 0.00017221311 0.0022179915
00000000: a1da 8538 fd79 31bb 07a2 4f3b fe0b 123b
00000010: c611 87bb e481 87bb 0e03 343b 4a82 1abb
00000020: a00e 86bb 2c49 3c3b e08f 463a 46aa 2e3b
00000030: 1fdd 1a3b 38ec 50bb 3101 c53a 8f56 3abb
00000040: 243f d5bb 83dc 3e3b 8a49 323b f284 12b9
00000050: 01be 2abb fbc9 0e3a 402c 023b 0ce5 533b
00000060: e9b0 fcba ac21 75bb 0247 4fbb 7cd1 193b
00000070: a43d 0b3b 7ba8 5f3b 7bcd 3dbb 0899 24bb
00000080: 275e d0bb be4f fbba d4b6 43bb 8529 7b3b
00000090: 55ad abbb e21a 23bb 19fc 6ebb 2bf6 1d3b
000000a0: d9f0 c03a 99fb 88ba cd67 c3b9 be8a 2cb9
000000b0: 5118 843b e3c3 4bbb 5cba d4ba e7ee 5ab9
000000c0: 7c4d 9b3b 8bf0 fdba c382 663b 2f0b 753b
000000d0: 49a8 6dbb 8311 203b e7f9 713b 0b96 3c3b
000000e0: 2c93 ac3b 537e acbb aec0 12bb a882 2b3b
000000f0: 92bd 1d3a 802d f83a 1b94 3439 b95b 113b

manager.M_value.0.weight f4 [32, 64]
0.14783953 0.16294058 -0.15093789 0.1546558 0.16667923 -0.031541068 -0.032988645 0.031402156
-0.135491 -0.07811808 -0.3033482 0.13566248 0.009270193 -0.00091647834 0.080439985 -0.046978027
0.08684859 -0.033071637 -0.027726742 -0.016755633 0.0074594407 -0.036643635 -0.12454439 0.21050385
-0.025873234 0.2824344 0.08752479 -0.2381219 0.04082486 0.011575448 -0.16069652 0.16564387
0.13815196 0.13373719 -0.049573034 -0.0917105 0.10252604 -0.05608204 -0.020950038 0.0883887
0.1413784 0.0830839 -0.11170612 -0.0024746186 -0.1630534 -0.19635138 0.049089856 0.18261223
0.09145946 -0.058851223 0.11066495 0.06747665 0.22281311 0.020155733 -0.14653105 -0.0058681294
-0.20096296 0.06786305 -0.023088148 0.06076982 -0.12568663 -0.19263864 0.12166108 0.16398829
-0.16628899 0.20534152 -0.03420093 -0.043995503 0.025716145 0.04775533 -0.15084706 0.04069219
-0.042282425 -0.3334712 0.10852629 0.051600263 -0.33095232 0.023951963 -0.0029752026 -0.099333756
0.05584861 0.01562742 0.16963023 -0.19917357 -0.009293113 0.07047598 0.099260755 0.043488897
-0.0073050293 -0.0720882 0.11008097 -0.17465937 -0.15137295 -0.059965238 -0.03985857 0.00012854899
0.15025632 0.0031475471 0.100812465 0.16513216 0.13426052 0.19310743 0.029438373 -0.06711342
0.016604492 0.01203367 0.2844559 0.10413418 -0.06008549 0.086530656 0.25445032 -0.105264634
-0.1772809 0.036309976 0.026515694 -0.14522833 -0.08191236 0.059826512 0.125872 -0.14283673
0.050934806 0.058488555 0.10675753 0.12582397 -0.18662062 -0.09801875 0.052944236 -0.0012332194
-0.14215699 -0.08842861 0.03634765 0.20341584 0.017078426 -0.03559345 0.010535252 0.03935957
0.11783727 0.2390068 -0.04591537 0.14168191 -0.03923469 0.044788714 -0.003072259 -0.40043092
-0.019043619 0.16385934 -0.04397763 0.06454988 -0.25943708 0.16169614 0.15108171 0.14207093
0.13173488 -0.067840636 -0.081554964 -0.0020107492 0.17305656 0.20919679 0.039828777 -0.018098675
0.14834584 0.10448249 -0.12013414 -0.09136852 0.043167226 -0.0017670476 -0.006042997 0.16325954
0.124544494 0.16352555 0.059950963 0.09611032 0.16074678 0.07324184 -0.040349737 -0.16279426
0.14006475 0.10564423 -0.15304561 0.0037347935 -0.10717057 -0.018026743 0.082926676 -0.018620446
-0.0057464675 -0.026980506 0.1819673 -0.0043019494 -0.1361876 0.029436719 -0.0009842039 0.26569223
0.18423408 -0.07667269 0.29262695 0.047657553 -0.19595842 -0.035245195 -0.15513593 0.023836201
-0.0022886908 -0.07198389 0.1695118 0.08115064 0.022169178 -0.016106252 0.06510218 0.19746499
0.014527063 0.015031188 -0.16370365 0.081796505 -0.056859996 0.0021598616 -0.13194528 -0.11362201
-0.02062775 0.25755835 -0.06856177 -0.05280526 -0.19843109 0.18523665 -0.022167554 0.057535026
-0.03271188 0.102691524 -0.12794295 -0.0472272 0.06927804 0.052698903 -0.015008911 -0.057487503
0.013728962 -0.08283694 0.124288045 -0.09563279 0.06002738 0.24105142 0.15861082 0.008615507
0.28402284 0.15168674 -0.11634486 0.025524292 -0.071810715 0.19569542 -0.22248071 0.028661098
-0.06718788 0.015098987 0.2682043 0.19555771 -0.02538129 0.01911766 0.08432543 -0.070339024
00000000: 3f63 173e e5d9 263e 768f 1abe 175e 1e3e
00000010: f6ad 2a3e 3531 01bd 1a1f 07bd 8c9f 003d
00000020: 27be 0abe 5ffc 9fbd 7550 9bbe 1beb 0a3e
00000030: 02e2 173c d23f 70ba b8bd a43d 086c 40bd
00000040: acdd b13d 2076 07bd 3123 e3bc 1c43 89bc
00000050: 536e f43b a317 16bd 2111 ffbd 528e 573e
00000060: 1bf4 d3bc 3e9b 903e 3240 b33d 3ad6 73be
00000070: f837 273d f3a6 3d3c a18d 24be 8c9e 293e
00000080: b577 0d3e 67f2 083e 180d 4bbd b7d2 bbbd
00000090: 2cf9 d13d 48b6 65bd 6a9f abbc 2205 b53d
000000a0: 80c5 103e e427 aa3d 2ec6 e4bd 362d 22bb
000000b0: 78f7 26be 5610 49be 7212 493d b3fe 3a3e
000000c0: 194f bb3d fb0d 71bd 4ea4 e23d 3331 8a3d
000000d0: 1f29 643e a31d a53c 3c0c 16be 7049 c0bb
000000e0: 3cc9 4dbe c8fb 8a3d 5b23 bdbc c6e9 783d
000000f0: ffb3 00be 1043 45be 7229 f93d 8cec 273e
00000100: a947 2abe 0c45 523e 4616 0cbd a134 34bd
00000110: aaaa d23c 189b 433d a777 1abe dbac 263d
00000120: 5630 2dbd bdbc aabe 0843 de3d cc5a 533d
00000130: 9572 a9be e836 c43c 9efb 42bb 7f6f cbbd
00000140: 83c1 643d 1305 803c 8cb3 2d3e 28f4 4bbe
00000150: 2442 18bc b655 903d 3949 cb3d 6a21 323d
00000160: 075f efbb faa2 93bd 2272 e13d e8d9 32be
00000170: 8301 1bbe 1c9e 75bd bd42 23bd 1bcb 0639
00000180: cbdc 193e 1447 4e3b c476 ce3d 6818 293e
00000190: 977b 093e f4bd 453e be28 f13c c372 89bd
000001a0: 2506 883c df28 453c 34a4 913e 4d44 d53d
000001b0: 341c 76bd fc36 b13d 5047 823e fc94 d7bd
000001c0: 2089 35be c5b9 143d 7137 d93c bcb6 14be
000001d0: abc1 a7bd a50c 753d 97e4 003e cb43 12be
000001e0: 04a1 503d b291 6f3d b1a3 da3d 00d8 003e
000001f0: 7a19 3fbe 0ebe c8bd 0edc 583d faa3 a1ba
00000200: 9a91 11be 0f1a b5bd 46e1 143d 3e4c 503e
00000210: 0ee8 8b3c 70ca 11bd 0d9c 2c3c 8037 213d
00000220: ab54 f13d 33be 743e c111 3cbd 1015 113e
00000230: 8eb4 20bd 5f74 373d f457 49bb 4805 cdbe
00000240: 5d01 9cbc beca 273e e321 34bd ba32 843d
00000250: f0d4 84be ac93 253e 2ab5 1a3e 0b7b 113e
00000260: 82e5 063e 08f0 8abd 4a06 a7bd c6c6 03bb
00000270: bd35 313e af37 563e 8023 233d ac43 94bc
00000280: f9e7 173e eafa d53d e308 f6bd 6b1f bbbd
00000290: 1ed0 303d 479c e7ba 5504 c6bb 822d 273e
000002a0: 2f11 ff3d 3e73 273e 248f 753d 7dd5 c43d
000002b0: ce9a 243e d1ff 953d c445 25bd 8ab3 26be
000002c0: 226d 0f3e 015c d83d fdb7 1cbe 70c3 743b
000002d0: 3e7c dbbd d2ac 93bc 76d5 a93d e889 98bc
000002e0: dd4c bcbb 3906 ddbc a355 3a3e 5ef7 8cbb
000002f0: c374 0bbe 4625 f13c 6700 81ba d008 883e
00000300: dca7 3c3e 9206 9dbd 33d3 953e 9134 433d
00000310: 53a9 48be 445d 10bd f4db 1ebe 2344 c33c
00000320: dcfd 15bb 4a6c 93bd 8094 2d3e 4f32 a63d
00000330: 239c b53c 42f1 83bc 4b54 853d 4334 4a3e
00000340: eb02 6e3c 5f45 763c eea1 27be ed84 a73d
00000350: 07e6 68bd 778c 0d3b aa1c 07be a8b2 e8bd
00000360: 87fb a8bc b0de 833e 1d6a 8cbd 544a 58bd
00000370: 8531 4bbe adae 3d3e bb98 b5bc d9a9 6b3d
00000380: e4fc 05bd ef4f d23d 7a03 03be 4f71 41bd
00000390: a5e1 8d3d ceda 573d efe7 75bc 0478 6bbd
000003a0: 71ef 603c 6aa6 a9bd bb8a fe3d 20db c3bd
000003b0: 45df 753d 2fd6 763e e06a 223e 0e28 0d3c
000003c0: 716b 913e c553 1b3e 3746 eebd 5218 d13c
000003d0: 7f11 93bd 6164 483e fcd1 63be aeca ea3c
000003e0: cd99 89bd be61 773c 1352 893e 4840 483e
000003f0: 6cec cfbc a49c 9c3c d0b2 ac3d e80d 90bd

manager.M_value.0.bias f4 [32]
-0.0030385742 -0.0063201548 0.002955457 -0.0024659473 -0.0035571211 -0.0035074444 0.0029993323 0.00042020567
0.0037421836 -0.004107433 -0.0031661564 -0.0034218682 0.000856256 -0.00081166025 -0.00303796 0.0028202827
0.0024387143 -0.003537022 0.0029500537 0.0039133015 0.0029838737 -0.0033116348 -0.003606011 -0.004044771
0.0025496485 0.003082872 0.0029491573 -0.002218907 -0.00096689793 -0.0035383701 0.003007595 0.0016334831
00000000: d122 47bb 4d19 cfbb 57b0 413b bb9b 21bb
00000010: 971e 69bb 27dd 65bb 7290 443b 0d4f dc39
00000020: 6c3f 753b a597 86bb 4a7f 4fbb 6c41 60bb
00000030: 5e76 603a 99c5 54ba 8318 47bb 7ed4 383b
00000040: d6d2 1f3b 62cd 67bb b055 413b 273b 803b
00000050: 188d 433b 0308 59bb d352 6cbb 008a 84bb
00000060: 0118 273b 020a 4a3b a646 413b 156b 11bb
00000070: 6c77 7dba 00e4 67bb 121b 453b 991a d63a

manager.M_value.2.weight f4 [1, 32]
0.11408673 0.19186719 -0.33903694 0.13243213 0.22612433 0.1028734 -0.05524438 -0.010920621
-0.22277999 0.16666313 0.136472 0.11269926 -0.05142891 0.07038508 0.11715456 -0.072483584
-0.0812721 0.083661325 -0.037374895 -0.05439122 -0.13515367 0.15697353 0.312364 0.32735062
-0.02442346 -0.2398391 -0.21062647 0.059959263 -0.19803272 0.4231402 -0.060706675 -0.06993162
00000000: 4ea6 e93d d578 443e 4096 adbe 4a9c 073e
00000010: 238d 673e 4aaf d23d ee47 62bd 68ec 32bc
00000020: 7020 64be bda9 2a3e 51bf 0b3e dfce e63d
00000030: 1fa7 52bd 0e26 903d bbee ef3d 4672 94bd
00000040: fd71 a6bd a156 ab3d 6b16 19bd 54c9 5ebd
00000050: b965 0abe abbd 203e 2dee 9f3e 809a a73e
00000060: b513 c8bc 6298 75be 77ae 57be d897 753d
00000070: 17c9 4abe d5a5 d83e 90a7 78bd 4f38 8fbd

worker.f_stateW.0.weight f4 [128, 64]
0.06277916 0.05083432 -0.051624753 -0.0381633 -0.08615212 0.054383423 -0.010249501 -0.20253956
0.09647296 -0.08269224 -0.0010835954 -0.004586745 -0.011572903 0.027352829 0.1320654 -0.02644173
0.09321339 -0.004445707 0.23117463 -0.0898569 -0.11184838 -0.11985972 -0.033032276 0.021637147
0.21557513 -0.094163544 0.15368079 -0.11971665 -0.028467389 -0.031037843 0.07575661 0.0474448
0.09868061 0.050739855 0.00556212 0.01944421 -0.02637856 -0.022500865 0.06766596 -0.07044904
-0.14945012 0.062164742 0.08146889 0.0030502721 -0.047002167 0.03610258 -0.0016493618 0.056944497
-0.053248573 -0.12313814 0.060977083 0.06391112 0.12315565 -0.06235971 0.05658395 -0.15255547
-0.012506991 0.029484496 -0.14664386 0.010802063 0.018400697 0.12290089 0.035836697 -0.022383237
0.04295985 0.03339205 -0.13852338 -0.05020248 -0.09446407 0.01784542 0.09572661 0.036589
0.10991014 0.05875223 0.030343987 -0.11425001 -0.0064830533 -0.10161558 0.017976291 0.0032007543
0.07913566 0.049228635 -0.048155442 0.042372447 0.06737856 -0.0041466746 0.06697682 -0.026701333
-0.26839742 -0.098879084 0.084935166 -0.097303845 0.021038244 0.1575724 0.028767329 -0.07286683
-0.09261161 -0.09173527 -0.007784341 -0.0004975471 -0.03823836 -0.087353624 0.024551433 -0.082364194
0.042084794 -0.114264935 -0.03598097 0.081807144 0.008393517 0.080923475 -0.17723872 -0.10508883
0.179491 0.0053876704 0.097719125 -0.13871405 0.14513122 0.008314909 -0.094379924 0.14798707
0.032610178 0.11284055 0.106512 0.12781087 0.0086842 0.09762882 0.07202893 -0.07322054
-0.011762077 -0.019531379 -0.13633779 0.1649445 -0.098909006 -0.03123561 -0.109411 0.021982776
0.10893457 -0.019383546 0.06621071 -0.11117914 -0.07046902 0.03803155 -0.020091219 -0.04708541
-0.20430222 -0.05773909 -0.038302653 -0.10726445 0.076162666 0.052377168 0.003800823 0.16049522
0.115973346 0.065886274 0.040423956 0.01688541 0.05270863 -0.015712127 0.0017043957 0.08947719
-0.10864692 -0.075700924 -0.2079289 -0.02496419 -0.048308086 0.021384332 0.00048498175 0.03399836
-0.066861205 0.044844296 -0.016796172 0.09743821 -0.1061992 0.04125941 0.09063727 -0.08420655
0.049846392 0.0850151 0.12419638 0.017915035 0.07349881 -0.035509486 -0.17067671 -0.12778406
0.03967553 -0.027615763 0.048301574 0.021137765 -0.06065438 -0.08848514 0.04570009 0.16138855
-0.13720758 -0.015509256 0.116536446 0.079657204 -0.06517042 -0.11588481 -0.08737053 0.0010257913
0.009341001 -0.045229755 0.061465345 -0.14676164 -0.1406775 -0.06403284 -0.08806812 0.20091686
-0.030202331 0.034911446 -0.13184038 0.014729658 -0.17056729 -0.028715558 -0.18310486 -0.05136719
-0.09556326 -0.059626874 0.052643977 -0.16812128 -0.06710495 0.059426796 0.040123686 -0.048710667
0.048953947 0.028919905 0.08533534 0.1310509 0.010130458 0.103787474 0.029215274 0.085126996
0.013207035 0.00685595 0.12127373 -0.14245272 -0.14915651 0.089653455 0.056244828 0.006109361
-0.18437864 0.040362194 0.030142074 -0.027009375 -0.11133167 -0.039413966 -0.004182625 -0.10539769
-0.0841086 0.059067633 -0.044347897 -0.027832966 0.025016794 -0.16273229 0.022415409 -0.16276257
00000000: 5c92 803d a637 503d 7a74 53bd 1f51 1cbd
00000010: 8670 b0bd 27c1 5e3d 86ed 27bc 8866 4fbe
00000020: 9e93 c53d 8d5a a9bd 6e07 8eba 684c 96bb
00000030: 469c 3dbc 0a13 e03c 273c 073e 549c d8bc
00000040: a9e6 be3d 4bad 91bb 0bb9 6c3e e506 b8bd
00000050: c310 e5bd 0379 f5bd da4c 07bd 6340 b13c
00000060: babf 5c3e d1d8 c0bd 7f5e 1d3e 012e f5bd
00000070: 7134 e9bc 1343 febc 4826 9b3d 7b55 423d
00000080: 0f19 ca3d 98d4 4f3d 7242 b63b 7749 9f3c
00000090: da17 d8bc bc53 b8bc 7394 8a3d 9647 90bd
000000a0: 7409 19be 75a0 7e3d 29d9 a63d 13e7 473b
000000b0: 5885 40bd 4de0 133d 662f d8ba a23e 693d
000000c0: 2d1b 5abd d92f fcbd 1bc3 793d d5e3 823d
000000d0: 0839 fc3d e56c 7fbd 92c4 673d 8037 1cbe
000000e0: 1fea 4cbc 7889 f13c cf29 16be 23fb 303c
000000f0: 0fbd 963c 76b3 fb3d 80c9 123d 0d5d b7bc
00000100: abf6 2f3d 1ac6 083d 13d9 0dbe 1ea1 4dbd
00000110: 6176 c1bd 8f30 923c 500c c43d 59de 153d
00000120: 9118 e13d 2ea6 703d f493 f83c e9fb e9bd
00000130: cb6f d4bb d41b d0bd 0443 933c bfc3 513b
00000140: e011 a23d f7a3 493d a43e 45bd bb8e 2d3d
00000150: c5fd 893d d4e0 87bb 252b 893d c1bc dabc
00000160: 636b 89be 1e81 cabd 7df2 ad3d 3d47 c7bd
00000170: 6558 ac3c a95a 213e 76a9 eb3c 343b 95bd
00000180: 28ab bdbd b4df bbbd c913 ffbb d26d 02ba
00000190: d49f 1cbd 75e6 b2bd 1620 c93c 8fae a8bd
000001a0: 1b61 2c3d bc03 eabd c860 13bd 818a a73d
000001b0: f684 093c 35bb a53d 117e 35be d038 d7bd
000001c0: 7dcc 373e 0e8b b03b f720 c83d 0e0b 0ebe
000001d0: 479d 143e 423b 083c 434a c1bd ec89 173e
000001e0: 4092 053d f218 e73d f722 da3d dae0 023e
000001f0: 2d48 0e3c 9ef1 c73d e783 933d a7f4 95bd
00000200: bab5 40bc 4500 a0bc 229c 0bbe 36e7 283e
00000210: ce90 cabd d2e1 ffbc e012 e0bd 3915 b43c
00000220: 1619 df3d 3eca 9ebc 7b99 873d e4b1 e3bd
00000230: 1052 90bd f8c6 1b3d 5796 a4bc a2dc 40bd
00000240: 9a34 51be d37f 6cbd 3ee3 1cbd 77ad dbbd
00000250: 2cfb 9b3d 7189 563d 3a17 793b dc58 243e
00000260: 6f83 ed3d 62ef 863d 9793 253d 4553 8a3c
00000270: 01e5 573d b8b6 80bc 0866 df3a d13f b73d
00000280: 4782 debd 1609 9bbd 50eb 54be b381 ccbc
00000290: b3de 45bd 322e af3c 2645 fe39 dd41 0b3d
000002a0: 87ee 88bd a7ae 373d 2098 89bc af8d c73d
000002b0: f77e d9bd a1ff 283d 08a0 b93d 7c74 acbd
000002c0: bb2b 4c3d 661c ae3d ac5a fe3d 8dc2 923c
000002d0: 8b86 963d 6572 11bd e0c5 2ebe d3d9 02be
000002e0: cf82 223d 743a e2bc dfd7 453d 1b29 ad3c
000002f0: ba70 78bd b237 b5bd 0430 3b3d 0a43 253e
00000300: 2580 0cbe 891a 7ebc a9aa ee3d 5123 a33d
00000310: 1278 85bd 0455 edbd 52ef b2bd d873 863a
00000320: ff0a 193c d642 39bd 16c3 7b3d af48 16be
00000330: c30d 10be a623 83bd 0f5d b4bd 26bd 4d3e
00000340: e16a f7bc 4eff 0e3d 2a01 07be aa54 713c
00000350: 31a9 2ebe e43c ebbc d77f 3bbe 6766 52bd
00000360: acb6 c3bd 4f3b 74bd 36a1 573d fc27 2cbe
00000370: 526e 89bd 8369 733d bc58 243d d684 47bd
00000380: ef83 483d 70e9 ec3c 4bc4 ae3d 3532 063e
00000390: 38fa 253c 878e d43d df54 ef3c 1057 ae3d
000003a0: 5262 583c e1a7 e03b 5d5e f83d 20df 11be
000003b0: 7cbc 18be 3b9c b73d fa60 663d 0931 c83b
000003c0: c1cd 3cbe d452 253d 83ec f63c c442 ddbc
000003d0: dc01 e4bd 8a70 21bd 670e 89bb beda d7bd
000003e0: 2141 acbd e7f0 713d 24a6 35bd f601 e4bc
000003f0: 05f0 cc3c 4ba3 26be 85a0 b73c 3bab 26be

worker.f_stateW.0.bias f4 [128]
0.006946027 0.0036146396 -0.0041457675 0.0029584882 -0.0023566843 -0.0016616995 -0.006398463 -0.002878843
0.0044692364 0.0008666563 0.0044906563 0.006890131 0.0033078075 -0.004600689 -0.0060758647 -0.0050669024
-0.0060282415 0.00097185746 0.0025764245 0.00038146 -0.0032401127 -0.0019646701 0.004895549 0.0053342413
-2.4353242e-06 -0.00073947007 0.0055390233 0.0027094793 -0.0049474207 -0.0025903888 0.0040053814 -0.003043672
-0.0029913066 0.0008774291 -0.0047323615 0.0062897624 -0.002764591 0.0017591707 0.0041457643 -0.00429753
-0.008512906 0.0006532243 -0.004454751 -0.0054151407 -0.0034969293 0.0067576305 0.002171913 0.0051202667
-5.4039298e-05 -0.00046111256 -0.00022959942 0.0071478626 -0.0049932846 0.002234549 0.005191505 0.003613773
0.007664701 -0.005078978 0.0042225886 0.0042252243 0.0067637 -0.0043866895 -0.0056921327 0.0005235531
0.0050919163 1.6432528e-05 0.008250089 -0.0015154482 -4.68488e-05 0.0026724467 0.006716354 -0.007945299
0.0060884436 -0.0012822406 -0.0064786593 0.0069832494 0.0014295604 -0.0024538434 -0.0003378991 0.004436901
-0.0077678952 0.006014409 0.004998758 -0.0022446779 0.00496765 0.0037479114 -0.00201983 -0.005073672
0.0013121282 -0.0011885297 0.0033976128 -0.0055071013 -0.00035453483 -0.0075776284 0.0058720657 -0.0046293503
0.0018470162 -0.0032146291 -0.00039487635 0.0019073539 0.0026567515 -0.0048145615 0.0012698375 2.9827906e-05
-0.0046728468 0.002607209 0.0039924807 -0.0029076838 -0.0063906484 0.0003220417 0.0048347753 0.0048244214
0.0020088747 -0.0035371603 -0.005282312 -0.005673816 -0.0028749416 -0.0057597687 0.001740182 0.0018330998
0.006448042 -0.005416127 -0.004140651 -0.0012999258 -0.0010778211 7.143898e-05 -0.0024277586 0.000118633056
00000000: 7f9b e33b 97e3 6c3b 38d9 87bb 32e3 413b
00000010: 9a72 1abb 62cd d9ba 33aa d1bb f9aa 3cbb
00000020: ac72 923b 5230 633a 5b26 933b 9cc6 e13b
00000030: cdc7 583b 60c1 96bb 0c18 c7bb 4208 a6bb
00000040: 8e88 c5bb 40c4 7e3a 3bd9 283b b2fe c739
00000050: 1258 54bb b2c1 00bb d76a a03b dcca ae3b
00000060: 8d6e 23b6 ffd8 41ba b280 b53b 8591 313b
00000070: f91d a2bb 83c3 29bb 933f 833b 5878 47bb
00000080: cc09 44bb 4503 663a ed11 9bbb 5a1a ce3b
00000090: 242e 35bb f993 e63a 31d9 873b 4bd2 8cbb
000000a0: b779 0bbc 243d 2b3a 29f9 91bb 7e71 b1bb
000000b0: bd2c 65bb 1d6f dd3b a756 0e3b e9c7 a73b
000000c0: 41a8 62b8 7bc1 f1b9 a0c0 70b9 9e38 ea3b
000000d0: b59e a3bb 8371 123b 801d aa3b 0dd5 6c3b
000000e0: 2c28 fb3b 8e6d a6bb a45d 8a3b c073 8a3b
000000f0: 07a2 dd3b 38be 8fbb 1285 babb 0e3f 093a
00000100: 17da a63b 96d8 8937 622b 073c 01a2 c6ba
00000110: 847f 44b8 3724 2f3b dc14 dc3b 002d 02bc
00000120: 9181 c73b db10 a8ba ef4a d4bb bed3 e43b
00000130: 1660 bb3a a9d0 20bb 0d28 b1b9 6c63 913b
00000140: d489 febb 8514 c53b 9fcc a33b 721b 13bb
00000150: abc7 a23b 859f 753b 205f 04bb 0c41 a6bb
00000160: b7fb ab3a 70c8 9bba 7caa 5e3b ea74 b4bb
00000170: dce0 b9b9 c14d f8bb 756a c03b ceb1 97bb
00000180: 9417 f23a 87ac 52bb 6807 cfb9 2d00 fa3a
00000190: e51c 2e3b 78c3 9dbb ad70 a63a f136 fa37
000001a0: ae1e 99bb b5dd 2a3b 5bd3 823b d78e 3ebb
000001b0: a568 d1bb b5d7 a839 096d 9e3b 2e16 9e3b
000001c0: 53a7 033b b4cf 67bb 3f17 adbb 6beb b9bb
000001d0: 8469 3cbb 71bc bcbb d216 e43a 9f44 f03a
000001e0: 194a d33b c479 b1bb 4cae 87bb 4662 aaba
000001f0: ad45 8dba 83d1 9538 081b 1fbb a3ca f838
