vwgym/saved_model/vwgym_f_net_step_9400000.pt (torch_old, 160584 bytes, 30 tensors)

f_percept.percept.0.weight f4 [16, 3, 3, 3]
00000000: 56c7 2cbd 2fbb 593e be43 723d f7cd 5dbd
00000010: ac2a a33e fe0a 393e 6bb7 863e 2f6e 83be
00000020: 3707 1f3d e684 c33c 999e 66be 5094 5dbe
00000030: ee92 6cbe 0c6b 2a3e 335a 703e 238b 423e
00000040: 32a7 b0be fa59 a9be c55a 503e e8a2 b4bc
00000050: 9089 cb3d 52d2 48be 6c56 4abe 2e2f 14be
00000060: 625c 123e 102c 613d 5086 683d 0543 acbe
00000070: d97a 1d3e c5d4 82be 6516 7ebe 5b1a 4dbe
00000080: e4ef 61be ad2e 0fbe 7ceb c53d 33cb 7d3e
00000090: 71fd 85bd 0c3c 8bbc 5190 a9bd 7f61 04be
000000a0: a13f 18be a33f b13d b545 973e b04f b13d
000000b0: 911d 96be 6c0e 87bd 03f1 d03e f60b a23d
000000c0: ec48 cf3d fb21 9c3e 08ed 5bbd e0d8 443e
000000d0: 1357 a23c 1e49 a2bc b0a7 34bd 8390 efbe
000000e0: 69f8 e03c c91d b2be b535 853d 5601 a93e
000000f0: 403e 11be c0d0 0c3d de49 273d 0d09 a9bd
00000100: 2619 dd3d 34f7 2b3e 3f70 85be cbe8 d5bd
00000110: d8a2 6bbd 9b6a d5be b0c7 37bd be56 a4be
00000120: 7b83 a13d baaa bfbd 60bc 133e dc1d b9bd
00000130: b51c 4c3e 215a d63c b3ba 8b3d c9a6 993d
00000140: c95e 0c3e 84d9 21bd b11e 63bd 000a 9bbd
00000150: 5283 283e 6c4c d7bd ea93 91bd 5de3 b7bd
00000160: cc2f 7fbe 7afa 893e 007b d3be d621 4e3e
00000170: 947f 103c 14d0 1e3e c3a4 38bc 77d4 b5be
00000180: 8b4f 4ebd 2279 35be 1e31 013d 6372 1e3d
00000190: 64ee 87bd 557a b9bd 5883 49bd 2cf7 84be
000001a0: 922e 5ebd 771f 0a3f 2b94 233e 2ee2 3fbd
000001b0: 984a 0abc 1f69 bebe 6aff febd 60d2 b53e
000001c0: e36b 0e3d 2ed4 a4be d481 3e3e a9c4 523e
000001d0: 25aa a43c 9554 d43b 9515 263e bef5 5ebe
000001e0: dfdf 2abd 9f28 e83d 57b9 4f3d e953 903d
000001f0: 2fda 5bbb 6eca 9dbe da91 febc 9e12 72be
00000200: 7a16 fcbd 25de afbe f5f9 653e b036 f7bc
00000210: 70a0 90bc cdbc 14be 1507 96be fc96 5abe
00000220: 3d2f a13d 0025 d8bd 53f4 e3bd 42bb e6bc
00000230: 4083 cabe b2a2 e63d dd1e 203e 5a28 9fbd
00000240: f0d8 8bbc 86e4 0c3e 79e2 423d e482 163d
00000250: b068 18bd b2e1 873e a3ce 23be 600b 82be
00000260: 6e71 b43e 89dd a73e 0479 56be 2016 893e
00000270: a9e2 f8bd a6ac cb3d 3db9 4f3e 1723 2a3e
00000280: dffc 94bd e820 9c3e f553 25be a6b2 9abc
00000290: 741f 55be 7ca9 493e da00 a43e 6ca5 9abd
000002a0: 4bcd 223e 90ed 32be 7146 5f3d 2f12 eabd
000002b0: a6a4 e7bd 0e4b cf3e 64ad 91bd dee1 a0bd
000002c0: f1e0 463c e70b ae3d 3a0b ba3d b7e3 69be
000002d0: 9219 07be 392c 14be 5668 ec3b 71d9 a23e
000002e0: 80dc bbbd dbfc 073f 10da f6bc 2a20 1abe
000002f0: fe49 1e3d 7883 74bd 3993 cfbc 97ca ccbd
00000300: 9110 353d 3afe 89be 3f91 bb3e 481b 443d
00000310: 5da3 a2be 623f 4d3e 9764 99bd d54d d7bd
00000320: 7e9f 83be 69de 9c3e 043b 7cbd 3a47 843e
00000330: defa 37bc e42f 973e 345b 813d a49e 1abe
00000340: 0dd4 37be 53ef 543e 77b5 77be 736b f23d
00000350: f0d8 173e bc50 353d b6dd 96be 742c d83d
00000360: 3246 113e ccf4 853b 8c78 523e 4b85 fe3b
00000370: e4c1 79be d78d 6dbe 11b4 0abc d780 8fbe
00000380: f592 6a3e 97b2 df39 01ea 98bd 5e58 6dbe
00000390: 7016 20be a4f0 3bbb dc77 9fbd dac3 1bbe
000003a0: 56de d8be a10b 543c f6d2 8bbe 98ad cabd
000003b0: a2af 913e 8f53 6e3e be4a 353e 3668 323e
000003c0: d54b 92be 59c0 fc3d 0a78 16be 1ba8 233e
000003d0: 0303 ebbc b879 7ebe f6a5 14be ec3f 8c3d
000003e0: 24e1 ccbe 9a03 71be 7c38 debe 765a 4e3d
000003f0: d70f 073e 7d05 f5bd f6b6 1f3e 1ae7 0f3d
-0.04218229 0.21262811 0.059146635 -0.0541515 0.31868494 0.180706 0.26311812 -0.2567
0.03882524 0.023867082 -0.22521438 -0.21638608 -0.23102924 0.16642398 0.23471908 0.18998389
-0.3450256 -0.3307646 0.20347126 -0.022050336 0.09938347 -0.19611481 -0.1975953 -0.14471123
0.14293054 0.054973662 0.056768715 -0.33644882 0.15378894 -0.25552955 -0.2481323 -0.20029585
-0.22064167 -0.13982649 0.09664056 0.24784546 -0.06542481 -0.016996406 -0.08279479 -0.12927817
-0.14868023 0.08654716 0.2954537 0.08657777 -0.29319432 -0.06594548 0.40808877 0.079124376
0.101213306 0.30494675 -0.053692847 0.19223356 0.01981691 -0.019810256 -0.04410523 -0.4678994
0.027462201 -0.3478835 0.065043844 0.33008832 -0.14183903 0.034378767 0.04084193 -0.082536794
0.10795812 0.1679352 -0.260622 -0.10444792 -0.057528347 -0.41682896 -0.04486817 -0.3209743
0.07886406 -0.093587354 0.14427328 -0.09038898 0.19932826 0.026166024 0.068227194 0.07502515
0.13708033 -0.03951408 -0.05544919 -0.07570267 0.16456345 -0.10512623 -0.071082905 -0.08978913
-0.24920577 0.2694891 -0.4130478 0.20130095 0.0088194795 0.15509063 -0.011269751 -0.3551366
-0.050368827 -0.1772199 0.031540982 0.038683306 -0.06637266 -0.09056536 -0.049197525 -0.25969827
-0.05424363 0.5395426 0.1597449 -0.04684656 -0.008440636 -0.37189576 -0.1245106 0.35512066
0.034770858 -0.3219313 0.18604213 0.20582832 0.020100662 0.0064798095 0.1621917 -0.2177343
-0.041717406 0.11335873 0.050713863 0.070472546 -0.0033546796 -0.30818504 -0.031075407 -0.23639914
-0.123089746 -0.3434917 0.22458632 -0.030177444 -0.017654628 -0.14525147 -0.29302278 -0.21346658
0.07870338 -0.10553932 -0.111305855 -0.028165463 -0.3955326 0.112615004 0.15636773 -0.07771368
-0.017071217 0.1375905 0.047579262 0.03674592 -0.037209213 0.2653938 -0.15996794 -0.25399303
0.3524279 0.32786205 -0.20944601 0.26774693 -0.12152607 0.099450395 0.20285507 0.16614948
-0.07274794 0.30493855 -0.16145308 -0.018884014 -0.2081278 0.1969356 0.320319 -0.07551083
0.15898626 -0.17473435 0.054510538 -0.114292495 -0.11310701 0.4048695 -0.0711315 -0.07855581
0.012138591 0.08498364 0.090841725 -0.22840773 -0.13193348 -0.14469995 0.0072145863 0.3180652
-0.091729164 0.531202 -0.030133277 -0.15051332 0.038644783 -0.05969569 -0.025338756 -0.099995784
0.044205252 -0.26951772 0.3663425 0.04787758 -0.3176526 0.2004371 -0.07489889 -0.10512892
-0.2570762 0.30638435 -0.06157972 0.25835592 -0.011229245 0.29528725 0.06316224 -0.15099579
-0.17951985 0.2079442 -0.24190317 0.118369006 0.14828849 0.044266447 -0.29466027 0.10555354
0.14186934 0.00408802 0.20553797 0.0077673546 -0.2439037 -0.23198639 -0.008465783 -0.28027984
0.22907622 0.00042666934 -0.07466508 -0.2317824 -0.15633559 -0.0028677369 -0.07786533 -0.1521143
-0.4235713 0.012942226 -0.27309388 -0.09896392 0.2845431 0.23274063 0.17704293 0.17422566
-0.2857348 0.12341375 -0.14694229 0.15982096 -0.02868796 -0.2485112 -0.14516434 0.0684813
-0.4001552 -0.2353653 -0.4340247 0.05037924 0.13189636 -0.119639374 0.15597138 0.035132505

f_percept.percept.0.bias f4 [16]
00000000: 2f93 73bb 07e8 1339 009c 17bb befa 10bb
00000010: 4b1e 99bb 6656 6e3b 6d80 1cbb 038c a43b
00000020: c631 c438 2e59 903b c63b 203a 6862 c23a
00000030: 7bea 28bb b7a7 dc3b e60a 1dbb a273 0e3b
-0.0037166586 0.0001410545 -0.0023133755 -0.002212211 -0.0046728007 0.0036367415 -0.0023880259 0.0050215735
9.355279e-05 0.0044051623 0.00061124226 0.0014830353 -0.0025774527 0.0067338604 -0.0023962795 0.0021736403

f_percept.percept.3.weight f4 [64, 16]
00000000: 9d69 903d 9f0b 1bbe 0873 0c3d f4a2 0fbe
00000010: f379 acbd 9d7a 81bd f345 49bd a06a 1e3e
00000020: 37f9 9bbd cfc1 c83d 68a7 7abe 927e 34be
00000030: 2882 c3bc 4b8f 4e3c ae8a a63d e779 8a3d
00000040: 9caf b4bd 0924 f63d 6d48 1a3e 5fa9 873d
00000050: 92f8 e83d 1a8d 723a 97c3 35be 458f 3abe
00000060: f272 e83d 057a eb3c da46 d63d 121c 013d
00000070: e14a ba3c a028 233e a1f3 9ebd b460 89bd
00000080: 17e9 15bc 3335 0dbe 984a 0fbe 188a ffbc
00000090: f77a 353d 0490 0f3e 35ae f4bd 684d a83c
000000a0: 2fd7 f43c 2f62 cbbd e230 cc3b 5bb8 063e
000000b0: 97e9 8cbb 4f5e 26bd aa89 533d ea0e fc3c
000000c0: 0698 4dbd e245 c6bd a2ae d73d 3538 edbc
000000d0: 58ed 94be 737c 5d3e 177f 093d 9469 513e
000000e0: db95 db3d 45a4 87bd 6942 c6bd d23d 71bc
000000f0: e20c 44be 4ddc 6fbd f93b 9ebd f2b1 14be
00000100: 64d4 d63d 2b8d fabd 9a4c a1bd f8f3 ce3d
00000110: 90ac b23c 551f 07be 945e 50be f2b5 20be
00000120: 9d40 43be 60b2 973a 4ae5 1a3e 7dd6 bcbb
00000130: 9a85 83bd fa40 553e c9c4 abb9 813c 4c3b
00000140: 0015 aa3e b192 383e 7d61 213e 44c1 39be
00000150: 21a4 e4bc 7367 64be 5893 ebbd 835a d23d
00000160: 046e a4bd 5a40 efbd b183 f0bc 72d9 cb3d
00000170: 964e 81bd 03c5 03be 7598 a63b c250 33be
00000180: 43ad bdbd a375 f2bd a276 98bc f08c 67bd
00000190: 86de a63d 0079 613d 6aef 6d3d 93a1 5fbe
000001a0: 922a f5bc 2069 30bd 4fc4 c53d 35eb 1e3e
000001b0: a08f ff3c db98 9c3c be84 1bbe a6b3 e53c
000001c0: c47f b73d 928c e93d c964 0abe 54c1 8fbd
000001d0: 2f08 a23d ff72 a73d 5dbd 39be c180 8a3d
000001e0: cc5f eabd 4cf6 c2be 5bb0 893d 6639 10bc
000001f0: dfda 753d 62ba e0bd feb3 87be d62f 15be
00000200: 9bf8 d9bc 1843 de3d 81f5 8fbe ab31 acbd
00000210: fa23 a13c b01c adbd a60c ac3d aefd 64bd
00000220: ef47 9b3d b8ed 0a3d d37b 2bbb 3a97 22be
00000230: 6a28 4cbe 462d bf3c c630 0c3e 5f08 163e
00000240: 59b4 2cbb 5101 ad3d 162f a2bd c849 c9bd
00000250: 5a0f aabb 0334 3b3d c9d1 afbd c749 68bc
00000260: 408b 2cbe bee9 1c3e 574d 573d 0e5e bf3d
00000270: 5ec3 ebbd b330 c0bd f85c 003e 9737 0abc
00000280: df86 4fbe 50c0 0f3d 526e 01be 3879 09bd
00000290: 7a56 d0be fe1e b6bd 51f1 09be 482e 293d
000002a0: 7983 3e3d 5441 f93d e117 52bd ffed 13be
000002b0: df9d 25be 4bf8 01bc c8d1 8cbc 2413 90bd
000002c0: d71f 893d 6289 93be 8907 023e 1a1b 533d
000002d0: 1324 46bd 2917 13be 5fb4 663e 18a2 033d
000002e0: feda 013e c313 9a3c 4608 77bc 20b5 6dbc
000002f0: a640 17be a6d2 4abe ea0d 98bd 7602 01be
00000300: 0841 05be ee27 85be 23b0 4bbe a556 b33c
00000310: ca29 5d3c 1138 52bd c6ee 0cbe 4b87 acbd
00000320: 0aa7 45be 4851 f33c ba45 a0bc 142a b93c
00000330: d383 153e 4bd8 36be 1025 953e 05ed 5bbd
00000340: ef17 943d 9416 2f3e a24c e6bd 1e9c 27be
00000350: 25de cabd 2ca2 cb3d 9088 a83d e503 4dbe
00000360: 2887 533d c239 13bd 1290 b33d 85c9 9e3d
00000370: a878 6cbe a36d cabc d32b 14bd 9cfd bf3d
00000380: 377a 2e3d 80ad 573c acd6 f9bc 3274 793e
00000390: 58fc 87bd 2df4 3d3e 2854 033e dc06 513d
000003a0: c1ae d53d 53ca 04bd bff6 a03c 6ec2 ff3d
000003b0: e260 af3c 3557 2cbd 7a45 f13d f0b8 bfbd
000003c0: a19d d6bd 3a4c 3abe 58af 2e3e 0544 193e
000003d0: 9547 b6bd 6b78 04be 4313 8ebd 2c43 97bd
000003e0: 31dd 9cbc 64fc 03bb 6c79 6e3c e740 853c
000003f0: fdb8 b13c ab96 18be c4e2 323c 8584 0d3d
0.07051394 -0.15141152 0.03428939 -0.14027005 -0.084216975 -0.06322215 -0.049138974 0.15470362
-0.07615893 0.09802591 -0.24477923 -0.17626408 -0.023865774 0.012607406 0.0813192 0.06761532
-0.08822557 0.12018592 0.1506669 0.06624102 0.11375536 0.0009252593 -0.17750393 -0.18218715
0.11350049 0.028744707 0.104627326 0.03152091 0.022740783 0.15933466 -0.07761312 -0.06707898
-0.009149811 -0.13789825 -0.13993299 -0.031193778 0.04430672 0.14019781 -0.1194729 0.020544723
0.029887764 -0.099308364 0.006231413 0.13156264 -0.004300307 -0.040617283 0.05164496 0.03076883
-0.05019381 -0.09681298 0.105313554 -0.028957466 -0.2908733 0.21629505 0.033568468 0.20450431
0.10721942 -0.06623129 -0.096806355 -0.014724212 -0.1914554 -0.058559705 -0.077262826 -0.14521006
0.10489729 -0.12233957 -0.07875939 0.10105127 0.0218108 -0.13195546 -0.20348579 -0.15694407
-0.19067617 0.0011573546 0.1512653 -0.0057628737 -0.06421967 0.20825568 -0.00032762278 0.0031163993
0.33219147 0.18024708 0.15759845 -0.18140131 -0.027910294 -0.22305088 -0.11502713 0.1027117
-0.08028796 -0.11682196 -0.02935967 0.09953584 -0.06313817 -0.12868123 0.0050840923 -0.17511275
-0.09261563 -0.11838844 -0.018611256 -0.056530893 0.08147912 0.055047035 0.05808965 -0.2183898
-0.029927526 -0.043069005 0.096565835 0.15519412 0.031196415 0.019115856 -0.15187356 0.028039765
0.08959916 0.11403765 -0.13515009 -0.07019296 0.07911717 0.08176231 -0.18138643 0.06762839
-0.11444053 -0.38078535 0.0672309 -0.008802747 0.060023185 -0.1097305 -0.2650451 -0.14569029
-0.026607802 0.10852641 -0.28116992 -0.08407911 0.019670475 -0.08452737 0.0840085 -0.05590599
0.075820796 0.033918113 -0.0026166334 -0.15878001 -0.19937292 0.023337018 0.1369048 0.14651631
-0.0026352613 0.08447517 -0.07919137 -0.09828526 -0.0051898183 0.0457039 -0.08584935 -0.014177746
-0.16849995 0.1532354 0.05256399 0.093441114 -0.11511873 -0.09384289 0.12535465 -0.008436105
-0.20266293 0.035095513 -0.1263974 -0.03356287 -0.40690976 -0.0889263 -0.13470961 0.041303903
0.0465121 0.121706635 -0.051292304 -0.14446257 -0.16173504 -0.007932733 -0.017189875 -0.07034901
0.06695526 -0.28815752 0.12698187 0.051539518 -0.048374247 -0.14364304 0.22529744 0.032137007
0.12681195 0.018808251 -0.015077656 -0.014508516 -0.14770755 -0.19806919 -0.07424529 -0.12598595
-0.13013089 -0.26007026 -0.1989141 0.021891901 0.013498733 -0.051323 -0.1376296 -0.084242426
-0.19302002 0.029701844 -0.019564498 0.022603072 0.14601068 -0.17855947 0.2912984 -0.053692836
0.072311275 0.17098457 -0.11245085 -0.16368148 -0.09905652 0.09943041 0.08229172 -0.20021017
0.051642567 -0.035943754 0.087677136 0.077532806 -0.23092902 -0.024710482 -0.036174607 0.09374544
0.042597022 0.013163924 -0.030497871 0.24360731 -0.066399276 0.18550177 0.12825072 0.051031932
0.10433722 -0.032419514 0.019648908 0.124882564 0.021408502 -0.042075355 0.1178083 -0.09361446
-0.10479284 -0.1819314 0.17059076 0.14967354 -0.08900372 -0.12936561 -0.06937268 -0.07385859
-0.019148441 -0.002013945 0.014555316 0.0162663 0.021694655 -0.14901225 0.010918323 0.03455021

f_percept.percept.3.bias f4 [64]
00000000: f516 dd3a d8f1 893a 5dec 093b 0399 01bb
00000010: 2f0c 1e3b 8cc6 cbba 7a6e 7f3b 5b21 a5ba
00000020: 70e0 9e3b aee8 e63b 8b5d 46ba 3b49 28bc
00000030: bd7c dcba 4a31 1b3b ef8e 883b f00d bebc
00000040: 30e0 73bb 9a71 1d3b d70b a6b9 c385 993b
00000050: 4a09 043c 30c4 bbbb f1a7 1dbc ca55 ce3a
00000060: 8034 78ba f2bf 8ebb f369 f4bb 61f6 1e3b
00000070: f2e6 31bc b995 bcbb 6b6d 2c3b 0ab8 a3bb
00000080: d4a3 9cb9 81d2 0a3b aff3 173c fc8b babb
00000090: 69f4 afb9 7ce6 90ba 31b2 0cbb a9cf 40bc
000000a0: 0903 95bb fd66 8e3a d72f 073b 01a2 6bbb
000000b0: 2752 70bb 7a85 d9ba 4a49 013b c61b adbb
000000c0: 74e5 5739 121a 12bc 2142 4cbb fc01 323c
000000d0: bb59 ccbb 01fa 38bc 0b07 2abb 8482 17bb
000000e0: af6f 94ba 8cd6 b5bb 5900 9839 a030 9bbb
000000f0: 748e c33b 1eb1 21bc 9ef4 643a ac32 d3bb
0.0016867804 0.0010524346 0.0021045425 -0.001977504 0.0024116149 -0.0015546842 0.0038975761 -0.0012598442
0.0048485324 0.0070467805 -0.00075670396 -0.010271366 -0.0016821843 0.0023680502 0.0041674296 -0.023200005
-0.0037212484 0.002402401 -0.0003167081 0.004685135 0.008058855 -0.0057301745 -0.00962256 0.001574212
-0.00094682723 -0.0043563778 -0.007458919 0.002425574 -0.010858284 -0.005755153 0.0026310335 -0.0049963044
-0.000298767 0.00211826 0.009274407 -0.005692957 -0.000335607 -0.0011055018 -0.0021468515 -0.01176826
-0.004547481 0.0010864433 0.002062788 -0.0035954716 -0.003667006 -0.0016595565 0.0019727522 -0.005282852
0.00020589476 -0.008917348 -0.0031167346 0.010864731 -0.0062362826 -0.011290074 -0.002594414 -0.0023118565
-0.0011324788 -0.0055492576 0.00028991958 -0.004736021 0.0059679095 -0.009868888 0.00087339606 -0.0064452495

manager.M_space.weight f4 [64, 64]
00000000: 4615 4a3e 495b fcbd 64e3 fe3c f2c9 e1bd
00000010: de29 9ebd 97c3 9bbd e854 333c 087b 5dbd
00000020: ff0d 09be e07c 823d a845 8b3c 7f27 163e
00000030: ec1c 40be dcfd fd3c cb12 f4bc b939 173e
00000040: e7bd 8a3c a958 7f3e 6821 a03d d36f 583e
00000050: 81c4 1abd ab9c ae3d 57d4 16be 2337 663e
00000060: df10 313d 36c8 c33d 84fe 53bd a9b0 8cbc
00000070: 3b0e 853d 6d92 03be 17d9 05bd 0d0d 02be
00000080: 6798 9c3d 83c5 493e 17ec 0d3e c927 abbe
00000090: 1635 b4bd ac85 9bbd 3c52 a73d 60bd 4e3c
000000a0: b74b 12bd 9a86 8fbe b054 c9bd 81ef c1bd
000000b0: fb55 e9bd 837f e53c f02c a23d 9303 263d
000000c0: 7530 d4bd 5e22 cd3c 2bc2 6cbd ce17 ccbd
000000d0: 204f 463e 7c62 5d3d 6e02 883e ef89 c23d
000000e0: 2eec 1b3e c291 493c c20c 12be ae12 393d
000000f0: a53f 7bbd e09c 4b3e e9c1 c6bd f62f be3d
00000100: 0d55 c7bd bb16 67bd e639 81bd 8eab 96bc
00000110: 1ba8 cd3d 274b 0f3e 1bda 003e 6f13 253e
00000120: 631f 8a3e 9cf3 3fbd 516b 4c3e 6be0 073e
00000130: 9fff 89be 4815 22be f844 163e f173 b33d
00000140: e543 69bd 95c8 febb 3107 f13c 48f6 90bd
00000150: ef33 873d 4a3a 52bd 6c8a 46ba be03 a6bd
00000160: 4c40 de3e 346b 49be aee7 97bd 859d a83c
00000170: 26c0 73bd 443b d1bd 0ca4 3f3d da4c 6bbe
00000180: 7237 40bc 3356 3b3d 4d8b 07be 9252 3abd
00000190: 6eba 76bd 4d87 2e3e e860 beba f353 eabd
000001a0: a21c d4bd b4ef eb3d 17e0 0bba 2d56 c8bd
000001b0: 2a91 193e 8c39 30be 91f5 c13d c870 cd3d
000001c0: d985 5dbd 5824 3abd 4f6f 00be 5da8 fe3d
000001d0: 2c28 1dbc eadb 03be 8aae fa3c a769 08be
000001e0: dc62 c63b 0bf5 633d c661 f8bc 259a ae3d
000001f0: 3a18 61be 268e 253d b86e 84bd 355c 0d3e
00000200: 06b7 b7bd de0d 94bd 37a3 4a3e 6eb7 363e
00000210: 1e7f 513e 0de4 ad3d fb81 163e d72b f5bd
00000220: 06aa aa3d b34a 55be 09bf 0fbe c9a6 2dbe
00000230: 96ec 51bc b833 06bd d9cb a33d cc59 f63c
00000240: 82ae 87bd 9027 7abc 58ff 33bd 9822 203c
00000250: 75ec 1f3e 189e 96bc d7b5 8f3e 26c7 11be
00000260: feef e8bd 65ab 793e f1f6 c83c f70a c93c
00000270: c569 3cbd b070 77bd 9fa4 5f3d d005 9bbd
00000280: b987 e93b 328a c3bd be0b 11be f819 cabd
00000290: 6cad d33c bb22 9f3d 5210 283e 7a7e 923d
000002a0: 68ce 7abe 3a9b 00be 4dc6 49bc bfea cfbd
000002b0: 261a 53bd 434e 4fbe 0ea4 c6bd 46ee 5abd
000002c0: 3430 67be a738 c4bd 4651 873d 9345 57be
000002d0: 7579 c13c 2f12 17be 75b4 883d 01c2 853d
000002e0: dae3 af3d fdcb 213b cab3 b9bc ab37 3bbe
000002f0: da79 1d3e 97ba 603e 0cda 283e f0fd 183d
00000300: 060f f93c b3e3 693d 52ff 0b3e ac26 1dbe
00000310: 349d b8b9 3b0b f3bd 0c6c 9fbd fcee 95bc
00000320: 93f4 94be 8dd3 f83b 4bab b43d 9bb0 cfbd
00000330: bab9 743d 3e32 df3d 1baa 85be bbbb cebb
00000340: c892 83bd 9f12 5e3e 76fb 5abc 39ef 873d
00000350: 83e7 1c3e 5e83 843b 300b 223e aec7 4abd
00000360: bdd7 483e 07e1 63bd 25fa 5e3d 27fb 593e
00000370: ca47 463e d66f a53d 7abe d33d b181 2ebe
00000380: 92bf edbc 8b24 f33d bef2 85bd 2ec7 153e
00000390: c42d 1cbe 345e 5bbd e217 e63d a8c4 dc3d
000003a0: 1881 0ebe 69b9 77bc 4f1f 02be ad84 26be
000003b0: 1dd1 463d a9f6 33bc 90b0 69bd 7ecb da3d
000003c0: 69e1 2c3e 49e7 1e3c 6496 88bc 3bea 53be
000003d0: 6351 13be 05c9 02be 703a 48be b68c 27be
000003e0: 0b29 83be 46ee 2f3e a78a d2bc f74f 073e
000003f0: 39d6 8e3c faf4 8b3c 86d4 633d 0648 ef3c
0.19734678 -0.12322099 0.031114288 -0.11024846 -0.07722829 -0.07605665 0.010945536 -0.05407241
-0.13384245 0.06371474 0.017000988 0.14663504 -0.18761033 0.031004839 -0.029794117 0.14768113
0.016936256 0.24936165 0.07818872 0.21136408 -0.037785057 0.08525976 -0.14729439 0.2248197
0.04322898 0.095596716 -0.051756397 -0.017174082 0.06496855 -0.12848826 -0.032677736 -0.12700291
0.07646256 0.19704251 0.13859592 -0.3342879 -0.08799188 -0.07593855 0.08169982 0.012618393
-0.03571674 -0.2803238 -0.09830606 -0.0946951 -0.113933526 0.028014904 0.079187274 0.040530752
-0.10360805 0.025040802 -0.05780236 -0.09965478 0.19366121 0.054049 0.26564354 0.09498965
0.15226814 0.012302818 -0.14262679 0.04518383 -0.061339993 0.19884062 -0.09704954 0.092864916
-0.09733019 -0.05641816 -0.063098714 -0.01839235 0.10041829 0.13993512 0.125832 0.16120695
0.2697707 -0.046863183 0.19962813 0.13269202 -0.26952836 -0.1582843 0.14674747 0.087623484
-0.056949515 -0.007775376 0.029422374 -0.070782244 0.066017024 -0.05132512 -0.0007573727 -0.081061825
0.4340843 -0.19669801 -0.07417236 0.020582924 -0.05950942 -0.10216382 0.046787307 -0.22978535
-0.011731969 0.045736503 -0.13236733 -0.0454889 -0.060236387 0.170438 -0.001452473 -0.11441793
-0.10357024 0.11520329 -0.0005335821 -0.09782062 0.14996782 -0.17209452 0.09470666 0.10031277
-0.054082725 -0.045444816 -0.12542461 0.124344565 -0.009592097 -0.1287686 0.030600805 -0.13321553
0.0060542654 0.055653613 -0.03032006 0.085254945 -0.21981898 0.040418766 -0.064664304 0.13804705
-0.08970456 -0.072292075 0.19788824 0.1784341 0.20458648 0.08490763 0.14698021 -0.119712524
0.08333211 -0.20829277 -0.14037718 -0.16958155 -0.012812754 -0.032764167 0.07997865 0.030072115
-0.066250816 -0.0152682215 -0.043944687 0.009773873 0.15617545 -0.018385932 0.2806842 -0.14236125
-0.113739 0.24381788 0.024531813 0.024541361 -0.045999307 -0.0604102 0.054600354 -0.07569468
0.007126775 -0.09547843 -0.14164636 -0.098682344 0.02583953 0.07770296 0.16412476 0.0715303
-0.244928 -0.12559214 -0.012315345 -0.10152196 -0.05153861 -0.20244698 -0.0969926 -0.05344989
-0.22576982 -0.09581118 0.066072986 -0.21022634 0.023617486 -0.1475303 0.066750444 0.06531144
0.08588381 0.0024688237 -0.022668738 -0.18282954 0.15378514 0.21946178 0.16489428 0.03735155
0.030402672 0.057101917 0.13671616 -0.15346783 -0.0003521234 -0.118673764 -0.0778428 -0.018302433
-0.29092845 0.007593578 0.08821734 -0.10141107 0.059747435 0.10898255 -0.26106343 -0.0063090003
-0.06424481 0.21686791 -0.013365617 0.06637425 0.1532269 0.0040439805 0.1582458 -0.049506836
0.19613548 -0.055634525 0.054437775 0.21287213 0.19363323 0.08077972 0.10339065 -0.17041661
-0.029022012 0.118722044 -0.0654044 0.14626762 -0.15251833 -0.053556636 0.11235024 0.10779697
-0.13916433 -0.015119889 -0.12707256 -0.1626155 0.04853927 -0.010984101 -0.05705315 0.10683344
0.16882862 0.009698697 -0.016673274 -0.2069482 -0.14386515 -0.12771995 -0.19553542 -0.1636227
-0.2561725 0.17180738 -0.02570088 0.13214098 0.017436134 0.017084587 0.0556226 0.029209148

manager.M_space.bias f4 [64]
00000000: 9f9e dc37 7be7 0cbb 1bcd 84bb 22fe 50ba
00000010: 635b 4b3b a546 893b 11b3 f63a 3327 363b
00000020: 87c0 8b36 ae90 353b dccb 0dbb c4e1 ccba
00000030: b3c5 beba e432 09bc eceb 19bb b6f7 4a3a
00000040: e655 3539 997a 7cb7 b100 ebbb 2688 6cbb
00000050: 1ef3 9dba 8cd2 7a3b 5144 85bb 452b 02bb
00000060: 49fb f6ba 082b 0bbb fd24 a5bb c0fa ceba
00000070: 82fe efb9 bae4 163b f03d 43ba 23c5 9b3b
00000080: 4b4a c3ba 0344 bc39 6b88 5a3b b862 263c
00000090: 9d36 cf3a a2a3 8a3a 89e8 833a f61a 9cba
000000a0: 41c1 adbb 6398 6a3b 4cfd 42bc 36f1 a43a
000000b0: 6df5 fb3b a292 8eba 115a 22bb 6f53 b23a
000000c0: 04e3 aabb bb02 e43a dc82 9c3a d490 393c
000000d0: e8eb 16bb 9f51 adbb cbae 92bb 2408 d8bb
000000e0: cb7f 6f3b d02b 89bb 1dc0 b23a 76c0 073a
000000f0: 3e3c 193a 2a00 983b a78f 88bb 630a 19bc
2.6299907e-05 -0.0021500278 -0.004052771 -0.0007972439 0.0031029813 0.0041893297 0.0018821676 0.002779436
4.164936e-06 0.0027704644 -0.0021636402 -0.0015631248 -0.0014554769 -0.00837395 -0.0023486568 0.00077426
0.00017293505 -1.5048915e-05 -0.0071717133 -0.0036091893 -0.0012050604 0.0038272468 -0.004066982 -0.0019862216
-0.0018843199 -0.0021235365 -0.0050398097 -0.0015791282 -0.00045775255 0.0023024515 -0.0007447889 0.004753725
-0.001489946 0.00035908827 0.0033345472 0.010155372 0.0015809123 0.0010577331 0.0010063808 -0.001190989
-0.0053025787 0.0035796396 -0.011901211 0.0012584093 0.007689169 -0.001087744 -0.0024772922 0.0013605187
-0.0052150507 0.0017395833 0.0011940855 0.011326034 -0.0023028795 -0.005289271 -0.0044764034 -0.0065927673
0.0036544676 -0.004186131 0.0013637576 0.000517852 0.00058454636 0.0046386914 -0.0041675153 -0.009340855

manager.M_goals.weight f4 [64, 128]
00000000: 5b1c 55bc 9f3d bb3c 3919 5f3d e1ca 0c3e
00000010: 3052 893d 4ce7 8b3c ffea e1bc 7f5c 37bc
00000020: dbf8 11bc 4b8f 5ebc 5a0c 1b3d dc26 08be
00000030: 5a23 6e3d 20aa 27bd 1f6e 3dbe 1055 8dbd
00000040: 9f9d 0d3e 8bca bf3d 7776 a1bc b833 fc3d
00000050: 70d7 5cbe b0f0 2bbe 7bef 473c bf5a 5e3d
00000060: 7074 ebbc d211 ca3d f8b3 d83d ec07 babd
00000070: 76a4 a0bd 7543 43be cb07 8a3c 75f6 a9bc
00000080: 4553 a33d d54d 063c 3a4f 293e cf0e bb3d
00000090: c617 a7bc 8738 0dbc e67f f83c abb4 6dbc
000000a0: ad7f eebd abc7 a83d 6eef bebd e095 8f3d
000000b0: 6681 2fbe e8dc 843c 4d7a 24be 1d1e 2c3d
000000c0: 3685 bdbd b077 ce3b a3e7 ad3d a522 d43c
000000d0: 21cc f13d ba0a 89bc 79b2 aebd d7c9 3bbd
000000e0: dfd9 7c3d 5e5c 9e3d 36b1 913d 1e23 023e
000000f0: ff1c 093e c745 473d 226b 30be e3c1 623d
00000100: e56f d8bd ef02 0abe 1929 aabd 8414 133d
00000110: 5418 793c dd7b 003c 2f72 10bd efaf d1bd
00000120: 4269 b5bc 0766 233d 6b67 093e 3113 ccbd
00000130: 852f 873d cf14 6c3c 6cc7 14be 4d3c 923d
00000140: 04b4 433d aa1e 8bbd e902 dfbd 7a2c 2ebe
00000150: 3c01 b1bc de97 b3bd e0f6 633d 6a1a 9bbd
00000160: 459f da3c e8f2 2b3c cb17 943d 855c 93bc
00000170: 8e81 d4bd 0f5b 1f3d c9c0 d83d 6bb7 e23d
00000180: 6a30 783d 49b9 00be 0e23 0b3e 8347 89bd
00000190: c8a5 b33d 2107 ef3a 01e2 a13d f2bd 10bb
000001a0: 5dbe 353e f8d5 243d 0beb 8c3c ad2c 8a3d
000001b0: 9a79 4c3a e501 f13d 4a3e 433d 87ab e3bd
000001c0: f40c 103e e324 d1bb 7b98 833d b881 87bd
000001d0: e6b2 89bd bdbd dbbd 8bc3 58bd d81c 01be
000001e0: b0d1 d03d 8280 d6bd 7aef aabd ad4a 3c3d
000001f0: 90a1 02be f339 e6bc 9ff8 4c3d 7753 f93a
00000200: 76e3 7d3d 6d52 973c 3122 863d c16a 143d
00000210: bfc2 0b3d d6d5 7a3d 10e2 d03d 9bad a7bd
00000220: a2d2 bf3d d51f 263d 1262 f63d e696 58bd
00000230: 7abe a1bb c535 1bbc cd61 673d 8879 15bd
00000240: 2ddf 143d b379 a03d 0997 d0bd 1f37 c1bd
00000250: bc23 2dbd 9792 95bd 1bd6 a9bc 459b cbbd
00000260: 8bdb 49be 3f3c f0bd 2a41 1d3e 98c8 bfbd
00000270: c06f 2ebd c2b6 fe3d 570a 143d b143 3e3d
00000280: ed2f e43c 16aa a3bd 3620 9d3d 8074 953c
00000290: 0a40 9abd 35b0 79bd bec9 cc3d 47f2 d2bd
000002a0: 88a8 01be 5677 5c3e 9c99 4f3d e5ba 9bbc
000002b0: 01fb 913d 096d 523e 118c 133d 36ba ce3d
000002c0: 3d63 05be 5659 87bd a736 cf3d ed48 0d3e
000002d0: 4bc5 f6bc fc48 2c3c df45 d53d 54b7 40bd
000002e0: 93e7 3e3c c6dd 303d 2c8c 8d3d 3e0c b73d
000002f0: 7ac8 e43d 2e70 9ebc c0e8 dcbb 7847 0c3d
00000300: 0af6 babb 733e 9a3d a41d f93a 3fc0 c2bd
00000310: 9cef be3d 4d8c 083d 8879 c33d 4e2a 473c
00000320: ff81 083e 5a8f ce3d 146a 31bd 899f bc3d
00000330: afc6 2ebe fecb 353d 612d ddbd 013f 883b
00000340: 937a b3bd 3715 ecbd 3da5 89bd 830a 9b3d
00000350: f079 aabd c5ce ad3d 4ff7 643d f9a5 29bd
00000360: d1f1 b0bd a1b8 ffbd 8f91 1c3b d73d 63bc
00000370: 5459 3bbd 7ab7 f3bd 9b04 b13d 6c13 783d
00000380: 6186 ed3a b194 523d 6b86 d4bd 8d15 0bbe
00000390: 79bb f8bd e488 7abe 2fd6 e93b 94d9 1dbc
000003a0: 9af1 48be 1a31 98bc 12bf 39bd 953a e0bd
000003b0: 6dad a5bd 6060 cfbd d5f4 063a 06b5 0cbd
000003c0: b237 bdbd 8999 bcbd 7feb 563d cc3c 033e
000003d0: 3da3 153d 9328 69ba 779e 0c3e b764 1fbc
000003e0: c4db 43bd bebb b9bc 8b26 1bbe c063 89bd
000003f0: cd6d de3d b83b 573d 5f0b c9bd 8c24 fb3d
-0.013007249 0.022856532 0.054467414 0.13749267 0.06705129 0.017078064 -0.027577875 -0.011191486
-0.008909429 -0.013583968 0.037853576 -0.13296074 0.058139183 -0.04093373 -0.18499039 -0.0690099
0.13829659 0.09364804 -0.019709809 0.12314552 -0.21566558 -0.16791034 0.012203093 0.05428576
-0.028742045 0.0986668 0.10581201 -0.09083542 -0.078438684 -0.19068702 0.01684942 -0.020747403
0.07974867 0.008197268 0.16534129 0.09133684 -0.020397078 -0.008619434 0.030334424 -0.014508407
-0.11645446 0.08241209 -0.09323011 0.07011008 -0.17139205 0.016218618 -0.16062279 0.042020906
-0.092539236 0.006300889 0.08491447 0.025895426 0.118065126 -0.016728748 -0.08530135 -0.045846786
0.061731216 0.077324614 0.071138784 0.12708709 0.13389967 0.04865053 -0.17228368 0.055360686
-0.10568217 -0.13477682 -0.0830862 0.035908237 0.015203554 0.007842031 -0.035265144 -0.10238635
-0.022144917 0.039892223 0.13418357 -0.09964598 0.066008605 0.014409258 -0.14529198 0.07140408
0.0477791 -0.06792958 -0.10889227 -0.17009154 -0.021607034 -0.08769201 0.05565536 -0.075733975
0.026687274 0.010494925 0.07231101 -0.017988453 -0.10376273 0.0389052 0.10583646 0.110701405
0.060593046 -0.1257068 0.13587591 -0.06703093 0.08771855 0.0018236378 0.07904435 -0.0022085872
0.17748399 0.04024312 0.017201921 0.067468025 0.00078001025 0.117679395 0.047666825 -0.111167006
0.14067441 -0.006382571 0.06425568 -0.06616539 -0.06723575 -0.10729549 -0.05292086 -0.1260866
0.10196245 -0.1047373 -0.08346458 0.045969654 -0.12756944 -0.028103804 0.05004179 0.0019022067
0.0619845 0.01847192 0.0654949 0.03623462 0.03412127 0.061239086 0.10199368 -0.081874095
0.09366347 0.0405577 0.12030424 -0.052878283 -0.0049360367 -0.009473269 0.056489754 -0.036492854
0.03634565 0.07835712 -0.10185058 -0.09434342 -0.042270407 -0.073033504 -0.020731976 -0.09941725
-0.19712655 -0.11730241 0.1535689 -0.09364432 -0.04258704 0.12437202 0.036142673 0.046451274
0.027854884 -0.07991426 0.076721594 0.018244028 -0.07531746 -0.06095906 0.09999417 -0.10300117
-0.12661946 0.21529898 0.050683603 -0.019010017 0.07127953 0.20549406 0.03602225 0.10094111
-0.13026138 -0.06608836 0.10117846 0.1379735 -0.030123373 0.010515448 0.104137175 -0.047049835
0.011651891 0.04318025 0.06911501 0.08937882 0.1117105 -0.0193406 -0.006741613 0.034247845
-0.0057055997 0.075314425 0.0019006026 -0.09509324 0.093230456 0.033336926 0.095446646 0.012156082
0.1333084 0.10085936 -0.043314055 0.092101164 -0.1706798 0.044383995 -0.10799671 0.0041579013
-0.087636136 -0.11527484 -0.0672097 0.07570364 -0.08324039 0.08486704 0.055899914 -0.04141805
-0.08639873 -0.12486387 0.002389047 -0.013869724 -0.045739487 -0.1190023 0.086434565 0.060565397
0.0018121713 0.051411334 -0.10377201 -0.1358244 -0.121451326 -0.24466282 0.0071361284 -0.009634394
-0.19623414 -0.018578101 -0.045348234 -0.10948674 -0.08089719 -0.10125804 0.0005148177 -0.034352325
-0.09239139 -0.09208972 0.05247068 0.12816161 0.03653263 -0.00088942907 0.13732325 -0.009728602
-0.047817007 -0.02267253 -0.15151422 -0.06708479 0.108607866 0.052547187 -0.09816622 0.1226283

manager.M_goals.bias f4 [64]
00000000: 682c 323b d17c 433b 6cc1 2fbb e36c 82bb
00000010: 40f1 6b3b 0c06 bd3a 60a8 ca3a af6a 9bbb
00000020: 61e1 023b ba29 71bb ab0f e8ba 5dcb 98bb
00000030: 9bcb 4c3b 124d 65bb a9a1 cd3a 0a68 923a
00000040: 1af8 313b 99a5 c0ba 185e 8a3b c418 72bb
00000050: 7ecf 2abb f066 183b 0915 90bb bd4d 13bb
00000060: 87c4 34ba d127 a0bb 4018 cdba be2f 683b
00000070: 5d05 463b 03f6 acbb 40bd 633b 2b3b c63a
00000080: 5f1e 6f3b e318 f13b e68d acbb aab4 89bb
00000090: 382e 7cbb 6c20 363b 3f4b 8bbb 3e4a b0b9
000000a0: 029f 26bb 5525 01ba 2fb3 da3a 3f36 463a
000000b0: 3cd7 783b 23bb 2fbb 62cc 5ab9 eb62 913b
000000c0: 0c20 033b 79ad 92ba e392 4cbb f04c 8bbb
000000d0: f8b8 c03b 8288 633b a4f9 443b 843d 4a3a
000000e0: 7f67 0bbb 05da 5e3b 232d 443b 1613 86ba
000000f0: 572f 5bb9 4e10 82bb 12da bb3a 6ae2 0bbb
0.0027187113 0.0029829035 -0.002681817 -0.0039802655 0.003600195 0.0014421358 0.0015461557 -0.0047429423
0.0019970762 -0.0036798553 -0.0017704865 -0.0046629147 0.0031249288 -0.0034988564 0.0015688437 0.0011169922
0.0027155937 -0.001469779 0.0042226426 -0.003694103 -0.0026063616 0.0023254715 -0.004397039 -0.0022476756
-0.000689574 -0.004887559 -0.0015647486 0.0035428847 0.00302156 -0.0052783503 0.0034750253 0.0015123835
0.0036486608 0.007357703 -0.005265939 -0.004202445 -0.0038479697 0.002779032 -0.0042509134 -0.0003362465
-0.0025424366 -0.00049265224 0.0016685481 0.0007561184 0.0037970087 -0.0026814423 -0.00020866239 0.004436841
0.0020008115 -0.0011190615 -0.003121548 -0.004251115 0.005881425 0.0034718816 0.0030056024 0.0007714855
-0.0021271405 0.0034004461 0.002993413 -0.0010229077 -0.00020903103 -0.003969229 0.0014331958 -0.002134467

manager.M_value.weight f4 [1, 64]
00000000: 8e08 26be 434a d2bd 65ed 3b3b d901 a93d
00000010: 5ca7 1abe 4b26 fbbd aa11 e1bd 8d8a 753e
00000020: 90e4 43bd 14db c43d de58 9c3d 225e 8c3d
00000030: 4d17 05be 40d9 ab3d 7581 2bbe ec58 2bbe
00000040: a14f 15be 3a1d 84be 3cc4 e2bd 3ea6 853d
00000050: 1331 eabc bc9d 0abe ad52 533e 61ab 3a3d
00000060: 10ab bd3a cb62 123e bf2d d83d ea7b 87bd
00000070: 59da b93d 9b71 3f3e eba1 84bd 1f99 88bc
00000080: f35b 8ebd e0d9 03be 342d 103e 42e6 74be
00000090: 17f3 e93d 98aa 9dbc 3510 1b3e f7b3 0a3e
000000a0: dcfd 3c3e 8ec2 63bd 67d4 09bd 1273 5ebe
000000b0: 4e0c dcbd 7cbf 693d e2b3 893d 6d0e f8bd
000000c0: 05e8 2bba 7644 7fbc 4ccb bb3d a80f 4d3d
000000d0: 6233 a2bd 6dab d2bd 9325 30be 7fee 983e
000000e0: 6c63 203d 9007 adbc c490 80bc 3e82 823d
000000f0: d6ef 0d3d c54e a53d 8ee1 bebd aba1 343e
-0.16214201 -0.102680705 0.0028675434 0.082523055 -0.15102905 -0.12263163 -0.10989697 0.23978634
-0.047825396 0.09612098 0.076341376 0.06853892 -0.1299717 0.083910465 -0.16748603 -0.1673314
-0.14581157 -0.25803548 -0.11072585 0.06525849 -0.028587854 -0.13536733 0.20637007 0.045573596
0.0014470536 0.14295499 0.105556004 -0.066154316 0.0907485 0.18695681 -0.06476196 -0.016674576
-0.06951132 -0.12876081 0.14079744 -0.23915961 0.11423319 -0.019246385 0.15142901 0.13545214
0.18456215 -0.055605464 -0.03364983 -0.21723583 -0.107445344 0.05706738 0.06723763 -0.121121265
-0.0006557706 -0.015580287 0.09169635 0.05006376 -0.07919957 -0.10286603 -0.17201833 0.29869458
0.039157316 -0.02112177 -0.01569403 0.06372498 0.034652553 0.08071665 -0.09320365 0.17639796

worker.f_stateW.weight f4 [40, 64]
00000000: 5c36 26bd bf64 11be a0f4 42be 07b6 96bd
00000010: 0c05 653d 4cf4 433e 63ee 8bbc ce8f bb3d
00000020: 8398 54be 5eee a4bd 7ad4 ea3d f9e8 2dbe
00000030: 22a5 cebd 1b7c 6a3e 4768 973c 202a bf3d
00000040: d2be 0dbe 7725 803d 952d 40be 41ce 1ebd
00000050: 1cc0 94bd f7c5 7b3d 42f0 1e3d 49a4 98be
00000060: 8972 fb3c 3c48 bb3e 5835 acbd 4256 50bd
00000070: 21c1 aebc 2024 10be f93d 1c3d 1fbb a23d
00000080: 8769 1c3e 2105 a9bc de4d a63b e576 30be
00000090: a300 5b3d 14f6 62be 2b51 163d 1122 b33d
000000a0: 88eb 173d b15f 22be 9cda 593e 19d5 5c3d
000000b0: 7881 b43c 2004 0fbe 87fd b5bd b06c 8f3c
000000c0: ee70 823d 7128 91bd 7363 3dbd 233f 853c
000000d0: 2a5a bf3c ac1c b8bd 0284 2cbd b7b4 383e
000000e0: 3783 4f3c 065e 713e 3866 313d 79d3 7e3d
000000f0: 7457 903b 63d5 18be 6b2b 41be 3534 ac3d
00000100: df75 a23c bb9b 033e 14f5 353e 4953 a13c
00000110: 682d 3abe f3e6 9ebc 7647 cebd 2220 bcbd
00000120: 4831 c8bd 360f 44be 0045 303e 7e0b 74bd
00000130: 4ed6 9ebd 5b13 4fbd e23d 02be ac9b 17bb
00000140: fa9d 15be 66e1 6e3e d744 523e fdda 453d
00000150: fef4 3ebe 2ea5 fabc 5971 d13d 7937 173d
00000160: a008 7b3e b00b 623e 99f1 80bd 71a4 af3b
00000170: 3a1e 91be 8c5d da3d 567a 1dbe 4182 e9bd
00000180: f7a9 5bbe 1b99 55be e658 a3bc 838f 13be
00000190: 9da4 123e 31cd 29bc f0a2 e1bc a069 e33d
000001a0: c96b be3d de16 4a3c 4908 6bbe f01a 713d
000001b0: 790e 3b3d d84b a03d b955 bd3d cbd4 b93d
000001c0: dee8 2abb 882e c6bd 31d6 053e 702e 1ebe
000001d0: de10 4cbd 297f f1bc d341 60be c029 77bd
000001e0: 409b cbbd 4f28 1e3d c51e 513c f7d8 2bbd
000001f0: 2fe1 e13d 9f59 fbbd 0871 bf3d fa1c 2dbd
00000200: 02be 19bd 7ccf 1ebe 9ac0 af3d b6e9 95bd
00000210: 7010 3b3d 942c 053d e671 6d3e 3103 083e
00000220: d883 cebd 3adc 903c 15e4 87bd 2303 153e
00000230: 9156 90bd 3c83 083e 2740 06bd 7595 3b3d
00000240: e51c 863e 7cda 3e3d d73b 48bc 02bb 5abe
00000250: 4676 663c ba7d 173d eab0 e8bd f8fa 3b3d
00000260: a12e fe3d f852 8cbd 6265 aabe 9202 fa3d
00000270: 4853 05be 47be 34be 8919 16be 49f7 233e
00000280: 02fa 24be f10e c93d 4f4d eabd 3798 cc3d
00000290: 7bc6 863c d698 143d 3dc5 1a3e df72 90bd
000002a0: a2de 2e3d 6791 d73d 49fc 0b3d 69ae cc3d
000002b0: 7a7f 3e3e aa10 393e e3cc 94bd 05f5 4b3c
000002c0: 1369 c9bc a5fe c53d c701 7e3e 46fa d8bd
000002d0: 8373 42bd 6219 4abd 447d 92bd a01a 0bbe
000002e0: 6cd7 993e f562 d43c 03b8 20bd 39ee d8bd
000002f0: e244 e83c 6fe9 1fbe 07c4 17be b69c 843d
00000300: a4d7 053c beb2 ec3d bfcf 0b3e bc4d dc3c
00000310: f0a7 553d 95ec 913e 5311 c53d 78c3 033e
00000320: c760 3d3e 123e e53c 2c9b 4dbe d3d3 5cbd
00000330: 7bba 97be ad44 26bd 0e70 013d 7a34 8abd
00000340: fe3b 7f3d 7080 353e 5351 3abc 0192 543e
00000350: c2b0 733e 6201 8ebe 9aec 633d f8eb 013e
00000360: 3641 1bbe 7674 2a3e ae44 773d e9c2 42bc
00000370: 372a acbd 45b7 bdbd de1b 1ebe 0090 3cbd
00000380: bcd4 ad3c bf70 b0bc f07f e8bb 6d46 2fbe
00000390: d717 0cbd 88e0 ea3d e6ee 81bd dfce 21bc
000003a0: e4c5 87be 40da 02be 8b0a 65bd 3979 1a3e
000003b0: ae38 db3d 37be 26be 29f5 263c ae48 2fbe
000003c0: 1b05 5fbe ea56 8c3d 82b2 4e3d c0b9 cdbd
000003d0: 7cf8 cf3d 5baa cebd c389 9b3b 92d8 a83d
000003e0: c54b aa3d d112 5abd 33f1 bfbd d8cb 0abb
000003f0: f1c1 bfbd 3fbb 723c 7a5f 86bb cd07 f43c
-0.040579185 -0.14198588 -0.1903863 -0.07358938 0.055913016 0.1913616 -0.017081445 0.09158288
-0.20761304 -0.080532774 0.11466308 -0.16983403 -0.1009009 0.22898905 0.01848234 0.093342066
-0.13842323 0.06257146 -0.18767388 -0.038770918 -0.072632045 0.06146809 0.038803346 -0.2981284
0.030694263 0.36578548 -0.08408612 -0.05086351 -0.021332325 -0.1407628 0.03814504 0.07945847
0.1527463 -0.020632328 0.0050752005 -0.17232855 0.053467404 -0.22164184 0.0366985 0.08746732
0.037089854 -0.15856816 0.21274799 0.053914163 0.022034392 -0.13966417 -0.08886247 0.01750788
0.06369196 -0.07087792 -0.04623742 0.016265457 0.023358423 -0.08989844 -0.04211808 0.18037687
0.012665561 0.23571023 0.043310374 0.062213395 0.0044049565 -0.1492515 -0.18864219 0.08408395
0.019831596 0.12852375 0.17769271 0.019693034 -0.18181384 -0.019397235 -0.10072224 -0.09185816
-0.09775025 -0.19146428 0.17213821 -0.059581272 -0.07755719 -0.05055557 -0.12718919 -0.002313356
-0.14611045 0.2332817 0.20534073 0.048304547 -0.18648145 -0.030596342 0.102266975 0.036918137
0.24515009 0.22074771 -0.06296081 0.005360179 -0.28343374 0.10662374 -0.15378699 -0.11401797
-0.21451555 -0.20859186 -0.019939851 -0.14410214 0.14320607 -0.010363863 -0.027543515 0.11104131
0.09297902 0.0123345535 -0.2295238 0.05886358 0.0456681 0.07826966 0.09244866 0.0907379
-0.002607874 -0.09676844 0.13069989 -0.15447402 -0.049820773 -0.02947958 -0.2190011 -0.06034255
-0.09941721 0.03861266 0.012763684 -0.04195496 0.110292785 -0.12272953 0.09347731 -0.042263962
-0.03753472 -0.15508837 0.08581658 -0.073199674 0.045669973 0.032513216 0.2318798 0.13282467
-0.10083741 0.017683137 -0.066353 0.14551978 -0.07047761 0.13331312 -0.032776024 0.04579683
0.2619392 0.04659508 -0.012221298 -0.213604 0.0140662845 0.036985137 -0.11361869 0.04589364
0.124112375 -0.068517625 -0.33280474 0.122075215 -0.1302005 -0.1765071 -0.14658178 0.160123
-0.16110995 0.09817303 -0.11440527 0.0998997 0.016452065 0.03627857 0.15114303 -0.0705316
0.042692788 0.1052578 0.034176145 0.099942036 0.18603316 0.18072763 -0.072656415 0.012448554
-0.024586236 0.0966771 0.24805366 -0.10594611 -0.04747344 -0.049340613 -0.07152799 -0.13584375
0.30047166 0.025926093 -0.039237987 -0.10592312 0.028353158 -0.15616392 -0.14820872 0.06475203
0.0081690885 0.1155753 0.13653468 0.026892535 0.05216211 0.2850081 0.09622445 0.12867534
0.18493949 0.027983699 -0.20078725 -0.05391295 -0.2963446 -0.040592838 0.031601004 -0.0674829
0.062313072 0.17724776 -0.011371928 0.20758821 0.23797897 -0.2773543 0.055645563 0.12687671
-0.15161595 0.16645989 0.060368232 -0.0118872905 -0.08406489 -0.092634715 -0.15440318 -0.046035767
0.021219604 -0.021538137 -0.0070953295 -0.17116709 -0.034202423 0.11468607 -0.063443944 -0.009875982
-0.26518166 -0.12778568 -0.055918258 0.15085305 0.1070417 -0.16283499 0.010190287 -0.17117569
-0.21779291 0.06852515 0.050463207 -0.100451946 0.101548165 -0.100910865 0.004746647 0.082444325
0.08315233 -0.0532406 -0.09372177 -0.002117863 -0.09363163 0.014815151 -0.004100737 0.029788876

worker.f_stateW.bias f4 [40]
00000000: dd5c 2bbb 7b8e 03bc c6a0 3cbb 8da6 7b3b
00000010: c24c a2bb b888 34bc 0000 0000 d74e c2bb
00000020: 0904 903a 50aa 1bbc 87cd 6f3b 1dc3 25bb
00000030: 7997 31bc d721 2d3b 349b 08bc 6f0a b23b
00000040: 42af c63a a386 edbb 5077 5cbc f783 c43a
00000050: e6f2 3ab9 68c9 ad3b 557e 84ba ec77 653b
00000060: 08b4 2b3c 0f94 31ba d0ca 873b 4066 19bb
00000070: 9f5a e53b 4234 123b aba6 9d3b 929a b9bb
00000080: b4f7 813a 54b7 46bb 2285 1cbc 175b 803b
00000090: ef44 85bb df2f 963b 16d4 9ab9 bbab 543b
-0.002614788 -0.008029575 -0.0028782352 0.0038398833 -0.004952998 -0.011018924 0.0 -0.0059298086
0.0010987531 -0.009501055 0.003659101 -0.0025293299 -0.010839337 0.0026417875 -0.008337785 0.0054333727
0.0015158432 -0.007248716 -0.013456181 0.0014992942 -0.00017828829 0.0053035505 -0.0010108451 0.0035014106
0.0104799345 -0.00067740766 0.00414405 -0.0023406893 0.0069993283 0.002230898 0.004811128 -0.005664178
0.000991574 -0.0030321674 -0.009553226 0.0039171088 -0.0040670554 0.0045833434 -0.00029531185 0.0032450992

worker.phi.weight f4 [8, 64]
00000000: 4e44 d5bd 1006 853e 05d3 babd a619 02be
00000010: 9ddc b6bd 3039 5a3d ee42 04be 1cd1 73bc
00000020: c4ce ce3d 9962 b83c c4e0 96bd 17b6 4abe
00000030: 75b0 a23d 6ae4 c5bc 7620 913c c404 013d
00000040: 684f bc3d c74b dcbd 964c 3d3b a3c0 87be
00000050: a168 c5bd bc1f 1fbd 1727 7bbc e0e4 29bc
00000060: e593 023e 8d5f ac3d 29ed b43d 4d38 5f3e
00000070: 6b0d 573e 4bbc 303e 64cf fcbd 7616 1c3e
00000080: 11c5 c1bd 6f9f 69be 59f1 33bd 8707 ff3d
00000090: b5a5 933d a2da 72bd 7dcf 273e 4767 40be
000000a0: e2dd 0c3d 247f 03ba 783f 22be 1066 1bbe
000000b0: 4e30 2c3d 6fcb 89bd f910 c0bd cfaa 143e
000000c0: 78c2 03be dc7f cfbc 807c 2e3e 387e 983d
000000d0: f833 d23d f561 9bbc c8d8 0abc af06 853d
000000e0: 4ccf 08be 4511 bd3c 7e52 8b3d e361 503d
000000f0: 2663 b63d a8ee c5bd 9bc9 b33e 3e0e 36be
00000100: 9394 16be 6279 e7bd 9161 223d 3b63 f7bd
00000110: 2f14 a7bd 58e4 d83d 55b9 0a3e 1faa 9a3d
00000120: 2190 f13a 1648 d53d 91fa 87bc a9e4 1c3d
00000130: 08ed aa3d 9fa5 86bd 7eb8 093d 95c4 4a3e
00000140: 1428 18be ed42 893d 73f5 04bd ab45 fdbd
00000150: f90d 97bd 5965 2f3e 1c59 b93e 21ec 163e
00000160: 6f49 3dbe 515c 683e 5817 c5bb f7e0 22bc
00000170: ee6f e33b 8aaf d7bd 3eeb 643d d05f acbc
00000180: fb3b f2ba 833b eebd 2e6a 753c 3430 913e
00000190: 9e16 71bd 943d 73be 8c7e 673d 5d33 0bbd
000001a0: 32d7 98bc 2b79 c13d d1cd ffbc df0c 50bd
000001b0: 7ff5 fc3c 876d c3bd daf8 943b 9ed1 d8bd
000001c0: 0d5c b43d 9264 013d d5b3 adbc 5f32 113e
000001d0: fc86 323e 113b 263e d9a4 37bd 1613 36be
000001e0: f6a2 313e e84b 6d3e 297a be3d 3fe2 0e3e
000001f0: d91d 2dbe 27c9 f4bd 7630 e0bd 857c c83d
00000200: a420 1cbd 82f8 0a3d b142 0fbe 9971 63be
00000210: 9a01 4e3e d4db 433e b7d7 2bbd 2a32 d93c
00000220: cea3 d1bd 128c 70be 4993 13be af63 a6bc
00000230: 9aac 14be 4f89 0cbd 7bf7 b33e 0e4c 233e
00000240: cb1a 8c3d 4441 f3bd d15c 3a3e fcf8 d7bb
00000250: d335 aebd cfb4 aebd 88f0 9ebd c280 e93c
00000260: 16c2 493c db0a 8d3e eb82 023d dd3d 053e
00000270: 4e19 66bd 22a4 54bc caba c2bd 9e34 14be
00000280: 3dc5 133e 8a52 3dbe bf4e 3abd 5e6b 14bd
00000290: e94d 8ebd 2d59 933d 0ab6 34be 909e 6e3e
000002a0: 4bc1 753d 955d b0bd 8577 953d 215b 9a3d
000002b0: 94fb 94bd 20f8 f1bd 1cbc 503d 847e 9dbd
000002c0: 359c 6a3d b3f5 21be f9ad a73d 74d1 de3c
000002d0: a636 43be 2d25 7f3d f8ea 5abd edfd a6bd
000002e0: 6177 233e bb67 debd e8f4 343e fd1b afbd
000002f0: 2c4b ff3c 011a 873d ed05 513d 3354 2c3d
00000300: 890d 53be 9489 0d3d dc0d 2f3d 663c 98bd
00000310: c80f f13d 1316 3fbd e106 06be 34db 9fbe
00000320: ffd3 453d d713 edbd 8335 8abd ed8c 053e
00000330: 2f28 3e3d 861f eb3d 8005 013e 7ec9 1ebe
00000340: d2b8 523d 9b40 12be bc70 d73d f2a0 ae3d
00000350: 533f 14ba c8ea 9b3c 74c2 453e 9397 21bd
00000360: 97c6 b83e f9e6 2fbe d546 6d3e 13f8 22bd
00000370: 9f19 8a3c b759 3bbe feea 483d c7d3 553c
00000380: 0cf8 4abb 18f6 e83d c066 f33d 0a46 903e
00000390: ff27 bc3d 5a4a 173d 43b0 d13d f9d2 1bbc
000003a0: 2e79 c1bd ba3b 573d af85 a0bc 5864 f5ba
000003b0: da28 183c 4373 993c 90c3 87bc 945b 473c
000003c0: 3019 b43c dd2c ef3d c24c 0ebe 97d2 553d
000003d0: c653 c7bd fb89 1a3d 880d 8a3d 2d2c a1be
000003e0: 69b5 753d 52d8 e43d 8fad 0cbd 5d6b 45be
000003f0: 6147 d53d d84f c33d 1c55 1f3c e583 18bd
-0.10413419 0.25981188 -0.0912228 -0.12705097 -0.089287974 0.053277194 -0.12916157 -0.0148813985
0.10098031 0.022507953 -0.073670894 -0.19796024 0.07943813 -0.024156768 0.017715674 0.031498685
0.09194833 -0.10756641 0.002888476 -0.26514158 -0.09639097 -0.038848624 -0.015329144 -0.010369509
0.1275173 0.08416662 0.08834297 0.21798821 0.21001212 0.17259328 -0.12344244 0.15242943
-0.094614156 -0.22814725 -0.04393134 0.124526076 0.072093405 -0.059290536 0.16387744 -0.18789397
0.03439129 -0.0005016199 -0.15844524 -0.15175653 0.042038254 -0.06728255 -0.09378237 0.14518283
-0.12867153 -0.025329523 0.1703968 0.07445949 0.102638185 -0.018967608 -0.008474536 0.064954154
-0.13360327 0.023079524 0.068028435 0.050874602 0.0890563 -0.09664661 0.3511475 -0.1777887
-0.14705114 -0.11302449 0.039643828 -0.120794736 -0.081581466 0.10590428 0.13547261 0.07551979
0.0018429795 0.1041414 -0.016598972 0.038304005 0.083459914 -0.065745585 0.03362321 0.19801553
-0.14859039 0.06702218 -0.03246064 -0.12366804 -0.07375712 0.17128505 0.36200798 0.14738514
-0.18485044 0.22691466 -0.0060147457 -0.009941331 0.0069408333 -0.10531528 0.055888407 -0.02104178
-0.001848101 -0.11632445 0.0149789285 0.2835709 -0.05885946 -0.23753959 0.05651717 -0.03398453
-0.0186573 0.09446939 -0.03122607 -0.050793525 0.03087878 -0.09542375 0.004546267 -0.10586856
0.0880662 0.031590052 -0.021203915 0.14179371 0.17434305 0.1623347 -0.044834945 -0.17780718
0.17347321 0.23173487 0.09300644 0.13953494 -0.16905917 -0.11952429 -0.10946743 0.09789375
-0.038117066 0.0339284 -0.13990285 -0.22211303 0.20117798 0.19126827 -0.04195377 0.026513178
-0.102363214 -0.23490933 -0.14411654 -0.020311205 -0.14518967 -0.034310635 0.3514975 0.15946981
0.06841048 -0.11877683 0.18199469 -0.0065909605 -0.0850636 -0.0853058 -0.077607214 0.02850378
0.01231434 0.27547345 0.031863134 0.1301188 -0.056176476 -0.012978585 -0.095082834 -0.14473197
0.14430709 -0.18488517 -0.045485254 -0.036235206 -0.06948454 0.07194743 -0.17647567 0.23302674
0.05999879 -0.08611599 0.07298187 0.07536913 -0.07274547 -0.11814904 0.050960645 -0.076901466
0.057277877 -0.15816383 0.081874795 0.027199484 -0.19063815 0.062291313 -0.05344674 -0.08153901
0.15963508 -0.10859629 0.1767155 -0.0855026 0.031163774 0.06596757 0.051031042 0.042072486
-0.20610632 0.034555033 0.042737827 -0.07433395 0.11770588 -0.04665191 -0.13088562 -0.31221926
0.04829788 -0.1157605 -0.06748488 0.1304204 0.04642504 0.11480622 0.12599754 -0.1550655
0.05144579 -0.14282458 0.10519549 0.08526792 -0.0005655188 0.01903285 0.19312459 -0.039451193
0.36089012 -0.17177953 0.23171552 -0.039787363 0.01685792 -0.18295942 0.04905223 0.01305098
-0.0030970601 0.11375064 0.118848324 0.28178436 0.09187316 0.03693614 0.102386974 -0.009510749
-0.09446941 0.052547194 -0.019594995 -0.0018721921 0.0092870835 0.018731719 -0.016572744 0.01216783
0.021984667 0.11678479 -0.13896468 0.052202787 -0.097327754 0.037729245 0.06740862 -0.31479016
0.05998746 0.11174072 -0.034345206 -0.19279237 0.10414005 0.09536713 0.0097248815 -0.03723516
