vwgym/saved_model/vwgym_f_net_step_300000.pt (torch_old, 356491 bytes, 51 tensors)

f_percept.percept.0.weight f4 [16, 3, 3, 3]
0	0x3e5a418c	0.21314067
1	0xbd88e739	-0.06684727
2	0xbe9e508b	-0.30920824
3	0x3d144c10	0.03620535
4	0x3d9e8bd8	0.07741517
5	0x3e463c90	0.1935904
6	0xbde0d443	-0.10977986
7	0xbe94ede4	-0.29087746
8	0x3e62f25d	0.22162767
9	0x3eabf576	0.3358571
10	0xbdb8a2f2	-0.09015454
11	0x3e1fa7e0	0.15591383
12	0x3df0d2e4	0.11758974
13	0x3db669a2	0.089068666
14	0x3e1dd8ea	0.15414777
15	0x3e05c770	0.1306436
16	0x3e0fddbe	0.14049432
17	0xbe762cdb	-0.24040549
18	0xbd037515	-0.03209408
19	0x3c6776e1	0.014127464
20	0x3e70ef76	0.23528847
21	0x3df7c30b	0.12097748
22	0xbe53f5fa	-0.20699301
23	0xbe9b90ed	-0.30384007
24	0x3ecb4d1d	0.3970727
25	0x3d61819d	0.05505525
26	0xbdf42441	-0.119209774
27	0xbcd44243	-0.025910502
28	0x3ee69aec	0.4504007
29	0x3df3155f	0.118693106
30	0x3d8f20de	0.06988691
31	0x3e43ad4a	0.19109073
32	0x3e3e0f2c	0.18560475
33	0xbdad5cf6	-0.084649965
34	0x3e3d3034	0.1847542
35	0xbdb4e93d	-0.08833549
36	0x3ce4acbf	0.027914403
37	0x3e4ba196	0.19885859
38	0x3df21b9e	0.11821674
39	0xbe3f4623	-0.18679099
40	0xba1db6ee	-0.00060163334
41	0xbc849f76	-0.016189318
42	0x3e90c160	0.28272533
43	0x3ef68b92	0.4815336
44	0x3eaa33ea	0.33242732
45	0xbd3f229f	-0.046663877
46	0x3e273fa3	0.16332869
47	0x3e66fcc6	0.22557363
48	0x3ca5344d	0.02016654
49	0x3cd3e58d	0.025866294
50	0x3e2c8b73	0.1685007
51	0x3e4ce9aa	0.20011011
52	0xbbd6fdfb	-0.0065610385
53	0x3d986727	0.0744155
54	0x3e635140	0.22198963
55	0xbe8aacb8	-0.270849
56	0xbd98116d	-0.07425199
57	0xbe882b4b	-0.2659553
58	0x3d6dd682	0.0580659
59	0x3e137cea	0.1440312
60	0x3c6a2ae9	0.014292457
61	0x3d3966a0	0.045263886
62	0xbe8304fc	-0.2558974
63	0xbea80c7c	-0.32822025
64	0xbe41e69e	-0.1893563
65	0x3e35a401	0.17738344
66	0x3e03faf6	0.12888703
67	0xbd949ddb	-0.07256671
68	0xbe348a8d	-0.17630978
69	0x3e501cfb	0.20323555
70	0xbc89c04d	-0.016815329
71	0xbe09fc31	-0.1347511
72	0x3e29efcd	0.16595383
73	0x3d165050	0.036697686
74	0x3e9a7181	0.30164722
75	0x3d97a672	0.07404794
76	0xbe699e5b	-0.22814314
77	0x3e956234	0.29176486
78	0xbc013b72	-0.007887708
79	0xbeae85a1	-0.34086326
80	0x3e50cadc	0.20389885
81	0x3ec5db36	0.38643807
82	0x3d0ceb04	0.034403816
83	0x3df9ba41	0.12193728
84	0xbe0319ca	-0.12802806
85	0xbe5c1543	-0.21492486
86	0x3b9f04d6	0.0048528714
87	0xbe48012b	-0.19531696
88	0x3dfa5367	0.12222939
89	0xbe231709	-0.15926756
90	0xbd9221cc	-0.071353525
91	0x3d86c703	0.06580927
92	0x3ca5b8d4	0.020229734
93	0xbdec1992	-0.11528315
94	0xbd988528	-0.074472725
95	0x3e0b086f	0.13577436
96	0xbe3d99b1	-0.1851566
97	0xbd1f10fe	-0.038834564
98	0xbde3b73e	-0.11118935
99	0xbec5ffcf	-0.3867173
100	0x3e837662	0.25676256
101	0xbe72f2f8	-0.23725498
102	0x3f0ff9a0	0.5624027
103	0xba191734	-0.00058399444
104	0x3cd92c6f	0.026510445
105	0x3da5b89f	0.08091854
106	0x3994ebb8	0.00028404384
107	0xbd0d926a	-0.03456346
108	0xbe773770	-0.24142241
109	0xbe401741	-0.1875887
110	0x3d631542	0.055440195
111	0x3dacd90f	0.08439838
112	0xbb25fbdb	-0.002532712
113	0xbea56946	-0.3230688
114	0x3d8a1774	0.067427546
115	0x3dbe4f4c	0.092924684
116	0x3d0316bd	0.032004107
117	0xbe303b23	-0.17210059
118	0xbcf058e5	-0.029339263
119	0x3e7be1dc	0.24597877
120	0x3d99cf20	0.07510209
121	0x3eef95e2	0.4679404
122	0x3e190762	0.14944223
123	0x3d18d6cc	0.03731422
124	0x3c48268a	0.01221622
125	0x3df1317c	0.117770165
126	0xbebc3b9b	-0.36764225
127	0xbe9c12bc	-0.30483043
128	0x3e906e7b	0.2820929
129	0x3e89334a	0.26796943
130	0x3d82eb51	0.06392539
131	0x3dbe6ffa	0.092987016
132	0x3dca085b	0.09864875
133	0xbd364f58	-0.04450926
134	0xbdc03e49	-0.0938688
135	0xbec486c5	-0.3838407
136	0x3e380bd2	0.17973259
137	0xbdef2c25	-0.11678342
138	0xbdf5e916	-0.12007348
139	0x3cff4a34	0.031163312
140	0xbdbb03d4	-0.091315895
141	0xbe843b33	-0.25826415
142	0xbe0a3825	-0.1349798
143	0xbe62c684	-0.2214604
144	0xbe50575b	-0.20345823
145	0xbeb29d53	-0.34885654
146	0x3d5d623f	0.054048773
147	0xbd1ee86f	-0.038795885
148	0x3de5137d	0.11185358
149	0xbd1820c8	-0.037140638
150	0xbe667988	-0.22507298
151	0x3d8a11a8	0.06741649
152	0xbc12a405	-0.008950238
153	0xbd9206e6	-0.07130222
154	0x3dccdb92	0.10002817
155	0xbe7d9f18	-0.2476772
156	0xbdb11246	-0.086460635
157	0xbd8e3aaa	-0.06944783
158	0xbe6ca0f4	-0.23108274
159	0x3e9eba02	0.31001288
160	0xbdb363a5	-0.0875924
161	0x3ed924d4	0.4241091
162	0xbe4068bb	-0.18789952
163	0xbde172f6	-0.11008255
164	0x3d933475	0.0718774
165	0xbea14dd7	-0.315047
166	0x3e3b2ba0	0.1827836
167	0xbe230df8	-0.15923297
168	0x3e3c2919	0.18375053
169	0x3edde653	0.43339786
170	0x3dcb2486	0.09919076
171	0x3e811309	0.25209835
172	0xbe4c0497	-0.19923626
173	0x3c14cabe	0.009081541
174	0x3e9cc775	0.30620924
175	0xbda7eba6	-0.08199243
176	0x3d87727b	0.06613632
177	0x3e5f0ba9	0.21781792
178	0x3dbf989d	0.093552805
179	0xbe4c1b27	-0.19932233
180	0xbe571a2b	-0.21006076
181	0x3eca1288	0.39467263
182	0xbcfab436	-0.03060351
183	0xbdfdaebf	-0.12386846
184	0x3dc64675	0.09681407
185	0x3c3faa33	0.0116982935
186	0xbab7ae88	-0.0014013806
187	0x3e47c978	0.19510448
188	0x3c9eb629	0.01937397
189	0x3e15e9ea	0.14640012
190	0x3bcbced7	0.0062197256
191	0x3d4ec1ac	0.05047767
192	0x3e5cea52	0.21573761
193	0x3d9b0dc5	0.07570986
194	0xbdb21354	-0.08695093
195	0xbebb5a92	-0.36592537
196	0x3c026da0	0.007960707
197	0x3db64e97	0.089017086
198	0x3d7a0076	0.061035596
199	0xbe22f3f4	-0.15913373
200	0x3dd05b29	0.101736374
201	0x3dc94a57	0.09828632
202	0xbed498f5	-0.41522947
203	0xbdac817e	-0.08423136
204	0x3ea7fffc	0.32812488
205	0xbdcb44cf	-0.099252336
206	0xbd0192c0	-0.031634092
207	0xbeac7e86	-0.3369028
208	0xbebff4f9	-0.37491587
209	0xbe2dbd3c	-0.16966718
210	0xbe2b94c0	-0.16755962
211	0x3e726fd4	0.23675472
212	0x3d99c343	0.07507946
213	0x3d7eaaea	0.062174715
214	0xbe508dc7	-0.20366584
215	0x3d822053	0.063538216
216	0x3e354c0f	0.17704795
217	0x3d8f00b8	0.06982559
218	0xbcb20f5b	-0.021735838
219	0x3d18c82a	0.037300266
220	0xbd047c6d	-0.032345224
221	0x3e454eca	0.19268337
222	0x3d8aea00	0.06782913
223	0x3e292eb3	0.1652172
224	0xbd0f43fb	-0.03497694
225	0xbe83ee82	-0.25767905
226	0x3ebecca2	0.37265497
227	0x3e18c83a	0.1492013
228	0x3ec68eb3	0.38780746
229	0x3e07ff48	0.13280976
230	0x3e25bc8b	0.16185205
231	0xbcab525f	-0.020913301
232	0xbd469d61	-0.048489932
233	0x3d639a8a	0.0555673
234	0xbe85a91a	-0.26105577
235	0xbd8b9173	-0.068148516
236	0xbe587f1d	-0.2114224
237	0xbec72bc1	-0.3890057
238	0xbec86465	-0.39139095
239	0xbe25d949	-0.16196169
240	0xbbc3284a	-0.0059557306
241	0x3d723863	0.059135806
242	0x3dae1847	0.08500724
243	0xbc173d45	-0.009230916
244	0xbdb25902	-0.08708383
245	0xbca06d0e	-0.019583251
246	0xbea44526	-0.32084006
247	0x3cb027ef	0.021503417
248	0xbdaaa19d	-0.083316065
249	0xbe2b18f6	-0.1670874
250	0xbe587dac	-0.2114169
251	0x3e8e1019	0.27746657
252	0xbc6087b1	-0.013704226
253	0xbd20bf8f	-0.039245185
254	0xbd95c47e	-0.073128685
255	0x3eaf5102	0.34241492

f_percept.percept.0.bias f4 [16]
0	0xba9757fe	-0.001154661
1	0xbb3bbafc	-0.0028645387
2	0x3b84478f	0.0040368508
3	0x3c012203	0.007881644
4	0xbc58ec84	-0.0132399835
5	0x3bb658e4	0.005564796
6	0xbc52fbce	-0.012877418
7	0xbb8c3746	-0.00427905
8	0x3befd1b9	0.007318702
9	0x3bbd42ad	0.0057757706
10	0x3abb80eb	0.0014305388
11	0x3c461133	0.012089062
12	0x3c3bde5a	0.011466587
13	0xbc6c9bd1	-0.014441446
14	0x3c2b8edc	0.010471072
15	0x3b6376f3	0.003470835

f_percept.percept.3.weight f4 [64, 16]
0	0x3d4c61be	0.0498979
1	0x3e16d41a	0.14729348
2	0xbdc88aec	-0.09792122
3	0xbe97126a	-0.29506236
4	0xbe0eed57	-0.13957725
5	0xbce59921	-0.02802712
6	0xbde1df4f	-0.11028921
7	0x3e0912b1	0.13386036
8	0xbcac48be	-0.02103078
9	0x3eaf81e2	0.3427878
10	0x3d14b496	0.036305033
11	0x3cc98f31	0.024604412
12	0x3e00e3cb	0.12586896
13	0x3eeec346	0.46633357
14	0xbde9e87c	-0.11421296
15	0xbde22754	-0.110426575
16	0xbe31fccc	-0.1738159
17	0xbda3d61c	-0.079998225
18	0x3e3020be	0.1719999
19	0x3dfdd036	0.12393229
20	0x3d0c5963	0.034264933
21	0xbd9794d6	-0.07401435
22	0xbe210c08	-0.15727246
23	0x3d8353db	0.064124785
24	0xbe02d6e3	-0.12777285
25	0x3cf5b658	0.029994175
26	0x3dae9a9c	0.08525583
27	0x3d7c73a8	0.061633736
28	0xbe878a4b	-0.26472697
29	0x3e697e6e	0.22802135
30	0x3e35183f	0.1768503
31	0xbd59bd94	-0.05315931
32	0x3e3f07d1	0.18655325
33	0xbbf98794	-0.007615039
34	0xbd696711	-0.056983057
35	0xbd442ea4	-0.047896042
36	0x3d2f19c7	0.042749193
37	0xbe2fdbb2	-0.17173651
38	0xbb000df3	-0.0019539564
39	0xbe37d157	-0.1795095
40	0xbc3e3547	-0.011609382
41	0x3ce1c194	0.027558126
42	0x3e6003af	0.21876405
43	0x3d890a8b	0.06691464
44	0xbc087a79	-0.008329981
45	0xbb944dae	-0.0045258617
46	0x3cd962dd	0.0265364
47	0xbd4dc5e4	-0.05023755
48	0xbd885af8	-0.06657976
49	0x3d124244	0.035707727
50	0xbd88f48a	-0.06687267
51	0xbe676f13	-0.22600965
52	0x3e6f3bf6	0.23362717
53	0x3e29ad40	0.16569996
54	0x3dc44ad0	0.09584582
55	0x3e434052	0.19067505
56	0xbd93bd06	-0.07213788
57	0x3de3d097	0.1112377
58	0x3e486c26	0.19572505
59	0xbcac26cd	-0.021014595
60	0xbe49cd04	-0.19707114
61	0x3d88035a	0.06641264
62	0xbdb35e2c	-0.08758196
63	0xbe069f4f	-0.13146709
64	0xbe2ec75f	-0.17068242
65	0x3d1bdd8b	0.038053077
66	0x3cd8857b	0.026430836
67	0xbe7d19fb	-0.24716942
68	0xbe0390e7	-0.12848245
69	0x3adcaefa	0.0016836815
70	0xbc327ca0	-0.010893971
71	0x3dd60584	0.10450271
72	0xbd979118	-0.07400721
73	0x3e14f66d	0.14547129
74	0xbdb0226f	-0.08600318
75	0x3d7bae52	0.06144554
76	0x3d66891f	0.056283113
77	0xbe9d9774	-0.30779612
78	0xbdb20018	-0.08691424
79	0x3d31f9b6	0.043451034
80	0xbe7df8b0	-0.24801898
81	0x3c209f8d	0.009803665
82	0x3e10a65a	0.14125958
83	0x3d19dc48	0.037563592
84	0x3dbf1dbe	0.09331845
85	0xbb8e7b7b	-0.004348216
86	0xbe08b5f7	-0.13350664
87	0xbd73c78e	-0.059516482
88	0x3d97b2b9	0.074071355
89	0xbe1c9da3	-0.15294509
90	0xbc83a396	-0.016069215
91	0x3ebb324c	0.3656181
92	0x3d833a79	0.06407637
93	0xbd8189cb	-0.0632511
94	0x3e520e7e	0.20513341
95	0x3be13988	0.0068733133
96	0x3cab731e	0.020928916
97	0xbd5cfb2f	-0.053950485
98	0x3e7c89c4	0.24661928
99	0x3d0a6e68	0.033796698
100	0xbe4cba83	-0.19993024
101	0x3db71f81	0.08941556
102	0xbe8ee49f	-0.279088
103	0x3d3d5432	0.046222873
104	0xbe473436	-0.1945351
105	0x3e455ef0	0.19274497
106	0x3dfd0333	0.12354126
107	0xbe5da3ec	-0.21644562
108	0x3e5ac912	0.21365765
109	0xbd12d1f6	-0.035844766
110	0x3d2fab49	0.04288796
111	0x3dcda088	0.100403845
112	0xbe23f0cb	-0.16009824
113	0xbdb40672	-0.08790292
114	0xbc29cbae	-0.010363502
115	0xbe72881d	-0.23684736
116	0xbddc79e8	-0.10765439
117	0x3d643dea	0.05572311
118	0x3e7f0854	0.2490552
119	0xbced26e6	-0.028949212
120	0xbe313a33	-0.17307357
121	0xbe36edf6	-0.17864212
122	0xbd58cdd6	-0.052930675
123	0xbe2a134d	-0.16608925
124	0x3c5886e3	0.013215753
125	0x3e069b71	0.13145234
126	0xbd86bc88	-0.06578928
127	0xbd7c2b95	-0.061565
128	0xbe22867e	-0.15871617
129	0x3d71436c	0.05890219
130	0x3ddea3e4	0.108711034
131	0x3dbe7295	0.092991985
132	0x3cec0d8c	0.028815053
133	0xbdc90d07	-0.09816938
134	0x3e34c640	0.17653751
135	0xbca2a65a	-0.019854713
136	0xbe98d440	-0.29849434
137	0x3de7896f	0.1130551
138	0xbd078fa7	-0.033095982
139	0x3cbe060e	0.023196246
140	0x3e788557	0.24269615
141	0x3c427dc9	0.01187081
142	0x3e24b5cb	0.16084974
143	0xbc68dd1b	-0.014212872
144	0x3c7b9bf7	0.015357009
145	0x3d7551f2	0.059892602
146	0xbe288f98	-0.16461027
147	0xbd6533e0	-0.055957675
148	0x3e5dedb0	0.21672702
149	0x3de212b5	0.11038724
150	0xbdff5a72	-0.12468423
151	0x3d71113a	0.05885432
152	0xbe5c6124	-0.21521431
153	0xbc79e897	-0.015253208
154	0xbe30cfe2	-0.17266801
155	0x3e8d8c93	0.27646312
156	0xbcf00eca	-0.029303927
157	0x3d1ba5e8	0.038000017
158	0xbb0716b0	-0.0020612888
159	0x3d016547	0.031590726
160	0xbdd12fbe	-0.10214184
161	0xbd4fbc1e	-0.050716512
162	0xbe83905e	-0.2569608
163	0xbd9a7e30	-0.075435996
164	0xbda96622	-0.082714334
165	0x3d0429ab	0.0322663
166	0x3cfd008d	0.030884052
167	0x3e8393b1	0.25698617
168	0xbdcaa3f9	-0.098945566
169	0x3b934079	0.0044937697
170	0xbd91204d	-0.07086239
171	0x3d89a6f0	0.06721294
172	0xbe065f99	-0.13122405
173	0xbd81b56a	-0.0633343
174	0x3e217c27	0.15770017
175	0xbe7ff236	-0.2499474
176	0x3d6e3e26	0.058164738
177	0xbdc63301	-0.09677697
178	0xbd03d947	-0.032189634
179	0x3dd97873	0.10618677
180	0xbe844e10	-0.25840807
181	0xbd090843	-0.033455145
182	0x3df4a68e	0.1194583
183	0xbcd32e9d	-0.025779063
184	0xbd31594b	-0.043298047
185	0xbe25886a	-0.16165319
186	0xbdf0e4a7	-0.11762362
187	0xbdfab6bb	-0.12241884
188	0xbe84bf85	-0.25927368
189	0xbcff1a0f	-0.031140355
190	0xbdcefea2	-0.10107161
191	0xbe046ae1	-0.12931396
192	0x3e07f858	0.1327833
193	0xbe167ea9	-0.14696755
194	0x3eaf26fb	0.34209427
195	0xbca72075	-0.020401219
196	0xbd0554b7	-0.032551493
197	0xbe07c686	-0.13259324
198	0xbd0af977	-0.033929314
199	0x3d2a2866	0.041542433
200	0x3da67e16	0.08129518
201	0x3dfd8cb2	0.12380351
202	0xbe5ee0c6	-0.21765432
203	0x3dc7067e	0.09718035
204	0xbde38c02	-0.11110689
205	0xbe13d08e	-0.14435026
206	0x3cd2e2ec	0.02574297
207	0xbdae4e7e	-0.08511065
208	0x3e85c418	0.2612617
209	0x3cb562b6	0.022141796
210	0xbd8e037b	-0.069342576
211	0x3c900f3f	0.017585395
212	0x3da8c88c	0.08241376
213	0xbd0dc6dc	-0.034613475
214	0x3e1fa6c3	0.15590958
215	0x3dd67d2a	0.10473092
216	0xbe91dc38	-0.28488326
217	0x3c35d1ab	0.011097352
218	0x3d534cb7	0.051586833
219	0x3e7cdeaa	0.24694315
220	0x3ca6cda6	0.020361733
221	0x3e03852f	0.12843774
222	0x3d9ee466	0.07758407
223	0x3dbad409	0.09122474
224	0x3e058213	0.130379
225	0x3d9c81de	0.07641958
226	0x3ea84f39	0.32872942
227	0xbec5ceaf	-0.3863425
228	0xbd7a3f5b	-0.061095577
229	0xbdd14937	-0.10219043
230	0x3d09235d	0.03348099
231	0xbe3b2f6d	-0.1827981
232	0x3cebd7b0	0.028789371
233	0x3b2537c5	0.0025210243
234	0xbe27f18f	-0.16400741
235	0x3dbc3f81	0.091918
236	0x3d78c081	0.06073046
237	0xbdb10fcb	-0.086455904
238	0x3e1f59b6	0.15561566
239	0xbd9aca33	-0.07558098
240	0x3dbab169	0.091158696
241	0xbe1ea728	-0.15493453
242	0x3d5eecfb	0.05442522
243	0xbd1f6cfb	-0.03892229
244	0x3e64cf93	0.22344808
245	0x3c8c22cc	0.017106436
246	0xbe645de9	-0.22301449
247	0xbe0ebcdb	-0.1393923
248	0x3e0fb31e	0.14033172
249	0x3d9fecc5	0.07808832
250	0x3c7fb31a	0.015606666
251	0x3e5324f3	0.20619564
252	0xbe132750	-0.14370465
253	0xbcb68009	-0.022277849
254	0x3cf3b39d	0.029748732
255	0xbd076791	-0.033057753

f_percept.percept.3.bias f4 [64]
0	0x3c603f83	0.013687017
1	0x3c24efef	0.01006697
2	0x3ac84cfa	0.001528173
3	0x3ce44e13	0.02786926
4	0x3c94a3c3	0.018144494
5	0x3d20fdff	0.03930473
6	0x3ccd99e1	0.02509779
7	0xbb8f6133	-0.0043756007
8	0x3c4a53de	0.012349097
9	0x3a31ee6e	0.0006787543
10	0x3bf313a1	0.0074181114
11	0x3cf9c869	0.03049107
12	0x3c93c85b	0.018039873
13	0x3c0df0fa	0.00866341
14	0x3c69108e	0.014225138
15	0xba475555	-0.0007603963
16	0x3bc6adc2	0.006063194
17	0x3cf50eb3	0.029914236
18	0x3c349ad4	0.011023242
19	0x3c14d27e	0.009083388
20	0x3c0ea80e	0.00870706
21	0x3c4364d9	0.011925899
22	0x3c58275d	0.013192979
23	0x39c8c06d	0.0003829034
24	0x3c97a33d	0.018510455
25	0x3ca2fe14	0.019896545
26	0x3d035c9c	0.03207074
27	0x3c51d80f	0.01280786
28	0x3cc44d3f	0.023962615
29	0xbc3e83fa	-0.011628145
30	0x3bfeb284	0.0077727456
31	0x3cf23390	0.029565603
32	0x3c965cd9	0.01835482
33	0x3c6b886e	0.014375789
34	0xbc2c3dcf	-0.010512783
35	0xbb7daff6	-0.0038709617
36	0x3c96a7c3	0.018390542
37	0x3b6690e3	0.0035181574
38	0x3d17fe5a	0.037107803
39	0x3bd60255	0.0065310397
40	0x3c09605e	0.008384792
41	0x3ca06e20	0.019583762
42	0xbb4f4d28	-0.0031631682
43	0x3a9ba754	0.0011875429
44	0xbc63e977	-0.013910643
45	0x3c15f422	0.009152444
46	0x3cc5bad6	0.024136942
47	0x3c77617c	0.015098926
48	0x3cbd50bc	0.023109786
49	0x3a874991	0.0010321607
50	0x3cba3395	0.022729674
51	0x3cf95654	0.030436672
52	0x3d25f1b4	0.04051371
53	0x3c031f43	0.008003059
54	0x3b906593	0.00440664
55	0x3c945f33	0.0181118
56	0x3c1c36fc	0.009534594
57	0x3c4c1e89	0.012458452
58	0x3baaf809	0.0052175564
59	0x3c813230	0.015771002
60	0x3c937474	0.017999865
61	0xbb974217	-0.004616033
62	0x3d0c72b8	0.03428909
63	0x3c0d1e00	0.00861311

manager.M_space.weight f4 [64, 64]
0	0x3abe465b	0.0014516817
1	0xbd10dd34	-0.035367206
2	0xbccfed77	-0.025381787
3	0xbc9377eb	-0.018001517
4	0x3e546b64	0.20744091
5	0x3e91ba34	0.28462374
6	0x3dc1c79a	0.09461899
7	0xbdc27145	-0.09494261
8	0xbd1178b5	-0.035515506
9	0x3e156bfd	0.14591976
10	0x3de4542c	0.11148867
11	0xbbe58ab9	-0.0070050624
12	0xb96a9aeb	-0.0002237369
13	0x3b46fc23	0.0030362688
14	0x3d954cc6	0.07290034
15	0x3da46ce4	0.08028582
16	0x39ee0daa	0.00045405078
17	0x3ce0af76	0.027427416
18	0x3c2953bb	0.010334904
19	0x3e0a6832	0.1351631
20	0x3e73d51d	0.23811765
21	0xbd93851e	-0.072031245
22	0x3dacc956	0.08436839
23	0xbce0de0b	-0.027449628
24	0xbd0bf83b	-0.034172278
25	0xbe64842e	-0.22316048
26	0xbd618837	-0.055061545
27	0xbdb263c8	-0.08710438
28	0xbcdafd2b	-0.026732048
29	0x3d395dab	0.045255344
30	0xbd61c289	-0.055117164
31	0xbd8e558a	-0.06949909
32	0xbe48e994	-0.19620353
33	0xbe96926a	-0.2940858
34	0x3d5c41c8	0.05377367
35	0xbe19e805	-0.15029915
36	0xbdc7d637	-0.09757655
37	0xbca67108	-0.02031757
38	0xbeb9196c	-0.36152208
39	0x3dea8b22	0.11452319
40	0xbcb58694	-0.022158898
41	0xbe05bb4f	-0.13059734
42	0x3d8b1915	0.067918934
43	0xbde27cf1	-0.11058987
44	0x3d55cef7	0.05219933
45	0xbc2a8699	-0.010408067
46	0x3e004730	0.12527156
47	0xbe9cde94	-0.30638564
48	0xbe457dc3	-0.19286256
49	0xbda40068	-0.0800789
50	0x3d8eca9c	0.069722384
51	0xbd8747cc	-0.06605491
52	0x3e015f26	0.12633952
53	0x3de3fd88	0.111323416
54	0xbdb4bb01	-0.08824731
55	0x3e005e83	0.12536053
56	0xbc8a9ef4	-0.016921498
57	0x3e01c0b0	0.1267116
58	0xbd4ccae4	-0.04999818
59	0xbd7311c6	-0.059343122
60	0x3cc55782	0.024089579
61	0xbe0e3e32	-0.13890913
62	0x3dff4452	0.12464203
63	0xbe14479e	-0.14480445
64	0x3e0551fc	0.13019556
65	0x3e2b5091	0.16729952
66	0x3e1585d8	0.14601839
67	0xbde19c2c	-0.110161155
68	0xbe0e5b8a	-0.13902107
69	0xbbc04269	-0.0058672917
70	0x3d855e71	0.06512154
71	0x3e73fc99	0.23826827
72	0x3dc31a27	0.095264725
73	0xbd34133e	-0.043963663
74	0xbda73e55	-0.08166186
75	0x3de4fd17	0.111810856
76	0xbd46e16f	-0.048554834
77	0xbc6ff4a1	-0.014645726
78	0x3d23d240	0.039995432
79	0x3d3642d9	0.044497345
80	0x3d5367ed	0.051612783
81	0xbd05d324	-0.032672063
82	0x3df5789f	0.11985897
83	0x3dc7b646	0.09751563
84	0xbd7f068c	-0.062262103
85	0x3db90e44	0.09035924
86	0xbd3d8c44	-0.046276346
87	0x3dc1dcc3	0.09465935
88	0xbe091acd	-0.1338913
89	0x3cdd7697	0.027034087
90	0xbd9b44fc	-0.07581517
91	0x3d79bc99	0.060970876
92	0xbd75f3bf	-0.060046908
93	0xbd863258	-0.06552571
94	0xbdff3992	-0.124621525
95	0x3d644cd8	0.055737346
96	0xbde9eb7f	-0.114218704
97	0x3d3a4da8	0.045484215
98	0xbe047301	-0.12934496
99	0xbe2f326e	-0.17109081
100	0xbd7fe6e4	-0.062476054
101	0xbe2bcd84	-0.16777617
102	0x3e4aea5d	0.19815965
103	0x3e28ea1e	0.16495559
104	0x3db1c1bd	0.08679531
105	0xbd127ecb	-0.03576545
106	0x3e04acfe	0.12956616
107	0x3e234c72	0.1594713
108	0x3e1b57bf	0.15170191
109	0x3e07a826	0.13247737
110	0xbd8f0b95	-0.06984631
111	0x3e0044e9	0.12526287
112	0xbe73f410	-0.23823571
113	0xbd8cfcba	-0.06884141
114	0xbe396ece	-0.18108675
115	0x3d528b58	0.05140242
116	0x3e5615d3	0.20906763
117	0x3e20ceb3	0.1570385
118	0x3dbf5bfb	0.09343716
119	0x3ea36553	0.31913242
120	0xbe358327	-0.17725812
121	0x3e6f2b96	0.2335647
122	0xbe055740	-0.13021564
123	0xbdd42781	-0.10359097
124	0xbd9eb5ad	-0.07749496
125	0x3cad4275	0.021149853
126	0x3dde82bd	0.1086478
127	0x3d7eea5d	0.062235225
128	0xbd1cc79a	-0.038276292
129	0xbdcbecbb	-0.09957262
130	0x3cbbb41d	0.022913033
131	0x3d2ae925	0.04172625
132	0xbdea9900	-0.11454964
133	0xbd6e3c31	-0.05816287
134	0xbe0e5a03	-0.13901524
135	0xbd75c14b	-0.05999879
136	0x3d0eaa6a	0.03483049
137	0xbcfd1192	-0.030892167
138	0xbe17af7b	-0.14813034
139	0xbe2e5dcb	-0.17027967
140	0xbdc4c8f7	-0.096086435
141	0xbe287fb6	-0.16454968
142	0xbe12ea01	-0.14347078
143	0xbc21a82d	-0.009866756
144	0xbddea41d	-0.10871146
145	0xbe14444b	-0.14479177
146	0xbc1cc7be	-0.009569107
147	0x3dfe9b56	0.12431972
148	0x3e45b622	0.1930776
149	0xbd5252fc	-0.05134867
150	0x3cca5f1e	0.024703559
151	0x3de9df86	0.11419587
152	0x3d80ed2b	0.06295236
153	0x3e5f2111	0.21789958
154	0xbe26e5e2	-0.16298631
155	0x3be10d25	0.006868022
156	0xbbd5a7b6	-0.006520237
157	0xbd33497e	-0.04377126
158	0x3dc28453	0.09497895
159	0xbdbad9dd	-0.091235854
160	0x3e088b7f	0.13334464
161	0xbcd74b9c	-0.02628117
162	0x3e183302	0.14863208
163	0xbc6e3aa2	-0.014540346
164	0xbd2a2dc2	-0.041547544
165	0x3e2a1cc7	0.1661254
166	0x3d947c1a	0.07250233
167	0xbbed1db3	-0.0072362064
168	0x3c4d5b0c	0.012533914
169	0xbdec9c57	-0.11553257
170	0x3e7e97c9	0.24862589
171	0x3e8c66a9	0.27422073
172	0xbe1b52ef	-0.15168355
173	0x3c19418c	0.0093540065
174	0xbe2e1d19	-0.17003287
175	0xbcceadf9	-0.025229441
176	0x3da885e4	0.082286626
177	0xbc5b017b	-0.013367052
178	0x3d68629e	0.056734674
179	0xbececf8e	-0.40392727
180	0xbd0673c2	-0.03282524
181	0xbd0731f5	-0.033006627
182	0x3d85875a	0.06519957
183	0x3e0a82cf	0.13526462
184	0x3e3d2069	0.18469395
185	0x3e009ec8	0.1256057
186	0xbcfd3c2f	-0.030912487
187	0xbe746681	-0.23867227
188	0x3ccd5694	0.025065698
189	0xbe465ac2	-0.19370559
190	0x3dd39ba8	0.103324234
191	0xbdc1ba86	-0.09459405
192	0xbdc09bd5	-0.094047226
193	0x3c95a845	0.018268714
194	0x3da9bbb7	0.08287757
195	0xbd58cb88	-0.052928478
196	0x3d51c933	0.05121727
197	0xbe33c7fe	-0.1755676
198	0x3e55065c	0.20803207
199	0xbdf887b1	-0.12135256
200	0xbe069131	-0.13141324
201	0x3d882457	0.06647556
202	0x3e5df287	0.21674548
203	0xbe8e5165	-0.27796474
204	0xbd9d874c	-0.076918215
205	0x3df8a90f	0.1214162
206	0x3d16b748	0.036795884
207	0xbcbe4e95	-0.02323083
208	0xbe1a365d	-0.150598
209	0x3dcf1b3d	0.10112617
210	0x3d6e1c02	0.05813218
211	0xbd08e2f3	-0.03341956
212	0x39572ea6	0.00020521376
213	0xbd5f2847	-0.05448177
214	0xbcfb66f0	-0.030688733
215	0x3d574816	0.05255898
216	0x3d9ff17c	0.07809731
217	0x3e418b7c	0.18900865
218	0xbe5d19ba	-0.21591845
219	0x3d8062f5	0.062688746
220	0xbe6635c1	-0.22481443
221	0x3dff05f5	0.12452308
222	0xbe1b2e65	-0.15154417
223	0x3da925a5	0.08259133
224	0xbc69c96b	-0.014269213
225	0xbe0ef452	-0.13960388
226	0x3e0d963f	0.13826846
227	0x3dbaa5f9	0.09113688
228	0x3dcf4b2e	0.10121761
229	0xbe4949b3	-0.1965702
230	0x3ba95480	0.005167544
231	0xbdd10b26	-0.102072045
232	0x3d54047b	0.051762085
233	0xbe128d48	-0.14311707
234	0xbd19b3fa	-0.037525155
235	0x3defc015	0.117065586
236	0x3e947f10	0.2900319
237	0xbcafb68f	-0.021449355
238	0xbc342f82	-0.010997655
239	0xbdfb69ee	-0.12276064
240	0x3d835b92	0.0641395
241	0x3eb38dcc	0.3506912
242	0xbcbb0958	-0.022831604
243	0xbc602e39	-0.013682895
244	0xbc0faec5	-0.008769696
245	0x3c192cf0	0.009349093
246	0x3e0893cc	0.1333763
247	0xbc628b70	-0.01382719
248	0xbe03e315	-0.12879594
249	0xbc564d67	-0.013079978
250	0xbb66e6b1	-0.0035232718
251	0xbd219dae	-0.039457016
252	0xbd9f75be	-0.077861294
253	0xbcffd245	-0.031228194
254	0x3b634a88	0.0034681875
255	0x3e95827e	0.2920112

manager.M_space.bias f4 [64]
0	0x3c5b952b	0.013402264
1	0xbbad92ba	-0.005297032
2	0x3c1557d8	0.009115182
3	0x3c1eef22	0.009700568
4	0xbbff6e9f	-0.0077951695
5	0x3c7d6c18	0.015467666
6	0x3c1750af	0.009235545
7	0x3c89be44	0.016814359
8	0x3c36cb9b	0.011156942
9	0xbb17d565	-0.0023167965
10	0x3bcd08b2	0.00625714
11	0xbb1f4349	-0.002430158
12	0x3b9b7ef4	0.0047453586
13	0x3aceb280	0.001576975
14	0x3bd372c2	0.006452889
15	0x3b9f4d30	0.0048614964
16	0xbc492178	-0.012276046
17	0xbba763c1	-0.005108327
18	0x3baf5990	0.005351253
19	0xbbd1ff39	-0.0064085987
20	0xb990a0c9	-0.00027585615
21	0x3c7bdb07	0.015372044
22	0x3b1495ca	0.002267229
23	0x3c9f5c35	0.019453147
24	0xb9418e34	-0.00018458889
25	0x3cb3691e	0.02190071
26	0x3bae2a20	0.0053150803
27	0x39624c55	0.00021581475
28	0x3b1a3aaf	0.0023533513
29	0x3bf08de8	0.0073411353
30	0xbc007e10	-0.007842556
31	0x39cc5521	0.00038973338
32	0x3c9bcb46	0.019017827
33	0x3c2e3cf8	0.010634653
34	0xbb9f4c58	-0.004861396
35	0xbb5cffa6	-0.0033721714
36	0xbc1846fe	-0.00929427
37	0x3b92e5e4	0.0044829715
38	0xba7d82b9	-0.0009670663
39	0x3b73fa05	0.003722788
40	0xbc9a931d	-0.018868977
41	0x39fb476c	0.00047927664
42	0xbb932f19	-0.0044916985
43	0x3c16f18f	0.0092128655
44	0xbba4551f	-0.00501503
45	0x3a3d527d	0.00072220695
46	0xbbe8c329	-0.007103343
47	0x3a9c97d0	0.0011947099
48	0x3bd4969a	0.0064876797
49	0x3b86a818	0.004109394
50	0x3b1a0370	0.0023500584
51	0x3ca3dc2e	0.02000245
52	0x3c49f227	0.0123258
53	0xbbc28ce3	-0.005937205
54	0x3b8adcb2	0.0042377347
55	0xba99f454	-0.0011745789
56	0x3ba02b05	0.004887941
57	0x3c0e7ab6	0.008696249
58	0x3cb943b9	0.0226153
59	0xbbb902bd	-0.0056460784
60	0xbc066248	-0.008202143
61	0x3b8b237b	0.004246173
62	0xbc47224d	-0.012154174
63	0xbc99ffa9	-0.018798666

manager.M_goals.weight f4 [64, 128]
0	0xbd6c8fdf	-0.057754394
1	0x38d0a1a7	9.948323e-05
2	0xbdf82d97	-0.121180706
3	0xbab1b775	-0.0013558703
4	0xbdc3e6b4	-0.095654875
5	0xbd68fc6a	-0.056881346
6	0x3e14c587	0.14528476
7	0xbc0cdcef	-0.008597597
8	0x3dd94a11	0.1060983
9	0xbba19792	-0.0049313987
10	0xbd8679e1	-0.06566215
11	0x3da10a45	0.07863287
12	0x3e097825	0.13424738
13	0xbba51eef	-0.005039088
14	0x3dc0f8a8	0.094224274
15	0xbc3c84e5	-0.011506294
16	0x3c51c6d5	0.012803753
17	0xbe227b97	-0.15867458
18	0x3df5bd3d	0.11998985
19	0xbde439aa	-0.11143811
20	0xbd9f8b32	-0.07790221
21	0xbceadd57	-0.028669996
22	0x3d988666	0.074475095
23	0x3d8b54f0	0.0680331
24	0x3e038f2b	0.12847583
25	0xbd7e5709	-0.062094722
26	0x3ad54914	0.0016272389
27	0x3d4c0970	0.049813688
28	0x3e11142e	0.14167854
29	0x3e73650e	0.23769018
30	0x3d13fa1c	0.036127195
31	0xbe2b5763	-0.16732554
32	0xbe04fbcf	-0.12986682
33	0x3d822836	0.06355326
34	0xbd8767b8	-0.0661158
35	0xbde653b7	-0.11246436
36	0x3d8f6548	0.0700174
37	0xbccb50a0	-0.024818718
38	0x3c616d09	0.013758906
39	0xbe0638ee	-0.13107654
40	0xbd4f60ae	-0.05062931
41	0xbcf5f5e4	-0.030024476
42	0x3e592bbb	0.21208088
43	0x3d725119	0.059159372
44	0xbd36519c	-0.044511423
45	0x3d3da2e3	0.04629792
46	0xbe2a383f	-0.16623019
47	0xbd0d7982	-0.034539707
48	0xbdf50f44	-0.11965802
49	0x3ca657d3	0.02030555
50	0x3c82a4c7	0.015947713
51	0xbd80e0b6	-0.0629286
52	0xbd947054	-0.072479874
53	0xbd3640d8	-0.044495434
54	0xbdb54c30	-0.08852422
55	0xbd495abe	-0.049158804
56	0x3e3cd33a	0.18439952
57	0xbb7c7f7e	-0.003852814
58	0xbc975c92	-0.018476758
59	0x3c589026	0.013217961
60	0xbde8809a	-0.11352654
61	0x3c98fe94	0.01867608
62	0xbd8c7606	-0.06858449
63	0x3cb25cd7	0.021772785
64	0xbd8dfc9f	-0.06932949
65	0xbdd2926c	-0.10281834
66	0xbdbcead5	-0.09224478
67	0x3da93587	0.08262163
68	0x3e2bbd25	0.16771372
69	0x3e1dfc2f	0.15428232
70	0x3e439386	0.19099244
71	0x3d06cc89	0.032909904
72	0x3dd4a3aa	0.10382779
73	0xbc190b9a	-0.009341145
74	0x3b58106f	0.003296878
75	0xbdf8bf9d	-0.12145922
76	0x3c66fe64	0.014098737
77	0x3db27585	0.08713821
78	0x3d9311cf	0.07181131
79	0xbd108948	-0.03528717
80	0x3c9d8f9c	0.019233517
81	0xbdb57fca	-0.088622645
82	0x3da54cd1	0.08071292
83	0x3d86b35e	0.0657718
84	0xbc52d072	-0.01286708
85	0x3da7e69b	0.081982814
86	0xbd80359d	-0.06260226
87	0xbd14bc90	-0.03631264
88	0xbcdcce06	-0.026953708
89	0xbd380c45	-0.044933576
90	0x3dca427e	0.09875964
91	0xbbdf0353	-0.006805816
92	0x3d7c6997	0.061624136
93	0x3e16dc61	0.14732505
94	0xbdd0cc01	-0.10195161
95	0x3c531d09	0.0128853405
96	0xbb0330e8	-0.0020018164
97	0xbc407424	-0.01174644
98	0xbdd692c8	-0.10477215
99	0x3e2adc61	0.1668563
100	0x3d10b4c8	0.035328656
101	0x3cb78a2e	0.022404756
102	0xbca996c1	-0.020701768
103	0xbd05728b	-0.03257994
104	0xbda48ac9	-0.08034284
105	0x3d36c7f9	0.044624303
106	0xbd0b1d94	-0.033963755
107	0xbdaddbef	-0.08489215
108	0xbd91b810	-0.07115185
109	0x3b9165f1	0.004437201
110	0x3d2dd039	0.042434905
111	0xbe0b1896	-0.13583598
112	0x3be2c566	0.0069205044
113	0xbd876f05	-0.06612972
114	0x3daab061	0.08334423
115	0x3c89856c	0.016787253
116	0xbe68d9ea	-0.22739378
117	0x3d52adb9	0.051435206
118	0x3dc63c7e	0.09679507
119	0xbd6b72a8	-0.05748239
120	0xbda634e8	-0.0811556
121	0xbd8758b1	-0.066087134
122	0x3dc5f204	0.096653014
123	0xbbb27e24	-0.005447166
124	0x3d3d88f2	0.04627318
125	0x3e24a970	0.1608026
126	0xbd383960	-0.044976592
127	0xbdc77da7	-0.09740763
128	0xbd06ca5d	-0.032907832
129	0xbe089ecc	-0.13341826
130	0xbcf63b1f	-0.030057488
131	0xbd88e1c1	-0.06683684
132	0x3cd10522	0.025515143
133	0xbdc3ab06	-0.095541045
134	0x3e05b191	0.13056017
135	0xbe5f761f	-0.21822403
136	0x3d80b9b5	0.06285421
137	0xbcba7e12	-0.022765193
138	0xbe103e51	-0.14086272
139	0x3e096516	0.13417467
140	0x3d12cbc2	0.03583885
141	0xbb81b056	-0.0039577885
142	0xbccb5108	-0.024818912
143	0x3c9cadd3	0.019125855
144	0xbd0b282d	-0.03397386
145	0xbc22ee7d	-0.009944555
146	0x3c61d1fa	0.0137829725
147	0x3db75b9f	0.08953022
148	0xbbfa8e3a	-0.0076463493
149	0x3d7c62fd	0.06161784
150	0xbce4a4e1	-0.027910652
151	0xbcb67da4	-0.022276707
152	0xbd7af5e4	-0.061269656
153	0x3d19b234	0.037523463
154	0x3ca2b572	0.01986191
155	0xbd820d1f	-0.06350159
156	0x3dca013b	0.09863516
157	0xbd69fa94	-0.057123736
158	0xbd0e1aa9	-0.034693394
159	0x3de28f35	0.11062471
160	0xbc6d8f65	-0.01449952
161	0x3d632770	0.055457532
162	0x3d137094	0.035996035
163	0xbe086b74	-0.1332224
164	0xbd45f8c6	-0.048332952
165	0xbd8bdc50	-0.06829131
166	0xbd16ed4f	-0.03684741
167	0x3deed858	0.11662358
168	0x3db374f9	0.08762545
169	0x3cbd2206	0.023087513
170	0x3de7a156	0.11310069
171	0x3d521661	0.051290873
172	0x3deedbb3	0.11662998
173	0x3cb08a58	0.021550342
174	0x3d76c271	0.060244028
175	0xbd4e6b42	-0.050395258
176	0x3d867685	0.065655746
177	0x3d5d7d6f	0.0540747
178	0xbc8d6e3b	-0.017264476
179	0x3d686e17	0.056745615
180	0x3d493418	0.049121946
181	0xbdad1693	-0.08451571
182	0x3db2966c	0.08720097
183	0x3aff7738	0.0019490486
184	0xbe0aaff2	-0.1354368
185	0x3c7dc818	0.015489601
186	0xbd22aeeb	-0.039717596
187	0xbcdcfc61	-0.026975812
188	0xbb1e01c3	-0.0024109937
189	0x3e0525c6	0.1300269
190	0xbd5c9a2c	-0.053857967
191	0xbda405f2	-0.080089465
192	0x3e10a7d4	0.14126521
193	0x3cc1cb21	0.02365643
194	0x3c982bf5	0.018575648
195	0xbc5fb8a2	-0.01365486
196	0xbdf1e3e4	-0.11811045
197	0x3d55d567	0.05220547
198	0x3e0b2085	0.13586624
199	0x3de7cf3f	0.11318826
200	0xbbaf93a8	-0.005358178
201	0xbd4692b2	-0.048479743
202	0x3d90b978	0.07066625
203	0xbe11365d	-0.14180894
204	0xbce143b1	-0.027498098
205	0x3defb5b9	0.11704583
206	0xbcab8306	-0.0209365
207	0xbdc9f0ac	-0.09860358
208	0xbde9e7a7	-0.11421137
209	0x3e180298	0.1484474
210	0x3d300ce6	0.04298105
211	0xbe169245	-0.14704235
212	0x3d8f4c88	0.06997019
213	0x3e14422b	0.14478366
214	0x3d0d3216	0.034471594
215	0x3dbd2837	0.09236186
216	0x3e2531a0	0.16132212
217	0xbdbeed87	-0.093226485
218	0x3c7600e7	0.015014864
219	0x3de5e826	0.112259194
220	0x3ba1f33e	0.004942327
221	0x3e1335e6	0.1437603
222	0xbd87d76a	-0.06632884
223	0xbdc3e4a9	-0.09565098
224	0x3dc14ef6	0.09438889
225	0x3d9f81a5	0.077883996
226	0x3deee3b3	0.11664524
227	0x3c82d159	0.015968965
228	0x3d315c99	0.0433012
229	0x3def5889	0.116868086
230	0xbd4cdf7a	-0.05001781
231	0x3cb46c44	0.022024281
232	0x3dd04fac	0.10171446
233	0x3ddbd6db	0.1073434
234	0xbd896f98	-0.06710738
235	0xbd2d342c	-0.042286083
236	0x3e806c38	0.25082564
237	0xbd87f7aa	-0.06639035
238	0xbd9c9105	-0.07644848
239	0xbdd5d06f	-0.10440146
240	0x3e0015b7	0.12508284
241	0xbe0da337	-0.13831793
242	0x3cabee16	0.020987552
243	0xbdf731fc	-0.12070081
244	0xbc13ffdd	-0.0090331705
245	0x3c7e5829	0.015523949
246	0xbd43be4c	-0.047788903
247	0x3e43dfa0	0.19128275
248	0x3e3026e5	0.17202337
249	0xbe184163	-0.14868693
250	0xbda60025	-0.08105496
251	0xbd2fee18	-0.042951673
252	0x3deaf503	0.114725135
253	0xbd404961	-0.04694498
254	0x3d007418	0.031360716
255	0xbe24113e	-0.16022202

manager.M_goals.bias f4 [64]
0	0x3b1d6987	0.0024019198
1	0x3c3c691a	0.011499668
2	0xbb523dfa	-0.0032080398
3	0xbb1faffe	-0.0024366374
4	0x3c8996b5	0.016795496
5	0x3c25b3f8	0.010113709
6	0x399d6f4c	0.00030028296
7	0xbbd5ea65	-0.006528186
8	0xbb10e8cd	-0.0022111416
9	0xbbfbd3db	-0.0076851672
10	0xbbcf9861	-0.0063353037
11	0xbbcd9a55	-0.0062745013
12	0xbbd93c42	-0.0066294977
13	0xba6ea09b	-0.00091029116
14	0x3bb927ee	0.005650512
15	0x3cb05e64	0.021529384
16	0x3c3b70e3	0.0114404885
17	0x3b867f42	0.004104526
18	0xbc149a9b	-0.009070064
19	0xbb9e2fdf	-0.004827484
20	0xbc11b53d	-0.008893308
21	0xbb9d60f2	-0.0048028165
22	0x3b7f49c0	0.003895387
23	0xb92fe90b	-0.00016776116
24	0x3b9a9459	0.0047173914
25	0x3bc3078a	0.0059518265
26	0x3c85ae80	0.01631856
27	0xbc005352	-0.007832365
28	0x3c4fc4aa	0.012681166
29	0xbc233005	-0.009960179
30	0x3a2a4ebc	0.00064967177
31	0xbc009de2	-0.007850142
32	0xbb0adb9c	-0.0021188026
33	0x3bf44702	0.007454754
34	0x3c8a28c9	0.016865151
35	0x3b8be449	0.004269157
36	0x3b5e7896	0.0033946387
37	0x3bfa9987	0.0076476964
38	0x3b5580ab	0.0032577913
39	0x3ca32ff3	0.019920325
40	0xbb046ef7	-0.0020207742
41	0x3ba68391	0.005081602
42	0xb90734f8	-0.00012894336
43	0x38aff803	8.390846e-05
44	0xbb64c824	-0.0034909332
45	0x3afbfce5	0.0019225149
46	0xbc157e8b	-0.0091244085
47	0x3c57f34a	0.013180563
48	0xbb203a00	-0.0024448633
49	0x3806834c	3.207037e-05
50	0xbb9e99c0	-0.004840106
51	0xbc338e46	-0.010959214
52	0xbafca0a5	-0.001927395
53	0xbbc66475	-0.006054456
54	0xbbb011ab	-0.0053732
55	0x3c68529e	0.014179854
56	0x3b5f2418	0.0034048613
57	0xbadfc27a	-0.0017071508
58	0x395def6f	0.00021165398
59	0xbbb5e37d	-0.0055508004
60	0xbbb1bc87	-0.0054240855
61	0xbc42c1bf	-0.011887013
62	0xbae4d258	-0.0017457707
63	0xbc810e59	-0.015753912

manager.M_value.weight f4 [1, 64]
0	0xbcbe2538	-0.023211107
1	0xbda0243c	-0.07819411
2	0xbd83d035	-0.06436197
3	0xbcfce949	-0.030872958
4	0x3d7bad6e	0.061444692
5	0xbea5a174	-0.3234974
6	0xbd6412d1	-0.055682007
7	0x3c94ffac	0.01818832
8	0x3da15383	0.07877257
9	0x3de521e1	0.111881025
10	0x3dcdece5	0.1005495
11	0xbcb0560a	-0.021525402
12	0xbcde0be7	-0.027105285
13	0xbea80243	-0.32814226
14	0xbe2ac67f	-0.16677283
15	0x3cb64e35	0.022254089
16	0xbd94baf5	-0.07262222
17	0xbe05f51c	-0.13081783
18	0x3d5a1c5e	0.05324971
19	0xbe2072f1	-0.15668847
20	0xbc37fab1	-0.011229203
21	0xbd6033c8	-0.054736882
22	0x3d21aa49	0.039469037
23	0xbe39c592	-0.18141773
24	0xbe7287d8	-0.23684633
25	0x3ca2c003	0.019866949
26	0xbde60220	-0.11230874
27	0x3d88681c	0.06660482
28	0x3e446d0d	0.19182225
29	0x3e0b35dc	0.13594764
30	0xbd439fc5	-0.04775979
31	0xbca85b3f	-0.020551322
32	0xbc92d07c	-0.017921679
33	0xbcd02708	-0.025409237
34	0xbd2cd5e6	-0.042196177
35	0xbd25a890	-0.040443957
36	0xbe4370a2	-0.19085935
37	0x3e0725dc	0.13198036
38	0x3e224148	0.15845215
39	0xbc199b06	-0.009375339
40	0xbdb0b427	-0.08628111
41	0xbeb8e339	-0.36110857
42	0x3e09bb79	0.13450421
43	0xbd49023d	-0.0490744
44	0x3e7570d2	0.23968819
45	0xbd47349e	-0.048634164
46	0xbe121d92	-0.14269093
47	0xbd9d6980	-0.07686138
48	0x3de51a2d	0.11186633
49	0x3ea82a18	0.32844615
50	0x3e5e4a10	0.2170794
51	0x3e328fdb	0.17437689
52	0xbb1ae481	-0.0023634734
53	0x3d7f87f4	0.062385514
54	0x3d9cc8f2	0.07655515
55	0xbd59c9b4	-0.053170875
56	0x3d232aa1	0.039835576
57	0x3c3414fb	0.01099133
58	0xbd212dd6	-0.039350353
59	0xbd853717	-0.06504648
60	0x3df3f36c	0.119116634
61	0x3b21ddd6	0.0024698875
62	0x3dda56cd	0.10661087
63	0xbc923f56	-0.017852467

worker.f_stateW.0.weight f4 [128, 64]
0	0x3cf2c49b	0.029634764
1	0x3e290a19	0.16507758
2	0x3c91a90c	0.017780803
3	0xbd65f293	-0.05613954
4	0x3e607b8c	0.2192213
5	0x3de1849b	0.110116206
6	0x3d86b1bf	0.06576871
7	0xbc958ecb	-0.018256566
8	0xbce2b0bd	-0.027672166
9	0xbe307f1a	-0.17235985
10	0x3dbf1e44	0.093319446
11	0x3d0fbc48	0.03509167
12	0x3d5393a4	0.051654473
13	0xbd050195	-0.032472212
14	0x3d352846	0.04422786
15	0xbda8a06c	-0.08233723
16	0xbb80d740	-0.00393191
17	0x3dc9b399	0.09848709
18	0xbd7c4ec4	-0.061598554
19	0x3c6d3285	0.014477377
20	0xbd1f9f46	-0.038970254
21	0x3cb2e3cf	0.021837143
22	0xbd45ad28	-0.048260838
23	0xbd702632	-0.058630176
24	0x3da6cf5f	0.08145022
25	0x3e3f34db	0.18672507
26	0x3c38150c	0.011235487
27	0xbcacaea6	-0.021079373
28	0xbe01efcd	-0.12689133
29	0x3d861ae2	0.06548096
30	0x3e118acb	0.14213102
31	0x3d5b132f	0.05348509
32	0x3de39ad5	0.11113516
33	0xbd44f436	-0.04808446
34	0x37fa8ed9	2.9868841e-05
35	0x3e069439	0.1314248
36	0x3d03cc02	0.03217698
37	0x3c0497f3	0.008092868
38	0x3d9dcf22	0.07705523
39	0x3d1802cb	0.03711204
40	0xbd736d3e	-0.059430353
41	0xbc0195b8	-0.007909231
42	0xbc638195	-0.013885875
43	0x3e02bcb2	0.12767294
44	0x3bd49b08	0.0064882077
45	0x3dcddbc5	0.10051683
46	0xbd11b744	-0.035575166
47	0x3d97cc1e	0.07411979
48	0xbb48593d	-0.0030570768
49	0xbe64bfd8	-0.22338808
50	0xbe18a082	-0.14904979
51	0x3cbe3800	0.023220062
52	0x3cb59d67	0.022169782
53	0x3c935379	0.017984139
54	0xbddbb291	-0.10727418
55	0x3ca56877	0.020191414
56	0xbca6d5ca	-0.020365614
57	0xbc0fcfe7	-0.008777595
58	0x3de98262	0.11401822
59	0xbd87b844	-0.06626943
60	0xbda41670	-0.08012092
61	0x3e02cd01	0.12773515
62	0xbdadbb7f	-0.08483028
63	0x3e03a3fe	0.12855527
64	0x3d843898	0.06456107
65	0x3d0cee2a	0.03440682
66	0xbdb194b0	-0.08670938
67	0x3c923747	0.017848624
68	0xbd345e98	-0.044035524
69	0xbdcbf3d3	-0.09958615
70	0xbd8fd1d1	-0.07022441
71	0xbdbef5f7	-0.09324258
72	0x3d0b6f89	0.034041915
73	0xbc93d1ef	-0.01804444
74	0x3d87f7ab	0.06639036
75	0x3d8fa1ad	0.07013259
76	0xbd094dc0	-0.033521414
77	0x3de6df87	0.11273103
78	0x3df79b9a	0.120902255
79	0xbdbb6efb	-0.09152027
80	0x3d0d54e9	0.034504805
81	0x3dab2979	0.0835752
82	0x3dfcc9c1	0.12343169
83	0xbe0a9239	-0.13532342
84	0xbc8ded4e	-0.01732507
85	0x3e207c39	0.15672387
86	0x3bd2fe38	0.0064389966
87	0x3de17478	0.11008543
88	0x3dbb606e	0.09149252
89	0x3dda99fe	0.10673903
90	0x3d2871d3	0.041124176
91	0x3d675686	0.056479
92	0xbd10ead1	-0.03538019
93	0x3b8f58b0	0.004374586
94	0xbd544c04	-0.051830307
95	0x3e04fce7	0.129871
96	0x3cfecbcc	0.031103037
97	0xbd2158ae	-0.039391212
98	0xbcf741dc	-0.030182771
99	0x3cfcc10d	0.030853773
100	0xbddac4f7	-0.10682099
101	0x3d20c615	0.039251406
102	0x3d2e0d87	0.04249337
103	0x3d552e3a	0.05204604
104	0xbd947deb	-0.072505794
105	0x3ca4a200	0.020096779
106	0xbe0f040c	-0.13966388
107	0xbd7f52c5	-0.062334795
108	0x3dcece05	0.10097889
109	0x3df3e5e1	0.1190908
110	0x3d856829	0.065140076
111	0x3cfc0a64	0.030766673
112	0xbe73bbd5	-0.23802121
113	0xbd37f196	-0.04490813
114	0xbdc0c3b3	-0.09412327
115	0x3adf2f8d	0.0017027721
116	0x3e0ebbe2	0.13938859
117	0xbd1b9487	-0.037983444
118	0xbd8654eb	-0.065591656
119	0x3a8173c4	0.000987642
120	0xbe1c9934	-0.15292817
121	0xbb82abb2	-0.003987753
122	0x3d875bb1	0.066092856
123	0x3cd67586	0.026179086
124	0xbc8e2769	-0.017352777
125	0xbd39bece	-0.04534798
126	0x3d106ac9	0.03525809
127	0x3d6a9ebb	0.057280283
128	0xbdd8487a	-0.10560699
129	0xbd17e27b	-0.037081223
130	0x3c00d8dc	0.007864203
131	0xbded283b	-0.11579939
132	0x3dd7dab8	0.10539764
133	0x3dccd878	0.10002226
134	0xbcfb0f35	-0.0306469
135	0x3d489303	0.048968326
136	0xbaa23c8b	-0.0012377662
137	0x3e2bbffd	0.16772456
138	0xbdf13c1a	-0.117790416
139	0x3e35aadb	0.17740957
140	0x3d650433	0.055912208
141	0x3d921484	0.07132819
142	0xbca2a5dc	-0.019854479
143	0xbe132f3e	-0.1437349
144	0x3d8e2927	0.06941443
145	0xbe374f85	-0.17901428
146	0x3df18d40	0.117945194
147	0x3d1b209d	0.0378729
148	0x3da787d3	0.08180203
149	0x3da74c03	0.08168795
150	0xbe0923cc	-0.13392562
151	0x3e5f3604	0.21797949
152	0xbd094339	-0.033511374
153	0x3d4ee24c	0.050508782
154	0xbe1e0a5e	-0.15433642
155	0x3d947004	0.07247928
156	0xbd6e62bf	-0.05819964
157	0x3b2c8fec	0.0026330901
158	0x3d4e6783	0.050391685
159	0xbc6381a9	-0.013885894
160	0xbd4155d6	-0.047201
161	0x3d9c9af4	0.076467425
162	0xbd24401e	-0.04010021
163	0x3df2bf37	0.118528776
164	0xbd188b44	-0.03724219
165	0x3e331b8e	0.1749098
166	0x3c8c2033	0.017105198
167	0xbdac9f16	-0.08428781
168	0x3cb4acb0	0.022055
169	0xbd05bd7b	-0.032651406
170	0xbc3132cd	-0.0108153345
171	0x3bf5ad32	0.007497453
172	0xbd808e0f	-0.062770955
173	0x3ddf9f76	0.10919087
174	0xbe2a3680	-0.16622353
175	0x3d8b5bf8	0.06804651
176	0x3e335b32	0.17515257
177	0x3d60f1cf	0.054918107
178	0x3d609d9b	0.054837804
179	0x3d92a4d6	0.07160346
180	0xbd1d353a	-0.03838084
181	0xbd207f13	-0.039183687
182	0xbdf65165	-0.120272435
183	0xbe050554	-0.12990314
184	0x3cd8675a	0.02641647
185	0xbd4f52c4	-0.05061604
186	0x3d0f5ecd	0.03500252
187	0x3d332740	0.043738604
188	0x3e0c1805	0.13681038
189	0xbddfc863	-0.109268926
190	0x3d2bd48c	0.041950747
191	0x3e182d1a	0.14860955
192	0x3d96c456	0.07361667
193	0xbccc6436	-0.024950128
194	0x3d503b00	0.050837517
195	0xbc9c5bb0	-0.019086689
196	0x3d9a04ef	0.07520472
197	0x3db9a69a	0.0906498
198	0x3d4ce0e3	0.050019156
199	0x3e47d518	0.19514883
200	0x3dd8c4f3	0.1058444
201	0xbdb8baa8	-0.09019977
202	0x3ddd3684	0.10801414
203	0x3cbecf4b	0.023292204
204	0x3dffc592	0.124888554
205	0x3d305154	0.04304631
206	0x3ded3aa3	0.1158345
207	0x3e0d6047	0.13806258
208	0x3e25091b	0.16116755
209	0x3c74b623	0.014936003
210	0xbd977610	-0.073955655
211	0xbcc00f50	-0.023444802
212	0x3d5ac94b	0.053414624
213	0xbb67cd5b	-0.0035370204
214	0xbe4fd8f5	-0.20297606
215	0xba011093	-0.0004923429
216	0x3e0985f8	0.13430011
217	0xbe4abfbf	-0.19799708
218	0x3e1a070f	0.15041755
219	0x3e0915fc	0.13387293
220	0xbd9cc49b	-0.07654687
221	0x3ce8fff1	0.028442355
222	0x3da3674d	0.079786874
223	0xbdf560b5	-0.11981336
224	0x3e23ddc6	0.16002569
225	0xbe29fdff	-0.16600798
226	0xbd5a266a	-0.05325929
227	0xbba7bd36	-0.0051189912
228	0x3e0a12f4	0.13483793
229	0xbba78d58	-0.005113285
230	0xbe18990c	-0.14902133
231	0x3dc69328	0.096960366
232	0x3e0e1085	0.13873489
233	0xbce02369	-0.027360635
234	0x3d28dc62	0.0412258
235	0xbd14a903	-0.036293995
236	0xbd55d4d0	-0.052204907
237	0x3ddd11a6	0.10794382
238	0x3c8dfa73	0.017331338
239	0x3c97b85a	0.018520523
240	0x3d784628	0.06061378
241	0x3db00b53	0.0859591
242	0xbd1ad2f4	-0.037798837
243	0xbdc517b9	-0.09623665
244	0xbd85f352	-0.0654055
245	0xbc4b18c3	-0.01239604
246	0x3dcff5ed	0.101543285
247	0x3ce90160	0.028443038
248	0xbdb28770	-0.08717239
249	0x3d147ebb	0.036253672
250	0xbe1920c3	-0.14953904
251	0x3e58fb83	0.21189694
252	0x3c4c0ae8	0.012453772
253	0xbde59294	-0.11209598
254	0x3d2fee81	0.042952064
255	0xbdd1ca08	-0.102436125

worker.f_stateW.0.bias f4 [128]
0	0x3c92402c	0.017852865
1	0x3b6d5466	0.0036213635
2	0x3c48d0bf	0.0122568
3	0x3c972b50	0.01845327
4	0x3c323532	0.010876941
5	0x3c0722a4	0.008248005
6	0x3affaa46	0.0019505701
7	0x3bb61cc3	0.005557628
8	0x3c106c6b	0.008814911
9	0x3c237b67	0.009978152
10	0x3c568442	0.013093056
11	0x3c4b5bd4	0.01241203
12	0xbc00c794	-0.007860083
13	0xbc02575c	-0.007955398
14	0x3a958f05	0.0011410421
15	0x3c89130b	0.016732713
16	0x3bf124c6	0.00735912
17	0x3c9d0e45	0.019171843
18	0xbc42e73d	-0.011895952
19	0xbb289bf5	-0.0025727723
20	0xbc01ee5e	-0.007930366
21	0x3886d352	6.4289794e-05
22	0xbc86b02f	-0.016441433
23	0xbba42675	-0.0050094672
24	0x3c414992	0.011797326
25	0x3ca27430	0.019830793
26	0x3c36e9bf	0.011164128
27	0xbb0534f8	-0.0020325761
28	0x3c9f68d3	0.019459164
29	0xbb579cde	-0.0032899897
30	0x3b5b3a04	0.0033451328
31	0xbc2f421f	-0.010696917
32	0x3c1d5887	0.009603626
33	0x3c798957	0.015230498
34	0x3c01a178	0.007912032
35	0x3b7fe5d9	0.0039046912
36	0x3b94b8ab	0.0045386157
37	0x3bb4428f	0.0055010985
38	0x3c533e8e	0.012893332
39	0x3ca35cb8	0.019941673
40	0x3c3199d4	0.010839898
41	0x3c84995b	0.016186407
42	0x398b8c23	0.00026616556
43	0x3c087517	0.008328698
44	0x3c9809c6	0.018559348
45	0x3c9fcd92	0.019507203
46	0x3ccab1f3	0.024743056
47	0xbb60898f	-0.0034261679
48	0x3c1ecfc5	0.009693091
49	0x3c02e014	0.007987995
50	0xbbd0d52d	-0.006373069
51	0x3c63382f	0.013868376
52	0xba414d17	-0.0007373853
53	0x3b39d9cb	0.0028358574
54	0x3cb4c02c	0.022064291
55	0x3c2c46f6	0.010514965
56	0xbba47a3a	-0.0050194534
57	0x3baadd21	0.005214349
58	0x3cd2e6b7	0.025744779
59	0x3c6caa3e	0.014444886
60	0x3d004ee9	0.031325255
61	0x3b99a7c5	0.004689189
62	0x3c6ceae5	0.0144603
63	0x3c5f2721	0.013620169
64	0xbbcb64dd	-0.006207092
65	0x3bd88450	0.0066075698
66	0x3bf2cdab	0.0074097714
67	0x3c97fcf4	0.018553235
68	0x3c9314e1	0.017954292
69	0x3afbc1f2	0.001920758
70	0x3c8371af	0.01604542
71	0x3d00818a	0.031373538
72	0x3bd0b552	0.0063692713
73	0x3cb02ae2	0.021504823
74	0xbca09d4d	-0.019606257
75	0x3cb9efbb	0.02269732
76	0x3b76fdc8	0.0037687887
77	0xb9221c82	-0.00015460144
78	0x3ca0b143	0.019615775
79	0xbbe24e46	-0.0069063036
80	0xbb8a5c40	-0.004222423
81	0xbbb2afc3	-0.0054530813
82	0x3c42952a	0.011876384
83	0x3cc22d94	0.023703374
84	0xbb964012	-0.0045852745
85	0xbb8250a9	-0.0039769006
86	0x3c9c723c	0.01909744
87	0xbbbbf049	-0.0057354313
88	0xbb6d5932	-0.0036216495
89	0xbc010ab0	-0.007876083
90	0x3ace2b24	0.001572941
91	0x3c9482b1	0.018128725
92	0x3c6f3e71	0.01460229
93	0x3c1dfcf5	0.009642829
94	0x3c0f6031	0.008750961
95	0x3c23960e	0.009984506
96	0xbbce8dad	-0.00630351
97	0x3c8cd406	0.017190944
98	0x3c464517	0.012101433
99	0xbc0427e1	-0.0080661485
100	0x3c5b0799	0.013368511
101	0x3c08627b	0.008324261
102	0x3b464162	0.0030251374
103	0x39c47ee2	0.00037478568
104	0xbbadf4a8	-0.0053087063
105	0x3b6ee798	0.0036453959
106	0x3c84caf2	0.016210053
107	0x3c4b514b	0.0124095185
108	0x3c8710f1	0.01648757
109	0x3c82b125	0.01595361
110	0x3c4e8f6a	0.012607435
111	0xbb8551eb	-0.0040686033
112	0x3bb39411	0.0054802974
113	0x3c5f2285	0.01361907
114	0x3cb4db98	0.022077367
115	0x3cc381cc	0.023865603
116	0xbbdab07c	-0.0066738706
117	0x3b3d56b8	0.00288908
118	0xbad82dd3	-0.0016493149
119	0xbb62b8e4	-0.0034595067
120	0x3c8076ce	0.01568165
121	0x3caaaa67	0.020833207
122	0x3b9ab160	0.004720852
123	0x3c42d1f9	0.011890882
124	0x3bde5c47	0.0067859027
125	0x3c980ad6	0.018559854
126	0x3b52448e	0.0032084319
127	0xbb5f7265	-0.0034095284
