vwgym/saved_model/vwgym_f_net_step_7400000.pt (torch_old, 382117 bytes, 57 tensors)

f_percept.percept.0.weight f4 [16, 3, 3, 3]
00000000: 0ef9 893d 740f 91bd 0921 bfbd 9ca7 84be
00000010: 52e3 f73d 574c 8e3d b374 a6be 330a 1cbe
00000020: ab72 56be f225 9c3e a2d5 0abe 22b0 e2be
00000030: 5846 973b a5f3 ab3d 5fe7 943e 614e 88bc
00000040: 3a36 57be cf0a 2bbe f84d 5e3e 647d a5be
00000050: 7b42 b53d 7f80 38be 046f 61bb bc17 d33b
00000060: 8aec ecbd e219 433e f23c cdbd fb50 71be
00000070: 6b31 50bd e163 923e 7809 bfbd fab2 8f3c
00000080: 011d 303e ca90 70be b19e 03be 0537 3a3e
00000090: 0ce2 88bd a8c0 ce3e a25f 183c fd51 babb
000000a0: da98 3f3e 8c53 633e 1643 8ebe c880 c63d
000000b0: 2a7c 87be 1343 3dbe b3b7 3a3d 89e7 18be
000000c0: d400 cabd 9aaf ab3e e087 72be d566 5b3d
000000d0: 581f 2fbc c96e 853e aac0 f7bd 745d 193e
000000e0: 8caf 913e fc70 873e b097 88bd a31a ea3d
000000f0: 79e0 c6bc d279 083e d04e 56be c2d0 583e
00000100: 7a8b 56bd ecd3 fcbd e03e 3b3d cee2 19bd
00000110: ae4c e9bd fa54 97bb ee55 363d ff1d 4b3e
00000120: f21c 943e 29f5 bebd c24c 70be 64cf f1bd
00000130: d119 f33e 6246 c93e 319b 033e dacf 68be
00000140: 3590 ba3c 0b06 023e da0f 39be 81d1 8a3c
00000150: 04fc 603e 3772 9b3e 575d 1b3e d274 d73d
00000160: e2c0 3ebe e25c 8fbc 5283 bb3e ae5b 0a3e
00000170: d0f5 123e f649 15be fe4b 053d f040 1cbe
00000180: 6e84 82be 0f73 f5bd 92aa f2bd 7d35 b33d
00000190: 2bfb 913e 4868 c03d 27c6 423d 0527 c33d
000001a0: 7992 1bbe 78f7 9b3d bcd7 92bd ea01 09bf
000001b0: 09e2 943e 2cdd 62bd 3f8a 033d 1e19 d7bd
000001c0: 4fff 43be 7e3c debe 4e1c 3dbc e811 b83d
000001d0: 4733 983e 1644 6d3d 0881 03be 335c ec3d
000001e0: 77c6 c8be 8fdb ae3d 102c a93d dfe5 1b3e
000001f0: 46ca 8dbe a7ef 543c cc10 bdbc 410c ab3d
00000200: bae0 593d 25ba b9be 929a b13e dba1 79bd
00000210: f046 a23d ee13 99bd 0763 a3ba 0838 6f3e
00000220: 99e2 6f3e 2e93 20be 0441 acbe 0d45 a73e
00000230: d738 1f3e bea3 25bd 8c29 613d 65b6 243e
00000240: 64c2 76be f319 4a3e de59 e0bc 8dd9 0abe
00000250: 1c98 90bd de90 933c ff5c 0b3e 2812 633e
00000260: 788b 0e3e 8e2d 613e 0ccd a6bd 9395 f53d
00000270: e85b 643e d204 8e3e fcc5 843d 1403 c33e
00000280: 1f17 1d3e 20e3 f0bd 087e a8bd 05ab 92be
00000290: 08eb 2d3a b1cd b3be 823c 4dbe 53ba 723c
000002a0: 9260 cc3d 5e56 643e abcf 603e 30c6 833c
000002b0: 6f38 0b3e da0b 793e 3628 8e3e 3082 03be
000002c0: ce42 8e3d d124 713b 7aff 0cbd 70d3 9bbe
000002d0: 9a46 493e 8d96 9dbd 5c22 a5be 4e75 98bd
000002e0: 9559 dabd 4d66 993e e9e6 8f3d 9fa0 8d3c
000002f0: 08f1 a8be 9531 8fbd 6863 86be 598b 6c3e
00000300: 9a51 bdbd cbe9 a2bc 9075 c73e 4cbf 173e
00000310: b084 e2be 2bdf fb3d d9de 08be 2482 64be
00000320: aab8 953d a5f4 a1be 6241 e63d 2201 353e
00000330: b428 0f3e 1458 0fbe c173 5a3e ce1a 1f3e
00000340: 3d28 423d d948 d1bd 55fc d03b 7773 73be
00000350: 2422 273e da78 323e 8974 c6bd ab9c 0b3e
00000360: 30c6 d1be b91a d03d 554b 543c 79a2 823d
00000370: ea28 443e e53d 63bd 7e5a ba3e dab0 8c3e
00000380: e339 1a3e 5c81 75bd adbc 7dbe 36ca e7bd
00000390: bedd 233d 9a31 763d 1017 4c3e 4265 72bd
000003a0: 7e79 e4bd 8311 44be 29a4 de3e aa70 8a3e
000003b0: 73cf 363e daf9 813b d0ea 7a3d 60a9 20be
000003c0: 275f 253b 8ae8 353e c9ee 083e 7813 b5bd
000003d0: 1dd3 6f3e db3a 05bd 378c 34be c816 633d
000003e0: 0068 f23c 5cf6 ae3e cdc4 f0bd 2d5c c3be
000003f0: cf20 873e 5e09 343e 69ed a33e 5bd6 9bbd
0.067369565 -0.070830256 -0.09332473 -0.25909126 0.12103905 0.069481544 -0.3251091 -0.15238266
-0.2094218 0.304977 -0.13558057 -0.44275004 0.00461654 0.08396081 0.29082772 -0.016638936
-0.2101678 -0.16703342 0.2170943 -0.32322228 0.08850571 -0.18017767 -0.0034398446 0.0064420383
-0.11568554 0.19052842 -0.1002139 -0.23566048 -0.05082838 0.28591827 -0.09327978 0.017541397
0.17198564 -0.23492733 -0.12853505 0.18185051 -0.0668374 0.4038136 0.009300144 -0.0056860433
0.18710652 0.2219984 -0.27785558 0.09692532 -0.26461917 -0.18482618 0.045585345 -0.14932074
-0.09863439 0.3353241 -0.23684645 0.053564865 -0.010688625 0.26061085 -0.12097295 0.14977056
0.28454244 0.26453388 -0.06669557 0.11430862 -0.024276959 0.13327721 -0.20928502 0.21173385
-0.05237911 -0.123451084 0.04571426 -0.037569813 -0.113915786 -0.0046182843 0.044515543 0.19835661
0.28928334 -0.09324104 -0.23466781 -0.11807135 0.47480634 0.3931151 0.1285217 -0.22735539
0.022773841 0.12697618 -0.18072453 0.016945602 0.21971136 0.30360577 0.15172325 0.105203286
-0.18628266 -0.017500345 0.36623627 0.13511536 0.14351583 -0.14578995 0.032543175 -0.15259147
-0.2549166 -0.11984836 -0.1184894 0.087504365 0.28511938 0.0939489 0.047552254 0.09528927
-0.15192594 0.0761556 -0.07170054 -0.53518546 0.290787 -0.055386707 0.032114264 -0.105028376
-0.19140361 -0.43405527 -0.011542393 0.0898779 0.29726622 0.05792626 -0.1284219 0.11541023
-0.39213917 0.08537971 0.082603574 0.15224408 -0.27693385 0.012996591 -0.023079298 0.083519466
0.05319283 -0.3627483 0.3468824 -0.060945373 0.079236865 -0.074745044 -0.0012465426 0.23361218
0.23426284 -0.15681145 -0.33643353 0.3266987 0.15549026 -0.04043936 0.054971263 0.16085203
-0.24097592 0.19736461 -0.027386602 -0.13559552 -0.070602626 0.018013414 0.13609694 0.22174895
0.1392039 0.21990034 -0.08144578 0.1199142 0.22300684 0.27738053 0.06483075 0.38088286
0.15340851 -0.11762071 -0.082271636 -0.28646103 0.00066344487 -0.35117868 -0.20042613 0.014814931
0.09979357 0.22298571 0.21954219 0.016085714 0.13595746 0.24320927 0.27765054 -0.12842631
0.06946336 0.0036795626 -0.03442333 -0.30434752 0.19655839 -0.07694731 -0.32252777 -0.07444249
-0.10661618 0.29960862 0.070264645 0.017288504 -0.32996392 -0.06991879 -0.26247716 0.23100032
-0.0924408 -0.019886872 0.3895688 0.14819068 -0.44241858 0.12298425 -0.1336626 -0.2231527
0.073106125 -0.3163196 0.112429395 0.17676213 0.13980371 -0.13998443 0.21333219 0.15537569
0.047401655 -0.10218973 0.0063777366 -0.23774515 0.16321617 0.17428914 -0.09690196 0.13633983
-0.40971518 0.10161347 0.012957414 0.063786454 0.19156232 -0.05547895 0.36397165 0.27478677
0.15061145 -0.05993782 -0.24779005 -0.113178656 0.04000639 0.060105897 0.19930673 -0.0591786
-0.11155985 -0.19147305 0.4348462 0.2703908 0.17852573 0.003966552 0.06125909 -0.15689611
0.0025233717 0.17764488 0.1337234 -0.08841604 0.23420377 -0.032526832 -0.17631613 0.055441648
0.029590607 0.34172332 -0.11756287 -0.38156262 0.26392218 0.17581698 0.32017067 -0.076092444

f_percept.percept.0.bias f4 [16]
00000000: 3602 73ba 8a02 563a 2e9d 2c3a 9b08 e93a
00000010: c816 20b9 3cb1 b8ba 47b2 91ba 45b7 acba
00000020: 05d0 6aba a36e cdb9 1f37 96ba 62c3 6fba
00000030: be6c e9b9 40d0 1dba 851d 49ba 099a 633a
-0.0009270044 0.00081638305 0.0006584701 0.0017779054 -0.00015267276 -0.0014090906 -0.0011115753 -0.0013177177
-0.0008957389 -0.00039183078 -0.0011460519 -0.0009146241 -0.00044522242 -0.00060201064 -0.000767194 0.0008682316

f_percept.percept.3.weight f4 [64, 16]
00000000: 44b5 933d db16 0b3d 9e56 b23c baa8 24be
00000010: e107 99bd 31b2 6ebd 4a77 83bd 8c6f 17be
00000020: 68ff 4f3d c303 0abe 4e54 d73d d94f b6bd
00000030: e053 0d3c 6220 12be c433 18be 5a95 d5bc
00000040: 11de 173e 8c4c 08be 6959 193e a01f e2bd
00000050: b9ae 39bd d3db 66be 4e38 20be fe88 123e
00000060: 3692 16bd cbdb 48bb 983e b2bb 475c 843d
00000070: b359 d8bd 0ca3 f1bd f7ce 8ebe f3ed 8bbd
00000080: 3d57 d83c 5e81 763e 322f 75bd b4f6 09be
00000090: c91f c53d b7ec b4bc 9e43 283e 64f5 983d
000000a0: a28b ae3d 355e 7a3d 9a21 82bd 45de a8bd
000000b0: e567 8b3e 2069 7dbd 767c 52be cdf4 1dbd
000000c0: bf04 163e e148 643d 2b77 71bd 7c0c 22bd
000000d0: 2fe7 c7bd 5a52 20be 0f88 603d 41c3 32be
000000e0: 4668 cebd 33c0 92be 4f3d 8f3c 296a bd3d
000000f0: c933 a13d cf92 26bd 4053 7ebb 1105 de3d
00000100: abd0 ffbd 9f70 0cbe 577d 963d 5c44 0a3e
00000110: a775 053e ff47 003e 31e3 3fbe 7140 afbc
00000120: ab61 ea3d ccbd 363e a126 78be 4b45 ea3c
00000130: 2faa 9abc 7c6c d5be 2a73 ef3c 5077 59bd
00000140: 93dd f5bd 2bd5 43bd 7511 253e 96b3 113e
00000150: d3d4 933d b1ab 91bc 4d69 0d3e 4901 27be
00000160: ee11 5b3d ce9d f5bd c4d6 433e 0c07 06be
00000170: a318 ddbd 0908 f43c d8ee c83d 1cd4 0d3e
00000180: 7bce cabd 4117 4fbd ce24 003e 593a 9b3d
00000190: da58 06be 24c3 2b3e 8f1c 353d c44b 013e
000001a0: 1ff3 0b3e 24e2 5cba 701b 763d 2e26 6ebd
000001b0: b017 c93c 99a6 703d 43ab bbbd 3311 80bd
000001c0: f96c d2bd 501b a6bd df41 96be 3e16 243e
000001d0: 3033 223e ebab 35bd 3462 8dbe edc0 8dbc
000001e0: 0d34 4fbe 6bec b03d 1078 0ebe 87b0 1ebd
000001f0: 061d 04be 3038 4a3d 5c4f 20bd 1d82 123e
00000200: 3811 7d3c 13d2 63be 3455 d9bd dc22 b03d
00000210: 4c6e 5cbe d0eb 17be 7b77 e43d b144 56be
00000220: 0019 313e c10b 16be a238 e7bd 6e7a 3bbe
00000230: ce97 73bd 858a 4a3e 95ef 91bd 55fb ccbc
00000240: 7428 da3d 8aa5 713e 603f 72bc 8f94 d33d
00000250: e240 0f3e b4ba eabc 7e2f 023d fad2 1fbe
00000260: 6a64 a03d ecf7 db3d eb5d 9bbd 89c8 4e3e
00000270: 2d4d b2bc 6a38 a43c 07b6 bb3d 74eb b83c
00000280: 917e 8f3d d22d 00be f937 e1bc 741d 69be
00000290: 0637 053d 8076 bfbd 3f13 283e 0c16 e73c
000002a0: d2f4 ee3d 145a c43c ae0b 3ebe f72b af3d
000002b0: b714 18be 933c dd39 ed39 1b3e 26d0 b1bd
000002c0: 3c32 ed3d 7dad 96bd 2c23 313e 5f07 39bd
000002d0: 731d 69bd 35d1 babd 0851 f33d 7c32 f6bd
000002e0: 0e41 8bbc 3210 c33d c24c a9bd 437f 25bd
000002f0: 51d8 05bd 9545 2bbe 1976 7dbc f630 573e
00000300: 517a cc3d 46cd 56be f238 163d 290c 343e
00000310: 7a0c 84bd f1c7 e83c d827 13bd 1f51 84be
00000320: 9e03 1c3d ecd0 b63d 555d abbc 2295 6fbe
00000330: 3e6c 963d d4bd 0f3e e32b 37bd 337a 1ebc
00000340: 15b5 80be 63cb f23c 447e 383e 281f 8b3e
00000350: 5d6c 54bc 643d 28be 96ca a6bc bb34 ff3d
00000360: d706 063e 3bf4 e93c 3f78 0a3d 3f7e c1bc
00000370: cc4f 923d 06fc 7fbd a0c0 683d 8ec2 bb3d
00000380: 09f0 0d3e 3458 3a3d c98f 59bd 65ff 173e
00000390: 729f 2c3e b8a0 f9bc 41b6 ff3c 346c 5a3e
000003a0: 2910 933c 1e5b acbd d2c7 8d3d f8cb 36be
000003b0: 4a2c a5bd c179 2ebe 2788 8a3c 4861 d13a
000003c0: 7fbe 033e 1b89 20be edc6 f4bc 5153 91be
000003d0: 2388 913e adee 45bd 763c 2f3d e2de fa3d
000003e0: 2149 91bb bb45 7fbc 7d8f 373e fcd4 173c
000003f0: ba61 953d b643 6f3e e77e c2bc 0861 cbbc
0.07212308 0.033957344 0.021769818 -0.16079989 -0.07472206 -0.058275405 -0.06419237 -0.14788646
0.050780684 -0.13477997 0.10514127 -0.089019485 0.008625954 -0.14270166 -0.14863497 -0.026072193
0.14830805 -0.1331045 0.14975514 -0.11041188 -0.045332644 -0.22544794 -0.15646479 0.14310071
-0.03676053 -0.0030648585 -0.0054395907 0.06462913 -0.10563984 -0.11798677 -0.27892277 -0.068324946
0.026408786 0.24072787 -0.059859462 -0.13473016 0.09625203 -0.02208553 0.16432044 0.074686795
0.085227266 0.061125 -0.06354065 -0.082455195 0.27227703 -0.061867833 -0.2055529 -0.03856354
0.14650248 0.055733565 -0.058951538 -0.039562687 -0.09760892 -0.15656415 0.054817256 -0.17457296
-0.10078482 -0.2866226 0.017485289 0.09248764 0.07871205 -0.04066735 -0.0038806945 0.1084081
-0.12490972 -0.13714837 0.073481254 0.1350264 0.13033162 0.12527464 -0.1873901 -0.021393033
0.1144441 0.1784584 -0.24233486 0.028597495 -0.018879978 -0.4168433 0.02922972 -0.0530923
-0.120051526 -0.047810715 0.1611994 0.14228663 0.072183274 -0.017782064 0.138097 -0.16309084
0.053483896 -0.119929895 0.19124895 -0.13088626 -0.10795715 0.029788988 0.09811181 0.13850445
-0.09902664 -0.050559286 0.1251404 0.07579488 -0.13119832 0.16773659 0.04421669 0.12626559
0.13666962 -0.00084260316 0.06008476 -0.05814188 0.024547428 0.05875263 -0.09163525 -0.062532805
-0.10274691 -0.08110678 -0.2934713 0.1602411 0.15839839 -0.044353407 -0.27613986 -0.017303908
-0.202347 0.08638843 -0.13912988 -0.03874257 -0.12901697 0.04936999 -0.039138183 0.14307447
0.015446 -0.22248106 -0.10611954 0.08600399 -0.2152645 -0.14836049 0.111556016 -0.20924641
0.17294693 -0.14652921 -0.11290099 -0.18308422 -0.059470944 0.19779404 -0.07125775 -0.025022188
0.10652247 0.23598304 -0.014785618 0.1033107 0.13989595 -0.02865348 0.031783573 -0.15607825
0.078316525 0.10740647 -0.07586273 0.20193686 -0.021765316 0.020046432 0.09165578 0.02257321
0.070065625 -0.12517479 -0.02749251 -0.22765142 0.032523178 -0.09348774 0.16413592 0.028208755
0.116677895 0.023968734 -0.18559143 0.085533075 -0.14851652 0.00042197536 0.15158816 -0.08682279
0.11581847 -0.07357309 0.17298573 -0.045173045 -0.05691285 -0.09121934 0.1188069 -0.12021348
-0.016998794 0.095245734 -0.082665935 -0.04040457 -0.032677 -0.16725762 -0.015470051 0.21014771
0.099842675 -0.20976743 0.0366754 0.17582764 -0.06447692 0.028415652 -0.03592667 -0.2584314
0.038089387 0.089265674 -0.020918528 -0.23396733 0.07344864 0.14037257 -0.044719588 -0.009672689
-0.25138155 0.029637998 0.18016917 0.27172208 -0.012965289 -0.16429669 -0.020360272 0.124612294
0.13088547 0.028558841 0.03380608 -0.02361977 0.07144126 -0.062496208 0.056824327 0.09167968
0.13861097 0.045494273 -0.05311564 0.14843519 0.16857699 -0.030472144 0.031214835 0.21330339
0.017952042 -0.08415817 0.06922878 -0.17851245 -0.08065088 -0.17038633 0.016910626 0.0015974427
0.12865637 -0.15677302 -0.029880011 -0.28383878 0.28424177 -0.048323322 0.04278227 0.12249543
-0.0044337665 -0.01558059 0.1792583 0.009267088 0.072940305 0.23365673 -0.023742152 -0.024826542

f_percept.percept.3.bias f4 [64]
00000000: caf7 0dbb bdc8 4a3b c7ab 263b ca2d 153b
00000010: bd70 1c3b 3d31 ad3b 3d65 8cba c349 123b
00000020: 4e7f e2ba 5366 0b3b bd1c 873b 0fa8 1fbb
00000030: 047a 8b3a cd31 923b fac4 9638 9115 95bb
00000040: f559 2cbb a94d 53bb 4e45 523b df7c 1c3a
00000050: 3c7e 1b3b 36a9 023b 9c50 3b3b 147a 803a
00000060: b697 4dba 87bb b33a 633e 933b 7ac4 04bb
00000070: 3fcf 98bb 9992 b5ba 6831 3c3b 646c 96bb
00000080: 1886 813b c29c 983b 7bcb 2639 7dd2 b4ba
00000090: f033 e23a 4093 353b 3953 623b ac09 a2ba
000000a0: 5e21 29bb 9f1f d238 4cd7 c53b 348f 9c39
000000b0: 30d9 d339 8280 90ba bf07 843b 2cba 003b
000000c0: b443 b9ba 0c03 073c 93ca 13bb 9eae 8a3b
000000d0: 6f67 993b b6b1 923b 48bc 58bb cdb2 ff3a
000000e0: 4e57 a8ba 470b 713b ef1d d2bb d869 523b
000000f0: b243 32ba c8b6 b33b 24fe adba a3f1 e53a
-0.0021662586 0.0030942403 0.0025431977 0.0022762888 0.0023870908 0.0052854107 -0.0010711324 0.0022321797
-0.0017280371 0.0021270707 0.004123299 -0.0024361645 0.0010641222 0.004461503 7.189247e-05 -0.00454969
-0.0026298736 -0.0032242334 0.0032084766 0.0005969535 0.0023726365 0.0019937283 0.0028581982 0.0009802007
-0.0007842736 0.0013712504 0.004493521 -0.002025871 -0.0046633775 -0.0013852894 0.0028715972 -0.004590558
0.003952753 0.004657359 0.00015906796 -0.001379564 0.001725791 0.0027706176 0.0034534468 -0.0012362502
-0.0025807242 0.0001001947 0.0060376283 0.00029861333 0.00040406873 -0.0011024626 0.0040292437 0.0019642217
-0.0014134557 0.0082404725 -0.0022551164 0.004232242 0.0046815197 0.004476751 -0.0033071209 0.0019508243
-0.0012843402 0.0036780403 -0.00641226 0.0032106545 -0.00068002485 0.0054844357 -0.0013274592 0.0017543327

manager.M_space.weight f4 [64, 64]
00000000: fe59 ffbc 01f8 f83d 2bf4 a23e 2582 25bd
00000010: 9bc6 8c3d 823c 363e 8090 53bd 64e9 383e
00000020: 627e 413e b41c 19bd f694 e5bc 6a42 ddbd
00000030: a178 04be 58c5 0e3e 3dec 10be b289 fb3d
00000040: f44f 4fbc e47f 2e3d cef8 e1bd b38c 06be
00000050: 103d 71be 86df 8ebc 3807 46bd bffb 6a3d
00000060: 510b 453e c9de b1bd b028 68be 497e 4d3d
00000070: 1e47 fd3c d2e4 7dbe c268 06be e0c3 3fbd
00000080: 58b0 9cbd 86d2 81ba c097 26bd 7885 f4bd
00000090: a95e 3ebe 16b9 fd3d a054 983d 5805 493e
000000a0: 7197 32be fde9 b4bd 52bb 863e 2f1c 64bc
000000b0: 82e7 1fbd 8519 18bd b71e c0bd f766 e13c
000000c0: ec3a 92bd c08e fbbd 22a5 0bbe e324 afbc
000000d0: 2c19 e13d 947c 06be 1344 a63d 465b 353e
000000e0: 1b3e 0dbe 1b1a a03d d349 a5bd 7187 083e
000000f0: 29e1 20bd e630 4dbc 942f b4bd eaff ef3d
00000100: 4bbf c53c 4bcd eebb 8b14 aaba 4049 e33d
00000110: f664 57bc 35e0 07bd 83b4 323e 4433 5d3e
00000120: 7fce e23d 8ebe c33d 1273 3abd e678 cbbd
00000130: 148c 3cbc 32f5 d7bd 44e7 2ebd 5346 71be
00000140: e3a7 b3bd dea2 d7bd cac5 3bbd 0979 c3bd
00000150: 14ce 28bd 7f1a 4a3d a7bf 8bbd e79f 963e
00000160: 7ea0 c5bd 3d21 e93d 92ee acbd f37e 023c
00000170: 9cd5 34be d077 203e c87d 633e 2307 663e
00000180: da78 eb3d 63ea 033e e442 94bc 9175 eb3d
00000190: f060 f8bd 4ce8 3dbc 4861 3fbd 2fac e0bd
000001a0: 9052 12be 01a1 7dbc dc4d 513d 4c73 2b3d
000001b0: a40b f1bd f29b 1c3e d3f3 3b3c b655 c33d
000001c0: c1f0 bd3d d14c c73d 4396 d4be 6a30 c53d
000001d0: b96f 82be 0afb 84bd 936d 403e d0f5 1abd
000001e0: 4779 c83d 7570 7d3d a416 f2bd 3067 f9bc
000001f0: 3ed4 e03c 7f5e 583d 704e 9f3d f9c2 ba3d
00000200: 306e 18be 4cbf c6bc e92b f13d 8516 33bb
00000210: d991 e73d 523e 41be e929 1fbd 186e cc3e
00000220: 6039 033e 24b3 1ebe b5e5 4fbd 15f4 ca3c
00000230: 2bf1 af3d 02e0 043b a9b3 903d c64d c43b
00000240: 18eb 24bd 59b6 4c3e f546 33be 09c3 ec3d
00000250: 0a85 683e 838b 22bd d1ba 68be 083e 59be
00000260: 762f adbd 7230 f53c 9f4b fa3c cd83 df3c
00000270: e093 08be 9eef 87bd dbeb aa3d d211 0e3e
00000280: 63aa 003e 2f2b a33d 40a5 5939 7366 d63d
00000290: 1161 5b3c de79 433d 1302 583d 5fb1 e83c
000002a0: ab93 fdbd fb8c 0d3e 7383 d0bc 12c0 ecbd
000002b0: 269b e4bd e60e 23be 76b4 d23a 76e8 1b3e
000002c0: da54 1b3e e5b7 5cbd 0880 fc3d a7d9 0fbe
000002d0: da75 d43d 3f21 313d 5d6f f4bc 1c86 923c
000002e0: 610f a0bd 9a0b 053e b067 0f3d 3cc9 eb3d
000002f0: e57f 823d c89e be3c 00cb 673e eaa9 97be
00000300: a8f9 353d f810 6c3e f2e4 e9bd d49f 633e
00000310: 42be aa3e 4013 76bd 6423 18bb 1201 b93d
00000320: 5621 033e 8195 883c e647 1f3d 6b3d 54be
00000330: c858 b73d 533e 133d 138d c53d d6d6 20bd
00000340: a3ad 9f3e 05ba ba3b 2108 023d b201 0f3e
00000350: fa96 bdbd 62ad 1f3d dd69 f93b 3832 b6bb
00000360: 8f8c c4ba 183e edbd 4073 293c 826d ca3d
00000370: c228 d3bd be45 473d 8028 873d b1ee 09be
00000380: a292 7dbb 98b6 dabc e995 8f3d 5186 403e
00000390: 5b53 883d d4e0 3c3e f8dc c63d de95 f73d
000003a0: 6660 923c 82f2 403e 0027 383e 1cb8 213e
000003b0: 5de3 d23c 4127 a83d 1dd3 503e dc93 733d
000003c0: c5b8 4dbe 87b3 86be 439d 9bbc 1cac 1e3e
000003d0: 092b a1bd cae8 923d d64d 6abe 3038 dfbd
000003e0: be0a 903d aea7 04be af48 1c3d 0a6d bebd
000003f0: 87c9 a83a 37ac cdbc 9842 91bb 7039 e83c
-0.031170841 0.12156678 0.3182691 -0.04040732 0.068738185 0.1779652 -0.051651478 0.18057781
0.18895867 -0.03738089 -0.028025132 -0.10803683 -0.12936641 0.13942468 -0.14152618 0.12282123
-0.01265334 0.042602435 -0.11033784 -0.1313961 -0.2355845 -0.017440569 -0.048346728 0.05736899
0.19242598 -0.08685071 -0.22671771 0.050169263 0.0309177 -0.2479432 -0.131259 -0.04681766
-0.076508224 -0.000990466 -0.040672064 -0.1193952 -0.18590797 0.12388818 0.07438016 0.19630945
-0.17440583 -0.08833692 0.2631479 -0.013922735 -0.039039142 -0.037133712 -0.093808584 0.027514918
-0.07140145 -0.12283087 -0.13637212 -0.021379894 0.10991129 -0.1313346 0.08118453 0.177106
-0.13793223 0.07817479 -0.080707215 0.13332917 -0.03927723 -0.012523865 -0.08798137 0.117187336
0.024139067 -0.0072876564 -0.0012976093 0.11097956 -0.01314663 -0.033172805 0.17451672 0.21601588
0.11074542 0.0955783 -0.045519896 -0.09935169 -0.011508007 -0.10544814 -0.04270102 -0.23561983
-0.08772256 -0.10529111 -0.045842923 -0.0954457 -0.041212156 0.049341675 -0.06823664 0.2941887
-0.09649752 0.11383293 -0.08443941 0.007964837 -0.1765961 0.15670705 0.2221595 0.2246366
0.1149766 0.1288238 -0.018098302 0.114970334 -0.12127864 -0.011591028 -0.046723634 -0.109703414
-0.14289308 -0.015480281 0.051099643 0.041858003 -0.117697984 0.15293863 0.011471706 0.095378324
0.09274436 0.097314484 -0.4152089 0.09628375 -0.25475863 -0.064931944 0.18791799 -0.03783208
0.09788757 0.061874826 -0.118207246 -0.030444711 0.027444955 0.052824493 0.07778633 0.09119219
-0.14885783 -0.02426114 0.11775953 -0.0027326655 0.11307115 -0.1887143 -0.038858328 0.39927745
0.12814856 -0.15498024 -0.050756175 0.02477459 0.08590921 0.002027512 0.070655175 0.0059907166
-0.040263265 0.19991435 -0.17507537 0.115606375 0.22707 -0.03968383 -0.22727515 -0.2121507
-0.08456318 0.029930327 0.030553637 0.027284527 -0.1333766 -0.066375 0.08345767 0.13873985
0.12564997 0.07967221 0.00020756293 0.104687594 0.013389842 0.047723643 0.052736353 0.02840489
-0.12381681 0.13823311 -0.025453305 -0.11560072 -0.11162405 -0.15923652 0.001607551 0.15225396
0.15169087 -0.053886313 0.123291075 -0.14047872 0.10374041 0.043244597 -0.029838258 0.017886214
-0.07815433 0.12992707 0.035010993 0.11512992 0.0637205 0.023269072 0.22636032 -0.29621822
0.044427544 0.23053348 -0.11420621 0.22228938 0.3334828 -0.060076952 -0.0023214454 0.09033407
0.12805685 0.016672852 0.038886927 -0.20726554 0.089524806 0.03594811 0.096460484 -0.039267384
0.31187162 0.005698445 0.031746034 0.1396549 -0.09257312 0.03898371 0.007611497 -0.0055601858
-0.0014995503 -0.11584109 0.010342419 0.09884168 -0.10310508 0.048650496 0.06599522 -0.1346996
-0.0038692136 -0.026698396 0.07011015 0.18801238 0.06656524 0.1844514 0.09710115 0.12089132
0.017868232 0.1884251 0.17983627 0.15792888 0.02574318 0.08210612 0.20393033 0.05946718
-0.20090015 -0.26308843 -0.018995887 0.15495342 -0.078695364 0.07173307 -0.22881255 -0.10899389
0.07033299 -0.1295459 0.038155254 -0.09298141 0.0012877443 -0.025106532 -0.0044329874 0.0283477

manager.M_space.bias f4 [64]
00000000: c158 55ba 7b99 033b 66db da3a d0a2 293b
00000010: 0ae4 d73a a240 703b 742e 2bbb 51bc 63bb
00000020: c29d 203b 3003 603b b9be 233a 3a17 d63a
00000030: 6cc3 56bb c794 b73b 9378 8e39 e531 be3a
00000040: a2c1 c039 1d02 8b3b 9a33 90ba fe09 35bb
00000050: 297c 4c3b 731c 8539 4c2e 3cba acfb 863b
00000060: 3ba1 433b e2f6 a2ba 9d05 68ba 58a1 9d3a
00000070: cdc2 66bb c2c3 423b ad16 cfba 3bd2 5e3b
00000080: fe64 553b 085c d43b cfd9 8c3a a054 87bb
00000090: f017 63bb 6ba7 87bb 5ab1 d5b9 baaf c53a
000000a0: c0b9 f8ba 7f50 13bb 987d 3abb beea aabb
000000b0: 6050 fb3a dfe5 2a3b 24d1 55bb c0e6 6bbb
000000c0: 4e91 513a 5e0c 283b 195a faba 8e63 143b
000000d0: f1cc 52bb 52ca acbb a0dd 923b d6ca 04bb
000000e0: dd78 2bbb 13c3 33ba fb5d 4b3a 4305 93b9
000000f0: 81ee b53a 2bba cdbb 5eed ddbb 228a 503b
-0.00081385305 0.0020080495 0.0016697466 0.0025884397 0.0016471159 0.0036659618 -0.0026120218 -0.0034749696
0.0024508093 0.0034181587 0.00062463764 0.0016333826 -0.003277029 0.0056024524 0.00027174185 0.0014510719
0.0003676536 0.0042421953 -0.0011001707 -0.0027624364 0.0031201935 0.00025388933 -0.00071785296 0.004119357
0.002985074 -0.0012433196 -0.0008850934 0.0012026234 -0.0035211325 0.0029718732 -0.0015799605 0.003399982
0.0032561417 0.0064806975 0.0010746064 -0.004129961 -0.003465172 -0.004139831 -0.00040758663 0.0015082278
-0.0018976256 -0.00224784 -0.0028456207 -0.0052159717 0.0019173734 0.0026076955 -0.0032625878 -0.0035995692
0.00079943694 0.0025642137 -0.0019100338 0.0022642347 -0.0032165612 -0.005273142 0.004481986 -0.0020262501
-0.002616457 -0.00068573764 0.00077578396 -0.00028041945 0.0013880284 -0.0062782965 -0.006772681 0.0031820615

manager.M_goals.weight f4 [64, 128]
00000000: ad08 92bd d29c 0abd 0b43 16bd 8431 d4bd
00000010: e215 273e 2df0 073e c483 0a3d c675 763d
00000020: ff15 0dbe 05d4 293e 636d e23c c0b2 a0be
00000030: 1789 2a3e f23b 1b3e 7dfa c73c cf4d 2a3e
00000040: f204 60bd aac8 b53c 97e4 f5bd 3819 653c
00000050: fca5 99bd 2507 683d 9d9d 053b cf8c 223c
00000060: 75bd cdbc cf06 84bd 725f e7bb 5c40 21be
00000070: 9004 0e39 8f25 61be d1da 4bbd 60c2 edbc
00000080: 8981 c43d 4a72 ffbc 28cd babc 802d af3d
00000090: fcea 26bd 7921 95bd d68d eb3d bef1 8dbd
000000a0: 6239 81bd f672 d8bd a1b5 0f3e ddbb 2c3d
000000b0: f1bc 853c 70f5 883c 5c67 cfbd 02bb fabd
000000c0: 529a e1bc 4340 273b b6f6 203d 41fe 823d
000000d0: 3a11 ad3d 5cce 1a3e 4353 70bd 209d 1e3e
000000e0: 3be4 293c 6255 3c3d 9eb9 2abe 38e9 01bd
000000f0: 6eb4 353d fb94 b43d c370 6abd 8cc1 913b
00000100: e709 af3d e813 2b3e ef2f c7bd 3f1a 953c
00000110: 2697 82bc e359 2abd adf4 ea3d bf99 a0bd
00000120: 5a43 35bd 1113 37bc f080 933d 9c19 74bd
00000130: 4639 233e d9b0 78bd 56d0 64bd 0aae 673d
00000140: 3e50 e53c ab3e d1bc 4466 333c d72a 043d
00000150: 140e 9c3c d86e 5abd 6cf4 a43a a937 7dbd
00000160: 2665 54be e4ca 113c d1d0 f2b9 4709 293d
00000170: 2940 483d 0112 093e 4a60 fe3c 2643 d73c
00000180: 4747 d43d 94ab 27bd bd18 923d 48e8 a1bc
00000190: 2020 49be a4e0 84bd 32fc fa3d c781 de3a
000001a0: acd3 783d fa17 b13d 2b33 93bc b7a6 9d3c
000001b0: eee6 ce3d 2321 9a3c bd56 cb3b f19a b3bc
000001c0: a8cc c4bd 51f7 1e3d 5d9e 01bc fe03 013d
000001d0: df59 183d 5bcf 8a3d 4303 233e 427b a3bd
000001e0: 5d2a 0fbd f970 303c f3fe 0bbe 4a02 173e
000001f0: c600 343c 3a5c 65bd a03c b33b 3bc4 eb3c
00000200: 8bdf dc3d a222 63bd 4d9d e5bd 3ad5 c5bd
00000210: efef e93d 5b2f 0cbe c001 b23d 22ec 2e3e
00000220: d442 87bd 46b1 11bb bbaf 87bd d789 b4bc
00000230: f17f 16bd 5f02 5dbd 02cc 2f3d e561 4fbd
00000240: 8a74 d6bd 2306 fbbb 6dca 42bd eca2 8d3d
00000250: d50a 4d3e 420a b53d 99c4 54bd a2e5 203e
00000260: 7fcc 093e 915c 473e bec6 25be 8fd7 413d
00000270: 8d40 073d b154 b33c 19a6 713c c1f5 3fbd
00000280: 4c7d 093d 9fe0 2b3d 5d77 a13d c670 bf3c
00000290: 25b3 55bd f09f 633d 2aa8 cf3c 546d 48bd
000002a0: 24fb 6bbc 929f c53b b241 0d3e 6ff1 0dbc
000002b0: d65f 20be 0c21 c83d f23f 5c3c 9041 b3bd
000002c0: 886b a2bd 6e2d c13d 2aa6 0ebe eaaa c03d
000002d0: f9d5 66bd d16c 79bd 89a2 82bd 272d 113c
000002e0: fb06 823c 3cd8 92bd 6b56 a43b 9945 6ebd
000002f0: cfbf a5bd 6335 cbbd c1cb f23d 4d09 b4bc
00000300: 40ba c6bc 4d2c 893d 299c ccbd df6b 893d
00000310: db51 073d 5cde b1bc 69ff 8c3d 6d59 fa3d
00000320: 42b3 783c 288f a2bd 59ea e1bd 1012 43be
00000330: 6b25 f83c 1d59 b13c e862 ae3d eb89 edbd
00000340: c146 893d c469 403d 372b dabc 150a 7abb
00000350: 408c 8d3d 9ef6 a43c 9729 083c 4635 063e
00000360: a6ce f7bc a6f9 543d 9896 1bbd 12ac 6b3e
00000370: dfa0 dbbd 5958 a2bd 510b c8bc ba02 18bd
00000380: e12a 8dbd fd0e fe3d 0537 d23d 990d babd
00000390: 3522 81bd fec4 253e 291c 45bd 5c54 40bd
000003a0: aaf1 ff3b 0642 323e 4778 133c 61bb 10be
000003b0: 26e4 ad3d 61c4 273d 1bc8 803d 5a46 d63b
000003c0: 23f4 c5bc 8914 43bd bef5 043e 0e3d 9cbb
000003d0: 8953 bbbd 92c4 1cbe 58b9 f0bc e607 ae3d
000003e0: 496e d43c 658b 263d 93a4 1abe 6b5d dbbd
000003f0: e381 803d a36b c8bc 6a5f 5dbe 5a42 c8bd
-0.07130561 -0.03384096 -0.03668503 -0.10361007 0.16316941 0.13275214 0.033817068 0.06017091
-0.13777922 0.16584785 0.02764005 -0.31386375 0.16653858 0.15159586 0.024411434 0.16631244
-0.054692216 0.02219041 -0.12006491 0.013983063 -0.07502362 0.05664744 0.0020388134 0.009921267
-0.025114754 -0.06446611 -0.0070609385 -0.15747207 0.00013543875 -0.21986984 -0.049769226 -0.02902335
0.09595019 -0.031182427 -0.022802904 0.085536 -0.040751442 -0.07281775 0.115016624 -0.06930874
-0.06309773 -0.10568802 0.1403413 0.042171348 0.016325446 0.016718596 -0.10127136 -0.122427
-0.027539406 0.002552048 0.039297782 0.06396151 0.08450551 0.15117782 -0.058673155 0.15489626
0.010369356 0.045979865 -0.1667237 -0.031716555 0.044361524 0.08817478 -0.057236444 0.0044481214
0.085468106 0.16706812 -0.097259395 0.018200992 -0.015941214 -0.04158963 0.114724495 -0.07841825
-0.044253685 -0.011173979 0.07202327 -0.059594736 0.15939817 -0.06071553 -0.055862747 0.05656246
0.027992364 -0.025542578 0.010949675 0.032267418 0.019049682 -0.053328365 0.001258505 -0.06182066
-0.2074171 0.008898471 -0.00046313417 0.041268613 0.048889313 0.13385774 0.031051774 0.026277136
0.103651576 -0.040935114 0.07133625 -0.01976408 -0.19641161 -0.06488159 0.12255134 0.0016975933
0.06074874 0.08647151 -0.017968735 0.019244535 0.1010264 0.018814629 0.0062054084 -0.021924468
-0.096093476 0.038810078 -0.007911292 0.031497948 0.037195083 0.06777831 0.15919213 -0.07982494
-0.03495251 0.010769122 -0.13671474 0.14746967 0.0109865125 -0.055996157 0.0054698735 0.028780093
0.10784825 -0.05545295 -0.11211643 -0.0965981 0.11422717 -0.1368994 0.0869174 0.17082265
-0.06604543 -0.0022230907 -0.06625315 -0.022038383 -0.03674311 -0.05395734 0.042919166 -0.05063047
-0.10471447 -0.0076606437 -0.04755633 0.069158405 0.20023663 0.08839847 -0.051945303 0.15712598
0.13456915 0.19468905 -0.16189095 0.047324713 0.033020545 0.02189097 0.014749073 -0.04686523
0.033566758 0.041962262 0.07884095 0.023369204 -0.0521728 0.05557245 0.025348742 -0.04893239
-0.014403138 0.006030985 0.13794592 -0.008663519 -0.15661559 0.09771928 0.01344298 -0.087527394
-0.07930666 0.09432493 -0.13930574 0.09407599 -0.056356404 -0.06089479 -0.06378657 0.008860863
0.01587247 -0.0717015 0.0050151846 -0.058171842 -0.08093225 -0.09922292 0.11855269 -0.021977091
-0.024258733 0.06697903 -0.09990723 0.06710028 0.033037048 -0.021712475 0.06884653 0.12224088
0.015179457 -0.07937461 -0.110310264 -0.19049859 0.03029128 0.021648938 0.085149586 -0.115985714
0.06702948 0.046975866 -0.026631935 -0.0038152982 0.06911516 0.020137127 0.008310697 0.1310626
-0.030249905 0.051995896 -0.037985414 0.23014858 -0.10724043 -0.07927007 -0.024419459 -0.037111975
-0.06892944 0.124052025 0.102644004 -0.09084625 -0.063053526 0.16188428 -0.04812256 -0.04695545
0.007810791 0.17407998 0.009000844 -0.1413398 0.084907815 0.040958766 0.06288167 0.0065391483
-0.024164265 -0.047627006 0.12984368 -0.0047680205 -0.091467924 -0.1530936 -0.029385254 0.084976
0.025931494 0.04066028 -0.15101843 -0.107111774 0.06274774 -0.024465388 -0.21618429 -0.097782806

manager.M_goals.bias f4 [64]
00000000: df80 87b9 b76d 33bb 7231 593b 7fc8 153b
00000010: f802 94bb 335a 96bb b266 363b 70c8 33bb
00000020: 4d4b 95bb 22ab 503b d832 323a 45c1 3b3b
00000030: 934d 0c3b 955f 68bb c445 d43a fb56 4fbb
00000040: 1920 dcbb 395b 523b 44c3 443b 2dd1 ebb9
00000050: b9d9 29bb 6c09 4e3a d8f7 153b 3165 5d3b
00000060: 5c6c 25bb 433e 98bb bac4 67bb 7c3e 293b
00000070: 6f91 143b 67e8 703b 71a6 35bb 6fa2 22bb
00000080: dbf4 e2bb a57d faba d5f2 54bb 063b 883b
00000090: 8a90 adbb 7a2e 12bb 2764 83bb 3797 253b
000000a0: f53f eb3a 4989 00ba fc1d 6ab9 2e95 21b9
000000b0: 62ff 893b de3e 78bb 223c e7ba a140 ebb8
000000c0: 746c a63b 7d42 21bb 0b2b 703b 77eb 703b
000000d0: 42ea 71bb 14a8 213b 2458 8a3b d5a1 553b
000000e0: 0862 c23b 9838 c4bb a6f5 10bb 2fa5 2d3b
000000f0: 73fb d939 ece0 093b 9477 51b9 97b7 143b
-0.00025845223 -0.0027378628 0.0033141044 0.00228551 -0.0045169555 -0.0045883893 0.0027832207 -0.0027432702
-0.0045560957 0.0031840284 0.00067977374 0.0028649133 0.0021408543 -0.0035457362 0.0016195108 -0.0031637538
-0.0067176935 0.003209783 0.0030023614 -0.0004497854 -0.0025917126 0.00078596803 0.0022883322 0.0033782239
-0.002524159 -0.004646094 -0.003536506 0.0025824597 0.0022669693 0.0036759616 -0.0027717615 -0.0024816056
-0.0069261617 -0.0019110931 -0.0032493372 0.0041574268 -0.0052967714 -0.0022305534 -0.004009742 0.0025267133
0.0017948138 -0.00049032696 -0.00022327149 -0.0001540973 0.004211352 -0.0037879269 -0.0017641822 -0.00011217711
0.0050788466 -0.002460628 0.003664675 0.0036761442 -0.003691331 0.0024666833 0.004221933 0.003259768
0.0059320964 -0.005988192 -0.0022119074 0.0026496162 0.0004157681 0.0021038605 -0.0001997634 0.0022692436

manager.M_value.0.weight f4 [32, 64]
00000000: 2327 173e e394 263e 8d9a 1abe d23c 1e3e
00000010: ba6a 2a3e 8cdf 02bd 9321 07bd a1ce 013d
00000020: 5955 0bbe 6810 a0bd 5a78 9bbe eae3 0a3e
00000030: 9506 183c e4c8 c9ba 9d65 a43d f08c 43bd
00000040: 2ffc b13d 8b21 08bd 06de e2bc d001 8dbc
00000050: 00af f83b a5ee 16bd b3e2 febd 4251 573e
00000060: f55a d1bc 3927 903e d6e3 b13d 49e2 73be
00000070: 2fab 263d 1a0c 3b3c 90dc 23be c6ed 293e
00000080: 2b5d 0d3e c729 093e 80a3 4bbd cf48 bcbd
00000090: 510f d13d 52bd 65bd eb9b afbc 6935 b43d
000000a0: 5e5f 103e 2e42 a93d 139f e4bd 77c5 1cbb
000000b0: 3124 27be 1fad 49be 9d26 483d dad8 3a3e
000000c0: 30f7 ba3d ecfd 71bd 552b e33d e700 8a3d
000000d0: 4d27 643e 0e97 a33c 6e7d 16be 4dcf cebb
000000e0: 0fe5 4dbe fa4d 8a3d 3de0 bcbc d704 793d
000000f0: 3798 00be 1a5b 45be a070 fa3d cc9e 273e
00000100: 718e 2abe 647b 513e ea7a 0fbd 2642 37bd
00000110: 5882 d23c 0876 403d e172 1abe 56ed 293d
00000120: f165 30bd d009 abbe 70a0 dc3d 80a4 513d
00000130: de82 a9be fc44 c33c ce80 4bbb e1ed cabd
00000140: 5553 653d eda5 793c 8625 2d3e 841d 4cbe
00000150: dcc6 1dbc adac 8f3d a272 ca3d fa13 2f3d
00000160: 6a24 f2bb b5d3 95bd 983e e13d 058f 33be
00000170: 16d7 1bbe 2b4e 77bd a41b 25bd 7fce d8b9
00000180: 85b1 193e ad1d 583b 4d72 cd3d 5661 283e
00000190: 97be 083e 5fc0 453e 7b7a e93c 1884 8abd
000001a0: 53f5 883c df28 453c 4c76 913e cb91 d43d
000001b0: f077 77bd a042 af3d 8607 823e cfc0 d9bd
000001c0: 5b22 36be f239 133d eab7 d33c cf76 15be
000001d0: 6d7f a8bd 4940 723d fe25 003e 0f62 12be
000001e0: b91d 4e3d afdf 6c3d 9920 d93d eaa3 003e
000001f0: 55d6 3fbe 7e34 c9bd c44c 593d 7fba 14bb
00000200: 1b57 11be 32d3 b4bd a6ee 143d c364 503e
00000210: 2aec 8c3c c765 10bd 1410 2d3c c0e8 1e3d
00000220: f4c3 f13d 1eb3 743e b81d 3bbd 4927 113e
00000230: 36e7 20bd f7ed 383d 84bf 3fbb c1c2 ccbe
00000240: 8027 9dbc e509 283e 5461 34bd 9528 853d
00000250: b3e2 84be f6b9 253e 5ea4 1a3e c1a0 113e
00000260: f9a0 063e 8955 89bd 62ee a5bd 47d7 03bb
00000270: 2d40 313e ab43 563e c002 223d b2e5 95bc
00000280: 4de7 173e b49d d53d 3069 f5bd 83cc babd
00000290: c408 323d 5aaf 08bb be96 b9bb cd7a 273e
000002a0: 5382 ff3d c7ef 273e 5514 753d 8ce7 c43d
000002b0: 1cb3 243e b37e 963d 5efb 24bd 6995 26be
000002c0: 4371 0f3e 9ae0 d83d 45f1 1cbe 17e7 7d3b
000002d0: 0b76 dbbd d000 93bc b5fa a93d e520 95bc
000002e0: a24b b8bb d304 dbbc 3354 3a3e fb90 93bb
000002f0: f680 0bbe 53b0 f03c ae70 a5ba d630 883e
00000300: bd5c 3c3e bb59 9dbd 56cf 953e b4a6 423d
00000310: fed7 48be 95fa 11bd 27fa 1ebe 3fc3 c73c
00000320: 96e4 26bb 2365 93bd 354b 2d3e 18f2 a53d
00000330: 2c0e b53c e4ff 86bc 4ad6 843d 9ab4 493e
00000340: 1354 703c 3d8b 713c 8d99 27be f688 a63d
00000350: aaa6 68bd 89d7 023b 1f1b 07be d606 e9bd
00000360: 6ce7 a6bc 9a73 833e 2216 8ebd e370 58bd
00000370: 1548 4bbe b2a1 3d3e 5b57 b3bc 8339 6c3d
00000380: a42a 06bd 73a4 d23d c867 03be 0e1c 42bd
00000390: 7530 8d3d 26d5 573d 833f 7cbc 18e7 6cbd
000003a0: b269 5d3c 0baf aabd eccf fe3d cae5 c3bd
000003b0: 994a 753d ea93 763e 2258 223e 60bc 0a3c
000003c0: f666 913e 0112 1b3e 2ad9 edbd e5a2 cf3c
000003d0: 7328 93bd 2848 483e e7e5 63be 5451 e63c
000003e0: 0aee 89bd a112 733c f750 893e fc64 483e
000003f0: edc8 cfbc c400 9d3c fa25 ad3d 31e2 90bd
0.14761023 0.16267733 -0.15098019 0.15452889 0.16642275 -0.031951472 -0.032991003 0.031691197
-0.13606776 -0.07815629 -0.30365258 0.13563505 0.009278913 -0.0015394953 0.08027194 -0.04774183
0.08690678 -0.033235114 -0.02769376 -0.017212778 0.007589221 -0.036848683 -0.12445583 0.21027091
-0.025556067 0.28154925 0.086860344 -0.2381679 0.040690597 0.011416459 -0.16002107 0.1659461
0.13805072 0.13394843 -0.049716473 -0.09193575 0.102079995 -0.056088753 -0.021436652 0.0879925
0.1409888 0.08264576 -0.111631535 -0.002392141 -0.163224 -0.19694947 0.04886495 0.18246785
0.091291785 -0.05908005 0.11092249 0.06738453 0.22280617 0.01996949 -0.14696285 -0.0063113333
-0.2010691 0.06753154 -0.023056144 0.06079563 -0.12558065 -0.19273034 0.12228513 0.1636917
-0.166559 0.20457226 -0.03502933 -0.04474082 0.025696918 0.046987563 -0.15082885 0.041486107
-0.04306597 -0.33405924 0.107727885 0.05118227 -0.33107656 0.023836605 -0.0031052115 -0.09908653
0.055987675 0.015237314 0.16908845 -0.19933134 -0.009629931 0.07015357 0.09885146 0.04274366
-0.007389595 -0.073157705 0.10998267 -0.17535026 -0.15218768 -0.06037728 -0.040309563 -0.00041352582
0.15009125 0.0032976673 0.10031567 0.1644338 0.13353954 0.19311665 0.028500786 -0.06763476
0.016718542 0.01203367 0.28410566 0.1037937 -0.060417116 0.085576296 0.25396365 -0.106324784
-0.17786543 0.035943933 0.025844533 -0.14596103 -0.082274295 0.05914334 0.12514493 -0.14295219
0.050321314 0.05783051 0.10601921 0.12562528 -0.18734105 -0.09824465 0.053051725 -0.0022694168
-0.14193384 -0.08829345 0.036360405 0.20350938 0.017202456 -0.035253312 0.010562915 0.038796186
0.11804953 0.23896453 -0.04568264 0.14175142 -0.039283 0.045148816 -0.002925844 -0.39992335
-0.019183874 0.16410024 -0.04403813 0.06501881 -0.25954208 0.1618422 0.15101764 0.14221479
0.13147344 -0.06705768 -0.081021085 -0.002011733 0.17309637 0.20924251 0.039553404 -0.018298004
0.14834328 0.1043047 -0.119829535 -0.09121039 0.04346539 -0.002085647 -0.005663722 0.16355439
0.12476029 0.16400062 0.059833843 0.096144766 0.1608395 0.07348385 -0.040278785 -0.16267933
0.1400805 0.10589714 -0.15326412 0.0038742477 -0.10715874 -0.017944723 0.08299772 -0.018204162
-0.0056242505 -0.026735699 0.18196182 -0.004503367 -0.13623413 0.029380953 -0.0012622082 0.2659976
0.18394752 -0.0768313 0.29259747 0.04752226 -0.19613644 -0.035639364 -0.15525113 0.024385093
-0.0025465838 -0.07197025 0.1692322 0.08102816 0.022101484 -0.01647944 0.06486185 0.196978
0.014668482 0.01474267 -0.16367169 0.08131592 -0.05679957 0.0019964895 -0.1319394 -0.11378257
-0.020374022 0.25674134 -0.06937815 -0.052842032 -0.19851716 0.18518713 -0.02189224 0.057672035
-0.03275551 0.102852724 -0.12832558 -0.047390036 0.06894008 0.05269351 -0.015396002 -0.057837576
0.013513969 -0.08334168 0.12442002 -0.09565313 0.059885595 0.24079862 0.15853932 0.008467764
0.28398865 0.15143587 -0.116136864 0.025346229 -0.071854495 0.19558775 -0.2225567 0.028114952
-0.067348555 0.014835984 0.26819584 0.19569772 -0.025364364 0.019165404 0.08454509 -0.070743926

manager.M_value.0.bias f4 [32]
00000000: ee52 58bb bb1d e6bb 3c88 4d3b 6eef 2fbb
00000010: 2afb 70bb 052d 78bb bb80 503b aeff 253a
00000020: 4693 7e3b 459e 8abb 0b7f 44bb e9a5 4bbb
00000030: 9e86 47b7 2bbd 7eba d18a 3fbb 58ef 473b
00000040: a72a 213b 49e0 7bbb 6489 473b b991 833b
00000050: 3233 4f3b 4e2f 5abb d560 80bb 41ef 8dbb
00000060: 4acf 403b b4de 543b 2b5b 4d3b 87d2 16bb
00000070: 8381 7cba 5254 84bb 98c1 5d3b e8ba f03a
-0.0033008414 -0.007022587 0.003136172 -0.0026845592 -0.00367708 -0.003786863 0.003181501 0.000633235
0.0038845106 -0.004230293 -0.002998295 -0.0031074232 -1.1892667e-05 -0.0009717519 -0.0029227028 0.003050765
0.0024592073 -0.0038433245 0.0030446881 0.004015174 0.0031616208 -0.0033292356 -0.0039177933 -0.0043315
0.002942043 0.0032481374 0.0031334858 -0.0023013668 -0.0009632336 -0.004038372 0.0033837315 0.0018366249

manager.M_value.2.weight f4 [1, 32]
00000000: 2854 e93d c1d7 433e a99e adbe 2e6b 073e
00000010: e598 673e fdba d13d fdaa 62bd 1bd6 39bc
00000020: 4575 64be e183 2a3e e3e1 0b3e 857a e73d
00000030: 6d53 4fbd c922 903d d890 f03d bcfc 94bd
00000040: 514c a6bd 3f79 aa3d 4813 19bd d419 5fbd
00000050: c166 0abe d08d 203e 0cb8 9f3e cc5c a73e
00000060: be79 cbbc 4998 75be 409f 57be f816 763d
00000070: 58af 4abe 9938 d83e d79c 79bd 6f43 8fbd
0.11393005 0.19125272 -0.3391011 0.1322448 0.22616918 0.10240743 -0.05533885 -0.011342551
-0.2231036 0.1665187 0.13660388 0.113026656 -0.05061667 0.07037885 0.11746377 -0.07274768
-0.08120025 0.08323907 -0.037371904 -0.05446799 -0.1351576 0.15679097 0.31195104 0.32687986
-0.024838325 -0.23983873 -0.21056843 0.0600805 -0.19793451 0.4223068 -0.06094059 -0.06995284

worker.f_stateW.0.weight f4 [128, 64]
00000000: 85be 7e3d 03d7 4f3d e77b 54bd 0889 1dbd
00000010: d910 b0bd f0bf 5d3d a7db 22bc 9164 4fbe
00000020: dd54 c63d d3aa a9bd 1d49 1fba ed2e 9fbb
00000030: 26eb 3cbc 8765 de3c af51 073e 7e6b d8bc
00000040: 24ab be3d e6e0 95bb e4b9 6c3e 8c2a b7bd
00000050: d1f2 e4bd 3c89 f5bd 2ff3 07bd 19ca ad3c
00000060: 6fd8 5c3e 7e87 c0bd 453d 1d3e 27fd f3bd
00000070: 4c53 e6bc 9798 f9bc 812e 9b3d a8e1 423d
00000080: 4f4c ca3d b097 4d3d 9602 af3b 31a1 9e3c
00000090: 088f ddbc 9744 babc 7c98 8a3d b938 91bd
000000a0: 725f 19be 6118 803d 8fb7 a63d 1c3c 3a3b
000000b0: 1f28 41bd 380c 143d 5c1d f2ba dbcb 693d
000000c0: 3b8a 5bbd b909 fcbd a460 7b3d dedc 823d
000000d0: c96c fb3d 8156 80bd 78ef 663d 7122 1cbe
000000e0: 73db 47bc d245 ed3c 25c8 15be 2d72 333c
000000f0: b44b 913c 080c fc3d 427a 153d a814 bdbc
00000100: 2a62 2d3d 0c68 0a3d 3af2 0dbe 8ae5 4fbd
00000110: c196 c0bd 473f 923c 6dc7 c33d d271 183d
00000120: 422d e13d 99c8 6f3d eebc fa3c 763e e9bd
00000130: bcf2 d3bb 3c13 d0bd da76 963c f63f 843b
00000140: ea1a a33d 5123 483d c31d 43bd fae3 2e3d
00000150: c895 893d d6d6 91bb 658f 883d 2e49 ddbc
00000160: 5162 89be e989 cabd 5cd5 ae3d d356 c7bd
00000170: 2d53 ad3c dcee 203e 2e2d ed3c c02b 94bd
00000180: 1c26 bdbd adeb bdbd ef00 06bc f662 85ba
00000190: 886d 1fbd e72d b3bd ec9c c63c ba57 aabd
000001a0: 1597 2b3d ba3a e9bd 4676 13bd 8cfb a63d
000001b0: d25a 0f3c aa1a a63d e9b7 35be 1691 d8bd
000001c0: ddf8 373e d0f7 aa3b 97e6 c73d 45c4 0dbe
000001d0: f00f 143e b06e 0c3c 9a17 c2bd ac94 163e
000001e0: 5ced 073d 44b2 e53d c91c da3d 2746 033e
000001f0: bd3a 083c 7a53 c83d 7b63 933d 2955 97bd
00000200: 1805 49bc 3e54 a4bc 3584 0bbe 838f 283e
00000210: 6c1b cbbd 7930 02bd c84e e1bd 72a9 b13c
00000220: efc2 dd3d 1525 a5bc 9738 853d dfb0 e5bd
00000230: 4afd 91bd e730 1b3d b2e4 a4bc 86ef 41bd
00000240: 0995 51be b7f2 6cbd fb53 1ebd b27d ddbd
00000250: 71a9 9b3d f1e6 543d 306b 1b3b f854 243e
00000260: 2708 ed3d 94c2 853d 8e89 223d a2b9 843c
00000270: 5663 553d 593d 87bc 3390 c13a eee2 b73d
00000280: 4c1d dfbd 2bac 9bbd f639 55be e305 d2bc
00000290: 37a0 47bd 3e09 aa3c b317 01ba 1f2c 0b3d
000002a0: 7f06 8abd 0a19 333d 89e6 8cbc dc8b c53d
000002b0: 4daf d9bd c4a0 273d 28d7 b73d dc1e aebd
000002c0: f240 493d 3b64 ad3d e926 fd3d 168f 923c
000002d0: f152 963d 4fb7 13bd 7692 2ebe 8482 03be
000002e0: e845 1f3d ddf1 e8bc 992e 443d 2971 a93c
000002f0: 0397 79bd 423c b5bd 9b4b 373d 8615 253e
00000300: caf8 0cbe 8976 85bc 8076 ed3d c937 a23d
00000310: 673e 85bd 13dc edbd e114 b3bd aa75 673a
00000320: 39d4 153c b63b 3bbd 8618 7b3d 5b37 16be
00000330: 9b70 10be 4eb3 83bd 89e9 b4bd fe74 4d3e
00000340: 0028 f7bc 890f 0d3d 0e2b 07be 520f 693c
00000350: 5f21 2fbe 077a f1bc a9a6 3bbe d583 53bd
00000360: 9ec2 c4bd aec3 74bd c919 573d 2a44 2cbe
00000370: ce01 8abd 743a 713d a42a 233d e1d7 48bd
00000380: d97d 463d e88c e43c 8270 ad3d 9dea 053e
00000390: 6996 203c 12d9 d33d 5281 ea3c 0a40 ad3d
000003a0: e4ea 523c d75c db3b da2a f83d 1512 12be
000003b0: dcd9 18be f5c5 b73d 99b1 633d 49c3 b23b
000003c0: 4218 3dbe b8cf 233d 56d9 f43c 02bf e2bc
000003d0: 1231 e5bd c9e9 22bd 1847 99bb f155 d9bd
000003e0: 236a acbd 290b 6f3d dc0d 37bd 727d e5bc
000003f0: 5ab5 c73c efe0 26be c088 b23c 14d3 26be
0.062193412 0.05074216 -0.051875975 -0.03846076 -0.085969634 0.054138124 -0.0099400645 -0.20253207
0.09684155 -0.08284535 -0.00060762634 -0.004857889 -0.011530673 0.027148021 0.13214754 -0.026418444
0.09309986 -0.004573929 0.23117787 -0.08943662 -0.11179126 -0.11989066 -0.033190902 0.021214532
0.21566938 -0.09400843 0.15355404 -0.11913519 -0.02811589 -0.030468268 0.07577229 0.047578484
0.09877836 0.05019349 0.0053408844 0.019363971 -0.027045742 -0.022737784 0.06767365 -0.07090897
-0.14977816 0.0625465 0.0814048 0.0028417176 -0.047157403 0.036144465 -0.0018471885 0.057079177
-0.053598624 -0.12306542 0.06137146 0.06389783 0.122766085 -0.06266499 0.05638072 -0.15247513
-0.012198317 0.028963957 -0.1462713 0.010952515 0.017736293 0.12306982 0.036493547 -0.023081139
0.042329945 0.033790633 -0.13861933 -0.050756015 -0.09403754 0.017852439 0.09559522 0.037217923
0.1099496 0.058540914 0.030607667 -0.113888666 -0.006468145 -0.10159919 0.01836722 0.004035945
0.07964118 0.048861805 -0.047635805 0.042697884 0.06718022 -0.0044506593 0.06667975 -0.027012434
-0.26832822 -0.098895855 0.08536789 -0.09733357 0.021157825 0.15716118 0.028952207 -0.07234907
-0.092357844 -0.09273467 -0.0081789335 -0.0010176587 -0.038922817 -0.087489896 0.024244748 -0.08317514
0.04189213 -0.11388154 -0.036001466 0.081534475 0.008749681 0.081105545 -0.17745937 -0.10574548
0.17966028 0.00521753 0.097607784 -0.13844402 0.14459205 0.008571312 -0.09477158 0.14705151
0.033185348 0.11215642 0.106500216 0.1281973 0.008314786 0.09781547 0.07196709 -0.0738929
-0.012269281 -0.020059701 -0.13624652 0.16460995 -0.0991734 -0.03178451 -0.110013545 0.021687243
0.10828196 -0.020159284 0.06504934 -0.11215376 -0.07128389 0.037888434 -0.020128582 -0.047347568
-0.20467009 -0.05784866 -0.03865431 -0.1081499 0.07600678 0.051978055 0.0023715012 0.16048038
0.115738206 0.065312535 0.039681964 0.016201798 0.052096687 -0.016508745 0.0014767706 0.0897883
-0.1089426 -0.07601198 -0.20822892 -0.025637573 -0.048736777 0.02075636 -0.0004924491 0.033977624
-0.0673952 0.04372505 -0.017199771 0.09645817 -0.10629139 0.040924802 0.08976585 -0.0850198
0.049134202 0.08466383 0.12360937 0.017890494 0.073400386 -0.03606349 -0.17048058 -0.12842757
0.038885027 -0.028435642 0.047896 0.020683842 -0.06093503 -0.08849384 0.044749837 0.16121492
-0.1376678 -0.016291874 0.11594868 0.079207964 -0.06506043 -0.116142415 -0.08744217 0.0008829484
0.009144836 -0.04571124 0.061302684 -0.14669554 -0.14105456 -0.06430684 -0.08833606 0.2006416
-0.03017044 0.034438644 -0.13200018 0.014224844 -0.17102574 -0.029477132 -0.18325295 -0.051639397
-0.09607433 -0.059756927 0.052514825 -0.16822878 -0.067386255 0.058893636 0.039835587 -0.049034003
0.04845986 0.02789922 0.08468725 0.13077779 0.009801486 0.10344137 0.028626118 0.0845948
0.012873385 0.006694417 0.12117548 -0.1426471 -0.14926857 0.08973304 0.055589292 0.0054554087
-0.18466285 0.039993018 0.02988879 -0.02767897 -0.11191 -0.039773736 -0.0046776645 -0.10612095
-0.084186815 0.058360253 -0.04469095 -0.028013919 0.024378467 -0.16296743 0.021793723 -0.16291457

worker.f_stateW.0.bias f4 [128]
00000000: f600 e23b 9f8b 6d3b d70f a2bb bb6a 203b
00000010: 254a fdba 71ae 18bb 0db8 d6bb fc40 27bb
00000020: f17d 853b 26d4 343a 045c 843b 4dc7 d93b
00000030: de4c 463b c6d5 a5bb b9eb cbbb adcc a2bb
00000040: 470f c7bb a44c 533a 5dc4 033b 9d6b 1d3a
00000050: f43d 65bb 878b f4ba ebda 9b3b 620a ac3b
00000060: 2d75 4c3a cef8 fdb9 b7d3 bf3b b12d 2c3b
00000070: bc2d 9cbb 380d e9ba 9cb5 7d3b 4d23 50bb
00000080: 94cd 43bb d37e a33a 4fc7 95bb 9c74 d13b
00000090: 84d5 17bb 126b d33a 64fa 763b b158 6cbb
000000a0: 79b1 08bc 64c4 fb39 d945 7dbb 1023 a6bb
000000b0: 8241 60bb cbed d63b 6c1c 143b cb94 9d3b
000000c0: fdb4 8c3a c157 9aba 915d 8039 3d85 df3b
000000d0: 319b abbb a51e 063b 3746 c03b 06d2 4e3b
000000e0: d0d4 fe3b bf9b 9bbb dda2 7c3b 6362 843b
000000f0: 25e7 e33b 44c5 8fbb 82b7 a7bb 3390 393a
00000100: bb0f 9b3b 1bbb 473a 69f1 0b3c 578a 07bb
00000110: 2663 dfb9 be43 3f3b 3d22 d23b 9ca2 ffbb
00000120: ff1a b53b 4b86 b0ba 988b d4bb 93f2 d83b
00000130: 1397 773a 9ce7 16bb 7c42 beb8 f47c 8d3b
00000140: e8cb 01bc 784b c23b 4224 a53b 21c0 f6ba
00000150: 9548 a33b 8092 733b 043a c0ba acdb a1bb
00000160: d8de cd39 16ed 5eba 32ec 473b 8d9f aebb
00000170: 35ae fbb9 1a2c 08bc 51da b03b 0e1a 8fbb
00000180: 3c4f 033b 54ed 4fbb 6a42 14ba 0691 143b
00000190: 1672 133b b3e1 8dbb de07 7d3a 57f7 0f3a
000001a0: dc10 98bb 61a0 f23a 3de7 633b 125a 5bbb
000001b0: ad0f d1bb b0f9 a439 c192 973b fa05 8e3b
000001c0: 0317 193b d29d 80bb b727 a7bb 7856 b3bb
000001d0: 9b03 44bb ca3a cdbb 8882 c03a 3dbf c13a
000001e0: 06a2 cc3b a1d3 b3bb 6e7e 7dbb 6e0b 99ba
000001f0: a093 84ba f0b9 9b3a c431 21bb daae 25b9
0.006897087 0.003624655 -0.004945736 0.0024477679 -0.0019324465 -0.0023297335 -0.0065527023 -0.0025520911
0.0040738513 0.00068980677 0.0040392894 0.006646073 0.0030258219 -0.005060884 -0.0062231687 -0.004968247
-0.0060748192 0.00080604316 0.0020106055 0.00060051103 -0.0034979554 -0.0018657305 0.0047563217 0.005250261
0.0007799443 -0.00048441294 0.005854096 0.0026272351 -0.004766194 -0.0017780429 0.0038712984 -0.0031759322
-0.0029877173 0.001247371 -0.0045708786 0.0063920747 -0.0023168037 0.0016129932 0.0037685866 -0.0036063606
-0.008343094 0.00048020773 -0.0038646369 -0.0050700977 -0.0034218733 0.006559109 0.0022599949 0.0048089973
0.0010735091 -0.001177542 0.00024483775 0.006821303 -0.005237006 0.0020465043 0.0058677453 0.003155829
0.007776834 -0.004748791 0.0038549223 0.004040049 0.006955045 -0.0043875296 -0.0051183114 0.00070786773
0.0047321 0.00076191284 0.008541443 -0.0020681822 -0.00042607746 0.0029184665 0.006412773 -0.007801367
0.0055269 -0.0013467757 -0.0064863674 0.006620714 0.0009444814 -0.0023026234 -9.07229e-05 0.004317874
-0.00792215 0.0059294067 0.0050397227 -0.001882557 0.0049830177 0.0037166178 -0.0014665728 -0.004939517
0.00039266679 -0.00085039565 0.0030505774 -0.0053290785 -0.00048004245 -0.008311296 0.005397119 -0.0043671196
0.002003624 -0.0031727152 -0.00056556484 0.0022669449 0.002249842 -0.004329884 0.00096523564 0.00054918736
-0.0046406817 0.0018510931 0.003477528 -0.0033470434 -0.0063800425 0.0003146655 0.0046256487 0.0043342086
0.0023359663 -0.0039250636 -0.00510117 -0.0054729544 -0.0029909376 -0.0062631117 0.0014687339 0.0014781725
0.0062449006 -0.0054878746 -0.0038680094 -0.001167638 -0.0010114796 0.0011880975 -0.0024596313 -0.00015800764
