vwgym/saved_model/vwgym_f_net_step_10400000.pt (torch_old, 160583 bytes, 30 tensors)

f_percept.percept.0.weight f4 [16, 3, 3, 3]
000000 2e 61 2c bd d4 fc 59 3e e3 6d 71 3d 65 b7 5c bd
       -0.042084865 0.21287853 0.058942687 -0.053885836
000010 df 36 a3 3e 6a f0 38 3e bd b9 86 3e 1a 6a 83 be
       0.318778 0.1806046 0.26313582 -0.25666887
000020 fd c1 1c 3d 60 ad c5 3c dd 24 66 be 33 d0 5d be
       0.03827094 0.024130523 -0.22475 -0.21661453
000030 12 68 6c be 97 7c 2a 3e 03 40 70 3e 18 96 42 3e
       -0.23086575 0.1664909 0.23461919 0.19002569
000040 1d a3 b0 be cc 7a a9 be b7 a1 50 3e 64 62 b4 bc
       -0.34499446 -0.331015 0.2037419 -0.022019573
000050 91 73 ca 3d a5 33 49 be 24 ed 49 be 21 a0 13 be
       0.09885324 -0.19648607 -0.19719368 -0.14416553
000060 79 64 12 3e 55 4c 61 3d 16 7c 6a 3d 4d 25 ac be
       0.1429614 0.055004437 0.057247244 -0.33622208
000070 de e6 1d 3e d9 b2 82 be 46 8c 7e be 44 88 4d be
       0.154201 -0.25527075 -0.24858198 -0.20071512
000080 e1 67 61 be 60 d1 0e be 85 c3 c6 3d 08 38 7e 3e
       -0.22012283 -0.13947058 0.09705261 0.24826062
000090 be fd 84 bd cf db 87 bc e6 40 a9 bd df a6 04 be
       -0.0649371 -0.016584305 -0.082643315 -0.12954281
0000a0 a1 89 18 be ae be b2 3d a7 89 97 3e b9 27 b2 3d
       -0.14896251 0.087277755 0.29597208 0.08698983
0000b0 2f e7 95 be 11 49 87 bd fc 26 d1 3e 26 ed a0 3d
       -0.29277942 -0.06605733 0.40850055 0.078577325
0000c0 76 18 d0 3d ce c6 9b 3e 6b 50 5b bd ea 44 45 3e
       0.101609156 0.30425113 -0.05354349 0.1926457
0000d0 6e b7 a5 3c 9f d4 a1 bc 2a 04 33 bd 08 0c f0 be
       0.020229068 -0.019754706 -0.043705143 -0.4688418
0000e0 ec 60 de 3c b0 43 b2 be 2d c1 84 3d e1 d7 a8 3e
       0.027145825 -0.34817266 0.06482158 0.32977203
0000f0 e3 77 11 be 4c 5a 0b 3d f4 d7 24 3d e1 4b a8 bd
       -0.1420589 0.03402166 0.04024501 -0.08217598
000100 ef 7c db 3d 3f a4 2b 3e 20 9a 85 be 47 6d d6 bd
       0.107171886 0.16761874 -0.2609415 -0.10470062
000110 7e ee 6c bd 5b 94 d5 be a4 24 39 bd 8d 92 a4 be
       -0.05784463 -0.4171475 -0.04520096 -0.3214306
000120 14 f7 a0 3d 93 50 c0 bd 80 ed 12 3e 09 d6 b9 bd
       0.078596264 -0.09390368 0.14348412 -0.09074027
000130 42 8f 4c 3e 16 68 d6 3c ca 14 8b 3d 1b 01 99 3d
       0.19976524 0.026172679 0.067910746 0.07470914
000140 9d d9 0b 3e 7b 06 21 bd 2a da 64 bd 2b c2 9a bd
       0.13657232 -0.03931282 -0.05587212 -0.07556566
000150 85 68 28 3e bb a6 d7 bd 33 bf 91 bd 27 bd b6 bd
       0.16446121 -0.10529848 -0.071165465 -0.08922797
000160 ce 32 7f be fd f8 89 3e 49 6e d3 be b7 af 4d 3e
       -0.24921724 0.26947775 -0.41295078 0.20086561
000170 54 1b 12 3c a1 c6 1e 3e 6b 69 41 bc 86 d8 b5 be
       0.008917648 0.15505458 -0.011804919 -0.35516757
000180 5d df 4b bd 24 7c 35 be d9 24 01 3d 18 e1 1d 3d
       -0.049773563 -0.17723137 0.03152928 0.038544744
000190 37 f4 87 bd 05 ae b9 bd cc 13 49 bd 2b 27 85 be
       -0.06638377 -0.09066395 -0.049091145 -0.26006445
0001a0 b8 d6 5c bd c0 1e 0a 3f 29 91 23 3e 7a a8 40 bd
       -0.05391571 0.5395317 0.15973343 -0.04703567
0001b0 5f 2f 0d bc e7 7e be be 11 ed fd bd bf 1b b6 3e
       -0.008617251 -0.37206194 -0.123987325 0.35568044
0001c0 7d c0 0e 3d 11 bc a4 be d5 19 3f 3e 5d 37 53 3e
       0.03485154 -0.32174733 0.18662198 0.20626588
0001d0 a2 cd a6 3c 1d 7d ca 3b a3 fd 25 3e 90 39 5e be
       0.020361725 0.0061794654 0.16210036 -0.21701646
0001e0 cd 91 28 bd 16 ab e8 3d 92 b0 50 3d 11 75 91 3d
       -0.04115467 0.11360757 0.05094964 0.07102407
0001f0 f4 9a 39 bb 1c 94 9d be b2 5a f8 bc 06 79 71 be
       -0.002832112 -0.3077706 -0.030316684 -0.23581323
000200 5a 99 fc bd 14 96 af be eb 17 66 3e be 7c fa bc
       -0.12333937 -0.34294188 0.22470061 -0.03057706
000210 25 d3 8b bc 37 23 14 be 7d 31 96 be 98 cf 5a be
       -0.017068455 -0.14466558 -0.29334632 -0.21368253
000220 f0 70 a2 3d 35 e0 d8 bd 1a 9e e4 bd 03 0f ed bc
       0.07931697 -0.10589639 -0.11162968 -0.028937822
000230 30 9c ca be 01 4c e7 3d 1f 85 1f 3e 8e c8 9e bd
       -0.39572287 0.112937935 0.15578125 -0.077530965
000240 79 1a 8f bc c7 5b 0d 3e ce 6f 41 3d 5b 18 15 3d
       -0.017468678 0.13804542 0.047225766 0.03640018
000250 04 92 1b bd 39 b3 87 3e ea 7f 23 be a7 69 82 be
       -0.03798105 0.26503924 -0.15966764 -0.2547123
000260 35 70 b4 3e af a5 a7 3e 86 d9 56 be 25 da 88 3e
       0.35241857 0.32743594 -0.20981416 0.2672893
000270 37 ba f8 bd c4 0d cb 3d 9d 33 50 3e 81 c2 29 3e
       -0.12144893 0.09914735 0.20332189 0.16578104
000280 fd bd 95 bd 8a 32 9c 3e cb 29 25 be d5 84 9c bc
       -0.07311628 0.30507308 -0.16129224 -0.019106308
000290 cf 61 55 be 2c e8 49 3e c6 1a a4 3e 96 db 9a bd
       -0.20838092 0.19717473 0.32051677 -0.07561414
0002a0 b8 f4 22 3e ca b9 32 be 7d ee 61 3d 89 be e9 bd
       0.15913665 -0.17453685 0.05515908 -0.11413295
0002b0 8a 1f e8 bd 8b 2c cf 3e 1e 76 91 bd da 91 a0 bd
       -0.113341406 0.4046367 -0.07102607 -0.07840319
0002c0 88 96 46 3c 9e 64 ae 3d ee 72 ba 3d 47 81 69 be
       0.01212085 0.08515285 0.09103952 -0.22803222
0002d0 fd 00 07 be 72 f8 13 be 7b 6f fa 3b 7e df a2 3e
       -0.13183971 -0.14450243 0.007642684 0.31811136
0002e0 a2 86 ba bd e5 07 08 3f ee 3a f5 bc 5f ec 19 be
       -0.091077104 0.53137046 -0.029935326 -0.15031575
0002f0 e6 7c 1c 3d ec d0 74 bd 18 c6 ce bc 9e 88 cd bd
       0.03820505 -0.059769556 -0.025240943 -0.10035823
000300 06 b2 32 3d 1e 29 8a be 13 47 bb 3e c3 50 45 3d
       0.043626808 -0.26984495 0.36577663 0.048172724
000310 6b 7e a2 be 3e c4 4c 3e 4b 72 99 bd 1c 41 d7 bd
       -0.31737074 0.19996735 -0.07492503 -0.105104655
000320 cf ec 83 be f3 93 9c 3e df e4 7d bd 0e fd 83 3e
       -0.25766608 0.30581626 -0.061985847 0.25779003
000330 c0 10 32 bc d1 40 97 3e 19 cf 7f 3d 87 fd 1a be
       -0.010868251 0.29541638 0.062453363 -0.15135776
000340 02 68 38 be 7c 2b 55 3e b6 b2 77 be f4 2b f2 3d
       -0.18008426 0.20817369 -0.24189267 0.1182479
000350 26 02 18 3e 33 00 33 3d d6 27 97 be 31 24 d8 3d
       0.1484457 0.043701362 -0.2952258 0.10553778
000360 da 98 11 3e a5 af 8e 3b 41 cb 52 3e 52 e3 f0 3b
       0.14218464 0.0043544346 0.20585348 0.0073513174
000370 ec d4 79 be b6 9b 6d be ca f8 fe bb 53 81 8f be
       -0.2439763 -0.2320393 -0.007781123 -0.28028354
000380 9e e5 6a 3e 39 90 42 3a 5e 5d 98 bd f8 04 6d be
       0.22939155 0.00074220035 -0.074396834 -0.23146427
000390 7b 79 20 be 2c 48 31 bb 6b 79 9f bd c6 2f 1b be
       -0.15671341 -0.0027051074 -0.077868305 -0.15154943
0003a0 36 cf d8 be 56 36 59 3c 35 5e 8b be 67 08 ca bd
       -0.4234559 0.013257584 -0.27220312 -0.09864884
0003b0 af d8 91 3e 6f ad 6e 3e 5f 50 35 3e 83 a4 32 3e
       0.2848563 0.23308347 0.1770644 0.17445569
0003c0 85 22 92 be 8e 65 fd 3d 6d 17 16 be f4 e0 23 3e
       -0.2854196 0.12372886 -0.14657374 0.16003782
0003d0 98 fe ef bc db a4 7e be ee fe 14 be fd 35 8c 3d
       -0.029296204 -0.24867575 -0.14550373 0.06846235
0003e0 7e c0 cc be 92 c1 70 be 1e 0c de be 7c ed 50 3d
       -0.3999061 -0.23511341 -0.4336862 0.051007733
0003f0 c1 48 07 3e 8c 25 f6 bd 2d 95 1f 3e dc d3 0f 3d
       0.13211347 -0.1201888 0.1558425 0.035114154

f_percept.percept.0.bias f4 [16]
000000 aa 7d 75 bb db d7 8a b9 12 f2 02 bb 99 b8 10 bb
       -0.0037458935 -0.00026482236 -0.001998071 -0.0022082685
000010 82 0e ac bb 10 20 83 3b fa 52 29 bb 0f bc b6 3b
       -0.005250753 0.004001625 -0.0025836811 0.0055766176
000020 91 f7 63 b9 a7 de 88 3b e0 69 99 b8 39 7a 06 3b
       -0.00021740633 0.004176933 -7.315329e-05 0.0020519628
000030 0e 28 14 bb 12 57 d7 3b d4 46 20 bb fe 38 13 3b
       -0.0022606882 0.006571659 -0.002445628 0.002246439

f_percept.percept.3.weight f4 [64, 16]
000000 07 15 8f 3d aa 8f 1b be a9 53 0e 3d 09 0a 10 be
       0.069864325 -0.15191522 0.034747753 -0.14066328
000010 ee 31 ad bd 10 57 80 bd b3 83 47 bd be 4c 1f 3e
       -0.08456789 -0.06266606 -0.048709583 0.15556619
000020 ce 5d 9b bd e7 d3 c9 3d cd d2 7a be ff 2a 34 be
       -0.07586251 0.0985487 -0.24494477 -0.17594527
000030 0b 73 c6 bc 73 c0 44 3c 53 b4 a6 3d 5b 34 89 3d
       -0.024224779 0.012008774 0.08139863 0.06699439
000040 b2 7f b5 bd af 23 f7 3d f5 ea 1a 3e db 60 87 3d
       -0.088622466 0.12067353 0.15128691 0.066102706
000050 24 2e e9 3d f2 29 90 3a 5d 5c 35 be 42 1f 3a be
       0.11385754 0.0010998829 -0.17711015 -0.18175986
000060 b9 1f ea 3d 95 02 eb 3c 8f ab d7 3d 60 89 03 3d
       0.11431832 0.028687755 0.10530769 0.032113433
000070 af 21 bf 3c ce 36 24 3e df 27 9f bd 8b 20 87 bd
       0.023331491 0.16036531 -0.07771277 -0.06598004
000080 e8 69 1c bc 9d aa 0c be c4 60 10 be b5 c6 01 bd
       -0.009546734 -0.13736959 -0.14099413 -0.031683642
000090 ad 6d 38 3d 71 d3 0f 3e 40 a7 f2 bd 6f af b1 3c
       0.04502647 0.14045502 -0.11848307 0.021690099
0000a0 c4 4a fa 3c e9 ab cc bd 48 cd dd 3b 7b cd 07 3e
       0.03055323 -0.09993727 0.006768856 0.13261978
0000b0 80 17 a4 bb 28 10 28 bd e4 41 55 3d f2 53 00 3d
       -0.005007684 -0.041031033 0.05206479 0.031330056
0000c0 7a 97 50 bd f2 e9 c4 bd 82 12 d8 3d 66 af ec bc
       -0.05092571 -0.09614934 0.10550405 -0.02889223
0000d0 03 46 95 be d8 74 5d 3e d2 da 07 3d de 22 52 3e
       -0.29154977 0.21626604 0.033167668 0.20521113
0000e0 8b 90 dc 3d 7b 71 88 bd 6c 3b c7 bd ec 78 6a bc
       0.10769757 -0.0666227 -0.09728131 -0.014311057
0000f0 a0 92 44 be 2a bf 71 bd 01 ec 9e bd 07 4c 14 be
       -0.19196558 -0.0590202 -0.07759858 -0.14482127
000100 15 57 d6 3d c1 f4 f9 bd ad 6f a1 bd 39 13 ce 3d
       0.10465828 -0.12204886 -0.078826286 0.1006226
000110 3a 24 b2 3c c7 19 08 be 65 8d 50 be b9 6b 20 be
       0.02174579 -0.13291083 -0.20366438 -0.15666093
000120 6a e8 43 be 60 de 6e 3a 3e 9a 1b 3e 4c aa a4 bb
       -0.19131628 0.0009112116 0.15195557 -0.005025184
000130 c1 f7 83 bd 5b f6 54 3e 01 8f 10 3a 1f de 46 3b
       -0.0644374 0.20797102 0.00055144733 0.0030344797
000140 68 6b aa 3e a9 23 39 3e a4 56 20 3e 10 01 3a be
       0.3328507 0.1808001 0.15658051 -0.18164468
000150 e4 a6 df bc a1 22 64 be 1c f2 e9 bd 60 52 d3 3d
       -0.02730126 -0.22278835 -0.11423132 0.10318446
000160 01 87 a4 bd 7e 53 f0 bd c1 5d e8 bc 87 7f cd 3d
       -0.080335625 -0.11734675 -0.028365018 0.100340895
000170 69 7e 81 bd e9 c1 03 be 79 fa c8 3b 9c c0 32 be
       -0.06322939 -0.1286694 0.0061333743 -0.17456287
000180 38 9d bf bd bd bb f3 bd fa d8 9a bc d6 4e 67 bd
       -0.09356159 -0.119010426 -0.01890229 -0.05647167
000190 5f 7d a7 3d 95 d6 60 3d 4c 51 6e 3d 43 5e 5f be
       0.081782095 0.05489214 0.058183 -0.21813302
0001a0 8a 4e ed bc 20 58 2d bd bb 94 c6 3d 93 52 1f 3e
       -0.028968114 -0.04232037 0.09696337 0.15558843
0001b0 13 85 ff 3c 64 2b 99 3c c6 19 1c be 7c 98 e8 3c
       0.031191384 0.018697448 -0.15244207 0.028393023
0001c0 53 d3 b7 3d af fd e9 3d b4 ca 0a be 87 ee 8f bd
       0.08975854 0.114253394 -0.13553888 -0.07027917
0001d0 74 49 a1 3d b7 8c a6 3d 35 20 3a be 71 c9 8a 3d
       0.07875338 0.08132308 -0.18176349 0.06776703
0001e0 cd 5f ea bd 11 0e c3 be 85 e1 88 3d 0a 8f 05 bc
       -0.11444054 -0.3809667 0.066836394 -0.008151779
0001f0 33 f8 72 3d ab 00 df bd 83 a8 87 be 4a c2 14 be
       0.059318732 -0.10888799 -0.26495752 -0.1452724
000200 af ed d9 bc e2 30 df 3d 1c 0c 90 be 27 7a ad bd
       -0.026602594 0.108979955 -0.2813424 -0.08470564
000210 40 7c a7 3c 3a 31 ad bd 49 35 ad 3d 67 10 63 bd
       0.02044499 -0.08456655 0.08457429 -0.055435564
000220 34 d1 9c 3d 3d 46 0b 3d a3 ae 46 bb 9a dc 21 be
       0.0765709 0.03400253 -0.0030316494 -0.15806809
000230 b1 2f 4d be bf ee c2 3c dc e8 0c 3e 38 d6 16 3e
       -0.20037724 0.023795484 0.13760704 0.14730155
000240 d6 3c 1f bb d3 55 af 3d ec 88 a1 bd ae 4d cb bd
       -0.0024297736 0.085612915 -0.07887444 -0.099269256
000250 79 f5 92 bb de 9f 3a 3d c6 d4 af bd 4b 75 59 bc
       -0.004484829 0.045562617 -0.08585505 -0.013272594
000260 1c d5 2c be 16 3c 1c 3e e8 73 56 3d 17 bf c0 3d
       -0.1687817 0.15257296 0.05235663 0.094114475
000270 d3 d3 ec bd 08 d7 c0 bd d2 7c 01 3e 5a 59 f1 bb
       -0.1156384 -0.09416014 0.12645271 -0.007365388
000280 62 67 4f be a7 de 0e 3d 40 39 01 be 7e 77 0d bd
       -0.20254281 0.034880307 -0.12619495 -0.034537785
000290 12 89 d0 be fd 9f b6 bd 6a fd 09 be a7 d6 27 3d
       -0.40729576 -0.08917234 -0.13475576 0.040976193
0002a0 3c cf 3e 3d 1f e8 f9 3d 5e 7a 50 bd b4 62 13 be
       0.046584353 0.12202477 -0.05089795 -0.14393121
0002b0 aa ba 25 be d0 4e 0a bc cf 49 8b bc 40 c1 8f bd
       -0.16184488 -0.008441642 -0.017002968 -0.070192814
0002c0 84 c2 8b 3d 8d 17 93 be 52 6d 02 3e cb 3b 54 3d
       0.0682421 -0.28728905 0.12737015 0.051814836
0002d0 64 78 48 bd 09 05 13 be ad 24 66 3e 48 db fd 3c
       -0.04894294 -0.1435739 0.22474928 0.03098835
0002e0 c5 cc 00 3e 7a af 97 3c f2 57 6f bc aa 19 77 bc
       0.12578113 0.018516291 -0.01460837 -0.015081802
0002f0 c8 14 16 be f5 c6 49 be f7 f5 96 bd ad 55 00 be
       -0.14656365 -0.19704802 -0.07371133 -0.12532683
000300 4a 41 05 be 28 61 84 be 8f 27 4c be fe fd b7 3c
       -0.13013187 -0.25855374 -0.19936965 0.02245998
000310 6c cd 5a 3c 65 c5 4e bd d8 1c 0d be 80 78 ac bd
       0.01335464 -0.05048122 -0.13780534 -0.08421421
000320 24 40 46 be c2 6d ef 3c 78 f0 a1 bc 18 6f ba 3c
       -0.19360405 0.029227141 -0.019767985 0.022758052
000330 6f 31 16 3e 22 da 36 be 90 c4 95 3e 59 e1 5a bd
       0.14667295 -0.17856649 0.29251528 -0.053437565
000340 82 ab 94 3d fb f8 2e 3e 80 96 e6 bd c1 98 27 be
       0.07259275 0.17087166 -0.11259174 -0.16366865
000350 55 ef c9 bd 4a 74 cc 3d e2 75 a8 3d 3a 21 4d be
       -0.09860102 0.09983118 0.08225609 -0.20032206
000360 ff be 53 3d 41 e4 12 bd 2d 1c b4 3d af 63 9f 3d
       0.05169582 -0.03586221 0.087944366 0.07782685
000370 a2 bb 6b be 5d b9 cd bc b4 8a 12 bd 78 a3 be 3d
       -0.23020795 -0.025112802 -0.03577681 0.09308523
000380 85 e9 29 3d db 29 61 3c b5 40 f9 bc 6a b0 79 3e
       0.041482467 0.013742889 -0.030426363 0.24383703
000390 ec e0 86 bd ba dd 3e 3e 8d 92 03 3e dd 78 54 3d
       -0.06585869 0.1863927 0.12848873 0.051873077
0003a0 cb 49 d7 3d ae c7 05 bd b7 b4 a2 3c 7d 50 00 3e
       0.10512122 -0.032661133 0.019861562 0.12530704
0003b0 aa 7a bb 3c 11 30 2b bd 11 8c ef 3d c0 62 bf bd
       0.02288564 -0.041793887 0.116966374 -0.09345007
0003c0 c8 cd d5 bd 82 7f 39 be 68 17 2e 3e 55 6a 19 3e
       -0.1043964 -0.18115047 0.17001116 0.14981969
0003d0 7d d6 b6 bd 3f d4 03 be 22 02 8e bd 6b 8e 95 bd
       -0.08927629 -0.12873934 -0.069340006 -0.07302555
0003e0 38 4b 9d bc a4 2f 19 bb 8d 37 68 3c 84 fa 82 3c
       -0.019200906 -0.0023374343 0.014173401 0.015988596
0003f0 28 53 b1 3c 91 34 18 be ba 5a 2d 3c 14 31 0e 3d
       0.021646097 -0.14863802 0.010580713 0.034714773

f_percept.percept.3.bias f4 [64]
000000 2b f3 0e 3b 3d 4d f7 3a fa 55 57 3b f5 d5 9e ba
       0.002181242 0.0018867623 0.0032857643 -0.0012118208
000010 3c 27 4d 3b 8e 95 bd ba f6 8a 98 3b 91 b6 85 ba
       0.0031303903 -0.0014464126 0.0046552373 -0.0010201504
000020 b9 05 c2 3b de 63 04 3c dd ee ac b9 d6 c0 36 bc
       0.0059210924 0.008080451 -0.00032984363 -0.011154374
000030 89 8b c2 ba 17 18 0f 3b 81 53 9e 3b c3 af c0 bc
       -0.001484261 0.0021834427 0.004831732 -0.02352131
000040 db fb a1 bb 54 b0 4e 3b b5 cd f9 b5 14 6d c3 3b
       -0.0049433536 0.0031538205 -1.8611814e-06 0.005963931
000050 f2 cd 13 3c 99 db cd bb 9b b9 2d bc 93 41 35 3b
       0.009021269 -0.0062822816 -0.010603334 0.0027657493
000060 13 ab a8 ba 36 5f 67 bb e6 73 0a bc 59 4e 4f 3b
       -0.0012868367 -0.0035304553 -0.008450484 0.0031632392
000070 cb dd 40 bc 8b 5b cd bb 62 ce 73 3b c5 cc be bb
       -0.01177163 -0.0062670163 0.003720187 -0.0058227503
000080 97 f2 1f 3a b3 30 4d 3b e1 12 27 3c 4f 9d dc bb
       0.00061015174 0.0031309545 0.010197372 -0.00673262
000090 42 70 fa 39 8d ee 63 b9 96 c7 e1 ba 4f dd 54 bc
       0.00047767354 -0.00021737274 -0.0017225619 -0.012992217
0000a0 f4 e8 92 bb 22 ce 56 3a 54 79 43 3b 44 78 8c bb
       -0.0044833366 0.00081941683 0.0029826956 -0.0042867977
0000b0 92 60 a2 bb e4 a1 2a bb f2 ce 35 3b 46 60 d6 bb
       -0.0049553597 -0.0026036436 0.0027741757 -0.0065422384
0000c0 e5 bf 88 b9 cf 92 16 bc ad 1d 71 bb 1b d1 42 3c
       -0.00026082914 -0.009190275 -0.003679137 0.011890675
0000d0 34 9f b5 bb 6a cf 48 bc 6d f3 7f bb 3e b6 f3 ba
       -0.00554266 -0.012256483 -0.0039055005 -0.0018593741
0000e0 44 b3 90 ba 4f ca a3 bb fa c2 01 3a 64 eb 80 bb
       -0.0011039753 -0.0049984823 0.0004950013 -0.0039343107
0000f0 9b ef d5 3b 6f 64 23 bc fa 5c dd 3a 94 98 f3 bb
       0.0065288073 -0.009972676 0.0016888671 -0.00743396

manager.M_space.weight f4 [64, 64]
000000 39 07 4a 3e ff 69 fc bd 79 c7 00 3d 50 f2 e0 bd
       0.19729318 -0.12324905 0.031440232 -0.109837174
000010 aa b1 9e bd bb 9b 9a bd 3d 8e 2d 3c d3 38 5b bd
       -0.077487305 -0.075492345 0.010592994 -0.05352099
000020 f1 47 09 be 9e dc 82 3d 16 6c 89 3c c8 38 16 3e
       -0.1340635 0.06389736 0.016775172 0.14670098
000030 4c 57 40 be 9d 47 ff 3c f4 67 f1 bc 10 a6 16 3e
       -0.18783301 0.031162078 -0.029468514 0.14711785
000040 3f 9c 8d 3c 7d 75 7f 3e 9b d6 9f 3d 71 d1 58 3e
       0.017286418 0.24947162 0.078046046 0.21173646
000050 87 ed 1b bd fa 96 af 3d 11 ac 16 be 4b 9a 66 3e
       -0.03806832 0.08573718 -0.14714076 0.22519796
000060 74 b4 32 3d e0 15 c5 3d 59 d2 52 bd 54 f2 8b bc
       0.043629125 0.09623313 -0.051470134 -0.017083324
000070 00 01 85 3d 09 6f 03 be d2 37 04 bd 10 81 01 be
       0.06494331 -0.12835325 -0.032279797 -0.1264689
000080 a7 73 9d 3d ef 6f 4a 3e b7 26 0e 3e 2a 21 ab be
       0.076880746 0.19769262 0.13881956 -0.3342374
000090 a4 0d b4 bd 4e c4 9b bd f9 a9 a5 3d d3 bc 43 3c
       -0.08791664 -0.076058015 0.0808906 0.011946875
0000a0 22 84 14 bd 92 a8 8f be a9 ba c9 bd 3b a6 c0 bd
       -0.036258824 -0.28058296 -0.09850056 -0.09406706
0000b0 37 08 ea bd a8 f4 e5 3c d6 3c a2 3d ac 9a 27 3d
       -0.11427348 0.028070763 0.0792176 0.04091899
0000c0 6a 05 d5 bd 40 e9 ce 3c eb 02 6b bd b0 e4 cb bd
       -0.10401423 0.025257707 -0.05737583 -0.09955728
0000d0 19 b1 46 3e 8f 77 5d 3d 2c f9 87 3e 2c 67 c2 3d
       0.19403495 0.054069098 0.2655729 0.09492335
0000e0 60 ec 1b 3e 41 26 50 3c 15 f7 11 be f4 b9 38 3d
       0.15226889 0.012704433 -0.1425441 0.045099214
0000f0 6c 49 7a bd fa e0 4b 3e 62 fd c6 bd cb b8 bc 3d
       -0.061105177 0.1991004 -0.09716298 0.09214934
000100 b6 d0 c6 bd 9d 85 65 bd d7 45 81 bd a7 d5 97 bc
       -0.09707777 -0.056035627 -0.06312149 -0.018534495
000110 37 74 ce 3d 32 7b 0f 3e 3a 1b 01 3e 62 dc 24 3e
       0.1008076 0.14011839 0.12608042 0.16099694
000120 3b 71 8a 3e 5a 31 3f bd 03 7e 4c 3e 82 04 08 3e
       0.27039513 -0.046677925 0.19969945 0.1328297
000130 44 e8 89 be 3c 9b 21 be dc ec 15 3e 72 1f b4 3d
       -0.26935017 -0.15781873 0.14641136 0.0879506
000140 f8 29 6a bd 43 a7 f5 bb 5c b4 f2 3c 02 e3 90 bd
       -0.05716893 -0.007496746 0.029627018 -0.07074548
000150 c6 e0 87 3d 3d 7c 52 bd 97 ac 18 ba 4c 75 a5 bd
       0.06634669 -0.051388014 -0.0005824058 -0.08079013
000160 50 35 de 3e cb 96 49 be 78 3a 97 bd c6 42 a9 3c
       0.4340005 -0.19686429 -0.07384199 0.020661723
000170 05 e8 71 bd 8d 68 d1 bd 45 6f 40 3d 9e da 6b be
       -0.05905916 -0.102250196 0.046981115 -0.23032615
000180 0e c3 45 bc 24 f9 3a 3d b6 95 07 be ce f2 39 bd
       -0.01207043 0.045647755 -0.13240704 -0.045397572
000190 3c 54 75 bd 22 12 2f 3e 4e 76 92 ba 6e c8 e9 bd
       -0.059894785 0.17096761 -0.0011174174 -0.11415182
0001a0 c8 a8 d2 bd 18 92 eb 3d 8b 0e db b9 97 5d c8 bd
       -0.10286099 0.115024745 -0.0004178177 -0.09783476
0001b0 35 c1 19 3e a1 b5 2f be 0d ca c1 3d 0b 35 ce 3d
       0.15015109 -0.1715913 0.09462366 0.10068711
0001c0 22 87 5d bd 8a 1f 39 bd 3a 59 00 be 25 f7 fe 3d
       -0.05408395 -0.045196094 -0.12534037 0.12449483
0001d0 61 01 1e bc 4d a5 03 be d2 bd fc 3c 94 20 08 be
       -0.009643883 -0.12856026 0.030852232 -0.13293678
0001e0 c9 fa c0 3b 27 f1 62 3d f7 01 f9 bc 95 70 ae 3d
       0.005889271 0.055405762 -0.030396445 0.08517567
0001f0 b6 5b 61 be dc 31 25 3d 7e fe 83 bd 6b d2 0d 3e
       -0.22007641 0.040330753 -0.06445025 0.138498
000200 40 4b b6 bd 13 65 93 bd c5 81 4a 3e 34 b2 36 3e
       -0.089010715 -0.07197013 0.19776066 0.17841417
000210 09 d8 51 3e 4b f7 af 3d 6d 8a 16 3e 83 f6 f4 bd
       0.20492567 0.08592089 0.14701243 -0.11961081
000220 0c a3 aa 3d 40 1e 55 be 40 9d 0f be fe a0 2d be
       0.0833188 -0.2081232 -0.1402483 -0.16955945
000230 63 6b 4d bc 0b ab 05 bd f1 85 a3 3d 91 ea fa 3c
       -0.01253781 -0.032633822 0.07984532 0.030629428
000240 9c df 87 bd e6 ef 6b bc 18 d9 33 bd 9b c9 1d 3c
       -0.06634447 -0.014400458 -0.04390821 0.009630586
000250 c3 59 20 3e 94 93 99 bc a6 98 8f 3e 97 b1 11 be
       0.15659241 -0.018747129 0.2804615 -0.14227901
000260 c4 c6 e7 bd 98 ca 79 3e 24 da cd 3c ae 6f cd 3c
       -0.113172084 0.2439369 0.025128432 0.025077667
000270 e6 ff 3b bd 85 ab 76 bd 9c 42 61 3d 00 2d 9b bd
       -0.04589834 -0.060222168 0.054995164 -0.075769424
000280 3a fe ea 3b 64 c2 c3 bd 8b 16 11 be 6d 43 c8 bd
       0.0071714194 -0.095585614 -0.14168756 -0.097784854
000290 61 1f d4 3c eb 30 a0 3d cb db 28 3e 38 9a 93 3d
       0.025893869 0.0782183 0.16490094 0.07207149
0002a0 ad 7d 7a be c5 74 00 be b2 0e 44 bc 82 1f cf bd
       -0.24462004 -0.12544544 -0.011966394 -0.101134315
0002b0 95 15 52 bd ca e0 4e be 4a 3b c7 bd 61 4f 5b bd
       -0.051290113 -0.20202938 -0.09728105 -0.0535425
0002c0 37 b6 66 be 8d 24 c3 bd b2 ab 87 3d 01 24 57 be
       -0.22530447 -0.09528456 0.06624545 -0.21009828
0002d0 5b cf bd 3c 59 0e 17 be 49 62 88 3d 3c d0 86 3d
       0.023170164 -0.14751567 0.066593714 0.06582686
0002e0 a1 be af 3d 6f db 3a 3b 50 04 b9 bc 7d 2e 3b be
       0.085812815 0.002851214 -0.022585064 -0.18279453
0002f0 dd 9a 1d 3e 7a 82 60 3e 34 70 29 3e 80 04 1b 3d
       0.15391107 0.21924773 0.16546708 0.03784609
000300 ed b6 f2 3c f7 56 6a 3d 63 0b 0c 3e 06 13 1d be
       0.029628241 0.057211842 0.13676219 -0.15339288
000310 c8 a1 66 b9 85 31 f3 bd bb d4 9e bd 59 39 96 bc
       -0.00021994777 -0.118746795 -0.07755419 -0.018337892
000320 c2 da 94 be 26 a3 00 3c 05 99 b4 3d fe a0 d0 bd
       -0.2907315 0.007851398 0.08818249 -0.10186957
000330 47 26 76 3d 17 d4 df 3d 0c a7 85 be 06 c0 d5 bb
       0.060095098 0.10929125 -0.2610401 -0.006523135
000340 69 ae 82 bd 14 37 5e 3e 46 26 58 bc e7 ec 87 3d
       -0.06380922 0.21700698 -0.013192719 0.066369824
000350 92 81 1c 3e 83 55 84 3b e6 03 22 3e a1 c9 4c bd
       0.15283802 0.004038514 0.158218 -0.049996976
000360 9a dc 48 3e 1c c5 63 bd 0f a3 5f 3d 47 02 5a 3e
       0.19615403 -0.0556079 0.054598864 0.21289931
000370 7e 06 46 3e 9e 05 a6 3d b2 87 d3 3d a0 c7 2e be
       0.19338414 0.0810654 0.10328616 -0.17068338
000380 92 f3 ec bc 73 da f2 3d b4 76 86 bd 26 92 15 3e
       -0.028924737 0.11858072 -0.065656096 0.14606532
000390 b7 75 1c be d6 9a 5a bd 73 e2 e5 3d 5a 24 dd 3d
       -0.1527928 -0.05337032 0.112248324 0.10797949
0003a0 d7 9c 0e be aa 03 76 bc 7d 4a 02 be 8d 63 26 be
       -0.13927017 -0.015015522 -0.12723728 -0.16248913
0003b0 f2 45 46 3d 74 b4 33 bc ee b0 68 bd 5c 19 db 3d
       0.04840655 -0.010968316 -0.05680936 0.10698196
0003c0 19 f0 2c 3e f3 bb 22 3c 4c 42 88 bc 48 3c 54 be
       0.16888465 0.009932506 -0.016633175 -0.2072612
0003d0 a9 8d 13 be 99 0b 03 be 87 d0 47 be bd 79 27 be
       -0.14409508 -0.12797393 -0.1951314 -0.16355033
0003e0 36 ff 82 be 22 d5 2f 3e ce 78 d1 bc 66 84 07 3e
       -0.25585335 0.17171147 -0.0255703 0.132341
0003f0 fd fe 90 3c 4a 51 8a 3c fe 6b 62 3d 42 c9 eb 3c
       0.017699713 0.016884465 0.05527877 0.02878249

manager.M_space.bias f4 [64]
000000 80 8d 9d 39 ba a6 05 bb 34 76 82 bb 83 87 5a ba
       0.000300508 -0.0020393566 -0.003981376 -0.0008336233
000010 f4 f3 43 3b f0 11 90 3b eb 5c ac 3a 4b 5f 35 3b
       0.0029900046 0.0043966696 0.001315025 0.0027675207
000020 d2 8c b4 38 ee 1f 45 3b 7a 29 0a bb 2c 5a c7 ba
       8.609299e-05 0.0030078846 -0.002108185 -0.0015209368
000030 36 30 bf ba c6 c7 11 bc 42 ba 1d bb 9b 44 57 3a
       -0.0014586512 -0.008897727 -0.0024067317 0.0008211822
000040 c8 83 12 b9 89 b4 8d 36 9f 0c ef bb c8 9e 5d bb
       -0.00013972737 4.2231445e-06 -0.0072952057 -0.0033816565
000050 71 63 a9 ba f2 d2 85 3b 1a 80 88 bb a6 bb 05 bb
       -0.0012923313 0.0040839845 -0.0041656615 -0.0020406037
000060 69 b7 03 bb a2 70 05 bb 27 cb b5 bb 9c 97 de ba
       -0.0020098335 -0.0020361324 -0.0055478993 -0.0016982439
000070 96 5f 02 ba d5 89 26 3b ca ec 45 ba fd c5 a2 3b
       -0.000497335 0.0025411744 -0.0007550238 0.0049674497
000080 08 ba 7f ba 07 3a 05 3a 8c f1 5d 3b 1e 92 32 3c
       -0.0009755199 0.0005082194 0.0033865897 0.010899095
000090 75 fd ae 3a 33 2e 91 3a 01 fa 89 3a bb ea b0 ba
       0.0013350683 0.001107639 0.0010526777 -0.001349769
0000a0 eb 92 b2 bb ae df 73 3b 5c 08 49 bc 43 39 fd 3a
       -0.005449643 0.003721218 -0.012270059 0.0019319433
0000b0 78 f1 ff 3b f0 00 c2 ba 1a 9d 3b bb e1 97 c6 3a
       0.0078107677 -0.0014801305 -0.0028627575 0.0015151465
0000c0 38 4a b1 bb 40 4c 00 3b 43 1b 37 3a 51 26 3e 3c
       -0.005410459 0.0019576699 0.00069849583 0.011605815
0000d0 32 8f 14 bb 3e 77 be bb 93 23 8e bb 9c 61 e5 bb
       -0.002266836 -0.0058125546 -0.004337737 -0.0070001613
0000e0 25 f8 54 3b 86 e8 9a bb a1 c3 ad 3a 21 14 29 39
       0.0032496538 -0.004727426 0.0013257154 0.00016124595
0000f0 17 67 1d 3a 1a a4 8e 3b 31 40 9b bb a6 60 2c bc
       0.0006004436 0.0043530585 -0.004737877 -0.01052109

manager.M_goals.weight f4 [64, 128]
000000 5d f7 50 bc 7e 86 b8 3c 22 62 5e 3d 6d a5 0c 3e
       -0.0127542885 0.022525068 0.054292805 0.1373498
000010 f4 00 89 3d 0f a8 8f 3c ae 5e e4 bc 07 53 38 bc
       0.06689635 0.017536191 -0.027877178 -0.011250264
000020 b1 e4 11 bc f8 cf 65 bc 7b 3c 1b 3d 1e 26 08 be
       -0.008904622 -0.014026634 0.037899476 -0.1329579
000030 2c 04 70 3d 45 55 27 bd 0c be 3d be 41 5e 8d bd
       0.05859773 -0.040852804 -0.18529528 -0.06902743
000040 50 79 0d 3e d3 ea bf 3d 6e 3d a3 bc b2 05 fb 3d
       0.13815808 0.09370961 -0.019926753 0.12256946
000050 68 af 5c be 2b 09 2c be 7c 84 49 3c a1 59 5e 3d
       -0.21551287 -0.16800372 0.012299653 0.054284696
000060 df 53 eb bc 86 f1 c9 3d 20 9c d8 3d a5 e6 ba bd
       -0.028726516 0.0986052 0.105766535 -0.09126023
000070 f8 2a a0 bd 07 13 43 be 0a 8c 8b 3c 25 a8 aa bc
       -0.07820696 -0.19050227 0.01703455 -0.02083213
000080 ef 2b a3 3d 18 10 fe 3b 2e 26 29 3e 14 d1 ba 3d
       0.07967364 0.0077533834 0.1651847 0.0912191
000090 e2 6f a7 bc 15 ef 0d bc 77 69 f7 3c 52 05 6f bc
       -0.020439092 -0.008662959 0.030201657 -0.014588671
0000a0 c6 ac ed bd 7d 31 a9 3d 82 1b bf bd 85 04 90 3d
       -0.116052195 0.08261392 -0.093314186 0.07032112
0000b0 52 22 2f be f3 19 84 3c 04 0d 24 be bd 00 2b 3d
       -0.17102936 0.016125655 -0.1602059 0.04174875
0000c0 6a c8 bd bd cb 0b cc 3b 2b c6 ae 3d 67 22 d3 3c
       -0.092667416 0.006226992 0.08533891 0.02577324
0000d0 b1 a6 f1 3d 88 76 89 bc 3c 29 af bd 42 ea 3b bd
       0.11799372 -0.016780153 -0.08552787 -0.045877703
0000e0 aa e8 77 3d 0a 91 9d 3d ce 13 91 3d bd b7 01 3e
       0.06052462 0.0769368 0.070838556 0.12667747
0000f0 ee de 08 3e 87 e4 45 3d d7 8a 30 be d2 71 62 3d
       0.13366291 0.048313644 -0.17240463 0.05528433
000100 51 5f d8 bd 71 61 0a be ae 6b aa bd 55 37 13 3d
       -0.10565055 -0.13513733 -0.083213195 0.03594144
000110 f2 c7 76 3c e6 6d 05 3c 84 e0 11 bd af 8d d1 bd
       0.015062319 0.008143878 -0.035614505 -0.10232102
000120 96 aa b5 bc 16 6d 21 3d d6 82 09 3e a7 01 cc bd
       -0.022176068 0.039410673 0.13428816 -0.09961253
000130 30 04 88 3d 16 0c 6e 3c 94 e7 14 be 9a 0b 92 3d
       0.06641424 0.014529249 -0.14541465 0.07131119
000140 af 6c 43 3d 48 b8 8a bd b2 4f df bd 9b e0 2e be
       0.04771107 -0.0677343 -0.109038725 -0.17077868
000150 48 80 b0 bc 7e 3b b4 bd 0b 5c 64 3d c2 a0 9b bd
       -0.021545544 -0.0880041 0.05575184 -0.075990215
000160 60 a0 da 3c 21 b0 27 3c 66 31 94 3d 37 dc 95 bc
       0.0266878 0.0102348635 0.072359845 -0.018293483
000170 8a fd d3 bd 67 bd 1f 3d 33 55 d9 3d 6f 98 e2 3d
       -0.10351093 0.038998988 0.106119536 0.11064231
000180 47 e5 77 3d f0 0a 01 be 9c ef 0a 3e 8a 7a 89 bd
       0.06052139 -0.12601829 0.13567966 -0.067128256
000190 46 da b3 3d 52 2d e3 3a f6 7a a1 3d 78 fe 0a bb
       0.08781867 0.0017332232 0.07884781 -0.0021208804
0001a0 b8 02 36 3e 42 a4 25 3d 29 bb 8c 3c 9d b9 8a 3d
       0.17774475 0.04043985 0.017179089 0.06773684
0001b0 46 b5 85 3a cb bf f0 3d e3 5d 44 3d 99 ec e3 bd
       0.0010201118 0.117553316 0.0479411 -0.11129112
0001c0 01 e3 0f 3e 98 d7 d4 bb 9a 5a 84 3d 64 c8 87 bd
       0.14051439 -0.0064954273 0.064625934 -0.06630018
0001d0 99 d1 89 bd cf f7 db bd da d0 59 bd 88 19 01 be
       -0.06729431 -0.10740625 -0.053177692 -0.12607396
0001e0 dc 49 cf 3d 2b 1d d7 bd de b1 ab bd 25 3c 3a 3d
       0.101215094 -0.1050361 -0.08383535 0.045467515
0001f0 29 e9 02 be 64 da e8 bc 0e bb 4c 3d 62 6c ef 3a
       -0.12784256 -0.02842445 0.049983077 0.0018266554
000200 f7 67 80 3d 93 f0 93 3c c8 5c 86 3d bf a2 12 3d
       0.0626983 0.01805905 0.06560665 0.035799738
000210 c1 96 0a 3d 19 36 7b 3d 2c e6 d0 3d 9a 97 a7 bd
       0.033835176 0.06133089 0.10200152 -0.081832126
000220 2e 28 c0 3d b3 26 28 3d 03 4b f6 3d 1b 56 58 bd
       0.09382664 0.04105253 0.12026026 -0.05281649
000230 89 3e 97 bb ad a2 15 bc 6e af 65 3d 92 b6 14 bd
       -0.004615609 -0.009133023 0.056075506 -0.036306925
000240 05 29 14 3d f4 e0 9f 3d d6 17 d1 bd 36 61 c0 bd
       0.03617193 0.07806578 -0.102096245 -0.093935415
000250 8e 1e 2e bd dd 84 95 bd ec 76 a7 bc 0a f5 ca bd
       -0.042509608 -0.07300732 -0.020442449 -0.09910019
000260 0f d5 49 be 41 34 f0 bd 58 34 1d 3e de 3f c0 bd
       -0.19710182 -0.11728717 0.15351999 -0.09387182
000270 54 65 2d bd f3 bc ff 3d ae 4b 14 3d 8a 68 3e 3d
       -0.042332962 0.12487211 0.036204986 0.046486415
000280 9e aa e3 3c 62 85 a4 bd 1f 36 9d 3d a6 ce 95 3c
       0.027791318 -0.08033253 0.076763384 0.018287014
000290 82 09 9b bd 62 c1 79 bd 18 0b cd 3d 96 d4 d2 bd
       -0.07570173 -0.06097544 0.100118816 -0.10294454
0002a0 68 2d 01 be 14 84 5c 3e a5 56 4f 3d 88 0b 9a bc
       -0.12614977 0.21534759 0.05061974 -0.018804327
0002b0 f1 9c 92 3d 12 b2 52 3e 17 a8 14 3d a8 e7 cd 3d
       0.071588404 0.20575741 0.036293115 0.100539505
0002c0 ec 75 05 be fc 2f 87 bd d2 f7 cf 3d 16 7d 0d 3e
       -0.13033265 -0.06600949 0.1015469 0.13817248
0002d0 a9 4f f7 bc a6 48 33 3c 17 a8 d4 3d fa d0 3f bd
       -0.030189352 0.010942614 0.10383623 -0.046830155
0002e0 7d 25 33 3c cc 74 2e 3d b3 0a 8d 3d 4a 5e b7 3d
       0.010934231 0.042591855 0.06886806 0.08953531
0002f0 fe cf e4 3d f2 89 a1 bc 29 04 d2 bb 28 c0 0c 3d
       0.11172484 -0.019719098 -0.0064091873 0.034362942
000300 11 39 a7 bb f6 83 99 3d ae 03 07 3b 86 42 c3 bd
       -0.0051032384 0.07495873 0.0020601558 -0.09534173
000310 30 6e be 3d 53 b3 08 3d 1d 85 c3 3d 7c f0 48 3c
       0.0929836 0.033374142 0.09546874 0.012264367
000320 c8 9d 08 3e 2d a6 cf 3d 7e 65 31 bd ba cb bc 3d
       0.13341439 0.101391174 -0.04330968 0.09218545
000330 e3 71 2e be dc b3 37 3d 35 9d dd bd a7 09 8c 3b
       -0.17035632 0.04484926 -0.108210005 0.0042736116
000340 1d b4 b3 bd 3e 41 ec bd 5c 0a 8a bd 46 e1 9b 3d
       -0.08774588 -0.115358815 -0.06740257 0.07611327
000350 c9 19 ab bd 46 e7 ad 3d 0e 35 66 3d 8d 01 29 bd
       -0.083545275 0.084913775 0.05620294 -0.041261245
000360 fc e6 b0 bd b8 d2 ff bd 4a b3 1f 3b 04 87 67 bc
       -0.08637807 -0.12491363 0.002436834 -0.014131311
000370 aa 02 3a bd be bd f2 bd af 4d b1 3d 79 33 78 3d
       -0.045412697 -0.11852597 0.08657395 0.060595963
000380 af ff e5 3a ea b0 51 3d 15 80 d4 bd 44 06 0b be
       0.0017547513 0.05119411 -0.10375992 -0.13576609
000390 00 61 f9 bd 95 96 7a be dd 1f eb 3b ef 14 1b bc
       -0.121767044 -0.24471505 0.0071754293 -0.00946544
0003a0 2e 9f 48 be 3b fc 97 bc 62 95 39 bd ac be df bd
       -0.19591972 -0.01855289 -0.04530848 -0.1092504
0003b0 c4 11 a5 bd d8 eb ce bd c8 c7 3e 3a ef 8b 0d bd
       -0.08060029 -0.101035774 0.00072776945 -0.03455728
0003c0 80 33 bd bd de 92 bc bd f5 42 58 3d 3c 6e 03 3e
       -0.092383385 -0.092077 0.05279823 0.1283502
0003d0 23 70 15 3d c1 1d f3 b9 57 38 0c 3e 9d 00 1b bc
       0.036483895 -0.0004637074 0.13693367 -0.009460595
0003e0 90 0c 46 bd 64 8e bf bc c0 86 1b be 32 37 89 bd
       -0.048351824 -0.023383327 -0.15188122 -0.06699981
0003f0 e0 77 de 3d 63 00 56 3d f1 4a c8 bd 2f 6f fb 3d
       0.10862708 0.052246463 -0.09779919 0.12277066

manager.M_goals.bias f4 [64]
000000 94 d1 33 3b ee 28 4e 3b 1d 14 34 bb ad 7d 88 bb
       0.002743815 0.0031457501 -0.0027477809 -0.0041653723
000010 2d 9a 6e 3b 02 d4 b7 3a c7 0a ca 3a 31 f8 a0 bb
       0.0036407814 0.0014024975 0.0015414589 -0.004912399
000020 f8 57 14 3b ff e4 85 bb b7 20 cf ba 78 e2 a1 bb
       0.0022635441 -0.0040861364 -0.0015802596 -0.0049403273
000030 f8 f1 54 3b c3 d1 5d bb f3 b6 ef 3a c9 e8 90 3a
       0.0032492857 -0.0033846952 0.0018288776 0.0011055704
000040 b6 46 31 3b ad 10 e4 ba b1 29 92 3b bc 56 7d bb
       0.0027050204 -0.0017399989 0.0044605364 -0.0038656434
000050 fb ad 55 bb b3 25 18 3b 14 bf 92 bb d5 b3 12 bb
       -0.003260492 0.002321583 -0.0044783447 -0.002238502
000060 be 13 44 b9 cc d5 a5 bb 8f 6f c0 ba ff b2 6f 3b
       -0.00018699371 -0.005060887 -0.0014681685 0.0036575196
000070 6d 65 41 3b 5c d4 b0 bb 00 35 66 3b 3d 01 95 3a
       0.0029509917 -0.005396409 0.0035126805 0.0011368167
000080 94 f5 6a 3b 7d 93 f0 3b 1f 97 b4 bb 1f 82 9c bb
       0.0035851942 0.0073418007 -0.005511179 -0.004776254
000090 09 3b 87 bb d8 af 49 3b bf e2 8c bb 9e 7e 2d ba
       -0.0041269106 0.0030774977 -0.004299491 -0.00066182937
0000a0 f6 57 28 bb 28 6b 3d ba 2c 0c d3 3a 9b c3 28 3a
       -0.0025687194 -0.00072257454 0.001610165 0.0006437839
0000b0 32 02 82 3b af 42 3b bb 8a 22 07 3a 95 48 9c 3b
       0.003967547 -0.0028573682 0.0005154988 0.0047693946
0000c0 93 7c 17 3b 42 40 bf ba 46 9e 58 bb 40 a2 8b bb
       0.0023115024 -0.0014591294 -0.0033053323 -0.004261285
0000d0 33 7d c6 3b ae ae 6d 3b aa 99 4e 3b 07 90 68 3a
       0.0060574054 0.0036267447 0.0031524696 0.00088715594
0000e0 90 41 f8 ba a7 b3 63 3b 61 dd 43 3b 24 a8 80 ba
       -0.0018940438 0.0034744532 0.002988659 -0.0009815735
0000f0 8c e2 b7 b9 5f 5a 87 bb 21 4c bd 3a cf 62 0d bb
       -0.0003507327 -0.004130646 0.0014442244 -0.0021573787

manager.M_value.weight f4 [1, 64]
000000 37 ea 25 be a8 82 d2 bd eb 70 26 3b 60 73 a8 3d
       -0.16202627 -0.10278827 0.0025396894 0.08225131
000010 a5 5c 1a be 3f c9 fa bd a0 da e0 bd 96 51 75 3e
       -0.15074404 -0.12245416 -0.109791994 0.23956904
000020 ee f1 43 bd af ec c3 3d 78 fd 9c 3d 1d b3 8c 3d
       -0.047838144 0.09566628 0.07665533 0.06870101
000030 d1 07 05 be 66 1e ac 3d f9 94 2b be 7b 1f 2b be
       -0.12991263 0.084042355 -0.16756047 -0.16711228
000040 c4 35 15 be 0c bf 83 be 8f a7 e3 bd 8c 65 85 3d
       -0.14571291 -0.25731695 -0.11115944 0.06513509
000050 c5 18 e5 bc 4b 8b 0a be f0 72 53 3e 74 50 3b 3d
       -0.027965913 -0.13529699 0.20649314 0.045731023
000060 0d cd b7 3a 78 34 12 3e 08 db d8 3d a5 ee 87 bd
       0.0014022902 0.14277828 0.10588652 -0.06637315
000070 99 f4 b9 3d 9c 26 3f 3e 97 63 84 bd 86 7c 86 bc
       0.090798564 0.18667072 -0.06464308 -0.0164168
000080 6a 6e 8d bd 34 9b 03 be a0 e3 0f 3e f7 af 74 be
       -0.069058254 -0.12852174 0.14051676 -0.2389525
000090 7e 30 e9 3d be 86 a1 bc 11 05 1b 3e c6 48 0a 3e
       0.11386202 -0.01971757 0.15138651 0.13504323
0000a0 07 f4 3c 3e 7f 38 62 bd bf 08 0b bd 17 12 5e be
       0.18452464 -0.05522966 -0.033943888 -0.21686588
0000b0 f3 0d dc bd b5 68 69 3d a9 ad 8a 3d dd a9 f8 bd
       -0.10744848 0.056984622 0.06771404 -0.12141774
0000c0 eb 7d 80 ba b3 96 7f bc f0 8c bb 3d f8 3d 4d 3d
       -0.0009803151 -0.015599894 0.09157741 0.050107926
0000d0 5d aa a2 bd 75 fb d2 bd 3a 33 30 be 9a 09 99 3e
       -0.079426505 -0.10301868 -0.17207041 0.29890138
0000e0 82 6a 21 3d 7e 65 ad bc fd 27 80 bc 7f 8d 82 3d
       0.039408214 -0.02116656 -0.015644068 0.063746445
0000f0 c9 88 0c 3d 6e 62 a5 3d 9a 8d be bd 7c 94 34 3e
       0.034310136 0.080754146 -0.09304352 0.17634767

worker.f_stateW.weight f4 [40, 64]
000000 af ed 24 bd 0e c6 11 be e8 07 43 be ac 4b 96 bd
       -0.040265735 -0.14235708 -0.19045985 -0.07338652
000010 35 26 64 3d 92 79 44 3e a9 32 8c bc 38 a5 bc 3d
       0.0557005 0.19187 -0.017114 0.092112005
000020 f1 af 54 be 78 cd a4 bd 2c 18 eb 3d 35 b5 2d be
       -0.20770241 -0.080470026 0.1147922 -0.16963656
000030 c6 f8 ce bd 20 b6 6a 3e b9 f0 96 3c 03 5c bf 3d
       -0.101060435 0.22921038 0.018425332 0.09343722
000040 71 75 0d be d5 7b 80 3d 78 3d 40 be 30 45 1d bd
       -0.13814332 0.06273619 -0.18773448 -0.03839606
000050 b2 6e 95 bd ff 24 7c 3d 45 85 21 3d 62 b3 98 be
       -0.07296504 0.06155872 0.039433736 -0.29824358
000060 a9 99 fc 3c 0a 47 bb 3e 22 f8 aa bd 6a 01 50 bd
       0.03083499 0.36577636 -0.08348109 -0.0507826
000070 5b 66 ad bc 47 1a 10 be 96 96 1c 3d a3 eb a2 3d
       -0.021166971 -0.14072524 0.038229547 0.079551004
000080 dc ce 1c 3e 88 08 a6 bc 98 d8 ae 3b 4a fd 2f be
       0.15313286 -0.02026774 0.0053358786 -0.17186466
000090 cb 3c 5c 3d 26 f3 62 be 42 63 17 3d 14 18 b3 3d
       0.053768914 -0.22163066 0.036959894 0.08744827
0000a0 34 64 1a 3d d6 a1 22 be 91 a3 59 3e ca 18 5e 3d
       0.037693217 -0.15882048 0.21253802 0.05422286
0000b0 10 97 b4 3c 50 e3 0e be 2d 9c b6 bd 38 6d 8e 3c
       0.022044688 -0.139539 -0.08916507 0.017386064
0000c0 1d e7 82 3d 28 6f 90 bd e0 1e 3c bd bf e8 88 3c
       0.063917376 -0.07052451 -0.045927882 0.016712544
0000d0 ce 98 c1 3c 57 00 b8 bd 78 11 2d bd f5 ce 38 3e
       0.023632433 -0.0898444 -0.042252988 0.18047698
0000e0 44 3f 51 3c 5f 7a 71 3e e1 23 31 3d 53 d2 7e 3d
       0.012771431 0.23581837 0.043247107 0.0622123
0000f0 63 0f 89 3b 5b 8d 18 be c6 1a 41 be 15 d1 ab 3d
       0.0041827424 -0.14897673 -0.1885787 0.083894886
000100 67 90 9e 3c ba 1d 03 3e b7 46 35 3e ab 7a 9d 3c
       0.019355966 0.12804309 0.17702757 0.019223532
000110 0b 86 3a be 8c be a4 bc 8b 93 ce bd 0b 37 bc bd
       -0.18215196 -0.020110391 -0.10086735 -0.09190186
000120 2d 10 c9 bd b5 9d 44 be 38 d7 2f 3e 6c 19 75 bd
       -0.098175384 -0.19200785 0.17171943 -0.059838697
000130 57 75 9f bd f1 30 51 bd b0 e7 02 be dd 5a 28 bb
       -0.07786053 -0.051072065 -0.12783694 -0.0025688924
000140 a4 3e 16 be ac a0 6e 3e 26 84 51 3e b9 13 43 3d
       -0.14672333 0.23303479 0.20460567 0.04762623
000150 30 85 3f be 81 cd 00 bd 4c 9d d1 3d 73 76 17 3d
       -0.18703151 -0.031445984 0.1023508 0.036978196
000160 4d 9f 7a 3e b5 66 61 3e 92 df 81 bd ab 5a a6 3b
       0.24474831 0.22011836 -0.06341471 0.0050767264
000170 c1 3d 91 be cd ce d9 3d 7a ec 1d be 8f c3 e8 bd
       -0.28367427 0.10635147 -0.1542224 -0.11365425
000180 a6 03 5c be 5d da 55 be ad 7e a1 bc 0d d7 13 be
       -0.21485767 -0.2088408 -0.019713724 -0.14437504
000190 b0 40 12 3e 18 2d 2e bc d5 74 e4 bc a4 b6 e2 3d
       0.14282489 -0.010630868 -0.027887741 0.11069992
0001a0 3e bb bd 3d 6b 84 4b 3c 16 21 6b be 8a 1d 70 3d
       0.09264229 0.012421708 -0.2296184 0.05862192
0001b0 9a f6 38 3d 77 7e 9e 3d 6f b1 bd 3d be 28 b8 3d
       0.045157053 0.07738965 0.092623584 0.08992146
0001c0 59 e4 46 bb ef 0f c7 bd 5b c8 05 3e bc 73 1e be
       -0.0030348508 -0.09719836 0.13064711 -0.15473837
0001d0 60 45 4e bd bb cb f6 bc 18 ef 60 be 39 5f 77 bd
       -0.05035913 -0.030126443 -0.21966207 -0.060393546
0001e0 e9 af cc bd 69 e4 1b 3d ab 9b 47 3c a7 09 2e bd
       -0.0999449 0.038059626 0.01218311 -0.042489674
0001f0 90 72 e0 3d 33 c0 fb bd 6b 24 bf 3d 05 a6 2c bd
       0.10959351 -0.122925185 0.09333118 -0.042150516
000200 84 64 1f bd 0b bd 1f be e1 b7 ad 3d a8 8c 97 bd
       -0.03891422 -0.15599458 0.08482338 -0.07399875
000210 5a 02 38 3d 1c ce 01 3d 35 5b 6c 3e e0 25 07 3e
       0.044924118 0.0316907 0.23081668 0.13198042
000220 08 cc d0 bd e2 b2 8a 3c e8 34 8a bd 68 b5 13 3e
       -0.10195166 0.016931001 -0.06748372 0.1442467
000230 df 06 92 bd c6 96 07 3e ad c0 09 bd 51 d8 36 3d
       -0.07130217 0.13241109 -0.033631016 0.04463989
000240 c6 a8 85 3e d5 16 3b 3d 33 f4 5b bc f3 2c 5c be
       0.26105326 0.04567607 -0.013424921 -0.21501522
000250 a0 53 53 3c a7 05 14 3d 3f 2a eb bd ca 4c 38 3d
       0.012898356 0.036138203 -0.11482667 0.044995107
000260 97 f4 fb 3d 92 50 8e bd 7b e3 aa be 0e 71 f8 3d
       0.12302511 -0.06948961 -0.3337668 0.121309385
000270 75 c3 06 be fb aa 34 be 41 e5 16 be d3 60 23 3e
       -0.13160498 -0.17643349 -0.14735891 0.15954904
000280 6f 87 25 be f7 49 c7 3d 0d 72 ec bd 8d d5 c9 3d
       -0.16164945 0.097309045 -0.11545191 0.09855185
000290 18 b5 75 3c d5 38 12 3d 96 8d 19 3e 87 df 92 bd
       0.014996789 0.03569873 0.14995417 -0.07171541
0002a0 be 6a 29 3d 54 a9 d6 3d 2b 58 08 3d 2b f3 cb 3d
       0.041361563 0.104815155 0.03328721 0.0995849
0002b0 d5 47 3d 3e c7 d0 37 3e 1a 5c 96 bd a4 93 3e 3c
       0.18484433 0.17950736 -0.07341786 0.01163188
0002c0 3f 29 cf bc 0d 05 c5 3d 09 86 7d 3e 3e be da bd
       -0.025288222 0.09620104 0.24758162 -0.10680817
0002d0 5c e8 45 bd d9 47 50 bd 69 42 95 bd 82 b4 0b be
       -0.0483173 -0.05084977 -0.07288057 -0.13643077
0002e0 03 46 99 3e 10 09 ce 3c 01 14 25 bd 91 09 da bd
       0.29936227 0.025150806 -0.04030228 -0.10646356
0002f0 f7 6b e1 3c 15 ba 20 be 3f c1 18 be d9 49 82 3d
       0.027517302 -0.15695985 -0.14917468 0.063617416
000300 88 37 17 3c c9 5a ee 3d a5 e8 0c 3e 9d 7f e4 3c
       0.009229548 0.1163841 0.13760622 0.027892882
000310 f1 c8 58 3d 24 8d 92 3e dc 62 c7 3d f5 01 05 3e
       0.052926008 0.28623307 0.09735653 0.12989028
000320 18 76 3e 3e 28 aa ef 3c 59 bc 4c be 03 2f 57 bd
       0.18599737 0.029255942 -0.19993724 -0.05253507
000330 1b 33 97 be bb 3c 22 bd 87 6d 06 3d 40 31 87 bd
       -0.29531178 -0.0396087 0.032819297 -0.066011906
000340 8a 69 82 3d 9a 0b 37 3e 3b 71 1f bc 2d 20 56 3e
       0.06367786 0.1787552 -0.009731586 0.20910712
000350 74 f2 74 3e 64 6b 8d be fa b5 6b 3d b5 1a 03 3e
       0.23920614 -0.27620995 0.057546593 0.12803157
000360 c4 f1 19 be c4 6f 2b 3e 53 7a 7c 3d d8 a2 38 bc
       -0.15033633 0.16741854 0.061640095 -0.011269294
000370 b6 3c a9 bd 60 8b bb bd ed c6 1c be 9e 6b 39 bd
       -0.08263533 -0.09157443 -0.15310259 -0.045268647
000380 f1 ee b6 3c 7f f4 a6 bc 13 1c b6 bb 1b ab 2d be
       0.022330733 -0.020380257 -0.005557546 -0.16959803
000390 b1 2d 07 bd 63 c1 eb 3d 87 61 81 bd cc f7 07 bc
       -0.03300256 0.11511495 -0.0631743 -0.0082988255
0003a0 39 61 87 be 99 0b 02 be 19 7d 60 bd 60 95 1b 3e
       -0.26441363 -0.12699737 -0.054806802 0.15193701
0003b0 c6 32 de 3d 35 2e 25 be 16 ef 43 3c 2b 3e 2e be
       0.10849528 -0.16130908 0.011958858 -0.17015903
0003c0 34 99 5d be ad 66 8e 3d 3f 66 52 3d 8a e2 cb bd
       -0.21640474 0.069531776 0.05136704 -0.09955318
0003d0 23 f8 d1 3d 7f bb cb bd dc a6 cb 3b ea e5 aa 3d
       0.102524064 -0.099478714 0.0062149595 0.08344634
0003e0 c0 b3 ad 3d bb ba 58 bd 4b b9 bc bd 03 78 92 ba
       0.0848155 -0.052912455 -0.09215029 -0.0011174682
0003f0 c1 b8 be bd 8f ad 83 3c b9 c0 5e bb f4 94 f9 3c
       -0.09312583 0.01607397 -0.0033989383 0.030466534

worker.f_stateW.bias f4 [40]
000000 3b b1 15 bb de 7f 0d bc 3a b0 87 bb fc fc ac 3b
       -0.0022841233 -0.008636443 -0.004140881 0.0052791815
000010 bb 8f 87 bb 79 55 45 bc 00 00 00 00 ee a4 ce bb
       -0.004137007 -0.012044304 0.0 -0.0063062822
000020 e8 b1 a8 3a 38 1d 2a bc 37 ae 91 3b ed 85 70 bb
       0.0012870403 -0.010382943 0.004445817 -0.003670092
000030 65 77 48 bc d9 17 74 3b 41 c8 12 bc 1f b8 d9 3b
       -0.012235497 0.003724566 -0.008958877 0.0066442634
000040 e0 9c 1b 3b b1 4a 0a bc 92 a8 6a bc a1 70 2b 3b
       0.0023744628 -0.008440659 -0.014322417 0.0026159661
000050 e6 04 7c 3a 2e f0 cf 3b bf dc 12 bb f5 85 93 3b
       0.0009613767 0.0063457703 -0.0022409407 0.004502053
000060 b9 49 2e 3c 23 c4 03 b8 f2 db a8 3b 8c 1d 57 bb
       0.010637694 -3.14155e-05 0.0051531726 -0.0032824008
000070 03 21 08 3c a3 cc af 3a 26 36 bf 3b b6 03 d9 bb
       0.008308652 0.0013412427 0.0058353124 -0.006622757
000080 be 99 05 3a 0f 47 83 bb 1f b9 14 bc 6b d8 a9 3b
       0.0005096457 -0.0040062736 -0.009077339 0.0051832697
000090 5d 4a 9b bb 62 a4 bc 3b e7 90 90 39 2e 9e 33 3b
       -0.0047390894 0.0057569006 0.0002757378 0.0027407515
