vwgym/saved_model/vwgym_f_net_step_9600000.pt (torch_old, 160582 bytes, 30 tensors)

f_percept.percept.0.weight f4 [16, 3, 3, 3]
-0.04223232 0.21276276 0.059083678 -0.054201342 0.31861448 0.18075731 0.26295164 -0.25678003
0.03862304 0.023804978 -0.22506958 -0.21649927 -0.23110351 0.16634937 0.23472099 0.18987526
-0.34510562 -0.33092582 0.2032069 -0.022130609 0.09920484 -0.1959367 -0.19791247 -0.14469154
0.14285035 0.054893482 0.056668583 -0.33661553 0.15379924 -0.25527442 -0.24818385 -0.20024791
-0.22057314 -0.13977529 0.09665077 0.24784386 -0.06551278 -0.016986107 -0.082607925 -0.12916943
-0.14862166 0.086621016 0.29548836 0.08658799 -0.29319602 -0.0657188 0.40809914 0.079323225
0.101556756 0.30493158 -0.05327494 0.19224374 0.019827167 -0.019521514 -0.04395581 -0.46807587
0.027287679 -0.34807807 0.064895414 0.32991385 -0.14207093 0.034578525 0.040755037 -0.08240935
0.10788499 0.16776058 -0.26080132 -0.10462177 -0.057702884 -0.41707137 -0.044812653 -0.32106766
0.07842742 -0.093761876 0.14390278 -0.09036723 0.19955155 0.026200268 0.0680527 0.07485071
0.1368852 -0.039545484 -0.05562217 -0.07553408 0.1642151 -0.10500978 -0.07133993 -0.08983747
-0.24948528 0.2692092 -0.41322848 0.20121971 0.008803499 0.1547921 -0.011403319 -0.35541153
-0.05052039 -0.17749941 0.03126084 0.038781576 -0.066652164 -0.09075446 -0.049141128 -0.25997004
-0.05403276 0.53926253 0.15946539 -0.046941396 -0.008544573 -0.37183684 -0.12433973 0.35535738
0.035004646 -0.32203212 0.18614008 0.20593585 0.020389605 0.0062778504 0.16227789 -0.21748014
-0.041480538 0.113605656 0.050640587 0.07066256 -0.0031825032 -0.30787602 -0.031026732 -0.23616858
-0.12283089 -0.34321818 0.22443941 -0.030563891 -0.017423984 -0.14502084 -0.29326952 -0.21344249
0.07880467 -0.10604962 -0.111583814 -0.028194778 -0.39552414 0.112557776 0.15639566 -0.077798694
-0.017185055 0.13762525 0.047078155 0.03646741 -0.03725212 0.26541042 -0.16004393 -0.25406167
0.35226917 0.3276185 -0.20970857 0.26776114 -0.12164487 0.09937551 0.2029576 0.16588676
-0.073010564 0.30482823 -0.161421 -0.018733598 -0.20824017 0.19707978 0.32031825 -0.075251885
0.15882033 -0.17469832 0.054590005 -0.11425972 -0.11303422 0.40474847 -0.07103838 -0.07854173
0.012363039 0.08481266 0.0908778 -0.22837551 -0.13215604 -0.14466392 0.0074368715 0.31833902
-0.091498956 0.53123415 -0.030097287 -0.15047729 0.038570676 -0.059685633 -0.025362024 -0.09997794
0.04431964 -0.269486 0.3664414 0.047637578 -0.31732047 0.20054826 -0.07486065 -0.10506618
-0.2570096 0.30649135 -0.061533045 0.2584548 -0.0114565855 0.29566664 0.063242495 -0.15088436
-0.17942014 0.2078704 -0.24181792 0.1185936 0.14860973 0.044365946 -0.29456118 0.10543566
0.14195709 0.004136483 0.20562938 0.0077757966 -0.24400412 -0.2319487 -0.008478271 -0.28014365
0.22916408 0.0005146513 -0.07462193 -0.23169215 -0.15630169 -0.002908134 -0.077801764 -0.1521094
-0.4234173 0.013030321 -0.2731373 -0.09887586 0.28458214 0.23273385 0.17703262 0.17415187
-0.28564668 0.12350182 -0.14700757 0.15982701 -0.028895559 -0.24852471 -0.14499678 0.06823203
-0.4001332 -0.2350065 -0.4339453 0.050562583 0.13190527 -0.119834624 0.15602253 0.035244737
00000000: ccfb 2cbd 7bde 593e ba01 723d 3a02 5ebd
00000010: 7021 a33e 7218 393e 99a1 863e ac78 83be
00000020: 3133 1e3d a802 c33c a478 66be fcb1 5dbe
00000030: 66a6 6cbe 7d57 2a3e b35a 703e a96e 423e
00000040: afb1 b0be 1c6f a9be 7815 503e 404b b5bc
00000050: e82b cb3d a1a3 48be 91a9 4abe 052a 14be
00000060: 5d47 123e fdd7 603d 511d 683d df58 acbe
00000070: 8c7d 1d3e 54b3 82be e823 7ebe ca0d 4dbe
00000080: eddd 61be 4121 0fbe d7f0 c53d c8ca 7d3e
00000090: 902b 86bd 7326 8bbc 582e a9bd fe44 04be
000000a0: 4730 18be 5c66 b13d 404a 973e 0b55 b13d
000000b0: ca1d 96be 9497 86bd 5ff2 d03e 3774 a23d
000000c0: fdfc cf3d fe1f 9c3e d336 5abd 8bdb 443e
000000d0: 956c a23c 95eb 9fbc 020b 34bd a4a7 efbe
000000e0: 698a df3c 4a37 b2be e3e7 843d 78ea a83e
000000f0: 0b7b 11be 36a2 0d3d c1ee 263d 3cc6 a8bd
00000100: cef2 dc3d 6ec9 2b3e c087 85be f043 d6bd
00000110: dc59 6cbd 618a d5be 798d 37bd fb62 a4be
00000120: 8e9e a03d 3a06 c0bd 405b 133e 7412 b9bd
00000130: 3e57 4c3e f2a1 d63c 375f 8b3d 544b 993d
00000140: a22b 0c3e 72fa 21bd 13d4 63bd 9db1 9abd
00000150: 0128 283e 5e0f d7bd ab1a 92bd b5fc b7bd
00000160: 1279 7fbe cad5 893e af92 d3be 8a0c 4e3e
00000170: 8d3c 103c d281 1e3e fdd4 3abc 80f8 b5be
00000180: 78ee 4ebd 68c2 35be 5e0b 003d 6ed9 1e3d
00000190: ee80 88bd 79dd b9bd 3548 49bd cb1a 85be
000001a0: 7551 5dbd 1c0d 0a3f e54a 233e 9f45 40bd
000001b0: 89fe 0bbc 6661 bebe d4a5 febd 67f1 b53e
000001c0: 0861 0f3d 65e1 a4be 819b 3e3e d9e0 523e
000001d0: 1a08 a73c 6db6 cd3b 2d2c 263e 1db3 5ebe
000001e0: 7fe7 29bd 15aa e83d 816c 4f3d 88b7 903d
000001f0: 8b91 50bb eda1 9dbe c62b febc 2dd6 71be
00000200: c38e fbbd 4bba afbe 72d3 653e 2061 fabc
00000210: bebc 8ebc 5880 14be 6c27 96be ab90 5abe
00000220: 5864 a13d 8b30 d9bd 0e86 e4bd bcf8 e6bc
00000230: 2482 cabe b184 e63d 2f26 203e ec54 9fbd
00000240: acc7 8cbc a2ed 0c3e 06d5 403d da5e 153d
00000250: ae95 18bd e0e3 873e 8ee2 23be 5f14 82be
00000260: a05c b43e 9dbd a73e d8bd 56be fd17 893e
00000270: f220 f9bd 6385 cb3d 1ed4 4f3e 38de 293e
00000280: 9086 95bd 7212 9c3e 8c4b 25be 3477 99bc
00000290: e93c 55be 48cf 493e c100 a43e a91d 9abd
000002a0: cca1 223e 1ee4 32be c599 5f3d 0001 eabd
000002b0: 7c7e e7bd 313b cf3e 927c 91bd 7dda a0bd
000002c0: 588e 4a3c 43b2 ad3d 241e ba3d 45db 69be
000002d0: ea53 07be c722 14be 00b1 f33b 55fd a23e
000002e0: ce63 bbbd f6fe 073f 968e f6bc b816 1abe
000002f0: 49fc 1d3d ec78 74bd 05c4 cfbc 3cc1 ccbd
00000300: 8388 353d 12fa 89be 359e bb3e 9f1f 433d
00000310: d477 a2be 865c 4d3e 8a50 99bd f02c d7bd
00000320: c396 83be 6fec 9c3e 130a 7cbd 3054 843e
00000330: 67b4 3bbc 9e61 973e 4885 813d 6e81 1abe
00000340: eab9 37be fadb 543e 1e9f 77be 34e1 f23d
00000350: 262d 183e 11b9 353d b9d0 96be a7ee d73d
00000360: 335d 113e 568b 873b 8290 523e 1ccc fe3b
00000370: 37dc 79be f683 6dbe 72e8 0abc fd6e 8fbe
00000380: fda9 6a3e aae9 063a 62d3 98bd b540 6dbe
00000390: 8d0d 20be 6496 3ebb 8856 9fbd 91c2 1bbe
000003a0: 27ca d8be 217d 553c a7d8 8bbe 6d7f cabd
000003b0: c0b4 913e c851 6e3e 0a48 353e de54 323e
000003c0: 4840 92be 86ee fc3d 2789 16be b1a9 233e
000003d0: 61b6 ecbc 437d 7ebe 097a 14be 3cbd 8b3d
000003e0: 42de ccbe 8ba5 70be 142e debe b61a 4f3d
000003f0: 2d12 073e db6b f5bd 5fc4 1f3e c95c 103d

f_percept.percept.0.bias f4 [16]
-0.0036376496 0.00013012486 -0.0021406093 -0.0019412654 -0.004900045 0.0038940543 -0.0024262972 0.004922126
7.232041e-06 0.0043819053 0.00070871896 0.0015074923 -0.0026214598 0.006598271 -0.002382492 0.0018491679
00000000: a265 6ebb 2072 0839 7749 0cbb 0f72 feba
00000010: 8f90 a0bb 6433 7f3b 8302 1fbb c949 a13b
00000020: c2aa f236 1696 8f3b 53c9 393a 0c97 c53a
00000030: cccc 2bbb 4f36 d83b 9523 1cbb c75f f23a

f_percept.percept.3.weight f4 [64, 16]
0.07044242 -0.15161411 0.034532506 -0.14051731 -0.084091134 -0.06326096 -0.049202804 0.15506005
-0.07608821 0.09819353 -0.24502297 -0.17607155 -0.024218507 0.012547838 0.08121987 0.06771476
-0.08821296 0.12014678 0.15067239 0.06616769 0.11363868 0.0008375499 -0.17778525 -0.182205
0.113633245 0.028931607 0.10460835 0.03163106 0.022677872 0.15974312 -0.077573225 -0.066734396
-0.009023945 -0.1378076 -0.13985379 -0.031106927 0.044279393 0.14026777 -0.119512334 0.020870512
0.029791936 -0.09933641 0.0060092984 0.13166942 -0.0045258384 -0.04028083 0.051561885 0.030959599
-0.050056975 -0.09689151 0.105641924 -0.02910793 -0.2911576 0.21610042 0.03325545 0.20468716
0.107149504 -0.06621463 -0.0972111 -0.014612922 -0.19176851 -0.05873532 -0.0773186 -0.14505088
0.104989395 -0.12250519 -0.07861159 0.101302624 0.021727623 -0.13196114 -0.20357653 -0.1568483
-0.19075793 0.001190791 0.15100789 -0.0058670347 -0.06427805 0.20827612 -0.00049538305 0.0031225407
0.33237517 0.1804493 0.15735002 -0.18162957 -0.027753301 -0.22321004 -0.11484098 0.102693886
-0.08030403 -0.11705327 -0.02913333 0.09978782 -0.06329585 -0.12867267 0.005493608 -0.17501853
-0.092534885 -0.11875533 -0.01867554 -0.056425985 0.081685 0.05491042 0.057902183 -0.21815525
-0.02993118 -0.04271255 0.096446134 0.15503709 0.031174751 0.019110903 -0.15201886 0.027804328
0.08956048 0.11390597 -0.13515228 -0.070211664 0.07906293 0.081703834 -0.18133737 0.06771566
-0.114320196 -0.38078225 0.06709835 -0.008908519 0.0600217 -0.10971822 -0.26508558 -0.14580923
-0.02659481 0.10866159 -0.28095654 -0.084137455 0.019734954 -0.084521845 0.08380616 -0.055682916
0.0759526 0.034216423 -0.0030867192 -0.15882295 -0.19967149 0.023607865 0.1369463 0.14659682
-0.002763937 0.08463815 -0.07883492 -0.09840909 -0.005083676 0.045708157 -0.08629794 -0.013894957
-0.16831101 0.15332411 0.052132975 0.09363938 -0.11554701 -0.093838215 0.12542796 -0.00812165
-0.20225598 0.034843884 -0.12612158 -0.03407926 -0.40681505 -0.08921221 -0.13463905 0.04136029
0.04623079 0.12172447 -0.05157035 -0.14456165 -0.16195881 -0.008081841 -0.017112408 -0.07000408
0.06741006 -0.28777847 0.12685122 0.051906407 -0.048555817 -0.14340998 0.225381 0.031948745
0.12646912 0.018501736 -0.014796134 -0.0143896295 -0.14742382 -0.19777204 -0.07413202 -0.12618178
-0.13016416 -0.26003614 -0.19884731 0.022173744 0.013323149 -0.050898466 -0.13766749 -0.08434912
-0.19288005 0.02975558 -0.019561015 0.022683447 0.14611104 -0.17840931 0.29154453 -0.05384661
0.072200514 0.17101745 -0.11228966 -0.16386375 -0.0990696 0.09956568 0.08244978 -0.20016332
0.051822294 -0.0360242 0.08765693 0.07769134 -0.23104961 -0.024770655 -0.036261413 0.093914315
0.042158574 0.013382894 -0.030552221 0.24353553 -0.06631664 0.18567167 0.12855943 0.05131063
0.10475103 -0.032588445 0.019640021 0.12516408 0.02172531 -0.042062562 0.11760931 -0.093592204
-0.10484897 -0.1820351 0.17065813 0.14975715 -0.08926985 -0.129022 -0.06928067 -0.07373041
-0.01898526 -0.0020331496 0.014525736 0.016013755 0.021633064 -0.14878514 0.0108045945 0.03472358
00000000: 1e44 903d bb40 1bbe f571 0d3d c5e3 0fbe
00000010: f937 acbd f68e 81bd e188 49bd 10c8 1e3e
00000020: 23d4 9bbd b119 c93d 4de7 7abe 1a4c 34be
00000030: e465 c6bc 7295 4d3c 9a56 a63d 09ae 8a3d
00000040: ffa8 b4bd 840f f63d dd49 1a3e ed82 873d
00000050: 65bb e83d 068f 5b3a 560d 36be f393 3abe
00000060: 8cb8 e83d fa01 ed3c e73c d63d 928f 013d
00000070: f2c6 b93c b393 233e b6de 9ebd 0bac 88bd
00000080: 2bd9 13bc 6f1d 0dbe d535 0fbe f4d3 febc
00000090: 4f5e 353d 5ba2 0f3e e2c2 f4bd a3f8 aa3c
000000a0: 380e f43c e370 cbbd a6e9 c43b 59d4 063e
000000b0: 7c4d 94bb 83fd 24bd 8e32 533d fc9e fd3c
000000c0: 8b08 4dbd 0e6f c6bd cb5a d83d c173 eebc
000000d0: 9c12 95be 6e49 5d3e de36 083d 8399 513e
000000e0: 3371 db3d 899b 87bd 9d16 c7bd 0a6b 6fbc
000000f0: f75e 44be 7294 70bd 3759 9ebd 3888 14be
00000100: ae04 d73d 00e4 fabd 1dff a0bd c077 cf3d
00000110: 21fe b13c d220 07be 5e76 50be d79c 20be
00000120: 0c56 43be 5114 9c3a d0a1 1a3e 4140 c0bb
00000130: 36a4 83bd 5646 553e 98dc 01ba 8aa3 4c3b
00000140: 142d aa3e b4c7 383e 5d20 213e 1afd 39be
00000150: e45a e3bc 2c91 64be bf31 ebbd 2c51 d23d
00000160: 7076 a4bd a0b9 efbd 05a9 eebc 8e5d cc3d
00000170: 41a1 81bd c5c2 03be b903 b43b 0f38 33be
00000180: ee82 bdbd ff35 f3bd 72fd 98bc ef1e 67bd
00000190: 774a a73d c0e9 603d d72a 6d3d 1764 5fbe
000001a0: 3c32 f5bc 5bf3 2ebd 8d85 c53d 0bc2 1e3e
000001b0: 3162 ff3c 788e 9c3c d5aa 1bbe e7c5 e33c
000001c0: 7c6b b73d 8847 e93d 5c65 0abe 22cb 8fbd
000001d0: bfeb a13d 5754 a73d 81b0 39be 82ae 8a3d
000001e0: b520 eabd e4f5 c2be dc6a 893d 09f5 11bc
000001f0: 50d9 753d f2b3 e0bd 4cb9 87be 044f 15be
00000200: 5cdd d9bc f889 de3d 89d9 8fbe 4250 acbd
00000210: 33ab a13c ca19 adbd 90a2 ab3d c513 64bd
00000220: 098d 9b3d 8526 0c3d 8e4a 4abb 7ca2 22be
00000230: af76 4cbe 4865 c13c a73b 0c3e 7a1d 163e
00000240: 2b23 35bb c456 ad3d 3474 a1bd b48a c9bd
00000250: f794 a6bb 7a38 3b3d f9bc b0bd aca7 63bc
00000260: b959 2cbe ff00 1d3e 6389 553d 01c6 bf3d
00000270: e9a3 ecbd 402e c0bd 3070 003e ab10 05bc
00000280: 311c 4fbe 76b8 0e3d 0426 01be b296 0bbd
00000290: 104a d0be e4b4 b6bd d2de 09be 6869 293d
000002a0: 7f5c 3d3d ae4a f93d 6e3b 53bd f807 14be
000002b0: 88d8 25be b369 04bc 522f 8cbc 4d5e 8fbd
000002c0: 490e 8a3d b357 93be 49e5 013e d09b 543d
000002d0: 77e2 46bd 11da 12be 47ca 663e b0dc 023d
000002e0: 1f81 013e f490 973c 7c6b 72bc 7bc2 6bbc
000002f0: 45f6 16be c184 4abe 87d2 97bd cc35 01be
00000300: c149 05be 7523 85be a19e 4bbe b6a5 b53c
00000310: 5649 5a3c e97a 50bd b5f8 0cbe 3bbf acbd
00000320: 5982 45be f9c1 f33c 6c3e a0bc a3d2 b93c
00000330: 229e 153e eeb0 36be 5345 953e 438e 5cbd
00000340: dddd 933d 331f 2f3e 1ff8 e5bd e6cb 27be
00000350: 01e5 cabd 17e9 cb3d 6edb a83d 9df7 4cbe
00000360: 9d43 543d 1d8e 13bd 7a85 b33d a31c 9f3d
00000370: 4598 6cbe d4eb cabc d986 14bd 2656 c03d
00000380: 78ae 2c3d ed43 5b3c a748 fabc 6161 793e
00000390: 05d1 87bd b720 3e3e 15a5 033e 182b 523d
000003a0: b587 d63d 767b 05bd 1ce4 a03c 032b 003e
000003b0: 47f9 b13c cb49 2cbd 26dd f03d 45ad bfbd
000003c0: 0fbb d6bd 6967 3abe 01c1 2e3e f059 193e
000003d0: 1cd3 b6bd 581e 04be 06e3 8dbd f8ff 96bd
000003e0: fa86 9bbc 973e 05bb 5afd 6d3c 472f 833c
000003f0: d337 b13c 225b 18be c105 313c 503a 0e3d

f_percept.percept.3.bias f4 [64]
0.0019509117 0.0011317888 0.0021991846 -0.0018067056 0.0024032826 -0.0014175616 0.0038244587 -0.0012847355
0.005019582 0.0073282234 -0.000818251 -0.010483865 -0.0017112732 0.002501947 0.0044703623 -0.023150703
-0.0039937873 0.002286862 -0.00017132566 0.0048586484 0.008344119 -0.005788161 -0.009655706 0.0015527594
-0.0009415812 -0.0044110483 -0.0073982547 0.002442868 -0.0108410455 -0.005822367 0.0027360683 -0.005079234
-0.00030263673 0.002212488 0.0093211 -0.0059299213 -0.00018979312 -0.0011432434 -0.002168732 -0.011981034
-0.004773534 0.0010059685 0.0023338145 -0.003785118 -0.003988048 -0.0017199345 0.0021081357 -0.0056309677
-6.91485e-05 -0.008812532 -0.0031032674 0.010933975 -0.0061467667 -0.011475312 -0.0028148075 -0.0023614725
-0.0012203172 -0.0054883803 0.00038921554 -0.004667028 0.0060004466 -0.009747159 0.00091859896 -0.006583647
00000000: bcb5 ff3a 8858 943a 3220 103b fbce ecba
00000010: 6480 1d3b 79cd b9ba c5a3 7a3b 9264 a8ba
00000020: 4e7b a43b 9821 f03b e57f 56ba 84c4 2bbc
00000030: cd4c e0ba b5f7 233b 1e7c 923b 8ba6 bdbc
00000040: 51de 82bb 2edf 153b e2a5 33b9 4c35 9f3b
00000050: c6b5 083c 9daa bdbb f732 1ebc f685 cb3a
00000060: 72d4 76ba 8e8a 90bb 0f6d f2bb 8618 203b
00000070: a49e 31bc 8ec9 bebb 9c4f 333b b46f a6bb
00000080: 37ab 9eb9 64ff 103b 87b7 183c c94f c2bb
00000090: 3403 47b9 e2d8 95ba 4921 0ebb 194c 44bc
000000a0: 4e6b 9cbb b4da 833a e9f2 183b be0f 78bb
000000b0: 2cae 82bb 6d6f e1ba a628 0a3b fb83 b8bb
000000c0: d103 91b8 7062 10bc 3060 4bbb 6a24 333c
000000d0: d16a c9bb f202 3cbc a278 38bb efc2 1abb
000000e0: 0df3 9fba dfd7 b3bb a00f cc39 deed 98bb
000000f0: 659f c43b 8cb2 1fbc 22ce 703a a2bb d7bb

manager.M_space.weight f4 [64, 64]
0.19734983 -0.12332839 0.031098928 -0.11022108 -0.077289596 -0.07613283 0.010744474 -0.0540238
-0.1339101 0.0635418 0.016977582 0.14653626 -0.18789627 0.0310559 -0.029839708 0.14742309
0.01688277 0.2491741 0.07830185 0.21145016 -0.037912454 0.08528187 -0.14742813 0.22480538
0.04310146 0.095445916 -0.05185797 -0.017260892 0.06487764 -0.12862295 -0.032813147 -0.12705605
0.07645343 0.19715647 0.13859127 -0.3344203 -0.08799046 -0.07582049 0.08135417 0.012264751
-0.03579285 -0.28053585 -0.09836601 -0.09463809 -0.1137099 0.028164458 0.078967035 0.04060822
-0.10368178 0.024924088 -0.057757046 -0.09982639 0.19359456 0.053942554 0.26562542 0.09479711
0.15223266 0.0124329105 -0.1426289 0.045234296 -0.061384894 0.19879006 -0.09703516 0.09232554
-0.09743826 -0.056549776 -0.06332071 -0.018519754 0.10023337 0.1398256 0.12579858 0.1610226
0.26969442 -0.046996813 0.19951126 0.13271366 -0.2694494 -0.15844397 0.14659566 0.08764636
-0.057006087 -0.007871811 0.029290486 -0.07101521 0.06596882 -0.05136959 -0.0007718446 -0.081123956
0.43404773 -0.19678904 -0.074171774 0.02053445 -0.05950549 -0.102067515 0.04667984 -0.22981253
-0.011898225 0.04556941 -0.13231745 -0.045526896 -0.060348447 0.1703865 -0.0014727191 -0.1144016
-0.10344363 0.11522989 -0.00069330295 -0.097938456 0.1497378 -0.17235816 0.09462852 0.100165546
-0.054250278 -0.045335192 -0.1254846 0.12450293 -0.009590838 -0.12880115 0.030461727 -0.1332777
0.006003563 0.05552425 -0.03036022 0.085049495 -0.2198887 0.04031229 -0.06473061 0.13817404
-0.08978838 -0.07248323 0.19777955 0.17841026 0.20443045 0.084939174 0.14683485 -0.11969321
0.08317022 -0.20840387 -0.1405212 -0.16964236 -0.012827275 -0.032939315 0.07994212 0.030017093
-0.066444926 -0.0152831115 -0.04398902 0.009744514 0.15607616 -0.01836374 0.28069168 -0.14236397
-0.11377326 0.24369852 0.024579154 0.024427138 -0.046052646 -0.060377672 0.05450712 -0.07566567
0.0070661535 -0.095477 -0.1415988 -0.09866266 0.025696715 0.077556744 0.1638793 0.07151682
-0.2449335 -0.12568974 -0.012421599 -0.101625614 -0.05149523 -0.20248635 -0.097041726 -0.053619143
-0.22577098 -0.095863916 0.0660264 -0.2103563 0.023585048 -0.14768782 0.06667267 0.06537072
0.085822724 0.0024123788 -0.022638323 -0.18286912 0.15367444 0.21940482 0.16479358 0.037173916
0.030273167 0.057081662 0.13675924 -0.15363921 -0.0005651803 -0.11882279 -0.077762276 -0.018513206
-0.29087934 0.0076433355 0.08815095 -0.101220116 0.059913013 0.10885928 -0.26100343 -0.006229881
-0.06427227 0.21674298 -0.013304515 0.066204906 0.15322421 0.0039468687 0.15808827 -0.049756374
0.19620967 -0.055490218 0.054310452 0.2128802 0.19362554 0.080954134 0.10334307 -0.17030835
-0.029030062 0.11854729 -0.06563435 0.1460258 -0.1526269 -0.05352217 0.112363786 0.10785354
-0.13917713 -0.015091232 -0.12710512 -0.16263506 0.048206113 -0.011251613 -0.05684579 0.106831625
0.16866705 0.009672764 -0.01671892 -0.20699303 -0.14393166 -0.12768152 -0.19554739 -0.16374078
-0.25608903 0.17175114 -0.025828434 0.1321281 0.017484477 0.016871102 0.05557622 0.029376233
00000000: 1316 4a3e 9893 fcbd 2ec3 fe3c 97bb e1bd
00000010: 024a 9ebd 87eb 9bbd 9709 303c 0f48 5dbd
00000020: bb1f 09be 3422 823d 9214 8b3c 9a0d 163e
00000030: e167 40be f168 fe3c 6772 f4bc 14f6 163e
00000040: bc4d 8a3c 7f27 7f3e b85c a03d 6486 583e
00000050: 174a 1bbd 43a8 ae3d 66f7 16be 6233 663e
00000060: 288b 303d 2679 c33d 0669 54bd b766 8dbc
00000070: 91de 843d bcb5 03be 1467 06bd fb1a 02be
00000080: 9e93 9c3d 63e3 493e dfea 0d3e 2339 abbe
00000090: 5834 b4bd c647 9bbd 049d a63d 18f2 483c
000000a0: 869b 12bd 65a2 8fbe 1e74 c9bd 9dd1 c1bd
000000b0: bce0 e8bd 26b9 e63c 78b9 a13d ce54 263d
000000c0: 1d57 d4bd 9a2d cc3c a792 6cbd c771 ccbd
000000d0: a73d 463e def2 5c3d 0e00 883e fd24 c23d
000000e0: e1e2 1b3e 68b3 4b3c 4f0d 12be 9947 393d
000000f0: ba6e 7bbd 9f8f 4b3e 5fba c6bd 2c15 bd3d
00000100: b68d c7bd bda0 67bd 4aae 81bd bdb6 97bc
00000110: 2747 cd3d 712e 0f3e 58d1 003e 1ce3 243e
00000120: 6315 8a3e bb7f 40bd ae4c 4c3e 17e6 073e
00000130: 46f5 89be 233f 22be 2c1d 163e ef7f b33d
00000140: 377f 69bd c5f8 00bc 9af2 ef3c 6c70 91bd
00000150: a91a 873d eb68 52bd 9d55 4aba 5124 a6bd
00000160: 813b de3e 1183 49be 5fe7 97bd dd37 a83c
00000170: 07bc 73bd c608 d1bd 5c33 3f3d fa53 6bbe
00000180: c6f0 42bc fda6 3a3d 3a7e 07be 697a 3abd
00000190: ef2f 77bd cc79 2e3e 4108 c1ba 634b eabd
000001a0: 41da d3bd a6fd eb3d c6be 35ba f593 c8bd
000001b0: de54 193e a87e 30be 99cc c13d 9823 cd3d
000001c0: 8a35 5ebd 65b1 39bd 097f 00be 64fb fe3d
000001d0: e422 1dbc 73e4 03be df8a f93c f379 08be
000001e0: 89b9 c43b 656d 633d ffb5 f8bc 6e2e ae3d
000001f0: 812a 61be 801e 253d 7b91 84bd 7f7d 0d3e
00000200: f8e2 b7bd 1672 94bd b986 4a3e 2eb1 363e
00000210: 3756 513e 97f4 ad3d e05b 163e b721 f5bd
00000220: 2655 aa3d d367 55be cae4 0fbe bab6 2dbe
00000230: 7e29 52bc 60eb 06bd b2b8 a33d 68e6 f53c
00000240: 4714 88bd 0466 7abc d52d 34bd 74a7 1f3c
00000250: 6ed2 1f3e 8e6f 96bc d2b6 8f3e dcc7 11be
00000260: f401 e9bd 1b8c 793e 395a c93c 6c1b c83c
00000270: b3a1 3cbd 944e 77bd dc42 5f3d 9af6 9abd
00000280: 318b e73b 7289 c3bd 47ff 10be a60f cabd
00000290: eb81 d23c 12d6 9e3d facf 273e 6977 923d
000002a0: d9cf 7abe d0b4 00be f683 4bbc 1721 d0bd
000002b0: aaec 52bd 9558 4fbe d0bd c6bd bf9f 5bbd
000002c0: 8230 67be 4d54 c4bd d938 873d a467 57be
000002d0: 6e35 c13c 7a3b 17be ae8b 883d 16e1 853d
000002e0: d3c3 af3d 0019 1e3b 0174 b9bc 0b42 3bbe
000002f0: d55c 1d3e a8ab 603e a6bf 283e ad43 183d
00000300: 6fff f73c 76ce 693d 9d0a 0c3e 9953 1dbe
00000310: 9c28 14ba 5d59 f3bd d441 9fbd 02a9 97bc
00000320: 23ee 94be f274 fa3b 7c88 b43d 7e4c cfbd
00000330: 5967 753d 9df1 de3d 3ea2 85be 0824 ccbb
00000340: 2ea1 83bd dff1 5d3e 2efb 59bc 7096 873d
00000350: cfe6 1c3e bc54 813b e4e1 213e 57cd 4bbd
00000360: 30eb 483e b649 63bd a374 5e3d 44fd 593e
00000370: c645 463e 48cb a53d 88a5 d33d 5065 2ebe
00000380: 74d0 edbc ecc8 f23d 4d6b 86bd ca87 153e
00000390: 3a4a 1cbe 103a 5bbd fc1e e63d 51e2 dc3d
000003a0: 7384 0ebe 3741 77bc d827 02be ce89 26be
000003b0: c673 453d af58 38bc 22d7 68bd 8aca da3d
000003c0: 0eb7 2c3e 837a 1e3c 1ef6 88bc fbf5 53be
000003d0: d262 13be f2be 02be 933d 48be aaab 27be
000003e0: 1a1e 83be 88df 2f3e 2796 d3bc 974c 073e
000003f0: 9b3b 8f3c 4435 8a3c e4a3 633d 6da6 f03c

manager.M_space.bias f4 [64]
6.706515e-06 -0.0022772143 -0.004167825 -0.0009126761 0.003261976 0.0040514395 0.0017726854 0.0028710512
0.00011773209 0.0026954121 -0.0022357707 -0.0014826325 -0.0014022082 -0.008395072 -0.0025868963 0.000945493
6.6273424e-05 -0.00016293707 -0.0072845817 -0.0036751905 -0.0009945112 0.003883322 -0.004141723 -0.0021097974
-0.0020454268 -0.0020488568 -0.0051559964 -0.001789723 -0.00043408218 0.0024144985 -0.0006401901 0.004896226
-0.0012912838 0.00026152993 0.00341267 0.010529406 0.0017768461 0.0010979866 0.0011027118 -0.0013002412
-0.005397883 0.0037239061 -0.012123711 0.0011696351 0.007651205 -0.0011551396 -0.0026725328 0.0012731638
-0.005275272 0.0018540288 0.0011333771 0.011408409 -0.0022561091 -0.00540038 -0.004598064 -0.006729369
0.00349813 -0.00412319 0.0014091292 0.0005398806 0.00059538614 0.004577253 -0.004252356 -0.009604441
00000000: 8608 e136 513d 15bb 4092 88bb a840 6fba
00000010: e0c6 553b f0c1 843b 7459 e83a 3f28 3c3b
00000020: efe6 f638 83a5 303b 0286 12bb e454 c2ba
00000030: 4dca b7ba 7c8b 09bc eb88 29bb f6da 773a
00000040: 46fc 8a38 16da 2ab9 80b3 eebb 77db 70bb
00000050: 425a 82ba 557f 7e3b 4ab7 87bb 8744 0abb
00000060: 910c 06bb 1d46 06bb a2f3 a8bb 2495 eaba
00000070: 8695 e3b9 903c 1e3b 6ed2 27ba 8570 a03b
00000080: 4b40 a9ba f41d 8939 1aa7 5f3b 8883 2c3c
00000090: 10e5 e83a 51ea 8f3a de88 903a db6c aaba
000000a0: b9e0 b0bb c70c 743b 88a2 46bc 714e 993a
000000b0: f6b6 fa3b 0e68 97ba a925 2fbb 4ae0 a63a
000000c0: 30dc acbb e202 f33a d38d 943a 56ea 3a3c
000000d0: 3bdb 13bb acf5 b0bb 5bab 96bb 0a82 dcbb
000000e0: e240 653b d31b 87bb 88b2 b83a c686 0d3a
000000f0: b013 1c3a c8fc 953b 5957 8bbb f25b 1dbc

manager.M_goals.weight f4 [64, 128]
-0.012843745 0.0229173 0.054648317 0.1376869 0.06723782 0.017308516 -0.027450757 -0.011108365
-0.008668509 -0.013675003 0.03800129 -0.13286348 0.05838917 -0.04078575 -0.18483011 -0.06881966
0.13837142 0.09376454 -0.019604096 0.123109326 -0.21542631 -0.16798241 0.012386237 0.054301124
-0.028505098 0.098829366 0.105958104 -0.090896666 -0.07829997 -0.19058517 0.017002996 -0.020604942
0.07983603 0.008149542 0.16552784 0.09146682 -0.020184973 -0.008470919 0.03043725 -0.014402703
-0.116251364 0.08254976 -0.09324857 0.07029993 -0.17122069 0.016302843 -0.16035314 0.042169213
-0.09252135 0.00646884 0.08510487 0.025997184 0.11815238 -0.016602127 -0.085077256 -0.04585467
0.061335303 0.07748926 0.071217254 0.12723427 0.13387898 0.048621304 -0.17218582 0.055479266
-0.10556155 -0.13472663 -0.08289637 0.036139846 0.015403302 0.00805059 -0.0351463 -0.10228495
-0.02192846 0.039807633 0.13434921 -0.09953688 0.06623285 0.014566906 -0.14508949 0.071579345
0.04785574 -0.067782775 -0.10878732 -0.17014839 -0.02139134 -0.08780561 0.055856146 -0.075763635
0.026915012 0.010638931 0.0724765 -0.018034229 -0.10362517 0.038994517 0.10600868 0.110844724
0.060684845 -0.1257416 0.13605589 -0.066894375 0.08794685 0.0019790074 0.0791276 -0.0020797746
0.177639 0.040364377 0.01719828 0.06766744 0.0009202177 0.11774991 0.047901127 -0.11102235
0.14069231 -0.0062247487 0.06444576 -0.06607193 -0.06715048 -0.10719382 -0.052708372 -0.12608114
0.10165345 -0.10457139 -0.08340227 0.046113715 -0.1276092 -0.028099192 0.050149817 0.0020257873
0.062106855 0.018462343 0.065578096 0.03635445 0.03426103 0.061475545 0.10206143 -0.081860855
0.093754716 0.040536106 0.12040866 -0.05280766 -0.004804838 -0.0094475765 0.056521364 -0.03638643
0.036386266 0.07838131 -0.10181361 -0.09437113 -0.04210193 -0.07308364 -0.020633226 -0.09935187
-0.19695006 -0.11729622 0.15366387 -0.0936813 -0.042491946 0.1244384 0.03626251 0.046522144
0.027932435 -0.07996538 0.076854445 0.018329896 -0.075199775 -0.060780823 0.100123204 -0.10293019
-0.12647767 0.21539178 0.05065663 -0.01889795 0.07134055 0.20549577 0.036221586 0.101051435
-0.13028723 -0.06599436 0.10128889 0.13804248 -0.03008798 0.010527469 0.10428187 -0.047097594
0.011459184 0.043333188 0.06916956 0.08943961 0.111671224 -0.019422581 -0.0067127934 0.034331214
-0.005604254 0.075237066 0.0019913234 -0.094952546 0.09338217 0.03356442 0.095511936 0.012190335
0.13338807 0.10083693 -0.043205097 0.09218464 -0.1705475 0.044445165 -0.10793255 0.004252156
-0.087587826 -0.11521084 -0.06716739 0.075658076 -0.08308535 0.08481063 0.05600639 -0.041383818
-0.08622527 -0.124890454 0.0025058703 -0.013927546 -0.04562369 -0.11894138 0.0865705 0.060627967
0.0018824468 0.05139603 -0.10364641 -0.13573484 -0.12131616 -0.24451694 0.0072553293 -0.009531405
-0.19610995 -0.018490542 -0.045332685 -0.10936567 -0.08083911 -0.10125818 0.00069003634 -0.03423603
-0.092424355 -0.092006676 0.0525724 0.12823002 0.036578007 -0.00087019854 0.1374487 -0.009765281
-0.04796469 -0.022549408 -0.15147765 -0.06703822 0.10856918 0.05248002 -0.09811723 0.12271461
00000000: 926e 52bc 10bd bb3c ead6 5f3d cbfd 0c3e
00000010: fbb3 893d 97ca 8d3c 69e0 e0bc dcff 35bc
00000020: 5d06 0ebc 1f0d 60bc 3ea7 1b3d 5d0d 08be
00000030: 7b29 6f3d f50e 27bd 1b44 3dbe 52f1 8cbd
00000040: 3db1 0d3e a007 c03d c598 a0bc be20 fc3d
00000050: b798 5cbe 9503 2cbe a5ef 4a3c db6a 5e3d
00000060: 8683 e9bc 0d67 ca3d 9000 d93d 0828 babd
00000070: bc5b a0bd c228 43be de49 8b3c b2cb a8bc
00000080: 1381 a33d a885 053c 2180 293e f552 bb3d
00000090: f55a a5bc 9cc9 0abc 8a57 f93c 51f9 6bbc
000000a0: 3215 eebd d90f a93d 1bf9 bebd 69f9 8f3d
000000b0: 7a54 2fbe 8a8d 853c 9d33 24be a0b9 2c3d
000000c0: d57b bdbd 90f8 d33b 764b ae3d 0cf8 d43c
000000d0: e0f9 f13d 2f01 88bc fc3c aebd 1bd2 3bbd
000000e0: ba3a 7b3d b0b2 9e3d 5ada 913d b349 023e
000000f0: 9217 093e 2227 473d 7b51 30be 3a3e 633d
00000100: a730 d8bd c7f5 09be 92c5 a9bd 6007 143d
00000110: 225e 7c3c 9fe6 033c 91f5 0fbd c67a d1bd
00000120: 50a3 b3bc 540d 233d d792 093e fed9 cbbd
00000130: 17a5 873d 08aa 6e3c 5792 14be 3198 923d
00000140: 6104 443d b2d1 8abd e3cb debd 613b 2ebe
00000150: e43c afbc 6dd3 b3bd 6ac9 643d f729 9bbd
00000160: df7c dc3c e94e 2e3c 8f6e 943d 85bc 93bc
00000170: 6f39 d4bd b7b8 1f3d 141b d93d 8f02 e33d
00000180: ac90 783d 68c2 00be 3c52 0b3e ebff 88bd
00000190: 7a1d b43d 3cb2 013b a70d a23d d44c 08bb
000001a0: ffe6 353e 1e55 253d 68e3 8c3c 3a95 8a3d
000001b0: c43a 713a dd26 f13d f933 443d b05f e3bd
000001c0: a511 103e faf8 cbbb 23fc 833d b850 87bd
000001d0: 3186 89bd 6f88 dbbd bce4 57bd 6a1b 01be
000001e0: af2f d03d 8629 d6bd cfce aabd bce1 3c3d
000001f0: fcab 02be 4730 e6bc e569 4d3d 12c3 043b
00000200: c263 7e3d 573e 973c cf4d 863d 67e8 143d
00000210: 4b55 0c3d c8cd 7b3d 9505 d13d aaa6 a7bd
00000220: 7902 c03d 3009 263d d198 f63d d84c 58bd
00000230: e771 9dbb 02ca 1abc f282 673d f009 15bd
00000240: c409 153d 6186 a03d a783 d0bd a745 c1bd
00000250: 1373 2cbd e0ac 95bd 0307 a9bc fe78 cbbd
00000260: 47ad 49be 0039 f0bd 105a 1d3e fbdb bfbd
00000270: 090c 2ebd 8fd9 fe3d ff87 143d 018e 3e3d
00000280: 90d2 e43c e4c4 a3bd dd65 9d3d 9428 963c
00000290: 5702 9abd 50f5 78bd 650d cd3d 10cd d2bd
000002a0: 5d83 01be aa8f 5c3e 547d 4f3d e0cf 9abc
000002b0: ff1a 923d 7c6d 523e 165d 143d 0ef4 ce3d
000002c0: 046a 05be 0d28 87bd 8d70 cf3d 025b 0d3e
000002d0: 117b f6bc 687b 2c3c bc91 d53d 68e9 40bd
000002e0: 4dbf 3b3c 247e 313d c5a8 8d3d 1d2c b73d
000002f0: e2b3 e43d 1b1c 9fbc fef6 dbbb e39e 0c3d
00000300: e4a3 b7bb e415 9a3d dd80 023b 7b76 c2bd
00000310: 273f bf3d d87a 093d c39b c33d f9b9 473c
00000320: e296 083e 9883 ce3d d4f7 30bd 4dcb bc3d
00000330: 01a4 2ebe 220c 363d be0b ddbd ab55 8b3b
00000340: 3f61 b3bd a9f3 ebbd 0e8f 89bd 9ff2 9a3d
00000350: a728 aabd 32b1 ad3d f566 653d 1482 29bd
00000360: e096 b0bd 91c6 ffbd 8739 243b 5d30 64bc
00000370: e8df 3abd 8a97 f3bd e04b b13d 0855 783d
00000380: 6fbc f63a a584 523d 9244 d4bd 13fe 0abe
00000390: 9b74 f8bd a662 7abe 1dbe ed3b 9c29 1cbc
000003a0: 0cd1 48be 7a79 97bc c4ae 39bd 1cfb dfbd
000003b0: fa8e a5bd 7360 cfbd 8ee3 343a 143b 0cbd
000003c0: fb48 bdbd ff6d bcbd 2856 573d bb4e 033e
000003d0: d2d2 153d 091e 64ba 5abf 0c3e 8ffe 1fbc
000003e0: 9f76 44bd 89b9 b8bc f51c 1bbe 564b 89bd
000003f0: 8559 de3d 4af5 563d b0f1 c8bd cc51 fb3d

manager.M_goals.bias f4 [64]
0.0028709571 0.0030783867 -0.0027745282 -0.0040757246 0.003702979 0.001384573 0.0016863636 -0.004893278
0.0021145644 -0.003781535 -0.0017012585 -0.0047068666 0.0031928553 -0.0035739609 0.0016876551 0.001228612
0.0027795066 -0.0017676029 0.004321826 -0.0038189474 -0.002689012 0.0024346912 -0.0045145694 -0.002168582
-0.000327333 -0.0050782417 -0.0016547864 0.0036389325 0.002919607 -0.0053003295 0.0035801127 0.0016172539
0.0037507722 0.0074361176 -0.0053827083 -0.004474074 -0.0039877733 0.0028650027 -0.004390735 -0.00050180184
-0.0026479464 -0.0004080102 0.0017052067 0.0007911688 0.003902053 -0.0027637687 -0.00015657787 0.0045601344
0.00205769 -0.0010684034 -0.0032449095 -0.0043333354 0.0059497696 0.003583391 0.0031027482 0.00077863137
-0.0022201475 0.0034939246 0.0030888566 -0.0011197053 -0.00029913985 -0.00406018 0.0014482971 -0.0021500867
00000000: ab26 3c3b c2be 493b dcd4 35bb a88d 85bb
00000010: aead 723b 907a b53a f908 dd3a ca57 a0bb
00000020: 8194 0a3b a1d3 77bb c3fc deba 0f3c 9abb
00000030: 393f 513b 1d39 6abb 4f34 dd3a 6109 a13a
00000040: 6228 363b e9ae e7ba 1b9e 8d3b 4e47 7abb
00000050: 233a 30bb 578f 1f3b f4ee 93bb c51e 0ebb
00000060: e49d abb9 6167 a6bb 6be5 d8ba 287b 6e3b
00000070: e156 3f3b 63ae adbb 53a0 6a3b 09fa d33a
00000080: 84cf 753b adaa f33b 6e61 b0bb 419b 92bb
00000090: deab 82bb c5c2 3b3b 28e0 8fbb 5a8b 03ba
000000a0: 2b89 2dbb 34ea d5b9 3e81 df3a 7066 4f3a
000000b0: 96b9 7f3b 5820 35bb 0d2f 24b9 2e6d 953b
000000c0: 4fda 063b ab09 8cba 8ca8 54bb a7fe 8dbb
000000d0: 49f6 c23b 53d7 6a3b 7a57 4b3b 111d 4c3a
000000e0: e57f 11bb 54fa 643b 6a6e 4a3b 13c3 92ba
000000f0: dfd5 9cb9 420b 85bb c9d4 bd3a 78e8 0cbb

manager.M_value.weight f4 [1, 64]
-0.16236338 -0.10277192 0.0027815776 0.08239798 -0.15104142 -0.12250169 -0.1099159 0.23957336
-0.04795378 0.09599236 0.0763033 0.06847791 -0.13002327 0.08391758 -0.16759895 -0.16743037
-0.14584498 -0.25762793 -0.11082733 0.06511471 -0.028475234 -0.1354766 0.20638825 0.045608427
0.0011912752 0.14273465 0.105435155 -0.06627428 0.09073496 0.18692361 -0.064820774 -0.016850797
-0.06954798 -0.12879792 0.14068839 -0.23917502 0.11406816 -0.01932911 0.15128592 0.13529958
0.18448704 -0.05566119 -0.03364101 -0.21717949 -0.107548356 0.0569664 0.06712735 -0.121228576
-0.0008964539 -0.015515459 0.09161342 0.049987633 -0.079191886 -0.10294518 -0.17211056 0.29869282
0.03904266 -0.021185338 -0.015762141 0.06364888 0.03455797 0.08064542 -0.09317832 0.17635584
00000000: 9642 26be 167a d2bd 214b 363b 46c0 a83d
00000010: 9aaa 1abe 2be2 fabd 961b e1bd b852 753e
00000020: 2f6b 44bd a497 c43d e844 9c3d 253e 8c3d
00000030: d224 05be fbdc ab3d 0f9f 2bbe de72 2bbe
00000040: 6358 15be cfe7 83be 70f9 e2bd dc5a 853d
00000050: e544 e9bc 61ba 0abe 7157 533e e7cf 3a3d
00000060: 9024 9c3a 0829 123e 63ee d73d cfba 87bd
00000070: 40d3 b93d e768 3f3e c1c0 84bd af0a 8abc
00000080: 2c6f 8ebd 9ae3 03be 9e10 103e 4cea 74be
00000090: 919c e93d 1558 9ebc b2ea 1a3e f98b 0a3e
000000a0: 2cea 3c3e fdfc 63bd 28cb 09bd 4d64 5ebe
000000b0: 5042 dcbd 9a55 693d 107a 893d b046 f8bd
000000c0: 0100 6bba 8d34 7ebc d19f bb3d d5bf 4c3d
000000d0: 5b2f a2bd ecd4 d2bd c03d 30be 44ee 983e
000000e0: 32eb 1f3d e08c adbc 9b1f 81bc 585a 823d
000000f0: a88c 0d3d 6d29 a53d 46d4 bebd a096 343e

worker.f_stateW.weight f4 [40, 64]
-0.04039819 -0.14192973 -0.19054662 -0.073585615 0.055936147 0.1912973 -0.017003406 0.091518246
-0.20783256 -0.08067274 0.11475373 -0.16970767 -0.101153314 0.228928 0.018274143 0.09361794
-0.13846704 0.06235701 -0.18775874 -0.03902702 -0.0727354 0.06130489 0.038837925 -0.29841155
0.030404385 0.36571413 -0.08404238 -0.050738543 -0.021122789 -0.14099003 0.03801575 0.07928174
0.15254542 -0.020788651 0.0049777073 -0.17251524 0.05344391 -0.22149093 0.036785662 0.08762012
0.03727101 -0.1585187 0.21282253 0.05386419 0.022104576 -0.13977452 -0.08896464 0.017275933
0.06368239 -0.07086209 -0.046066545 0.016173042 0.023227898 -0.0896357 -0.042332042 0.18043405
0.012601247 0.23567466 0.043320995 0.06222516 0.004109909 -0.14939527 -0.18845275 0.084135115
0.019448385 0.1283467 0.17738485 0.019413197 -0.1818953 -0.019700423 -0.100700684 -0.09192542
-0.09803701 -0.19169722 0.17185558 -0.059701204 -0.07761012 -0.05080843 -0.12737787 -0.0024632397
-0.14623493 0.23325351 0.20513123 0.048105534 -0.18677701 -0.03080796 0.10233413 0.037092593
0.24504523 0.22046149 -0.06316804 0.0053463792 -0.2838572 0.10668162 -0.15401891 -0.11393561
-0.21465491 -0.20859866 -0.019686252 -0.14407578 0.14292006 -0.010528681 -0.027802145 0.11082848
0.09278014 0.012370134 -0.22941674 0.05882116 0.04540079 0.07789675 0.09237629 0.090543464
-0.0027620778 -0.0968285 0.13057399 -0.15433627 -0.05010267 -0.02979361 -0.21925274 -0.06027933
-0.09975524 0.038480017 0.0124998065 -0.042145684 0.11002301 -0.12261501 0.093360916 -0.042090822
-0.038004223 -0.15549684 0.085637935 -0.07337328 0.0455352 0.032422878 0.23165287 0.13272858
-0.10112272 0.017708777 -0.0666448 0.14523184 -0.07038711 0.13317384 -0.03281513 0.045417156
0.2617278 0.04656663 -0.012447598 -0.21397145 0.013718694 0.036897715 -0.113723494 0.045815036
0.12397182 -0.068756536 -0.33285308 0.12196127 -0.13064533 -0.17590158 -0.1466889 0.16032012
-0.16099581 0.09809113 -0.11441949 0.09961002 0.01604046 0.036293916 0.15074341 -0.07101512
0.042355 0.105401166 0.03389338 0.10005945 0.18576175 0.18038595 -0.07239828 0.012398309
-0.024625247 0.09679857 0.2481784 -0.105949275 -0.047537744 -0.049873825 -0.071777344 -0.13576621
0.30021745 0.025826097 -0.039538037 -0.10599142 0.028202426 -0.15604083 -0.14852965 0.06449959
0.008574857 0.115734905 0.13670146 0.027093073 0.052261144 0.28526253 0.09612137 0.12888981
0.18515144 0.028171476 -0.20057526 -0.053739775 -0.29623616 -0.040454596 0.03175419 -0.067316465
0.06258552 0.17760736 -0.011051944 0.20788333 0.2382089 -0.27721685 0.05591787 0.12703358
-0.15138173 0.1664832 0.060591917 -0.0118864775 -0.08376709 -0.09258077 -0.15413292 -0.04592428
0.02133979 -0.02146438 -0.006914707 -0.17082635 -0.033978954 0.11460658 -0.06324412 -0.009608879
-0.26499808 -0.12735283 -0.05568052 0.15096684 0.10741425 -0.1624736 0.010442271 -0.1710158
-0.21746986 0.068673536 0.05061672 -0.10045493 0.10166026 -0.1005847 0.004971753 0.08266123
0.083454795 -0.053278185 -0.09347752 -0.0019365803 -0.09369107 0.014914623 -0.0042112917 0.029709393
00000000: 9378 25bd 0756 11be a71e 43be 0eb4 96bd
00000010: 4d1d 653d 70e3 433e ba4a 8bbc eb6d bb3d
00000020: 0fd2 54be c037 a5bd 0104 eb3d d9c7 2dbe
00000030: 7829 cfbd 1a6c 6a3e a8b3 953c c3ba bf3d
00000040: 4eca 0dbe 106a 7f3d d443 40be ccda 1fbd
00000050: 4cf6 94bd d61a 7b3d 8414 1f3d 66c9 98be
00000060: 9e12 f93c e23e bb3e 691e acbd 38d3 4fbd
00000070: b309 adbc b15f 10be 67b6 1b3d 775e a23d
00000080: de34 1c3e f64c aabc 091c a33b d6a7 30be
00000090: 00e8 5a3d 85ce 62be 90ac 163d 2d72 b33d
000000a0: 7da9 183d ba52 22be 26ee 593e b2a0 5c3d
000000b0: a814 b53c 0d21 0fbe 1833 b6bd 4286 8d3c
000000c0: ea6b 823d 2520 91bd 46b0 3cbd 547d 843c
000000d0: 6f48 be3c ec92 b7bd 5d64 2dbd b4c3 383e
000000e0: 7675 4e3c b354 713e 5b71 313d cfdf 7e3d
000000f0: 6aac 863b 13fb 18be c2f9 40be 084f ac3d
00000100: 3852 9f3c 516d 033e 60a4 353e 6d08 9f3c
00000110: c342 3abe c862 a1bc 293c cebd 6543 bcbd
00000120: a1c7 c8bd 474c 44be e9fa 2f3e 4089 74bd
00000130: 0ef2 9ebd 801c 50bd 586f 02be 4e6e 21bb
00000140: 9cbe 15be 02da 6e3e ec0d 523e 4f0a 453d
00000150: 7942 3fbe fa60 fcbc 8e94 d13d 67ee 173d
00000160: 23ed 7a3e a8c0 613e 3f5e 81bd ae30 af3b
00000170: bb55 91be e57b da3d 22b7 1dbe 1357 e9bd
00000180: 7fce 5bbe e39a 55be 1045 a1bc 9a88 13be
00000190: a359 123e 7d80 2cbc 53c1 e3bc 0bfa e23d
000001a0: 8403 be3d 1aac 4a3c 39ec 6abe 75ee 703d
000001b0: 2ef6 393d 5588 9f3d c82f bd3d da6e b93d
000001c0: fa03 35bb 054e c6bd 30b5 053e 540a 1ebe
000001d0: 7538 4dbd bb11 f4bc ca83 60be 75e7 76bd
000001e0: 7a4c ccbd 399d 1d3d fdcb 4c3c f4a0 2cbd
000001f0: be53 e13d 941d fbbd 0234 bf3d 6d67 2cbd
00000200: 51aa 1bbd 903a 1fbe f162 af3d bb44 96bd
00000210: 1e83 3a3d dacd 043d 6936 6d3e 00ea 073e
00000220: 6e19 cfbd ff11 913c 127d 88bd a8b7 143e
00000230: 1e27 90bd b95e 083e 2869 06bd 5707 3a3d
00000240: 3001 863e a7bc 3e3d 03f1 4bbc 551b 5bbe
00000250: 60c4 603c 0f22 173d dde7 e8bd 8ca8 3b3d
00000260: f0e4 fd3d 3ad0 8cbd b86b aabe d5c6 f93d
00000270: e4c7 05be 8b1f 34be 9d35 16be f52a 243e
00000280: 16dc 24be 01e4 c83d c454 eabd 5700 cc3d
00000290: 4867 833c eea8 143d 7b5c 1a3e 6070 91bd
000002a0: 707c 2d3d 91dc d73d c9d3 0a3d f8eb cc3d
000002b0: 5438 3e3e 18b7 383e 8d45 94bd 4722 4b3c
000002c0: e3ba c9bc 543e c63d 7a22 7e3e effb d8bd
000002d0: f0b6 42bd 7f48 4cbd 0000 93bd 4c06 0bbe
000002e0: 1ab6 993e 4091 d33c a3f2 21bd 0812 d9bd
000002f0: c608 e73c 2bc9 1fbe 2818 18be 5c18 843d
00000300: 8f7d 0c3c 6c06 ed3d 78fb 0b3e 4bf2 dd3c
00000310: c80f 563d ee0d 923e 48db c43d b1fb 033e
00000320: 5798 3d3e dec7 e63c 9a63 4dbe 3d1e 5cbd
00000330: 44ac 97be b8b3 25bd ae10 023d 37dd 89bd
00000340: d62c 803d b4de 353e 3713 35bc 5edf 543e
00000350: 09ed 733e 5eef 8dbe 230a 653d 1715 023e
00000360: d003 1bbe 927a 2a3e 3b2f 783d 80bf 42bc
00000370: 158e abbd fd9a bdbd 05d5 1dbe 191b 3cbd
00000380: c9d0 ae3c 11d6 afbc c494 e2bb 1aed 2ebe
00000390: 842d 0bbd dbb6 ea3d 2286 81bd 8f6e 1dbc
000003a0: d4ad 87be c868 02be 4211 64bd 0d97 1a3e
000003b0: 01fc db3d 7b5f 26be 0f16 2b3c c41e 2fbe
000003c0: 6bb0 5ebe b6a4 8c3d 7a53 4f3d 50bb cdbd
000003d0: 4133 d03d 5aff cdbd 16ea a23b 4a4a a93d
000003e0: 59ea aa3d 3a3a 5abd 2471 bfbd dad4 fdba
000003f0: 1be1 bfbd 775c 743c e0fe 89bb 1d61 f33c

worker.f_stateW.bias f4 [40]
-0.002640291 -0.008283369 -0.003142654 0.004077711 -0.0047179777 -0.0112430295 0.0 -0.0059821927
0.0010833277 -0.009380127 0.003841612 -0.0027592254 -0.010917912 0.0027871244 -0.008227192 0.005552311
0.0017135948 -0.007366098 -0.013614594 0.00167078 -0.0001732832 0.005588827 -0.0012385366 0.003590489
0.010451315 -0.00092814537 0.004184535 -0.0023200659 0.007214381 0.0022598444 0.0050862907 -0.005875294
0.0005393879 -0.0033174003 -0.009300612 0.0041308906 -0.004361076 0.004713442 -0.00015844575 0.0032695383
00000000: bb08 2dbb f8b6 07bc fcf4 4dbb 529e 853b
00000010: 4499 9abb af34 38bc 0000 0000 4506 c4bb
00000020: 72fe 8d3a 1baf 19bc 8ec3 7b3b 1fd4 34bb
00000030: 0be1 32bc 30a8 363b 58cb 06bc 29f0 b53b
00000040: b39a e03a 4f5f f1bb bf0f 5fbc 13fe da3a
00000050: 5bb3 35b9 7b22 b73b 6456 a2ba 694e 6b3b
00000060: fe3b 2b3c c84e 73ba 6c1e 893b 3f0c 18bb
00000070: 9d66 ec3b e619 143b e6aa a63b 8a85 c0bb
00000080: b665 0d3a be68 59bb 9861 18bc 6c5c 873b
00000090: 5be7 8ebb 3873 9a3b 7524 26b9 c045 563b

worker.phi.weight f4 [8, 64]
-0.10419675 0.25995123 -0.091181464 -0.12681635 -0.0892552 0.053357065 -0.12884429 -0.0151934875
0.10105782 0.022261765 -0.07366813 -0.19807388 0.07948727 -0.0240953 0.01804238 0.031641323
0.09203737 -0.10751595 0.0030373288 -0.26503307 -0.09619184 -0.03853504 -0.015221365 -0.010286437
0.12774418 0.08424783 0.088177085 0.21816327 0.2100865 0.1725548 -0.1230404 0.15270461
-0.09450126 -0.22810094 -0.043687344 0.12465564 0.07192467 -0.05915893 0.16402128 -0.18756995
0.03429368 -0.0004026643 -0.15851419 -0.15177113 0.042085797 -0.06738143 -0.09344546 0.14547375
-0.12868866 -0.025282403 0.17054836 0.074449055 0.10279046 -0.018876977 -0.008458958 0.0653438
-0.13363631 0.022968592 0.06810275 0.05083944 0.08883696 -0.09651752 0.35128248 -0.17767158
-0.14709523 -0.11304962 0.039750505 -0.12073851 -0.08134701 0.1057294 0.13543351 0.075471945
0.0019539937 0.104695015 -0.016809717 0.038182024 0.08380261 -0.065689564 0.034122165 0.19809504
-0.14836937 0.0669954 -0.032245465 -0.12352691 -0.0734556 0.17140839 0.36224017 0.14758125
-0.18495768 0.22707295 -0.005892516 -0.009984155 0.006938668 -0.10533278 0.055916987 -0.02117283
-0.0019244981 -0.11628232 0.014949803 0.28346997 -0.058892574 -0.23752181 0.056051098 -0.03402641
-0.018775638 0.09440031 -0.0313295 -0.050715048 0.031062076 -0.09514834 0.004721556 -0.105958246
0.08814264 0.031137532 -0.021123134 0.14169675 0.17431818 0.16251917 -0.044765886 -0.17766567
0.17313096 0.23169564 0.0929984 0.1396038 -0.16891164 -0.11952289 -0.109700665 0.09782722
-0.037733153 0.034231655 -0.13947797 -0.22169597 0.20115905 0.19134392 -0.042101286 0.026824435
-0.102184065 -0.23453029 -0.14404984 -0.020214219 -0.14488615 -0.034375485 0.35146052 0.15987411
0.06856262 -0.11891406 0.18225712 -0.006296668 -0.085518226 -0.084945284 -0.07746272 0.028861932
0.012094078 0.27561414 0.032128695 0.13043743 -0.05626225 -0.012959968 -0.094811656 -0.14455508
0.14454389 -0.18448915 -0.045330506 -0.036223862 -0.06931801 0.07229698 -0.1762842 0.23325902
0.060137067 -0.08593579 0.07275374 0.075593494 -0.072385475 -0.117848136 0.050931968 -0.07672413
0.05721582 -0.15826131 0.08215522 0.02764278 -0.19046135 0.06250158 -0.0530368 -0.08157081
0.15976554 -0.10868628 0.17664737 -0.08528757 0.031528518 0.066266514 0.051225424 0.041854136
-0.20613009 0.034193322 0.042438358 -0.074587665 0.117419794 -0.046768837 -0.13093576 -0.31220347
0.047947176 -0.11578902 -0.06715763 0.13016856 0.046369303 0.11503396 0.12618785 -0.15532322
0.05117633 -0.14312585 0.10507475 0.084999695 -0.0005667437 0.018801207 0.19293 -0.03956327
0.36064428 -0.17217511 0.23172188 -0.040148713 0.016913848 -0.18311763 0.048881453 0.012655626
-0.003613093 0.11365815 0.118532136 0.28168228 0.09157727 0.03668856 0.10219533 -0.010007666
-0.09457439 0.052164882 -0.019534089 -0.001945469 0.008953638 0.01850521 -0.016421925 0.0119273625
0.02187102 0.11640711 -0.13905774 0.051823586 -0.09759753 0.037293274 0.067114644 -0.31488687
0.05990608 0.11214558 -0.034588818 -0.19289865 0.10398517 0.09516155 0.010005075 -0.037519176
00000000: 1b65 d5bd 5418 853e 59bd babd 25dc 01be
00000010: 6ecb b6bd f08c 5a3d c2ef 03be 1bee 78bc
00000020: 67f7 ce3d 4e5e b63c 51df 96bd e1d3 4abe
00000030: 39ca a23d 8263 c5bc 9dcd 933c 559a 013d
00000040: 177e bc3d 5331 dcbd ec0d 473b 6ab2 87be
00000050: 3a00 c5bd ebd6 1dbd 0863 79bc 7288 28bc
00000060: 5fcf 023e 208a ac3d 3096 b43d 3166 5f3e
00000070: ea20 573e 35b2 303e 9bfc fbbd 995e 1c3e
00000080: e089 c1bd 4b93 69be 80f1 32bd 754b ff3d
00000090: 3e4d 933d a250 72bd 32f5 273e 5612 40be
000000a0: 8877 0c3d b01c d3b9 8b51 22be e469 1bbe
000000b0: 2862 2c3d 46ff 89bd 5560 bfbd 12f7 143e
000000c0: f6c6 03be 0b1d cfbc 3ba4 2e3e bf78 983d
000000d0: ce83 d23d e4a3 9abc 7197 0abc f8d2 853d
000000e0: f5d7 08be a128 bc3c 7479 8b3d 043d 503d
000000f0: 27f0 b53d faaa c5bd 4cdb b33e 8aef 35be
00000100: 22a0 16be 8f86 e7bd 6dd1 223d c045 f7bd
00000110: 4399 a6bd a888 d83d 15af 0a3e 0991 9a3d
00000120: 930e 003b 576a d63d 88b4 89bc c164 1c3d
00000130: b4a0 ab3d 4088 86bd afc3 0b3d 6dd9 4a3e
00000140: 24ee 17be e234 893d d213 04bd adfb fcbd
00000150: e46f 96bd ae85 2f3e 8b77 b93e 8a1f 173e
00000160: 8c65 3dbe d085 683e 0216 c1bb 9594 23bc
00000170: c45d e33b b6b8 d7bd 3609 653d a572 adbc
00000180: 713f fcba 6d25 eebd 05f0 743c fa22 913e
00000190: 5739 71bd eb38 73be d695 653d 475f 0bbd
000001a0: 5ecf 99bc f354 c13d 5d53 00bd 95ba 4fbd
000001b0: e575 fe3c 22dd c2bd 48b7 9a3b a300 d9bd
000001c0: 2184 b43d 2314 ff3c 6c0a adbc f418 113e
000001d0: 7780 323e 6d6b 263e 6f5c 37bd fded 35be
000001e0: 3e49 313e 9f41 6d3e f275 be3d 4cf4 0e3e
000001f0: 2cf7 2cbe 6bc8 f4bd beaa e0bd a359 c83d
00000200: 148e 1abd 7e36 0c3d 50d3 0ebe 4504 63be
00000210: a3fc 4d3e a9ef 433e 6672 2cbd ebbe db3c
00000220: e145 d1bd b528 70be cd81 13be 4a98 a5bc
00000230: 095d 14be 4fcd 0cbd a2f2 b33e 0ab6 233e
00000240: 8f6a 8c3d 3789 f3bd 9ca1 3a3e 4854 cebb
00000250: 2e24 afbd cbf7 adbd c6a4 9ebd dc6f ec3c
00000260: 3d26 463c 4c1d 8d3e 6199 033d 6491 053e
00000270: 3f73 66bd 0c56 54bc 9d2c c2bd 3f06 14be
00000280: 5003 143e b9ea 3cbe 7bac 39bd 795f 14bd
00000290: 9af6 8dbd 7010 943d d883 34be 74db 6e3e
000002a0: 4952 763d 1aff afbd eaff 943d c3d0 9a3d
000002b0: d63e 94bd 5d5a f1bd 0a9e 503d 8a21 9dbd
000002c0: 235b 6a3d 410f 22be ff40 a83d 1d73 e23c
000002d0: 4d08 43be d400 803d 1e3d 59bd 990e a7bd
000002e0: 9499 233e ea96 debd 0ce3 343e 40ab aebd
000002f0: 0c24 013d bdb6 873d c0d1 513d 3e6f 2b3d
00000300: c413 53be 4c0e 0c3d d8d3 2d3d 6bc1 98bd
00000310: ca79 f03d ae90 3fbd 0614 06be 22d9 9fbe
00000320: 4264 443d cb22 edbd f189 89bd e84a 053e
00000330: bded 3d3d ed96 eb3d 6337 013e 0d0d 1fbe
00000340: 459e 513d 958f 12be 6e31 d73d 5214 ae3d
00000350: 8791 14ba fd04 9a3c 718f 453e 180d 22bd
00000360: 5ea6 b83e ac4e 30be 8048 6d3e fa72 24bd
00000370: e98e 8a3c 3083 3bbe eb37 483d 8b59 4f3c
00000380: a4c9 6cbb 9bc5 e83d fac0 f23d a938 903e
00000390: dd8c bb3d be46 163d c94b d13d 32f7 23bc
000003a0: 38b0 c1bd d8aa 553d f405 a0bc 1bff feba
000003b0: 48b2 123c 3d98 973c 4687 86bc fc6a 433c
000003c0: da2a b33c da66 ee3d 2765 0ebe f844 543d
000003d0: 37e1 c7bd d5c0 183d 6773 893d da38 a1be
000003e0: 1460 753d 95ac e53d 01ad 0dbd 3987 45be
000003f0: 2df6 d43d 0fe4 c23d 53ec 233c b5ad 19bd
