vwgym/saved_model/vwgym_f_net_step_1400000.pt (torch_old, 356485 bytes, 51 tensors)

f_percept.percept.0.weight f4 [16, 3, 3, 3]
000000 c2 70 5c 3e dd 48 52 bd ce 0f 9c be 2f 68 28 3d
       0.21527389 -0.05133902 -0.30480808 0.041114982
000010 e6 21 a1 3d 5a 2f 41 3e b6 6a d5 bd 9a 09 97 be
       0.07867794 0.1886572 -0.10420744 -0.29499513
000020 25 ac 68 3e e1 16 ad 3e 03 52 9b bd ac ba 22 3e
       0.22721918 0.33806518 -0.07584002 0.15891522
000030 83 f3 f6 3d 6c 45 b9 3d 36 00 17 3e ac e1 0a 3e
       0.12058165 0.09046444 0.14746174 0.1356265
000040 8b 1d 0d 3e fd 85 70 be a3 7d e9 bc 45 f5 0e 3d
       0.13780801 -0.23488612 -0.028502291 0.034901876
000050 c9 07 74 3e f0 17 01 3e 91 64 54 be 22 b4 a2 be
       0.23831095 0.12606788 -0.20741488 -0.31778055
000060 54 b5 cc 3e f2 90 6d 3d 2a f2 f9 bd 8d 7c 13 bd
       0.39982092 0.05799956 -0.12204392 -0.036007453
000070 4c 80 db 3e b6 f3 0b 3e fc 3d 7c 3d 86 82 42 3e
       0.4287132 0.13667187 0.06158255 0.18995103
000080 1d d7 51 3e 5d 2d a8 bd 17 83 3c 3e 63 d6 f1 bd
       0.20492215 -0.08211777 0.18409382 -0.11808469
000090 ef c5 91 3c 49 6c 35 3e f8 cd f7 3d d2 91 48 be
       0.017794577 0.17717089 0.12099832 -0.19586876
0000a0 16 2e 26 bc 06 f5 84 bb 97 71 8f 3e 7a f8 f5 3e
       -0.010142824 -0.0040575294 0.2801635 0.48041135
0000b0 68 da 97 3e c6 54 70 bd d0 93 32 3e 04 2a 66 3e
       0.29658818 -0.058674596 0.17439198 0.22476965
0000c0 94 65 ba 3b 78 8b 94 3c bc c2 14 3e 7a bb 53 3e
       0.0056883786 0.01813291 0.1452741 0.20676985
0000d0 ac 52 ed b9 95 7a 90 3d e5 34 63 3e bd 0f 8b be
       -0.00045265758 0.07054631 0.22188146 -0.27160445
0000e0 75 ec 8e bd 38 78 88 be be 0d 71 3d 45 78 14 3e
       -0.06978694 -0.2665422 0.058850996 0.14499004
0000f0 f6 81 45 3c 81 97 38 3d d4 66 82 be 85 52 a8 be
       0.012054911 0.04506636 -0.25469077 -0.32875457
000100 e0 e2 40 be 44 6e 39 3e 16 c3 03 3e 66 04 93 bd
       -0.18836546 0.18108469 0.12867388 -0.07178573
000110 6b 8d 33 be 34 92 4d 3e 4a a6 83 bc 3c d3 08 be
       -0.17534415 0.20075303 -0.016070504 -0.1336183
000120 a0 01 27 3e 25 b9 08 3d 2e c3 9a 3e d2 e8 9a 3d
       0.16309214 0.033379693 0.30227035 0.07563938
000130 66 69 69 be b8 5e 98 3e a6 9d 0e bc 78 04 b0 be
       -0.22794113 0.29759765 -0.0087045785 -0.3437841
000140 fc d2 4f 3e bd 25 c7 3e 98 2f 0f 3d 4c bb de 3d
       0.20295328 0.3889598 0.0349575 0.10875568
000150 47 eb fe bd 13 8a 60 be 83 5d 23 bc d7 5c 44 be
       -0.12447219 -0.21927671 -0.009971025 -0.1917604
000160 59 5f 03 3e 51 25 25 be d0 f4 96 bd 02 35 90 3d
       0.12829341 -0.16127516 -0.07370913 0.070413604
000170 77 a8 db 3b 91 be e7 bd ba 3c a3 bd e2 64 f4 3d
       0.006703432 -0.113156445 -0.07970567 0.11933304
000180 fc 59 47 be d5 bb 0f bd c0 26 ed bd 32 e0 bc be
       -0.1946792 -0.03509124 -0.115796566 -0.36889797
000190 a0 dc 87 3e dc 0a 76 be 17 16 10 3f 56 70 91 3b
       0.2653551 -0.2402758 0.56283706 0.0044384403
0001a0 5d e5 93 3c d8 b3 9f 3d 69 4b 36 3c 24 76 3c bd
       0.018053705 0.07797974 0.011126378 -0.046011105
0001b0 cd 92 71 be 50 c3 41 be e6 72 81 3d 8d bc ae 3d
       -0.23591156 -0.18922162 0.06320743 0.08532057
0001c0 54 46 de bb b8 fd a4 be 86 11 8b 3d f6 11 b2 3d
       -0.006783286 -0.32224822 0.06790452 0.08694832
0001d0 ad fa 10 3d 7f 96 2a be a8 eb f1 bc a8 be 81 3e
       0.035395313 -0.16658972 -0.029531315 0.25340772
0001e0 22 de 9a 3d f9 2e f0 3e 05 f5 1b 3e 05 49 1e 3d
       0.075619 0.46910837 0.15230186 0.038643856
0001f0 73 ce e9 3b 5c 4e fa 3d 1d ba b9 be c3 b8 9a be
       0.0071352064 0.12221977 -0.36274806 -0.30219087
000200 4d 55 91 3e b2 f7 86 3e 64 6e 7a 3d bb c2 b3 3d
       0.28385392 0.26360852 0.061140433 0.08777376
000210 c0 88 c9 3d 60 03 5f bd e4 8f c0 bd 95 b1 be be
       0.09840536 -0.054446578 -0.09402445 -0.3724486
000220 e5 5f 47 3e c5 db e9 bd d3 d2 b8 bd 63 65 3e 3d
       0.19470175 -0.11418871 -0.090245865 0.04648341
000230 d6 e3 eb bd 1f de 84 be 5c d9 01 be e8 29 6b be
       -0.11518066 -0.25950715 -0.12680572 -0.22965205
000240 17 08 45 be e8 cd a5 be af 38 99 3d a3 41 ee bb
       -0.19241367 -0.32383657 0.07481515 -0.007271008
000250 00 a4 01 3e f9 a5 47 bd ad 6c 60 be 35 8e 9e 3d
       0.12660217 -0.04874227 -0.21916457 0.077419676
000260 d5 be 6d bc ca ab 86 bd 8c a2 bb 3d ff 8b 72 be
       -0.01451083 -0.06575735 0.09161863 -0.23686217
000270 fa 07 8e bd 23 e0 8d bd e9 fe 6a be 1d c1 a0 3e
       -0.06935115 -0.06927516 -0.22948803 0.31397334
000280 ee 2b c8 bd 74 c7 db 3e cb 2c 4a be 24 d6 fc bd
       -0.09774004 0.42925608 -0.1974365 -0.123455316
000290 90 5a 97 3d 85 0d a4 be 11 91 39 3e 26 01 11 be
       0.0739032 -0.32041565 0.18121745 -0.14160594
0002a0 50 b5 3e 3e 70 dc de 3e 35 52 d6 3d 39 46 7a 3e
       0.18623853 0.43527555 0.104648985 0.2444085
0002b0 36 23 58 be f3 f2 29 3c fb 50 9a 3e 67 45 ac bd
       -0.21107182 0.010372865 0.30139908 -0.08411675
0002c0 53 d1 a2 3d db 97 61 3e 2e 71 c3 3d f3 ce 47 be
       0.07950082 0.22030585 0.09543072 -0.19512539
0002d0 65 73 5f be a1 59 c0 3e 40 43 09 bd 4a 1f 01 be
       -0.21821363 0.3756838 -0.0335114 -0.12609592
0002e0 e1 1e cc 3d 5d 78 99 3c 47 44 b8 3b 76 c5 4a 3e
       0.09966827 0.018734151 0.0056233737 0.19801888
0002f0 2f 71 8d 3c 8e 8b 27 3e d9 a3 e5 3b 6c 46 98 3d
       0.017265884 0.1636183 0.0070080576 0.07435307
000300 87 d1 59 3e 32 df 9d 3d 71 cf dd bd da 6b bd be
       0.21271335 0.07708587 -0.10830582 -0.36996347
000310 db ee 8d b9 2b 25 cd 3d e6 cc a1 3d 82 1b 19 be
       -0.00027071577 0.10016855 0.079004094 -0.149519
000320 df 80 fd 3d ee 83 bc 3d fe 4c d1 be 42 5c e7 bd
       0.12378096 0.09204851 -0.40879053 -0.11296894
000330 af 68 a8 3e 69 05 bb bd 2e ad 86 bc 71 73 a6 be
       0.32892367 -0.09131891 -0.01644 -0.3250995
000340 a8 bc b7 be 89 f3 1e be fb ea 25 be a4 cd 89 3e
       -0.3588612 -0.15522589 -0.16202919 0.26914704
000350 6c 05 53 3d 4f dc af 3d 6f 3d 37 be 68 3f 87 3d
       0.051518843 0.085869424 -0.17894529 0.06603891
000360 2d ad 37 3e 07 52 9f 3d 48 30 d9 bc 27 2a 0d 3d
       0.17937155 0.07779317 -0.02651228 0.034464028
000370 04 66 0d bd 60 af 4a 3e d5 a3 87 3d cf 15 1d 3e
       -0.034521118 0.19793463 0.06623045 0.1534035
000380 91 65 14 bd 26 bf 82 be 1e e1 bf 3e 4d 75 14 3e
       -0.036229674 -0.2553646 0.37476438 0.14497872
000390 29 c1 c5 3e 9d d0 05 3e 29 cf 25 3e 1d 65 b8 bc
       0.38623932 0.13067861 0.16192307 -0.022509152
0003a0 35 04 5e bd ad 06 5e 3d db 40 86 be 3f 40 a3 bd
       -0.05420323 0.054205585 -0.26221356 -0.07971238
0003b0 00 72 5a be f5 ca c7 be 04 26 c9 be a9 ad 22 be
       -0.2133255 -0.3902203 -0.39286816 -0.15886559
0003c0 67 1a e1 bb d6 f5 81 3d 95 c5 b2 3d 28 42 35 3b
       -0.0068696025 0.063457176 0.08729092 0.002765784
0003d0 90 06 ba bd e6 b0 22 bc e5 f1 a4 be 5a a5 85 3c
       -0.09083283 -0.009929871 -0.322158 0.016314197
0003e0 fd c9 f4 bd 56 97 2b be 24 87 7e be 07 4d 8d 3e
       -0.11952589 -0.16756949 -0.2485624 0.2759783
0003f0 55 c7 c7 bb d0 4a 32 bd 7a 40 82 bd 63 52 ac 3e
       -0.0060967603 -0.043528378 -0.06359954 0.33656606

f_percept.percept.0.bias f4 [16]
000000 38 05 55 bb 11 69 60 3c 57 32 42 3b b6 2a ae 3c
       -0.0032504331 0.013696925 0.0029632056 0.0212606
000010 1f f8 99 bc 03 28 49 bc ea ab 74 bc 19 bb 49 bc
       -0.018795071 -0.012277606 -0.014933566 -0.012312674
000020 ee ed 0e 3c b1 9a 99 3c 60 be 81 bc d7 45 fd 3b
       0.008723719 0.01875052 -0.015837848 0.007729273
000030 0d 2b 41 3c 93 f3 65 bc a4 96 46 3c 6f a2 c0 bc
       0.011790049 -0.014035123 0.012120876 -0.023514954

f_percept.percept.3.weight f4 [64, 16]
000000 f0 ff a1 3c 40 ec 0d 3e ba 04 2a be 20 23 8f be
       0.01977536 0.13859653 -0.16603366 -0.27956486
000010 00 eb 0b be a2 0b a2 bb 37 e3 1e be df ae 37 3e
       -0.13663864 -0.0049452344 -0.15516363 0.17937802
000020 a9 2e 33 bc 52 93 d3 3e b0 05 c7 3c e1 34 f0 3c
       -0.010936418 0.41323334 0.024294704 0.02932209
000030 06 5d e5 3d 9c 93 df 3e 7d 90 01 be dc 44 9f bd
       0.111993834 0.43667305 -0.12652774 -0.07776806
000040 75 89 37 be 44 67 9a bd 90 74 2b 3e e7 c2 fb 3d
       -0.1792353 -0.075392276 0.16743684 0.12293034
000050 25 7b 29 3d 3e d3 80 bd e3 68 1a be 04 be 82 3d
       0.041377205 -0.06290291 -0.15079074 0.06383899
000060 07 68 09 be b7 e2 14 3d 60 68 ae 3d a6 71 82 3d
       -0.1341859 0.036349025 0.08516002 0.06369333
000070 37 23 86 be 2a 87 6b 3e 04 b2 33 3e 98 68 60 bd
       -0.26198742 0.2300078 0.17548376 -0.05478725
000080 aa 6d 6e 3e 66 df 99 bc 04 1c 05 3d 6d 15 27 bd
       0.23284021 -0.018783282 0.03249742 -0.040791918
000090 81 7a 96 3c 0b d6 9a be aa 82 d6 bc cb aa 41 be
       0.018368961 -0.30241427 -0.026185352 -0.18912809
0000a0 ff 78 8f 3b 4b 8a 52 bd d5 c8 81 3e 90 bb 0d 3d
       0.0043784375 -0.051401418 0.25348535 0.0346027
0000b0 73 97 8f bd b9 d5 6c 3d 2a 7c b1 3b c8 87 9a bd
       -0.070113085 0.05782101 0.005416413 -0.075454295
0000c0 ad 21 8c bd 87 20 11 3d d4 fd 89 bd d2 fd 67 be
       -0.06842361 0.03543141 -0.06737867 -0.22655419
0000d0 03 07 72 3e 5f f0 2a 3e c7 32 c8 3d 66 82 48 3e
       0.23635487 0.16693257 0.0977531 0.19580993
0000e0 18 bf 9b bd 5d 21 e5 3d 99 18 4a 3e 35 e7 b5 bc
       -0.076048076 0.11188004 0.19735946 -0.022204975
0000f0 05 7b 4a be 1b f0 91 3d b7 0d b6 bd e4 cd 04 be
       -0.1977349 0.071258746 -0.08889335 -0.12969166
000100 ed 4e 2f be 6f 35 28 3d 49 67 de 3c 5c 98 79 be
       -0.17119952 0.041066583 0.02714886 -0.24374527
000110 5a b0 02 be 8e ed bb 38 6e 20 0e bc 09 bb d2 3d
       -0.12762585 8.961103e-05 -0.008674724 0.102895804
000120 13 27 9b bd 49 17 17 3e b0 d1 af bd 25 e2 72 3d
       -0.07575812 0.14754976 -0.085849166 0.0592977
000130 6b 6b 58 3d f3 94 9d be 5a 7c b9 bd 46 c1 23 3d
       0.052836817 -0.30777702 -0.09056921 0.03997924
000140 22 9d 7e be 6c 0c eb 3b 19 79 11 3e 2e ad 1b 3d
       -0.24864629 0.0071731117 0.14206351 0.038006954
000150 4d a7 b7 3d f1 04 33 ba a7 b2 0b be 2d 65 6b bd
       0.08967457 -0.00068290444 -0.13642369 -0.057469536
000160 34 da 9f 3d b5 72 20 be f9 a3 ab bc e7 71 bd 3e
       0.07805291 -0.15668757 -0.020952212 0.37000963
000170 2f 90 8b 3d 9b 3f 8a bd 38 22 55 3e 13 1d 1c 3c
       0.0681461 -0.06750413 0.20813835 0.009528416
000180 bf 8c 8c 3c 7e 21 67 bd c0 d3 7c 3e 10 73 05 3d
       0.017156957 -0.056428425 0.24690151 0.032580435
000190 18 2a 50 be 96 24 c2 3d 68 b0 8f be e4 cb 48 3d
       -0.20328557 0.094796345 -0.28064275 0.04902257
0001a0 19 c2 45 be 17 a5 43 3e b6 7f f4 3d 0a f2 58 be
       -0.19312324 0.19105946 0.119384214 -0.2118608
0001b0 24 58 60 3e 63 11 25 bd 19 f6 3b 3d 5c 9a d4 3d
       0.21908623 -0.040299784 0.045888994 0.10381004
0001c0 4d a2 29 be 6f fa bf bd d2 75 2a bb d6 32 75 be
       -0.16565819 -0.09373938 -0.0026010168 -0.23945174
0001d0 e8 97 e7 bd 06 cb 81 3d d8 6d 7e 3e 8b 24 d3 bc
       -0.11308271 0.06337552 0.2484659 -0.025774261
0001e0 8e 0c 2d be 15 d1 3a be 5a 6b 5e bd f1 32 1f be
       -0.1689932 -0.18243821 -0.054301597 -0.15546776
0001f0 11 3e a5 3c 90 eb fe 3d be e1 84 bd a8 b1 80 bd
       0.020171197 0.12447274 -0.064883694 -0.06283885
000200 a5 86 44 be f2 17 4c 3c 38 7b 34 3e 16 17 ea 3d
       -0.19191988 0.012456881 0.17625129 0.114301845
000210 59 f0 f4 3c 86 cd 15 bd 0f 1f 6c 3e 27 2a a1 bb
       0.029899763 -0.036572956 0.23058723 -0.004918355
000220 ef 0d a2 be d5 a1 fb 3d c1 64 64 3c b0 1c 65 3d
       -0.31651255 0.122867264 0.013940037 0.05593556
000230 66 98 83 3e 8b b5 86 3c 1b e4 0f 3e ae 1d 71 bd
       0.25702208 0.016443988 0.14051859 -0.058866195
000240 9b 3e 7c 3c 4d 09 81 3d 5c 4a 2b be ab d3 5c bd
       0.015395786 0.06300602 -0.16727585 -0.0539128
000250 cf e5 60 3e 7a 9e dc 3d 9c aa f7 bd f4 11 60 3d
       0.21962665 0.107724145 -0.12093088 0.05470462
000260 58 e7 5e be 95 1c 64 bc c6 03 2f be 1a 77 8c 3e
       -0.21767938 -0.01392283 -0.17091283 0.27434617
000270 af 13 f0 bc b2 75 25 3d 35 ff b8 bb c2 4b eb 3c
       -0.02930626 0.040395446 -0.0056456574 0.028722648
000280 c4 72 d3 bd 6e 79 58 bd e7 96 82 be 48 01 97 bd
       -0.10324624 -0.05285018 -0.25505754 -0.07373291
000290 0e a5 b1 bd 64 06 16 3d df ea f0 3c 52 70 84 3e
       -0.0867406 0.03662719 0.02940887 0.25866944
0002a0 ed 29 c2 bd b4 87 67 b9 5d be 9a bd 21 39 90 3d
       -0.09480653 -0.0002208043 -0.0755584 0.070421465
0002b0 f4 4b 06 be a6 3c 8a bd c8 e8 22 3e a5 05 80 be
       -0.13114911 -0.06749849 0.15909111 -0.25004306
0002c0 c0 bc 65 3d 86 8b c5 bd d6 ea 01 bd 7b 59 de 3d
       0.05608821 -0.096457526 -0.031718098 0.10856911
0002d0 4e d9 85 be f1 b5 ef bc 8e 5b f6 3d b5 1b f5 bc
       -0.26142353 -0.029261561 0.120291814 -0.029920438
0002e0 3e c1 1d bd 92 45 2c be db 9a fd bd 2b 4e fc bd
       -0.03851437 -0.16823414 -0.12383052 -0.12319597
0002f0 91 65 85 be 53 ea 1b bd 3a cf d4 bd 50 8c 03 be
       -0.26054052 -0.038065266 -0.10391088 -0.12846494
000300 46 eb 0b 3e 26 83 17 be 56 c4 af 3e b4 a3 82 bc
       0.13663968 -0.14796123 0.3432948 -0.0159472
000310 a5 83 08 bd 25 13 0a be eb 14 13 bd 1f bf 2b 3d
       -0.03332867 -0.13483866 -0.03590862 0.041930314
000320 55 54 a6 3d 73 bb fc 3d a2 02 5c be 37 aa c4 3d
       0.08121554 0.123404406 -0.2148538 0.096027784
000330 fd 0d eb bd 92 aa 12 be 1a de c5 3c 9b 7f af bd
       -0.114772774 -0.1432288 0.024153758 -0.08569261
000340 01 17 84 3e 38 39 bd 3c d6 17 99 bd 30 48 be 3c
       0.257988 0.023098573 -0.074752495 0.023227781
000350 c6 db a3 3d f1 5d ef bc e9 cc 20 3e 48 35 d8 3d
       0.08000903 -0.0292196 0.15703167 0.105570376
000360 43 32 91 be 14 ad 8c 3c a4 23 7c 3d ce 5f 80 3e
       -0.2835866 0.017172374 0.061557427 0.25073093
000370 46 18 da 3c d0 0b 03 3e 69 90 9d 3d 02 f7 b0 3d
       0.026622903 0.12797475 0.0769356 0.08640863
000380 e3 8e 04 3e 83 6f a5 3d 6e ab a6 3e e9 48 c4 be
       0.12945132 0.0807791 0.32552665 -0.38336876
000390 05 9c 6e bd 81 c6 d5 bd 45 3c 16 3d c5 73 3f be
       -0.05825426 -0.10438252 0.03667857 -0.18696506
0003a0 18 3a cb 3c b3 5f d7 3b f1 07 23 be aa 41 ba 3d
       0.024807975 0.0065726875 -0.15920998 0.09094556
0003b0 20 d0 79 3d e1 42 ab bd 94 8d 1b 3e 91 95 a3 bd
       0.0609895 -0.083623655 0.15190727 -0.07987512
0003c0 b8 f3 c0 3d 3a a1 1d be e4 f2 60 3d 59 68 12 bd
       0.09421486 -0.15393534 0.05491914 -0.035744045
0003d0 a6 16 65 3e 7d f3 82 3c a5 3d 64 be 61 cc 0e be
       0.22371921 0.015985245 -0.2228914 -0.13945152
0003e0 a7 29 0e 3e 26 1b a3 3d a3 84 99 3c 01 4e 52 3e
       0.13883077 0.079641625 0.018740004 0.20537569
0003f0 16 51 17 be cf 73 b6 bc bb b1 ed 3c af c6 0b bd
       -0.14777026 -0.022272019 0.029015413 -0.034125026

f_percept.percept.3.bias f4 [64]
000000 47 a2 d5 3c fd 8a fa 3b 6b 67 70 3d 6e 3b 01 3d
       0.026078356 0.007645963 0.058692377 0.031550817
000010 bd e2 98 3c 01 77 30 3d 81 69 e9 3c 4b e5 5e 3a
       0.018662805 0.04308224 0.028492691 0.0008502795
000020 18 90 11 3d 77 3f 88 ba 35 9e 42 3c c4 8c 17 3d
       0.03553781 -0.001039489 0.01187854 0.03699948
000030 bd 33 98 3c 31 9f cd 3b d7 00 2f 3c 11 dc f3 ba
       0.018579358 0.0062750806 0.010681353 -0.0018605014
000040 8c 5f 1d 3c 30 fb 0b 3d 22 28 47 3c 44 f8 18 3c
       0.0096053 0.034175098 0.0121555645 0.009336535
000050 77 66 48 3c 5c 70 04 3c ff 58 7a 3c 73 23 a3 3c
       0.012231461 0.008083429 0.015280007 0.019914364
000060 29 5f e5 3b e0 6b d1 3c cb e1 12 3d 7e 2f 6d 3c
       0.0069998694 0.025564134 0.035859864 0.014476655
000070 5b 04 b7 3c 29 e7 19 bc 69 b3 8b 3c 93 2d 07 3d
       0.022340944 -0.009393492 0.017053323 0.033002447
000080 ae 34 b0 3c 49 1e 95 3c 9e 38 d5 3c 35 07 0f b9
       0.021509495 0.018202918 0.026027974 -0.00013640228
000090 47 77 25 3d 81 23 a4 3b 8e 41 28 3d 4e 0e 61 3b
       0.040396955 0.005009115 0.041078143 0.0034340802
0000a0 3f 37 1f 3c 7c 8c ce 3c 61 3a a1 3c d0 a3 9a 3a
       0.009717762 0.025213473 0.019681158 0.0011798088
0000b0 a0 1d 4c bc 86 f6 5a 3d 5a 61 e1 3c 13 3a 8a 3c
       -0.012458235 0.05345776 0.027512241 0.016873395
0000c0 ca f4 cc 3c 6f c6 3a 3b e1 e4 f1 3c 4f 0a 0a 3d
       0.025019068 0.0028499623 0.029528083 0.033701237
0000d0 5c 41 5b 3d ad bb 39 3c ef d4 c7 3a 01 7c 45 3c
       0.05352913 0.011336249 0.0015245954 0.012053491
0000e0 e1 2c 43 3c 75 72 1c 3d a9 ba 48 3b 02 1c 97 3c
       0.011912555 0.038195092 0.0030628836 0.018445972
0000f0 f1 8e b1 3c 1f 29 f7 bb dc 5c 8b 3d 7b d2 b0 3c
       0.021674605 -0.007542744 0.06804821 0.02158474

manager.M_space.weight f4 [64, 64]
000000 d3 59 59 3d 98 d6 16 bd 9f d0 56 bd 04 95 b6 bc
       0.05306418 -0.036825746 -0.05244505 -0.022287853
000010 7e 2b 36 3e 89 25 90 3e f6 75 b3 3d 5d 37 91 bd
       0.17790028 0.28153637 0.08762734 -0.07090638
000020 ad ca ef 3c 66 c8 e2 3d be 2e de 3d 5e 50 1d bc
       0.029271448 0.11073379 0.10848759 -0.009601681
000030 12 61 2a ba f6 09 54 3d f8 b5 fb 3d e1 a0 9f 3d
       -0.000649945 0.051767312 0.12290567 0.07794357
000040 07 ca 41 bc 25 d5 f9 3c 47 69 7a 38 7b 2e 08 3e
       -0.011827952 0.030497143 5.9702692e-05 0.13298981
000050 1a bd 5b 3e da 90 97 bd 92 58 a7 3d a5 5c f6 bc
       0.21458855 -0.07400675 0.0817119 -0.030073473
000060 cc ef ae 3c 9a 2b 67 be 68 79 9a bd 12 5c b6 bd
       0.021354578 -0.22575226 -0.07542688 -0.0890428
000070 cb f3 de bc 5c fd b9 bc bd bb 59 bd 77 a5 0d bd
       -0.027215859 -0.022703819 -0.053157557 -0.034581628
000080 0d 54 4d be 1a b6 a8 be c2 b3 5d bc cf 58 16 be
       -0.20051594 -0.32951432 -0.013531627 -0.14682315
000090 22 0c b9 bd 5f 3c bf bc d2 6b c1 be fa 1d da 3d
       -0.09035517 -0.023344217 -0.37777573 0.10650249
0000a0 4e d9 ce bc 38 c0 4f be cb 26 84 3d 08 a1 e1 bd
       -0.025250103 -0.2028817 0.06452712 -0.110170424
0000b0 e3 fe 5d 3d b9 17 81 bd 8f 70 fc 3d ee 89 a4 be
       0.054198157 -0.06303353 0.12326156 -0.32136482
0000c0 8f 5c 48 be e6 da a0 bd ad be 89 3d 1c 52 95 bd
       -0.19566558 -0.078542516 0.06725822 -0.07291052
0000d0 26 ec f6 3d ce e2 df 3d 4f f1 b7 bd 9f 5e 01 3e
       0.120567605 0.109319314 -0.08981573 0.12633751
0000e0 ed 87 9c bc d6 49 fa 3d ee f2 03 bd b3 d2 6b bd
       -0.019107783 0.12221114 -0.032214098 -0.057573985
0000f0 91 fb b5 3c a9 7a 14 be 74 c1 f5 3d 7b 44 2f be
       0.022214683 -0.14499916 0.11999789 -0.17115967
000100 7d ba c7 3d 1b c0 33 3e 01 14 5c 3e 99 46 ec bd
       0.09752367 0.17553751 0.21492006 -0.11536903
000110 3c 29 10 be e7 41 81 ba 71 f6 9b 3d 41 6b 7f 3e
       -0.1407823 -0.0009861559 0.07615364 0.24943258
000120 dd 2f 04 3e e2 82 52 3b b5 01 b0 bd f2 f1 f9 3d
       0.12908883 0.003212147 -0.085940756 0.122043505
000130 92 e9 13 bd 73 55 60 3c 96 c8 43 3d 1f d9 44 3d
       -0.036111422 0.013692248 0.047798716 0.048058625
000140 f3 62 43 3d 2e f7 f6 bc 4c d9 05 3e d0 78 d8 3d
       0.047701787 -0.030147161 0.13071173 0.10569918
000150 18 ca f5 bb fe 51 16 3e 28 aa 2b bd cc 57 2e 3e
       -0.007500898 0.14679715 -0.04191032 0.1702568
000160 41 1a cc bd ce 78 08 3d 0c d9 5c bd b9 b3 41 3d
       -0.09965945 0.033318333 -0.05391793 0.047290538
000170 b3 48 98 bd 70 77 b5 3d 71 d7 d8 bd d8 9c b0 3d
       -0.07435741 0.088606715 -0.10587967 0.086236656
000180 2d 3f d8 bd 5d 38 7e 3d 56 ba 9d bd f9 29 1a be
       -0.10558925 0.06206547 -0.077015564 -0.15055074
000190 f1 c9 3c bd 12 30 36 be 7f 3e 55 3e 56 14 11 3e
       -0.046091024 -0.17791775 0.20824622 0.14167914
0001a0 7e 38 be 3d 32 e2 91 3c 21 ff 30 3e 4a 74 1f 3e
       0.09288119 0.017808054 0.17284824 0.15571705
0001b0 35 0b 3c 3e 95 2b 29 3e ef 55 8d bd 4a ca 2a 3e
       0.1836365 0.16520531 -0.06901156 0.1667873
0001c0 d2 56 6d be 15 72 58 bd 89 24 29 be 51 79 87 3d
       -0.2317765 -0.052843172 -0.16517843 0.06614936
0001d0 29 52 79 3e 91 b1 20 3e 07 7b d5 3d 6a 94 ad 3e
       0.24347748 0.15692736 0.10423856 0.33902293
0001e0 ff f1 22 be 45 8e 7a 3e 64 91 f1 bd 32 6a db bd
       -0.15912627 0.24468334 -0.11795309 -0.107136145
0001f0 34 b5 62 bd 1f 27 c9 3c 03 1d 08 3e 51 58 07 3e
       -0.05534859 0.024554787 0.13292317 0.13217284
000200 fc dc 96 bd 54 a8 a2 bd a7 e4 1a 3e 30 da e7 3c
       -0.07366368 -0.07942262 0.15126286 0.028302282
000210 92 17 48 be 01 e7 a8 bd b4 3e 15 be 27 89 2d bd
       -0.19540241 -0.082471855 -0.145747 -0.042367127
000220 e6 c3 3d 3c 80 94 02 3c f6 5c 2d be 4f 26 fb bd
       0.01158235 0.0079699755 -0.16929993 -0.12263166
000230 6c b2 7a bd 64 93 2e be 55 bb f0 bd 31 8a 0b ba
       -0.061205313 -0.17048413 -0.11754481 -0.00053230213
000240 ef 47 3a be 25 c5 52 be 5f ae eb bc 64 50 0c 3e
       -0.18191503 -0.20583017 -0.02876967 0.13702542
000250 ff cf 48 3e 50 c0 47 bc 24 3d 2b 3d 1e cb 35 3e
       0.19610594 -0.012191847 0.041806355 0.17753264
000260 5d dc c4 3d 68 9b 67 3e f2 4c 1d be dd f6 dc bc
       0.096123435 0.22617877 -0.15361384 -0.026973182
000270 94 ee 93 bd e8 bf 3e bc f2 ab 2a 3e 42 02 93 bd
       -0.072232395 -0.011642434 0.16667154 -0.07178165
000280 21 5e f2 3d b3 76 a8 bb 1b 88 25 3e 77 9e 0b 3d
       0.1183436 -0.005141103 0.16165201 0.03408667
000290 ca 10 24 3c 9e 7c 07 3e 3d 7e 1e 3c 2e 4e fd bd
       0.010013768 0.13231131 0.009673652 -0.12368427
0002a0 28 f6 c0 bb 66 e6 3d be ac da a6 3e 01 99 7a 3e
       -0.005888719 -0.18544921 0.32588708 0.24472429
0002b0 dd 7f bf bd 8a 6f 36 3d d0 43 39 be 57 23 2f 3a
       -0.0935056 0.044539966 -0.18092275 0.0006680986
0002c0 27 72 ca 3d b7 11 93 3c 66 58 c6 3d a1 3c e0 be
       0.09885054 0.017952783 0.096848294 -0.43796256
0002d0 01 da 9d bc 59 12 a4 bc 7a 4d d1 3d 37 cf 47 3e
       -0.019268991 -0.02002828 0.102198556 0.1951264
0002e0 0a a7 3e 3e d5 ae 1c 3e 77 7e 57 bd 54 09 8c be
       0.18618408 0.15301068 -0.05261084 -0.27350867
0002f0 fd 83 51 3d 08 31 68 be c9 63 b3 3d 8a 02 26 be
       0.051151264 -0.22674954 0.08759267 -0.16211906
000300 e1 cf 86 bd ed 91 82 3c 61 6b 86 3d 15 39 9a bd
       -0.065826185 0.015938723 0.0656345 -0.07530419
000310 22 4f 44 3d b9 4d 37 be 29 89 4d 3e 95 06 04 be
       0.04792703 -0.17900743 0.20071854 -0.12893136
000320 bc c9 00 be 51 6e 80 3d d8 9d 5a 3e c9 5e 8e be
       -0.12576956 0.06271041 0.21349275 -0.2780669
000330 e0 ea a7 bd d0 04 ec 3d f0 8c 01 3d 90 7e ee bc
       -0.08199096 0.115243554 0.03162855 -0.029113084
000340 b5 b2 1e be a4 61 c7 3d 06 67 5d 3d ee 4d 02 bd
       -0.15497859 0.0973542 0.05405333 -0.0318126
000350 c1 41 03 bc ee a9 63 bd e8 43 12 bd b4 8c 7d 3c
       -0.008011282 -0.05558198 -0.03570929 0.015475441
000360 9b 1b 94 3d 13 4d 3d 3e c7 59 42 be dc 05 74 3d
       0.07231828 0.18486433 -0.1897956 0.0595759
000370 c2 2c 6a be 57 db f6 3d 5d 21 1f be 74 3f 9d 3d
       -0.22868636 0.120535545 -0.15540071 0.07678118
000380 fe 3a 97 bc 50 07 15 be f3 4c dd 3d 5f 0d c3 3d
       -0.018460747 -0.14553571 0.108056925 0.09524035
000390 cd 34 08 3e 00 25 4c be f4 85 6d 3a b5 5a d7 bd
       0.13301392 -0.1993599 0.0009060793 -0.10515348
0003a0 4e 47 87 3d 07 d2 16 be cc 7e 89 bd 8d 4c e9 3d
       0.06605397 -0.14728557 -0.06713638 0.11391554
0003b0 33 cf 92 3e 6f a2 f3 bc 7e ef 78 bc c0 b3 06 be
       0.28673705 -0.02974054 -0.015193818 -0.13154507
0003c0 69 27 76 3d 0d fd b0 3e 41 82 54 bc 65 53 8c bc
       0.06009618 0.34568062 -0.012970508 -0.01712961
0003d0 c1 78 40 bc e6 27 a7 3b 1d 6b 06 3e 83 32 9f 39
       -0.01174754 0.005101192 0.13126798 0.00030364477
0003e0 8e 89 08 be 4e ad 23 3d f2 88 ad 3b b6 d8 32 bd
       -0.13333723 0.039960198 0.005295866 -0.043663703
0003f0 19 b1 a5 bd 72 2a 0b bd ac 47 76 3c 90 0a 93 3e
       -0.08090419 -0.033976026 0.015031736 0.28718996

manager.M_space.bias f4 [64]
000000 e2 2a 23 3c 2d 57 ea 3b 6a a7 8a 3c ce 2e ac 3b
       0.0099589545 0.0071515054 0.016925532 0.005254603
000010 23 e2 1f bc 4d 17 98 3c 48 dc d4 3b 37 2a 93 3c
       -0.009758505 0.018565798 0.006495986 0.017964466
000020 39 18 67 3c 19 4b 90 bb 84 d2 27 3b 25 1c 81 3d
       0.014104896 -0.0044034836 0.0025607655 0.06304196
000030 e0 bf 12 3d 4a 1a a8 3b 2e dc 80 3b ca 55 f5 3b
       0.035827518 0.005130087 0.0039324975 0.0074870335
000040 17 24 5b bc 8f 92 7d 3d 9b 92 29 3c 5d de 6f ba
       -0.013375304 0.061907347 0.010349895 -0.0009150261
000050 2d 4a 44 3b 96 0e 98 3c 90 6a d9 3b f0 1e 94 3c
       0.0029951439 0.018561643 0.0066350177 0.018081158
000060 98 cf 88 3b fc d0 cd 3c 88 76 35 3c 94 56 6e b9
       0.0041751377 0.025124066 0.011075623 -0.00022729702
000070 a1 b4 be 3b 11 32 11 3d 9d 02 06 bc 37 ee bc 3b
       0.0058198725 0.035448138 -0.008179334 0.005765702
000080 bf 23 bd 3c db 71 6f 3c 25 11 9b bb 17 ad e6 bb
       0.023088334 0.014614548 -0.0047322684 -0.007039677
000090 47 e3 a7 bb 68 7c 11 3b b5 ee 51 3a 8d 27 60 3b
       -0.005123529 0.0022199396 0.00080082874 0.0034203262
0000a0 a4 dc 24 bc 2e 01 ac 3a 7b 47 95 bb 23 ac ca 3b
       -0.01006237 0.001312291 -0.0045556403 0.006185071
0000b0 14 26 58 ba 31 2c a5 3b 17 fd 2e bc 27 0c b7 3d
       -0.000824542 0.0050406684 -0.0106804585 0.08937865
0000c0 67 b2 f6 3a 9a b4 68 3b 9f e8 8c ba 10 2d b8 3c
       0.0018821479 0.0035508038 -0.0010750479 0.022482425
0000d0 34 4c 84 3c 5a 43 a5 ba 0f 0e 5d 3a d9 4e 34 3b
       0.016149618 -0.0012608573 0.0008432576 0.0027512817
0000e0 c2 6d 7b 3a 75 94 c8 3b 4f b4 d6 3c 13 e2 58 bb
       0.00095912453 0.006121213 0.026209025 -0.0033093735
0000f0 e9 fd 63 bb 5e 70 af 3b 33 c5 f5 bb 52 98 a9 bc
       -0.0034788793 0.0053539714 -0.0075003146 -0.020702515

manager.M_goals.weight f4 [64, 128]
000000 ed a4 63 bd f3 30 ca bb 28 90 12 be 76 0c f9 ba
       -0.055577207 -0.006170386 -0.14312804 -0.0019000906
000010 21 a2 be bd ef 64 5b bd 33 f9 17 3e 1f a0 0d bc
       -0.093082674 -0.053563055 0.14841156 -0.008644133
000020 fc d3 e1 3d fd 88 9d ba f3 1d 7d bd 12 9c 2b 3b
       0.11026761 -0.0012018975 -0.06179614 0.0026185554
000030 ca 58 f1 3d c3 55 71 ba 71 a1 c5 3d 7f 06 f5 bb
       0.11784513 -0.00092062 0.09649933 -0.007477581
000040 0b f2 82 3c 63 b5 7b be d4 b5 fc 3d 28 2b e4 bd
       0.015984556 -0.24580912 0.123393685 -0.11141044
000050 14 e7 97 bd 64 a8 ca bc d7 f6 a0 3d 30 59 8e 3d
       -0.074171215 -0.024738498 0.07859581 0.06950605
000060 44 00 08 3e 4f bb 6c bd 4c e5 04 3b 92 5f 5c 3d
       0.13281351 -0.05779582 0.0020278273 0.05380208
000070 38 c9 13 3e a3 5a 61 3e e3 a2 25 3d 7d 0f 2a be
       0.14432228 0.22007231 0.040438544 -0.16607471
000080 b8 ee 00 be 2e 97 8a 3d 6b f6 7e bd ab 97 dd bd
       -0.12591064 0.067671165 -0.06224672 -0.10819944
000090 1a aa 97 3d 19 9d be bc 6d f9 17 bc 73 b2 0c be
       0.07405491 -0.02326827 -0.009275776 -0.13739948
0000a0 aa 6f 94 bd 43 20 d4 bc f1 b1 4f 3e 71 79 80 3d
       -0.07247861 -0.02589429 0.20282723 0.06273163
0000b0 de 0f 26 bd a2 6e 4f 3d f6 07 26 be 68 f6 f5 bd
       -0.040542476 0.050642617 -0.16213974 -0.12009889
0000c0 0c 76 f3 bd 24 ab be 3c fc 9a 9e 3c 92 a2 75 bd
       -0.1188775 0.023274966 0.019361012 -0.059969492
0000d0 07 fa 8b bd fc 7a 46 bd e2 de ac bd 85 0e 38 bd
       -0.06834798 -0.04845713 -0.08440949 -0.044935722
0000e0 62 20 41 3e 9f 75 15 b9 49 00 6b bc 50 25 50 3c
       0.1886001 -0.00014253565 -0.01434333 0.0127042085
0000f0 ad aa e2 bd cc c8 b6 3c c2 7c 88 bd c2 d2 c5 3c
       -0.1106771 0.022312544 -0.06664421 0.024148349
000100 b0 d8 8c bd 2d 11 db bd 81 f7 ec bd 9b e7 aa 3d
       -0.06877267 -0.106966354 -0.11570645 0.083449565
000110 3f 4f 2e 3e d9 46 21 3e e7 cd 46 3e 13 b9 07 3d
       0.17022417 0.15749682 0.19414483 0.033135485
000120 13 12 dd 3d 70 52 c2 bb 1d 88 e9 3b 37 f6 39 be
       0.10794463 -0.0059302375 0.0071268217 -0.1816033
000130 39 05 be 3c d3 e4 ba 3d 7c 75 97 3d 5f a6 ff bc
       0.02319585 0.09125676 0.07395455 -0.031207262
000140 9c 34 b5 3c 1a 4c 20 be 2f 4c ac 3d d4 cd 82 3d
       0.022119813 -0.1565403 0.08412968 0.06386915
000150 aa d7 17 bc a2 03 b0 3d 6b 88 6f bd a0 62 18 bd
       -0.009267727 0.08594443 -0.058479708 -0.03720343
000160 23 27 b9 bc 8c 70 26 bd 26 55 d1 3d e1 f0 38 bb
       -0.02260167 -0.040634677 0.10221319 -0.0028219747
000170 e4 79 83 3d 3e d5 01 3e e0 01 c8 bd 9f 13 7c 3c
       0.06419733 0.12679002 -0.09765983 0.015385537
000180 60 74 f1 3a 0f 41 fc bb a2 98 ce bd 33 33 2f 3e
       0.0018421523 -0.0076981853 -0.10087706 0.17109375
000190 8d 85 21 3d 64 ab c2 3c a7 4a 3d bd b4 f9 00 bd
       0.039434005 0.023763366 -0.046213772 -0.031488135
0001a0 66 ee ba bd d8 ef 47 3d 70 7e 64 bd 47 89 a7 bd
       -0.09127502 0.048812717 -0.055784643 -0.081804805
0001b0 f5 fc 8a bd 40 a8 0f 3c d4 c2 3e 3d da f8 57 be
       -0.06786529 0.008768141 0.04657252 -0.21091023
0001c0 88 8b f3 3b d3 df 80 bd e5 f1 b1 3d d3 8b a1 3c
       0.007432405 -0.06292691 0.08688716 0.019719994
0001d0 75 a0 64 be 0f 59 5f 3d 75 ac ce 3d 07 d6 59 bd
       -0.22326834 0.054528292 0.10091487 -0.053182628
0001e0 31 95 9d bd 75 b4 81 bd 3a 54 ce 3d 4d 6d 0d bc
       -0.07694472 -0.063332476 0.10074659 -0.008632016
0001f0 25 d1 48 3d f0 7a 28 3e d6 d3 30 bd 1e 9b c1 bd
       0.04902758 0.16453147 -0.043170772 -0.094534144
000200 dd 8e f8 bc 5b 93 05 be b5 75 99 3c b3 e8 8d bd
       -0.03034156 -0.13044493 0.018732885 -0.069291495
000210 5e eb de 3c 78 73 bb bd 1f fe 08 3e a1 46 5c be
       0.027211841 -0.09152883 0.1337819 -0.21511318
000220 b4 51 88 3d 0a fa 9a bc 04 7f 0c be 20 12 26 3d
       0.06656209 -0.018918056 -0.13720328 0.04054463
000230 24 6a 16 3d 9f f2 44 b9 d6 34 bb bc c8 6e ba 3c
       0.036722317 -0.000187824 -0.022852343 0.022757903
000240 88 b3 f0 bc c0 c4 ca bd ac c4 83 3c 40 ba aa 3d
       -0.029382482 -0.09900808 0.016084991 0.083363056
000250 25 11 68 bb c1 cc 85 3d c3 c6 c4 bc d0 a4 cd bc
       -0.003541061 0.06533194 -0.024020558 -0.025103003
000260 df 33 6b bd 01 77 2a 3d e6 0a cb 3c a7 94 73 bd
       -0.057422515 0.041617397 0.02478547 -0.059467938
000270 69 08 d0 3d 60 e3 9f bd 1e 05 fc bc be 5d ea 3d
       0.10157854 -0.0780704 -0.030764159 0.11443661
000280 04 c0 2d bc 0a 9b 72 3d a1 f2 20 3d 9b 27 05 be
       -0.010604862 0.059229888 0.03929389 -0.1300339
000290 6a 56 34 bd 80 a7 86 bd 8c e2 64 bd 43 2a de 3d
       -0.044027723 -0.06574917 -0.055880114 0.108479045
0002a0 7c 8b a1 3d 38 e5 d8 3c ed e5 e6 3d e4 2e 5a 3d
       0.07887933 0.026476488 0.112743236 0.053267375
0002b0 a0 e0 f6 3d ca 5a d2 3c ad 1a 83 3d 4d d6 e5 bd
       0.120545626 0.025678057 0.064015724 -0.11222515
0002c0 f4 50 8e 3d 13 09 6e 3d 60 f7 61 bc 44 85 78 3d
       0.06949034 0.058114123 -0.013791889 0.060673967
0002d0 00 09 58 3d ca 6d a5 bd 74 f8 b9 3d 23 7a c1 3b
       0.052742958 -0.08077581 0.09080592 0.0059044524
0002e0 bf 02 07 be 4a 52 a0 3c 46 49 14 bd 96 fc 0e bd
       -0.13184641 0.019570488 -0.03620269 -0.034908853
0002f0 6a ba a8 3a d8 64 07 3e 93 55 52 bd b5 06 9d bd
       0.0012872939 0.13222063 -0.05135114 -0.07667295
000300 65 ae 11 3e 12 fe dc 3c ff 1b cf 3d e6 97 94 bc
       0.14226682 0.026976619 0.10112762 -0.018138837
000310 4f 07 ee bd f1 75 66 3d 50 5d 0e 3e 72 3f ee 3d
       -0.11622488 0.05626482 0.13902783 0.11633195
000320 c1 be d7 ba 5d a6 35 bd 4a 62 98 3d c6 ed 76 be
       -0.0016460047 -0.04434811 0.07440622 -0.24114141
000330 af 23 2e bd bc 7f f7 3d a7 bc 9d bc 02 9a c2 bd
       -0.0425145 0.1208491 -0.019254996 -0.09502031
000340 33 60 e0 bd 32 31 80 3d b0 7e 39 3d 7c 99 20 be
       -0.109558485 0.06259383 0.045286834 -0.1568355
000350 c8 fc 97 3d c3 13 18 3e a0 c1 1c 3d 6f da b1 3d
       0.07421261 0.14851288 0.038270593 0.08684241
000360 03 2d 29 3e 48 6d b6 bd d3 b9 a8 3c e8 91 ee 3d
       0.16521077 -0.089075625 0.02059642 0.11648923
000370 f7 b7 06 3c 91 93 fa 3d e4 3d 7f bd 2e 5c bc bd
       0.008222572 0.12235177 -0.062314883 -0.091972694
000380 56 9e c9 3d c3 4f a7 3d 89 a4 f5 3d c8 54 9c 3c
       0.09844653 0.0816951 0.11994273 0.019083396
000390 b2 45 43 3d a8 83 f4 3d 46 af 78 bd b1 92 4e 3c
       0.04767389 0.11939174 -0.06071403 0.012608216
0003a0 4a f8 99 3d 59 8e e2 3d dd 5c 8d bd 52 af 25 bd
       0.075180605 0.11062307 -0.06902478 -0.0404504
0003b0 81 6f 82 3e 5a c2 7e bd 40 05 95 bd aa 89 3e be
       0.25475696 -0.062197067 -0.07276392 -0.18607202
0003c0 9a 4f 04 3e 87 17 09 be d6 07 c7 3c be 1b ee bd
       0.1292099 -0.13387881 0.024295729 -0.11626385
0003d0 cc ee b2 bb 31 7d 9b 3c 59 cf 34 bd 04 05 48 3e
       -0.0054605957 0.018980594 -0.044143055 0.19533163
0003e0 24 cf 33 3e f6 f7 13 be 99 a3 9e bd 99 dd 8e bd
       0.17559487 -0.14450058 -0.077460475 -0.0697586
0003f0 19 70 f2 3d 64 34 36 bd 8b b9 0f 3d c1 a3 20 be
       0.11837787 -0.044483557 0.035089057 -0.15687467

manager.M_goals.bias f4 [64]
000000 b0 62 d1 3b a4 70 79 3c 3d da c0 39 e7 fe d3 3a
       0.0063899383 0.0152246095 0.00036783694 0.0016173989
000010 a6 85 55 3c 03 b9 5c 3c 1a 4d a4 3b 5f cf 01 bc
       0.013032353 0.013471845 0.005014074 -0.007922976
000020 4c 84 be bb b4 eb c5 bb 66 a2 19 bc 7c c4 12 bb
       -0.005814111 -0.006040061 -0.009377098 -0.0022394946
000030 60 2b 16 3b ea 78 62 3b 05 24 19 3c 42 eb 97 3c
       0.0022914037 0.0034556934 0.009346967 0.018544797
000040 a9 e5 74 3c 4a 08 f7 3b 11 a3 4a bc ce 53 0d ba
       0.014947333 0.00753883 -0.01236798 -0.0005391211
000050 6d 2a 19 bc 03 3a c6 3b e4 3b e2 38 27 14 08 3c
       -0.009348494 0.006049396 0.00010787675 0.008305586
000060 f7 9d 8d 3c db 33 3b 3c 1b e6 a3 3c 7f 81 4b bc
       0.017287238 0.0114259375 0.020007184 -0.012421011
000070 ad 88 1c 3c c5 99 53 bc b8 50 49 bc 3f cd 1a bb
       0.00955407 -0.0129150795 -0.012287311 -0.0023620871
000080 b1 0a c9 3b 92 2c 3b 3c 02 49 a8 3c 40 56 8c 3d
       0.0061353077 0.011424201 0.020542625 0.068523884
000090 4c f0 14 3c e2 a3 7b 3b 39 36 11 38 4a f2 c8 3c
       0.009090494 0.0038397242 3.4621193e-05 0.024529595
0000a0 8c 11 45 3b bc 3c f8 3b 2b c2 6e bb a2 37 80 3b
       0.0030070273 0.0075755995 -0.003643165 0.003912882
0000b0 9c da b4 bb 1b f6 87 3b 17 38 a9 bb 35 ce 8f 3c
       -0.0055192243 0.004149211 -0.005164157 0.017554382
0000c0 89 a6 71 bb bc 5f 05 bb f2 b4 cf bb 14 70 29 bc
       -0.0036872944 -0.0020351252 -0.006338709 -0.010341663
0000d0 12 d7 98 bb 08 64 0e 3d 80 1d 02 bc be 4a 91 3c
       -0.0046643103 0.034763366 -0.007941604 0.017735835
0000e0 63 35 0e 3c bd 9d 16 bb d1 84 7b 3b f4 41 b3 ba
       0.008679721 -0.0022982203 0.0038378725 -0.0013676272
0000f0 9a af 10 bc 2a 65 1f bb d8 3a 99 ba 65 0a 41 bc
       -0.008830929 -0.0024321773 -0.001169051 -0.011782263

manager.M_value.weight f4 [1, 64]
000000 e1 da db bc 07 fe a7 bd 2c 19 8b bd 89 66 0f bd
       -0.026837768 -0.08202749 -0.067919105 -0.035009895
000010 b7 2c 6e 3d 94 0b a7 be 8f 11 7d bd c6 4d 84 3c
       0.058148112 -0.3262602 -0.061784323 0.016150367
000020 fc e3 98 3d cc 1b 47 3e b7 a3 c8 3d f9 d9 d2 bc
       0.074653596 0.19444197 0.09796851 -0.025738703
000030 45 d1 1b bd 19 cf aa be f2 f6 2e be fd 13 98 3c
       -0.03804137 -0.33361128 -0.1708639 0.018564219
000040 9d b3 9d bd ff bf 09 be 34 63 4c 3d d7 fa 24 be
       -0.07700274 -0.13452147 0.049899295 -0.16111313
000050 6d 94 1c bc 91 77 8a bd 6d 2e 12 3d b4 80 51 be
       -0.009556872 -0.06761087 0.035688806 -0.20459253
000060 bd f0 a4 be 05 70 90 3c c1 af ed bd 2c 1d 82 3d
       -0.3221492 0.01763154 -0.11605788 0.0635322
000070 0c a8 43 3e 2a 8d 09 3e 0f 74 2b bd a4 b0 ca bc
       0.19107074 0.13432756 -0.04185873 -0.024742432
000080 ee ce e7 bd c9 27 f2 bc 54 46 3c bd 09 98 29 be
       -0.113187656 -0.029559987 -0.045965508 -0.16561903
000090 3a 5a 8a be 45 89 03 3e 60 c1 20 3e 6e df 5a bc
       -0.27021962 0.12845333 0.15698767 -0.013358934
0000a0 9c 01 db bd 09 0d ba be f9 cf 06 3e cc 08 5d bd
       -0.10693666 -0.3633807 0.13165273 -0.053963467
0000b0 98 b8 73 3e d8 0f 5f bd 4e a4 16 be a8 fa a6 bd
       0.23800886 -0.05445847 -0.14711115 -0.08153278
0000c0 c5 9d e1 3d 62 b7 b3 3e 9d ca 5e 3e d7 77 5d 3e
       0.1101642 0.35100847 0.21756978 0.21627747
0000d0 d5 d1 c8 bb 8c 39 f1 3d 0d da 76 3d 6d 7f 6a bd
       -0.0061285296 0.11778554 0.060266543 -0.05725043
0000e0 3f a0 98 3d 90 08 15 3c 36 24 30 bd 35 8b 87 bd
       0.074524395 0.00909628 -0.043003283 -0.066183485
0000f0 56 f5 ed 3d fe 09 d1 ba c3 2b fd 3d 43 cd b2 bc
       0.1161906 -0.0015948412 0.123618625 -0.021826392

worker.f_stateW.0.weight f4 [128, 64]
000000 99 34 2f bc a8 b8 2b 3e ee 68 af 3d 62 ff 6a bd
       -0.010693693 0.1676966 0.085649356 -0.05737246
000010 26 0a 63 3e c2 94 e7 3d 7f 4f 8c 3d f5 03 84 bc
       0.2217184 0.1130767 0.068511 -0.016115168
000020 43 fd 63 bd df 88 2c be 2a e5 c4 3d 0a a0 1e 3d
       -0.05566145 -0.16849087 0.09614022 0.038726844
000030 55 fe 5d 3d a9 d4 37 bd 6c 8c 3e 3d 02 7e a2 bd
       0.054197628 -0.044880543 0.046520635 -0.0793419
000040 f2 6f cc ba 77 c2 cf 3d e1 83 72 bd c4 4a 98 3c
       -0.0015597327 0.10144513 -0.0592078 0.018590339
000050 f2 75 27 bd e0 08 d1 3c e7 fd 3a bd 2d fb 9f bc
       -0.040883966 0.025516927 -0.045652296 -0.01952895
000060 24 07 ae 3d 27 17 42 3e 12 aa 80 3c 1d ea 99 bc
       0.08497456 0.18954144 0.015706096 -0.018788392
000070 5b 29 ff bd 89 07 a8 3d 90 e0 15 3e dd 45 67 3d
       -0.1245906 0.08204562 0.14636445 0.05646311
000080 76 8d e8 3d 6a 3c 35 bd e0 07 46 3c 46 67 08 3e
       0.113551065 -0.04424707 0.0120868385 0.13320646
000090 ec eb 30 3d 48 93 2a 3c bb 6d a3 3d f7 f5 21 3d
       0.043193743 0.010411091 0.07979914 0.03954121
0000a0 1a ae 65 bd 2e ea 1b bb 89 f1 9a 3b 07 5c 03 3e
       -0.05607424 -0.0023790705 0.0047285003 0.12828074
0000b0 e6 fc 19 3c 99 a3 7a 3d 74 24 07 bd 02 b1 ab 3d
       0.009398675 0.061191175 -0.03299375 0.08383371
0000c0 70 cf ca 39 21 08 62 be dd 60 13 be 9f cd d8 3c
       0.00038682995 -0.22073413 -0.14392419 0.026465235
0000d0 45 ca 0b 3d 04 69 a6 3c be 03 d4 bd a3 a6 1c 3d
       0.034128446 0.020313747 -0.10352276 0.038244855
0000e0 5a 32 8e bc 1d 72 e4 b9 fd c2 ec 3d 5b a1 82 bd
       -0.017357994 -0.0004357257 0.115606286 -0.06378432
0000f0 15 42 9d bd b6 ee 05 3e eb e9 8e bd 76 63 04 3e
       -0.0767862 0.13079342 -0.0697821 0.12928566
000100 5b 05 e8 3d e0 77 03 3d 26 41 f0 bd 72 5f 05 3c
       0.113291465 0.032096744 -0.11731176 0.008140432
000110 11 40 37 bd fc 2d d5 bd 43 66 68 bd 42 de c4 bd
       -0.044738833 -0.104091614 -0.05673815 -0.09612705
000120 94 7f 76 3d df c4 e2 bc a2 85 84 3d 2d 1a 8a 3d
       0.06018026 -0.027681766 0.06470801 0.06743274
000130 e5 86 10 bd b1 ba dd 3d d4 e4 f0 3d 26 5d d8 bd
       -0.035284895 0.10826624 0.117623955 -0.10564642
000140 64 9a 0f 3d 67 6e b2 3d df e1 ec 3d c8 8a a6 bd
       0.035059348 0.08712464 0.11566519 -0.08131939
000150 71 7e ae bb a1 bd 0e 3e 04 9d 2b 3b 00 85 b2 3d
       -0.0053251316 0.13939525 0.0026186118 0.08716774
000160 5d c5 a8 3d a3 7e d9 3d c3 57 44 3d ff cf 73 3d
       0.08240769 0.10619857 0.04793526 0.059524532
000170 ef 2f e9 bc cc 6c bc 3b 06 d5 88 bd 1d 44 fc 3d
       -0.02846524 0.0057502743 -0.06681256 0.12317679
000180 af 90 c7 3c d2 e3 42 bd d8 6b f5 bc ab 16 a2 3c
       0.024360983 -0.047580548 -0.02995865 0.0197862
000190 4e 7f d2 bd 08 5e 13 3d 37 ef 14 3d a9 04 54 3d
       -0.10278188 0.035978347 0.036360946 0.051762257
0001a0 a4 ef 9b bd a1 83 50 3c 63 59 08 be e0 9b 3d bd
       -0.07614067 0.012726695 -0.13315348 -0.046291232
0001b0 9b bc c1 3d dd 97 1a 3e 74 ea 7c 3d 87 50 e3 3c
       0.09459802 0.15096994 0.06174703 0.02774836
0001c0 c8 53 76 be d1 5a 42 bd c4 a6 df bd b0 f4 7b 3a
       -0.24055398 -0.04744989 -0.1092048 0.00096113514
0001d0 a3 c5 0d 3e 47 f7 27 bd 16 2c 8d bd 32 e1 e2 bc
       0.13844924 -0.041007306 -0.06893174 -0.027695272
0001e0 12 6a 1c be e2 38 1a bc 47 73 7f 3d 28 89 d3 3c
       -0.15274838 -0.009412976 0.062365796 0.025822237
0001f0 33 65 c9 bc a7 6e 40 bd 3e 67 02 3d a0 ac cb 3d
       -0.024584388 -0.046980526 0.03183674 0.09945035
000200 76 f4 00 be 46 02 ee bc 6b 57 2d 3d 3f 9f e8 bd
       -0.12593254 -0.029053818 0.042319696 -0.11358499
000210 9e a4 dd 3d ed 33 d4 3d 48 8e de bc d3 56 51 3d
       0.10822414 0.103614666 -0.027167454 0.051108193
000220 4f 10 a7 bc 85 77 31 3e 38 80 e8 bd 83 81 3c 3e
       -0.020393519 0.1733075 -0.11352581 0.1840878
000230 f9 91 71 3d 7a 28 83 3d ae 02 91 bc 55 54 0f be
       0.0589771 0.06404205 -0.017701473 -0.13997014
000240 d4 46 a1 3d ba 84 33 be ab 56 f6 3d a2 0d 4a 3d
       0.078748375 -0.175311 0.12028249 0.049329408
000250 0b 36 aa 3d 07 f2 ac 3d 85 a8 05 be 74 94 73 3e
       0.08311089 0.084446006 -0.13052566 0.23787099
000260 f1 d1 f5 bc 47 58 5d 3d 20 de 23 be e9 7a 99 3d
       -0.030007334 0.054039266 -0.16002703 0.074941464
000270 b4 91 65 bd 03 9f 03 3d a6 50 67 3d 8d 4b 25 bc
       -0.056047156 0.032134067 0.056473397 -0.0100888135
000280 85 e4 36 bd 40 c5 ad 3d e4 10 c1 bb f2 91 f7 3d
       -0.044651527 0.08484888 -0.005891906 0.12088384
000290 26 ab 3d bd 71 da 35 3e 0d b7 a5 3c e4 f3 a7 bd
       -0.046305798 0.1775911 0.020228887 -0.08200815
0002a0 aa a2 3a 3d e2 b4 98 bc ec e4 83 3c d3 55 cb 3b
       0.045565285 -0.01864094 0.01610037 0.0062052994
0002b0 ab 5c 6a bd 4b 7e dd 3d b5 b1 27 be 83 7b c9 3d
       -0.05721728 0.10815104 -0.16376384 0.09838011
0002c0 f5 92 38 3e 89 9b 6d 3d fa 8c 81 3d b6 4a 9b 3d
       0.1802481 0.058009658 0.06325717 0.07582609
0002d0 9f da f2 3b 0b d7 16 bd 65 d7 e4 bd 98 58 07 be
       0.0074113156 -0.036826175 -0.11173896 -0.1321739
0002e0 1c 80 fa 3c 62 d0 c6 bc c7 6d 17 3d ce 0c 3d 3d
       0.030578665 -0.024269287 0.036969926 0.04615479
0002f0 69 6c 10 3e 50 fe d6 bd 73 ee df 3d fc 0b 1a 3e
       0.14103855 -0.10497725 0.109341525 0.15043634
000300 c8 bf 2b 3e ee 3c cc 3a e2 38 1c 3d 35 e9 56 bc
       0.16772377 0.0015582123 0.038140185 -0.013117124
000310 df 1e 97 3d c0 d3 ab 3d 25 09 45 3d 85 f7 44 3e
       0.07378935 0.083899975 0.048104424 0.19235046
000320 0d 3b 13 3e 93 3b b7 bd 98 22 df 3d fb c0 b3 3c
       0.14377995 -0.0894691 0.1089527 0.021942606
000330 e6 30 fb 3d dc d8 41 3d 36 df e6 3d d6 57 0a 3e
       0.12265186 0.047325954 0.11273043 0.13510069
000340 a7 02 27 3e b0 d8 a9 3c 99 f5 9e bd 3f 6a c1 3c
       0.16309606 0.020733207 -0.07761688 0.023610232
000350 c9 51 a5 3d e5 96 88 bc 80 4f 52 be a3 80 18 bc
       0.0807224 -0.016673515 -0.2053814 -0.009308013
000360 18 c8 03 3e d0 68 4d be a0 a9 44 3e ae 8d 09 3e
       0.12869298 -0.20059514 0.19205332 0.13432953
000370 8b 2b a0 bd 56 30 3b 3c 1f 36 9a 3d 38 a2 fd bd
       -0.07820805 0.011425098 0.07529854 -0.123844564
000380 b2 44 20 3e f9 0c 2a be e1 19 62 bd ec 8e c6 bb
       0.15651205 -0.16606511 -0.05520046 -0.006059518
000390 45 2d 3f 3e 2d 5a cb bb 9a 10 1c be 10 6a c7 3d
       0.18669613 -0.006205818 -0.15240708 0.09737027
0003a0 c5 28 13 3e c9 af f2 bc bc fc b6 3d 4b ed 74 3d
       0.14371021 -0.029624837 0.08934924 0.059796613
0003b0 72 8a 61 bd 16 10 22 3e 53 b4 75 3c 82 1b 94 3c
       -0.055063672 0.15826449 0.014996606 0.018079523
0003c0 36 f3 79 3d 51 ec a9 3d e5 09 21 bd be ed d6 bd
       0.06102296 0.08297027 -0.039316077 -0.104945645
0003d0 06 f8 80 bd 21 bf 69 bc 48 4a db 3d d4 b7 00 3c
       -0.06297307 -0.01426676 0.107075274 0.007856328
0003e0 db e2 b7 bd 28 fd 0d 3d 85 33 1d be bc c2 57 3e
       -0.08978816 0.034665257 -0.15351684 0.21070379
0003f0 a4 6c 06 3c 05 6e eb bd 06 40 cf 3c d2 ba dc bc
       0.008204613 -0.11495594 0.025299083 -0.026944552

worker.f_stateW.0.bias f4 [128]
000000 2f 9a ab 3c 39 df d2 b9 a8 04 88 3c d1 ea 88 3c
       0.020947544 -0.00040220635 0.016603783 0.016713532
000010 8f 81 6b 3c 79 e1 b7 3b a2 57 c4 3b 93 2d f0 3b
       0.014374151 0.005611595 0.005991892 0.0073296516
000020 2f 09 6b 3c 1f 81 c7 3b ca 40 90 3c bc f8 71 3c
       0.014345451 0.0060883905 0.017609019 0.014768776
000030 53 8f 52 3c 50 d2 c8 bb 75 3b 54 bb 64 59 9f 3c
       0.012851554 -0.006128587 -0.0032384072 0.019451804
000040 b6 8b 3d 3c 8c 28 91 3c 91 50 ae bc 0d 34 b0 bb
       0.011568954 0.01771953 -0.021278651 -0.0053772987
000050 16 a2 61 bb 03 a7 f5 ba 28 e8 72 bc aa f0 62 bb
       -0.0034428886 -0.001874179 -0.014825858 -0.003462831
000060 46 ad 8e 3c eb 40 a0 3c fb a3 21 3c 66 c7 50 bb
       0.017416608 0.019562205 0.009865756 -0.0031857132
000070 93 6b 36 3d 91 98 e9 ba d6 56 23 3d ed a1 1b 3c
       0.044536185 -0.0017821958 0.039877735 0.009499055
000080 70 f1 65 3c 82 70 58 3c 40 78 07 3d 9a a3 a4 3b
       0.014034614 0.013210418 0.033073664 0.0050243856
000090 2f 99 56 3b 8f 1a 58 3b 83 5b 7f 3c cb 6f 90 3c
       0.0032745113 0.0032974815 0.015585783 0.017631432
0000a0 b5 c3 39 3c 8d 2a 71 3c 41 32 04 3d 17 fa b3 3b
       0.011338164 0.014719618 0.03227449 0.0054924595
0000b0 93 90 ed 3c 10 93 24 3c ec a0 f7 3c de ab 50 bb
       0.028999602 0.010044828 0.0302281 -0.0031840722
0000c0 39 49 e1 3c 43 b9 74 3c db ea 26 bc 39 88 4b 3c
       0.027500736 0.014936748 -0.01018783 0.012422615
0000d0 21 f7 81 3b 80 af 05 3c e5 31 86 3c ef cd 03 3c
       0.0039662276 0.008159518 0.016381213 0.008044704
0000e0 23 7b bb 3b ee 1e f7 3b 19 9d e6 3c c2 1a 3f 3c
       0.005721466 0.007541529 0.028151082 0.011664094
0000f0 d7 03 20 3d 9b bf e3 3a 38 7d be 3c 7d f0 4e 3c
       0.039066162 0.0017375828 0.023253068 0.012630579
000100 57 a2 ea bb 26 c2 78 3b fa 1a a5 3b 25 db a0 3c
       -0.0071604657 0.0037957518 0.0050386162 0.019635746
000110 47 1c b4 3c 6f dd a9 ba c5 45 a7 3c 4a dc ea 3c
       0.02198614 -0.0012959669 0.02041901 0.028669495
000120 2f d2 8a 3b 8e 75 dd 3c c4 4f 9a bc 87 57 f5 3c
       0.0042364816 0.027033594 -0.018836863 0.029948963
000130 9d d8 ab 3a ba 4f b1 bc 4a 2a 93 3c e8 aa 27 bc
       0.001311082 -0.021644462 0.017964501 -0.010233618
000140 5e 17 82 3b 97 28 23 bb c2 b2 f0 3c da 4b f6 3c
       0.0039700707 -0.002489602 0.029382113 0.030065466
000150 1f 71 c1 3b d6 83 fa bb ce 13 8e 3c 0c 1e dd bb
       0.0059033777 -0.0076451106 0.017343428 -0.0067479666
000160 e4 c9 a4 bb ae 9e 20 bc b7 fa 16 3c f1 ac 7e 3c
       -0.00502895 -0.009803457 0.0092150485 0.015544162
000170 e7 bd 7c 3c 6f 21 bd 3b 05 3f 3d bb 78 61 55 3c
       0.015426136 0.005771808 -0.0028876674 0.013023727
000180 3b 78 c7 bc 4e 49 36 3c 71 3c 24 3c 98 c1 34 bc
       -0.024349323 0.011125876 0.010024176 -0.0110324845
000190 16 f6 cb 3c b9 93 06 3c 5f ff e8 b7 96 eb c2 3a
       0.024897616 0.008213931 -2.7775472e-05 0.0014871235
0001a0 58 1e 8d bb 46 28 ed 3b a8 20 c2 3c 79 e7 2c 3c
       -0.004306596 0.007237467 0.023697212 0.010553234
0001b0 91 d8 b5 3c bf 28 a1 3c e4 90 11 3c 41 4a f2 bb
       0.022197993 0.01967275 0.008884642 -0.0073941057
0001c0 af 0f 5d 3b 89 b8 a7 3c c8 04 9f 3c 6c 4a eb 3c
       0.0033731272 0.020473735 0.01941146 0.02872201
0001d0 50 4a 0e bc fb b8 1d 3c be 8d 81 3c 5f b7 6e bb
       -0.00868471 0.009626622 0.015814658 -0.0036425216
0001e0 34 96 6c 3c 7a f7 8a 3c 3c 5a 08 3c e6 93 44 3c
       0.014440108 0.01696371 0.008322295 0.011998152
0001f0 92 b1 4a 3b 48 ce 20 3c ff 54 06 3a 84 d5 47 ba
       0.0030928594 0.009814806 0.000512436 -0.0007623064
