vwgym/saved_model/vwgym_f_net_step_900000.pt (torch_old, 356482 bytes, 51 tensors)

f_percept.percept.0.weight f4 [16, 3, 3, 3]
0.21361265 -0.070318155 -0.30663237 0.040684756 0.07828883 0.19136706 -0.10562995 -0.2945841
0.22569546 0.33640137 -0.09293693 0.15742372 0.11947762 0.08990073 0.15167338 0.13443859
0.13714181 -0.23640472 -0.030988123 0.034619603 0.23596339 0.12548806 -0.2059627 -0.30324727
0.39702368 0.057629887 -0.12233051 -0.03219762 0.4334698 0.12873837 0.0663798 0.18920565
0.21531215 -0.08637714 0.16985673 -0.10150005 0.021614967 0.18192776 0.120760925 -0.19192526
-0.010244577 0.007227613 0.277116 0.46733278 0.31445548 -0.06268244 0.17741878 0.2204884
0.0093166 0.028883113 0.15557803 0.20466778 -0.003628121 0.073073514 0.22104883 -0.2725658
-0.07143697 -0.26691598 0.058693077 0.14757983 0.015191441 0.04600731 -0.2548728 -0.32923156
-0.18937217 0.17979628 0.12783132 -0.07191156 -0.17391229 0.2040527 -0.016032547 -0.1337969
0.16283265 0.039911456 0.30196664 0.07544179 -0.22866863 0.2925992 -0.0070866733 -0.33804038
0.20290546 0.39242017 0.038098853 0.1178581 -0.121202394 -0.22316858 0.00020294882 -0.21123326
0.13275033 -0.15946685 -0.06727449 0.073535584 0.015783567 -0.10955489 -0.08181292 0.13013005
-0.2013997 -0.029391523 -0.110160396 -0.36771122 0.25409502 -0.23488024 0.56799513 0.0029534975
0.022947451 0.07469792 0.016853143 -0.03836629 -0.2361039 -0.18927683 0.059700478 0.08331596
-0.0071056737 -0.32207122 0.07021312 0.093079135 0.035578497 -0.16678207 -0.029711004 0.24890663
0.07455362 0.4689016 0.15250883 0.041170083 0.013391214 0.12221204 -0.3629079 -0.3021297
0.2861501 0.26353034 0.062249724 0.09852028 0.096734054 -0.049760755 -0.094077624 -0.38165373
0.18947704 -0.11673561 -0.108008444 0.040755745 -0.09387252 -0.25620323 -0.13431266 -0.23234025
-0.20169185 -0.33367515 0.060594156 -0.026169864 0.11974603 -0.036527194 -0.22365528 0.071180545
-0.017268633 -0.07022847 0.0926644 -0.24427766 -0.07631766 -0.071865454 -0.22442977 0.31519666
-0.09306015 0.42068005 -0.1953406 -0.11872087 0.07407274 -0.3181442 0.17852363 -0.1504159
0.18677822 0.4366881 0.10481997 0.24614334 -0.20618474 0.010546066 0.30293018 -0.08614085
0.07440271 0.22084554 0.09684242 -0.19483916 -0.21310951 0.38283366 -0.029683648 -0.121316314
0.10171842 0.014727368 0.0015562642 0.19553918 0.017422907 0.14975925 0.00811591 0.05866852
0.20719649 0.07947217 -0.086919375 -0.36506137 -0.0027728763 0.08911545 0.06420069 -0.15699957
0.10707533 0.08930114 -0.41059178 -0.08390055 0.32899222 -0.1025427 -0.028126836 -0.33337316
-0.38288137 -0.16876882 -0.16680379 0.24619436 0.07647759 0.05974743 -0.1973602 0.06457951
0.17936094 0.06959174 -0.026261844 0.03599046 -0.03417245 0.19112067 0.06605668 0.15998714
-0.036533218 -0.25537416 0.37251288 0.14527917 0.38647056 0.13098702 0.16027595 -0.022611652
-0.053033084 0.05395496 -0.2623334 -0.080392264 -0.21341799 -0.39057326 -0.3929458 -0.16342254
-0.0077169025 0.056859557 0.08726629 -0.008075713 -0.08105944 -0.025548175 -0.33342403 0.027858283
-0.0846615 -0.16901201 -0.23934558 0.2830297 -0.012642023 -0.032652546 -0.07803957 0.33040297
00000000: 46bd 5a3e f702 90bd ebfe 9cbe 0fa5 263d
00000010: e555 a03d baf5 433e 8454 d8bd bad3 96be
00000020: b61c 673e cd3c ac3e b855 bebd af33 213e
00000030: afb0 f43d e01d b83d 4450 1b3e 45aa 093e
00000040: e76e 0c3e 1414 72be ceda fdbc 49cd 0d3d
00000050: 63a0 713e f17f 003e e3e7 52be 3a43 9bbe
00000060: b046 cb3e 510d 6c3d 6b88 fabd a7e1 03bd
00000070: c1ef dd3e fed3 033e 22f2 873d 20bf 413e
00000080: ca7a 5c3e 7fe6 b0bd ecee 2d3e 42df cfbd
00000090: df11 b13c 454b 3a3e 8151 f73d 0e88 44be
000000a0: dfd8 27bc 9dd5 ec3b 26e2 8d3e 3e46 ef3e
000000b0: 4f00 a13e a75f 80bd 45ad 353e b6c7 613e
000000c0: a7a4 183c 479c ec3c d94f 1f3e 6e94 513e
000000d0: c5c5 6dbb 91a7 953d a05a 623e bf8d 8bbe
000000e0: 8c4d 92bd 36a9 88be 2768 703d 2b1f 173e
000000f0: 86e5 783c 2972 3c3d b07e 82be 0a91 a8be
00000100: c7ea 41be 841c 383e 37e6 023e 5e46 93bd
00000110: 1016 32be 31f3 503e b056 83bc 0e02 09be
00000120: 9abd 263e 327a 233d 5f9b 9a3e 3a81 9a3d
00000130: 1c28 6abe 90cf 953e 5337 e8bb a113 adbe
00000140: 73c6 4f3e 4ceb c83e 8b0d 1c3d 965f f13d
00000150: f638 f8bd 4e86 64be a9ce 5439 884d 58be
00000160: b4ef 073e 474b 23be 35c7 89bd d399 963d
00000170: 8a4c 813c 505e e0bd 888d a7bd d040 053e
00000180: b93b 4ebe 7ec6 f0bc c69b e1bd a544 bcbe
00000190: be18 823e 7284 70be 2168 113f 778f 413b
000001a0: 4bfc bb3c 39fb 983d 9a0f 8a3c f925 1dbd
000001b0: 39c5 71be c9d1 41be 7d88 743d 8fa1 aa3d
000001c0: b6d6 e8bb 85e6 a4be e5cb 8f3d 46a0 be3d
000001d0: c2ba 113d ebc8 2abe 7e64 f3bc 61e1 7e3e
000001e0: 91af 983d df13 f03e 462b 1c3e f6a1 283d
000001f0: d366 5b3c 4e4a fa3d 10cf b9be beb0 9abe
00000200: 4482 923e 73ed 863e 91f9 7e3d 00c5 c93d
00000210: 811c c63d efd1 4bbd c5ab c0bd 1e68 c3be
00000220: 4506 423e 1413 efbd 8833 ddbd 7fef 263d
00000230: 3c40 c0bd 122d 83be 4289 09be 9aea 6dbe
00000240: 4f88 4ebe 78d7 aabe 9431 783d 2f62 d6bc
00000250: 683d f53d 8a9d 15bd e405 65be 1bc7 913d
00000260: f376 8dbc f2d3 8fbd d5c6 bd3d ec23 7abe
00000270: 6f4c 9cbd 322e 93bd ebd0 65be 7561 a13e
00000280: 5296 bebd 6063 d73e 5e07 48be ed23 f3bd
00000290: 73b3 973d cce3 a2be e6ce 363e a006 1abe
000002a0: ca42 3f3e 9595 df3e daab d63d 000d 7c3e
000002b0: 1822 53be 68c9 2c3c aa19 9b3e 9d6a b0bd
000002c0: 7360 983d 5525 623e 5255 c63d eb83 47be
000002d0: 6139 5abe c602 c43e 1f2b f3bc b074 f8bd
000002e0: bf51 d03d 0f4b 713c 90fb cb3a 6c3b 483e
000002f0: 7cba 8e3c 7d5a 193e 98f8 043c 674e 703d
00000300: 512b 543e 4ec2 a23d c902 b2bd 53e9 babe
00000310: 25b9 35bb 2982 b63d a77b 833d 7fc4 20be
00000320: 504a db3d 84e3 b63d 1639 d2be 0dd4 abbd
00000330: ab71 a83e e801 d2bd 406a e6bc e3af aabe
00000340: 0709 c4be bcd1 2cbe 9dce 2abe 601a 7c3e
00000350: 48a0 9c3d b9b9 743d cb18 4abe 4342 843d
00000360: 65aa 373e 1d86 8e3d 1423 d7bc bc6a 133d
00000370: 69f8 0bbd 23b5 433e ba48 873d abd3 233e
00000380: dba3 15bd 67c0 82be 02ba be3e 10c4 143e
00000390: 78df c53e 7621 063e 611f 243e 123c b9bc
000003a0: 3839 59bd e0ff 5c3d 9050 86be b3a4 a4bd
000003b0: 3f8a 5abe 38f9 c7be 3130 c9be 3d58 27be
000003c0: 12de fcbb 91e5 683d abb8 b23d ff4f 04bc
000003d0: 7e02 a6bd 684a d1bc 8eb6 aabe 0e37 e43c
000003e0: 0263 adbd 7c11 2dbe 0217 75be 45e9 903e
000003f0: 7d20 4fbc adbe 05bd 36d3 9fbd 942a a93e

f_percept.percept.0.bias f4 [16]
-0.0018019766 0.00952896 0.0032197908 0.011761283 -0.01862231 -0.0011704455 -0.015843952 -0.005615656
0.008806636 0.0070535624 -0.013019184 0.011419492 0.011508338 -0.016389852 0.011527756 -0.0073232464
00000000: 4d30 ecba 5b1f 1c3c 2003 533b 65b2 403c
00000010: d18d 98bc a269 99ba 2dcb 81bc 8903 b8bb
00000020: b549 103c 9221 e73b 6a4e 55bc d218 3b3c
00000030: 788d 3c3c 0344 86bc eade 3c3c d8f7 efbb

f_percept.percept.3.weight f4 [64, 16]
0.05185628 0.14228623 -0.10316092 -0.2960405 -0.13837637 -0.028602347 -0.108373724 0.13696378
-0.020729901 0.34499025 0.040047262 0.008985546 0.12898225 0.4726065 -0.12558082 -0.10862703
-0.1753733 -0.0785915 0.16915445 0.1238422 0.03717449 -0.069466956 -0.15335779 0.06136066
-0.1305787 0.032990113 0.086719334 0.058377277 -0.26283774 0.23195533 0.17397948 -0.05618998
0.17897344 0.005542381 -0.05367207 -0.05414288 0.04798498 -0.2000426 -0.012902497 -0.18387105
-0.024903016 0.01871229 0.23474318 0.10119573 -0.022220861 -0.0077018933 0.040461794 -0.038986597
-0.06595954 0.03711709 -0.0682754 -0.22796796 0.2330657 0.16598915 0.09818473 0.19312932
-0.07535529 0.11152642 0.19503091 -0.024149187 -0.19617853 0.07002446 -0.09080284 -0.1326528
-0.169059 0.040033493 0.026651323 -0.24531719 -0.12677945 0.00041878165 -0.008283439 0.102132075
-0.07537555 0.14690007 -0.08532079 0.05894563 0.05356491 -0.3063884 -0.088520415 0.041410957
-0.2490103 0.0070298733 0.14267968 0.037913814 0.08958772 -0.00043432496 -0.13690513 -0.056872148
0.07800881 -0.15671676 -0.02036536 0.36954525 0.06736831 -0.06724198 0.20823918 0.0094678225
0.019761069 -0.057362497 0.24915506 0.033397518 -0.20341736 0.092843756 -0.28147936 0.049076743
-0.19171527 0.18963012 0.12072554 -0.21357743 0.21718465 -0.038787343 0.045912165 0.10331733
-0.16409951 -0.09219336 -0.0066394163 -0.24023667 -0.11219591 0.0610246 0.24746604 -0.026585182
-0.16860896 -0.18344654 -0.057006374 -0.16370815 0.018065337 0.12713748 -0.062926956 -0.059515372
-0.15930621 0.030514877 0.15828443 0.10812615 0.020882139 -0.0607092 0.22418247 -0.030278504
-0.30888587 0.09718497 -0.016369218 0.012530227 0.26694575 0.03305785 0.16198231 -0.031776626
0.016449442 0.062975645 -0.1671123 -0.054098826 0.21951224 0.1076411 -0.1215736 0.055716887
-0.21800062 -0.012892022 -0.17000856 0.27394253 -0.030037014 0.04063791 -0.0050944206 0.028813591
-0.10318944 -0.052694365 -0.25542432 -0.07359691 -0.08690594 0.036681868 0.028840095 0.2588866
-0.094484515 9.84889e-05 -0.07559561 0.07048801 -0.13217668 -0.067704625 0.15958637 -0.24963722
0.057036962 -0.09623319 -0.03439649 0.11053461 -0.26278394 -0.026770871 0.11736024 -0.02644516
-0.037899725 -0.16613738 -0.122859836 -0.122124605 -0.25969857 -0.037493616 -0.09951859 -0.12890191
0.1362374 -0.14684872 0.34189248 -0.016747678 -0.032374505 -0.13332547 -0.035043903 0.04254887
0.08080938 0.12427736 -0.21610911 0.09805739 -0.11296661 -0.1441722 0.02544903 -0.08463761
0.25975347 0.02310531 -0.072685644 0.016291544 0.08382001 -0.030061584 0.16076286 0.10161331
-0.28739735 0.0134846475 0.0546797 0.2434083 0.024117272 0.13070562 0.07489859 0.08796325
0.13171431 0.080357246 0.3257706 -0.38389996 -0.057861116 -0.10560008 0.03711433 -0.18665351
0.024957037 0.0058680917 -0.15980625 0.08941871 0.06007038 -0.08247046 0.1517702 -0.07954242
0.09494217 -0.15405135 0.055208374 -0.035142995 0.22311853 0.016304914 -0.22286172 -0.13981748
0.13977061 0.07911617 0.018741496 0.20532948 -0.14777458 -0.021895248 0.02885543 -0.03492809
00000000: 4067 543d 7bb3 113e 0846 d3bd 9f92 97be
00000010: 89b2 0dbe 784f eabc 0bf3 ddbd 3c40 0c3e
00000020: c1d1 a9bc 90a2 b03e 9908 243d 1d38 133c
00000030: ec13 043e 7bf9 f13e 4298 00be d977 debd
00000040: 0f95 33be 95f4 a0bd d336 2d3e fba0 fd3d
00000050: 4744 183d b144 8ebd d309 1dbe 5155 7b3d
00000060: 6cb6 05be a420 073d e899 b13d 031d 6f3d
00000070: ab92 86be b385 6d3e ad27 323e 7727 66bd
00000080: d044 373e dd9c b53b 3fd7 5bbd edc4 5dbd
00000090: e68b 443d f8d7 4cbe ff64 53bc b148 3cbe
000000a0: 6901 ccbc 844a 993c 8460 703e b53f cf3d
000000b0: 8608 b6bc 2a60 fcbb 44bb 253d 69b0 1fbd
000000c0: cc15 87bd 1708 183d f9d3 8bbd 6f70 69be
000000d0: c6a8 6e3e 0ff9 293e 1315 c93d b1c3 453e
000000e0: e053 9abd f767 e43d 2fb6 473e 84d4 c5bc
000000f0: 06e3 48be fc68 8f3d d7f6 b9bd 23d6 07be
00000100: cd1d 2dbe 29fa 233d e053 da3c 6e34 7bbe
00000110: 79d2 01be ec8f db39 43b7 07bc 9f2a d13d
00000120: 7f5e 9abd f96c 163e abbc aebd f970 713d
00000130: e166 5b3d f1de 9cbe 314a b5bd 899e 293d
00000140: 8efc 7ebe da5a e63b 9f1a 123e 844b 1b3d
00000150: c479 b73d 1cb6 e3b9 dc30 0cbe c5f2 68bd
00000160: 15c3 9f3d 5c7a 20be 41d5 a6bc 0935 bd3e
00000170: 66f8 893d 2ab6 89bd a73c 553e ed1e 1b3c
00000180: f7e1 a13c f0f4 6abd 8122 7f3e d6cb 083d
00000190: a44c 50be de24 be3d 101e 90be b204 493d
000001a0: 0251 44be 662e 423e f43e f73d 0bb4 5abe
000001b0: a765 5e3e 7adf 1ebd 650e 3c3d 0998 d33d
000001c0: b409 28be dfcf bcbd 768f d9bb 9a00 76be
000001d0: f8c6 e5bd eef4 793d bd67 7d3e 2bc9 d9bc
000001e0: d4a7 2cbe 69d9 3bbe 847f 69bd 1ca3 27be
000001f0: c2fd 933c 5430 023e d9df 80bd 64c6 73bd
00000200: 2b21 23be 56fa f93c 5015 223e 3e71 dd3d
00000210: 0511 ab3c 36aa 78bd 1790 653e a00a f8bc
00000220: 4a26 9ebe ea08 c73d bd18 86bc 954b 4d3c
00000230: 1dad 883e ab67 073d b1de 253e 3528 02bd
00000240: fbc0 863c 60f9 803d 7d1f 2bbe bb96 5dbd
00000250: d1c7 603e f072 dc3d 94fb f8bd 6437 643d
00000260: 8e3b 5fbe 0f39 53bc b916 2ebe 3242 8c3e
00000270: 2f10 f6bc f073 263d 19ef a6bb 7b0a ec3c
00000280: fc54 d3bd 0cd6 57bd fac6 82be fab9 96bd
00000290: befb b1bd ba3f 163d 1042 ec3c c98c 843e
000002a0: 1981 c1bd d38b ce38 dfd1 9abd 055c 903d
000002b0: 5359 07be b9a8 8abd 9c6a 233e e6a0 7fbe
000002c0: 979f 693d e815 c5bd 55e3 0cbd f85f e23d
000002d0: 9e8b 86be 964e dbbc 915a f03d 85a3 d8bc
000002e0: be3c 1bbd eb1f 2abe f09d fbbd 771c fabd
000002f0: 36f7 84be e892 19bd 67d0 cbbd ddfe 03be
00000300: d181 0b3e 835f 16be 880c af3e 6d32 89bc
00000310: 219b 04bd 7986 08be 328a 0fbd b947 2e3d
00000320: 637f a53d 2185 fe3d b54b 5dbe 50d2 c83d
00000330: 0a5b e7bd e1a1 13be 7c7a d03c 7c56 adbd
00000340: 68fe 843e 5947 bd3c 36dc 94bd d875 853c
00000350: d3a9 ab3d b643 f6bc 059f 243e a41a d03d
00000360: bf25 93be b6ee 5c3c d2f7 5f3d 0740 793e
00000370: 9691 c53c b2d7 053e 6f64 993d 1426 b43d
00000380: 1ee0 063e 5792 a43d 67cb a63e 898e c4be
00000390: c7ff 6cbd db44 d8bd 3205 183d 1922 3fbe
000003a0: b372 cc3c 1f49 c03b 40a4 23be 2821 b73d
000003b0: 5c0c 763d 46e6 a8bd a669 1b3e 23e7 a2bd
000003c0: 0a71 c23d a3bf 1dbe 2d22 623d 1af2 0fbd
000003d0: 2f79 643e e291 853c dd35 64be 502c 0fbe
000003e0: 0720 0f3e a907 a23d c487 993c e441 523e
000003f0: 3852 17be aa5d b3bc 3962 ec3c c210 0fbd

f_percept.percept.3.bias f4 [64]
0.021374293 0.007286922 0.014945005 0.029773982 0.016638128 0.043132275 0.028638884 0.0006085501
0.034799248 -0.0018002745 0.01173477 0.035476822 0.017548623 0.0077522635 0.010993232 -0.0017075677
0.009609851 0.03344141 0.011601021 0.009892242 0.0154418675 0.00907914 0.014576957 0.0038129492
0.02540032 0.024895018 0.030072326 0.014202037 0.021218155 -0.007995163 0.01340048 0.032469165
0.020595334 0.018311085 -0.0023822158 -0.00031886806 0.026190948 0.005208923 0.041193288 0.0020827039
0.006042445 0.024406822 -0.006231066 -0.0010596415 -0.012572917 0.03431049 0.027251802 0.017680293
0.022459734 0.002840102 0.027013723 0.032740917 0.04829013 0.011143288 0.0004763195 0.013752917
0.011931434 0.024002116 0.0028946295 0.01804145 0.021622114 -0.008502785 0.053127322 0.01834849
00000000: 2419 af3c 22c7 ee3b e5db 743c 91e8 f33c
00000010: af4c 883c 78ab 303d 189c ea3c 1b87 1f3a
00000020: a889 0e3d 30f7 ebba 3143 403c 2550 113d
00000030: 21c2 8f3c b306 fe3b f51c 343c 77d0 dfba
00000040: a372 1d3c dcf9 083d 3512 3e3c 1213 223c
00000050: e3ff 7c3c acc0 143c 30d4 6e3c ace2 793b
00000060: 5514 d03c a3f0 cb3c 3d5a f63c a9af 683c
00000070: b2d1 ad3c 25fe 02bc b08d 5b3c 63fe 043d
00000080: 8cb7 a83c 2101 963c f31e 1cbb bf2d a7b9
00000090: 668e d63c 9daf aa3b 4bba 283d f97d 083b
000000a0: b4ff c53b d1f0 c73c f82d ccbb abe3 8aba
000000b0: a3fe 4dbc 2889 0c3d 2c3f df3c 43d6 903c
000000c0: 7afd b73c 0121 3a3b e24b dd3c 571b 063d
000000d0: dfcb 453d 5692 363c 85ba f939 ea53 613c
000000e0: 107c 433c 16a0 c43c d3b3 3d3b aacb 933c
000000f0: dc20 b13c 444f 0bbc 099c 593d 934f 963c

manager.M_space.weight f4 [64, 64]
0.042806 -0.036241636 -0.075049445 -0.020196943 0.18867987 0.2821873 0.09111646 -0.07919378
0.030493127 0.11533173 0.10761619 -0.011281439 -0.00070207 0.043809697 0.12734869 0.078652754
-0.01213262 0.028947214 0.005636355 0.13290757 0.20281944 -0.084402375 0.08228386 -0.034822013
-0.008721145 -0.22520158 -0.086036086 -0.08663022 -0.02554282 -0.033878773 -0.055124547 -0.056834497
-0.19839713 -0.30099967 -0.012217218 -0.1490998 -0.09511967 -0.023079613 -0.37543252 0.1129312
-0.02694926 -0.18535154 0.06092887 -0.11383707 0.04625665 -0.060975228 0.12259543 -0.31042346
-0.19648683 -0.08071987 0.06540173 -0.073779166 0.11971184 0.10918618 -0.09050728 0.11961986
-0.018155972 0.12014357 -0.026922416 -0.06452192 0.02027032 -0.14492755 0.12073461 -0.1805606
0.12322863 0.16532695 0.13134575 -0.11323968 -0.13386375 0.0026431808 0.06624532 0.24093224
0.13993944 0.00090954674 -0.08382101 0.11366639 -0.050885703 0.0124561535 0.041375432 0.04268134
0.052365813 -0.0289255 0.12247513 0.0950503 -0.05567681 0.09547463 -0.049633507 0.11480887
-0.13684261 0.029481022 -0.055219516 0.060789958 -0.06375929 0.07206152 -0.11304355 0.05560255
-0.114118956 0.049736757 -0.10895208 -0.1643697 -0.07071191 -0.16902879 0.20408507 0.16545193
0.09448749 0.017752465 0.13055041 0.16297725 0.15602782 0.13826057 -0.06749451 0.11910851
-0.23781581 -0.06474963 -0.17652412 0.06605152 0.22699326 0.15794025 0.08940608 0.32923183
-0.1702877 0.24120459 -0.12424797 -0.10706291 -0.060588907 0.028340582 0.13365471 0.13369004
-0.03151353 -0.0957102 0.07158791 0.07267332 -0.11973769 -0.05611669 -0.14160052 -0.06363053
0.040801346 0.016233576 -0.14374763 -0.17064953 -0.094956584 -0.1392359 -0.14943312 -0.004468471
-0.16064425 -0.19455531 -0.035952978 0.12645307 0.18460013 -0.056661885 0.025072346 0.12698308
0.017747998 0.21782386 -0.14742813 0.009657162 -0.015580209 0.0012226228 0.122658245 -0.14713642
0.14324194 -0.031745892 0.13051799 -0.0023273178 -0.04344496 0.16767323 0.029513713 -0.017852494
0.017077582 -0.16182847 0.27791932 0.3036633 -0.16296887 0.053631917 -0.17084318 -0.020011645
0.08348763 -0.007265936 0.06292245 -0.40787318 -0.02911465 -0.019537942 0.060088024 0.14864853
0.18291983 0.1413616 -0.044770796 -0.25118592 0.016000964 -0.1949502 0.11314149 -0.12540966
-0.0870342 0.010714654 0.084505364 -0.060297865 0.047787968 -0.17911543 0.20187387 -0.12830119
-0.14359409 0.06273193 0.21306506 -0.28124845 -0.0775352 0.10732169 0.031050168 -0.027794603
-0.15489504 0.09709971 0.052814975 -0.031679608 -0.006801503 -0.060663067 -0.03537937 0.04348819
0.07006012 0.1849188 -0.21519968 0.059395652 -0.2287094 0.12055994 -0.15554427 0.077005394
-0.01843602 -0.14477886 0.121730864 0.08403764 0.11853685 -0.2005033 0.0009020652 -0.105172254
0.054391697 -0.14121674 -0.06063612 0.11322283 0.28294113 -0.042255145 -0.015364283 -0.13224378
0.06021558 0.3457919 -0.01895861 -0.017172037 -0.009348909 0.0050849114 0.13489752 -0.022874266
-0.1329584 -0.017875753 -0.0052412967 -0.04380541 -0.081051014 -0.03416619 0.009293602 0.2873942
00000000: 5855 2f3d 1c72 14bd 86b3 99bd 0f74 a5bc
00000010: 4c35 413e db7a 903e 449b ba3d 5930 a2bd
00000020: b9cc f93c 0b33 ec3d e165 dc3d c9d5 38bc
00000030: 1f0b 38ba cc71 333d b267 023e b214 a13d
00000040: e6c7 46bc b522 ed3c 2cb1 b83b ec18 083e
00000050: e6af 4f3e 27db acbd 7184 a83d 87a1 0ebd
00000060: 22e3 0ebc 3e9b 66be b033 b0bd 2f6b b1bd
00000070: 2d3f d1bc 78c4 0abd 47ca 61bd 4acb 68bd
00000080: 9e28 4bbe a11c 9abe ba2a 48bc 9ead 18be
00000090: 1ace c2bd 7511 bdbc b138 c0be 7948 e73d
000000a0: b2c4 dcbc cbcc 3dbe 8d90 793d 6923 e9bd
000000b0: 9d77 3d3d 29c1 79bd 5013 fb3d d3ef 9ebe
000000c0: d833 49be 7650 a5bd 58f1 853d 8819 97bd
000000d0: 7b2b f53d 019d df3d e15b b9bd 42fb f43d
000000e0: d5bb 94bc d50d f63d 668c dcbc 1224 84bd
000000f0: f10d a63c e367 14be b543 f73d e1e4 38be
00000100: 4b5f fc3d 784b 293e 807f 063e 35ea e7bd
00000110: 9413 09be 3739 2d3b a0ab 873d f1b6 763e
00000120: 494c 0f3e a66e 6e3a 5aaa abbd edc9 e83d
00000130: 876d 50bd e514 4c3c 4979 293d a1d2 2e3d
00000140: 897d 563d 2cf5 ecbc 3ed4 fa3d bba9 c23d
00000150: 5e0d 64bd 3488 c33d 814c 4bbd ea20 eb3d
00000160: 7820 0cbe 2f82 f13c dc2d 62bd e4fe 783d
00000170: 3b94 82bd fd94 933d 6083 e7bd 80bf 633d
00000180: 33b7 e9bd c5b8 4b3d 4522 dfbd 8850 28be
00000190: 68d1 90bd e215 2dbe adfb 503e 3b6c 293e
000001a0: a882 c13d 9e6d 913c 02af 053e 82e3 263e
000001b0: c2c5 1f3e 2e94 0d3e 903a 8abd 2aef f33d
000001c0: fd85 73be 749b 84bd bdc2 34be 0546 873d
000001d0: ec70 683e 17bb 213e 891a b73d 1391 a83e
000001e0: e65f 2ebe 56fe 763e b875 febd cd43 dbbd
000001f0: 132c 78bd 822a e83c c8dc 083e 0be6 083e
00000200: 5514 01bd b603 c4bd af9c 923d c0d5 943d
00000210: 0939 f5bd 9dda 65bd baff 10be b950 82bd
00000220: 501f 273d 47fc 843c 9432 13be c0be 2ebe
00000230: 9978 c2bd db93 0ebe ff04 19be 406c 92bb
00000240: ed7f 24be 8239 47be 6e43 13bd ea7c 013e
00000250: d107 3d3e 4b16 68bd 8564 cd3c da07 023e
00000260: 4064 913c 380d 5f3e 66f7 16be 1339 1e3c
00000270: 2244 7fbc 6a40 a03a 3f34 fb3d eeaa 16be
00000280: 04ae 123e fb07 02bd 82a6 053e ea85 18bb
00000290: 58f3 31bd 88b2 2b3e bec6 f13c 653f 92bc
000002a0: 49e6 8b3c 5db6 25be 714b 8e3e c279 9b3e
000002b0: 50e1 26be 24ad 5b3d 84f1 2ebe 76ef a3bc
000002c0: 90fb aa3d 1717 eebb 7cdd 803d c1d4 d0be
000002d0: d981 eebc 090e a0bc dc1e 763d 5237 183e
000002e0: 564f 3b3e 18c1 103e 9561 37bd 719b 80be
000002f0: 7414 833c 06a1 47be bab6 e73d 646b 00be
00000300: fd3e b2bd 848c 2f3c 2611 ad3d e5fa 76bd
00000310: 51bd 433d 096a 37be 06b8 4e3e 6361 03be
00000320: 540a 13be 9979 803d ba2d 5a3e ccff 8fbe
00000330: c6ca 9ebd 79cb db3d ec5c fe3c 82b1 e3bc
00000340: ce9c 1ebe 36dc c63d 8454 583d 7ac2 01bd
00000350: 24df debb d679 78bd f5e9 10bd ac20 323d
00000360: ae7b 8f3d 5b5b 3d3e 4e5d 5cbe db48 733d
00000370: cc32 6abe 21e8 f63d ff46 1fbe 01b5 9d3d
00000380: 2307 97bc e940 14be 084e f93d ed1b ac3d
00000390: 73c3 f23d bd50 4dbe 9278 6c3a 8d64 d7bd
000003a0: d4c9 5e3d 1f9b 10be 955d 78bd 5fe1 e73d
000003b0: a9dd 903e bb13 2dbd 79ba 7bbc ea6a 07be
000003c0: 9da4 763d a30b b13e 164f 9bbc 5fac 8cbc
000003d0: 2b2c 19bc 549f a63b 9322 0a3e d062 bbbc
000003e0: 3f26 08be 2c70 92bc 2fbf abbb 4d6d 33bd
000003f0: 13fe a5bd d9f1 0bbd 3144 183c 5525 933e

manager.M_space.bias f4 [64]
0.009384427 -0.0008914362 0.0128546115 0.00504744 -0.00986036 0.018324656 0.0067541325 0.017664028
0.013352993 -0.0039772345 0.0025901396 0.0016483124 -0.020872293 0.0051010516 0.003835931 0.009286927
-0.01355383 0.07162143 0.009516117 -0.0046283635 0.003049576 0.018587034 0.0063535795 0.016505573
0.004418262 0.024982158 0.010341328 -0.0021967886 0.006048679 0.035186257 -0.0086184945 0.004927815
0.022857616 0.014403847 -0.004926011 -0.0071286047 -0.005430788 0.0020312688 -0.0010353395 0.0006063427
-0.011006011 0.0008575851 -0.0029419838 0.006504802 -0.000846925 0.0046678255 -0.010337856 0.102301374
0.0039549284 0.0026256982 -0.0011303022 0.022250308 0.015929263 -0.0010754307 0.0014802011 0.0030065537
0.0009879811 0.006232664 0.026272565 -0.010820923 -0.0036115397 0.0019399455 -0.008421673 -0.021351723
00000000: 24c1 193c 45af 69ba 269c 523c ff64 a53b
00000010: 598d 21bc 971d 963c c551 dd3b 27b4 903c
00000020: 83c6 5a3c 7653 82bb 55bf 293b 300c d83a
00000030: 5ffc aabc b926 a73b 3e64 7b3b 3228 183c
00000040: e210 5ebc 42ae 923d 7de9 1b3c 87a9 97bb
00000050: 65db 473b d643 983c b031 d03b b236 873c
00000060: 11c7 903b 62a7 cc3c ac6e 293c fff7 0fbb
00000070: ff33 c63b 771f 103d 9634 0dbc 8279 a13b
00000080: e53f bb3c 1dfe 6b3c 606a a1bb 1297 e9bb
00000090: c0f4 b1bb 091f 053b 3bb4 87ba f8f2 1e3a
000000a0: 8e52 34bc 90cf 603a 4cce 40bb 3c26 d53b
000000b0: 2d04 5eba 8ff4 983b 1c60 29bc 6283 d13d
000000c0: 5898 813b e813 2c3b a626 94ba 4746 b63c
000000d0: 167e 823c 77f5 8cba 4f03 c23a 9a09 453b
000000e0: 257f 813a 603b cc3b 9039 d73c 3e4a 31bc
000000f0: 95af 6cbb c545 fe3a 0ffb 09bc cfe9 aebc

manager.M_goals.weight f4 [64, 128]
-0.055189174 -0.005597305 -0.13552095 -0.00070767646 -0.09292653 -0.053303067 0.14849065 -0.007758327
0.11030678 -0.0010189653 -0.061716307 0.0667443 0.13152222 -0.0008769571 0.096571475 -0.0074221715
0.0160583 -0.21237803 0.12355402 -0.109889925 -0.07404644 -0.024677834 0.07874336 0.070519894
0.13285485 -0.057768434 0.0022923166 0.053968508 0.14446205 0.22030084 0.04045267 -0.16549742
-0.12580787 0.06772501 -0.062114734 -0.108188614 0.074109025 -0.022812396 -0.0046133683 -0.13414332
-0.06524235 -0.025842695 0.2058201 0.062662244 -0.04053751 0.050672345 -0.16210365 -0.097677216
-0.11842363 0.023806546 0.019497694 -0.05946638 -0.06832007 -0.04840315 -0.084332384 -0.044844247
0.18865658 0.0001615615 -0.0142638255 0.011591125 -0.11063444 0.022498237 -0.066203274 0.024252962
-0.068181016 -0.10632053 -0.09798145 0.08444527 0.17038848 0.15786932 0.19421393 0.0339952
0.107990414 -0.0057116314 0.007228067 -0.13029772 0.011462517 0.09129801 0.074029885 -0.031164603
0.022149337 -0.12160928 0.084361576 0.065926105 -0.009103744 0.08599331 -0.058313664 -0.035928518
-0.022562595 -0.040598158 0.102474175 -0.0026439843 0.06429255 0.12688911 -0.097630076 0.015872683
0.0019852964 -0.0076457635 -0.1008092 0.17110409 0.03945191 0.024208814 -0.042370565 -0.030296553
-0.0876237 0.0488359 -0.06632213 -0.0819714 -0.06785632 0.008797639 0.04662884 -0.20029043
0.008255523 -0.06258043 0.08701929 0.020302972 -0.22325099 0.054556213 0.10100553 -0.05309454
-0.07688898 -0.06285156 0.100868836 -0.010044286 0.04910115 0.16478015 -0.042983685 -0.0944245
-0.029401822 -0.13066433 -0.026111117 -0.064566396 0.027645297 -0.09177344 0.13364936 -0.21840398
0.06660562 -0.01876724 -0.13718237 0.12552288 0.030624364 -9.656886e-05 -0.02253834 0.022665955
-0.030264864 -0.11042433 0.017040644 0.08789308 -0.0038805555 0.065122046 -0.02379986 -0.0190636
-0.057340108 0.041613705 0.025085818 -0.05939271 0.101796344 -0.07753328 -0.030706696 0.114594065
-0.010493934 0.059129983 0.039530646 -0.12996686 -0.044400036 -0.06672375 -0.05559707 0.11797823
0.0788915 0.02652715 0.11327032 0.05386265 0.12063799 0.025607066 0.06393531 -0.11867226
0.066968575 0.057977445 -0.013688411 0.061403118 0.05265843 -0.080594 0.091168456 0.0061136885
-0.13177963 0.01991139 -0.036025364 -0.044811435 0.0011836168 0.1332343 -0.051716425 -0.07690868
0.14342898 0.02672743 0.05205299 -0.011837876 -0.115920834 0.05592185 0.13886209 0.112418935
-0.0016040085 -0.04429301 0.07443181 -0.13869794 -0.03723151 0.12094099 -0.01877924 -0.09510296
-0.11058112 0.050926644 0.04642344 -0.14934936 0.07379892 0.14829403 0.038544472 0.09391578
0.16524835 -0.08908553 0.020650934 0.11647957 0.008161655 0.12285829 -0.062268358 -0.09170029
0.098551914 0.08161687 0.12021341 0.01918214 0.04716875 0.118272975 -0.05800272 0.022014944
0.081536405 0.1107119 -0.067214884 -0.040056624 0.2548652 -0.06229925 -0.0728808 -0.18477818
0.12720166 -0.13455178 0.02437153 -0.1158355 -0.0055295834 0.019486 -0.043756235 0.19550934
0.17567535 -0.14394432 -0.077259324 -0.07491808 0.11845063 -0.043495465 0.033967655 -0.15725979
00000000: 0b0e 62bd 9969 b7bb 01c6 0abe 5d83 39ba
00000010: 4450 bebd 5154 5abd ef0d 183e 9039 febb
00000020: 85e8 e13d cd8e 85ba 3dca 7cbd 3cb1 883d
00000030: c3ad 063e 98e3 65ba 44c7 c53d b035 f3bb
00000040: b28c 833c a079 59be e409 fd3d f80d e1bd
00000050: a9a5 97bd 2b29 cabc 3344 a13d bc6c 903d
00000060: 1a0b 083e 989e 6cbd b13a 163b 150e 5d3d
00000070: dced 133e 8b96 613e b3b1 253d 2878 29be
00000080: c7d3 00be 69b3 8a3d 056c 7ebd fe91 ddbd
00000090: 79c6 973d 10e1 babc bd2b 97bb de5c 09be
000000a0: c89d 85bd 0fb4 d3bc 81c2 523e 1055 803d
000000b0: a90a 26bd ce8d 4f3d 80fe 25be fe0a c8bd
000000c0: 1788 f2bd f205 c33c a1b9 9f3c 0593 73bd
000000d0: 65eb 8bbd 6242 46bd 75b6 acbd 9aae 37bd
000000e0: 312f 413e d668 2939 d2b2 69bc b4e8 3d3c
000000f0: 4f94 e2bd 394e b83c 9595 87bd 26ae c63c
00000100: 7da2 8bbd 94be d9bd 80aa c8bd a4f1 ac3d
00000110: 517a 2e3e 7fa8 213e 04e0 463e 8d3e 0b3d
00000120: 142a dd3d a328 bbbb 6cd9 ec3b c46c 05be
00000130: 48cd 3b3c 73fa ba3d fb9c 973d e94c ffbc
00000140: 8772 b53c 490e f9bd c3c5 ac3d 4404 873d
00000150: df27 15bc 431d b03d 4fda 6ebd c829 13bd
00000160: 31d5 b8bc 414a 26bd fbdd d13d b246 2dbb
00000170: d0ab 833d 38ef 013e 47f2 c7bd 6e07 823c
00000180: bf1b 023b 5089 fabb 0e75 cebd e935 2f3e
00000190: 5398 213d 9051 c63c c28c 2dbd 7a30 f8bc
000001a0: 0e74 b3bd 2708 483d e6d3 87bd 9fe0 a7bd
000001b0: 41f8 8abd f923 103c e2fd 3e3d ef18 4dbe
000001c0: 2c42 073c 2b2a 80bd 2b37 b23d 6b52 a63c
000001d0: e89b 64be 5676 5f3d fddb ce3d a979 59bd
000001e0: f877 9dbd 52b8 80bd 5294 ce3d ca90 24bc
000001f0: 4a1e 493d 21bc 283e a90f 30bd a261 c1bd
00000200: 17dc f0bc dfcc 05be fbe6 d5bc 633b 84bd
00000210: 6478 e23c b7f3 bbbd 61db 083e 4ba5 5fbe
00000220: 8768 883d c1bd 99bc 8979 0cbe 1289 003e
00000230: f2df fa3c 0385 cab8 53a2 b8bc f4ad b93c
00000240: 05ee f7bc 2726 e2bd d298 8b3c 4a01 b43d
00000250: eb50 7ebb b55e 853d edf7 c2bc 442b 9cbc
00000260: 76dd 6abd 2273 2a3d c680 cd3c c545 73bd
00000270: 9a7a d03d c5c9 9ebd 9c8c fbbc 4bb0 ea3d
00000280: c0ee 2bbc 4832 723d e3ea 213d 0816 05be
00000290: d0dc 35bd 76a6 88bd c1b9 63bd 929e f13d
000002a0: de91 a13d 774f d93c 45fa e73d 159f 5c3d
000002b0: 0d11 f73d e9c5 d13c 84f0 823d 710a f3bd
000002c0: d226 893d c279 6d3d 5b45 60bc d681 7b3d
000002d0: 5eb0 573d 780e a5bd 87b6 ba3d 5655 c83b
000002e0: 3df1 06be 361d a33c 558f 13bd 328c 37bd
000002f0: 9723 9b3a 936e 083e 9ad4 53bd 4c82 9dbd
00000300: 0cdf 123e 7cf3 da3c 8435 553d a7f3 41bc
00000310: e767 edbd 4f0e 653d dd31 0e3e e63b e63d
00000320: 983d d2ba 966c 35bd b46f 983d d506 0ebe
00000330: 1180 18bd e9af f73d ecd6 99bc 57c5 c2bd
00000340: 5b78 e2bd 7598 503d 8126 3e3d 0aef 18be
00000350: e323 973d 64da 173e cfe0 1d3d eb56 c03d
00000360: dd36 293e 7972 b6bd 262c a93c d78c ee3d
00000370: 76b8 053c 219d fb3d 1b0d 7fbd 5dcd bbbd
00000380: 96d5 c93d bf26 a73d 7332 f63d dd23 9d3c
00000390: 0534 413d 1a39 f23d 4394 6dbd af58 b43c
000003a0: 8ffc a63d ecbc e23d f5a7 89bd 6a12 24bd
000003b0: b17d 823e 802d 7fbd 8742 95bd 7e36 3dbe
000003c0: 2741 023e f1c7 09be cea6 c73c 2a3b edbd
000003d0: 8231 b5bb 1ba1 9f3c bd39 33bd 9a33 483e
000003e0: 3de4 333e 2466 13be 233a 9ebd a66e 99bd
000003f0: 3e96 f23d 4d28 32bd ab21 0b3d b608 21be

manager.M_goals.bias f4 [64]
0.006473697 0.015241317 0.00028382905 0.0015589838 0.013092083 0.013190932 0.0050954013 -0.007272898
-0.0056617823 -0.010023006 -0.009157353 -0.0021055732 -0.016400104 0.0035296388 0.009247428 0.018726492
0.015132481 0.0075225453 -0.012602649 -0.00058429665 -0.0117345005 -0.0095765665 0.00011717722 0.001990929
-0.00031983363 0.011772302 0.019867368 -0.011858645 0.009483927 -0.013230041 -0.011598244 -0.003195849
0.007133703 0.01126763 0.02046185 0.062498063 0.008270615 0.0039212545 0.00010659616 0.02376527
0.0018479325 0.00768453 -0.0038732553 0.0039020176 -0.0056668445 0.0045505837 -0.0053149536 0.017477892
-0.003870407 -0.0015588361 -0.007123321 -0.010447636 -0.0012017861 0.0041720793 -0.00595964 0.017768212
0.0020894883 -0.0032957324 0.0038080774 -0.00026297165 -0.00874858 -0.008773418 -0.0033853324 -0.011672946
00000000: 4e21 d43b b8b6 793c e4ce 9439 d156 cc3a
00000010: 2d80 563c c71e 583c 53f7 a63b 7e51 eebb
00000020: 7986 b9bb 8937 24bc b908 16bc a8fd 09bb
00000030: 8359 86bc 8351 673b 8682 173c 4d68 993c
00000040: 3aee 773c af7f f63b 577b 4ebc 7c2b 19ba
00000050: 1042 40bc 08e7 1cbc 0abd f538 3f7a 023b
00000060: 58af a7b9 9de0 403c e4c0 a23c c34a 42bc
00000070: 7962 1b3c d0c2 58bc 9006 3ebc 7371 51bb
00000080: d7c1 e93b de9b 383c 9c9f a73c f8fd 7f3d
00000090: 7981 073c de7d 803b 618c df38 62af c23c
000000a0: 5336 f23a 83ce fb3b 71d6 7dbb feb8 7f3b
000000b0: f0b0 b9bb 101d 953b 1029 aebb cc2d 8f3c
000000c0: a7a6 7dbb dc51 ccba bf6a e9bb 902c 2bbc
000000d0: 4085 9dba f0b5 883b 1549 c3bb a48e 913c
000000e0: ccef 083b 37fd 57bb f090 793b 75df 89b9
000000f0: 3456 0fbc 62be 0fbc 74dc 5dbb e23f 3fbc

manager.M_value.weight f4 [1, 64]
-0.026896764 -0.08203424 -0.06789267 -0.035024364 0.058056284 -0.32562798 -0.058724638 0.014733607
0.07500214 0.10981551 0.09819599 -0.025872957 -0.02274458 -0.33341327 -0.17068848 0.018623155
-0.07698834 -0.13451962 0.049743935 -0.16107623 -0.010874712 -0.05358024 0.035664845 -0.18216538
-0.23876345 0.017372943 -0.11579346 0.06401885 0.18976958 0.13344644 -0.042312164 -0.024749562
-0.08170216 -0.029437257 -0.045970663 -0.16072401 -0.26250508 0.12860316 0.15673186 -0.013374493
-0.09371384 -0.36337313 0.13122992 -0.05345418 0.2377993 -0.053976815 -0.14699079 -0.080892086
0.10835838 0.3450123 0.21532188 0.18788956 -0.006113504 0.07542936 0.07314975 -0.05709786
0.04794469 0.007892053 -0.043085586 -0.07073399 0.11631419 -0.0018253427 0.11573843 -0.021853557
00000000: 9a56 dcbc 9101 a8bd 500b 8bbd b575 0fbd
00000010: 6dcc 6d3d b6b8 a6be 3f89 70bd 3a65 713c
00000020: b99a 993d f4e6 e03d fb1a c93d 86f3 d3bc
00000030: d752 babc 25b5 aabe f6c8 2ebe 968f 983c
00000040: 10ac 9dbd 83bf 09be 4cc0 4b3d 2bf1 24be
00000050: d92b 32bc f476 5bbd 4d15 123d 9089 3abe
00000060: 687e 74be b451 8e3c 1f25 edbd 511c 833d
00000070: f552 423e 2fa6 083e 854f 2dbd 98bf cabc
00000080: 7653 a7bd 6726 f1bc bc4b 3cbd d694 24be
00000090: 1167 86be 8cb0 033e 517e 203e b120 5bbc
000000a0: 0bed bfbd 0b0c babe 2361 063e c5f2 5abd
000000b0: a981 733e cb16 5dbd c184 16be c0aa a5bd
000000c0: 00eb dd3d 74a5 b03e 577d 5c3e 1f66 403e
000000d0: ca53 c8bb b57a 9a3d 89cf 953d 72df 69bd
000000e0: a761 443d ab4d 013c 837a 30bd fbdc 90bd
000000f0: 2236 ee3d 5640 efba 4508 ed3d 3b06 b3bc

worker.f_stateW.0.weight f4 [128, 64]
0.0040204492 0.16610299 0.028738895 -0.054346766 0.22178277 0.11313058 0.068233736 -0.01658995
-0.048957694 -0.16829076 0.09665458 0.037637435 0.05405998 -0.035381284 0.046544313 -0.079764165
-0.0012823888 0.10148912 -0.059331235 0.015440266 -0.045811214 0.024836384 -0.045942 -0.04558905
0.082956485 0.18934335 0.0110000055 -0.018663106 -0.12456326 0.080590755 0.145576 0.05602837
0.11364007 -0.045416575 -0.001116779 0.13280231 0.025403494 0.010930848 0.07976845 0.039664216
-0.055362735 -0.003860522 -0.0126900105 0.12930639 0.008190783 0.05932326 -0.03280453 0.079609625
-1.8906427e-05 -0.22090791 -0.14496426 0.02651173 0.029786335 0.02023433 -0.105584286 0.037657578
-0.017721826 -0.0018503366 0.11572598 -0.06364366 -0.07683528 0.13086295 -0.0725236 0.12990132
0.10088842 0.031285346 -0.085004434 0.011723834 -0.04591507 -0.10340005 -0.057855178 -0.09426896
0.0610014 -0.023235597 0.063006096 0.068637356 -0.035620872 0.112194926 0.11860722 -0.09940308
0.034282397 0.08431474 0.11999867 -0.10889597 0.009129292 0.15478489 0.0034944324 0.11693849
0.09067096 0.10548183 0.06623171 0.0581817 -0.027820805 0.011730378 -0.059052043 0.1270435
0.028136274 -0.041159447 -0.020792585 0.024588399 -0.07983798 0.036018092 0.03906594 0.049925596
-0.074214324 0.016017033 -0.1390436 -0.047224257 0.098898344 0.15738298 0.06311574 0.03451815
-0.24023011 -0.046370625 -0.097443596 0.0019687302 0.13884278 -0.0404507 -0.070202164 -0.0005253551
-0.15338968 -0.0075377915 0.06783014 0.025878353 -0.020315541 -0.047705613 0.02884641 0.0949604
-0.11397824 -0.0385837 0.004916348 -0.11370946 0.10810073 0.10327768 -0.027913988 0.050243028
-0.021115165 0.17241265 -0.112653255 0.18066207 0.0582146 0.066616915 -0.017766368 -0.14157254
0.07905649 -0.17526476 0.11999422 0.038053893 0.07166769 0.082158074 -0.13152108 0.21904314
-0.033154525 0.053387158 -0.15353955 0.0748797 -0.055914454 0.02510696 0.054610312 -0.011314478
-0.044894826 0.0786469 -0.037353568 0.11919502 -0.04190198 0.17829743 0.019988414 -0.08181459
0.049232595 -0.023364412 -0.013020449 0.008651899 -0.06151559 0.09018303 -0.16353838 0.07146963
0.17876562 0.057531938 0.060020424 0.075674765 -0.015773447 -0.036936942 -0.1185638 -0.12586275
0.029400954 -0.032014478 0.036507852 0.046300165 0.14067273 -0.1052824 0.08155096 0.1495896
0.124516435 -0.030598588 0.06994393 -0.018140659 0.0724951 0.08375483 0.0469841 0.19385599
0.1341373 -0.092486605 0.104411826 0.021077063 0.12194327 0.046879966 0.11320894 0.13462262
0.16239698 0.014952807 -0.07593636 -0.015932852 0.0858888 -0.00249141 -0.20540397 0.02508673
0.1355932 -0.2010631 0.18324998 0.13259965 -0.07819489 0.0218778 0.07704221 -0.12234118
0.15698679 -0.16564284 -0.03916384 -0.0049631824 0.18787743 -0.008183704 -0.15204723 0.09613313
0.13399316 -0.028019352 0.046986047 -0.003902376 -0.053499516 0.15295376 0.014158294 0.01910441
0.05785355 0.08312132 -0.04149114 -0.10526152 -0.06661439 -0.014404684 0.100593634 0.02210758
-0.09017472 0.031050274 -0.15149257 0.20947076 0.008401452 -0.11591759 0.035096552 -0.045403548
00000000: f9bd 833b e716 2a3e d56d eb3c b79a 5ebd
00000010: 061b 633e 01b1 e73d 21be 8b3d a6e7 87bc
00000020: dd87 48bd 6a54 2cbe d6f2 c53d b629 1a3d
00000030: ff6d 5d3d f7eb 10bd 40a5 3e3d 655b a3bd
00000040: d415 a8ba 87d9 cf3d 4f05 73bd 2bf9 7c3c
00000050: 8aa4 3bbd ac75 cb3c ae2d 3cbd 95bb 3abd
00000060: 17e5 a93d 39e3 413e 5e39 343c 5fe3 98bc
00000070: 061b ffbd c40c a53d e011 153e 017e 653d
00000080: 20bc e83d bb06 3abd e360 92ba 54fd 073e
00000090: fd1a d03c 4d17 333c a45d a33d f276 223d
000000a0: 09c4 62bd d000 7dbb c3e9 4fbc e568 043e
000000b0: a232 063c f2fc 723d 0b5e 06bd 5f0a a33d
000000c0: 3e99 9eb7 af35 62be 8371 14be 212f d93c
000000d0: 7902 f43c 77c2 a53c 933c d8bd d53e 1a3d
000000e0: 5d2d 91bc fe86 f2ba be01 ed3d 9b57 82bd
000000f0: d15b 9dbd f000 063e 4187 94bd da04 053e
00000100: 979e ce3d 1025 003d ce16 aebd 5315 403c
00000110: 7111 3cbd 68c3 d3bd 8df9 6cbd 1610 c1bd
00000120: 9bdc 793d 9458 bebc 5709 813d be91 8c3d
00000130: 31e7 11bd 74c6 e53d 58e8 f23d d893 cbbd
00000140: b36b 0c3d 35ad ac3d ddc1 f53d da04 dfbd
00000150: 0793 153c ee7f 1e3e d902 653b 727d ef3d
00000160: b2b1 b93d dc06 d83d 7ea4 873d ef4f 6e3d
00000170: 75e8 e3bc c530 403c 8ee0 71bd b117 023e
00000180: 0b7e e63c cf96 28bd 3655 aabc 9c6d c93c
00000190: 1882 a3bd b587 133d 9b03 203d c87e 4c3d
000001a0: aefd 97bd 2736 833c 7261 0ebe 396e 41bd
000001b0: 378b ca3d 0129 213e d342 813d e762 0d3d
000001c0: e2fe 75be 20ef 3dbd 8290 c7bd d005 013b
000001d0: cd2c 0e3e a2af 25bd 27c6 8fbd fcb7 09ba
000001e0: 2f12 1dbe 94ff f6bb 87ea 8a3d d7fe d33c
000001f0: c76c a6bc f666 43bd 4e4f ec3c 997a c23d
00000200: 6c6d e9bd f109 1ebd 5119 a13b 81e0 e8bd
00000210: ea63 dd3d 4083 d33d e0ab e4bc a2cb 4d3d
00000220: b6f9 acbc f18c 303e c0b6 e6bd 7aff 383e
00000230: 6f72 6e3d 736e 883d c68a 91bc 64f8 10be
00000240: 5ee8 a13d 9b78 33be 88bf f53d 66de 1b3d
00000250: 83c6 923d 7e42 a83d 76ad 06be d84c 603e
00000260: 0acd 07bd 7eac 5a3d 7939 1dbe 875a 993d
00000270: 8e06 65bd 1dad cd3c 10af 5f3d 5c60 39bc
00000280: a3e3 37bd a011 a13d 0e00 19bd 851c f43d
00000290: 69a1 2bbd 9a93 363e bebe a33c 688e a7bd
000002a0: 1ea8 493d b966 bfbc b953 55bc b2c0 0d3c
000002b0: c5f7 7bbd e1b1 b83d 9b76 27be ab5e 923d
000002c0: 560e 373e 9ca6 6b3d fad7 753d 5ffb 9a3d
000002d0: 5137 81bc 314b 17bd 94d1 f2bd 2ae2 00be
000002e0: 45da f03c 9d21 03bd 4289 153d 3ea5 3d3d
000002f0: 830c 103e 4d9e d7bd 3104 a73d 042e 193e
00000300: 7902 ff3d e4a9 fabc c33e 8f3d b89b 94bc
00000310: 5078 943d a787 ab3d 6672 403d 2f82 463e
00000320: 4a5b 093e 9e69 bdbd ded5 d53d cea9 ac3c
00000330: 65bd f93d 3505 403d 17da e73d 83da 093e
00000340: 654b 263e 9efc 743c 8684 9bbd 9d85 82bc
00000350: 78e6 af3d ec46 23bb 6b55 52be b082 cd3c
00000360: f2d8 0a3e 7ce3 4dbe e2a5 3b3e 34c8 073e
00000370: a424 a0bd 1239 b33c 4ec8 9d3d 038e fabd
00000380: 25c1 203e 479e 29be 436a 20bd 31a2 a2bb
00000390: f162 403e f114 06bc 45b2 1bbe 72e1 c43d
000003a0: 8135 093e d788 e5bc 7174 403d 01bf 7fbb
000003b0: 4f22 5bbd e99f 1c3e 30f8 673c da80 9c3c
000003c0: d8f7 6c3d 833b aa3d 9df2 29bd 5a93 d7bd
000003d0: 206d 88bd a001 6cbc 0904 ce3d f51a b53c
000003e0: 86ad b8bd 255d fe3c de20 1bbe 817f 563e
000003f0: 3ea6 093c 3466 edbd 67c1 0f3d 12f9 39bd

worker.f_stateW.0.bias f4 [128]
0.020654425 0.0021389348 0.015457878 0.015822856 0.011595974 0.0054613603 0.005026205 0.007844367
0.012993509 0.0069309697 0.016612664 0.013757332 -0.0082665095 -0.0078091784 0.002231793 0.022693627
0.007168357 0.019422686 -0.00755224 -0.004757448 -0.0054269293 -0.002427726 -0.017775368 -0.0033822178
0.013748008 0.01831453 0.008737028 -0.005166308 0.033966556 -0.00028175465 0.02259457 -0.004474803
0.012934218 0.012610061 0.007517169 0.0067355735 0.0031678677 0.001975224 0.015402546 0.018324506
0.011712082 0.01423038 0.017740026 0.0059820986 0.022634402 0.020944282 0.026873916 -0.0018821053
0.01809846 0.010229491 -0.010662204 0.012675136 0.0032830576 0.0057286513 0.019472511 0.007939238
-0.0049369093 0.0059149372 0.026863258 0.011415184 0.037154578 0.0020718386 0.01640247 0.011455172
-0.00760657 0.004627969 0.0049632126 0.017518777 0.018538948 -0.0005379298 0.019503254 0.029900035
0.0041697775 0.02531287 -0.016323254 0.025812296 0.0016248387 -0.008115017 0.019110145 -0.009446902
0.0012071596 -0.0026864465 0.021970758 0.026834717 0.0025182804 -0.0050222133 0.017064765 -0.0071381344
-0.005408303 -0.010062987 0.02684695 0.009863936 0.01639924 0.0065564555 -0.0020621647 0.0122328
-0.031724792 0.022234043 0.009770464 -0.010951297 0.020403186 0.008326938 -0.00026440565 0.0011387226
-0.005031987 0.007624352 0.021782849 0.010560306 0.01625831 0.019430956 0.009195847 -0.007186848
0.013877366 0.018538551 0.01927807 0.027143136 -0.0092855105 0.0007440926 0.004680533 -0.0023299155
0.013590443 0.017921332 0.0075029987 0.010431252 0.008954793 0.01455463 0.0005219061 -0.004211423
00000000: 7833 a93c 5f2d 0c3b 0a43 7d3c ef9e 813c
00000010: 0afd 3d3c 36f5 b23b ddb2 a43b a985 003c
00000020: bae2 543c 301d e33b 4817 883c 6f66 613c
00000030: 4170 07bc 23e4 ffbb 4643 123b fce7 b93c
00000040: 89e4 ea3b 531c 9f3c c878 f7bb 5ee4 9bbb
00000050: 62d4 b1bb 7c1a 1fbb a69d 91bc 33a8 5dbb
00000060: 533f 613c 5a08 963c c025 0f3c 224a a9bb
00000070: 8420 0b3d 78b8 93b9 3f18 b93c 5ea1 92bb
00000080: 0bea 533c 6e9a 4e3c 9652 f63b 16b6 dc3b
00000090: 009c 4f3b c272 013b f65a 7c3c 461d 963c
000000a0: 08e4 3f3c 8a26 693c 8853 913c 7b05 c43b
000000b0: c86b b93c 5893 ab3c b026 dc3c f9b0 f6ba
000000c0: 3943 943c 9899 273c 86b0 2ebc 60ab 4f3c
000000d0: 9128 573b 69b7 bb3b d184 9f3c 9413 023c
000000e0: ccc5 a1bb 17d2 c13b 5610 dc3c c006 3b3c
000000f0: 662f 183d afc7 073b 795e 863c 79ae 3b3c
00000100: 8940 f9bb 38a6 973b 72a2 a23b 8a83 8f3c
00000110: fede 973c dc03 0dba 4ac5 9f3c ebf0 f43c
00000120: a1a2 883b f05c cf3c 58b8 85bc 4f74 d33c
00000130: 8af8 d43a d9f4 04bc e18c 9c3c 2ec7 1abc
00000140: 8e39 9e3a 180f 30bb 05fc b33c 7bd4 db3c
00000150: bc09 253b 6191 a4bb 68cb 8b3c 03e7 e9bb
00000160: 2238 b1bb 3adf 24bc 23ee db3c 599c 213c
00000170: b357 863c 89d7 d63b 6225 07bb 156c 483c
00000180: dbf1 01bd 2b24 b63c 4c14 203c 126d 33bc
00000190: 9524 a73c b66d 083c ed9f 8ab9 3141 953a
000001a0: 5ee3 a4bb b3d5 f93b f271 b23c 2205 2d3c
000001b0: 2630 853c ab2d 9f3c 2eaa 163c a77f ebbb
000001c0: e45d 633c 29de 973c 0bed 9d3c 485b de3c
000001d0: 4122 18bc 360f 433a 285f 993b 7fb1 18bb
000001e0: 73aa 5e3c c2cf 923c b7db f53b d8e7 2a3c
000001f0: 20b7 123c 8b76 6e3c 87d0 083a faff 89bb

worker.f_stateW.2.weight f4 [40, 128]
-0.017568879 -0.078104675 -0.041244395 0.06384229 -0.008099812 -0.032461602 0.043508235 0.124506995
-0.08823811 0.014658545 0.066720195 -0.084433645 -0.0046858448 0.107378416 0.054607037 -0.016281076
-0.042919155 -0.028761284 0.2454831 -0.030774537 0.080234736 0.05125071 -0.025371784 -0.119202726
-0.06824834 0.1608495 0.0018584388 0.19111203 -0.06998445 0.14827788 -0.077732585 -0.07127477
-0.056948695 -0.12592213 -0.043456722 -0.011754985 0.07278342 -0.04947325 -0.27801397 -0.05429842
-0.13895711 -0.040102225 -0.12033817 -0.1227721 -0.0051107486 0.088620685 0.10104863 0.1348802
-0.012949049 -0.050240215 -0.060329575 -0.047557805 0.14782155 0.03908178 0.020741176 -0.053400766
0.06082461 0.023718452 -0.06901799 -0.07517924 -0.02903673 -0.09587331 -0.08358307 0.114922576
0.07367629 0.15862831 -0.054133393 0.17132671 -0.16303222 -0.14132264 -0.06468105 0.09710863
0.09881271 -0.027195178 -0.13627169 0.048631504 0.08187456 -0.024675453 -0.017784305 -0.06525298
-0.12154316 0.04192475 -0.05498755 -0.029856382 -0.07940376 -0.028209994 -0.12197481 0.07860737
0.0049468516 -0.04600206 0.1047343 0.1438603 0.057655428 0.0034630105 -0.0788743 -0.083105125
0.003856007 -0.0041798367 0.09806513 -0.097481646 -0.027830306 -0.23792282 0.021816824 0.034639586
0.0109951105 -0.14597234 -0.097890325 -0.089961775 0.11584091 0.041037474 0.014284273 -0.07707663
-0.06524414 0.16097994 0.13531761 0.05323167 -0.027784808 0.0674683 -0.004514634 0.04648515
0.025412692 -0.14669847 0.09975709 0.06728051 -0.014620859 0.09241397 0.015582857 -0.08762045
-0.109435625 -0.10773194 0.041351147 0.069755614 -0.09298099 0.0647211 0.057114754 0.010004817
0.16865598 -0.009790612 0.13781007 0.08873462 -0.07963292 0.05460214 -0.15491854 0.018327199
-0.02467791 -0.11077124 -0.023643548 -0.12931447 0.07092658 0.056452267 0.04649425 -0.003074671
0.08801533 0.07154523 -0.07077867 -0.044986676 0.029361326 -0.14941159 0.17257163 0.14705312
-0.10838932 0.28972942 -0.018317262 0.07554611 -0.028685212 -0.15357596 0.029534834 0.0017810878
-0.075932406 0.015542389 0.23996273 -0.11002483 0.06848672 0.06660067 0.12064526 -0.09321352
0.066778824 -0.08258978 -0.16609368 0.07397563 0.016449044 -0.064673096 -0.21592712 -0.019140368
0.022131493 -0.051030725 -0.035441276 -0.08302296 -0.004544303 0.09999835 0.18356335 0.113881834
-0.11923426 0.01497493 -0.055092774 0.036383647 0.041315656 -0.030422539 0.17228472 -0.06379126
0.10398443 0.083298855 0.13538285 0.046630196 0.0004856641 -0.2317123 -0.04845243 -0.15903728
-0.054525528 -0.014425111 0.16252041 -0.023453603 0.09994114 -0.089246586 0.0086190635 -0.036281038
0.042386513 -0.0032480743 0.06630544 0.019796884 -0.108436055 -0.039892636 -0.11386482 -0.061242774
0.023926256 -0.11817626 0.13414645 -0.1160965 0.14984678 0.09224276 -0.04929573 -0.15612021
0.062247448 -0.007780906 0.054294035 0.19476034 0.037654914 0.01924314 0.089878686 -0.03499003
-0.09621613 0.096549325 -0.04706262 0.13161378 0.036691647 -0.08178333 0.04062608 -0.020360474
0.062112458 0.049794137 0.071649805 0.11833038 0.045984372 0.027601887 0.029580176 0.16888058
00000000: 9cec 8fbc 58f5 9fbd e2ef 28bd bfbf 823d
00000010: 13b5 04bc 75f6 04bd b135 323d 86fd fe3d
00000020: 2fb6 b4bd 652a 703c 99a4 883d 8ceb acbd
00000030: b78b 99bb 37e9 db3d a1ab 5f3d e45f 85bc
00000040: ffcb 2fbd c99c ebbc ec5f 7b3e e21a fcbc
00000050: 1c52 a43d 44ec 513d 7dd8 cfbc 8f20 f4bd
00000060: c9c5 8bbd bbb5 243e dc96 f33a dfb2 433e
00000070: 0254 8fbd 28d6 173e 4332 9fbd 82f8 91bd
00000080: 0943 69bd bbf1 00be adff 31bd fb97 40bc
00000090: 790f 953d 76a4 4abd d957 8ebe 0568 5ebd
000000a0: c64a 0ebe 3b42 24bd dc73 f6bd f06f fbbd
000000b0: 1178 a7bb c37e b53d 96f2 ce3d 091e 0a3e
000000c0: 3f28 54bc afc8 4dbd 251c 77bd f9cb 42bd
000000d0: 885e 173e 3714 203d 66e9 a93c c3ba 5abd
000000e0: 3a23 793d 334d c23c 4e59 8dbd 93f7 99bd
000000f0: 70de edbc 3a59 c4bd 9a2d abbd 875c eb3d
00000100: 98e3 963d 766f 223e faba 5dbd 4570 2f3e
00000110: ebf1 26be e2b6 10be 8077 84bd e4e0 c63d
00000120: 515e ca3d 6cc8 debc ce8a 0bbe d431 473d
00000130: d9ad a73d 2d24 cabc 64b0 91bc 5ba3 85bd
00000140: 9feb f8bd 49b9 2b3d a03a 61bd 5f95 f4bc
00000150: 709e a2bd a518 e7bc eecd f9bd e7fc a03d
00000160: 3319 a23b a86c 3cbd f07e d63d 1d50 133e
00000170: 1928 6c3d adf3 623b d988 a1bd 0533 aabd
00000180: 10b5 7c3b 03f7 88bb 5fd6 c83d 75a4 c7bd
00000190: 62fc e3bc 0aa2 73be 32b9 b23c 3de2 0d3d
000001a0: d624 343c c679 15be b97a c8bd e13d b8bd
000001b0: 003e ed3d e916 283d 9508 6a3c 5ada 9dbd
000001c0: b89e 85bd edd7 243e b390 0a3e 7409 5a3d
000001d0: f79c e3bc d22c 8a3d 7fef 93bb 3667 3e3d
000001e0: 472e d03c 2038 16be 724d cc3d 5dca 893d
000001f0: 548c 6fbc 8943 bd3d 3d4f 7f3c 5a72 b3bd
00000200: c91f e0bd 90a2 dcbd d25f 293d 08dc 8e3d
00000210: d16c bebd 7f8c 843d 29f1 693d 3eeb 233c
00000220: 27b4 2c3e ce68 20bc 151e 0d3e 7fba b53d
00000230: 9616 a3bd 7ea6 5f3d f7a2 1ebe ec22 963c
00000240: 5429 cabc 08dc e2bd 1db0 c1bc 036b 04be
00000250: f441 913d 7e3a 673d c170 3e3d 6b80 49bb
00000260: 6241 b43d 4e86 923d 68f4 90bd f343 38bd
00000270: 2a87 f03c 5aff 18be 9eb6 303e 1895 163e
00000280: 38fb ddbd 6a57 943e 150e 96bc ebb7 9a3d
00000290: 40fd eabc 0443 1dbe 09f3 f13c 6473 e93a
000002a0: 7382 9bbd 81a5 7e3c cab8 753e b354 e1bd
000002b0: c442 8c3d ef65 883d dd14 f73d bbe6 bebd
000002c0: 56c3 883d d524 a9bd 7614 2abe 8980 973d
000002d0: 25c0 863c 5473 84bd 001c 5dbe 43cc 9cbc
000002e0: 1b4d b53c 9805 51bd df2a 11bd f107 aabd
000002f0: 60e8 94bb efcb cc3d 08f8 3b3e e13a e93d
00000300: 1731 f4bd 6959 753c f6a8 61bd 0507 153d
00000310: 9b3a 293d b038 f9bc 686b 303e fea4 82bd
00000320: caf5 d43d 9798 aa3d cda1 0a3e 4eff 3e3d
00000330: bba0 fe39 fd45 6dbe 0e76 46bd abda 22be
00000340: 2956 5fbd 4d57 6cbc c06b 263e c521 c0bc
00000350: f1ad cc3d eac6 b6bd f936 0d3c 6d9b 14bd
00000360: 7b9d 2d3d a5dd 54bb 26cb 873d 132d a23c
00000370: b913 debd 7666 23bd f531 e9bd b4d9 7abd
00000380: ff00 c43c 6506 f2bd b05d 093e 00c4 edbd
00000390: 6f71 193e c6e9 bc3d 52ea 49bd fadd 1fbe
000003a0: 2ef7 7e3d f8f6 febb 6c63 5e3d 416f 473e
000003b0: 0a3c 1a3d caa3 9d3c 5112 b83d b551 0fbd
000003c0: f60c c5bd a7bb c53d bcc4 40bd c3c5 063e
000003d0: fb49 163d 057e a7bd 8867 263d 02cb a6bc
000003e0: a269 7e3d f0f4 4b3d 22bd 923d 3357 f23d
000003f0: 1c5a 3c3d 5a1d e23c 2052 f23c 08ef 2c3e

worker.f_stateW.2.bias f4 [40]
-0.005388004 0.023955006 -0.010882243 -0.0065415534 0.01318829 0.0015687604 0.00056101655 0.017564882
0.017165901 0.011641431 0.007523906 0.0038703 0.0070726206 0.006795069 -0.00654376 -0.015445219
0.010403997 0.0022279467 0.00041763476 0.016014855 0.012478097 0.00439147 -0.004322772 0.00025690766
0.021766273 -0.012291013 0.015308446 0.0059546884 -0.012414998 0.015815277 -0.0021644614 0.0035546764
0.007888436 -0.0013556291 0.020446813 0.029444555 -0.007857766 0.010199056 0.0019726434 0.0024647377
00000000: da8d b0bb 4a3d c43c 6f4b 32bc 875a d6bb
00000010: b313 583c dd9e cd3a 2f11 133a 3ae4 8f3c
00000020: 819f 8c3c b3bb 3e3c 198b f63b dca4 7d3b
00000030: 71c1 e73b 2ca9 de3b 0a6d d6bb f20d 7dbc
00000040: 8775 2a3c be02 123b fdf5 da39 9631 833c
00000050: ef70 4c3c 52e6 8f3b 0aa6 8dbb 90b1 8639
00000060: 2f4f b23c 3f60 49bc 47d0 7a3c 8c1f c33b
00000070: 4768 4bbc 0a8f 813c a3d9 0dbb 93f5 683b
00000080: 803e 013c 5daf b1ba 1380 a73c b535 f13c
00000090: dcbd 00bc f119 273c 7747 013b 7087 213b
