vwgym/saved_model/vwgym_f_net_step_6000000.pt (torch_old, 382120 bytes, 57 tensors)

f_percept.percept.0.weight f4 [16, 3, 3, 3]
00000000: 027c 8a3d c045 90bd 54b6 bfbd c556 84be
00000010: fa21 f93d 46c9 8f3d b734 a6be 5611 1cbe
00000020: b02a 57be b86e 9c3e e458 0abe 6ac2 e2be
00000030: c7ec ae3b a45e ad3d 7f3d 953e 28c0 81bc
00000040: 9a37 57be a07e 2bbe 3bde 5d3e 3a1e a5be
00000050: 0fcb b33d 7096 38be 224a 81bb 592c b03b
00000060: 0158 ecbd 90a5 433e a6f4 cbbd 279f 70be
00000070: 47ff 51bd d99f 923e ed84 bebd 43a7 863c
00000080: fa72 303e d81a 70be df31 03be 2dd1 393e
00000090: b4f1 86bd 44ad ce3e f703 223c 6559 b5bb
000000a0: 9d95 3e3e 7ee0 633e 4c22 8ebe 807e c73d
000000b0: edb0 87be c23a 3dbe 14bf 3e3d 3e3b 19be
000000c0: 51f0 c9bd d8c9 ab3e 379d 72be 7c89 5a3d
000000d0: 867b 2ebc dcae 853e e5d2 f9bd 16bb 193e
000000e0: 19f8 913e 148a 873e a790 87bd cb34 ea3d
000000f0: 6572 c8bc 84b5 083e 1b11 57be d3be 573e
00000100: 8648 58bd 7302 fdbd f449 3b3d 55c2 18bd
00000110: c5b6 e9bd e4cf 9fbb e8dd 353d fe72 4a3e
00000120: 600e 943e 1097 bfbd e15c 70be b005 f2bd
00000130: 94dd f23e be40 c93e b9fb 023e 9e1c 69be
00000140: 72ba c63c b727 023e e356 39be 2227 8a3c
00000150: 02bf 613e da71 9b3e 49f5 1b3e e712 d93d
00000160: 2387 3ebe 5230 96bc 5a88 bb3e 1018 0a3e
00000170: 8fd8 123e b041 14be 3093 053d adb8 1bbe
00000180: f02b 82be 4e02 f5bd 5f46 f4bd a7e0 b33d
00000190: 38a5 913e 5146 c13d d03e 413d 81a7 c33d
000001a0: cad5 1bbe 5c9c 9b3d ea47 93bd def7 08bf
000001b0: a6b3 943e 5b02 63bd 9b8f 063d 11c5 d4bd
000001c0: 0a2b 43be 2559 debe 91eb 42bc 80eb b83d
000001d0: 5837 983e c0d1 6b3d 7574 03be df63 f03d
000001e0: 1011 c8be 95b0 b03d 3183 a83d be13 1c3e
000001f0: f0aa 8dbe fb48 583c 69c0 bcbc abd6 aa3d
00000200: 4c1c 593d a608 babe ce42 b13e e55c 78bd
00000210: fe31 a33d ef30 99bd e013 deb9 2f45 6e3e
00000220: 3eab 713e fb50 21be 7334 acbe 73a5 a73e
00000230: aada 1e3e 5dc1 23bd a2fd 5f3d 26cc 243e
00000240: e8f9 77be 9e70 4b3e bcbd e4bc b7a8 0abe
00000250: f22c 8fbd 5c30 913c 51e1 0b3e 6a13 633e
00000260: d933 0f3e 63b0 603e 231c a6bd 0933 f63d
00000270: 6dc2 633e eeb4 8d3e b861 853d 60bd c23e
00000280: 0b3a 1c3e e468 efbd 7754 a7bd 9a89 92be
00000290: 06e7 cf3a e769 b3be 8a91 4cbe 7abb 643c
000002a0: 7144 cc3d b0c2 643e ce15 603e 812f 883c
000002b0: eb36 0c3e fc28 7a3e 2d8a 8e3e dbbb 02be
000002c0: 0510 8d3d b97c 6a3b 8c36 0abd 521f 9cbe
000002d0: aec7 483e 0c10 9ebd b0d7 a4be 88e9 97bd
000002e0: f45a dabd 1a21 9a3e d914 903d 7a68 883c
000002f0: 8fe9 a8be 0fe7 8fbd 0338 87be 6795 6b3e
00000300: 0f75 bcbd 135f 9dbc b426 c73e 4981 173e
00000310: 91cc e2be 17dd fc3d 149b 09be 3825 66be
00000320: 76ee 933d f5e2 a1be a2ae e73d ea63 343e
00000330: 9cda 0e3e 92ff 0fbe fbdb 5a3e 7b44 1f3e
00000340: 6d0e 423d 0dd3 d1bd 3e16 e63b cc31 73be
00000350: 98b6 253e f54f 313e d93c c6bd 2a9c 0b3e
00000360: 7f93 d1be 0640 d03d 32fe 4f3c 6487 823d
00000370: ab3e 443e 3161 63bd 936a ba3e 84a8 8c3e
00000380: 6804 1a3e e287 74bd 2c3f 7ebe 7685 e8bd
00000390: ff5a 233d cd77 763d 9513 4c3e c00e 72bd
000003a0: d49a e4bd c4ec 43be 4fe1 de3e fa56 8a3e
000003b0: 89c0 363e b11b 8f3b 80a8 793d 2b07 20be
000003c0: 7291 1d3b 430a 363e 7a09 093e 93e7 b3bd
000003d0: 7956 703e e6ec 06bd bcab 34be 55f3 623d
000003e0: 6caa f23c e9d6 ae3e 9909 f1bd 466b c3be
000003f0: 045f 873e 6661 343e cdd3 a33e 8d15 9cbd
0.06761934 -0.07044554 -0.09360948 -0.2584745 0.12164684 0.07020812 -0.32462093 -0.15240988
-0.21012378 0.30553222 -0.13510472 -0.4428895 0.0053382847 0.08465317 0.2914848 -0.015838698
-0.21017304 -0.16747522 0.21666805 -0.32249624 0.08778965 -0.18026137 -0.003945605 0.0053763804
-0.11540223 0.19106126 -0.09958772 -0.23498212 -0.051268842 0.2863758 -0.09302697 0.016437178
0.1723136 -0.2344774 -0.12811993 0.181462 -0.0658907 0.40366566 0.009888641 -0.0055343383
0.1861176 0.22253606 -0.2776054 0.09740925 -0.2650217 -0.18479446 0.046568945 -0.14964005
-0.0986029 0.33552432 -0.23692785 0.05335377 -0.0106495675 0.2610997 -0.12198428 0.15012774
0.28509596 0.26472533 -0.06619387 0.11435851 -0.02446861 0.13350493 -0.21002619 0.21068887
-0.05280354 -0.12353983 0.045724824 -0.037294704 -0.11411814 -0.0048770774 0.04440108 0.19770429
0.28917217 -0.09354985 -0.2347293 -0.11817491 0.47434676 0.39307207 0.12791337 -0.22764823
0.024258826 0.12710463 -0.18099551 0.016864363 0.2204552 0.303603 0.15230288 0.105993085
-0.18606238 -0.018333588 0.36627465 0.13485742 0.14340423 -0.14478183 0.032611072 -0.15207167
-0.25424147 -0.1196333 -0.11927485 0.087830834 0.28446364 0.0943724 0.047179043 0.09553433
-0.15218273 0.075981826 -0.07191451 -0.53503215 0.2904331 -0.05542217 0.032851797 -0.1038915
-0.19059387 -0.43427387 -0.011896984 0.09029293 0.29729724 0.05757308 -0.12837394 0.11737799
-0.39075518 0.0862743 0.08228148 0.15241906 -0.27669477 0.013200994 -0.023040967 0.08341726
0.0530055 -0.36334723 0.3462128 -0.060635466 0.0796852 -0.074800365 -0.00042357948 0.23268579
0.2360048 -0.15753548 -0.33633766 0.32743415 0.15513101 -0.039979327 0.054685242 0.16093501
-0.24216425 0.19867179 -0.027922504 -0.13540922 -0.069909945 0.017723255 0.1366017 0.22175375
0.13984622 0.21942286 -0.081108354 0.12021453 0.22242136 0.276771 0.06512779 0.38035107
0.15256517 -0.11689928 -0.08170407 -0.28620607 0.0015861697 -0.35041735 -0.19977394 0.0139607135
0.09973992 0.22339892 0.21883318 0.016624214 0.13692825 0.24429697 0.27839795 -0.12766974
0.06887821 0.0035779907 -0.033743426 -0.30492646 0.19607422 -0.077179044 -0.32195807 -0.074175894
-0.10661879 0.3010338 0.070352264 0.01665138 -0.3299069 -0.07026493 -0.2640992 0.23006211
-0.09202015 -0.019210374 0.38896716 0.14795412 -0.44296697 0.12346857 -0.13438064 -0.22475135
0.07223217 -0.31618467 0.113126054 0.17616239 0.1395058 -0.14062336 0.21372978 0.15553467
0.04737704 -0.10245333 0.0070216944 -0.23749465 0.16182935 0.17315657 -0.096795745 0.1363379
-0.40932843 0.101684615 0.012694882 0.0637348 0.19164531 -0.05551261 0.36409435 0.27472317
0.15040743 -0.0596999 -0.24828786 -0.11353581 0.039881703 0.060172845 0.19929345 -0.059096098
-0.111623436 -0.19133288 0.43531272 0.27019483 0.17846884 0.0043673147 0.06095171 -0.15627734
0.002404299 0.17777352 0.13382521 -0.08784404 0.23470487 -0.032940768 -0.17643636 0.05540784
0.02962228 0.34148338 -0.11769409 -0.3816778 0.2643968 0.1761528 0.3199753 -0.07621298

f_percept.percept.0.bias f4 [16]
00000000: ab80 c0ba db37 073a d687 a03a 32ed dc3a
00000010: a4c9 adba b343 cfba fa8d dfba 3afa 43ba
00000020: 12e4 67ba f1fc 90b9 f749 7aba a5c5 0eba
00000030: 2f5f f2b8 cd1b d2ba 2dd5 1eba 1f51 2b3a
-0.0014686784 0.00051581644 0.0012247514 0.0016855358 -0.0013258946 -0.0015813023 -0.0017055862 -0.00074759463
-0.0008845936 -0.00027654276 -0.0009547765 -0.00054463214 -0.000115571886 -0.0016030014 -0.00060589873 0.00065352203

f_percept.percept.3.weight f4 [64, 16]
00000000: 6d75 933d d751 093d 8627 b13c e930 25be
00000010: 8a86 99bd cd73 70bd a866 85bd 0ecd 16be
00000020: da44 523d 49ed 09be 2617 d73d c9eb b6bd
00000030: 61b4 1e3c 1be8 11be 4c08 18be 88d9 d4bc
00000040: 055c 173e c3be 07be 95e6 193e 5ce5 e2bd
00000050: 71ea 32bd 7417 67be 8e05 20be ef46 113e
00000060: 9e94 1dbd 6519 4ebb be4e abbb 8ec3 843d
00000070: 24a5 d9bd b90c f2bd a0d3 8ebe 9603 8cbd
00000080: 94fe d53c 3e3e 763e fb8c 74bd 7929 0abe
00000090: 9c66 c73d 9ce1 bebc 48f3 283e e94e 993d
000000a0: 0b2c ae3d 775d 7b3d 87fe 82bd 83df a9bd
000000b0: 6354 8b3e 5d23 7dbd 3890 52be 9352 1dbd
000000c0: 0667 153e 2b56 693d adb7 6cbd 9449 25bd
000000d0: fe84 c6bd a267 20be 82e0 613d 999d 32be
000000e0: ec18 d2bd 9215 93be c56f 933c 35f5 be3d
000000f0: 4328 a13d 0825 2abd ab62 98bb c756 de3d
00000100: d90b febd 9397 0cbe e2d0 973d b761 0a3e
00000110: 2c83 053e 5c17 013e 0ee7 3ebe cb14 adbc
00000120: 7549 ea3d b45a 373e 2daf 78be 708c f33c
00000130: e630 97bc 83bb d5be 791d f43c 8a44 59bd
00000140: c99a f5bd d5f3 40bd 143f 253e 0e69 123e
00000150: 12a1 943d 2fad 88bc d537 0e3e cc06 27be
00000160: 611f 5a3d 836a f5bd c4ca 433e b059 06be
00000170: c3f6 dcbd ae5b f53c 45e0 c83d e159 0d3e
00000180: d896 cbbd b8aa 50bd a825 003e 22ca 983d
00000190: a641 06be 9078 2b3e 7d55 333d 61ed 003e
000001a0: 7075 0b3e bdea 733a 7875 783d fd1e 6cbd
000001b0: 6f0e d33c 501c 713d abcd bcbd ecc4 7fbd
000001c0: e30a d2bd bf32 a6bd d715 96be 3485 243e
000001d0: a8ee 223e 5ce9 35bd 2c8d 8dbe 9745 93bc
000001e0: f735 4fbe 784c af3d 81f3 0ebe 89b1 1fbd
000001f0: 2e94 04be 9b10 483d e19c 22bd 59fa 123e
00000200: e34d 7f3c 67f5 63be fb22 dabd 6d95 b33d
00000210: 630c 5dbe 09c7 17be dd04 e43d 0dc1 55be
00000220: 34bf 313e eab1 16be c53b e8bd 65a3 3bbe
00000230: b4e6 73bd 7592 4a3e 286e 91bd 12a2 c5bc
00000240: b810 d83d 3bb3 723e 7f5b 60bc 83e0 d73d
00000250: c4b5 0f3e e726 ebbc 449f 063d b55f 1fbe
00000260: 078b a03d 7be1 dc3d 9587 9bbd 00bd 4f3e
00000270: 033c bcbc dc79 973c 5303 bc3d b7d4 bf3c
00000280: 1cff 8e3d c8ad 00be 59c3 ddbc 80ab 68be
00000290: 096f 083d 00ab bfbd 5486 283e 32ec e43c
000002a0: 9ad6 ee3d 0ef6 c03c b4b4 3ebe 3c63 af3d
000002b0: 09e3 18be d8ce b4b9 c68e 1b3e 7dcd b0bd
000002c0: 7ab8 ec3d b654 96bd 881f 313e d361 35bd
000002d0: 5885 6bbd 2acf bbbd 5802 f43d 0ddd f4bd
000002e0: ca7f 81bc 8746 c33d cb08 acbd fdec 23bd
000002f0: 92ad 06bd 1967 2bbe 8750 70bc 7c89 573e
00000300: cf39 ca3d 1133 56be 46d0 173d 583d 333e
00000310: 9d62 83bd 00b0 ea3c bd29 12bd 7488 84be
00000320: 8d6e 193d f88c b83d 81a1 a8bc 9f76 6fbe
00000330: 480e 973d b95c 0f3e d589 39bd 876d 18bc
00000340: 4f46 81be cd0e fc3c d2a2 383e b7e8 8a3e
00000350: f894 4ebc 8096 28be 1065 9ebc 1e9e ff3d
00000360: 4d9c 053e 7326 e93c b516 073d 966e bebc
00000370: c7a8 923d a7b2 80bd e1c1 683d b9d9 bb3d
00000380: 0695 0d3e d978 3e3d eea5 57bd afa3 173e
00000390: 061b 2d3e dceb f4bc 8aa9 013d dcc2 593e
000003a0: 50a0 8e3c 57db acbd e70c 8e3d 8baf 36be
000003b0: 6ade a5bd 264b 2fbe 5a35 893c cd16 b83a
000003c0: 03d7 033e e6ab 1fbe aa33 febc 73f0 90be
000003d0: 6434 913e 3c0c 4abd e3d7 2b3d 2624 f93d
000003e0: 2dac 8dbb 4b32 74bc fd8a 383e f324 0f3c
000003f0: 4de7 953d 98f9 6e3e c356 c0bc 3b43 c7bc
0.072001316 0.033525314 0.021625292 -0.16131939 -0.074963644 -0.058704186 -0.06513721 -0.1472666
0.051335193 -0.13469423 0.10502462 -0.08931691 0.00968656 -0.14248697 -0.14846915 -0.025982633
0.14781196 -0.13256364 0.15029366 -0.11078903 -0.043680612 -0.2256754 -0.15627119 0.14187215
-0.03847181 -0.0031448242 -0.0052278927 0.064826116 -0.10627201 -0.11818833 -0.27895832 -0.068366215
0.026122369 0.24047181 -0.059704762 -0.13492383 0.09736368 -0.023300938 0.16499054 0.07485754
0.08504494 0.061368432 -0.063962035 -0.082945846 0.2721282 -0.061801303 -0.20562828 -0.038408827
0.14590082 0.05696694 -0.057792354 -0.040353373 -0.09693335 -0.15664533 0.055145748 -0.17442931
-0.1025866 -0.28727394 0.017997632 0.09324113 0.078690074 -0.041539222 -0.004650434 0.10856395
-0.124046035 -0.13729696 0.07412888 0.13513838 0.1303832 0.12606567 -0.18642828 -0.021128079
0.11439792 0.17905694 -0.24285574 0.029730052 -0.018455934 -0.41744623 0.02979921 -0.05304388
-0.119924136 -0.047107536 0.16137344 0.14297888 0.07257284 -0.016684143 0.13888486 -0.16311187
0.05325258 -0.11983206 0.19120318 -0.1312015 -0.107892536 0.029950943 0.09808401 0.13803817
-0.099408805 -0.05094406 0.12514365 0.07460429 -0.1311098 0.1674521 0.0437827 0.12590553
0.13619018 0.0009304693 0.060658902 -0.05764674 0.025763718 0.05886489 -0.092189156 -0.06244366
-0.10255983 -0.08115148 -0.29313537 0.16066438 0.15911353 -0.044412002 -0.27646768 -0.017977519
-0.2023543 0.08559507 -0.13960077 -0.03898767 -0.12947151 0.04884396 -0.039700393 0.14353313
0.0155825345 -0.22261582 -0.10651203 0.08768735 -0.21586756 -0.1482202 0.1113374 -0.20874424
0.17358094 -0.14716306 -0.11339525 -0.18324049 -0.059546188 0.19782431 -0.07101089 -0.024125133
0.10550064 0.23701183 -0.013693689 0.10540869 0.14034182 -0.028705074 0.03286673 -0.15563853
0.07839017 0.107851945 -0.075942196 0.20286942 -0.022977835 0.018490724 0.091803215 0.02341686
0.06982252 -0.12566292 -0.027070688 -0.22721672 0.033309016 -0.093587875 0.16457492 0.027944658
0.11662026 0.023554828 -0.1862362 0.08563849 -0.14930357 -0.00034486386 0.15191182 -0.08632944
0.115586236 -0.07340376 0.17297184 -0.044282746 -0.057500213 -0.09170373 0.119145095 -0.119562246
-0.015808005 0.095349364 -0.084001146 -0.04002093 -0.032880373 -0.16738547 -0.014667637 0.2104854
0.09874307 -0.20917918 0.03706386 0.1750387 -0.06415293 0.028648376 -0.035684336 -0.25885355
0.037458945 0.09011263 -0.020584824 -0.23385094 0.07375771 0.14000215 -0.045297462 -0.009303457
-0.25248954 0.030768776 0.18030861 0.27130672 -0.012608759 -0.16463661 -0.0193353 0.1248133
0.13047905 0.028460717 0.03298064 -0.02324609 0.07161098 -0.06284075 0.056825522 0.09172387
0.13826379 0.046501968 -0.052648477 0.14808534 0.1690484 -0.029897623 0.031655826 0.21265739
0.017410427 -0.08440273 0.06936055 -0.17840402 -0.08099063 -0.1711851 0.016749073 0.0014044881
0.12874989 -0.15592918 -0.031030495 -0.28308448 0.28360283 -0.049328074 0.041953932 0.12165098
-0.0043235035 -0.014904569 0.1802177 0.008736837 0.07319508 0.233374 -0.023478871 -0.02432405

f_percept.percept.3.bias f4 [64]
00000000: cf38 1bbb 7ed0 513b a6d6 573b 6b7c 333b
00000010: 35cd 343b 1b55 9f3b 6e9f d5ba 27be 263b
00000020: d67c adba 000a 4e3b b6fc 973b 9de0 24bb
00000030: 821e 783a 1cd6 923b 1b5a 8639 605a 9fbb
00000040: 25aa 21bb 87b7 4abb 343d 4c3b 850b 59b9
00000050: b08e 053b dccc e73a 170a 6a3b f73e a93a
00000060: ab5b 48ba 04ea 7c3a dbf8 8c3b 1852 24bb
00000070: 3330 8dbb 1da1 a3ba e635 233b b533 8dbb
00000080: a4be 533b b252 9b3b 9363 a4b9 f689 abba
00000090: 81ca f03a cee2 313b ee0c 653b 3410 a3ba
000000a0: 5bdd 27bb 5c61 a039 3296 c43b 7f9c e739
000000b0: 6a7e fc39 ecc4 0dba 9490 823b d176 d23a
000000c0: 7257 04ba c885 fe3b 3969 13bb 28fe 883b
000000d0: 656c 963b 0e25 9e3b 22a7 6abb d031 063b
000000e0: 3125 51ba 1341 703b 59c0 c4bb f099 593b
000000f0: b5eb 45b9 be91 af3b 25e8 c3ba 3b66 043b
-0.0023684984 0.003201514 0.0032934337 0.0027387391 0.0027588133 0.0048624403 -0.0016298124 0.002544293
-0.0013236057 0.0031439066 0.00463828 -0.0025158294 0.0009464995 0.00448109 0.00025625605 -0.0048630685
-0.0024668064 -0.0030932145 0.003116441 -0.00020699024 0.0020379238 0.0017684954 0.003571158 0.0012912442
-0.0007643054 0.0009647908 0.004302127 -0.0025073346 -0.0043087243 -0.0012483929 0.0024903952 -0.0043091425
0.0032309676 0.0047400827 -0.00031354706 -0.001308738 0.0018370898 0.0027143243 0.0034950334 -0.0012440742
-0.0025614116 0.00030590117 0.00599935 0.00044176352 0.0004815937 -0.0005408067 0.00398452 0.0016057139
-0.0005048431 0.007767413 -0.0022493138 0.0041806884 0.0045905584 0.0048261946 -0.0035805185 0.0020476468
-0.0007978259 0.003665988 -0.006004375 0.0033203326 -0.00018875192 0.00535795 -0.0014946504 0.0020202536

manager.M_space.weight f4 [64, 64]
00000000: 8c53 00bd cd69 f83d b5fe a23e 7ebb 25bd
00000010: ec88 8c3d cd68 363e 9bdb 54bd 9a12 393e
00000020: ad21 423e 90f6 16bd dd78 e4bc e40d ddbd
00000030: 3b61 04be 7859 0e3e 64da 10be c6e3 fc3d
00000040: d3c1 4abc 94b2 2e3d 1336 e1bd 50bd 06be
00000050: 507e 71be 4079 8dbc b227 47bd 9109 6e3d
00000060: 58d9 453e 0aa7 b1bd 0d84 68be 4ae6 4f3d
00000070: d382 023d ba49 7dbe 2bc4 06be 43bd 3dbd
00000080: 02ec 9cbd 83b1 d5ba 174b 27bd 46c9 f5bd
00000090: 7489 3ebe be92 fe3d 3aa6 983d ec2b 493e
000000a0: 8629 32be e1f3 b4bd 4ea6 863e aa19 6bbc
000000b0: 64ba 1dbd 3d88 18bd 808f bebd f639 e43c
000000c0: fa9e 91bd c4dc fabd 94eb 0abe cc43 a8bc
000000d0: 8005 e13d 9655 06be 1e3a a63d f393 343e
000000e0: 4468 0dbe 111c 9e3d 62e6 a4bd 0630 093e
000000f0: 1444 20bd 6882 41bc f3ce b2bd 511a f13d
00000100: fe20 c93c c6e3 e0bb 5899 ebb9 26aa e33d
00000110: 9bc9 56bc 935f 08bd 39a9 323e 3905 5d3e
00000120: 81b6 e13d 37eb c33d 6c33 3cbd d210 cbbd
00000130: 8508 40bc 5708 d8bd a902 2fbd 93cb 70be
00000140: 69f1 b3bd f9e0 d7bd a99d 3abd 11c3 c3bd
00000150: 3a11 2bbd cf20 493d c5bc 8bbd e4cc 963e
00000160: 9667 c5bd 50b5 e93d 94dc abbd 66d0 fb3b
00000170: 615f 35be 8672 203e 41c2 633e af8b 653e
00000180: 8905 ec3d 2f23 043e 2ea7 8fbc 4cd2 ea3d
00000190: f373 f6bd 50de 3bbc 1460 3fbd 8afc dfbd
000001a0: 196c 12be d4d8 79bc 658e 523d d298 2d3d
000001b0: 7e73 f1bd 307f 1c3e b7a5 3e3c f731 c33d
000001c0: e4b7 be3d 9b5f c63d 6ded d4be f29a c53d
000001d0: d6b5 82be 7a11 85bd 5236 403e a8f3 17bd
000001e0: 4ccd c83d 5eb3 7f3d e5bf f1bd 99cf f5bc
000001f0: 035e e43c a115 593d 3671 9f3d 4f45 bb3d
00000200: a413 18be 8e76 c8bc 6086 f13d 2370 06bb
00000210: 0da5 e63d 6e6f 41be 57ef 20bd 1649 cc3e
00000220: d0aa 023e 77cd 1ebe 8c20 50bd b6ea ca3c
00000230: 9828 af3d 405e fb3a 191c 903d 6904 c53b
00000240: 4511 25bd 903d 4c3e b42b 33be 13aa eb3d
00000250: 7d4d 683e 1249 23bd a8ab 68be 9386 58be
00000260: b0df adbd 3d24 f33c c406 fc3c 5aa2 d73c
00000270: b946 09be d0ec 88bd bd7e aa3d 82f3 0d3e
00000280: 91b0 003e 4045 a33d 9316 2a37 b438 d63d
00000290: 73c1 633c 3014 413d a240 553d c041 e83c
000002a0: 9500 00be 4473 0d3e fbac d3bc 1bc3 ebbd
000002b0: d05b e5bd 1f9c 23be 43aa 8f3a 144c 1b3e
000002c0: a4be 1b3e 9f8e 60bd 3db2 fa3d c30a 10be
000002d0: 4f5b d33d 5b51 303d df28 f9bc 7fd5 903c
000002e0: dca3 a1bd a084 053e 3647 0e3d 932b ec3d
000002f0: 0188 823d 49c0 bd3c 3ad6 663e 2ce4 97be
00000300: 48c4 373d da23 6c3e 7c27 e9bd 8408 643e
00000310: c6a3 aa3e efdc 76bd f576 36bb 1c1d b83d
00000320: 7f72 023e 7e93 883c 3c4f 203d 3818 54be
00000330: 30d9 b63d ce43 123d ae95 c43d 87e1 1fbd
00000340: 58bb 9f3e e38e b43b 642f 023d 1c85 0e3e
00000350: 4c96 bebd 1e22 1f3d 0a34 fd3b fbf6 a4bb
00000360: 7b3e e7ba e9b3 edbd d260 303c b119 c93d
00000370: fdb0 d4bd df10 463d deb5 863d af67 0abe
00000380: bebe 6ebb 6b0d dbbc ad02 903d 538e 403e
00000390: 32a2 893d a7c1 3c3e c800 c63d 385c f83d
000003a0: 1aee 8e3c 7d76 413e cc22 383e 7d27 223e
000003b0: def3 cf3c 9940 a73d 29c5 503e 7ad1 723d
000003c0: f23e 4dbe e60d 87be 5b43 a2bc 8969 1e3e
000003d0: 6314 a2bd be8e 923d 11d2 6abe 4620 dfbd
000003e0: 8a4d 8f3d 2333 04be beb2 1a3d 8c1e bebd
000003f0: 4c44 c13a 2b89 cebc f43a a8bb 7ae3 e93c
-0.031329677 0.12129555 0.3183495 -0.04046201 0.06862053 0.17813416 -0.051967245 0.18073502
0.18958159 -0.036856234 -0.027889663 -0.10793665 -0.12927715 0.13901317 -0.1414581 0.12348132
-0.012375313 0.042650774 -0.10996642 -0.13158154 -0.2358334 -0.01726973 -0.04862184 0.058114592
0.19321191 -0.08674438 -0.22706623 0.05075673 0.031863045 -0.24735156 -0.1316077 -0.046323072
-0.076622024 -0.0016303513 -0.040843096 -0.120012805 -0.18607122 0.124303326 0.0745358 0.19645661
-0.17398652 -0.08835579 0.26298755 -0.0143493805 -0.038507834 -0.037239302 -0.09304714 0.02785967
-0.071104005 -0.12249139 -0.13566428 -0.02054014 0.10987377 -0.13118586 0.08116554 0.17634563
-0.13809305 0.07720197 -0.080517545 0.13397226 -0.039127424 -0.011810876 -0.08730879 0.117725976
0.024551865 -0.00686309 -0.00044936943 0.111164376 -0.01310959 -0.03329427 0.17447366 0.21584024
0.11021138 0.09566348 -0.045947477 -0.099153176 -0.011720781 -0.10548466 -0.042727146 -0.23515157
-0.0878628 -0.10540957 -0.045560513 -0.0955869 -0.041764475 0.049103554 -0.06823114 0.29453194
-0.09638898 0.11411536 -0.08391681 0.007684755 -0.17712165 0.15668687 0.2224207 0.22416566
0.11524493 0.12904046 -0.017535772 0.11465892 -0.12033834 -0.011466578 -0.046722487 -0.1093684
-0.14299048 -0.01524945 0.05140533 0.04238207 -0.117896065 0.15282893 0.011636189 0.095310144
0.09312418 0.09686204 -0.41587391 0.09648694 -0.25529355 -0.06497474 0.18770722 -0.037097603
0.09804782 0.062426917 -0.11804179 -0.030006217 0.02787686 0.052999143 0.07785265 0.09144079
-0.14851242 -0.024470594 0.11793208 -0.0020513616 0.1126195 -0.18890163 -0.039290752 0.3989951
0.12760472 -0.15508066 -0.05081229 0.024770122 0.085526645 0.0019177869 0.07036609 0.0060124886
-0.040299673 0.19945359 -0.1749714 0.115070485 0.2268581 -0.039864607 -0.22721732 -0.21145086
-0.08489931 0.029680366 0.030764945 0.026322532 -0.13405885 -0.066857934 0.08324955 0.13862422
0.12567355 0.07972193 1.0138046e-05 0.10460034 0.013901102 0.047138393 0.05206359 0.028351665
-0.12500222 0.13813502 -0.02583932 -0.11511823 -0.111991525 -0.15977524 0.0010960776 0.1516574
0.15209442 -0.054823514 0.122410275 -0.14066605 0.1032015 0.043046337 -0.030414997 0.017679928
-0.07892582 0.13038874 0.03473588 0.115317486 0.06373597 0.023162978 0.22542658 -0.2966627
0.044864923 0.23060551 -0.11384484 0.22268873 0.33328074 -0.060269292 -0.00278419 0.08989927
0.1273899 0.016671892 0.039138064 -0.20712364 0.08928144 0.035709195 0.09598862 -0.03903344
0.3119762 0.0055101975 0.031783476 0.13917965 -0.093060106 0.038850896 0.007727151 -0.005034325
-0.0017642522 -0.11606581 0.010765271 0.09819353 -0.1038532 0.048355933 0.06577657 -0.13516115
-0.003642961 -0.026739797 0.0703176 0.18804292 0.067203894 0.18433248 0.09668118 0.12126964
0.01744752 0.18892856 0.17982024 0.15835376 0.02538484 0.08166618 0.2038771 0.059281804
-0.20043543 -0.2637779 -0.019807508 0.15469946 -0.07914045 0.07156132 -0.22931696 -0.108948275
0.06997211 -0.12910132 0.037768118 -0.0928317 0.0014745086 -0.025211891 -0.005133981 0.028550852

manager.M_space.bias f4 [64]
00000000: c6d6 1cba 120d 083b 4df7 bd3a 7c36 223b
00000010: 46de 1e3a 6129 553b 7a8e 34bb 8a60 67bb
00000020: 8130 0b3b 1e2e 4b3b b89a 973a 7c6f 8e3a
00000030: 2170 3bbb b03f ac3b cd2b 673a 204c 983a
00000040: fa31 103a 82f8 833b 5b54 58ba 9978 3abb
00000050: c4a5 2b3b 359d d039 baa2 deb9 3dc2 7b3b
00000060: 43fa 3f3b d1a3 c2ba f03c 0fba dd16 c33a
00000070: 5665 3cbb 328a 2c3b 045d b0ba 17ea 733b
00000080: c12f 413b 9c85 c33b dd22 143a baa2 8abb
00000090: efe6 65bb de55 6abb 4c81 2fba 37d4 a53a
000000a0: 6cac 89ba 45cd cfba 9977 6abb 0538 8ebb
000000b0: 07a0 b93a e9f1 3d3b b90f 49bb 776f 48bb
000000c0: 0a3f b93a 9bf9 263b 1794 26bb 7423 0e3b
000000d0: 8179 42bb ac99 a2bb cdc7 953b 5951 18bb
000000e0: 2ea1 35bb 6a0a d9b9 8b36 693a 7035 e5b8
000000f0: 854d 0f3a b680 b7bb 0531 b5bb fc59 453b
-0.00059829315 0.0020759744 0.0014493257 0.0024751713 0.0006060343 0.0032525884 -0.0027550743 -0.0035305344
0.0021238627 0.003100283 0.0011566496 0.0010866965 -0.002860077 0.0052566156 0.00088184775 0.0011619367
0.0005500611 0.004027427 -0.0008252316 -0.002845323 0.0026191333 0.0003978998 -0.0004246438 0.0038415336
0.0029293455 -0.0014849846 -0.00054640975 0.0014884133 -0.0028746924 0.0026327488 -0.0013455455 0.0037218386
0.0029477926 0.005966855 0.0005650947 -0.0042308243 -0.0035080274 -0.0035756747 -0.0006694987 0.0012651746
-0.0010503656 -0.0015854022 -0.0035776852 -0.004340174 0.0014162072 0.00289833 -0.0030679537 -0.0030584016
0.0014133167 0.0025478366 -0.0025417858 0.0021688612 -0.0029674473 -0.004962167 0.0045709372 -0.0023241846
-0.0027714479 -0.00041397224 0.0008896372 -0.000109295244 0.00054665684 -0.0056000603 -0.005529525 0.003011345

manager.M_goals.weight f4 [64, 128]
00000000: 3dbf 91bd 3201 0bbd 79b9 15bd c365 d3bd
00000010: 0b42 273e d833 083e d754 0e3d 7b05 763d
00000020: 2de9 0cbe 272d 2a3e 738a e63c 9281 a0be
00000030: dbb5 2a3e 4737 1b3e 3792 c23c c48a 2a3e
00000040: eb2f 60bd 6d6c bb3c 74ea f4bd 41fb 6d3c
00000050: a021 98bd 89d8 6a3d a351 0e3b 0e88 2a3c
00000060: b677 cabc fcd2 82bd 3d18 d5bb dfc9 20be
00000070: 6e5f 303a c48f 60be bfd8 4abd e00b ebbc
00000080: 1daf c53d c838 fdbc 3825 bbbc ba2d b03d
00000090: f0bd 26bd 628b 94bd 8d80 ec3d 65ef 8cbd
000000a0: 8830 81bd 979b d8bd 994e 103e eaa3 2e3d
000000b0: deae 843c 4abd 8d3c 4920 cebd 446e fabd
000000c0: 8d4a dfbc 0aab 123b c536 1f3d 5bb3 833d
000000d0: 6b1f ac3d 0725 1b3e 9e9f 70bd 1241 1f3e
000000e0: 3feb 313c ebbb 3d3d d8c9 2abe e211 04bd
000000f0: b354 333d 788e b53d 59e8 6abd 14ae a33b
00000100: ba06 af3d 5afa 2a3e 27f3 c6bd 493e 983c
00000110: dbf4 80bc 8441 29bd bfc7 ec3d a683 a0bd
00000120: 3cfa 34bd 5a44 30bc 4abd 943d 8bb3 72bd
00000130: cba5 233e 88f6 78bd 75fa 66bd fc3e 683d
00000140: 5487 e43c fa8a ccbc bad8 3b3c 957e 073d
00000150: b5d1 a03c 948c 57bd e69d bd3a fda4 7bbd
00000160: 750f 54be 742e 193c a2b5 82b8 5c6c 2a3d
00000170: 5855 4a3d 559c 093e b883 003d c891 db3c
00000180: a875 d53d be24 26bd dc40 923d d157 9fbc
00000190: 8954 49be 3463 84bd 9709 fc3d 5d81 163b
000001a0: 7ef8 783d a811 b13d 8eca 8fbc 52d4 a13c
000001b0: bf96 cf3d 7d81 9e3c 8e38 e43b d7d3 b1bc
000001c0: 7e00 c4bd b99b 1e3d 5f71 07bc 15e4 013d
000001d0: e693 163d b07c 8b3d 02d9 223e 6a3a a2bd
000001e0: c140 0dbd 5c12 353c 76ec 0bbe ff6d 163e
000001f0: 0d8b 243c eadb 63bd 14ea b23b 00d8 ee3c
00000200: 3859 dc3d a06d 63bd be45 e5bd a30c c6bd
00000210: 0df3 e83d 0e4b 0cbe d2d1 b13d a521 2f3e
00000220: 7896 87bd 0e7b 15bb fa1a 88bd 14e8 b2bc
00000230: 44ae 16bd 55fc 5ebd 0f5d 2f3d 7921 4ebd
00000240: a5f7 d6bd d9ee f9bb 3028 42bd 0ef3 8d3d
00000250: 7459 4d3e e924 b53d 63cf 58bd 4998 203e
00000260: b4ef 093e 1d8c 473e e744 25be 1a2f 433d
00000270: 438f 093d 5fdd b43c e35f 7b3c 0003 3ebd
00000280: 9b65 0a3d fd73 2c3d 2526 a03d 479e bb3c
00000290: 91e1 58bd b390 653d d4ae d23c 4e9e 4cbd
000002a0: 557a 6ebc f407 c63b b7ab 0d3e 8a0e 10bc
000002b0: c194 20be 1e7d c73d abd6 5d3c 2e9d b1bd
000002c0: 80a1 a2bd c7e5 bf3d 6604 0fbe 8a38 c03d
000002d0: 445f 68bd d419 7abd 39ea 83bd 35aa 173c
000002e0: 87fd 7f3c af6d 91bd 0b32 8e3b 348c 70bd
000002f0: f858 a7bd 682b cbbd 5b1a f23d b836 b0bc
00000300: d238 c9bc 4e15 893d 65c8 cbbd 2f43 893d
00000310: d38f 053d 9b83 b2bc 7126 8d3d 65c1 fa3d
00000320: 5758 753c ca95 a2bd f7b6 e2bd 69e4 42be
00000330: 0761 fa3c bffb ac3c 1d7b ae3d 5307 edbd
00000340: 88bc 883d 1b94 403d 0728 dabc 12be 60bb
00000350: e721 8e3d 6225 a63c 0f37 f13b dadf 053e
00000360: fa5c f7bc b05a 563d 8ec5 19bd e2f5 6b3e
00000370: 477a dabd 27ff a1bd 1ee0 c4bc c65c 16bd
00000380: a7a4 8cbd f38b fe3d 9773 d13d 55d2 babd
00000390: b3e3 82bd 5927 263e 87dd 43bd 1078 45bd
000003a0: 5bff fe3b 8f3e 323e 46b8 1a3c 3fc4 10be
000003b0: ca85 ad3d b699 253d 35c9 803d e98f ef3b
000003c0: 20d8 c6bc 24be 45bd 9a9d 043e 9b00 a7bb
000003d0: 5f65 bcbd e8cf 1cbe ede9 f5bc eb45 af3d
000003e0: 30c4 d13c fe25 283d e232 1bbe 8d56 dcbd
000003f0: 21cc 7e3d 38cc c7bc 8a9c 5dbe 4d5b c7bd
-0.07116554 -0.033936687 -0.036553834 -0.10322144 0.16333787 0.13301027 0.03474888 0.06006382
-0.13760825 0.16618787 0.02814219 -0.31348854 0.16670935 0.15157805 0.023751361 0.16654497
-0.054733198 0.02287885 -0.11958781 0.014525236 -0.074282885 0.05733541 0.002171614 0.0104084145
-0.024715286 -0.06387898 -0.0065031336 -0.15702008 0.00067280873 -0.21929842 -0.04952311 -0.028692186
0.09652541 -0.030910864 -0.022844896 0.08602472 -0.040708482 -0.07253148 0.115479566 -0.068815984
-0.06308085 -0.105765514 0.14092483 0.04263679 0.016196664 0.017302174 -0.10064752 -0.12228063
-0.027257228 0.002237978 0.03887059 0.06430694 0.0840443 0.15150844 -0.058745973 0.15552166
0.01085931 0.04632179 -0.1667856 -0.032243617 0.043781947 0.088650644 -0.05735049 0.004995117
0.08546205 0.16697064 -0.097143464 0.018584387 -0.015741756 -0.041322246 0.11561536 -0.0783761
-0.044183955 -0.010758484 0.072626665 -0.059253257 0.15981214 -0.060781986 -0.0563912 0.05670069
0.02789656 -0.024968613 0.011465246 0.033079702 0.019631246 -0.0526243 0.0014466613 -0.061436642
-0.20709021 0.009349454 -6.232715e-05 0.041607246 0.049397796 0.13438542 0.031375617 0.026802912
0.10422832 -0.040562384 0.07141277 -0.019451054 -0.19661154 -0.06464234 0.123065166 0.002296529
0.060783856 0.08645946 -0.01755264 0.019754563 0.101361744 0.019348854 0.0069647497 -0.021707458
-0.095704064 0.038722727 -0.008266776 0.031711657 0.03676214 0.06810892 0.15903094 -0.07921298
-0.034485582 0.0110517405 -0.13664421 0.14690398 0.010042918 -0.05562965 0.005460033 0.029155731
0.107592046 -0.05552447 -0.11194943 -0.09670379 0.11374483 -0.13700506 0.08682598 0.17102678
-0.066204965 -0.0022808942 -0.0664577 -0.02183918 -0.036787286 -0.05443986 0.042813357 -0.05032489
-0.10496453 -0.00762735 -0.047401607 0.06931125 0.20053655 0.08844931 -0.052932154 0.15683092
0.13470346 0.19487043 -0.16139565 0.04765234 0.03358389 0.022078214 0.015342685 -0.04638958
0.033788305 0.042102803 0.078197755 0.022902621 -0.052949492 0.0560462 0.02571813 -0.04995566
-0.014555533 0.0060434286 0.13835035 -0.008792529 -0.15681745 0.09740661 0.01353995 -0.08672558
-0.0794096 0.093699984 -0.13966522 0.09385784 -0.056731477 -0.061059788 -0.06441159 0.009256889
0.0156244105 -0.071009986 0.0043394617 -0.058727458 -0.08171266 -0.099203885 0.11821433 -0.021510467
-0.024563227 0.06693517 -0.099503316 0.067022674 0.032607865 -0.02179127 0.06892098 0.12243918
0.014974675 -0.07938726 -0.11070054 -0.19032444 0.030563844 0.021116136 0.08519576 -0.115736626
0.066765845 0.047016244 -0.026630415 -0.0034292978 0.0694006 0.020281497 0.0073613 0.13073674
-0.030195702 0.05233258 -0.03754192 0.23043016 -0.10667854 -0.079099946 -0.024032649 -0.03670957
-0.068673424 0.12429037 0.10227125 -0.09122149 -0.063910864 0.16225947 -0.047818687 -0.048210204
0.0077819056 0.17406677 0.009443348 -0.14137362 0.08472784 0.040429793 0.06288377 0.0073108566
-0.024272978 -0.048277035 0.12950745 -0.0050965077 -0.091990225 -0.15313685 -0.030018771 0.08558258
0.025606245 0.041051857 -0.15156129 -0.10758696 0.06220639 -0.024389371 -0.21641746 -0.09734211

manager.M_goals.bias f4 [64]
00000000: 0079 3039 566b 30bb c536 5a3b f61d 1c3b
00000010: 43c1 83bb c240 85bb 60c3 443b 2572 32bb
00000020: 6808 83bb d0f8 423b 28de 333a 227a 343b
00000030: 09ec 253b a585 5abb e0fb d43a d31e 36bb
00000040: 1700 c6bb 146d 403b 3f67 353b bbaf 2db9
00000050: a08d 38bb 1a93 d039 29b5 183b afec 5a3b
00000060: 2c25 07bb f679 68bb 9083 59bb edc8 263b
00000070: fd21 143b 391f 5b3b efab 74bb 0b2d 1cbb
00000080: dce6 bdbb d0f5 daba 00dc 34bb 1689 763b
00000090: 4e70 a5bb 8ff5 12bb 8254 6bbb 048a 293b
000000a0: 914f f53a 1721 a2ba 9cf6 75b8 6830 d5b7
000000b0: 9707 7e3b b375 43bb b143 04bb 4bfb bdb9
000000c0: 4606 9a3b e277 ffba e3f3 623b 604d 6d3b
000000d0: 3f63 7fbb e572 2c3b 45f8 753b 1fe7 443b
000000e0: 432b ae3b 13d1 a2bb ba27 1dbb e278 223b
000000f0: df24 133a 8e80 013b 18d0 3c3a cbdc 153b
0.00016829744 -0.0026919446 0.0033296805 0.002382157 -0.0040208413 -0.0040665576 0.003002368 -0.002722868
-0.003998805 0.0029750355 0.0006861412 0.0027538617 0.002531769 -0.0033343819 0.0016249381 -0.0027789369
-0.006042491 0.002936189 0.0027679948 -0.0001656403 -0.0028160587 0.0003978245 0.002330134 0.0033405235
-0.0020621521 -0.0035473085 -0.003318999 0.002544935 0.0022603266 0.0033435358 -0.0037333926 -0.0023830559
-0.005795343 -0.0016705338 -0.002759695 0.003761833 -0.005048788 -0.0022424196 -0.0035908525 0.0025869617
0.0018715729 -0.0012369481 -5.8642225e-05 -2.541412e-05 0.0038761848 -0.0029824793 -0.0020181949 -0.00036236117
0.004700455 -0.0019490684 0.003463023 0.003620945 -0.0038969067 0.00263136 0.0037532013 0.0030044985
0.005315216 -0.0049687712 -0.0023979978 0.002479129 0.0005613099 0.0019760462 0.0007202639 0.0022867199

manager.M_value.0.weight f4 [32, 64]
00000000: d289 173e c50f 273e 3078 1abe aa78 1e3e
00000010: 380b 2b3e 7bc3 00bd e8d4 06bd 60d0 fe3c
00000020: 0f77 0abe af0a a0bd c847 9bbe 3d0a 0b3e
00000030: fc74 133c 86b9 66ba b7d8 a43d 5c5a 40bd
00000040: 49d7 b13d 2675 08bd 4619 e2bc 618f 88bc
00000050: eed7 f73b 102c 16bd 0906 00be 4e85 573e
00000060: d960 d2bc 96d1 903e c20a b43d d294 73be
00000070: c934 273d 560d 3f3c 5567 24be dec3 293e
00000080: c78f 0d3e 4eda 083e ffaa 49bd 23c6 bbbd
00000090: 10fc d13d 9557 65bd 3676 aabc 8321 b53d
000000a0: 81ab 103e d6b4 aa3d bf93 e4bd bc0e 24bb
000000b0: 0ef3 26be 6400 49be 81ce 483d 4315 3b3e
000000c0: da6c bb3d cef7 72bd ec6d e23d 283e 8a3d
000000d0: 9a28 643e 2f5e a43c 3211 16be 8670 bebb
000000e0: 52d8 4dbe 237f 8b3d cc37 bdbc ae2a 793d
000000f0: 2ee1 00be 5b10 45be 947d f73d 54df 273e
00000100: 03fd 29be 9a77 523e 20fb 0abd 0fe3 32bd
00000110: 0af1 d23c 4bc2 443d 9a7e 1abe 214a 283d
00000120: 3060 2cbd 54b6 aabe cfb9 de3d b33d 553d
00000130: 298c a9be 00ac c73c 30dc 2abb 2cd7 cabd
00000140: 0dcd 643d 5abf 803c d0f7 2d3e 6f0f 4cbe
00000150: 68bc 17bc 6926 913d 9470 cb3d 25d2 333d
00000160: 43f7 e4bb 5114 92bd 2f83 e13d 4973 32be
00000170: 42b8 1abe b8eb 73bd f6b5 21bd 5b33 233a
00000180: 55e3 193e f590 5c3b a9f8 cf3d a196 293e
00000190: c191 093e 89dc 453e a254 f43c a639 88bd
000001a0: e445 893c e728 453c 2ad5 913e b4f2 d53d
000001b0: 93a8 75bd 8d5b b13d 5531 823e 493e d7bd
000001c0: 875a 35be 269a 143d 79b1 d83c 2184 14be
000001d0: 78d1 a6bd 32b8 753d aecf 003e 0c20 12be
000001e0: d800 533d 457e 713d 31ca db3d 3b49 013e
000001f0: c849 3fbe 1889 c8bd 95cd 583d 37aa 9cba
00000200: 07a4 11be db4f b5bd 9238 153d d74e 503e
00000210: e247 8a3c d0dc 11bd 2229 2d3c 0fed 223d
00000220: 4235 f13d 17eb 743e 89d3 3bbd 3905 113e
00000230: a5b1 1fbd 3101 383d 6673 4dbb 190d cdbe
00000240: 5660 9bbc e1e0 273e 6b2a 34bd 49af 843d
00000250: 90c8 84be bea9 253e 4c35 1b3e ab95 113e
00000260: 8bd3 063e 9724 8cbd 13a1 a7bd 1202 0cbb
00000270: 8152 313e 8f4a 563e 4b5b 243d f067 95bc
00000280: c7ff 173e 3c62 d63d 1fd1 f6bd 1daa babd
00000290: 0b5a 313d bf01 f2ba 1e1c c6bb 7133 273e
000002a0: 8196 ff3d 7135 273e 4d97 753d bef3 c43d
000002b0: f6a7 243e b374 963d 524f 24bd 8da5 26be
000002c0: 9f8d 0f3e af8e d93d 5b6b 1cbe 2c22 793b
000002d0: e23e dbbd 777b 91bc ee30 aa3d 510f 99bc
000002e0: fe7c b9bb be19 debc 637c 3a3e ee45 8cbb
000002f0: 7e49 0bbe 2971 f23c 5bc6 63b9 ca1a 883e
00000300: 7fb7 3c3e e0e2 9cbd 09c6 953e 6214 433d
00000310: 8880 48be 9d69 10bd 8aeb 1ebe f8bc bf3c
00000320: 0a81 12bb c1db 93bd fd7f 2d3e 8048 a63d
00000330: 3065 b33c a23f 85bc a293 853d 3844 4a3e
00000340: 2497 6b3c 6124 743c 34a9 27be d20b a73d
00000350: d977 69bd c5dd 063b 4b8d 07be 64e9 e8bd
00000360: b06d a8bc c220 843e a1d2 8bbd b0d2 57bd
00000370: 5f55 4bbe f592 3d3e 079e b8bc bd67 6c3d
00000380: cc67 06bd 22de d13d 73ab 02be 6f61 42bd
00000390: 2e98 8d3d 7732 583d e390 76bc f9af 6bbd
000003a0: 48e4 5c3c e62b a9bd 316f fe3d 4af4 c3bd
000003b0: 0088 753d 529a 763e 162d 223e 284a 0c3c
000003c0: 205a 913e 4bbd 1a3e bbe6 eebd 9726 d03c
000003d0: 5665 93bd f71d 483e fd04 64be 251c eb3c
000003e0: 84cd 89bd f1b0 793c f438 893e 7933 483e
000003f0: 5fc7 d1bc 7433 9b3c 70fb aa3d 5874 90bd
0.14798668 0.1631461 -0.1508491 0.15475717 0.16703498 -0.031436425 -0.032917887 0.03110522
-0.1352198 -0.07814538 -0.30328202 0.13578124 0.009000059 -0.0008801449 0.080491476 -0.046961173
0.086836405 -0.033314846 -0.027599942 -0.01666993 0.0075635826 -0.036663115 -0.12502302 0.21046945
-0.025680946 0.282849 0.087911144 -0.23787239 0.040821824 0.011660894 -0.16055043 0.16578624
0.13824378 0.13364527 -0.04923534 -0.09168651 0.10253155 -0.055991728 -0.02080832 0.088442825
0.14127924 0.08335273 -0.11160993 -0.0025033196 -0.16303656 -0.19629055 0.049025062 0.1826983
0.09151621 -0.059318356 0.11056122 0.067501366 0.22281113 0.020064441 -0.14654997 -0.0058117537
-0.20102051 0.06811359 -0.023097895 0.06083172 -0.12585899 -0.1924452 0.12084499 0.16393787
-0.16600423 0.20553437 -0.033930898 -0.04367357 0.025749702 0.048036855 -0.15087357 0.04108632
-0.04208392 -0.3334223 0.10875284 0.052060794 -0.33114746 0.024374008 -0.0026071183 -0.09904322
0.055859614 0.015716244 0.16989064 -0.19927762 -0.009261228 0.07087404 0.09933582 0.04390158
-0.0069874837 -0.07132781 0.110113494 -0.1742679 -0.15109351 -0.05955097 -0.039480172 0.0006225609
0.15028127 0.0033655737 0.1015485 0.16561367 0.13434507 0.19322409 0.029825512 -0.066516206
0.01675696 0.012033678 0.28482944 0.104466826 -0.059975218 0.0866004 0.25428262 -0.10509927
-0.17710315 0.03627982 0.026451813 -0.14503528 -0.08145422 0.059990115 0.12579224 -0.14270037
0.051514477 0.05895831 0.10731924 0.12625591 -0.18680489 -0.097917736 0.052930433 -0.0011952583
-0.14222728 -0.08853122 0.036430903 0.20342575 0.01687998 -0.035610974 0.010568889 0.039776858
0.11777736 0.23917805 -0.045856033 0.14162149 -0.038987774 0.04492301 -0.00313493 -0.40049055
-0.018966835 0.16394378 -0.043985765 0.064787455 -0.25934267 0.16178033 0.1515705 0.1421725
0.13166635 -0.068429165 -0.08185019 -0.0021363539 0.17316629 0.2092688 0.040126126 -0.018238038
0.14843665 0.104679555 -0.120516054 -0.09114478 0.043298762 -0.0018463655 -0.0060458323 0.16328217
0.12479878 0.1632898 0.059958745 0.09616803 0.16079697 0.07346477 -0.04011471 -0.1627409
0.14018868 0.10622918 -0.15275328 0.0038014753 -0.10705353 -0.017759068 0.08310114 -0.018684061
-0.005660652 -0.027111884 0.18211512 -0.004280797 -0.13602254 0.029594975 -0.000217223 0.26582938
0.18429373 -0.076604605 0.2925265 0.04762686 -0.19580281 -0.03525697 -0.15519539 0.023405537
-0.0022354745 -0.07219649 0.16943355 0.08119297 0.021898836 -0.016265694 0.06522299 0.19752586
0.014379296 0.0149012515 -0.1637314 0.081565514 -0.05699906 0.0020578962 -0.13237493 -0.11372641
-0.020560116 0.25806242 -0.06827284 -0.05269116 -0.19856785 0.18513091 -0.02253629 0.05771612
-0.032813832 0.102474466 -0.12760715 -0.0474562 0.069137916 0.052782502 -0.015049192 -0.057540867
0.013482161 -0.08260326 0.12423552 -0.09568079 0.059944153 0.24082306 0.15837511 0.008562602
0.28389072 0.15111272 -0.11665102 0.025409026 -0.07197063 0.1954268 -0.22267528 0.028699944
-0.06728652 0.01523994 0.26801264 0.19550885 -0.025607763 0.018945433 0.08348739 -0.07053441

manager.M_value.0.bias f4 [32]
00000000: aa29 42bb b88c c6bb d145 463b e701 28bb
00000010: 66b7 67bb 04c4 68bb df2b 493b 2c84 ff39
00000020: 1a94 683b e9dd 81bb 83f9 59bb 1a41 59bb
00000030: f3fc f439 ffaa 76ba 0b31 51bb 14a0 393b
00000040: 5f05 253b a07e 79bb 28be 463b 3c80 733b
00000050: 6c36 483b 9a73 52bb c832 65bb 5640 85bb
00000060: 262a 243b a0a0 513b 1944 463b 5cfd 13bb
00000070: 7e6d 2dba c588 6bbb cab7 4c3b 4ea6 ec3a
-0.0029626884 -0.0060592555 0.0030254016 -0.00256359 -0.0035357117 -0.0035517225 0.0030696315 0.00048735866
0.0035488666 -0.0039632213 -0.0033260293 -0.0033150376 0.00046727768 -0.00094096357 -0.00319201 0.0028324174
0.0025180203 -0.003806986 0.0030325744 0.003715529 0.0030550016 -0.003211236 -0.0034972895 -0.0040665073
0.0025049536 0.003198661 0.0030252992 -0.0022581434 -0.0006615742 -0.0035939675 0.0031237477 0.0018054934

manager.M_value.2.weight f4 [1, 32]
00000000: 43ca e93d bfe2 443e 6aa8 adbe d66b 073e
00000010: 85cc 673e 82cc d23d ea81 62bd afa1 33bc
00000020: b631 64be ccd8 2a3e f5bc 0b3e ea02 e73d
00000030: 21b3 51bd eafd 8f3d 8d92 ef3d 2251 94bd
00000040: 8f9c a6bd 8efa aa3d d811 19bd ded1 5dbd
00000050: f88e 0abe 9df4 203e d913 a03e f5ab a73e
00000060: 68e3 c6bc 75bf 75be a3da 57be 1fb3 753d
00000070: 0447 4bbe 09c8 d83e b8ab 78bd c9a4 8fbd
0.114155315 0.19227122 -0.33917552 0.1322473 0.22636612 0.10292913 -0.055299677 -0.010963841
-0.22284588 0.16684264 0.136463 0.11279853 -0.05119622 0.07030852 0.11697874 -0.07242037
-0.0813533 0.08348571 -0.037370533 -0.054155223 -0.13531101 0.15718313 0.31265143 0.3274838
-0.024278358 -0.23998816 -0.21079497 0.059985276 -0.19851309 0.42340115 -0.06071064 -0.07013852

worker.f_stateW.0.weight f4 [128, 64]
00000000: 5f0e 7f3d c131 4e3d 8cdd 54bd 4618 1ebd
00000010: 1497 afbd 5bfe 5e3d 36bb 26bc e542 4fbe
00000020: 34c6 c53d cbd0 a8bd 173e 8bba 8a5e 99bb
00000030: 10ec 3dbc 532b e13c ce7d 073e 8971 debc
00000040: 1c2a bf3d 1f2c 9ebb 7896 6c3e 7aca b7bd
00000050: 21b2 e4bd 3e4d f5bd 3829 07bd 53cf ae3c
00000060: 9bec 5c3e 56d2 c0bd 7913 1d3e 1ef6 f5bd
00000070: e190 e8bc 8797 febc 680d 9b3d 97cd 413d
00000080: bad8 ca3d 3a1a 503d cf2a a63b 9812 9e3c
00000090: 0fc7 dcbc 0f2a b8bc 2cde 8a3d 5f4d 91bd
000000a0: 1104 19be ecd9 7d3d f95c a73d 2346 3a3b
000000b0: aacb 41bd c819 153d 8573 dfba 6c99 673d
000000c0: ef14 5bbd 32d5 fbbd 5520 7a3d 788f 833d
000000d0: fcaf fc3d e6a9 7ebd 2a5f 663d 6293 1cbe
000000e0: 1208 48bc a9cc ee3c 002a 16be 61b1 2e3c
000000f0: 3025 943c 846e fc3d 9fe0 123d b4d7 b7bc
00000100: 771b 303d fa4d 083d 937a 0dbe 6bb6 4cbd
00000110: 1a94 bfbd c599 943c 87e6 c43d 7598 1a3d
00000120: 32ce e23d b65d 713d 7047 fb3c a1b4 e9bd
00000130: 6c9b c3bb a297 cebd bd76 993c 8c1c 313b
00000140: cb5a a33d 0789 493d 79ee 42bd e84c 2f3d
00000150: bc5f 8b3d 194e 6ebb 26e7 893d b0f4 dbbc
00000160: c739 89be f069 c9bd 61dd ae3d 569c c7bd
00000170: 30a4 ae3c 25e4 213e 94bc ef3c 1d22 95bd
00000180: c878 bbbd 849c bbbd 141f ffbb 1682 16ba
00000190: 30bd 1cbd b959 b2bd 2bd5 cb3c cba0 a8bd
000001a0: 6cba 2d3d a1fc e9bd fb9d 11bd e6f8 a73d
000001b0: 95ec 0b3c fb19 a73d 7a9c 35be 29b9 d6bd
000001c0: 7e88 373e c3c0 bb3b 6392 c93d a71a 0dbe
000001d0: ecea 143e 11c8 103c d790 c0bd 2892 173e
000001e0: 9d37 083d 743f e83d 9d68 db3d 1a33 033e
000001f0: 7bfc 0f3c 86e5 c93d f29a 933d 31c9 95bd
00000200: 3c26 3ebc a68a 9cbc 5b88 0bbe 8330 293e
00000210: fdde c9bd f586 fdbc bd1a e0bd 08b4 b53c
00000220: 12db de3d 1d19 9abc 5a25 873d bc23 e3bd
00000230: f296 90bd 4d08 1e3d b1ca a3bc 7f6c 40bd
00000240: 292a 51be 7bf9 6bbd 881f 1bbd 98c8 dabd
00000250: 07c7 9b3d 2123 553d bf74 7e3b 62cd 243e
00000260: 257e ed3d 1d04 873d 0cce 253d 9763 893c
00000270: 9db4 583d becb 82bc 4125 da3a faff b63d
00000280: 1b7a debd 23af 9abd d6b5 54be 04df d0bc
00000290: 0edd 45bd 9a0b b03c 904d e039 b94f 0c3d
000002a0: 5d48 88bd 0522 383d 6636 88bc b371 c73d
000002b0: 8fb0 d8bd 7ade 293d 6ec9 b93d 2125 adbd
000002c0: 7b5e 4c3d fd36 ae3d ec35 fe3d d468 933c
000002d0: ae1e 963d a851 0fbd 16cf 2ebe 8cc5 02be
000002e0: e0e5 243d bd55 e3bc c421 463d ae59 ae3c
000002f0: 311b 77bd b8f3 b4bd a098 3b3d 49bb 253e
00000300: 3301 0dbe 2892 85bc c8d4 ec3d 97bc a13d
00000310: b302 86bd 1de0 eebd 25c6 b4bd 8f3d 123a
00000320: 2311 0d3c bd40 39bd b727 783d 7f02 17be
00000330: fd44 10be 15ab 82bd 2004 b7bd ca8d 4c3e
00000340: 51f6 fbbc 6015 0d3d 90f0 07be 031e 6a3c
00000350: ac08 2fbe 5790 e9bc 0505 3cbe 22b7 54bd
00000360: 2c77 c5bd 0bab 78bd a9e1 543d f028 2dbe
00000370: 2ed4 8abd ed0c 713d d712 1f3d 749a 4abd
00000380: 1f9a 473d 51ea ee3c 91ef ac3d 2ca6 053e
00000390: 0426 173c ac8a d33d c418 ea3c ee08 ae3d
000003a0: c169 503c 916b c53b 1152 f63d 4222 12be
000003b0: 2bf3 18be 3683 b53d d0a8 653d 9127 b93b
000003c0: f558 3dbe e8d8 213d 6cee ee3c d2a4 e0bc
000003d0: fa99 e4bd cc9a 23bd abed a3bb 1c02 d9bd
000003e0: 1536 adbd dc6b 703d 57af 39bd 2d71 ecbc
000003f0: 5978 c93c 814d 27be ebe8 b03c 4913 27be
0.062269565 0.050340418 -0.051969096 -0.038597368 -0.08573738 0.05444179 -0.0101764705 -0.20240362
0.09656945 -0.08242949 -0.0010623363 -0.0046804594 -0.011591926 0.027486479 0.13231584 -0.027153747
0.093342036 -0.004827037 0.23104274 -0.08974166 -0.11166788 -0.119776234 -0.032998294 0.021339094
0.21574633 -0.094151184 0.1533946 -0.12009834 -0.028389396 -0.031078113 0.075709164 0.047315206
0.099046186 0.05080626 0.005071021 0.019295976 -0.026950387 -0.022480993 0.06780657 -0.070948355
-0.14942957 0.061975405 0.0817203 0.0028423152 -0.04731337 0.03640154 -0.0017047977 0.0565428
-0.05348676 -0.12296523 0.06106599 0.06423849 0.12338254 -0.062173747 0.0562431 -0.15290597
-0.012208955 0.029150324 -0.14664459 0.010662408 0.018084139 0.12325767 0.035858747 -0.022441722
0.042994943 0.03327749 -0.1381629 -0.049978655 -0.0935442 0.01813973 0.09614282 0.03774305
0.11074485 0.05892726 0.030673712 -0.11411405 -0.0059694555 -0.100875154 0.018733377 0.0027025072
0.07976302 0.049202945 -0.047590706 0.042797953 0.06805369 -0.0036362468 0.06733541 -0.026850075
-0.26801893 -0.09834659 0.085383184 -0.097466156 0.021318525 0.15809686 0.029264726 -0.07281897
-0.091538966 -0.09160712 -0.007785687 -0.000574143 -0.03826636 -0.087085195 0.02488192 -0.08233794
0.042414114 -0.11425138 -0.035551053 0.082017705 0.008540292 0.08159252 -0.17735472 -0.10484535
0.17923161 0.005729766 0.09842374 -0.13779698 0.1454274 0.008836762 -0.09402626 0.14801848
0.033256162 0.11340228 0.10713313 0.12812462 0.008788223 0.09858231 0.07207288 -0.07313765
-0.0116057955 -0.019109081 -0.13626234 0.16522412 -0.09856985 -0.030948142 -0.109426 0.022180572
0.10881628 -0.018810803 0.06598921 -0.110908 -0.070600405 0.038582135 -0.019994112 -0.04697847
-0.20426239 -0.05761097 -0.037871867 -0.106827915 0.07606321 0.052035455 0.003882691 0.16093972
0.11596326 0.065925814 0.040479705 0.016771121 0.05290662 -0.015966292 0.0016643183 0.089355424
-0.108631335 -0.07552936 -0.2077249 -0.025496967 -0.048306517 0.021489907 0.00042782398 0.034255717
-0.06654427 0.04495432 -0.016627502 0.09738483 -0.10580551 0.041471936 0.09071623 -0.084543474
0.04989479 0.08506582 0.124126285 0.017994322 0.073300704 -0.034989983 -0.17071185 -0.1277067
0.04025829 -0.027750844 0.048372045 0.021282997 -0.060328666 -0.08835548 0.04579985 0.16184725
-0.13769989 -0.016305044 0.11564022 0.07897299 -0.065434836 -0.1166384 -0.088268556 0.0005578631
0.008610043 -0.045227755 0.06058475 -0.14747046 -0.14088817 -0.063802876 -0.08936334 0.19975963
-0.030757101 0.034444213 -0.13275361 0.014289382 -0.17093152 -0.02851121 -0.1836129 -0.05193246
-0.09641871 -0.060709994 0.05197302 -0.16910148 -0.06778751 0.058850218 0.038836326 -0.049463704
0.048730966 0.029164465 0.08444131 0.13051671 0.009225372 0.10329184 0.028576262 0.08497797
0.012720526 0.006024786 0.12027372 -0.14270881 -0.14936511 0.08862917 0.056069195 0.0056504686
-0.18490966 0.0395135 0.029166423 -0.027422342 -0.11162181 -0.039942548 -0.0050026975 -0.105961055
-0.08457581 0.058696613 -0.045333233 -0.02886256 0.024593519 -0.16338159 0.021595439 -0.1631595

worker.f_stateW.0.bias f4 [128]
00000000: d048 df3b 14ee 843b dedf 82bb a57c 043b
00000010: a3b6 2bbb 08c8 dbba 93da d3bb a1b4 2dbb
00000020: eaab 8b3b feb6 ab3a 63c3 883b 5cf4 d73b
00000030: ad66 4e3b 016b 99bb 5a01 cbbb 7b06 97bb
00000040: ee86 c4bb 0a67 873a e572 343b d931 2d39
00000050: 72e2 59bb 6a19 15bb c390 9f3b cd14 ae3b
00000060: ab91 f6b9 c6e4 a8b9 3376 a93b aaea 413b
00000070: 4ff7 98bb afc0 36bb 3806 6e3b 9682 5ebb
00000080: d54d 54bb 900f d73a 93c3 6dbb 6cce ce3b
00000090: d6eb 33bb e088 a23a 869e 843b 4b94 81bb
000000a0: f43b 03bc 8109 503a 8a05 92bb 4ee3 abbb
000000b0: ac1b 81bb 0244 da3b 429d 123b f289 a63b
000000c0: a82c f739 db54 a3b9 7a5e 5a38 444e e83b
000000d0: 97b6 8fbb 7f68 223b e52b 973b cbd5 833b
000000e0: 373d f33b 2227 98bb 2994 793b d32e 893b
000000f0: e815 da3b 4c98 89bb 4015 b9bb f5db 033a
00000100: 703e a23b 8f7f 0b39 9dd5 013c dfab faba
00000110: 00e4 ed38 a7c9 383b 9576 da3b 6142 fdbb
00000120: b94f bf3b 0c49 99ba fc6c bcbb b851 dd3b
00000130: 5a82 b33a 937c 1ebb 0bb3 1bb9 944d 883b
00000140: 5e40 fdbb 7316 c43b 7eaa a33b b90a 12bb
00000150: effb a03b 255c 7c3b 2e46 08bb 6439 9dbb
00000160: 968a 8e3a 6dd4 b9ba 4cae 3e3b 720f afbb
00000170: 1001 ddb9 d73d eebb d50f be3b f8fb acbb
00000180: c97a ea3a 7918 65bb 7033 97b9 fa28 033b
00000190: be8c 3b3b 50dd 90bb 0b83 a03a 2a4e ee39
000001a0: 8087 9cbb e04a 163b f5d9 7d3b 3829 27bb
000001b0: 2aa2 cdbb aa4d 57b9 3b1b 983b 7496 863b
000001c0: 7c95 083b 6e27 81bb 2c7f abbb 6b96 b7bb
000001d0: 7626 5ebb 6e4e c4bb eb16 d33a b63d fd3a
000001e0: b01f d63b ee68 acbb 98bf 6abb 89bc baba
000001f0: 76e9 bcba c419 e8b9 0e6a 19bb 018d fe39
0.0068141 0.0040567014 -0.003993972 0.0020215895 -0.002620139 -0.0016767988 -0.006465265 -0.0026505368
0.004262437 0.00131008 0.0041736825 0.006590409 0.0031494305 -0.0046819453 -0.0061952295 -0.004608927
-0.00599753 0.0010330391 0.0027534303 0.00016517135 -0.0033246544 -0.0022750744 0.004869552 0.0053125382
-0.00047029307 -0.00032213907 0.005171561 0.0029589334 -0.0046681534 -0.0027885844 0.0036319625 -0.0033952347
-0.0032395024 0.0016407836 -0.0036279901 0.0063112285 -0.0027453802 0.0012400411 0.004047218 -0.0039544455
-0.008009899 0.00079359865 -0.0044562267 -0.0052456027 -0.0039400663 0.006660939 0.0022371565 0.0050823623
0.00047144783 -0.00031153005 5.206324e-05 0.007089408 -0.00438578 0.0024781523 0.004613387 0.004023289
0.007423069 -0.004643337 0.0038082695 0.00418649 0.0066554435 -0.0041990634 -0.005648285 0.00050300296
0.004951291 0.00013303592 0.0079244645 -0.0019124708 0.00011343509 0.0028196366 0.006666968 -0.0077288602
0.005838361 -0.0011694743 -0.0057502966 0.0067541264 0.0013695464 -0.0024183139 -0.0001484865 0.0041596387
-0.0077286204 0.0059841215 0.0049946895 -0.0022284223 0.0049128453 0.003850707 -0.0020793783 -0.0047981013
0.0010875042 -0.0014177688 0.0029095588 -0.0053424174 -0.00042153196 -0.0072705555 0.005800227 -0.0052790605
0.0017889376 -0.0034957214 -0.00028839288 0.0020013438 0.0028617824 -0.0044209138 0.0012246085 0.00045453134
-0.004776895 0.0022932813 0.003873465 -0.0025506746 -0.006275435 -0.0002053293 0.004641918 0.004107291
0.0020841053 -0.003941468 -0.005233666 -0.005602648 -0.0033897436 -0.005990795 0.0016104853 0.001932076
0.006534539 -0.005261532 -0.0035819765 -0.0014246862 -0.0014412838 -0.00044269685 -0.002340916 0.0004855171
