vwgym/saved_model/vwgym_f_net_step_500000.pt (torch_old, 356487 bytes, 51 tensors)

f_percept.percept.0.weight f4 [16, 3, 3, 3]
00000000: bbc6 5c3e 7bf4 83bd d9f1 9cbe 1aac 1e3d
00000010: 142e a33d d1ea 433e ac28 ddbd cdb0 95be
00000020: 06ac 663e c236 ad3e ee9f b3bd f24c 213e
00000030: 4ef3 f53d 7943 bb3d 848e 1b3e 93ca 073e
00000040: 2eb8 0e3e 3275 72be 78dc f2bc 4f05 883c
00000050: dbe5 723e 3b00 fc3d a2bf 51be a14e 9abe
00000060: 6501 cc3e 5e8c 6b3d c1a0 f9bd cb89 e4bc
00000070: d34d e43e c872 ef3d 65d9 8e3d 53d9 453e
00000080: d0d5 393e 0217 aabd 47ca 383e ab3c b2bd
00000090: cea4 d43c 7007 473e d51e ec3d 34ff 3fbe
000000a0: 5207 41ba 27c6 a5bc 277f 903e 0149 f43e
000000b0: e67d a83e 40a2 50bd 7da5 223e e06c 6a3e
000000c0: ac63 9d3c 0a99 e73c 8f12 283e 83b0 533e
000000d0: 1b7b adbb 6a48 9b3d bf15 643e e530 8abe
000000e0: 2633 96bd d99e 88be b509 713d ed70 143e
000000f0: c3ed 773c 0f80 3d3d 9487 82be 489e a7be
00000100: 46ee 40be 3592 363e ca1e 033e 65fa 92bd
00000110: ce95 33be 6ef9 503e dd8a 81bc 5301 09be
00000120: d6d1 2a3e cf3c 1a3d cfee 9a3e 108b 993d
00000130: c6e3 68be 47dd 953e 4cfa e5bb c504 aebe
00000140: b8de 4f3e 9124 c63e 7e1e 033d 4eb8 fa3d
00000150: 5e60 02be edad 5bbe 535a ac3b c767 49be
00000160: 6552 fb3d cf57 21be 68fc 90bd 4fb5 833d
00000170: dbb0 a93c 8086 eabd d315 98bd 928a 0b3e
00000180: 1c02 3fbe 1813 1dbd ec22 e1bd 74b6 c5be
00000190: e3b8 833e 0e93 72be 532b 103f 58e3 6eba
000001a0: 435d dd3c 879d a33d 9c3c e439 e1f7 08bd
000001b0: ab8d 72be 7deb 41be a124 6a3d 923c ae3d
000001c0: 6205 8cbb 0b2a a5be 23cf 8f3d 942b c03d
000001d0: e87a 183d 5e91 2bbe 6bf0 f6bc aadf 7a3e
000001e0: 332c 9b3d e0ef f03e c060 1b3e ff46 253d
000001f0: 7643 653c 1c6b fd3d b9e6 b9be c5ab 99be
00000200: 89a3 913e 7e2f 873e 7d9e 793d 4b0e c83d
00000210: 41e0 c53d 0241 47bd 0823 c1bd a123 c6be
00000220: e41b 343e 50e0 eebd d131 fcbd 378e 0a3d
00000230: 56c9 a5bd 1ee3 85be 4374 07be caea 65be
00000240: b512 54be 8087 b4be 3176 5c3d c0bc 2bbd
00000250: 387d e33d e7df f2bc 7110 6ebe ff13 8d3d
00000260: dbb0 46bc 419d 98bd 5407 c63d 103e 80be
00000270: 8217 babd a434 95bd 8011 70be 5dc7 9e3e
00000280: 6e8f b2bd dd83 d33e 9894 3fbe 9bdd debd
00000290: c676 963d 8d46 a2be 23c8 363e 82db 21be
000002a0: 8064 3d3e 1688 de3e d357 cd3d 3586 813e
000002b0: dbb9 4abe a5a3 243c 3823 9c3e add1 b0bd
000002c0: 7ad7 893d 1047 603e 731f c23d e5eb 4abe
000002d0: 55ef 55be dfb7 ca3e 87a9 f9bc 079f f2bd
000002e0: a733 ce3d e4d1 523c 7d37 7b39 d7ea 463e
000002f0: 7d1a 8b3c f407 143e b623 f43a b4fb 613d
00000300: 4df1 5a3e 5798 a13d d567 b2bd 0f4e bcbe
00000310: 84a6 953b 564b b33d 9578 723d 1cda 26be
00000320: 6a06 d33d a656 c53d f4f2 d2be 4e9f adbd
00000330: b90c a73e 6b03 d1bd 8a0c fbbc 796f adbe
00000340: 4ffd c0be c509 31be 71bd 2ebe 754e 753e
00000350: 77b5 953d 8baf 6e3d 86cd 49be 8952 823d
00000360: 3998 373e f6a5 8a3d 9ee7 c8bc 9e65 103d
00000370: 924c 0dbd ce12 433e bc91 863d 2ce1 263e
00000380: 54e2 17bd 57c7 82be 5cb6 bd3e dc59 163e
00000390: af82 c53e acca 053e 3f87 233e 81b3 bcbc
000003a0: 84c2 4fbd 27e8 5a3d f0be 86be d0e8 8fbd
000003b0: 901e 5bbe 8948 c8be 2f71 c9be ea03 28be
000003c0: 0f61 06bc 7fad 693d 0371 b23d d8ce 71bc
000003d0: e17f bdbd e97e e6bc 81ad a5be cb2d ce3c
000003e0: f014 b6bd b2b8 30be 80ff 60be c4ea 8f3e
000003f0: 348d 9dbc d610 37bd 423b a7bd e5d7 ad3e
0.21560185 -0.06443115 -0.30653265 0.038738348 0.07967773 0.19132544 -0.10798773 -0.2923645
0.22526559 0.3383084 -0.087707385 0.15752009 0.12009297 0.09143729 0.15191084 0.1326087
0.13937446 -0.23677519 -0.029646143 0.016604094 0.23720495 0.123047315 -0.20483258 -0.30138114
0.39844814 0.05750691 -0.121888645 -0.027897736 0.44590625 0.11691815 0.069750585 0.19321184
0.18147969 -0.0830517 0.18045913 -0.08702978 0.025957491 0.19436431 0.11529318 -0.18749696
-0.00073634565 -0.020236088 0.2822201 0.47711948 0.32908553 -0.050935984 0.15883441 0.22893095
0.019212566 0.028271217 0.1641333 0.20672803 -0.0052942163 0.07582171 0.2227392 -0.2699043
-0.073339745 -0.2668369 0.058847148 0.14496203 0.01513237 0.046264704 -0.25494063 -0.32737947
-0.18840894 0.17829211 0.12804714 -0.07176665 -0.17537615 0.2040765 -0.015813285 -0.13379411
0.16681609 0.037655648 0.30260321 0.07497227 -0.22743139 0.29270384 -0.007018363 -0.33988014
0.20299804 0.38699773 0.0320115 0.122421846 -0.12732074 -0.21453066 0.005259791 -0.19668494
0.12271575 -0.15756153 -0.07079393 0.06431066 0.020714214 -0.11451435 -0.07426038 0.13627079
-0.18653148 -0.038348287 -0.10992989 -0.38615763 0.25726995 -0.2368891 0.5631611 -0.00091128564
0.02702201 0.0798903 0.00043532706 -0.03343952 -0.23686855 -0.18937488 0.05716384 0.085076466
-0.0042731026 -0.3225864 0.0702193 0.09383312 0.037226588 -0.16754672 -0.030143937 0.24499384
0.0757679 0.4705801 0.15173626 0.04035091 0.013993135 0.12373945 -0.3630884 -0.30013862
0.2844508 0.2640342 0.06094216 0.09768351 0.09661914 -0.04864598 -0.0943051 -0.38699058
0.17588764 -0.11663878 -0.12314189 0.033827033 -0.080950424 -0.2614984 -0.13227944 -0.22452846
-0.20710261 -0.35259628 0.053823654 -0.041928053 0.11107868 -0.02964778 -0.2324846 0.068885796
-0.012127127 -0.07451869 0.096693665 -0.2504735 -0.09086515 -0.07285431 -0.23444176 0.31011477
-0.08718763 0.4131154 -0.18709028 -0.10882112 0.07346873 -0.3169445 0.17849784 -0.15806392
0.18495369 0.434632 0.10026517 0.25297704 -0.1979746 0.0100487815 0.3049562 -0.086337425
0.06730552 0.21902108 0.09478655 -0.19816549 -0.20892079 0.39593408 -0.030476345 -0.11846738
0.10068446 0.012867425 0.00023957896 0.19425522 0.016980404 0.14456159 0.0018626365 0.055171683
0.21381111 0.07890385 -0.08711211 -0.36778304 0.0045669693 0.087546036 0.059197027 -0.1629414
0.10303958 0.096356675 -0.41200984 -0.084776506 0.32626894 -0.1020573 -0.030645628 -0.3387411
-0.3769326 -0.17288883 -0.17064454 0.2395571 0.07310002 0.05827288 -0.19707307 0.063633986
0.17929162 0.06769936 -0.024524506 0.03525316 -0.03449685 0.19050142 0.065707654 0.16296834
-0.037081078 -0.2554271 0.37053192 0.14682716 0.38576266 0.13065594 0.15969561 -0.023034813
-0.050722614 0.053444054 -0.2631755 -0.07026827 -0.21398377 -0.3911784 -0.39344165 -0.16407743
-0.0082018515 0.057050224 0.087129615 -0.014758788 -0.092529066 -0.028136687 -0.32358935 0.02516832
-0.08890712 -0.17257956 -0.21972466 0.281088 -0.01923237 -0.04469379 -0.081655994 0.33953777

f_percept.percept.0.bias f4 [16]
00000000: cbd0 6cbb 3b84 c43a f755 4c3b 9fba f13b
00000010: 9f19 92bc 770c 103c 81b3 66bc 80d7 19bb
00000020: 1ea1 1a3c c475 393c d63d b63a eacc 433c
00000030: 2078 3c3c cfd8 68bc 82bb 393c 462f 713b
-0.0036135192 0.0014993021 0.0031179169 0.0073769833 -0.017834483 0.008792034 -0.014080883 -0.0023474395
0.009437827 0.011319581 0.0013903927 0.011950711 0.011503249 -0.014211847 0.011336209 0.0036801859

f_percept.percept.3.weight f4 [64, 16]
00000000: db56 373d fff0 163e ae05 d3bd 1980 97be
00000010: dc36 09be 90de edbc d814 e9bd 0af3 0e3e
00000020: 8fe1 dfbc 2600 b03e 7303 233d 7174 c93c
00000030: 4feb 013e 7305 f13e 4a2c e7bd d0b2 d9bd
00000040: 97ff 32be 8965 9ebd c47e 2d3e c361 fb3d
00000050: 84d6 183d 7295 96bd c1b9 1dbe 0cc5 7a3d
00000060: bd49 06be c6c7 063d a310 b23d 2455 713d
00000070: c3af 86be 2434 6d3e 54e8 313e b816 66bd
00000080: e59a 403e b4e9 9e3b 508e 7dbd 994e 28bd
00000090: 0b75 483d ee17 25be 6251 e5bb 6366 38be
000000a0: fdd6 89bc ef78 023d f0e6 683e f003 883d
000000b0: 07a9 adbc fa48 a1bb afb9 de3c 736c 70bd
000000c0: c19a 87bd 90e7 193d fc4f 8bbd 197d 69be
000000d0: ab31 6e3e d62e 2a3e 5868 c93d 4545 453e
000000e0: 92e0 9abd e0e1 e43d 366c 473e ae4c c9bc
000000f0: e9dc 48be 3eb0 8e3d a372 b9bd c57d 08be
00000100: 54e4 2cbe c6f3 223d 417b d83c 7e5c 7bbe
00000110: 44b1 01be b840 3538 f223 04bc a834 d13d
00000120: b821 9bbd 8fb8 163e ac7b aebd d83f 703d
00000130: 8fa3 5a3d 27c1 9cbe 2306 b6bd d2d1 293d
00000140: bc56 7ebe 2699 d33b 1e6b 133e f730 193d
00000150: 8913 b83d 6bd5 2cba af02 0cbe 1899 66bd
00000160: e103 9f3d cf23 20be 8f56 9fbc 18e3 bc3e
00000170: adc9 873d 2b94 88bd 8488 553e 5f8a 253c
00000180: fb14 a63c 402e 6abd 1704 7f3e 04b5 073d
00000190: 68f1 4fbe 7c94 bd3d 127a 90be c5b1 4a3d
000001a0: b2e6 43be d73e 423e c7c5 f63d cc3d 5abe
000001b0: bc95 5d3e ba98 20bd 32c0 3c3d dfcd d43d
000001c0: d4f8 27be d26f bcbd d25c 03bc 91b4 76be
000001d0: 881f e4bd f921 753d 7dca 7b3e 3326 d3bc
000001e0: e20c 2dbe 355b 3bbe 0446 69bd 3c05 27be
000001f0: 2acb 873c e6ad 023e 6237 7dbd 9991 70bd
00000200: c642 2abe e0cc 743d 206e e93d ddf1 bd3d
00000210: cf71 0d3d 722f bebd bd06 343e c5dd 7dbc
00000220: c07c 9abe 2a06 dd3d 9a3a 0fbd a55b a23c
00000230: 1adb 783e 1365 2d3c e5b9 2b3e 31a6 f7bb
00000240: 649f 8c3c 325d 803d d6b6 2abe 01c5 60bd
00000250: dadb 603e b7e3 db3d 90b6 f9bd a27f 653d
00000260: 0d67 5fbe cf25 4dbc 99fc 2dbe b715 8c3e
00000270: c5b3 f8bc 2d57 273d 7c03 9ebb b3db ed3c
00000280: 4f54 d1bd 99ef 5cbd 40fb 81be 6a9f 99bd
00000290: 54d2 b0bd 502b 133d c3b7 e73c ac20 853e
000002a0: a600 c3bd a43e 6f3a 0dfa 98bd 8ead 8d3d
000002b0: d163 09be e1ff 88bd a389 243e 600f 7ebe
000002c0: 5f9c 713d 6768 ccbd a282 eebc 8a9d dd3d
000002d0: 14d3 85be 9055 edbc dd65 f23d 2037 cbbc
000002e0: 1c17 24bd 2a83 29be 1061 f7bd 8d67 fdbd
000002f0: e8cc 85be 89a1 0ebd c268 cabd 8f92 02be
00000300: 0461 0b3e 6d7a 16be 281f af3e f342 8abc
00000310: ddf1 04bd d13e 08be d52f 11bd 60ba 2f3d
00000320: 8e19 a63d 8259 fe3d c822 5dbe 22ec c83d
00000330: d953 e7bd c0c5 13be f6a8 d33c 0fc7 acbd
00000340: ce1e 853e ce45 c73c b597 92bd ea06 733c
00000350: 47cf ad3d 8700 04bd cc13 223e 9fa2 d13d
00000360: 08cb 92be 0c99 5a3c 9970 5e3d b792 7a3e
00000370: b126 b93c 0106 063e 3405 9a3d 68e7 b73d
00000380: 4e59 073e 9d3d a43d a57f a63e 55ea c4be
00000390: cb06 6bbd 0a19 d9bd 0005 143d 5d59 3ebe
000003a0: 8ecf cc3c 127b cd3b 0cb4 23be 6c71 b73d
000003b0: d994 703d bb4e a9bd 48fa 1b3e ef2f a1bd
000003c0: 7c36 c23d e50b 1ebe bc6f 633d d36a 10bd
000003d0: 4245 643e def8 853c af69 64be b6fa 0ebe
000003e0: 2c4f 0f3e 4f7d a13d 3818 983c 91ad 523e
000003f0: 911f 17be 3386 b5bc 12d1 ee3c 62a7 0dbd
0.044760566 0.1474037 -0.10303818 -0.29589918 -0.13399833 -0.02903679 -0.11380929 0.139599
-0.027329234 0.34375113 0.03979821 0.024591656 0.1268742 0.4707447 -0.11287744 -0.10629809
-0.17480312 -0.0773421 0.16942888 0.12274506 0.037313953 -0.07352723 -0.1540289 0.061223075
-0.13114066 0.032905363 0.086945795 0.058919087 -0.2630597 0.23164421 0.17373782 -0.05617401
0.18809088 0.004849637 -0.061903298 -0.04109058 0.048939746 -0.1612241 -0.006998227 -0.18007807
-0.016826147 0.031853613 0.22744346 0.06641376 -0.021198763 -0.0049220296 0.02718815 -0.058697175
-0.06621314 0.03757435 -0.06802365 -0.22801627 0.23261134 0.16619429 0.09834355 0.19264705
-0.07562365 0.11175895 0.19474873 -0.024572697 -0.1961552 0.06967209 -0.09055068 -0.13329227
-0.16883975 0.03978326 0.02642596 -0.24547002 -0.12665278 4.3214037e-05 -0.008065211 0.102151215
-0.07574791 0.14718841 -0.08519682 0.058654636 0.053378638 -0.30616114 -0.08887889 0.041459866
-0.24837774 0.0064574657 0.1439633 0.037400212 0.08988101 -0.0006593081 -0.13672899 -0.056298345
0.07764412 -0.1563866 -0.019450454 0.3689201 0.066302635 -0.06668886 0.20852858 0.010103791
0.020273676 -0.057173014 0.24903904 0.033131614 -0.20306933 0.09256837 -0.28218132 0.04948594
-0.19130972 0.18969284 0.12049442 -0.21312636 0.2163915 -0.03920815 0.04608173 0.10390829
-0.16403514 -0.092010155 -0.008017736 -0.24092318 -0.111388266 0.059846852 0.24588962 -0.02577505
-0.16899446 -0.18296511 -0.056951538 -0.1631059 0.016576368 0.1276165 -0.061820395 -0.058732603
-0.16627035 0.059765697 0.11397958 0.092746474 0.034532364 -0.09286393 0.17580695 -0.0154947685
-0.30173302 0.10792191 -0.034967996 0.01981909 0.2430233 0.01058318 0.16770132 -0.0075576534
0.017165847 0.062677756 -0.16671309 -0.054875378 0.21958867 0.107367925 -0.12193024 0.056029923
-0.21816655 -0.012521221 -0.1699089 0.27360317 -0.030359158 0.04085462 -0.0048221927 0.029035425
-0.10221159 -0.053939436 -0.25387 -0.07501109 -0.08633867 0.035929978 0.028285867 0.2600149
-0.09521608 0.00091264606 -0.074695684 0.069178686 -0.13416983 -0.0668943 0.16068129 -0.24810553
0.058987018 -0.09980851 -0.029115025 0.10821064 -0.26137602 -0.028971463 0.11835835 -0.02480656
-0.0400611 -0.16553941 -0.1207906 -0.12373266 -0.26132894 -0.03482202 -0.09883262 -0.1275122
0.13611227 -0.14695139 0.34203458 -0.016877627 -0.03245722 -0.13305213 -0.035446007 0.04290235
0.08110343 0.12419416 -0.21595299 0.09810664 -0.112952895 -0.14430904 0.025837403 -0.08436405
0.26000065 0.024325278 -0.07157842 0.014833191 0.08486801 -0.032227065 0.15827864 0.10236096
-0.28670526 0.013342153 0.0543066 0.2447003 0.022601457 0.13088228 0.07520524 0.08979684
0.13217661 0.08019564 0.3251926 -0.3846003 -0.057379525 -0.10600479 0.03613758 -0.18588777
0.025001314 0.0062707746 -0.15986651 0.089571804 0.058735702 -0.0826697 0.15232193 -0.07870471
0.09483048 -0.15434225 0.05552648 -0.035258126 0.22292045 0.01635402 -0.2230594 -0.13962826
0.13995045 0.07885229 0.018566236 0.20574023 -0.14758135 -0.022158718 0.029152427 -0.034583457

f_percept.percept.3.bias f4 [64]
00000000: f657 863c 6b90 ea3b dc97 193c 245a f33c
00000010: 9239 873c 991a 2f3d 2f64 e73c e391 d9b8
00000020: 1429 913c 1d88 0dbb a551 343c 54dd 0b3d
00000030: e36f 903c 6cef ce3b 6683 2b3c 71b5 b9ba
00000040: 8890 1d3c 4b5d 093d 6a62 373c 3b1d 183c
00000050: 76fc 6e3c b87e 083c 51b7 773c d25c 473b
00000060: 08b1 903c d288 c83c 6437 eb3c 3fbe 6d3c
00000070: 5faf ab3c 8bc2 16bc 903e 9a3b aaeb 043d
00000080: 28fc a53c 07ec 963c 7e22 3fbc b7fd 29ba
00000090: 4fbf 953c 0596 bb3b e5fe 273d 1a74 2f3b
000000a0: ef5b c63b ae40 bb3c 5475 e2bb 39c9 87ba
000000b0: ab5e 47bc b6f3 523c 706b df3c 55b5 943c
000000c0: 02f9 b43c a2e1 303b 1916 da3c 68ea 033d
000000d0: addc 3e3d e9c4 403c 4dd8 443a e8df 623c
000000e0: fe1c 463c 0100 3b3c ab69 283b e9d1 943c
000000f0: 3615 af3c d52f 0dbc 3ef6 0d3d 2901 113c
0.016399365 0.0071583292 0.009374585 0.029706068 0.016506944 0.042749975 0.028246013 -0.0001037454
0.017719783 -0.0021596022 0.011005794 0.03414662 0.017631477 0.0063151624 0.01046834 -0.0014168454
0.0096169785 0.033536237 0.011192897 0.009284313 0.014586559 0.008330993 0.01511939 0.0030420315
0.01766254 0.024479304 0.028712936 0.01451069 0.020957647 -0.009201656 0.004707165 0.03245131
0.020261839 0.018423093 -0.011665938 -0.0006484645 0.0182797 0.005724671 0.04101457 0.0026772083
0.00605344 0.02285799 -0.0069109593 -0.0010359652 -0.012168567 0.012875488 0.02727291 0.018152872
0.022091392 0.0026989956 0.026621865 0.03220597 0.04659717 0.011765697 0.0007509038 0.013847329
0.012091873 0.011413575 0.0025697749 0.0181665 0.021372419 -0.008617361 0.034658663 0.008850374

manager.M_space.weight f4 [64, 64]
00000000: b63a 8a3c 1dba 17bd dbeb 3abd 4c0a a5bc
00000010: 6a78 543e 3b30 913e 6747 bc3d e811 f2bd
00000020: 75af b3bc 9990 173e f974 e03d c73b 29bc
00000030: 9ecc 4bba 33a9 c03b 8c9c c43d 01e8 a03d
00000040: 0851 14bb 20de fa3c 9ce7 4b3c 3c58 083e
00000050: 792e 733e b8aa 9bbd 378e a83d 59c3 31bd
00000060: caad 01bd 982a 66be 0c15 51bd 8ba1 b5bd
00000070: b9fa e6bc 1825 213d 3acd 48bd 20a7 89bd
00000080: 53a4 4abe bae1 92be c376 1a3d 85c2 17be
00000090: d2a6 c5bd 1db7 b8bc a619 babe e943 e73d
000000a0: 6597 c8bc 6d97 13be 55ab 843d 5e93 e9bd
000000b0: 29b5 4a3d 63a9 73bc 4fb3 f93d b4ff a5be
000000c0: d60f 48be dfb2 a7bd fe09 883d cab6 8bbd
000000d0: 69b2 fb3d 1593 dc3d 306d b9bd dad9 f63d
000000e0: 6ddb 93bc 79f2 fc3d 1bf2 56bd 1dda 7bbd
000000f0: e348 e03c a481 10be cbef f93d f57f 0bbe
00000100: 8feb 093e 20bc 293e 533b 103e 61eb e9bd
00000110: b783 0fbe 31de 0dbc 90de 953d 380d 743e
00000120: 4468 f13d 308c 22bd 653e afbd 310b e33d
00000130: dbaf 52bd b28a 483c d42a 263d 5b3a 2d3d
00000140: af0f 4c3d dfc0 febc 4e97 fb3d 5365 c23d
00000150: 98d3 68bd f2a5 e23d 797f 4bbd ee1b cc3d
00000160: 3e8a 09be 94bd ce3c 521e 46bd 1485 853d
00000170: 1f9a 7ebd 800d 49bd 6c49 00be d386 653d
00000180: 2187 ebbd 6865 593d 593d 00be 12d9 2bbe
00000190: 11e7 82bd de18 2fbe 391a 4b3e 0e2c 273e
000001a0: 2cc7 b83d 19b5 03bd 360f 053e 1883 273e
000001b0: 65b3 1e3e a50c 183e df10 88bd 62af ee3d
000001c0: f25b 76be 18ca 8bbd 3a24 38be 1f7a 523d
000001d0: 653f 533e 2d0a 223e 391e b73d fefe a83e
000001e0: 4770 37be 19c2 6d3e e97b f5bd 8ef6 d0bd
000001f0: e888 9dbd 52d2 9e3c ac02 db3d 28b8 923d
00000200: 1c19 42bd 7ec7 c8bd cfd2 0d3d 0f15 1d3d
00000210: f74b e8bd c91b 68bd 9a8b 0cbe f554 82bd
00000220: 5c54 093d 5277 dfbc dcfa 15be 358c 2bbe
00000230: a0fb c1bd 8199 26be ab40 19be f630 04bc
00000240: ecde eebd 7079 24be 4793 02bd 082a 013e
00000250: 372c 343e d348 77bd 19f8 d33c 2ec0 f83d
00000260: 624d 7d3d 1d55 603e 762a 1bbe 2d91 023c
00000270: 551e 96bb 0787 dcbc 0d3f aa3d ca91 debd
00000280: 740a 0a3e f48c 24bd 9c67 1a3e c8eb ddbc
00000290: ab47 2cbd a6f2 2b3e a774 813d 3d44 95bc
000002a0: de56 743c 7749 d9bd e3ad 803e 1f63 873e
000002b0: ee3e 24be 0314 ee3b b1e6 2cbe eb73 7dbc
000002c0: 00ca ac3d 89e0 42bc cc5d 743d dafd cdbe
000002d0: b75b f4bc 3b16 55bd d160 893d 3cf0 0e3e
000002e0: 62d0 3e3e eb9b 043e de74 f4bc 0f6d 85be
000002f0: cf88 a73c b889 44be 6d59 da3d 4af9 dbbd
00000300: 41de c8bd df1c 1c3b d764 a53d ba6f 70bd
00000310: 52d3 433d 566d 37be 1219 4f3e d78c 02be
00000320: b2b5 0bbe a87c 803d d31d 5a3e 8cb5 8ebe
00000330: ed72 9dbd 94f9 e13d ee36 fe3c 8802 e5bc
00000340: 65c7 1ebe c2b8 c63d 07ca 5a3d 713f 08bd
00000350: da05 b3bb 2c5c 7abd 0ecd 10bd cecf 3e3d
00000360: 1fd5 923d 2f5a 3d3e 52c7 57be 354f 733d
00000370: b231 6abe 7509 f73d 9e3b 1fbe a4ab 9d3d
00000380: 32d3 96bc fc3d 14be e25a 0b3e 120f b13d
00000390: 705f d73d 5d83 4dbe f2ff 733a 9967 d7bd
000003a0: 0821 5d3d ed1e 10be ef1b 3abd a2ee e73d
000003b0: 93db 913e db4e 91bc 9922 7cbc 90e8 03be
000003c0: d92e 763d 0c0d b13e 7e36 a2bc bda8 8cbc
000003d0: be01 23bc 9ece a73b 6142 0b3e 06ca bebc
000003e0: 4e16 08be 74ef a3bc c4f2 17bc f767 33bd
000003f0: 47fc a5bd 22f3 0bbd 32b1 723b 2e37 933e
0.016873699 -0.037042726 -0.045635086 -0.020146511 0.2074906 0.2835711 0.091933064 -0.118198216
-0.02193425 0.14801253 0.10959811 -0.010329193 -0.0007774326 0.005879545 0.096001714 0.07856751
-0.0022631306 0.030623496 0.012445357 0.13314909 0.23748197 -0.076009214 0.0823025 -0.04339919
-0.03165988 -0.22477186 -0.051045462 -0.088687025 -0.028195726 0.039342016 -0.049023844 -0.0672133
-0.19789247 -0.2868784 0.037710916 -0.14820297 -0.09650959 -0.022548253 -0.36347693 0.1129225
-0.024486253 -0.14413233 0.064779915 -0.11405061 0.049489174 -0.014871928 0.121924035 -0.32421649
-0.19537291 -0.08188414 0.06642531 -0.068219736 0.122898884 0.10770241 -0.09054029 0.12053271
-0.018048966 0.123509355 -0.052476984 -0.061487306 0.027378505 -0.14111954 0.1220394 -0.1362303
0.13468765 0.1657567 0.1408513 -0.11421848 -0.14015089 -0.008658932 0.07317841 0.23833168
0.11787465 -0.039684474 -0.08556823 0.11086119 -0.05143724 0.012240099 0.040568188 0.04229198
0.049819645 -0.031097827 0.122847185 0.09491982 -0.056842417 0.11066808 -0.049682114 0.09966265
-0.13431641 0.025236882 -0.04836876 0.06519523 -0.0621587 -0.04908514 -0.12528008 0.05603678
-0.11500383 0.053075224 -0.12523402 -0.16782025 -0.06391729 -0.1709933 0.19834222 0.163254
0.09022364 -0.03215513 0.12994084 0.16358602 0.15498121 0.14848574 -0.06643843 0.11654545
-0.24058512 -0.06825656 -0.1798257 0.051385995 0.20629652 0.15824194 0.089413114 0.33007044
-0.17913924 0.23218574 -0.119865246 -0.102032766 -0.076921284 0.019387398 0.10693869 0.07164031
-0.047387227 -0.09803675 0.03462487 0.03835016 -0.11342614 -0.056667123 -0.13725129 -0.063638605
0.033527717 -0.027278576 -0.14646477 -0.16752703 -0.09471822 -0.16269495 -0.14966075 -0.008068314
-0.11663613 -0.1606195 -0.031878736 0.1261369 0.17594992 -0.060372185 0.025875138 0.1214603
0.061841376 0.21907468 -0.15152916 0.007969183 -0.0045812526 -0.026919855 0.08312807 -0.10867651
0.1348055 -0.040173486 0.15078586 -0.027089968 -0.042060535 0.16791782 0.06321078 -0.018221015
0.014913289 -0.106097154 0.25132665 0.2644281 -0.16039631 0.007265569 -0.16884877 -0.0154695315
0.08436966 -0.011894354 0.059659764 -0.40232736 -0.02982889 -0.052023154 0.067079194 0.1395883
0.18634179 0.12950103 -0.029840883 -0.26059768 0.020450978 -0.1919316 0.10661588 -0.107409075
-0.098080166 0.002382092 0.08075874 -0.0587003 0.047808953 -0.17912802 0.20224407 -0.12749039
-0.1364353 0.06273776 0.2130044 -0.27872884 -0.07687936 0.110339314 0.031032052 -0.027955309
-0.1550575 0.097032085 0.053415325 -0.033263627 -0.005463344 -0.06112306 -0.035351805 0.046584897
0.07169556 0.18491434 -0.21072128 0.05940171 -0.2287052 0.12062351 -0.15550086 0.076987535
-0.018411253 -0.1447677 0.13608888 0.086454526 0.1051625 -0.20069642 0.0009307853 -0.105178066
0.05398658 -0.14074297 -0.045436796 0.113248125 0.28487834 -0.017737797 -0.015389108 -0.12881684
0.06010327 0.34580266 -0.019801375 -0.017170304 -0.009949146 0.0051210662 0.1359954 -0.023289692
-0.13289759 -0.020011641 -0.009274188 -0.04380032 -0.08104759 -0.034167416 0.0037031886 0.28753036

manager.M_space.bias f4 [64]
00000000: c217 353c 919a f9bb df80 383c 7844 a73b
00000010: 857e 24bc 5b2d 993c ab65 db3b 8932 903c
00000020: 9654 5e3c 22d8 98bb d66e 323b 7ac5 85ba
00000030: b528 8abb 0357 a73b 1e1f 873b 197c 143c
00000040: b8b9 6dbc 19ab 3e3d 3af0 103c 9438 e2bb
00000050: 9b48 473b 35b2 983c 2a62 c73b e27f 8a3c
00000060: f0ce 883b 7b3d cd3c 32a7 a53b e7a2 06b9
00000070: fa2d b23b fe28 113d 6187 04bc 9452 3c3a
00000080: 0f34 ba3c 5593 6c3c 0c0f dcbb 15d9 ebbb
00000090: aa51 b0bb 0f0e 093b 177c 55bb e247 f03a
000000a0: 340b a6bc 0539 333a 8631 b7bb f0ca cf3b
000000b0: 1313 51ba 66b8 923b 86b4 28bc df34 a13d
000000c0: e314 7a3b de03 b93a 62b3 02ba 97a0 b93c
000000d0: 735d 833c 2f97 03bb 79e4 933a 26e2 3b3b
000000e0: f1eb 823a fb70 bd3b c9bb d53c dc74 a7bb
000000f0: f2da 92bb 0a18 f93a b416 0cbc bf81 b0bc
0.011053028 -0.0076173027 0.011261194 0.0051045977 -0.01003993 0.018698385 0.0066954694 0.017602222
0.013569972 -0.004664437 0.0027226708 -0.0010205947 -0.0042162784 0.005106808 0.0041235825 0.00906279
-0.014509611 0.04654989 0.008846337 -0.0069037173 0.0030408266 0.018639663 0.0060847 0.016906682
0.0041750595 0.02505373 0.0050553316 -0.00012839922 0.0054376097 0.035439484 -0.0080889175 0.0007183936
0.022729902 0.014439424 -0.006715661 -0.007197509 -0.005380829 0.002091292 -0.0032575184 0.001833197
-0.020269014 0.00068368047 -0.0055906205 0.0063413307 -0.00079755596 0.0044775484 -0.010296946 0.078714125
0.0038159422 0.0014115532 -0.00049858366 0.022659583 0.016035771 -0.0020079126 0.00112833 0.002866873
0.0009988529 0.0057812906 0.02609052 -0.0051103663 -0.0044816667 0.0019004357 -0.008550335 -0.021546243

manager.M_goals.weight f4 [64, 128]
00000000: 0d0a 61bd 5bb9 b0bb 8db2 0dbe 9829 37ba
00000010: 024d bebd 7bcf 59bd 4f10 183e 3cd9 eebb
00000020: e7ee e13d 1b9a 81ba 91b7 7cbd 9fb7 8d3d
00000030: 0ac1 063e aa73 58ba d1cf c53d 60b0 f1bb
00000040: c648 843c 1b72 45be c90a fd3d 9c1d e1bd
00000050: c39e 97bd d725 cabc 1a42 a13d d577 903d
00000060: 030b 083e 7988 6cbd 6efa 173b 9426 5d3d
00000070: 47ef 133e 09a6 613e 6fb0 253d 1ff3 27be
00000080: 75d2 00be 4eb9 8a3d 9f1b 7ebd 368b ddbd
00000090: daf1 973d 877f babc 7489 35ba 2752 09be
000000a0: 95f4 6cbd b168 d3bc 4e4e 553e ab66 803d
000000b0: 7a00 26bd 0d97 4f3d 0cfa 25be 1159 b2bd
000000c0: 2d1b f2bd a825 c33c 7bf9 9f3c 1b60 73bd
000000d0: d8e4 8bbd 14e0 45bd edad acbd 8481 37bd
000000e0: 5e37 413e 5ce9 1a39 8ac8 68bc 94bc 4c3c
000000f0: 7193 e2bd b02b b93c 9694 87bd 5b2d c73c
00000100: 0769 8abd 6328 d9bd 27d7 c8bd 2c46 ad3d
00000110: c982 2e3e 17d0 213e 69e3 463e 4aef 0c3d
00000120: 5939 dd3d 5ad4 b7bb 1fac ed3b 8d2e 03be
00000130: 0461 3d3c 6214 bb3d 5ea8 973d db0b ffbc
00000140: bb0b b73c 5ea3 f4bd 08c8 ac3d 2efb 873d
00000150: 0ead 14bc 0422 b03d 6be2 6ebd 87bd 12bd
00000160: c7d2 b8bc d733 26bd 5fe2 d13d 81b0 2abb
00000170: 0aa8 833d 3af2 013e 7cf3 c7bd 84f5 883c
00000180: 51d6 033b 6936 fabb 8254 cebd 453a 2f3e
00000190: 8ae5 213d d5b9 c63c 1dde 25bd 1fc6 f7bc
000001a0: c6f2 a7bd f818 483d bd88 81bd acbf a7bd
000001b0: 64f2 8abd 3639 103c ce13 3f3d 8f5c 44be
000001c0: 9145 0d3c af00 80bd c848 b23d 5b5a a63c
000001d0: ae9a 64be 2dd9 5f3d f7d5 ce3d 6c58 59bd
000001e0: ae68 9dbd a046 80bd b7b8 ce3d 6ed8 fcbb
000001f0: 220c 493d f6c0 283e cdb0 2fbd 5747 c1bd
00000200: 6d0d 02bd 7a71 06be bf16 53bd 9839 86bd
00000210: f7b6 e33c 1079 bbbd 1de2 083e 705c 5ebe
00000220: 744b 883d efde a3bc 95c6 0cbe 7ced 033e
00000230: 7b68 0d3d 5653 2cb9 e967 b7bc 5711 bb3c
00000240: 2339 02bd 3b37 7ebd 69d0 8a3c 1a2c b93d
00000250: c617 8cbb 335b 853d 7fd9 c3bc 05af a9bc
00000260: f80e 6bbd 7dc9 293d 99d2 c23c bf0a 75bd
00000270: 918a cf3d df89 9ebd ff23 febc 1405 eb3d
00000280: d369 2dbc b538 723d 560a 213d f000 05be
00000290: 9aba 35bd f211 88bd 8568 2ebd 9f4d f23d
000002a0: 4625 b33d e286 da3c 7cf4 ea3d eec1 5d3d
000002b0: 3f18 f73d ee97 d03c 72c0 823d cd77 e8bd
000002c0: 1635 8c3d f837 683d 0fdc 61bc 4ac6 743d
000002d0: 3505 583d 11be a5bd 40d3 b93d 5f5f c73b
000002e0: 15e6 06be 261b 973c 5e5a 13bd 61d0 0bbd
000002f0: 800a d939 0996 083e 2016 52bd d80e 9dbd
00000300: a825 113e ffa0 d53c 9d53 803c 6081 4ebc
00000310: 930d edbd ce66 663d 603f 0e3e 8a30 ea3d
00000320: 33b2 d8ba 8b71 3bbd 79e1 973d 634b 0fbe
00000330: 776d e0bc fe86 f73d 6dd2 97bc 7557 c2bd
00000340: a295 e5bd 7851 d43d 3da6 3d3d df81 15be
00000350: 0b2e 963d 84d8 173e 7667 1d3d 72f1 bb3d
00000360: 072a 293e f6e6 b6bd a5b0 9b3c 4a91 ed3d
00000370: 6664 fb3b 6487 fb3d 7753 80bd 2368 bbbd
00000380: e59e c93d fd21 a73d 0aa0 f53d 0be8 9d3c
00000390: fa69 413d 7502 f33d 1328 52bd e1ea b43c
000003a0: 2d74 d03d 5c12 e33d 1c96 86bd 4c47 22bd
000003b0: 5181 823e 13d8 7fbd 0765 95bd 6385 2bbe
000003c0: 4ea9 033e 6243 0bbe 0205 c73c f681 f1bd
000003d0: a7bb b1bb 5756 9d3c 7f49 35bd 1516 483e
000003e0: 1ff1 333e d63d 15be bb30 9ebd 85a0 58bd
000003f0: 29f0 f03d 7d83 31bd 1621 0d3d 2b98 20be
-0.054941226 -0.00539319 -0.13837643 -0.0006987094 -0.09292032 -0.053176384 0.14849971 -0.00728908
0.11031895 -0.0009887846 -0.0616985 0.069197886 0.13159576 -0.00082569814 0.096587785 -0.007375762
0.016147982 -0.19281809 0.12355573 -0.10991976 -0.07403328 -0.024676247 0.07873936 0.07054106
0.1328545 -0.057747338 0.002319004 0.05399187 0.14446746 0.22035994 0.040451463 -0.16401337
-0.12580283 0.06773625 -0.06203806 -0.10817568 0.074191764 -0.022765888 -0.0006925084 -0.13410245
-0.05785044 -0.025806757 0.20830652 0.06269582 -0.0405278 0.050681163 -0.16208667 -0.08708394
-0.118215896 0.023821667 0.019528141 -0.059417825 -0.06830758 -0.0483094 -0.08431611 -0.04480125
0.18868777 0.00014773518 -0.0142079685 0.012496132 -0.110632785 0.02260384 -0.066201374 0.02431362
-0.067583136 -0.10603406 -0.09806662 0.0846065 0.17042078 0.15802036 0.19422688 0.03440789
0.10801954 -0.005610031 0.0072531844 -0.12810726 0.011558775 0.09134747 0.0740516 -0.031133583
0.02234446 -0.11945222 0.084365904 0.066397056 -0.009074463 0.08600238 -0.058321398 -0.03582528
-0.022561444 -0.040576782 0.10248255 -0.0026045146 0.06428535 0.12690058 -0.09763238 0.016718633
0.0020116756 -0.0076358807 -0.10074712 0.17112072 0.039525546 0.024258533 -0.040495027 -0.030245839
-0.08200602 0.048851937 -0.06324909 -0.081908554 -0.067845136 0.008802703 0.046649747 -0.19175933
0.008622543 -0.062501304 0.08705288 0.020306757 -0.2232463 0.054650474 0.10099404 -0.05306284
-0.07685982 -0.06263471 0.10093825 -0.00771623 0.049083836 0.16479859 -0.04289322 -0.09437435
-0.031751085 -0.13129225 -0.051535364 -0.06553954 0.027797205 -0.0915395 0.13367505 -0.2171495
0.066550165 -0.020003764 -0.13747628 0.12883562 0.03452347 -0.00016434243 -0.022388415 0.022835417
-0.03179277 -0.06206439 0.01694508 0.09041615 -0.004275295 0.065115355 -0.023907421 -0.020713339
-0.057387322 0.04145192 0.023782061 -0.0598247 0.10133851 -0.077411406 -0.031023024 0.11475578
-0.0105843125 0.05913611 0.039316498 -0.12988639 -0.04436741 -0.06644048 -0.042580146 0.11831211
0.08747344 0.026675645 0.11472413 0.054140024 0.120651715 0.02546307 0.06384362 -0.11350975
0.06846063 0.056694 -0.013785376 0.059759416 0.05273934 -0.08092893 0.09073496 0.006084367
-0.13173707 0.018445563 -0.035974853 -0.034134272 0.00041397288 0.13338484 -0.05129063 -0.07668847
0.14174521 0.026077745 0.01566487 -0.012604088 -0.11574855 0.056250386 0.13891363 0.11435039
-0.00165326 -0.04576258 0.07416052 -0.13993602 -0.027395947 0.120862946 -0.018532956 -0.09489337
-0.11210181 0.103671014 0.046301115 -0.14600323 0.07333001 0.14828688 0.038428746 0.091769114
0.16519938 -0.08930771 0.01900513 0.11599977 0.0076718805 0.12281683 -0.0626592 -0.09150722
0.0984476 0.081607796 0.11993416 0.019275686 0.047220208 0.11865703 -0.05130775 0.022084655
0.10178409 0.11087486 -0.065716 -0.039618775 0.25489286 -0.062461924 -0.0729466 -0.16750102
0.12857553 -0.13599923 0.02429438 -0.11792366 -0.005423981 0.01920621 -0.044259544 0.19539674
0.17572449 -0.1457437 -0.07724138 -0.05288746 0.11764557 -0.043338288 0.03445538 -0.15683047

manager.M_goals.bias f4 [64]
00000000: f34f d53b 5817 793c 3e63 fb39 2143 b73a
00000010: 3cdb 573c ae63 593c b733 8e3b 1f36 20bc
00000020: 2853 b3bb 7057 21bc cf71 15bc 9982 1cbb
00000030: 8755 81bc d773 513b 73fd 153c 094a 943c
00000040: 07da 773c 341f fc3b f826 4cbc 010b 0eba
00000050: 52ec 35bc 1256 1bbc f8f8 0d39 a8cc da3a
00000060: eec9 09bb 8356 4b3c 4fcb a33c 7bb1 3cbc
00000070: 47f4 1e3c ac3a 58bc 5c13 ecbb edd1 8abb
00000080: f9e1 393b 5c0a 363c 0e5b a83c ee79 b43b
00000090: 0e8d 8d3b 673a 833b eae6 f135 9543 c33c
000000a0: 2656 a4ba fe02 003c 08ca 73bb d096 783b
000000b0: 981b c1bb 184a a03b 6a10 b1bb 70f8 8c3c
000000c0: 3ba9 7bbb 1012 f4ba 918e e2bb c702 50bc
000000d0: 814c b0bb 8af1 f5bb d25f b3bb ff5d 913c
000000e0: 253a d8b9 25e3 c2ba 9ebd 753b 5107 36bb
000000f0: 2af0 0dbc 4843 2abc 54c2 91bb 1e13 43bc
0.006509775 0.0152033195 0.00047948392 0.0013981798 0.013174828 0.013268394 0.004339661 -0.0097785285
-0.0054725595 -0.009847507 -0.009121372 -0.0023881553 -0.015787853 0.0031959915 0.009154665 0.018101709
0.015127665 0.0076941494 -0.012460463 -0.000541851 -0.011103706 -0.00948097 0.00013539556 0.0016693072
-0.00210249 0.012410763 0.019994406 -0.011516924 0.009701795 -0.013197582 -0.0072044563 -0.004236451
0.002836345 0.011110868 0.02055123 0.005507699 0.0043197935 0.004004765 1.8023104e-06 0.023835937
-0.0012537881 0.007813213 -0.0037199277 0.0037931688 -0.005893182 0.004891645 -0.005403568 0.017208308
-0.003840043 -0.0018621106 -0.006913968 -0.012695975 -0.0053802137 -0.0075056003 -0.005474069 0.017745016
-0.00041242052 -0.001486872 0.0037497054 -0.0027775357 -0.008663217 -0.010392018 -0.0044482145 -0.011906413

manager.M_value.weight f4 [1, 64]
00000000: 816d dcbc c5f3 a7bd 4d55 8bbd ab1a 0fbd
00000010: 39bd 6e3d 96c7 a6be 37f6 6bbd 4e27 6f3c
00000020: 386e 9a3d 640f e33d 8c46 c93d 88fe cebc
00000030: 8734 b4bc 211b aabe 02aa 2ebe 329b 993c
00000040: f205 9dbd dadd 09be 47ff 4b3d bbf8 24be
00000050: 98c4 07bc 248a 4bbd 053e 123d 0945 3abe
00000060: 8c49 71be 24b7 8d3c 571e edbd 5999 813d
00000070: c7dc 413e 6d9f 083e 4012 15bd d626 cabc
00000080: ad70 abbc a237 f0bc b056 3cbd c4bd 2abd
00000090: eb21 44be a3d3 033e e6d0 1f3e 1fa2 55bc
000000a0: 5a8a b3bd e016 babe cd8f 063e ceb9 58bd
000000b0: 14a2 733e 0028 56bd f75a 16be 052e a5bd
000000c0: 9639 de3d 8673 a83e 5b92 5d3e 359c 323e
000000d0: 0d69 c6bb ee4d 7d3d 6643 963d a611 68bd
000000e0: 8a6d 223d 6320 e83b 3767 30bd cf65 88bd
000000f0: bec0 ee3d 45ee c8ba 91a8 d93d 0fd5 b1bc
-0.026907684 -0.08200792 -0.06803379 -0.034937542 0.058285926 -0.32574147 -0.057607856 0.014596773
0.07540554 0.1108692 0.09827909 -0.025267854 -0.021997703 -0.33223823 -0.1705704 0.01875076
-0.076671496 -0.13463536 0.049804 -0.16110508 -0.008286618 -0.049692288 0.035703678 -0.18190397
-0.23563212 0.017299242 -0.115780525 0.06328077 0.18931876 0.13342066 -0.036394358 -0.024676722
-0.020927751 -0.029323403 -0.04598111 -0.04168488 -0.19153564 0.12873702 0.15607032 -0.013039141
-0.08766623 -0.36345577 0.13140793 -0.052911572 0.23792297 -0.05228424 -0.14683138 -0.08065418
0.108508274 0.32900637 0.21637861 0.17442401 -0.0060550035 0.061841898 0.07337074 -0.056657456
0.039655246 0.007083939 -0.043067183 -0.066600434 0.116578564 -0.0015329799 0.106278546 -0.02170804

worker.f_stateW.0.weight f4 [128, 64]
00000000: 0960 ef3c ee79 2a3e 319b e43c 912d 5ebd
00000010: e1d0 623e b771 e63d 13ae 8b3d 18ea 82bc
00000020: 0968 acbc 7ea3 2dbe 1251 c43d e0b9 193d
00000030: b208 5d3d 300f fdbc 1064 3e3d 80d1 a3bd
00000040: 2e57 baba 61c7 ce3d 8043 73bd fa64 833c
00000050: ed80 17bd 6f3a cd3c 7fa4 3cbd 40f2 49bd
00000060: fd4d ac3d bf9a 413e d830 663c 23af 98bc
00000070: 451a ffbd 2dc5 963d 92f2 133e e413 653d
00000080: 6e7a e83d 1ad1 39bd 156f 1c3b 3642 093e
00000090: d248 253d 4a5c 2c3c 93c1 a23d 1f9f 213d
000000a0: 76a6 69bd 03c2 aabb 39c7 44bc 9fed 043e
000000b0: a857 0e3c 9222 d13d d80f 07bd 589a a53d
000000c0: 1c8a 36ba c450 62be d718 16be 3b18 d23c
000000d0: f0be cf3c 8d31 a53c 3ed0 d7bd 346e 193d
000000e0: 3952 93bc 9322 c9bb d54b ee3d 7785 82bd
000000f0: f709 9fbd 0931 053e 090e a8bd 37a8 063e
00000100: 8a75 923d e899 053d ec47 bebd 88b8 503c
00000110: 32b4 3fbd c3c2 d2bd 237b 96bd 4672 c4bd
00000120: 796c e53c a398 89bc e58d 823d 3f37 8a3d
00000130: c105 14bd 4b59 e83d 1ed2 f13d 2a48 bfbd
00000140: 50f9 013d 5b7a a53d f47a f53d 0e60 13be
00000150: d7a0 97bc a865 1f3e 21b2 4a3b 581c e03d
00000160: bc8e b13d 9e46 d53d 2e74 3c3d 3387 5a3d
00000170: 09c5 29bd 37a5 883b eca8 6fbd 39f5 013e
00000180: 36db e33c 20af 25bd e68d 0cbd 092b b83c
00000190: 150a e4bd 2c0e 153d 86ce 1c3d 0b64 4e3d
000001a0: 9c98 99bd 8eaa 3e3c 54f9 0dbe 6616 81bd
000001b0: 3df4 c83d 80e8 ef3d c0d3 813d 9652 d43c
000001c0: 4208 76be e3d1 41bd cda3 c3bd 510f deba
000001d0: 4c97 0a3e 1a80 26bd b03b 94bd 996f edb8
000001e0: 914e 1fbe 13b3 ddbb e943 833d a536 c43c
000001f0: ca9e a3bc 50ff 43bd fe37 dc3c 88be 573d
00000200: 07b7 dfbd b54d 16bd a800 d23b ebb2 e9bd
00000210: c180 dc3d 41e7 d13d f3b9 e5bc edd1 503d
00000220: bb4b 8e3b 48b9 2e3e bc88 e9bd 8a57 383e
00000230: f34e 6e3d 8ec9 913d 0df6 90bc b517 11be
00000240: 2733 a13d 276a 34be aaaa f53d debf 1e3d
00000250: 6bf1 a73d 281d aa3d c2cf 06be 90a6 5f3e
00000260: 375e 05bd 8a30 593d 89cb 19be 5f79 993d
00000270: d692 64bd e509 793c e1e1 573d 0c7d 3abc
00000280: d536 38bd 40f6 a13d 366b 1fbd e314 f63d
00000290: 4f9b 1fbd 4efb 353e 773d a03c b307 a8bd
000002a0: 148f 333d 4779 dfbc dd2c 55bc b9ac 123c
000002b0: 417b 7abd b05e e33d 8098 27be 7e62 9a3d
000002c0: 230e 363e 2789 6b3d 8e8f 6c3d 744b 983d
000002d0: f7d6 05bd 7a85 17bd 31d6 f2bd b62e fdbd
000002e0: 0766 ed3c a2c3 3cbd f2d0 183d ca67 3d3d
000002f0: d8d1 0e3e 1a67 dabd 0639 543d c24a 1a3e
00000300: 2269 b13d ea46 09bd 8540 693d c7d0 95bc
00000310: 9e8c 943d cb2d ac3d c807 3e3d 7a40 453e
00000320: 8c18 cc3d 6660 babd bc43 d63d e029 a63c
00000330: 36c1 f93d fdcd 353d 90af e73d 3b6d 0a3e
00000340: 58bb 243e 30b6 653c d1a1 9bbd eaae c6bc
00000350: 95e9 683d 8d91 8abb 8470 52be 5863 ca3b
00000360: 9c97 073e d507 4ebe 5feb 1e3e 794d 073e
00000370: fb41 a1bd bdf4 a13c a2a5 9e3d acb1 fabd
00000380: 5dc4 203e e77d 2bbe 8708 62bd 6e33 eabb
00000390: 1ae0 183e 8009 02bc c198 1bbe 052d c53d
000003a0: 7763 093e 62ef f2bc 3d84 2e3d a15c e9bc
000003b0: 40c4 5ebd 2c57 f13d 2419 693c 4619 893c
000003c0: 9243 6c3d 7680 a93d 1fc1 2bbd 4062 d7bd
000003d0: 437f 91bd 86dd 6dbc 2362 cc3d de1e c63c
000003e0: c656 b9bd 23de 043d c175 1cbe 4816 563e
000003f0: e968 0f3c 4ad1 ecbd 7b01 1a3d a0ce c4bd
0.029220598 0.16648075 0.027906032 -0.054242674 0.22149993 0.11252158 0.068203114 -0.015980765
-0.021045702 -0.16956899 0.095857754 0.03753078 0.05396337 -0.030891031 0.046482146 -0.07998943
-0.0014216655 0.10096622 -0.059390545 0.01603936 -0.036988188 0.025052277 -0.046055313 -0.049303293
0.084133126 0.18906687 0.014049731 -0.0186382 -0.124561824 0.07361827 0.14448002 0.055927172
0.113514766 -0.04536543 0.002386992 0.13404164 0.04035265 0.01052005 0.079470776 0.03945839
-0.057043515 -0.0052111163 -0.012010389 0.1298127 0.008687891 0.10211672 -0.032974094 0.08086079
-0.0006963329 -0.22101122 -0.14657913 0.02564632 0.0253596 0.02016523 -0.10537766 0.037458614
-0.017983543 -0.006138155 0.116355576 -0.06373113 -0.077655725 0.13006987 -0.08205802 0.13150106
0.07151325 0.03261748 -0.09291062 0.012739308 -0.046802707 -0.10291054 -0.07347705 -0.095921084
0.028005825 -0.016796416 0.063747205 0.067488186 -0.0361383 0.11345156 0.11807655 -0.09339936
0.031731904 0.08079978 0.11986342 -0.1439211 -0.018509312 0.15566123 0.0030928927 0.10942906
0.086698025 0.1041386 0.046009235 0.053351592 -0.041447673 0.004170086 -0.058510706 0.12691201
0.027814489 -0.040450215 -0.034315012 0.022481458 -0.111347355 0.03639047 0.038282894 0.050388377
-0.07499811 0.011637343 -0.13864642 -0.063031 0.0981221 0.11714268 0.06339216 0.025918286
-0.24026588 -0.047319304 -0.09552727 -0.001694182 0.13534278 -0.04064951 -0.07237947 -0.00011321827
-0.15557314 -0.006765732 0.06409437 0.023951838 -0.019973177 -0.047850907 0.026882168 0.05267194
-0.109235816 -0.0366952 0.0064087696 -0.11411079 0.10766745 0.10249186 -0.028042769 0.05098145
0.004342524 0.17062867 -0.11403033 0.18002144 0.05818076 0.07118522 -0.017695451 -0.141692
0.07871085 -0.17618619 0.11995442 0.038757198 0.08200344 0.08306342 -0.13165191 0.21840882
-0.032560553 0.053024806 -0.15019049 0.07493853 -0.055804096 0.015200113 0.05270565 -0.011382353
-0.044974167 0.079082966 -0.038920604 0.120157026 -0.038966473 0.17771646 0.019560559 -0.082045935
0.04383762 -0.02727951 -0.0130111845 0.008952313 -0.0611527 0.111020446 -0.16366768 0.07538317
0.1777883 0.057503846 0.057754092 0.074362665 -0.03267571 -0.036992528 -0.1185726 -0.12362425
0.028979314 -0.046085007 0.03730864 0.04624156 0.13947237 -0.10664196 0.051812194 0.1506758
0.086626306 -0.033514895 0.056946296 -0.01828803 0.07253383 0.08407172 0.04639414 0.19262877
0.099656194 -0.09100418 0.10462138 0.02028364 0.12195055 0.0443859 0.11312783 0.1351823
0.16087091 0.014020488 -0.075992234 -0.024253327 0.056863386 -0.004228777 -0.20550734 0.0061763935
0.13241428 -0.20120175 0.15519474 0.13213147 -0.07873913 0.01977002 0.07746436 -0.122409195
0.15699907 -0.16747247 -0.055183914 -0.007147244 0.14929238 -0.007936835 -0.1519499 0.096277274
0.13416849 -0.029655162 0.04260658 -0.028486552 -0.054386377 0.11784205 0.014227185 0.016735684
0.057681628 0.08276455 -0.04193222 -0.105167866 -0.07104351 -0.014518147 0.099796556 0.02418464
-0.09049754 0.03243841 -0.15279295 0.20906937 0.00875304 -0.11563356 0.037599068 -0.09609723

worker.f_stateW.0.bias f4 [128]
00000000: f400 a63c 1e76 c639 d477 723c 8159 7b3c
00000010: 0171 3d3c 8a65 bb3b a653 873b 990f e33b
00000020: 546a 3d3c eb95 fa3b 8c22 6f3c 99b5 4f3c
00000030: b002 21bc e568 02bc f8bd e13a 2673 a93c
00000040: 0bdf ec3b 1293 b03c 71df 20bc 5367 8fbb
00000050: ce6a e6bb 8b62 23bb a067 96bc 1b28 4bbb
00000060: 086f 513c bdac 903c 35e2 153c 1955 9dbb
00000070: 4733 c63c 1f09 04ba 77da 623b c348 2abc
00000080: ecfe 473c 2273 4e3c ae4c e53b 6ec0 ce3b
00000090: 6c45 683b 0dde 153b dd47 7a3c 5c4f 963c
000000a0: f728 473c ba44 603c d32a 953a 5e48 cc3b
000000b0: 5c51 9b3c 1807 963c faa6 c63c 2400 4fba
000000c0: 1911 603c 534b 1a3c 09ce 1cbc adad 513c
000000d0: 21f9 2c3b 1b4c 833b 1b35 9a3c d2ed 053c
000000e0: 035a 92bb 831a d13b 50d6 d43c d25b 413c
000000f0: 5a91 0f3d 5c04 eb3a 6a4e 5f3c 626b 393c
00000100: 3738 f4bb 7e9a a83b 295b a63b 59ed 8e3c
00000110: f474 8f3c 1296 eeb8 73d1 973c 4665 f13c
00000120: 920f 973b 362c ca3c 6144 9ebc 30a5 bc3c
00000130: 9095 0d3b 7f0b 7bbb 7aef ae3c d440 12bc
00000140: 0c29 e7ba 0b0e 65bb ed67 293c df28 c93c
00000150: e872 feba 5f35 1ebb e6e3 883c afc8 e1bb
00000160: 7077 bcbb c533 20bc dea4 0d3c 7c34 363c
00000170: bd18 873c c2b2 fa3b 6b29 a93b c916 493c
00000180: 3bfe 0ebc e427 9a3c 8539 253c cf48 31bc
00000190: 761e 8e3c 15a9 e53b de97 8139 c922 0b3b
000001a0: d452 a1bb 2049 ed3b d18f b13c 3bcc 2d3c
000001b0: 62a2 7b3c 84c5 963c d8c7 243c 4a8c d5bb
000001c0: 648f 283c cf0b 8b3c c654 a13c 1f5f da3c
000001d0: 9ca5 10bc 2323 053a 4678 6d3b a42d 12bb
000001e0: 1347 5e3c c37c 9d3c a771 ec3b 613f 203c
000001f0: ebea c03b ef8b 8e3c 3c47 863a a3c5 c5bb
0.020264126 0.00037853507 0.014799077 0.015341164 0.011562587 0.0057188915 0.0041298447 0.0069293496
0.011560995 0.007647266 0.014595639 0.012677574 -0.009827301 -0.007959579 0.0017222753 0.02068479
0.007228737 0.021554504 -0.009818898 -0.004376331 -0.007031775 -0.0024930562 -0.01835996 -0.0030999247
0.01278282 0.017660493 0.00914817 -0.004801404 0.024194373 -0.00050367595 0.0034615078 -0.010393324
0.012206774 0.012600692 0.0069976663 0.0063095605 0.003544177 0.0022867948 0.015275923 0.018348388
0.012155763 0.013688261 0.001138056 0.006234213 0.018959694 0.01831393 0.024249543 -0.00078964443
0.013675951 0.009417373 -0.009570607 0.012797755 0.002639361 0.004006875 0.01882415 0.008174377
-0.0044662966 0.0063813343 0.025981098 0.011801677 0.035050727 0.0017930376 0.013629535 0.011317106
-0.0074529904 0.00514537 0.005076785 0.01744716 0.017511822 -0.00011376677 0.01853249 0.029467236
0.0046100104 0.024679285 -0.019319715 0.023027986 0.0021604039 -0.0038306413 0.021354426 -0.008926589
-0.0017636134 -0.0034950997 0.010339719 0.024555622 -0.0019412907 -0.0024140698 0.016710233 -0.0068903784
-0.0057515427 -0.009777968 0.008645264 0.011120912 0.016491288 0.007650704 0.005162408 0.012273499
-0.008727605 0.01881785 0.0100845145 -0.010820582 0.01734851 0.0070086815 0.00024717947 0.002123045
-0.004923204 0.007241383 0.021675022 0.010607774 0.015358539 0.01840473 0.010057412 -0.006516968
0.010288093 0.016973404 0.019693743 0.026656685 -0.008828547 0.0005078783 0.0036235019 -0.0022305036
0.01356675 0.01922453 0.007215697 0.009780736 0.0058873794 0.01740071 0.0010244618 -0.006035523

worker.f_stateW.2.weight f4 [40, 128]
00000000: 407f 8fbc 38a0 a3bd dee2 32bd 78eb 813d
00000010: 37bf 44bc e311 05bd f93b 323d fa57 f93d
00000020: f433 b4bd fbdd 723c 9f60 853d 3a29 b9bd
00000030: 2001 7bbb b16d e93d e46e 5a3d 5985 abbc
00000040: 77b6 2ebd 3968 1cbd b2e8 7a3e 5260 fbbc
00000050: 113a 963d 6237 523d 19ce 12bd 6fde f1bd
00000060: 919d 8bbd 0a5a 243e 021f ff3a d468 443e
00000070: a2d2 8bbd 2514 183e ee8f abbd 1b13 afbd
00000080: d3b9 7fbd 79d5 00be 63e0 33bd c7cb 7ebc
00000090: 1c05 923d 0544 67bd 1461 8ebe ec9a 5dbd
000000a0: 0ae6 10be e325 23bd 8b45 f4bd a8ca fbbd
000000b0: 785f a2bb 9212 b33d 303b ce3d 6797 0a3e
000000c0: 0553 78bc 15a0 4dbd 9a55 77bd b146 44bd
000000d0: aad6 163e db6d 1f3d fc33 ad3c 744c 5cbd
000000e0: 7d55 5e3d 037b bc3c 1241 8dbd 9f72 9dbd
000000f0: 8495 00bd acb2 c4bd 7dc4 abbd 4aab eb3d
00000100: b614 973d 9e1d 223e 0cfa 5cbd 0cad 2f3e
00000110: 392b 28be e76b 11be 2c09 84bd a92f b53d
00000120: 2cb3 ca3d c078 e1bc 4003 0dbe e305 483d
00000130: 6a3c a83d d8e2 c9bc a29b 92bc 7c39 86bd
00000140: e46d f8bd a469 1b3d 393d 9bbd 87df f6bc
00000150: 2693 a9bd aaae e9bc edbb f9bd 5d37 9f3d
00000160: 2183 a03b 3f72 3dbd dae6 cb3d 5d85 133e
00000170: 0af7 6a3d 0f92 523b 2d59 a5bd e17c a8bd
00000180: b15d 84b9 76bd f3bb b8d5 c83d 9af4 c8bd
00000190: 353a 14bd f68a 73be 3b41 b23c 328a 093d
000001a0: 9dcc 373c 2ee4 16be c04b cabd 41ec b7bd
000001b0: 6c10 eb3d 63d6 263d 8b7a 513b 9b74 9ebd
000001c0: bb6f 94bd e4ac 233e a82e 0a3e f071 573d
000001d0: e4f4 e1bc fb0a 963d 1329 37bc ba12 3e3d
000001e0: 42bd ce3c 000d 16be ffe7 cc3d eb04 8a3d
000001f0: edf1 80bc 84ae bd3d 3d04 813c a16d b5bd
00000200: e9ba e3bd 1bdd e4bd 9471 193d 11bd 893d
00000210: c201 c6bd c51a 7d3d cecf 463d cf94 0a3c
00000220: 8b21 2b3e f9cd 39bc a4a9 073e cf66 b13d
00000230: 2768 99bd 0f7f 053d 1644 1ebe beba 8c3c
00000240: d9f1 d6bc fc62 e3bd 1c8d 0ebd d2d5 09be
00000250: d085 6a3d a1c7 623d 6d31 283d 11b6 5abb
00000260: 3d62 9e3d 4c98 8b3d 3aee 91bd 0056 47bd
00000270: c1e0 d13c 9d9a 19be 5b29 513d f511 953d
00000280: 9de1 e2bd d4e3 933e 7ac5 d3bc 4c5f 963d
00000290: 1c0d 83bd d8dd 1fbe e38d e93c 36b9 c83a
000002a0: af31 a7bd 38c6 6a3c 59e3 033e 62e7 e3bd
000002b0: 2310 7e3d f753 893d f017 ef3d 55ef c8bd
000002c0: b2dc 803d 1bd4 abbd 7d68 35be 870d 923d
000002d0: 7a2e 663c 5e8a 95bd 977a 64be 44a1 babc
000002e0: 1d85 383c 2e69 61bd bae0 1bbd 69f0 acbd
000002f0: 8717 c1bc 5734 c53d a761 393e 3f27 e83d
00000300: 9a34 f4bd c493 563c dc05 63bd 2ed0 053d
00000310: 0bf2 1d3d 0741 0dbd 0b01 2e3e beda 83bd
00000320: e4b7 d43d 657a a23d 1294 e03d 7c26 393d
00000330: 8511 d7b9 2100 73be ae71 52bd fec6 24be
00000340: 6e21 84bd f0d3 9cbc c855 a53d 293e dabc
00000350: f78a b03d e9ab b9bd 3495 9c3b af73 1fbd
00000360: 280b 283d aa2e d6bb e1c3 65bb ee41 a53c
00000370: 4e9d debd d533 2bbd fed0 f6bd 2c50 7dbd
00000380: f6df fb3c 8842 05be a9b9 063e 6e81 eebd
00000390: 0bce 133e afc9 b73d ac94 51bd 6764 21be
000003a0: 66fc 7c3d 461d 45bc 03d1 4e3d 3fa7 463e
000003b0: a71f 0b3d c537 8b3c 78d3 b43d 5cd2 13bd
000003c0: a179 c9bd 99e6 ba3d 69b1 47bd b56e 033e
000003d0: c735 103d 532d c5bd 10c8 fe3c 38d8 c2bc
000003e0: 6268 753d 15bd 413d cc19 8c3d 12e7 ee3d
000003f0: 7208 cd3c ed8c 6a3c f2c0 ee3c a159 1e3e
-0.017516732 -0.07989544 -0.04367339 0.0634374 -0.01200848 -0.03248776 0.043514226 0.12174983
-0.08798972 0.014823432 0.0651257 -0.090410665 -0.003830023 0.11397875 0.05332841 -0.020937609
-0.04265448 -0.038185332 0.24502829 -0.030685578 0.07335294 0.05132235 -0.03584108 -0.11810004
-0.06817163 0.16049972 0.0019464197 0.19180614 -0.068272844 0.14851435 -0.08377062 -0.08548566
-0.062433075 -0.12581433 -0.043915164 -0.015551514 0.07129881 -0.056461353 -0.2780844 -0.054102823
-0.14150253 -0.039831053 -0.11927327 -0.12294513 -0.0049552284 0.087437764 0.10069883 0.13534318
-0.015156512 -0.050201494 -0.06038437 -0.04791898 0.14730325 0.038923126 0.021142952 -0.05378385
0.054280747 0.023007875 -0.06897177 -0.07687878 -0.03139259 -0.096043915 -0.083870865 0.1150728
0.07376997 0.1583161 -0.0539494 0.17155856 -0.16422738 -0.14201318 -0.06447062 0.08846981
0.098974556 -0.027523398 -0.13770771 0.04883374 0.08214648 -0.0246443 -0.017896477 -0.06553933
-0.12130335 0.037942544 -0.07580037 -0.030135883 -0.082800195 -0.02852567 -0.12194047 0.077742316
0.0048984443 -0.04625153 0.09956141 0.14406343 0.0573645 0.0032130515 -0.080736496 -0.08226944
-0.00025246807 -0.007438357 0.098063886 -0.09812279 -0.036188323 -0.23783478 0.02175962 0.03357906
0.011218217 -0.14735481 -0.098777294 -0.08980609 0.114777416 0.0407318 0.003196391 -0.077370845
-0.072478734 0.15983921 0.1349436 0.052598894 -0.027582593 0.07326313 -0.011179226 0.046404578
0.02523673 -0.14653397 0.10005187 0.06739219 -0.01574036 0.09261802 0.015749091 -0.08858801
-0.11119635 -0.11174985 0.037461832 0.06725515 -0.09668304 0.061793108 0.04853802 0.00845833
0.16712014 -0.011340612 0.13248307 0.08662187 -0.074905686 0.032591876 -0.1545566 0.01717889
-0.026238369 -0.11102864 -0.03480254 -0.13460472 0.05725652 0.055366162 0.04106276 -0.003337268
0.07733581 0.06816158 -0.07125516 -0.048666 0.025619866 -0.15000387 0.05106483 0.07278816
-0.110781886 0.28884757 -0.025851 0.07342395 -0.06398985 -0.1561197 0.02851004 0.0015313986
-0.08163773 0.014329486 0.12879695 -0.11128117 0.062027108 0.06705468 0.116744876 -0.09811274
0.06292094 -0.08390065 -0.1771564 0.071314864 0.014049167 -0.07301782 -0.2231239 -0.022781976
0.011262205 -0.055031948 -0.038056113 -0.08444292 -0.023570789 0.09629124 0.18103658 0.113356106
-0.119240955 0.0130967535 -0.05542551 0.03266924 0.03856091 -0.034485843 0.16992585 -0.06438206
0.10386637 0.07933501 0.10965742 0.045202717 -0.0004102105 -0.23730518 -0.051377945 -0.16091534
-0.06451689 -0.019144028 0.08073002 -0.026640968 0.086202554 -0.090659924 0.0047785286 -0.038928684
0.041026264 -0.0065363245 -0.003505938 0.02017304 -0.10869847 -0.041797478 -0.12051581 -0.061844036
0.030746441 -0.13013661 0.13156761 -0.116457805 0.14434068 0.08974015 -0.051167175 -0.15760957
0.061764143 -0.012030905 0.050492298 0.19399737 0.033965733 0.016994366 0.08829397 -0.036089286
-0.09837652 0.09126014 -0.048753176 0.128352 0.035207536 -0.096277855 0.031101257 -0.023784742
0.059914 0.047299463 0.06840858 0.11665167 0.025028441 0.014315826 0.029144738 0.15463878

worker.f_stateW.2.bias f4 [40]
00000000: aa00 bcbb f1c6 ab3c 7378 30bc 876a ecbb
00000010: fcf4 503c 83e7 983a 9384 423a dfec 8d3c
00000020: 2070 8f3c 9526 05bc ed6b ff3b 235e 8c3b
00000030: efc7 f13b 1521 ee3b 0a6d d6bb a682 58bc
00000040: 0cd1 003c 943f 223a dc30 c638 3470 7f3c
00000050: 275f 553c 6375 6b3b 0aa6 8dbb fafc 4aba
00000060: c6fc a63c 91a2 45bc f6d8 273c c45d 46bb
00000070: 9bbb 45bc 365d 843c 5fbe 14bb 31aa aa3b
00000080: 009c c63b accd c2ba f91d b73c 492a 92bb
00000090: 7703 fdbb 0f03 1e3c 9ed4 1d3b 65df 6c3b
-0.005737384 0.020968886 -0.010770905 -0.0072148475 0.012753721 0.0011665676 0.0007420268 0.017324863
0.01750952 -0.008126874 0.007794848 0.004283683 0.0073785703 0.0072671273 -0.00654376 -0.013214743
0.007862341 0.00061892834 9.4504765e-05 0.015590716 0.013023174 0.0035928122 -0.004322772 -0.0007743385
0.020384204 -0.012062685 0.010244599 -0.003026829 -0.012068654 0.016157728 -0.0022696478 0.0052082767
0.006061077 -0.001486232 0.02235316 -0.004460607 -0.0077213603 0.009644284 0.0024083029 0.0036143896
