vwgym/saved_model/vwgym_f_net_step_2900000.pt (torch_old, 382125 bytes, 57 tensors)

f_percept.percept.0.weight f4 [16, 3, 3, 3]
000000 91 df 89 3d 65 50 8e bd 64 2a be bd 5f 6f 84 be
       0.06732095 -0.06948928 -0.09285429 -0.2586622
000010 b9 63 f8 3d 37 89 8f 3d f0 b9 a6 be e7 7c 1b be
       0.121283956 0.070085935 -0.32563734 -0.15184365
000020 be 07 59 be 1d 48 9c 3e 85 1f 09 be 31 6a e2 be
       -0.2119436 0.30523768 -0.1339093 -0.44221643
000030 a0 36 aa 3b 7d 1e ad 3d b4 4e 95 3e 4e 09 8b bc
       0.0051945 0.08453081 0.29161608 -0.01697221
000040 05 64 57 be 97 79 2d be cc 2e 5e 3e 30 ff a4 be
       -0.21034248 -0.16940914 0.21697539 -0.32225943
000050 0a cc b2 3d d8 fa 37 be 76 ff 80 bb f4 fd ca 3b
       0.087303236 -0.17966783 -0.0039367033 0.0061948244
000060 d8 44 e8 bd 7a 1b 43 3e 80 9f cc bd c7 b0 70 be
       -0.11341256 0.1905345 -0.0999136 -0.23504935
000070 53 c3 51 bd 57 a9 92 3e 1d 4e bf bd 51 8e 8d 3c
       -0.051211666 0.2864482 -0.09341071 0.017279776
000080 21 64 30 3e da d4 6f be 4e 69 03 be 10 9c 39 3e
       0.17225696 -0.2342104 -0.1283314 0.1812594
000090 e8 b5 87 bd 41 c8 ce 3e 85 ca 24 3c d3 75 bc bb
       -0.06626493 0.40387157 0.01005805 -0.0057513504
0000a0 45 8e 3f 3e b8 d9 63 3e 2f 13 8e be 70 10 c7 3d
       0.18706615 0.22251022 -0.2774901 0.09719932
0000b0 e2 bc 87 be 08 f3 3d be d6 7b 3f 3d eb c3 18 be
       -0.26511294 -0.1854974 0.04674896 -0.14918487
0000c0 eb b8 c7 bd c6 ae ab 3e 22 c8 72 be e9 b6 59 3d
       -0.09752067 0.3353178 -0.23709157 0.053152952
0000d0 bf ea 2b bc 99 a0 85 3e 62 65 f7 bd 51 18 19 3e
       -0.01049298 0.2609909 -0.12079884 0.14950682
0000e0 b1 7b 92 3e 26 6c 87 3e 01 7e 87 bd 95 6d e8 3d
       0.28609994 0.26449698 -0.0661583 0.11349026
0000f0 5c 6c ca bc 2f 20 09 3e 06 c0 56 be 06 dc 58 3e
       -0.024709873 0.13391183 -0.20971689 0.21177682
000100 f6 7c 58 bd 9f f1 fa bd 8b 34 3c 3d b9 0c 16 bd
       -0.052853547 -0.12253117 0.045948546 -0.036633227
000110 86 26 ec bd d9 a6 99 bb d4 59 37 3d 9b ff 4a 3e
       -0.11530785 -0.0046890792 0.0447634 0.19824068
000120 9b f7 93 3e 59 6d bd bd 2d e8 6f be 8e 82 f4 bd
       0.28899845 -0.09249372 -0.23428412 -0.11938964
000130 26 be f2 3e 38 fc c9 3e c8 c1 01 3e 10 98 68 be
       0.47410697 0.3945024 0.12671578 -0.22714257
000140 7e d2 be 3c 16 e0 00 3e a7 77 38 be 57 93 8a 3c
       0.02329373 0.12585482 -0.18014394 0.01691596
000150 09 4d 63 3e 20 ea 9b 3e 31 b6 1d 3e fd 47 d7 3d
       0.22197355 0.3045206 0.15401532 0.105117775
000160 4a 33 3e be 36 03 9b bc 52 d6 ba 3e e3 6a 0b 3e
       -0.18574253 -0.01892243 0.36491638 0.13614993
000170 28 57 13 3e a2 ff 12 be 9a 97 09 3d 7e 66 1a be
       0.14388716 -0.14355329 0.033591844 -0.1507816
000180 f2 70 82 be e6 1d f4 bd c8 ad f5 bd d8 ab b0 3d
       -0.25476795 -0.11919765 -0.11996037 0.086265266
000190 79 75 91 3e eb 64 c1 3d 27 53 42 3d 82 5d c3 3d
       0.28409937 0.09443077 0.04744258 0.095393196
0001a0 b0 49 1b be 41 93 9e 3d 37 f9 94 bd 6c fc 08 bf
       -0.15164828 0.0774293 -0.072740965 -0.53510165
0001b0 54 88 94 3e 5d 72 68 bd 63 15 06 3d d7 5b d5 bd
       0.2901026 -0.05674969 0.03273524 -0.10417908
0001c0 d8 88 43 be f3 f3 dd be 28 29 4a bc b1 68 bb 3d
       -0.1909517 -0.4335018 -0.012338914 0.09150828
0001d0 3b 97 98 3e 15 c7 6a 3d 3a 3f 04 be 39 4d f0 3d
       0.2980288 0.057318766 -0.12914744 0.11733479
0001e0 a7 47 c8 be bf 53 b0 3d 75 13 aa 3d 94 02 1c 3e
       -0.39117166 0.08609723 0.083044924 0.15235358
0001f0 5d 13 8d be e1 ac 61 3c cb 0d ac bc 10 93 ad 3d
       -0.27553836 0.013774128 -0.02100267 0.084753156
000200 3c 87 5c 3d 01 b7 b9 be fc 83 b1 3e 21 6d 76 bd
       0.053839907 -0.36272433 0.3467101 -0.060162667
000210 4f fc a1 3d 90 2f 9a bd d4 20 20 ba c9 60 6e 3e
       0.07909452 -0.07528603 -0.00061084074 0.23279108
000220 a8 57 71 3e 63 53 22 be 84 f8 ac be b7 37 a7 3e
       0.23568594 -0.15852122 -0.33783352 0.32659695
000230 be ba 1e 3e cb c6 27 bd a0 63 5e 3d bc 09 26 3e
       0.15500924 -0.040961068 0.05429423 0.16214651
000240 58 c9 77 be 58 8d 4a 3e 17 ec f4 bc 1d 80 0c be
       -0.241979 0.19780481 -0.029897733 -0.13720746
000250 f8 ee 91 bd 1f 4e 8b 3c 58 43 0a 3e c6 24 62 3e
       -0.07125658 0.017005024 0.13502252 0.2208434
000260 93 10 10 3e 98 25 5f 3e 4d 12 a5 bd a8 89 f4 3d
       0.14068823 0.21791685 -0.08060131 0.11940318
000270 af aa 63 3e 1e a3 8d 3e 2b 23 88 3d d6 8e c2 3e
       0.2223308 0.2766351 0.06647333 0.379996
000280 c6 60 1b 3e 34 f8 ed bd 60 6f a8 bd 75 27 92 be
       0.15173635 -0.116196066 -0.08224368 -0.28545728
000290 54 03 32 3a 54 b0 b3 be a0 c8 4c be 79 b1 5e 3c
       0.0006790657 -0.35095465 -0.19998407 0.0135921175
0002a0 af 68 cf 3d a2 00 64 3e 63 d0 5f 3e aa f0 82 3c
       0.10127389 0.22265866 0.21856837 0.015983898
0002b0 6e 63 0c 3e 7e c4 78 3e 78 46 8e 3e e1 21 03 be
       0.13709804 0.24293706 0.27788138 -0.12805893
0002c0 98 39 8c 3d 50 2f 9b 3b c5 aa 0d bd fa 66 9c be
       0.06846923 0.0047358647 -0.034586687 -0.30547315
0002d0 63 0a 4a 3e 6d 9a 9e bd cd 80 a4 be e7 73 98 bd
       0.19730525 -0.07744298 -0.32129517 -0.074439816
0002e0 c6 19 d7 bd 37 97 9a 3e c1 46 8d 3d a8 0b 74 3c
       -0.10502963 0.30193493 0.06898261 0.014895357
0002f0 6d 10 a9 be 7a 15 92 bd f1 bf 86 be c4 b8 6b 3e
       -0.33020344 -0.071330026 -0.26318315 0.23019701
000300 d5 62 b9 bd f7 ab 97 bc 14 48 c7 3e 3d 98 17 3e
       -0.09052054 -0.018514616 0.3892218 0.14804168
000310 0b bc e2 be 0d fc fa 3d 8d 11 0a be 59 28 65 be
       -0.4428409 0.12255106 -0.13483258 -0.22378673
000320 b8 50 95 3d 10 3b a1 be d6 0e e8 3d 7b b5 34 3e
       0.072907865 -0.31490374 0.11330955 0.17647354
000330 90 13 0f 3e 4f ba 0f be 00 b3 59 3e ac f1 21 3e
       0.13972306 -0.14035915 0.2125969 0.15814847
000340 e2 9a 46 3d 98 0e d2 bd 79 39 c9 3b 53 0f 74 be
       0.04848755 -0.1025669 0.0061408845 -0.2383397
000350 9d 43 25 3e d5 bc 31 3e 39 00 c7 bd 92 ce 09 3e
       0.16139074 0.1735719 -0.09716839 0.13457707
000360 3e 32 d1 be eb 0e d2 3d 43 2d 4a 3c ae 41 82 3d
       -0.40858644 0.102567516 0.012339893 0.06360184
000370 4f 1d 43 3e d8 8e 65 bd bd c2 ba 3e d6 7c 8c 3e
       0.19054149 -0.05604443 0.364767 0.27438992
000380 01 a4 1a 3e 80 a1 71 bd 46 5a 7d be 4a da e8 bd
       0.15101625 -0.05899191 -0.24741468 -0.1136976
000390 d6 36 22 3d 55 90 72 3d 4b 8a 4b 3e 94 49 70 bd
       0.039603077 0.059219677 0.19876973 -0.05866392
0003a0 61 bf e3 bd 96 59 43 be 6e 96 de 3e 49 5a 8a 3e
       -0.11120487 -0.19077143 0.43474144 0.27022007
0003b0 0d 1b 37 3e 7d 82 a9 3b 67 25 7d 3d 80 fc 1f be
       0.17881413 0.005173026 0.061803248 -0.15623665
0003c0 30 6a 6b 3b 7a 9e 37 3e 72 db 09 3e c2 33 b1 bd
       0.0035921447 0.17931548 0.13462618 -0.0865245
0003d0 08 70 71 3e 85 9c 10 bd 06 90 33 be 1f 89 66 3d
       0.23577893 -0.03530552 -0.1753541 0.056283113
0003e0 c0 f9 f4 3c 05 d6 ae 3e cb 6e ee bd 0d f1 c2 be
       0.029904246 0.3414766 -0.11642226 -0.38074532
0003f0 a8 e6 87 3e d0 2e 35 3e c4 99 a2 3e 19 10 9a bd
       0.26543164 0.17693639 0.3175794 -0.07522602

f_percept.percept.0.bias f4 [16]
000000 b0 2b 7a ba e7 56 fe 39 cb da f9 38 c8 f1 65 3a
       -0.0009543253 0.00048511403 0.000119139986 0.0008771685
000010 f0 d2 69 ba fa ef 00 38 5b d0 3d ba 69 af 89 ba
       -0.0008919677 3.0741074e-05 -0.0007240825 -0.0010504547
000020 c7 a2 8d ba 22 06 9a ba b8 3b d3 b9 5f c2 76 ba
       -0.0010805958 -0.0011751095 -0.0004028955 -0.0009413119
000030 63 c5 2c 3a 61 22 93 ba 52 20 8f 39 3c 2f 17 b9
       0.0006590692 -0.0011225456 0.00027299166 -0.00014418078

f_percept.percept.3.weight f4 [64, 16]
000000 17 48 90 3d 77 5c 0b 3d 49 62 b1 3c b8 71 29 be
       0.07045 0.03402373 0.021653311 -0.16547287
000010 db 80 97 bd d7 53 6b bd ba 92 86 bd 93 2f 17 be
       -0.07397624 -0.057453003 -0.065709546 -0.14764242
000020 02 af 5f 3d 66 d0 0a be 79 8a d7 3d 10 3c b8 bd
       0.05461026 -0.1355606 0.105244584 -0.08995831
000030 a7 19 1f 3c bc 03 14 be 8b 13 1b be 64 9e e6 bc
       0.009710706 -0.1445455 -0.15144174 -0.028151698
000040 b8 1b 18 3e ef 9b 06 be 70 9c 19 3e 26 26 e1 bd
       0.14854324 -0.13145421 0.15001082 -0.10993604
000050 d1 53 30 bd ce be 65 be 8c d0 1f be aa f5 0e 3e
       -0.043048684 -0.22436067 -0.15606898 0.13960901
000060 a2 36 1d bd 8e 82 ae ba 71 3f c3 bb e7 e5 81 3d
       -0.03838218 -0.0013314055 -0.0059584905 0.063426785
000070 7b 84 da bd c9 34 f0 bd 6e e1 8e be 47 c4 8d bd
       -0.106698 -0.11728818 -0.27906364 -0.069222026
000080 36 b5 cb 3c fe b9 73 3e 5c 34 70 bd 39 d2 0b be
       0.024866682 0.23801419 -0.058643684 -0.13654412
000090 8a 9e c7 3d a4 65 bd bc 60 35 29 3e 43 89 96 3d
       0.09747036 -0.023119755 0.16524267 0.07350399
0000a0 4e 5e b3 3d 46 4c 78 3d e1 fe 86 bd 7a 4d a8 bd
       0.087582216 0.060619615 -0.06591583 -0.082179025
0000b0 c6 a6 8b 3e b5 8d 85 bd f0 04 53 be 2a 66 1c bd
       0.27275676 -0.06521169 -0.20607352 -0.03818337
0000c0 75 44 17 3e 61 77 67 3d 52 2f 72 bd dd 3e 2a bd
       0.14772208 0.056510333 -0.05912716 -0.041563857
0000d0 c5 fd c6 bd be 8f 1f be 9a 2f 5d 3d eb 32 34 be
       -0.097163714 -0.15582177 0.054000475 -0.17597549
0000e0 9e 81 cc bd 88 c4 92 be d4 08 85 3c 15 bd bc 3d
       -0.0998566 -0.28665566 0.016239561 0.09215752
0000f0 40 fa a1 3d ef e9 30 bd bd 9d a0 bb 18 75 da 3d
       0.079090595 -0.043191846 -0.0049016164 0.10666865
000100 cd 1a ff bd de d2 0c be d1 b7 99 3d fa 2b 09 3e
       -0.12456284 -0.13752314 0.07505763 0.13395682
000110 f3 b6 05 3e 58 be 00 3e ff 56 3e be 77 f2 aa bc
       0.13058071 0.1257261 -0.18587874 -0.02086757
000120 0d 49 e8 3d c4 50 36 3e 5e 47 7a be 00 00 ee 3c
       0.11342058 0.17804247 -0.24441287 0.029052734
000130 2d 7c 98 bc 9e e2 d4 be 12 1a e6 3c f1 0f 62 bd
       -0.0186139 -0.41579145 0.028088603 -0.055190984
000140 e8 af f4 bd af a3 36 bd b6 73 24 3e ac 7b 12 3e
       -0.11947614 -0.044589695 0.16059765 0.1430499
000150 24 0b 91 3d c4 7b 87 bc 76 48 0c 3e 0c 1e 28 be
       0.07082203 -0.016538508 0.13699517 -0.16417712
000160 e8 33 57 3d e2 d5 f6 bd 74 0a 42 3e e2 b6 04 be
       0.052539736 -0.12052514 0.189493 -0.1296039
000170 6d 72 db bd 36 0b 01 3d 00 a5 c8 3d fd bf 0d 3e
       -0.10715184 0.031504832 0.09797096 0.13842769
000180 5d 63 ca bd 8a c3 50 bd fc 63 00 3e 36 ee 94 3d
       -0.09882233 -0.05096773 0.12538141 0.07271998
000190 9c 70 05 be 77 2f 2e 3e d5 e6 37 3d ce 3e 03 3e
       -0.13031238 0.17010294 0.044897873 0.12816927
0001a0 81 af 0e 3e be 1c 2d 3b 43 8a 7f 3d cf 4b 72 bd
       0.13934137 0.0026414837 0.062387716 -0.059154328
0001b0 9b f7 c7 3c cd 31 6d 3d 64 2b c2 bd f9 c3 83 bd
       0.02441006 0.05790882 -0.09480932 -0.06433863
0001c0 f0 3e d3 bd 0c e9 a4 bd 62 24 95 be 2e 8c 22 3e
       -0.10314739 -0.08052263 -0.2912932 0.15873787
0001d0 b4 9d 22 3e 0d a6 33 bd 21 ee 8c be f2 72 94 bc
       0.15880471 -0.04385953 -0.27525428 -0.018121216
0001e0 aa 17 4e be ff 6f ad 3d 17 1a 10 be fe 10 1b bd
       -0.20126215 0.08468627 -0.14072452 -0.037858002
0001f0 fa 43 04 be 58 14 47 3d de bc 26 bd c6 44 11 3e
       -0.12916556 0.048603386 -0.04070746 0.14186391
000200 b5 d0 7c 3c 35 d6 64 be 0c fb d7 bd 71 07 b7 3d
       0.015430619 -0.22347338 -0.1054593 0.08936966
000210 ca 5f 5b be 85 ba 18 be fb 81 e7 3d b4 c8 54 be
       -0.2142326 -0.14914902 0.11304089 -0.20779687
000220 3a 2d 31 3e c5 06 17 be 14 4d e4 bd 08 e2 3a be
       0.17302409 -0.14748676 -0.11147514 -0.18250287
000230 a6 1e 73 bd 6d 84 49 3e 3d d2 92 bd d1 a1 c5 bc
       -0.0593554 0.19679423 -0.07169006 -0.024125012
000240 38 0c d8 3d fc 7a 71 3e 1a 7a 5b bc 00 ea da 3d
       0.105492055 0.23582071 -0.0133958105 0.10689163
000250 4a 00 10 3e a0 fd f4 bc 25 02 08 3d a0 6b 1e be
       0.1406261 -0.029906094 0.03320517 -0.15470743
000260 a6 3b a3 3d 74 41 dd 3d 98 83 9b bd 1e c6 4f 3e
       0.079703614 0.108035 -0.07593459 0.2029042
000270 be f6 b5 bc 44 43 7f 3c 96 a1 b9 3d f5 05 cb 3c
       -0.022212382 0.015580002 0.09064023 0.024783114
000280 15 f4 8e 3d fb 1a fe bd 80 b7 e5 bc da 02 67 be
       0.06980149 -0.1240749 -0.028041601 -0.22559682
000290 bf 7c 0c 3d e7 d6 c3 bd c2 b4 26 3e a8 1a c9 3c
       0.034298655 -0.09562474 0.16279891 0.024548844
0002a0 69 72 ed 3d 3c ea bb 3c 43 16 3e be 9a b7 af 3d
       0.11594088 0.02293884 -0.1856318 0.08579941
0002b0 0e 35 16 be 5a 79 83 39 4d 1f 1a 3e 53 a2 b2 bd
       -0.14668676 0.0002507668 0.15051003 -0.08722367
0002c0 b6 c7 ed 3d ca df 95 bd 93 1e 31 3e 14 92 33 bd
       0.116103575 -0.07318075 0.1729682 -0.043840483
0002d0 40 43 71 bd c8 c4 bb bd 38 4a f2 3d e4 9e f2 bd
       -0.058902025 -0.091683924 0.11830562 -0.11846712
0002e0 5a bd 84 bc 36 51 c2 3d e2 69 ac bd 8a a3 20 bd
       -0.016203571 0.09488146 -0.08418633 -0.039218463
0002f0 24 e0 05 bd de 5e 2b be bb 63 62 bc 5c 6b 59 3e
       -0.03268446 -0.16735408 -0.013817723 0.2123236
000300 7c b5 c9 3d 1a 12 56 be c4 8f 18 3d 6d 5b 32 3e
       0.098490685 -0.20905343 0.03724648 0.17417689
000310 9e 7e 82 bd 81 cd ff 3c db 8b 11 bd 39 ce 84 be
       -0.063718066 0.031225922 -0.035533767 -0.25938585
000320 86 6c 1f 3d ee e8 bb 3d 6c bc b6 bc fc 5d 6f be
       0.038921855 0.09175287 -0.022306643 -0.23375696
000330 87 eb 95 3d 05 8b 10 3e ee eb 40 bd a1 54 25 bc
       0.07320314 0.14115532 -0.0471 -0.010090978
000340 42 4f 81 be ad 76 fb 3c 5f 6a 38 3e 0b 7f 8a 3e
       -0.2525578 0.030696237 0.18009327 0.2705005
000350 fa 08 45 bc 0b e7 26 be a4 ab 9d bc 7a 8c fb 3d
       -0.012026066 -0.16299073 -0.019246884 0.12282653
000360 e8 a5 06 3e 8f 9e f3 3c 84 04 02 3d c6 5e bf bc
       0.13149226 0.029738693 0.031742588 -0.023360621
000370 e3 83 91 3d 23 e0 83 bd cd 6e 64 3d 5b 0a b6 3d
       0.071052335 -0.06439235 0.05576973 0.08888694
000380 d9 87 0e 3e 40 49 41 3d 1f 8b 50 bd cc bc 17 3e
       0.1391901 0.047188997 -0.050913926 0.14818114
000390 24 61 2c 3e e0 ac ed bc 8f 70 05 3d 94 4f 59 3e
       0.16833931 -0.029013097 0.032578047 0.21221763
0003a0 0a ee 8d 3c b2 80 af bd 9c 42 8b 3d 2e 90 36 be
       0.01732542 -0.085694686 0.06799814 -0.17828438
0003b0 8d d5 a1 bd 40 07 2f be 91 61 80 3c b2 db 4a 3a
       -0.0790206 -0.1709261 0.015671523 0.00077384256
0003c0 b0 39 05 3e 07 99 20 be 3b e0 06 bd da 20 90 be
       0.13010287 -0.15683375 -0.032928687 -0.28150064
0003d0 90 1c 91 3e fa 8a 4b bd 37 11 25 3d 71 67 f4 3d
       0.28342104 -0.049693085 0.04029962 0.119337924
0003e0 85 bd a3 bb 65 31 81 bc 05 6a 38 3e 85 eb e6 3b
       -0.0049969577 -0.015770623 0.18009193 0.007047119
0003f0 e5 87 97 3d b8 11 6f 3e e1 d4 ca bc d6 d3 be bc
       0.07398967 0.23346603 -0.024759712 -0.02329437

f_percept.percept.3.bias f4 [64]
000000 90 04 60 3a 1c d6 19 3b f1 f2 21 3b 7a 0a 0d 3b
       0.0008545602 0.0023473566 0.0024711455 0.0021521137
000010 03 c2 7b 3a 7a 3c ed 3a dd 06 a3 3a 51 53 10 3a
       0.00096038 0.0018099688 0.0012437959 0.0005505579
000020 60 49 3d bb 0c d6 b6 3a 2f 29 ad 3a d7 31 28 bb
       -0.0028882846 0.0013949289 0.0013211126 -0.0025664472
000030 f0 18 b9 3a 00 6d 34 3b 9e f1 a7 b9 4a e9 90 bb
       0.0014121812 0.002753079 -0.0003203274 -0.0044223415
000040 a9 82 04 bb 99 83 3d bb b2 c7 89 39 a2 05 a8 37
       -0.002021948 -0.002891755 0.0002627946 2.0029784e-05
000050 92 d9 9a 39 ad 01 96 3a 77 c3 a3 3a 3a 12 aa b9
       0.00029535271 0.0011444591 0.0012494166 -0.00032438507
000060 1e 39 26 3a e5 f1 c3 3a c8 34 1e 3b a2 0c c4 b8
       0.00063409086 0.001494941 0.0024140347 -9.348361e-05
000070 0e c6 41 bb d2 f8 35 39 0a f9 98 3a a4 c4 4a ba
       -0.0029567513 0.00017354198 0.0011670899 -0.000773499
000080 73 ba 1e 3b b5 82 06 3b c6 13 b0 ba 96 b3 6b b8
       0.002422002 0.0020524685 -0.0013433627 -5.619562e-05
000090 fe 52 49 3a 85 cc d1 39 9b 48 0e 3a 6e 3e 3c 39
       0.00076799083 0.00040015965 0.0005427689 0.00017952334
0000a0 8a df 32 bb 1d 24 a8 3a e3 a3 4e 3b 2e f9 a0 ba
       -0.0027293884 0.0012828145 0.003153079 -0.0012281293
0000b0 7d c3 b4 b9 95 27 18 3a 1a 1c 10 3b 14 cc b9 3a
       -0.00034477926 0.0005804238 0.0021989406 0.00141752
0000c0 c3 c3 2a ba 56 30 8d 3b 52 d0 07 bb 4a 36 26 3b
       -0.0006514156 0.0043087406 -0.0020723534 0.0025361949
0000d0 36 4b 1b 3b 4a 84 55 3b fa 53 08 bb d9 3c 11 3b
       0.0023695952 0.003258007 -0.0020802007 0.0022161512
0000e0 ec d3 00 bb 92 69 c7 3a 79 f9 89 bb 93 f7 56 3a
       -0.0019657565 0.0015213958 -0.0042106477 0.00082003436
0000f0 a0 d3 b4 ba 4b d7 83 3b 33 88 b3 b8 e7 0a 9c 3a
       -0.0013795979 0.0040234677 -8.560754e-05 0.0011905105

manager.M_space.weight f4 [64, 64]
000000 f7 ac 06 bd 81 6e f7 3d 6b 10 a2 3e 08 84 2a bd
       -0.032879796 0.12081624 0.3165315 -0.04162982
000010 72 d9 8c 3d 53 09 35 3e 47 a2 56 bd bd 80 38 3e
       0.06877412 0.17679338 -0.052400853 0.1801786
000020 3f 98 41 3e 94 27 19 bd 4f 19 e3 bc cd fe df bd
       0.18905734 -0.03739126 -0.027722029 -0.10937271
000030 37 a0 05 be e0 29 0d 3e 0f 06 13 be c6 8d fc 3d
       -0.13049398 0.13785505 -0.1435778 0.12331729
000040 6d b9 51 bc be 88 29 3d 4f 38 e2 bd 31 1e 08 be
       -0.012800557 0.041390173 -0.11045896 -0.13292767
000050 f1 97 71 be c8 65 8b bc f5 3c 4d bd 45 02 6e 3d
       -0.23593117 -0.017016307 -0.05010696 0.058107633
000060 e6 1b 44 3e c8 04 b3 bd 49 d6 69 be 77 b5 51 3d
       0.19151267 -0.08741146 -0.2283565 0.05119845
000070 ba 5a 04 3d 3c 1f 7d be 03 24 08 be 46 9b 40 bd
       0.032313086 -0.24718946 -0.13294987 -0.04702308
000080 c3 77 a1 bd 00 bd e8 ba 89 8c 2a bd ac 26 f6 bd
       -0.07884171 -0.0017756522 -0.04163793 -0.12019095
000090 d6 fb 3f be 27 69 fc 3d e3 ea 96 3d 53 cf 47 3e
       -0.18748412 0.12324744 0.0736902 0.19512682
0000a0 f9 04 33 be 23 b8 b5 bd 66 94 86 3e db 8e 83 bc
       -0.17482366 -0.08873012 0.26285094 -0.01605933
0000b0 e4 e7 1b bd 20 7a 1a bd e0 cd c0 bd c2 bc d7 3c
       -0.038062945 -0.037714124 -0.094142675 0.026335124
0000c0 ed 92 92 bd 5b 79 fc bd 76 c9 0a be e0 bc b0 bc
       -0.0715693 -0.12327834 -0.13553414 -0.021574438
0000d0 a8 5e e0 3d e9 c9 07 be 94 ab a5 3d fb b0 33 3e
       0.10955554 -0.13260616 0.080893666 0.17547981
0000e0 b6 10 0f be 08 09 9c 3d 11 75 a6 bd 28 12 08 3e
       -0.13971218 0.0761891 -0.081277974 0.13288176
0000f0 6e cd 25 bd 5e 8d 42 bc a0 70 b4 bd 8e fd ef 3d
       -0.040479116 -0.011874525 -0.08810544 0.117182836
000100 cf b2 cf 3c aa 9b d9 bb df a4 9b 3a 80 6f e2 3d
       0.025353817 -0.006640871 0.0011874697 0.11056423
000110 e6 69 42 bc eb 40 05 bd 17 b3 33 3e 06 55 5d 3e
       -0.0118660685 -0.032532614 0.17548786 0.21614465
000120 8a 21 e1 3d 03 4b c5 3d a9 32 3e bd 03 cb ca bd
       0.10992725 0.09633448 -0.046435032 -0.09902003
000130 d7 01 38 bc 3e 56 d7 bd a3 7a 2b bd 58 e9 70 be
       -0.011230907 -0.10514496 -0.041865002 -0.23526514
000140 3f fa b3 bd a3 76 d6 bd 59 2b 35 bd 52 9c c5 bd
       -0.08787965 -0.10471847 -0.044230793 -0.09648956
000150 4e a0 2f bd 76 b0 47 3d f0 9b 8b bd e1 7e 96 3e
       -0.042877488 0.04875227 -0.06816852 0.29393676
000160 60 ac c4 bd 06 08 ee 3d 84 8e ac bd 1f 2d ee 3b
       -0.096031904 0.11622624 -0.0842562 0.0072685624
000170 57 20 36 be 10 63 20 3e a3 53 63 3e d6 ed 65 3e
       -0.17785774 0.1566279 0.22199874 0.22454008
000180 ca d1 ef 3d 35 e1 02 3e 7a cb 8f bc 0d f9 e9 3d
       0.11709936 0.12781222 -0.01755308 0.11424456
000190 11 63 f4 bd 8c e3 2e bc d5 ae 3b bd e4 79 dd bd
       -0.11932958 -0.010674369 -0.04582103 -0.108142644
0001a0 ad da 11 be d5 6b 76 bc 77 43 4f 3d 0f 20 31 3d
       -0.14243574 -0.015040358 0.05060145 0.043243464
0001b0 4d 7f f0 bd b3 7b 1d 3e 7f bb 50 3c 5e 99 c4 3d
       -0.11743031 0.15379219 0.012740015 0.09599565
0001c0 d3 60 bf 3d 0d 4a c7 3d 15 06 d5 be ff 21 c8 3d
       0.0934464 0.09730921 -0.41606203 0.09772109
0001d0 2e fe 82 be af 05 85 bd 04 b6 3f 3e 70 72 16 bd
       -0.2558455 -0.06495225 0.18721777 -0.03673023
0001e0 15 24 c9 3d f7 be 80 3d 88 61 ee bd 6f bf ea bc
       0.09821335 0.06286424 -0.11639696 -0.028655736
0001f0 3f 6a ea 3c e3 b7 5e 3d 6f f3 9f 3d 2a 4c bb 3d
       0.028615115 0.054374587 0.07810103 0.091453865
000200 e7 df 16 be 4f 95 c9 bc e1 d3 f3 3d ec 9b 22 bb
       -0.1473385 -0.024607329 0.11905647 -0.0024812175
000210 41 2f e7 3d 31 18 41 be 33 79 1f bd d1 49 cc 3e
       0.1128831 -0.18856885 -0.038933944 0.39900067
000220 c3 d1 03 3e 1b 1e 1e be 90 2f 4d bd 67 db cf 3c
       0.12872986 -0.15441172 -0.050094187 0.025373174
000230 ef ab b1 3d 1e d2 f2 3a b9 3f 91 3d 91 ba dc 3b
       0.08675372 0.0018525755 0.07092232 0.0067361076
000240 bd f1 24 bd 5f 11 4d 3e b2 35 32 be 4e f9 eb 3d
       -0.040269602 0.20026158 -0.17403296 0.115221605
000250 eb 3c 68 3e 71 23 21 bd 39 94 67 be 77 55 59 be
       0.22679488 -0.03934044 -0.22615136 -0.21224009
000260 69 f8 ac bd cd 0d fe 3c 84 54 00 3d 66 b1 d9 3c
       -0.08445818 0.03101244 0.0313306 0.026573848
000270 f3 9b 09 be ad 44 87 bd 5c df aa 3d de 05 0e 3e
       -0.13438396 -0.06604896 0.08343384 0.13869426
000280 a8 c9 01 3e 84 16 a2 3d a8 77 3b 39 b5 31 d6 3d
       0.12674582 0.07914451 0.00017878285 0.104586996
000290 2d 42 79 3c e9 ea 46 3d 63 1b 59 3d 06 97 f2 3c
       0.015213531 0.04856387 0.053004634 0.02961303
0002a0 9f 3e 00 be 61 a5 0e 3e b9 4d d2 bc 05 02 e8 bd
       -0.12523888 0.13930275 -0.025671827 -0.1132851
0002b0 23 2b e5 bd 47 23 23 be aa e0 24 3b 44 71 1d 3e
       -0.11189868 -0.15931426 0.0025158324 0.15375239
0002c0 1d ae 1c 3e f4 2f 62 bd 67 43 fc 3d 22 e3 0e be
       0.15300794 -0.055221513 0.123175435 -0.13953832
0002d0 54 95 d3 3d 16 d7 2f 3d 1b 90 fc bc a6 f1 92 3c
       0.103312165 0.04292973 -0.030830434 0.017937493
0002e0 b9 06 a1 bd 4a 8e 06 3e cc e1 0f 3d 39 0d f0 3d
       -0.0786261 0.13140216 0.035127446 0.11721272
0002f0 45 81 82 3d e0 67 c4 3c 34 90 67 3e 62 cb 97 be
       0.063723125 0.023975313 0.22613603 -0.29647356
000300 6f 63 3a 3d ae 25 6c 3e 94 dc e7 bd f4 57 63 3e
       0.045504984 0.23061249 -0.11321369 0.2220152
000310 87 1e ab 3e 99 27 78 bd 5b 3f 33 bb 5a 30 b8 3d
       0.33421728 -0.06058464 -0.0027350995 0.08993597
000320 82 80 02 3e 3c 8a 86 3c 8a 64 1f 3d bb 6f 54 be
       0.12744334 0.016423337 0.03891424 -0.20745747
000330 94 7d b8 3d af 7d 0e 3d 89 ee c4 3d 6d f8 21 bd
       0.09008327 0.03478783 0.096158095 -0.039543558
000340 f3 b8 9f 3e cb 7c c7 3b 2e 05 05 3d 4b 51 0d 3e
       0.31195793 0.0060878745 0.032475643 0.13800542
000350 e4 c0 c0 bd 8e ba 1f 3d 64 33 f5 3b b3 82 d9 bb
       -0.09411791 0.03899627 0.007482933 -0.006637895
000360 0a 7e ff ba 42 95 eb bd 4c 88 25 3c 7b ac c7 3d
       -0.0019492519 -0.11503078 0.0101032965 0.09749695
000370 72 08 d8 bd 9c e2 46 3d 29 43 85 3d 50 02 0b be
       -0.10548486 0.048555955 0.065069504 -0.13575101
000380 62 a0 f7 ba 96 87 e8 bc 27 fa 8e 3d 18 5c 40 3e
       -0.0018892402 -0.028384965 0.069813065 0.18785131
000390 7d 18 8b 3d ac 73 3d 3e 30 66 c7 3d dd 9a fb 3d
       0.0679178 0.18501157 0.097362876 0.12285397
0003a0 56 df 8e 3c 2e 98 42 3e 9f b5 36 3e 19 04 23 3e
       0.01744048 0.19003364 0.1784272 0.15919532
0003b0 b6 8c ce 3c df 09 a8 3d 1d d4 51 3e cb 9c 78 3d
       0.02521358 0.08205008 0.20491071 0.060696404
0003c0 2b 4c 4c be 14 71 87 be 41 6b a4 bc f3 82 1f 3e
       -0.19950931 -0.2645346 -0.020070674 0.15577297
0003d0 3a 11 a3 bd d6 62 92 3d b0 6a 6b be be d6 df bd
       -0.0796227 0.07147758 -0.22989917 -0.10929631
0003e0 f4 6a 8f 3d df 57 03 be 33 c3 1a 3d e8 28 bc bd
       0.070028216 -0.12826489 0.037783813 -0.0918749
0003f0 7f 7f f1 3a e2 44 c6 bc cf 0b ad bb e7 54 e9 3c
       0.0018424838 -0.024202768 -0.0052809487 0.028482867

manager.M_space.bias f4 [64]
000000 ec 3e bb ba 81 a1 16 3b cf 86 fc 3a 51 f7 1a 3b
       -0.001428572 0.0022984447 0.001926625 0.0023645947
000010 00 4e d1 b9 1a ee 33 3b 50 00 b2 ba 95 77 31 bb
       -0.000399217 0.0027455152 -0.0013580415 -0.0027079333
000020 6f 8f 07 3b d3 89 22 3b 06 7a c6 3a 1c aa 53 39
       0.0020684858 0.0024801388 0.0015142567 0.00020185899
000030 fe 1b 1b bb 49 61 66 3b 1e af d6 39 de 2a ce 3a
       -0.0023667808 0.0035153201 0.00040947733 0.0015729328
000040 0f 14 59 3a 39 11 0e 3a 9b ac 94 ba 54 1f 29 bb
       0.0008280882 0.00054194365 -0.0011342944 -0.0025806027
000050 d4 d4 3e 3b 0d e7 84 3a 52 ef d1 38 b3 df 44 3b
       0.0029118555 0.0010139659 0.000100104735 0.0030040562
000060 7d 08 2c 3b 0e 8a d7 ba a2 1f 2e 3a 46 9e 98 3a
       0.0026250177 -0.0016444342 0.0006642287 0.0011643849
000070 7e d7 cf ba e4 59 da 3a e5 49 86 ba 58 7d 3c 3b
       -0.0015857068 0.001665887 -0.0010245411 0.0028761234
000080 79 ec 16 3b 85 3a 4c 3b 5c 3b 3d 3a 5b 07 26 bb
       0.0023029132 0.003116281 0.0007218623 -0.0025333974
000090 ba 24 40 bb 2b 38 4c bb f4 f2 61 b8 51 af 00 3a
       -0.0029318766 -0.0031161408 -5.3870448e-05 0.00049089367
0000a0 9c 00 8f 3a 51 75 95 b9 88 f7 1a bb fb fd 5d bb
       0.0010910216 -0.00028506902 -0.0023646075 -0.0033873308
0000b0 da 0d fb 3a 0d 47 10 3b 19 52 45 bb 0e 07 aa ba
       0.0019153908 0.0022015006 -0.0030108748 -0.0012972073
0000c0 1c 87 bb 3a d5 79 15 3b 99 69 e6 ba c3 5c 13 3b
       0.0014307234 0.0022808213 -0.0017579078 0.002248571
0000d0 46 24 27 bb 68 82 5d bb a9 45 e0 3a 98 f2 00 bb
       -0.0025503798 -0.0033799652 0.0017110604 -0.0019675847
0000e0 8f d8 40 bb cb 06 87 ba 3f 61 8b 39 de 0d db 3a
       -0.0029425954 -0.0010301707 0.000265846 0.0016712507
0000f0 c6 d6 13 b9 ea 08 8f bb 97 d1 2a bb 32 7e 3c 3b
       -0.00014099022 -0.0043650763 -0.0026064867 0.0028761742

manager.M_goals.weight f4 [64, 128]
000000 91 b2 8f bd eb ba 0c bd 71 87 1a bd f7 20 d5 bd
       -0.07016481 -0.034357946 -0.037726823 -0.10406678
000010 5d 57 26 3e 94 4e 06 3e 6c dd 0c 3d 2d 6d 75 3d
       0.16244264 0.13115913 0.03439085 0.05991857
000020 c7 dd 0d be 3c 86 29 3e cc c5 e6 3c 98 fd a0 be
       -0.13854133 0.16555113 0.028170489 -0.31443477
000030 c0 c9 2a 3e 22 2c 1b 3e 16 a8 bb 3c b3 c1 2a 3e
       0.16678524 0.15153554 0.022907298 0.16675453
000040 4b 17 67 bd 12 8b b5 3c 94 6c f5 bd 88 12 5f 3c
       -0.0564187 0.02216104 -0.119836 0.013615258
000050 77 e6 98 bd f5 82 68 3d d8 81 03 39 7f 00 2f 3c
       -0.07465833 0.056765515 0.00012541504 0.010681271
000060 f7 06 cd bc d1 da 84 bd 57 5b e7 bb ef a9 21 be
       -0.025027735 -0.064870484 -0.007060449 -0.15787481
000070 24 09 b1 3a 69 77 60 be be 28 49 bd 21 ca f6 bc
       0.0013506752 -0.21920551 -0.04911112 -0.03012568
000080 f2 40 c5 3d 4c 37 01 bd 35 4b b8 bc 9b fd b0 3d
       0.09631528 -0.031546876 -0.022496799 0.086421214
000090 4e db 28 bd 73 58 93 bd f9 1f eb 3d 39 7b 90 bd
       -0.04122477 -0.07194605 0.11480708 -0.07054753
0000a0 0f 08 84 bd 0d 1e d9 bd 15 56 11 3e 51 67 2e 3d
       -0.064468496 -0.10601435 0.14192994 0.042579
0000b0 0f c0 85 3c 71 06 94 3c 4e 9f cf bd 0b ba fb bd
       0.016326932 0.018069478 -0.10137807 -0.12291344
0000c0 ab ec e2 bc c2 9f 58 3a 1e 17 1a 3d 1e ba 82 3d
       -0.027700743 0.0008263552 0.037619703 0.06383155
0000d0 67 66 ac 3d 94 af 1a 3e ab a9 6d bd 57 40 1f 3e
       0.08417969 0.1510604 -0.058023136 0.15551887
0000e0 0b ff 3a 3c 4b 88 39 3d 66 0d 2a be ee 9d 05 bd
       0.011413346 0.045295995 -0.16606674 -0.032621317
0000f0 ec 99 29 3d 54 f8 b6 3d d9 8c 6b bd 03 68 a4 3b
       0.041406557 0.089340836 -0.05750737 0.005017282
000100 60 12 b1 3d 8a 9d 2a 3e 24 1e c9 bd 8b b4 92 3c
       0.08646083 0.16661659 -0.09820202 0.017908355
000110 ef 08 86 bc a5 07 32 bd b4 41 ec 3d bb b3 a0 bd
       -0.016361682 -0.04346432 0.115359694 -0.07846781
000120 28 6a 39 bd 05 e8 37 bc 1d 70 94 3d 87 ba 77 bd
       -0.045267254 -0.011224751 0.072479464 -0.06048062
000130 60 7f 24 3e 9c ef 79 bd a4 ed 69 bd d8 3c 67 3d
       0.16064215 -0.061019525 -0.057111397 0.05645451
000140 66 f1 d6 3c 6d d7 d3 bc 2d 9e 36 3c d2 4b 05 3d
       0.026238155 -0.025859559 0.0111461105 0.03254301
000150 8d 45 9a 3c 7f f8 58 bd 6c e4 0e ba 81 c1 7a bd
       0.018831993 -0.05297136 -0.00054509076 -0.061219696
000160 2e a2 54 be 95 24 07 3c 6c 93 4b ba ca a7 25 3d
       -0.20764992 0.008248468 -0.0007765803 0.04044322
000170 42 ca 4c 3d 0a 74 09 3e 19 38 02 3d 00 08 d0 3c
       0.049997576 0.13423172 0.03179178 0.02539444
000180 9b 24 d5 3d 07 ff 28 bd e0 a5 92 3d 4c 1c 9d bc
       0.104073726 -0.041258838 0.071605444 -0.019178532
000190 83 12 4a be 75 65 83 bd 7a 29 fa 3d 12 d5 88 3a
       -0.19733624 -0.06415836 0.12214942 0.0010439476
0001a0 07 50 74 3d d5 8e b0 3d 8b a9 8a bc e5 57 a2 3c
       0.059646633 0.08620993 -0.016926548 0.019817302
0001b0 8b af d0 3d 2e 41 a3 3c d6 3b cc 3b 37 69 ba bc
       0.10189732 0.019928541 0.006232719 -0.022755248
0001c0 89 53 c4 bd b2 8e 19 3d 6b 63 14 bc ec 18 fe 3c
       -0.095862456 0.0374896 -0.009056906 0.031017743
0001d0 94 af 17 3d 0a 69 8a 3d 3c 8f 23 3e f3 7c a1 bd
       0.03703268 0.06758316 0.15972608 -0.0788516
0001e0 fa 7c 0b bd 06 dc 1c 3c 58 eb 0a be 64 1d 16 3e
       -0.034054734 0.009573942 -0.13566339 0.14659649
0001f0 a7 73 0d 3c bb 57 5f bd 73 51 b0 3b 67 69 ed 3c
       0.008633531 -0.054527026 0.0053808033 0.028980924
000200 eb 09 de 3d 4c ce 61 bd 7f fb e5 bd 58 4d c6 bd
       0.108417355 -0.05512838 -0.1122961 -0.09682721
000210 68 54 e8 3d 87 5b 0c be e2 47 b2 3d aa 1f 2f 3e
       0.11344224 -0.1370679 0.08705117 0.17101923
000220 84 6a 87 bd a3 cd 18 bb 59 26 87 bd a2 db b5 bc
       -0.06612113 -0.0023315928 -0.06599111 -0.022199456
000230 f9 bf 15 bd 43 7e 5e bd 2b e5 2b 3d 18 bd 49 bd
       -0.036560033 -0.05431963 0.0419666 -0.0492526
000240 59 2a d9 bd 54 00 ff bb e2 af 40 bd d2 bf 8e 3d
       -0.1060378 -0.0077820215 -0.047042735 0.069701806
000250 ea 99 4d 3e f5 b2 b4 3d de b8 5a bd 63 82 20 3e
       0.20078245 0.08823196 -0.05339896 0.15674739
000260 a7 2f 0a 3e 66 81 47 3e 20 3d 25 be 94 e7 43 3d
       0.1349474 0.19482955 -0.16136599 0.047828272
000270 61 e3 08 3d 70 c0 b5 3c f9 78 82 3c 2c ec 3d bd
       0.03341997 0.022186488 0.015926825 -0.04636781
000280 34 fe 0d 3d 79 98 2b 3d 4c db 9f 3d 3c 04 c9 3c
       0.034666255 0.041893456 0.078054994 0.024538152
000290 4f c7 57 bd f6 6b 66 3d 10 dd d0 3c a4 6c 4e bd
       -0.05268031 0.056255303 0.025496036 -0.050396577
0002a0 eb 9b 72 bc 7f c5 c5 3b 0e 27 0f 3e 7d 54 1d bc
       -0.014807682 0.0060355063 0.13979742 -0.009602663
0002b0 d5 96 20 be 24 5c c8 3d 57 db 67 3c 8c 1d b3 bd
       -0.15682538 0.097831994 0.014151416 -0.0874587
0002c0 fe aa a5 bd 1a a6 bd 3d ec 35 10 be f3 3a c0 3d
       -0.08089255 0.09260197 -0.1408307 0.09386244
0002d0 a8 5a 63 bd 63 56 7b bd 2e 4b 81 bd 64 24 21 3c
       -0.05550638 -0.06136168 -0.063131675 0.009835336
0002e0 35 77 8c 3c fa d8 8f bd d6 10 b4 3b 0c 1e 73 bd
       0.017146686 -0.07023807 0.005495171 -0.059354827
0002f0 5b ea a8 bd a8 c2 c9 bd 22 5a f1 3d ed 84 b2 bc
       -0.08247825 -0.09851581 0.117847696 -0.0217919
000300 0a 16 c2 bc 17 1f 8a 3d 61 f6 cb bd bb 68 89 3d
       -0.02369215 0.06744211 -0.099591024 0.06709429
000310 8c 5b 05 3d 02 97 b2 bc 9b c1 8d 3d 9a bc fa 3d
       0.03255801 -0.021800522 0.06921693 0.12243004
000320 91 e2 73 3c 12 8d a2 bd 1c 1b e2 bd 45 68 43 be
       0.014885561 -0.07937063 -0.11040327 -0.19082744
000330 15 48 00 3d ae b3 ad 3c 1e 15 ad 3d 7c 9a eb bd
       0.031318743 0.021203842 0.084512934 -0.11504075
000340 f3 85 86 3d 0c f1 3f 3d 8b 66 d8 bc e1 e0 31 bb
       0.065685175 0.04686074 -0.026416084 -0.0027142095
000350 c9 4d 8e 3d 4d 1b a5 3c 89 66 e6 3b 8f ae 05 3e
       0.0694843 0.02015462 0.007031266 0.1305487
000360 d8 e7 f6 bc 2e 58 56 3d 4f 1c 1b bd 58 42 6c 3e
       -0.030139849 0.05233019 -0.037868794 0.23072183
000370 54 19 db bd 1b 0b a2 bd 98 af c1 bc f6 d0 15 bd
       -0.1069819 -0.079122745 -0.0236433 -0.036576234
000380 dc 01 8b bd d0 8d fe 3d 09 a9 d1 3d 81 3f b7 bd
       -0.06787464 0.12429392 0.10237319 -0.08947659
000390 d3 09 82 bd 74 37 26 3e b3 8c 44 bd d3 63 47 bd
       -0.0634953 0.16232091 -0.047985744 -0.048679184
0003a0 f1 44 fc 3b ed 40 32 3e bf c0 30 3c e5 7c 11 be
       0.007698648 0.1740758 0.010788142 -0.142078
0003b0 03 d3 ae 3d ab ee 26 3d ff 1c 81 3d 0f 9b d8 3b
       0.08536341 0.040754955 0.06304359 0.0066102813
0003c0 af c6 d1 bc af 38 49 bd 0c a6 03 3e 08 64 ab bb
       -0.025607435 -0.049126323 0.1285631 -0.0052304305
0003d0 32 88 b9 bd 8e f6 1c be d6 22 ec bc 87 5f b1 3d
       -0.0905918 -0.15328428 -0.028825205 0.086607985
0003e0 d6 9e de 3c 67 c2 2a 3d c9 af 19 be a4 a0 dd bd
       0.027175348 0.041689303 -0.15008463 -0.108216554
0003f0 4d 2f 7d 3d 99 25 c3 bc 05 cb 5d be 3f 52 c8 bd
       0.061812688 -0.023821639 -0.21659477 -0.09781312

manager.M_goals.bias f4 [64]
000000 71 bd 0e 38 aa b2 20 bb d2 76 59 3b 3c c6 1d 3b
       3.403187e-05 -0.0024520555 0.0033182395 0.0024074456
000010 b0 69 6e bb a2 9e 59 bb 84 14 29 3b fe ab 23 bb
       -0.0036378913 -0.0033206125 0.0025799582 -0.0024974342
000020 90 01 2a bb 09 da 32 3b df 87 84 3a 67 48 23 3b
       -0.0025940873 0.0027290604 0.0010111294 0.0024914981
000030 34 51 d9 3a 25 bd 45 bb 1d ff 02 3b 17 df 32 bb
       0.0016579987 -0.0030172553 0.0019988485 -0.0027293616
000040 64 37 76 bb 22 53 13 3b 14 93 2c 3b 5b 71 81 39
       -0.0037569636 0.002247997 0.0026332783 0.00024689254
000050 df 01 23 bb 93 b1 b3 39 da 35 dc 3a 96 ef 3f 3b
       -0.0024872941 0.00034273844 0.0016800717 0.0029287091
000060 68 53 e1 ba da 8f 42 bb da 51 2f bb 01 8d 1a 3b
       -0.0017190995 -0.0029687793 -0.0026751668 0.002358258
000070 08 86 19 3b 6b 17 3e 3b c5 b6 e9 ba c6 4f 0e bb
       0.0023425836 0.0029005657 -0.0017830959 -0.002171503
000080 e2 49 74 bb 2f 75 9f ba bc 2d 32 bb 0a f4 6a 3b
       -0.0037275483 -0.0012165661 -0.0027187904 0.0035851025
000090 ec 9e 44 bb 32 21 a6 ba d9 3a 38 bb 44 85 2a 3b
       -0.0030001951 -0.0012674688 -0.0028111248 0.0026019374
0000a0 c2 3c f5 3a fa 12 14 39 95 81 5c ba 67 33 0a 3a
       0.0018710124 0.00014121449 -0.0008411643 0.0005271942
0000b0 8d 8b 56 3b e6 6b 12 bb 50 93 9e ba ee 6e a9 ba
       0.0032736987 -0.0022342145 -0.0012098346 -0.0012926736
0000c0 be 16 69 3b db 9f d0 ba fd 2b 24 3b e4 4f 0f 3b
       0.0035566534 -0.0015916781 0.0025050633 0.0021867687
0000d0 ac 7e 66 bb 7b ed 26 3b 69 08 20 3b b4 31 53 3b
       -0.0035170717 0.002547114 0.0024419075 0.003222567
0000e0 7a 7c 30 3b 5c c0 77 bb f8 3c 07 bb ae bb 30 3b
       0.0026929663 -0.0037803864 -0.0020635705 0.0026967335
0000f0 4f df 1f 3a 2d 6a 09 3b fc 77 58 3a 9b 2e 0e 3b
       0.0006098644 0.0020967827 0.0008257625 0.002169526

manager.M_value.0.weight f4 [32, 64]
000000 3d 71 18 3e 04 5e 27 3e 05 da 1a be a7 69 1e 3e
       0.14886947 0.16344458 -0.1512223 0.1546999
000010 b2 da 2b 3e d0 ab fe bc c5 4c 08 bd e9 98 ed 3c
       0.16782644 -0.031087786 -0.033276338 0.029003577
000020 03 69 0a be bb 8c a0 bd dc 10 9b be 61 ed 0a 3e
       -0.13516621 -0.07839342 -0.302863 0.13567115
000030 24 49 09 3c 2e 48 51 ba bd 30 a5 3d c4 b1 41 bd
       0.0083792545 -0.0007983473 0.08065937 -0.04728867
000040 6f ee ad 3d 80 52 06 bd e1 97 e6 bc fb 63 81 bc
       0.08492743 -0.032793522 -0.028148593 -0.015794745
000050 07 d9 f3 3b af 5f 14 bd 08 1d 01 be f6 35 57 3e
       0.007441643 -0.036224063 -0.12608731 0.21016678
000060 c5 d3 c9 bc 7e 6a 91 3e 97 62 b7 3d 85 67 73 be
       -0.024637112 0.2840156 0.089543514 -0.23769958
000070 be 52 25 3d 32 ae 33 3c b8 4e 23 be 46 91 2a 3e
       0.040362112 0.010966824 -0.15947998 0.1665698
000080 7b 4e 0d 3e 62 4b 09 3e ef 18 48 bd 7a a8 bc bd
       0.13799469 0.13407663 -0.048851904 -0.09211822
000090 c6 17 d1 3d 59 ef 65 bd 56 41 a7 bc a7 00 b4 3d
       0.102096125 -0.056136463 -0.020416897 0.08789187
0000a0 a5 d0 0f 3e d2 54 a8 3d 8e 1f e0 bd a5 21 2b bb
       0.14044435 0.08219303 -0.109435186 -0.0026112583
0000b0 16 07 28 be 02 af 48 be e0 de 4a 3d d2 f1 3a 3e
       -0.16408953 -0.1959801 0.049528956 0.1825631
0000c0 94 15 bb 3d ff d4 7d bd 00 32 e1 3d fb 9d 89 3d
       0.09134975 -0.061970707 0.10995865 0.067195855
0000d0 4a 53 64 3e b2 c9 9c 3c 8f 1a 16 be 51 fc f0 bb
       0.22297397 0.019139145 -0.14658569 -0.007354297
0000e0 5e 1f 4e be 34 06 8c 3d be 8c c0 bc 1d 17 78 3d
       -0.20129153 0.06837121 -0.023504611 0.060568918
0000f0 8d 39 02 be 3e 6b 45 be a7 26 f7 3d b1 87 27 3e
       -0.12717266 -0.19279191 0.12067919 0.16360356
000100 fd 86 28 be d5 02 55 3e 42 e4 02 bd 3a 05 29 bd
       -0.16457744 0.20801862 -0.031955965 -0.04126475
000110 12 c9 d4 3c 95 bb 50 3d 67 e6 19 be da 5b 2c 3d
       0.025974784 0.050960142 -0.15029298 0.042079784
000120 5c b6 26 bd 55 b7 a9 be 14 2f e3 3d bc 7c 5e 3d
       -0.040701255 -0.33147684 0.11092964 0.054318175
000130 fa c3 a9 be d7 f7 db 3c 9d a6 e7 b6 a3 51 c7 bd
       -0.3315733 0.026851578 -6.903733e-06 -0.09732368
000140 89 2a 66 3d 2f d9 7c 3c a6 fe 2f 3e e7 fa 4a be
       0.05619291 0.01543264 0.17186984 -0.19822274
000150 e3 e8 d2 bb 3e 05 96 3d 78 9e cd 3d fb 6b 3c 3d
       -0.0064364537 0.073252186 0.10039991 0.046001416
000160 e6 05 bd bb 8f 35 8c bd c2 b5 e3 3d a0 76 30 be
       -0.0057685254 -0.06846153 0.11118652 -0.17232752
000170 64 5f 18 be 12 cc 6b bd 21 0d 17 bd 2d a2 0c 3b
       -0.14880139 -0.057567663 -0.036877755 0.002145897
000180 63 e3 1a 3e 84 39 85 3b 0d 45 d5 3d 2e 3b 2c 3e
       0.15125804 0.0040656943 0.10413561 0.1681945
000190 4b 02 0b 3e 9b 0d 46 3e cd 8b 04 3d 65 b7 82 bd
       0.13575093 0.19341128 0.032359887 -0.06382636
0001a0 6c d5 8b 3c 1e 39 45 3c 10 25 93 3e 1c ad d8 3d
       0.01706954 0.012037544 0.28739214 0.10579893
0001b0 35 de 6e bd aa 9f b5 3d b1 ed 82 3e c1 03 d3 bd
       -0.058317382 0.08868344 0.2557197 -0.103034504
0001c0 ee 51 33 be d8 c8 10 3d d7 24 e7 3c 18 96 12 be
       -0.17511722 0.03534779 0.028215809 -0.14315069
0001d0 0c 2e a2 bd b9 22 7d 3d e7 6d 02 3e ec d1 10 be
       -0.07918939 0.061800692 0.12737237 -0.14142579
0001e0 f0 97 60 3d 5c c8 77 3d d8 8d e0 3d b7 2d 02 3e
       0.0548324 0.060493812 0.109645545 0.12712751
0001f0 62 d8 3c be da 70 c6 bd e3 3b 5d 3d 58 01 a0 3a
       -0.18441918 -0.096894935 0.05401219 0.0012207432
000200 9e 72 12 be ab c8 b6 bd 8e 41 15 3d d5 3a 50 3e
       -0.14301535 -0.08924993 0.03643947 0.20334943
000210 35 b2 84 3c 4c a6 14 bd 63 6e 39 3c 0e 9b 27 3d
       0.016198257 -0.036291406 0.011317822 0.040919356
000220 d6 7a ef 3d 13 18 75 3e 6f 60 3e bd ea a0 10 3e
       0.11693351 0.23934965 -0.046478685 0.14123884
000230 6b f1 1b bd b0 6d 36 3d 3f e0 5e bb cc 09 cd be
       -0.03807203 0.0445382 -0.0034008173 -0.40046537
000240 a5 4b 90 bc 81 72 27 3e 71 25 33 bd 42 2b 83 3d
       -0.017614195 0.16352274 -0.04373688 0.06404735
000250 06 ea 84 be 91 bd 24 3e ce ce 1b 3e 28 f7 11 3e
       -0.25959796 0.16087939 0.15215608 0.14254439
000260 c8 83 05 3e b6 2b 8f bd cc bc aa bd c8 5a 18 bb
       0.13038552 -0.06990759 -0.083367914 -0.002324747
000270 fd a3 31 3e 6e ca 56 3e 70 fe 1d 3d e5 a1 9d bc
       0.17347713 0.20975658 0.03857273 -0.019242236
000280 b8 44 18 3e 4c 71 d5 3d 26 56 f7 bd 09 41 ba bd
       0.14869964 0.10422 -0.120769784 -0.09094436
000290 52 aa 31 3d b4 cf d7 ba 2e 57 d9 bb e5 b8 27 3e
       0.04337532 -0.0016465099 -0.006632707 0.16379125
0002a0 81 3a 00 3e 5f 6c 28 3e b0 cf 6d 3d d9 ef c5 3d
       0.12522317 0.1644759 0.058059394 0.09664888
0002b0 cd 8b 25 3e f6 30 97 3d fa 7e 26 bd 27 ca 26 be
       0.16166611 0.073823854 -0.040648438 -0.16288052
0002c0 66 a3 0f 3e ae dc de 3d a6 4a 1c be 46 df 7c 3b
       0.14027175 0.10881935 -0.15262851 0.003858523
0002d0 93 6b db bd a1 fb 8b bc b2 06 a8 3d 40 24 8f bc
       -0.107138775 -0.01708776 0.08204402 -0.01747334
0002e0 76 be b7 bb 00 b7 e0 bc ab 1b 3b 3e e6 40 63 bb
       -0.0056074215 -0.027431011 0.18272273 -0.0034676134
0002f0 be 51 0a be 0b 16 f4 3c e0 2c 85 38 05 18 88 3e
       -0.13507745 0.029795667 6.350293e-05 0.26580825
000300 c2 3d 3d 3e f6 8e 9b bd 1e c7 95 3e f3 80 43 3d
       0.1848059 -0.07595627 0.29253477 0.047730397
000310 08 ff 47 be 83 7b 0d bd c9 91 1f be d8 e1 b5 3c
       -0.1953088 -0.034541618 -0.15582956 0.022202417
000320 be 56 d9 ba 15 2e 94 bd f8 2a 2e 3e 9f 3b a7 3d
       -0.0016581637 -0.07235352 0.17008579 0.08165669
000330 57 99 ad 3c 66 b5 80 bc 21 7a 86 3d e6 3a 4a 3e
       0.021191282 -0.015711498 0.06566263 0.1974903
000340 13 06 55 3c 0a 09 7a 3c 23 00 28 be 99 7b a8 3d
       0.0130019365 0.015260944 -0.16406302 0.082266994
000350 cd e1 68 bd 83 cd 47 3b 1b f0 07 be 38 cb e9 bd
       -0.056855965 0.0030487485 -0.13275187 -0.11415714
000360 4a c1 9d bc fb c4 84 3e 13 c9 89 bd 53 4a 57 bd
       -0.019257206 0.25931534 -0.06727805 -0.052561115
000370 27 ab 4b be cf e7 3c 3e 5c d0 aa bc 90 00 71 3d
       -0.19889508 0.18447803 -0.020851307 0.058838427
000380 7f d8 07 bd 50 f3 d2 3d 6f a1 02 be 00 8f 42 bd
       -0.03316545 0.103003144 -0.12756895 -0.047499657
000390 e1 ad 8d 3d eb 14 57 3d 19 c7 6e bc 57 52 6e bd
       0.069179304 0.052510183 -0.014573836 -0.058183994
0003a0 04 7b 56 3c a5 4f ab bd 94 27 01 3e 0f c6 c4 bd
       0.013090853 -0.083648 0.12612754 -0.09608089
0003b0 ee 3a 72 3d ce 44 76 3e 4b c4 22 3e 4b 01 0f 3c
       0.05913823 0.24049684 0.15895192 0.008728336
0003c0 f8 4f 91 3e 95 12 18 3e 44 43 ef bd f9 8e cf 3c
       0.28381324 0.14850838 -0.11682752 0.02533673
0003d0 06 b7 92 bd 1b 7e 47 3e 38 05 63 be 65 66 e2 3c
       -0.07163815 0.19481699 -0.2216996 0.027636716
0003e0 1f b6 89 bd f2 1a 80 3c 6c f2 88 3e d8 22 47 3e
       -0.0672419 0.015637849 0.26747453 0.19446886
0003f0 dd 71 d9 bc 50 19 99 3c 62 96 a9 3d ec 30 90 bd
       -0.026543552 0.018688828 0.08280636 -0.07040581

manager.M_value.0.bias f4 [32]
000000 96 89 3e bb eb e3 70 bb 63 0a 33 3b 3d ff 13 bb
       -0.0029073707 -0.0036756943 0.0027319423 -0.0022582554
000010 b8 a1 3f bb 08 3b 48 bb 73 b4 36 3b e1 de 0b 39
       -0.002924068 -0.0030552763 0.0027878552 0.00013339102
000020 3d 92 3c 3b d8 31 53 bb 31 2d 49 bb cf 43 d6 ba
       0.0028773688 -0.0032225754 -0.0030697102 -0.0016347113
000030 2c 98 8d 39 0f 85 bd ba 03 76 34 bb 42 a9 2d 3b
       0.00027006993 -0.001445921 -0.002753616 0.002649859
000040 c9 cb 1c 3b f0 01 5c bb 5d 77 34 3b 45 6d 57 3b
       0.0023925176 -0.003357049 0.0027536966 0.0032871526
000050 3a 2e 35 3b ef 98 2a bb 16 ad 42 bb f0 fd 55 bb
       0.0027645961 -0.0026031097 -0.0029705218 -0.003265258
000060 63 d6 34 3b 35 c0 3f 3b f9 f6 34 3b 65 f8 11 bb
       0.0027593605 0.0029258851 0.0027613027 -0.0022273299
000070 d3 75 82 3a d1 e8 4a bb bb 19 2f 3b b5 d3 09 3b
       0.0009953327 -0.0030961523 0.0026718217 0.0021030728

manager.M_value.2.weight f4 [1, 32]
000000 90 a4 e9 3d cd 78 47 3e 66 ce ad be 1b 73 07 3e
       0.11408341 0.19479676 -0.33946532 0.13227503
000010 56 8b 68 3e 78 88 d4 3d 38 81 62 bd 3f f1 2b bc
       0.22709402 0.10377592 -0.055299014 -0.010494529
000020 44 05 64 be d2 1f 2c 3e a8 ee 0b 3e 7f 3c ea 3d
       -0.22267634 0.16809013 0.13665259 0.1143732
000030 6d 03 52 bd de 90 8e 3d c6 8e f0 3d 10 e6 93 bd
       -0.0512728 0.06961225 0.11745982 -0.07221615
000040 5b 2e a7 bd 57 0e ac 3d 04 11 19 bd cd bd 5f bd
       -0.081631385 0.084011726 -0.037369743 -0.054624368
000050 ed ef 0a be 51 6e 20 3e ee a5 a0 3e f4 56 a8 3e
       -0.13568087 0.15667082 0.31376594 0.3287884
000060 5e 89 c8 bc c8 a4 75 be b0 5e 58 be fa 9b 73 3d
       -0.024479564 -0.2398864 -0.2112987 0.059474923
000070 aa 55 4e be dd 8d d9 3e 8c dc 75 bd 38 c1 92 bd
       -0.20149866 0.42491046 -0.060024783 -0.0716576

worker.f_stateW.0.weight f4 [128, 64]
000000 4f 4d 74 3d 24 09 40 3d 88 2b 61 bd 58 77 25 bd
       0.05964404 0.046883717 -0.054973155 -0.04039702
000010 36 e4 b4 bd c3 f5 57 3d a5 29 4d bc 24 f5 51 be
       -0.0883259 0.05272461 -0.012522136 -0.2050367
000020 91 07 c3 3d c1 e5 ac bd 72 b4 8d bb 9e ed fd bb
       0.095229276 -0.084422596 -0.0043244893 -0.0077492734
000030 68 7f 60 bc 01 c0 cc 3c 98 eb 04 3e c5 b6 fc bc
       -0.013702251 0.024993898 0.12980497 -0.03084887
000040 8e 83 b7 3d 0f 1b 03 bc 9c 7c 69 3e 56 af ba bd
       0.08960639 -0.008002057 0.22801441 -0.09115474
000050 0f 4f e8 bd 93 a9 fb bd fd b2 0d bd 8e 41 a6 3c
       -0.11343204 -0.12288203 -0.034594525 0.02029493
000060 39 c2 5a 3e 4c 7d c6 bd 5f 78 19 3e 78 eb fb bd
       0.21363153 -0.09691867 0.14987324 -0.123007715
000070 09 70 fc bc de f3 07 bd d7 65 97 3d 40 82 32 3d
       -0.030815141 -0.033191554 0.07392471 0.043581247
000080 36 e2 c5 3d d9 84 47 3d 4a 73 27 3b ef 30 8a 3c
       0.09662287 0.048710678 0.0025550895 0.016869036
000090 bd 14 f2 bc 53 08 cb bc ca fb 85 3d 20 54 97 bd
       -0.029550904 -0.024784243 0.065421656 -0.073890924
0000a0 be 5f 1a be 65 7b 6f 3d d7 11 a4 3d 7b 15 34 3a
       -0.15075585 0.058467288 0.08011215 0.0006869656
0000b0 b2 1f 53 bd e9 cd 0c 3d 19 d5 a2 bb 17 eb 5b 3d
       -0.0515439 0.03437606 -0.004969251 0.053690996
0000c0 b0 3b 67 bd ca 76 00 be ec cc 72 3d 5e c9 7e 3d
       -0.056453407 -0.12545314 0.05927746 0.062203757
0000d0 90 63 f7 3d a3 3f 84 bd 9a a8 5a 3d d9 a3 1f be
       0.12079537 -0.0645745 0.053383447 -0.15589847
0000e0 09 f3 66 bc ff de e1 3c ee db 18 be 38 0f 0b 3c
       -0.01409603 0.027572153 -0.14927647 0.008487515
0000f0 75 27 81 3c 92 70 f7 3d 9a db 06 3d 42 e9 c7 bc
       0.015765885 0.12082018 0.032924272 -0.024403218
000100 e5 5a 28 3d 33 09 00 3d 05 7f 10 be 60 48 52 bd
       0.04110231 0.031258773 -0.14110954 -0.051338553
000110 85 49 c2 bd 7b ec 8e 3c 83 ea bf 3d 20 3b 1a 3d
       -0.09486679 0.017446747 0.093709014 0.037654042
000120 2e 01 e1 3d a8 90 6b 3d 9b 7f e6 3c 34 4a ec bd
       0.10986553 0.057511 0.028137019 -0.115375906
000130 d7 a5 d6 bb ca a1 cf bd 9e 16 92 3c 1c 45 05 3a
       -0.0065505314 -0.10138281 0.01783305 0.00050838455
000140 86 12 9f 3d 2f a3 43 3d 9e e2 4a bd b2 d6 2a 3d
       0.07767205 0.047763046 -0.049532525 0.041708656
000150 49 cd 88 3d e1 de b7 bb 14 88 86 3d 8a 48 e4 bc
       0.0667978 -0.005611286 0.065689236 -0.02786662
000160 48 65 89 be 65 1c cf bd d5 55 ab 3d 21 de cc bd
       -0.26835084 -0.10112838 0.083659805 -0.10003305
000170 db d2 a2 3c c7 a8 1f 3e dd c0 e5 3c ef 29 9a bd
       0.019875934 0.15591727 0.028046066 -0.075275294
000180 63 24 be bd 7a e3 bd bd 5d 42 1f bc 8e 1c 3b bb
       -0.09284284 -0.09271903 -0.009720412 -0.0028550955
000190 4c 00 2a bd a7 ac b4 bd e6 75 ba 3c 4c c6 ab bd
       -0.04150419 -0.08821993 0.022761296 -0.083874315
0001a0 9d 44 29 3d 71 32 ef bd 23 1b 17 bd ef 5d a3 3d
       0.0413252 -0.11679543 -0.036891114 0.07976901
0001b0 f6 9e d6 3b de cb a3 3d 72 ec 37 be fb 89 da bd
       0.0065497113 0.07997869 -0.1796129 -0.10670849
0001c0 5d a3 34 3e 62 6e 82 3b 39 6c c6 3d b1 3d 0e be
       0.17640443 0.003980444 0.096886106 -0.13890721
0001d0 d5 24 14 3e 33 4a 0c 3c 86 06 c4 bd dd 0f 15 3e
       0.14467175 0.008562612 -0.09571557 0.14556833
0001e0 80 80 04 3d a2 e7 e4 3d 0a 20 d6 3d 69 b6 00 3e
       0.03234911 0.11176993 0.1045533 0.12569584
0001f0 78 64 08 3c c6 4f c6 3d f9 a1 8f 3d 04 d9 97 bd
       0.008324735 0.09683184 0.07013316 -0.07414439
000200 58 ad 3d bc 59 96 91 bc 65 c8 09 be ea 4e 29 3e
       -0.011576973 -0.017771887 -0.1345535 0.1653401
000210 00 78 c7 bd 37 51 01 bd 73 9f dc bd ee cf bf 3c
       -0.09739685 -0.031571593 -0.107726 0.023414578
000220 01 70 e1 3d 98 05 9a bc da a3 8a 3d 2a 03 e3 bd
       0.11007691 -0.018801495 0.067695335 -0.11084588
000230 6e 75 8e bd e5 49 1d 3d a7 c0 97 bc 89 f9 3d bd
       -0.06955992 0.03840055 -0.018524481 -0.046380553
000240 12 8f 50 be 41 0e 64 bd db 8e 16 bd 4f 9d da bd
       -0.20367077 -0.055677656 -0.03675733 -0.106745355
000250 9d d2 9e 3d 28 a0 57 3d 7a f1 8c 3b 43 b7 25 3e
       0.07755015 0.05264297 0.004301247 0.1618319
000260 92 f0 f1 3d 8f f4 88 3d 48 2e 2b 3d 3a b1 91 3c
       0.11813463 0.06687271 0.041792184 0.017784704
000270 64 37 59 3d 01 c6 5d bc f1 ff 1c 3b 79 45 b9 3d
       0.05303134 -0.013535977 0.0023956264 0.09046454
000280 01 0c dc bd 70 ed 9b bd 6c 3b 52 be 33 f2 d1 bc
       -0.10744477 -0.07613647 -0.2053048 -0.025628185
000290 1b 11 46 bd 1d 82 b5 3c 83 0f db 3a 61 94 0f 3d
       -0.048356157 0.02215677 0.0016712997 0.035053615
0002a0 ee 44 87 bd aa f9 3c 3d 53 e7 85 bc 36 66 c8 3d
       -0.06604944 0.046136536 -0.016345656 0.0978512
0002b0 80 5b d7 bd 29 12 2d 3d 9c 23 bb 3d 09 3a ab bd
       -0.10515499 0.042253647 0.09137651 -0.08360679
0002c0 de 5a 4a 3d f5 1d af 3d 79 a8 00 3e 32 d7 9f 3c
       0.049403064 0.08550636 0.12564267 0.019511793
0002d0 66 9a 98 3d c9 36 0c bd e2 99 2e be 16 2c 01 be
       0.07451324 -0.034231935 -0.17050889 -0.12614474
0002e0 4d 0b 2b 3d 38 a5 da bc 37 64 4d 3d 49 3a b5 3c
       0.041758824 -0.02669011 0.0501444 0.02212252
0002f0 bb a7 73 bd 36 96 b1 bd de aa 44 3d 10 06 27 3e
       -0.059486132 -0.086712286 0.048014514 0.16310906
000300 cd 2e 0f be ae 29 90 bc c4 84 e8 3d e5 d9 9f 3d
       -0.13982697 -0.017598 0.11353448 0.07805232
000310 1b dc 87 bd 7c 19 f0 bd 84 05 b9 bd 57 3d 28 ba
       -0.06633779 -0.11723611 -0.09034255 -0.0006417832
000320 82 14 09 3c c5 ba 3a bd b3 5a 78 3d 1c 66 18 be
       0.008366706 -0.045588274 0.060633373 -0.14882702
000330 19 65 11 be 79 b9 83 bd b2 12 ba bd 30 b7 4a 3e
       -0.14198722 -0.064318605 -0.09085597 0.19796443
000340 bd 49 01 bd 45 4a 06 3d d8 dc 09 be af 2e 61 3c
       -0.031564463 0.032785673 -0.13463151 0.01374404
000350 68 a5 2f be 8c db f4 bc 04 58 3c be 69 29 5a bd
       -0.17152941 -0.029889844 -0.1839295 -0.053262148
000360 4d 9c c7 bd 23 78 7d bd 9d 56 4f 3d 96 bd 2e be
       -0.09746609 -0.06188215 0.05061971 -0.17064509
000370 96 06 8b bd 30 6a 69 3d 5c f8 16 3d f0 a0 50 bd
       -0.067883655 0.056986034 0.036857948 -0.050934732
000380 e0 a9 45 3d 30 3a de 3c e5 92 a8 3d 1a 70 04 3e
       0.04825771 0.027127355 0.08231143 0.12933388
000390 75 d1 e7 3b 22 31 d2 3d 7c 1e e8 3c aa 42 ab 3d
       0.00707453 0.102632776 0.028334849 0.083623245
0003a0 aa d3 4e 3c b9 38 97 3b 1e c9 f3 3d 50 2f 14 be
       0.012623707 0.004614916 0.119035944 -0.14471173
0003b0 56 2d 19 be 59 78 b1 3d d2 ee 64 3d b9 19 9b 3b
       -0.149587 0.086655326 0.05589182 0.004733291
0003c0 f5 82 3e be 04 9f 21 3d c2 8c e9 3c e4 18 e5 bc
       -0.18604644 0.03945829 0.028509501 -0.02796597
0003d0 49 97 e5 bd ca 55 25 bd 3c c4 c3 bb 76 28 dd bd
       -0.11210496 -0.040365018 -0.0059743207 -0.10798733
0003e0 58 0c b1 bd 9c 3f 68 3d c2 ca 3f bd d7 f1 f8 bc
       -0.086449325 0.056701288 -0.046824224 -0.030388756
0003f0 da c0 bf 3c 1a e8 28 be 3a 84 a8 3c 88 f4 28 be
       0.023407388 -0.1649479 0.020570863 -0.16499531
