vwgym/saved_model/vwgym_f_net_step_500000.pt (torch_old, 758088 bytes, 51 tensors)

f_percept.percept.0.weight f4 [16, 3, 3, 3]
00000000: aff3 c0bc 378c 5d3e e91d 473d b436 63bd
00000010: 4ceb a43e 2d33 3a3e 0509 863e 043f 85be
00000020: fa88 313d 43a4 053d 943c 63be dc20 68be
00000030: 5dc8 6dbe f15d 2c3e 4869 6e3e 8a30 413e
00000040: 0778 b2be d844 aabe 78ba 4f3e c3b1 d3bc
00000050: bc29 ba3d 8378 4dbe c729 44be a943 13be
00000060: 8e3b 0e3e 8147 503d 3a76 5f3d efd0 abbe
00000070: 1b10 1c3e c1e3 89be 7cb8 7fbe dfe4 53be
00000080: bfa2 5cbe 9515 10be 8454 bb3d 7f84 7e3e
00000090: 674f 84bd 56de 91bc 0f23 c0bd 718c 04be
000000a0: 100e 1abe dd8c b43d 81d7 953e 7436 a83d
000000b0: 86f0 95be 92e4 88bd 6b1e cf3e 2329 9b3d
000000c0: b770 c33d db2a 9d3e 5cc8 56bd f464 413e
000000d0: eb0d af3c 0d23 79bc 679d 23bd ca95 f0be
000000e0: f3cf 953c b0a5 b7be 7ed0 3b3d 3d0c a53e
000000f0: 5cba 11be 422a 1d3d 0b8e 363d 616f aabd
00000100: 8d5c d83d 45c1 253e 8b0c 8bbe 37b3 f7bd
00000110: 70a6 85bd 6990 d9be 594e 2abd 298d a6be
00000120: 2b31 9c3d 6483 c1bd 671f 163e 4805 babd
00000130: 6c74 403e e6fe 043d 39d6 943d f678 993d
00000140: 45ec 073e 1a03 57bd 69f2 3bbd 1a91 95bd
00000150: 587e 2c3e 13c1 e2bd de3a 9ebd 2421 b2bd
00000160: e133 7cbe f8b0 893e 9d70 d8be 0ceb 563e
00000170: 11ee 263c 2a15 213e 082c 92bc e363 b8be
00000180: 6a83 4abd 7070 33be 2144 e23c b654 133d
00000190: 11e0 80bd 9f99 cfbd 9524 37bd 6439 81be
000001a0: 3ed7 4dbd c2dd 063f cbdc 1c3e 7d01 2fbd
000001b0: d5ad a1ba 2283 b9be 940e 00be fde1 b53e
000001c0: 8ec2 113d 65d7 a7be 3a52 3f3e 4d00 5a3e
000001d0: 687b 563c 70b2 313c e140 2e3e 1d10 62be
000001e0: 6409 37bd 3d88 e43d 6595 353d 85a1 913d
000001f0: e5c0 733b 26c8 a0be 728a 23bd 42b1 74be
00000200: 9f90 f3bd 58ff acbe 2fd1 663e 07b1 d0bc
00000210: 42f5 d7bc d222 0fbe 768f 95be b6e6 55be
00000220: 840d a73d 2363 d2bd c128 f3bd 276a f9bc
00000230: fa65 c9be 429c ed3d e7bd 183e 6646 a0bd
00000240: c983 34bc 45dc 0f3e 5d1f 473d 69dd 063d
00000250: 51ee 1bbd 4693 893e 369e 1ebe 8eb9 82be
00000260: 8f8f b63e 41e9 ac3e 3b1b 56be c333 8a3e
00000270: 91e1 03be 5d73 b03d 38b7 513e fe98 2f3e
00000280: 409f 98bd 2797 973e 4541 24be 6450 91bc
00000290: 49ce 55be 5b1e 4e3e a5ab a13e a0ed 8fbd
000002a0: 1bd3 1e3e 69fc 2fbe d7e9 643d cdf1 ecbd
000002b0: 00b7 e4bd 448f ce3e dd11 8bbd 20e3 abbd
000002c0: b5ff 833c 4550 a13d 335b b93d 3ddc 69be
000002d0: e630 0dbe 3c6b 19be 87d9 0f3c 1069 a63e
000002e0: f395 bfbd d39f 073f dff2 ecbc 6188 1abe
000002f0: e49a 113d ec06 80bd b6d1 1dbd c91a ddbd
00000300: 1335 6f3d 6be8 88be 1bd5 bd3e bf0e 493d
00000310: a750 a8be 996b 4f3e ae3d a1bd da26 e6bd
00000320: 02e7 84be 8513 a23e 783a 6fbd 2cb6 853e
00000330: 27f7 02bc 97b7 913e fa88 893d 8ef9 14be
00000340: d1a3 2fbe b8c2 443e c1e9 6fbe c059 e33d
00000350: d978 173e 0b68 523d 4fe2 98be d1b2 d43d
00000360: 3729 1c3e 3e33 353b 3ea9 4a3e 00e0 0e3c
00000370: cde1 7cbe e427 6bbe dd27 ddbb e1bd 8fbe
00000380: ab66 683e b96e 123c 7fc9 95bd 1f72 71be
00000390: 5970 21be 9474 0fbb 8f6c 9abd 47e2 19be
000003a0: e9de d8be 20d9 133c 537e 8abe cf7d cabd
000003b0: 11ea 8f3e 35fb 723e 0f87 353e fc17 2c3e
000003c0: ff51 92be e097 f93d d863 13be 4c05 293e
000003d0: 5569 ecbc 59bb 7dbe 2cd5 19be a6cc 923d
000003e0: d2f2 cabe f803 74be 2242 dfbe b7b9 5f3d
000003f0: a885 0b3e 45ca f6bd c5d4 233e 76cd fe3c
-0.023553697 0.21635519 0.04861251 -0.05547209 0.32210767 0.18183585 0.26178756 -0.2602464
0.04334352 0.032627355 -0.22191077 -0.22668785 -0.23220964 0.16832711 0.23282349 0.18866172
-0.348572 -0.3325565 0.20285976 -0.0258416 0.090899915 -0.20065503 -0.19156562 -0.14381279
0.13889906 0.05084944 0.05455611 -0.3355784 0.15240519 -0.26931575 -0.24972719 -0.20692776
-0.21546458 -0.14070733 0.091469795 0.24855231 -0.06460457 -0.017806213 -0.09381687 -0.12944199
-0.15044427 0.0881593 0.2926598 0.08213511 -0.29285067 -0.06684221 0.40452895 0.075762056
0.09542983 0.3069676 -0.05243717 0.18886167 0.021368941 -0.015206111 -0.039945032 -0.4698928
0.018287634 -0.35868597 0.04585313 0.322359 -0.14231247 0.03837038 0.044569056 -0.08322025
0.10564528 0.16187008 -0.27158007 -0.120947294 -0.06525886 -0.4249299 -0.041578624 -0.32529572
0.076265655 -0.09448889 0.14660417 -0.090830386 0.18794411 0.032469653 0.07267422 0.074937746
0.13273723 -0.052493192 -0.045885477 -0.073030666 0.16845071 -0.11071982 -0.07726072 -0.08697727
-0.24629165 0.2689283 -0.42273417 0.20988101 0.010188595 0.1573073 -0.017843261 -0.36013708
-0.049441732 -0.1752336 0.027620377 0.03596946 -0.06292737 -0.10136723 -0.04471262 -0.25239098
-0.0502541 0.52682126 0.15318601 -0.04272603 -0.0012335131 -0.3623286 -0.12505561 0.35523978
0.035585932 -0.3278152 0.1868371 0.21289177 0.013090946 0.0108457655 0.17016937 -0.22076459
-0.04468669 0.11158798 0.044331927 0.071108855 0.0037193832 -0.314027 -0.039926954 -0.23895743
-0.11892819 -0.33788562 0.22540735 -0.025475038 -0.026362065 -0.13978127 -0.29211015 -0.2088879
0.08156875 -0.10272815 -0.118730076 -0.030446125 -0.39335614 0.116020694 0.14916192 -0.078259274
-0.011017748 0.1404887 0.048613895 0.032925997 -0.038069073 0.26870173 -0.1549004 -0.25532192
0.35656402 0.3377171 -0.20908825 0.26992616 -0.12879016 0.08615754 0.20480049 0.17148206
-0.074522495 0.29607508 -0.16040523 -0.017738529 -0.20879473 0.20128767 0.31576267 -0.07027745
0.15510218 -0.1718613 0.05588707 -0.11569557 -0.11167717 0.40343678 -0.067905165 -0.0839293
0.016113142 0.07876638 0.09050598 -0.2283792 -0.13788185 -0.14982313 0.00877989 0.3250203
-0.093547724 0.5297825 -0.028924404 -0.15091087 0.035548106 -0.0625132 -0.038530074 -0.107961245
0.058400225 -0.2673982 0.3707665 0.04908633 -0.32874033 0.20255889 -0.078730926 -0.11237879
-0.25957495 0.31655517 -0.05840537 0.2611555 -0.007993496 0.2846038 0.06715579 -0.14548323
-0.17152335 0.19214904 -0.23429014 0.11101103 0.14792193 0.051368754 -0.2986016 0.10385669
0.15250097 0.002764895 0.19791123 0.008720398 -0.24695511 -0.22964436 -0.006749137 -0.28074554
0.22695415 0.008937531 -0.07313823 -0.2357869 -0.15765513 -0.0021889554 -0.07540237 -0.15027724
-0.42357567 0.009023935 -0.27049503 -0.09887277 0.28108266 0.2372864 0.17727302 0.16806024
-0.28578183 0.12187171 -0.14393556 0.16505927 -0.02885882 -0.24778499 -0.15022725 0.0716794
-0.39638382 -0.23829639 -0.43605143 0.05462047 0.13625205 -0.120502986 0.15999134 0.03110383

f_percept.percept.0.bias f4 [16]
00000000: 336d 6a3b 0617 cf3b 201b 3d3c 8101 bf3b
00000010: b477 fbba 3d55 a3bb c6ab c0ba 1fcb 963b
00000020: 17a1 083c 3fc5 ed3a 2261 cb3b 1fbe 8fbb
00000030: 9cbe f53a ab59 88ba 269e baba ae3a 23ba
0.0035770654 0.0063198833 0.011542112 0.0058290367 -0.0019185455 -0.0049845264 -0.001469963 0.0046018506
0.008339188 0.0018140449 0.0062066475 -0.004386678 0.0018748823 -0.00104027 -0.0014237806 -0.00062267005

f_percept.percept.3.weight f4 [64, 576]
00000000: ac8a 9f3c bdbc 35bd c735 0d3c 88ec 63bd
00000010: 345d 08bd 8a4b 043c 1e49 47ba eb06 8a3d
00000020: 4069 d6bc c6f0 283d a04a 6ebd 7cad 91bd
00000030: 80dd 1bbd 48b9 20bc 8be2 aa3c 6b8a cc3c
00000040: 6aeb 08bd ddaa fc3c 7a93 443d 8886 833c
00000050: b076 673d b75d 89bc cdf5 48bd d418 74bd
00000060: 08b0 153d 8b39 f4bb 210d 613c 6ec4 113b
00000070: 065e 6b3c 72ee 513d 9a6e 13bd 9cec 02bd
00000080: 0a38 86bb 3e99 23bd 1509 29bd 6072 14bc
00000090: a5aa 95bb fcea 6f3d da7b efbc 8f52 753c
000000a0: 1371 af3c 5c0b 373b 17db 8d3c 0c02 3b3d
000000b0: 7409 52bc 4f8b cdbc 6393 013d 5049 093d
000000c0: a914 77bc 1c27 ccbc 16a1 053d bc43 a4bc
000000d0: 3b7a cfbd e8ab ac3d b29f 4f3d 76a1 6d3d
000000e0: f96a dabc 1b44 943b b355 ffbc de84 9bbc
000000f0: 93f7 a1bd 5006 86bd 4a9a 96ba 1bfa b6bc
00000100: 71b4 253d 8fad 1ebd 0995 bcbc 85b9 0b3d
00000110: bbb1 04bc 9e89 01bd c485 84bd 192b 30bd
00000120: 17c2 63bc cda3 0cbc 9c51 543d eb1f 9dbc
00000130: d29f c4bb 5865 c83d 4235 38bd 0f3d c73b
00000140: f7dc dd3d e385 423d 003f 6e3d 7609 85bd
00000150: f6db b83c 471c 77bd 112e 13bd 9216 f83c
00000160: f429 c8bb 0df3 55bd 558b c3bc 2457 d83b
00000170: 1bbc f8bb 0015 12bd 3355 bfbc 34c3 26bd
00000180: 93e6 18bd e0ce 13bd 7478 13bc d247 f1bc
00000190: 85c8 943c 3d33 e53c 82cd a13c 3c23 50bd
000001a0: dcce 00bc 4213 43bc 177c 163d b6e1 503d
000001b0: f207 1e3c f6cd 8a3c 2ea7 2ebd b5a2 89bc
000001c0: 88b9 0f3d b2d7 043d f5a1 43bd 120c d8bb
000001d0: c83f e53c cf14 003d 43cb 78bd 4862 933b
000001e0: 257f 31bb ec8e c1bd 42ec 273b e206 cd3c
000001f0: 72ae c73b d8fd 3bbd f823 94bd 3754 26bd
00000200: 68f8 40bc 2c4d 033d 79ba b3bd faf2 7abb
00000210: 4c11 fdbb f983 1fbd be64 9cbb 6e93 6bbd
00000220: 85da d73c 427b 8c3b c041 943b a6ff f8bc
00000230: a084 85bd 74b1 c5bb 3604 3c3d 6f4c 913c
00000240: f8a7 a13b 48a8 e53c 72f7 c4bc d83d d3bc
00000250: 97d0 1abc df66 463c 0c25 ffbc 9e38 aabc
00000260: 14a7 37bd 2232 323d 8b9a 603c 43f6 cd3c
00000270: 3af5 0abd 5064 61bc 69bf 0d3d 3b58 4dbc
00000280: f399 83bd 24c4 3f3b 7460 2cbd 23c7 b5bb
00000290: 2608 24be 87b9 3ebd fd3a 1fbd 3b80 50bd
000002a0: ad11 b8bc 76c9 d33c 2ce5 c5bc a8d3 91bd
000002b0: da9d 71bd ec8d e0bc 7ee0 7bbc 4edb bcbc
000002c0: deb3 963c e7e8 b7bd f441 393d ec6d fdbb
000002d0: 107f e0bc 3708 41bc aa90 943d 7f96 843d
000002e0: a8d0 e23c 0e00 793c e2b1 be3c 0a4a b1bc
000002f0: 13a3 ddbc 4784 75bd 2e80 b7bc 4f79 61bd
00000300: 0cfc 22bd ee5c 9abd 52ae 7bbd 2ea2 063c
00000310: d381 d9bc 038e b6bb ef73 5abd b77e a2bc
00000320: a5d3 c1bc da45 cb3c 4633 963c 23f2 153b
00000330: 4b22 0c3d dbee 01bd 89e6 8c3d 24ae e9bc
00000340: b6f8 a23c f8e7 393d 71cb 2bbd 3e97 3cbd
00000350: 05f9 fdbc 65ca e83c 8c38 ba3c ecc2 c0bd
00000360: 950f 88bc dc8b 5fbc 0c9f b23c fcc7 fe3c
00000370: 8655 9dbd 27d4 2bbc f709 adbb 3ecf bebb
00000380: 731f 493c db76 be3a 2a83 01bc f82b b83d
00000390: 41b0 dbbc 605a 493d cb07 473d 58df 2f3c
000003a0: 6519 23ba 16cd 98bc 0cbc 1ebb fb50 213d
000003b0: b70f 563c 7789 ecbb 8505 4d3d dfe4 bdba
000003c0: 528a 39bd dd78 67bd 58a1 643d 38db 0b3d
000003d0: 53de e3bc ced9 24bd ce89 62bc 80fa 523a
000003e0: 0256 bebb db94 2abc dc15 8c3b 3e5a bebc
000003f0: 5f72 b73c 6983 29bd 7e56 76bc 0bc4 15bc
0.019475304 -0.044369448 0.008618779 -0.055645496 -0.03329201 0.008074651 -0.0007602143 0.06739601
-0.026173234 0.041245244 -0.058176637 -0.07113168 -0.038053036 -0.0098097995 0.020859977 0.024968347
-0.033427633 0.030843193 0.047992207 0.01605536 0.056509674 -0.01676832 -0.04906254 -0.05959399
0.03654483 -0.0074531487 0.01373604 0.0022242325 0.014365679 0.05125279 -0.03599415 -0.03196393
-0.004096036 -0.039941065 -0.041268427 -0.009060472 -0.0045674616 0.058573708 -0.029233862 0.014973297
0.021416223 0.0027930355 0.017316384 0.04565625 -0.012819637 -0.025090842 0.0316347 0.033517182
-0.015080609 -0.024920993 0.032624327 -0.02005183 -0.101307355 0.08431226 0.050689407 0.05801531
-0.026662337 0.0045247204 -0.031168794 -0.018984254 -0.07908549 -0.06544173 -0.0011490074 -0.022336056
0.040455285 -0.038739737 -0.023020284 0.034112472 -0.008099015 -0.031625383 -0.06470826 -0.04300985
-0.013901255 -0.008583975 0.05183564 -0.019180259 -0.0060004974 0.09784955 -0.044972666 0.006080277
0.10833161 0.047490966 0.05816555 -0.06495945 0.022565823 -0.0603297 -0.035932604 0.0302842
-0.006108517 -0.052233744 -0.02387015 0.006602185 -0.0075907833 -0.03566456 -0.023356056 -0.040713504
-0.037329268 -0.036085963 -0.009000886 -0.029453192 0.018162021 0.027978534 0.019751314 -0.050814852
-0.007861819 -0.011906447 0.036739435 0.050996505 0.009645449 0.016943913 -0.042639904 -0.016801218
0.035089046 0.032432266 -0.047761876 -0.006593236 0.027984515 0.031269845 -0.06074072 0.0044978
-0.002708384 -0.09451088 0.0025622998 0.025027696 0.0060937935 -0.04589638 -0.07233423 -0.040607657
-0.011777975 0.03205602 -0.08775801 -0.0038291798 -0.007723009 -0.03894422 -0.0047727516 -0.057513647
0.026349315 0.0042871544 0.0045244396 -0.03039534 -0.06519437 -0.006033117 0.045902453 0.017736642
0.0049333535 0.028034344 -0.024043772 -0.025786325 -0.009449146 0.012109487 -0.031145595 -0.02077895
-0.044837072 0.04350484 0.013708721 0.02514184 -0.033925273 -0.0137568265 0.03460637 -0.012533243
-0.06425848 0.0029261196 -0.042084172 -0.0055474206 -0.16018733 -0.04656365 -0.038874615 -0.05090354
-0.022469366 0.0258529 -0.02415713 -0.07120448 -0.05898843 -0.027411424 -0.015373347 -0.023053791
0.018396314 -0.089799695 0.045228913 -0.007734051 -0.027404338 -0.011781744 0.07254155 0.06474017
0.027687386 0.015197767 0.02327818 -0.02164175 -0.027055299 -0.059940603 -0.022399988 -0.05504733
-0.039791152 -0.07537256 -0.06144554 0.008217378 -0.026551163 -0.0055711283 -0.05333322 -0.019835813
-0.02366049 0.024813581 0.018334996 0.002287992 0.03421239 -0.03172193 0.068799086 -0.02852542
0.019893985 0.04538724 -0.041942064 -0.046042673 -0.03100253 0.028416822 0.022732042 -0.094121784
-0.016608993 -0.013644185 0.021804355 0.03110122 -0.07682328 -0.010487593 -0.005280729 -0.005823045
0.0122755645 0.0014531271 -0.007904807 0.089927614 -0.026817443 0.049158454 0.048591416 0.010734402
-0.00062217406 -0.01865248 -0.0024220971 0.03938387 0.01306527 -0.0072185355 0.050054092 -0.0014487765
-0.04529793 -0.05651175 0.055817932 0.03414461 -0.027815973 -0.040246777 -0.0138268005 0.00080481917
-0.005808593 -0.0104114665 0.004275067 -0.02323639 0.022393404 -0.041385088 -0.01503527 -0.009140979

f_percept.percept.3.bias f4 [64]
00000000: a89e 173a e68a 7ebb 88af d6bb 5108 e23b
00000010: 9706 3aba 7e0e 573b 9db6 7b3b 7208 c8ba
00000020: 4fa9 b6bb 138a d23b c884 e9b9 d905 21ba
00000030: 4634 d1bb 44a7 803b 16d0 073c 9268 663b
00000040: e4c2 633b cf84 a0ba 62e1 27ba 12b4 983b
00000050: 333a 3d3a 1820 2c3a ba04 7f3b fad5 173b
00000060: adf6 0039 e338 85bb e41d e83a 02ab 24ba
00000070: 7f36 0f3b 4d3a ca3b eeec 82ba e816 0b3b
00000080: 6331 3d3c 6e29 5c3b ee1c 2abb 53df c3ba
00000090: 953c 92ba e7a3 b6ba 56c7 b3b9 2d55 463a
000000a0: 779c 373a 599c 803a 8a62 d83a bdda 51ba
000000b0: 2e54 103a 2a58 4ebb 69de a7b9 6d6f 403a
000000c0: 4749 aeba 2abc a8b9 b60e c23a eb2f 493b
000000d0: 9544 dd3a d17b 81bb d27a a638 b0f4 8fbb
000000e0: 1bb0 cabb c8fb 3836 8339 223b c103 353a
000000f0: 918d e03b 3e9d b6b8 f782 a2bb f3d5 cebb
0.00057838345 -0.0038840114 -0.0065516867 0.006897964 -0.0007096319 0.0032815035 0.0038408407 -0.0015261306
-0.0055743824 0.006425151 -0.00044540153 -0.0006142534 -0.0063844053 0.0039261896 0.008289358 0.0035157544
0.0034753615 -0.0012246611 -0.0006404129 0.004660138 0.000721845 0.00065660616 0.003891273 0.0023168311
0.00012298925 -0.0040656193 0.0017709103 -0.00062815857 0.002185255 0.006171501 -0.0009988823 0.002122337
0.011547419 0.003359403 -0.0025957185 -0.0014943875 -0.0011156971 -0.0013934345 -0.00034290057 0.0007565793
0.0007004211 0.000981222 0.0016508859 -0.0008005312 0.0005505708 -0.0031485655 -0.0003201843 0.00073408225
-0.0013296985 -0.0003218365 0.001480541 0.0030698727 0.0016881401 -0.0039515276 7.938374e-05 -0.0043931827
-0.006185544 2.7564693e-06 0.0024753518 0.00069051614 0.0068528135 -8.707725e-05 -0.00495946 -0.006312126

manager.M_space.weight f4 [64, 64]
00000000: b2dc 433e e907 f1bd 734a 083d 0a4f edbd
00000010: 5365 a3bd 21c1 9ebd 3c47 5b3c 5ce0 5bbd
00000020: 132e 0bbe 8755 613d ea24 df3c d734 1d3e
00000030: 1a00 40be 586c a73c 250a 0cbd 7025 183e
00000040: 201e 723c 840f 6e3e 3f44 ac3d 2ad2 5d3e
00000050: b972 17bd 71fb a83d 8f5c 15be 5710 623e
00000060: edd5 073d 913f b73d dd9d 53bd 8f54 7ebc
00000070: 8038 6f3d 5f7f 10be 7712 07bd 553f 05be
00000080: b12c 8a3d b2e7 403e cb77 ff3d e1b0 aabe
00000090: d013 ccbd c649 a4bd 532f b23d 2d64 b93c
000000a0: f184 30bd dba9 94be b705 c3bd bb92 c5bd
000000b0: f8e2 febd f5c2 9a3c a621 bc3d 1bba 2e3d
000000c0: c2ca c6bd 4f7a c63c 474b 89bd c2a0 e0bd
000000d0: d6e5 443e 5e3f 7a3d 0a0a 893e f140 b63d
000000e0: e87a 1e3e 4033 babb d3d0 16be 147c 2f3d
000000f0: e7f8 83bd 2e15 4a3e 7be0 ccbd 05be b93d
00000100: c06c c4bd e21b 80bd b216 7bbd b617 19bc
00000110: d297 c73d 8579 153e 7a22 073e 26f2 213e
00000120: 348c 863e 7fad 3fbd cba4 473e 659e 043e
00000130: 77ed 85be 7ec4 1dbe 361a 1e3e 1347 c23d
00000140: 76aa 57bd 82d5 3fb9 a090 db3c 042a 8dbd
00000150: b4c6 983d b354 3ebd 1d1f 433b de67 abbd
00000160: 79f9 e43e e043 48be d148 a9bd e89a f03c
00000170: a712 67bd fada b4bd 53ee 463d 972b 6abe
00000180: 466f edba 1dc9 473d 6ce2 ecbd d333 4ebd
00000190: 771a 75bd 09a8 343e d8ca 993a e9f1 edbd
000001a0: 69a8 d7bd f376 0c3e 62fd d13a b300 cabd
000001b0: 49b8 233e efee 2fbe 9f82 b73d 6721 be3d
000001c0: 792d 3cbd d765 34bd d3d3 e1bd e62e 043e
000001d0: 4b5e f6bb 81ff 04be 590c da3c 5d15 09be
000001e0: b811 1b3c eb78 7d3d ff4f e2bc 0ce1 ba3d
000001f0: 1658 58be cabf 543d 86cc 6dbd 56ab 113e
00000200: f403 a8bd 5e8e 97bd 7582 4f3e 3941 383e
00000210: e472 4c3e 9a0f a53d 558d 1e3e 62e6 fdbd
00000220: ab2a a73d 41bc 57be e937 15be 1ada 22be
00000230: 075e 4cbc 02df 02bd d619 ae3d e41f 263d
00000240: d9f1 79bd 2eac 35bc e55d 51bd f79e 3b3c
00000250: e9be 233e 7bec 83bc 4f6a 943e 6a57 0cbe
00000260: 8221 e3bd ea28 7e3e 7b68 813c c4b2 053d
00000270: 92d8 17bd 6e97 86bd 8763 683d 4cb9 96bd
00000280: 4637 353c ad41 afbd f09f 08be 514f bebd
00000290: f097 0e3d 367e a23d 922c 2b3e 1593 8b3d
000002a0: 9781 7dbe 961f f4bd 70a0 93bb ed24 d2bd
000002b0: 195a 3cbd 2828 51be ecf9 d1bd 60dc 50bd
000002c0: e2f2 64be c83d c8bd 645b 853d 724a 4cbe
000002d0: 5a2e d13c e0fa 11be a783 813d 3595 7c3d
000002e0: 91c0 ad3d 28ce 483a 967c bcbc 2eb0 39be
000002f0: fa78 183e cc2c 673e a427 2b3e e133 253d
00000300: fe38 0d3d 01ab 433d fb36 0b3e 1aa5 1dbe
00000310: 09ef 8cba 4140 f0bd fcd2 9cbd b0ce 9ebc
00000320: 45fa 96be 056d e4ba 65a1 aa3d 8c31 c7bd
00000330: 2e54 6a3d 1f61 d13d 273e 87be 75be 0cbc
00000340: 71bb 90bd aefa 5b3e 3e28 95bc e026 843d
00000350: 6866 1b3e 44db 303b f18c 223e a61d 33bd
00000360: 77af 493e 85b1 64bd 944e 593d 7c1f 563e
00000370: 7015 433e 2fdc 9a3d 5bf6 cf3d d0e5 2ebe
00000380: 881e 05bd a216 ef3d ab18 86bd 5910 143e
00000390: 4717 18be aed5 70bd e103 e23d d8db dc3d
000003a0: a362 11be dfa6 9cbc 6b72 febd 945a 28be
000003b0: 0a12 413d 186a 75bc 602a 6abd e384 d23d
000003c0: 17c8 2d3e 62c5 42b8 0b45 a6bc 2faa 55be
000003d0: 912d 11be fabf 05be 71a5 49be 42b7 25be
000003e0: ca6f 84be 8757 313e 735d ffbc ae3c 043e
000003f0: 2f65 013c e066 9f3c 3380 603d ddb8 0d3d
0.19127157 -0.11769087 0.033274125 -0.11587341 -0.079783104 -0.0775168 0.013383683 -0.053680763
-0.13591795 0.055013206 0.027239282 0.15352188 -0.18750039 0.020437405 -0.034189362 0.14858031
0.01477769 0.23248106 0.084114544 0.21662202 -0.036974642 0.08251084 -0.1458609 0.22076546
0.033163 0.08947671 -0.051664222 -0.01552309 0.058403492 -0.14111088 -0.032976594 -0.1301244
0.067468055 0.18838385 0.124740206 -0.33338073 -0.099647164 -0.08021884 0.08700433 0.022630775
-0.043095533 -0.2903584 -0.095225744 -0.09647127 -0.124456346 0.01889179 0.091861054 0.042657953
-0.09706642 0.024228243 -0.06703811 -0.10968162 0.192283 0.061095588 0.26765472 0.08899105
0.15476573 -0.005682379 -0.14728098 0.04284294 -0.06443959 0.19734642 -0.10003754 0.090694465
-0.09591055 -0.06255318 -0.06130094 -0.009344032 0.09745754 0.14597137 0.13196746 0.15815029
0.26278841 -0.04679632 0.19496457 0.12951048 -0.26157734 -0.15406987 0.15439686 0.094862126
-0.0526528 -0.00018294717 0.026802361 -0.068927795 0.074597746 -0.046467494 0.0029773184 -0.083694205
0.44721583 -0.19557142 -0.08265842 0.02937074 -0.056414273 -0.08830829 0.048567127 -0.2286819
-0.0018114827 0.04877578 -0.11566624 -0.050342392 -0.059839692 0.17642225 0.0011733426 -0.11618406
-0.105301686 0.1371725 0.0016020949 -0.098634146 0.15988268 -0.1718099 0.08960461 0.09283715
-0.045941804 -0.044042435 -0.110267304 0.12908515 -0.007518565 -0.12988092 0.026617216 -0.13387056
0.009464674 0.061882894 -0.027626036 0.091249555 -0.21127352 0.051940717 -0.058056377 0.14225516
-0.08203879 -0.07400201 0.20264609 0.1799363 0.19965702 0.080596164 0.15483601 -0.12397458
0.08162435 -0.21067907 -0.1457211 -0.15903512 -0.01247359 -0.031950958 0.085010216 0.040557757
-0.06102166 -0.011088414 -0.051114935 0.011451474 0.15990795 -0.016103974 0.28987357 -0.13705221
-0.110903755 0.24820295 0.01579689 0.032641187 -0.037071772 -0.06571852 0.05673554 -0.07359561
0.0110605415 -0.085574485 -0.13342261 -0.09292472 0.034812868 0.07934229 0.16716221 0.06815163
-0.24756466 -0.11920087 -0.0045052096 -0.10260949 -0.04598436 -0.20425475 -0.10252747 -0.050991416
-0.22358277 -0.09777409 0.06511572 -0.19950274 0.025534797 -0.14255857 0.06323939 0.061665732
0.08483995 0.0007660114 -0.023008626 -0.18133613 0.14889899 0.22575682 0.1671434 0.04033268
0.03447818 0.047770504 0.13595192 -0.15395012 -0.001075239 -0.117310055 -0.076574296 -0.019385666
-0.29487815 -0.001742751 0.08331565 -0.09726247 0.057209186 0.102236025 -0.26414606 -0.00859033
-0.070670016 0.21482345 -0.018207666 0.06452727 0.15175784 0.0026986161 0.15874077 -0.043729447
0.19695841 -0.05583336 0.053053454 0.20910448 0.19051147 0.07561528 0.101544105 -0.17079854
-0.03249982 0.11674239 -0.06547674 0.14459361 -0.1485263 -0.05879753 0.11035896 0.10784119
-0.14197783 -0.01912254 -0.12424167 -0.16440803 0.047136344 -0.014978908 -0.05716932 0.102792524
0.1697086 -4.643703e-05 -0.020296594 -0.20865701 -0.14177538 -0.13061514 -0.19692017 -0.16183189
-0.25866538 0.17318545 -0.03117249 0.12913772 0.007897659 0.019458234 0.05480976 0.034600127

manager.M_space.bias f4 [64]
00000000: effc b2bb e017 613b 0d2f 0fba ae0f 4dbb
00000010: 5357 4abc d48d 6cbb 4c86 25bb 817c 9d3a
00000020: 2bf9 fbbb 5e82 9fbb 9bef 66bb e15a 12bb
00000030: 81fe 23bb 69da 8e3b 3b05 07ba e6fd 56b9
00000040: 3529 083b f0d6 823b 92e4 a1bb 2f1c e3ba
00000050: e1dc a639 71d5 c63b 26e7 173c c2b3 c83a
00000060: bcd0 063c 82b4 d73b 9c3c eabb c290 473b
00000070: 5924 ab39 fa7b 4dbc c4ba f7bb 0970 413a
00000080: 7ea1 df3b 357d 573b ecf3 91bb e25e 1a3c
00000090: ee13 71bb 6790 87bb 3873 e2ba 6e88 193b
000000a0: cc28 b6bb 35f8 5c3c dd22 83bb 377a 0d3b
000000b0: 0b54 c43a efc8 08ba 4f61 9fbb 52e5 a0ba
000000c0: 7fd1 9938 12ce 6c3b fbde 6b3b 89ec 563b
000000d0: aeff efbb 86de e739 d6d0 97bb c260 3cbb
000000e0: a108 f8ba d1cc f7bb 2a22 653a 6716 6cbb
000000f0: d113 bc39 9e16 963a 8b75 46bc 4214 1cbc
-0.005462281 0.0034346506 -0.0005462028 -0.0031289863 -0.012349921 -0.0036095278 -0.002525705 0.0012015254
-0.0076896152 -0.004867836 -0.003523803 -0.0022332 -0.0025023522 0.0043595326 -0.0005150621 -0.00020503215
0.0020776514 0.0039929077 -0.004940578 -0.0017327125 0.00031826555 0.0060679247 0.009271419 0.0015312361
0.008228477 0.0065827975 -0.0071483385 0.0030451273 0.00032642743 -0.012541765 -0.007560106 0.000737906
0.0068246713 0.0032881026 -0.0044541266 0.009422036 -0.003678556 -0.004137087 -0.001727677 0.0023427266
-0.0055590626 0.013486912 -0.0040019588 0.0021587738 0.001497866 -0.000521793 -0.004863895 -0.0012275374
7.33463e-05 0.003613357 0.003599106 0.0032794795 -0.0073241806 0.00044225546 -0.0046330495 -0.0028744196
-0.001892347 -0.007562258 0.00087407476 -0.0036024095 0.0003587292 0.0011450832 -0.012112985 -0.009526314

manager.M_goals.weight f4 [64, 128]
00000000: 7e79 b3bc cedb b83c 0998 543d 8d3f 0a3e
00000010: 65d8 803d bbd7 f83b 2170 d6bc 4074 91bc
00000020: 29d7 a5bc 2982 88bc d572 fc3c 9719 05be
00000030: 7886 633d f6da 49bd a444 40be 73d7 94bd
00000040: d575 083e bb52 b33d 3c7a d0bc bcf2 ff3d
00000050: 96fe 5fbe 3016 32be fbce a63a cecc 3c3d
00000060: d753 10bd 1645 bb3d 0daa cd3d 09f1 c5bd
00000070: 3f7f adbd 20cb 49be fa9b 323c c944 d6bc
00000080: 79b1 9a3d f63f b3ba 84b9 253e 0b77 b33d
00000090: ec52 ddbc 2450 33bb 2073 023d 2e91 57bc
000000a0: 54b0 f2bd 3326 973d c1e0 bcbd 1cc6 763d
000000b0: 8f9f 39be 6b54 c63b 1ec3 26be 45ce 2b3d
000000c0: 0a74 c5bd eaaf eeb9 ecd7 a53d 1a3e c93c
000000d0: a72e e43d dc1f 97bc b0ab b1bd 459f 3dbd
000000e0: 446b 873d 0aaf 993d 0e89 943d 39dc ff3d
000000f0: 3c67 053e e1ef 3f3d 431f 2ebe c454 713d
00000100: 9ff6 f2bd 2a2a 0bbe f90b b0bd 3fec 053d
00000110: 89ce 053c 528b f2b9 1c4d 12bd b12b e1bd
00000120: ff10 12bd 9946 0c3d 733a 023e 9c01 c3bd
00000130: 2aa6 813d d313 b73b f660 1abe f925 843d
00000140: 1314 313d 9209 94bd dd5a efbd 5199 2cbe
00000150: 9d86 d5bc c0eb babd 424f 2b3d ab5a adbd
00000160: 9e13 953c 785d efb9 a327 8f3d 80d1 cabc
00000170: 7a2d e4bd 37af 063d 544a c53d 786a d53d
00000180: 00b1 5f3d 5e96 07be 34b5 073e a1cc 90bd
00000190: df61 a43d 1297 353b 6965 a63d 287b 9dbb
000001a0: f2d5 373e 1593 083d e551 a03c 0933 683d
000001b0: 7301 06bc 8193 dd3d b7d1 3a3d 5397 e5bd
000001c0: 67a8 0b3e 6c75 43bc 91c8 7b3d 84ff 89bd
000001d0: a35a 98bd 815b dabd c669 59bd 94be 00be
000001e0: 3efc d23d 1226 debd 8531 a2bd 6c4f 363d
000001f0: 86ba 04be 926e e4bc 17ba 533d 6156 c73b
00000200: 3e35 673d 2c5a 153c 644d 813d 0a1d 063d
00000210: fa8d d93c d115 5e3d 604b d23d 2c1d aebd
00000220: 2e0f aa3d dfd1 1c3d 6637 f23d 1b0b 81bd
00000230: 72e6 08bc 749b bebc fd91 623d 7c11 26bd
00000240: 1593 dd3c cefa 8a3d 565d dabd 7a09 c6bd
00000250: 4b42 2cbd da75 abbd 2d97 ffbc a487 d6bd
00000260: adfe 52be ccf7 07be 18f0 143e 58ba c7bd
00000270: 4f62 53bd 7f00 e93d cded 003d ed7e 163d
00000280: 3627 e43c 2238 abbd 6713 983d 55c1 593c
00000290: 5467 abbd 5e08 6bbd 112c c53d 6889 d3bd
000002a0: 3b69 05be 2aca 563e cc24 473d 4644 08bd
000002b0: e2cf 773d 584a 453e b4be 0c3d 42be d03d
000002c0: a77d 0bbe 9192 99bd bbdc ca3d 03b5 053e
000002d0: 3522 29bd 465d 553a fe30 d53d 023c 4fbd
000002e0: edba 5a3c 552d 263d 7f2b 8b3d e7ab b63d
000002f0: 66b9 df3d bb1b b2bc b6a4 40bc 4f5f 143d
00000300: 1a5e 3cbc 7924 853d 7b4f 2ebb 7462 ccbd
00000310: 6bd4 ab3d ecc3 ea3c b4ec c43d 0096 073c
00000320: c845 f83d a583 be3d ece2 37bd badd a93d
00000330: 1901 33be c367 003d 3b25 e2bd 486a 17bb
00000340: 0a4f c6bd de40 01be e9bc 93bd a466 903d
00000350: 2e5b a5bd ffe5 953d 4599 233d 28b8 45bd
00000360: 62d3 c3bd b557 12be a506 6cbb 9fc6 a1bc
00000370: 7668 76bd 8b68 04be 6f2a a03d cc27 4b3d
00000380: f1cb 1c3b 23b7 463d 927a dabd cdbb 10be
00000390: fbc2 04be b184 79be e555 993b 06e3 55bc
000003a0: 0124 48be 69c6 b8bc d411 3cbd 47aa fdbd
000003b0: b083 b8bd a0c1 e5bd fe88 d5b9 5f16 0ebd
000003c0: 5440 ccbd 14a0 ccbd c4c6 4a3d 9758 f73d
000003d0: dca8 c63c 06fb 18bc 5e96 0d3e f7ae 62bc
000003e0: 3325 4bbd 2b05 d1bc 5dcc 1abe f1ba 87bd
000003f0: 8a21 d93d 2cb0 4e3d ffad d7bd c0b6 ff3d
-0.021908518 0.022565749 0.051902805 0.13500805 0.06291274 0.0075940765 -0.026176514 -0.017755628
-0.020244198 -0.016663628 0.030816475 -0.12998043 0.05554816 -0.049281083 -0.18776184 -0.07267656
0.133262 0.08756014 -0.02544891 0.1249747 -0.2187446 -0.17391276 0.001272648 0.046093754
-0.035236206 0.091440365 0.100422 -0.096651144 -0.08471536 -0.19706392 0.0109014455 -0.026155846
0.075533815 -0.0013675678 0.1618405 0.0876294 -0.02701708 -0.0027361 0.031848073 -0.013157172
-0.11850038 0.07380333 -0.09222556 0.060247526 -0.18127273 0.006052544 -0.16285369 0.04194476
-0.09641273 -0.00045525964 0.080978245 0.024565745 0.11141711 -0.018447809 -0.08675325 -0.04629447
0.06612256 0.07504089 0.072527036 0.12493176 0.13027662 0.046859626 -0.17004113 0.05891873
-0.118634455 -0.13590303 -0.085960336 0.032696005 0.008166918 -0.0004626164 -0.03571807 -0.109946616
-0.03566074 0.034247015 0.12717609 -0.09521791 0.063305214 0.00558708 -0.1507605 0.06452555
0.043232035 -0.07228388 -0.11687253 -0.1685536 -0.026065165 -0.09126997 0.041823633 -0.08464559
0.01819783 -0.00045655272 0.06989982 -0.0247581 -0.111414865 0.03288194 0.096333176 0.10420698
0.05461216 -0.13240954 0.13252717 -0.0707028 0.0802648 0.0027708453 0.08124811 -0.004805941
0.17952707 0.033343393 0.0195703 0.056689296 -0.008179056 0.1081915 0.045610156 -0.112105034
0.13638459 -0.011929851 0.061470572 -0.06738189 -0.074391626 -0.10661984 -0.05307939 -0.125727
0.10302018 -0.10847105 -0.07919601 0.044509336 -0.12961778 -0.027884755 0.05169114 0.006083295
0.05644726 0.009115737 0.06313589 0.032742538 0.026556958 0.054220024 0.10268283 -0.08501658
0.083036765 0.038286086 0.11826973 -0.06300946 -0.008355724 -0.023267485 0.055315007 -0.04054402
0.027047673 0.067861184 -0.10662334 -0.09669776 -0.04205541 -0.08372088 -0.031200016 -0.1047509
-0.20604964 -0.13278121 0.14544713 -0.09752339 -0.051607426 0.11377048 0.031476784 0.03674214
0.027850728 -0.08360316 0.07425576 0.013290723 -0.08369318 -0.057381026 0.096275456 -0.103289425
-0.13028423 0.20975557 0.048619077 -0.033268236 0.060500987 0.19266641 0.034361556 0.10192539
-0.13622151 -0.074986584 0.09905382 0.13057332 -0.041292388 0.0008139204 0.10409735 -0.050594337
0.013350231 0.040570576 0.067954056 0.089195065 0.10924034 -0.021741739 -0.01175802 0.036223706
-0.011497045 0.06501097 -0.0026597667 -0.09979716 0.08390125 0.028657876 0.0961546 0.008275509
0.12122685 0.09302453 -0.044894144 0.08294244 -0.17480887 0.031348955 -0.110422574 -0.002310412
-0.09683044 -0.12622401 -0.07213766 0.07050827 -0.08074032 0.07319259 0.03994109 -0.04827133
-0.095618024 -0.1429127 -0.0036014703 -0.01974803 -0.060158215 -0.12930505 0.078205936 0.0495985
0.002392527 0.048514497 -0.1066791 -0.1413414 -0.12965004 -0.24367024 0.004679429 -0.013054615
-0.19544984 -0.022555547 -0.04591544 -0.123859935 -0.090094924 -0.11218572 -0.00040728593 -0.034689303
-0.09973207 -0.0999147 0.049505964 0.12077444 0.02425044 -0.009337192 0.13826892 -0.01383566
-0.049596023 -0.02551516 -0.15117021 -0.06627453 0.106021 0.05046098 -0.10531234 0.12486029

manager.M_goals.bias f4 [64]
00000000: 9f4e 72bb b215 b6bb 524a 95bc e0d6 04ba
00000010: fd32 a5ba 0ec9 843b a155 ccba f026 aebb
00000020: 426f a1b9 f58b 6bbb f36c 1f3b 8da0 b9bb
00000030: 7843 91bb 3b7a ddbb 0b77 b6bb 00be 80bb
00000040: 0a04 27bb 661b 7b3b 8e4a 6ebb 979e ceba
00000050: 1555 ddb9 0498 873b a0ab a83a 76e9 abbb
00000060: 1f64 7ebb 53a4 033b 9335 93bb 9952 3739
00000070: a20a f83b d42f 31bb d4f0 b03a 8fd6 3abb
00000080: 34be d039 1064 9cba bcc3 9039 6273 623a
00000090: 7b04 edbb e08e 47bc 183b d0ba 98bb e3ba
000000a0: b2de 083b f7f5 943b 6f79 353a 9961 18bc
000000b0: c126 793a eb2e 163c ebdb 023a 9551 e3ba
000000c0: 4033 8bbb 685a 803a 6b91 033a 6401 dbbb
000000d0: f8d7 59bb 3a5c aebb a7b1 a7bb feb2 b7bb
000000e0: b4af 053c da8a 0c3a f8ce 193c fa02 c7ba
000000f0: 1b9a bcba 5307 3fb9 8a37 cc38 33eb 5b3a
-0.0036973131 -0.0055567855 -0.018223915 -0.0005067419 -0.0012603697 0.004052288 -0.0015589484 -0.0053147003
-0.00030791207 -0.0035941575 0.0024326413 -0.005664891 -0.0044330917 -0.006758956 -0.0055683902 -0.0039288998
-0.0025484585 0.0038315891 -0.0036360356 -0.0015763816 -0.00042215796 0.0041379947 0.0012868531 -0.0052463366
-0.0038817 0.0020086959 -0.0044924705 0.0001748301 0.007569627 -0.0027036564 0.0013499507 -0.0028509235
0.00039814564 -0.0011931676 0.00027611654 0.0008638409 -0.0072332 -0.01218006 -0.0015886752 -0.0017374633
0.002088469 0.004545923 0.0006922697 -0.009300613 0.0009504371 0.00916646 0.0004991877 -0.0017343039
-0.004248053 0.0009792568 0.00050189224 -0.0066835154 -0.00332403 -0.005321053 -0.0051176134 -0.0056060543
0.008159567 0.00053612667 0.009387724 -0.0015183382 -0.0014389189 -0.00018217908 9.737823e-05 0.00083892344

manager.M_value.weight f4 [1, 64]
00000000: 912f 1dbe 283f bebd df02 bc3b d78c af3d
00000010: 8ee4 11be b4b9 01be b760 d0bd 1efd 743e
00000020: b370 44bd 7c5f c73d 53a8 a13d 6d75 893d
00000030: 0056 f8bd 6be2 a23d 4665 26be 3abe 28be
00000040: 53ed 0fbe f26f 87be 351b c8bd 4128 863d
00000050: 1f0a 12bd 0410 0bbe c748 523e 5118 1e3d
00000060: 8f8c 203c 91f8 143e 0f9b cd3d 9703 83bd
00000070: b773 b23d ab32 3a3e 392f 6ebd c415 83bc
00000080: f4b7 8abd d923 f8bd 8470 153e 90f1 7abe
00000090: e49f d93d 93ff 36bc 610b 1d3e 4a44 0d3e
000000a0: 6f06 463e 23f9 3fbd f9bd d9bc ac33 56be
000000b0: 3935 d6bd 9984 7b3d e853 913d 05d3 d2bd
000000c0: f310 853a 9552 98bc 4391 c53d 2d2e 583d
000000d0: 14e4 85bd d89c bebd fbd8 27be 27e3 973e
000000e0: 7a61 423d 4424 9abc 05df 8bbc 80c9 843d
000000f0: fe2f 333d 985c a73d e2f6 b5bd 5bad 323e
-0.15350176 -0.0928939 0.005737647 0.08571785 -0.14247343 -0.12668496 -0.10174697 0.23924682
-0.04795904 0.09735009 0.078934334 0.0671185 -0.12125778 0.07953342 -0.1624957 -0.16478816
-0.14055376 -0.26452595 -0.09770814 0.065506466 -0.035654183 -0.13580328 0.20535575 0.03859741
0.009799137 0.14547946 0.10039341 -0.06397169 0.08713477 0.18183391 -0.058150504 -0.01600159
-0.067733675 -0.121162124 0.14593703 -0.24506211 0.106262 -0.011169332 0.15336372 0.13795581
0.19338392 -0.046868455 -0.026579844 -0.20918149 -0.1045937 0.06140575 0.07096082 -0.10294155
0.0010152146 -0.018594066 0.09646847 0.05277841 -0.06537643 -0.09307259 -0.16391365 0.2966549
0.047456242 -0.01881612 -0.017074117 0.064837456 0.04374694 0.08171958 -0.0888498 0.17448942

worker.f_stateW.0.weight f4 [128, 64]
00000000: 89bd d6bc 5f92 eabd 6ee2 f4bd 4530 5fbd
00000010: 11e0 0d3d 47ff 243e 4d4a 0c3d dd8a b33d
00000020: 0e6f 1cbe 66d4 48bd 3d95 283d d6a7 15be
00000030: 6318 bbbd 1c83 0b3e 5ddc c5bc f752 513d
00000040: 62f7 17be ec9b 1e3d d8dc a3bd 9821 83bb
00000050: f926 293d 9271 2b3d ced1 47bd 36a8 6ebe
00000060: db81 1f3c d564 3d3e e7e3 b5bd 46bb 7e3c
00000070: b59e 8bbc 2ae9 28be 2873 e9bc 8130 203d
00000080: fbef 1b3e 0383 8c3d 2d93 0f3c dcf6 9abd
00000090: c391 08bd f9cd 07be e0fb ddbc 2db7 663d
000000a0: ba1f 913d 084b 80bc 16c4 c23d 20a6 893d
000000b0: ba16 e83d d0f6 7bbd 6e44 b8bd 0ab4 a1bc
000000c0: 1330 e23d 04ca b6bd 9aa4 193c 8c3f 92bc
000000d0: 589a 583c 6cea 22bd b9c9 a6bc 3584 aa3d
000000e0: 0d78 843d 7d18 263e f177 193e ef1e e13b
000000f0: 6d0e f3bc 9f28 15be 5369 08bd 53f7 0d3e
00000100: fc49 843c 83a0 b03d ed3f b13d 4a53 933c
00000110: 5ea6 c0bd e699 dfbb ee92 84bd 9471 99bd
00000120: ad60 63bd 6cbb cebd 04a1 ca3d 38b1 0bbd
00000130: f7b2 85bd d528 c1bb 1df6 4bbd b280 d0bc
00000140: f0e7 e4bd c106 273e d820 423e 1a39 383d
00000150: 662b c7bd 5220 52bd fc52 aa3d 7c34 6dbc
00000160: 1125 183e 96b4 163e b2f4 a3bd b8a4 ca3b
00000170: 3f39 25be d906 8f3d 0ec3 12be ae1c 27bd
00000180: e659 9dbd c09d 8cbd c23f a5bb 759b 48bd
00000190: 2818 043d 7c50 0ebd 587c 85bd ae2e 8b3d
000001a0: 7986 d43c 9350 ed3b 8c34 0abe b324 ab3c
000001b0: d2d2 933d aff3 583d b26f df3b cb85 c03c
000001c0: d914 233c 4627 77bd e58e 993d cb1b d0bd
000001d0: 8cbf 4f3d 7869 ea3d ecf5 b5bd bc84 b5bd
000001e0: 8217 aa3c 7396 473d 5566 033e 0a53 283c
000001f0: c4b1 2e3d 1d83 23bd c5ba 463d af5b c03d
00000200: 7c28 4fbc 801e cebd 6e0e dc3d c6a9 5dbd
00000210: aaa2 633c 5bed 9a3c 5da9 3a3e 1796 013e
00000220: 3588 babc 9e70 703c 0b48 a5bd 6a19 fe3d
00000230: 0d7f 24bd 51f5 423d 6ba4 b1bc 9c8b 3a3d
00000240: 849d 7c3e 0bfd 293d 26df 0c3c 76e5 f8bd
00000250: 8d09 49bd b8c5 ca3d 62df fabd 714a 193e
00000260: 56ce 063e 040b e1bc 613f 2abe 6d3a fa3d
00000270: d969 24be 6ac8 303d b2d2 62bd 83a2 ac3d
00000280: b1e3 a0bd 0154 643d d32d abbd 331c c93c
00000290: b89c 243d 596d 193d 7fd2 023e a7ab b63b
000002a0: e59f 49bd 8356 0b3d bfc3 693d 3a70 4a3d
000002b0: 4511 de3d 01ac 42bc e264 a9bd d968 933d
000002c0: b6c8 1dbe 89f7 9d3c 1738 c33d 1fc6 abbc
000002d0: d629 09be 1906 c2bd 36ea ebbd 2632 18bc
000002e0: 8614 323e 2ef7 cc3d 9ec8 dc3d 2785 47bd
000002f0: 2697 d4bc 2d31 57bd d56f ccbb 7e57 93bc
00000300: fed7 253c 1fd3 f83d 31e9 963d 9bf3 0c3d
00000310: d1b1 9b3c 6c3e 2d3e 9519 183d 21b0 8f3d
00000320: bcd5 0e3e 6c02 9f3c de04 e6bd da81 19bd
00000330: db86 40be b188 c1bd 7ec8 4d3c 8cde 69bd
00000340: 2bda 0a3d 5cca b23d cb8f ca3a ee55 d43d
00000350: 697d d93d 6b00 36be c9c1 4a3c eaac 963d
00000360: 0a52 04be 3f90 633d 0326 283d dfa2 2abd
00000370: 8da1 dbbc 0633 e1bd 3885 f2bd ea80 0dbe
00000380: 7cf1 1f3c 83a8 ce3b d5f9 05bd 8e5f a5bd
00000390: acd9 96bc b172 103d 41e5 76bd 3b19 7f3d
000003a0: bb9a 27be 700e 95bd f303 7a3c c326 a83d
000003b0: d9c5 dbbc 74c6 29be b0ba f3bc effc c3bd
000003c0: 272f 90bd bf85 103d b98f edbc 73b0 08bd
000003d0: b86a 5a3d ea5b 4dbc 8721 ed3a cc40 213d
000003e0: ec5e 1e3d d8e1 45bd e73f 81bd de05 c33d
000003f0: 546c e8bd 0375 72bd 7265 aa3c 0082 b8bd
-0.026213424 -0.11453699 -0.119572505 -0.054489393 0.034637515 0.16113006 0.034250546 0.087667204
-0.15276739 -0.049030684 0.04115795 -0.14614806 -0.09135511 0.13624233 -0.024152929 0.051104512
-0.14840463 0.038722917 -0.08001107 -0.0040018074 0.041296933 0.041856356 -0.04878407 -0.23306355
0.00973555 0.18495496 -0.088813595 0.015547579 -0.01704345 -0.16495195 -0.028497294 0.039108757
0.15228264 0.06860926 0.008763117 -0.07566616 -0.033342134 -0.13262166 -0.027097642 0.056327034
0.070861295 -0.015660778 0.09510057 0.06721139 0.1133246 -0.061514676 -0.08997427 -0.01973917
0.11044326 -0.0892525 0.009377623 -0.017852567 0.013220392 -0.039774343 -0.02035986 0.08325998
0.0646821 0.16220279 0.1498716 0.0068701426 -0.029669965 -0.14566277 -0.03330357 0.13863878
0.01614856 0.08624365 0.08654771 0.017984051 -0.09406732 -0.006823766 -0.06473337 -0.074923664
-0.05551212 -0.10094342 0.098939925 -0.034104556 -0.065282755 -0.00589476 -0.04979526 -0.025451992
-0.11177051 0.1631117 0.18957841 0.04497633 -0.097250745 -0.051300354 0.08316609 -0.014477845
0.1485789 0.14717326 -0.08005656 0.006184187 -0.16135119 0.06983728 -0.1433222 -0.040798835
-0.076831624 -0.06866026 -0.005043001 -0.04897638 0.0322496 -0.034744725 -0.06517857 0.06796013
0.025943028 0.007242271 -0.13496608 0.020891523 0.07217945 0.05296677 0.006818735 0.023501297
0.009953701 -0.06034019 0.07497958 -0.10161551 0.050719783 0.11445898 -0.088847965 -0.08863208
0.020763163 0.048727464 0.12832005 0.010273704 0.04265 -0.03991996 0.04851796 0.09392487
-0.01264393 -0.10064411 0.1074494 -0.054116987 0.013893763 0.018912008 0.1822867 0.12654911
-0.022770027 0.0146752875 -0.08070382 0.12407191 -0.040160228 0.047597233 -0.021684846 0.045543298
0.24669462 0.041501086 0.008598125 -0.12153141 -0.049081374 0.09900993 -0.12249638 0.14969803
0.13164648 -0.027471073 -0.1662574 0.12218175 -0.16056003 0.04315988 -0.055376716 0.08429434
-0.07855929 0.055744175 -0.0835835 0.02454958 0.04018852 0.037457798 0.1277561 0.005574662
-0.049224753 0.03401805 0.057071444 0.049423434 0.10843138 -0.011881829 -0.08271195 0.071977325
-0.15408596 0.019283073 0.09532183 -0.020968495 -0.13394865 -0.09473819 -0.115192816 -0.0092893
0.17390642 0.10008083 0.10780452 -0.04871097 -0.02595098 -0.052537132 -0.0062389174 -0.017986055
0.010122297 0.12149643 0.073686965 0.034412008 0.019005688 0.16918343 0.037133772 0.07016016
0.1394872 0.019410335 -0.11231397 -0.03747735 -0.18801443 -0.094499 0.012560008 -0.057097003
0.033899467 0.08730003 0.0015454231 0.10367952 0.10619623 -0.17773597 0.012375304 0.073571995
-0.1292192 0.055557486 0.041051876 -0.041659232 -0.026810432 -0.1099606 -0.11841816 -0.13818708
0.009762164 0.0063067093 -0.03270896 -0.08074866 -0.01841434 0.03526563 -0.060277227 0.06227992
-0.16367619 -0.07278144 0.015259731 0.08210518 -0.02682774 -0.1657961 -0.029752105 -0.09569728
-0.070402436 0.0352838 -0.028999196 -0.0333714 0.05332443 -0.012534121 0.0018091657 0.039368436
0.038664743 -0.048311085 -0.063110165 0.095226035 -0.11348787 -0.059193622 0.020800326 -0.090091705

worker.f_stateW.0.bias f4 [128]
00000000: 8222 d23b 95b6 5ebb 4aa4 603b 045d 48bc
00000010: 8f0b 7dba f2e4 92ba 69a1 e33a 635c e039
00000020: f103 20b9 a5e4 c83b dc25 10bb d311 0ebc
00000030: 9b55 4fbb 2d17 a43a 32f8 b0bb 49a5 b9ba
00000040: b4f6 91b9 6bd0 03ba d6ad 5f3b 2a02 8b3b
00000050: 3318 09bc 50d3 153c 10bf b33b d6e8 46bb
00000060: 09cb 9dbb 2020 24bb e52a 2a3c c840 fa3a
00000070: 33e0 22b9 ae98 82ba 7838 df3b 70ce 5a3a
00000080: 66f8 523b b48d 89ba 2018 91ba 519c ae3a
00000090: 75b5 ca3b a63a ac3b 0a3b 2e3b fc51 57bb
000000a0: 1880 43b9 628d fabb 1ee5 b7b9 63e3 923b
000000b0: e6d9 ef3a 4a1d 0c3a 2115 96bb 3c77 3e3a
000000c0: 6db1 5739 b506 f83a 6e2e 5bba c035 d03b
000000d0: df7e ecbb f882 7e3a 0863 b7ba d26a debb
000000e0: 94ea 083c b127 a9bb 06a9 fd3a 8a8e 123b
000000f0: 47a8 61bb ee12 9eba 56df 6a3a b35f 1c3b
00000100: c3de bd3b e405 df3b 925a d038 3c60 83bb
00000110: dd0f ef3b 6720 a0ba 0acc d43b 2655 9cbb
00000120: 94e2 c0bb 2ac9 be39 94d8 053c 4c66 4ebb
00000130: 6464 acbb 68ef 9c3b 788e fb39 e5e9 8fbb
00000140: 50c8 4fbb 6f17 9fb9 3ce3 773b da66 34bb
00000150: 5e9d 7739 aa57 6fb9 75ad 04bc 0660 12bb
00000160: e672 48bb 4353 49bb fcf7 1c3b 47db 1c3b
00000170: 3ef9 13bb 4cfe 923b 89db 573c dda5 1d3b
00000180: 5700 cb3b 347d bcbb bc19 7bba eac4 013a
00000190: 0093 f4bb ebe7 fb3b 8382 773b acdc 8d3a
000001a0: 899c b7bb 94ba c2bb 80df 8bba 3ec4 503b
000001b0: 2d4b c83b c4a4 ce3b aa47 08bb c098 09bb
000001c0: 1ace a93b 9db7 743a 9a7c efbb 9ff0 633a
000001d0: 3cad 513b 46de 873a bab6 94bb 4692 d3ba
000001e0: bdcb 4f3b 7af5 d53a a9bd 783b c811 ef3a
000001f0: 46fc 86bb bbb2 ec3b 02b7 0c3c 4587 3bbb
0.006412805 -0.003398334 0.0034277611 -0.012229208 -0.00096529064 -0.0011207147 0.001736683 0.00042793443
-0.00015260257 0.006130772 -0.0021995222 -0.008671242 -0.0031636718 0.0012519114 -0.005400681 -0.0014163639
-0.00027840363 -0.000502831 0.0034130714 0.0042422013 -0.008367586 0.009144619 0.005485423 -0.0030351183
-0.0048154634 -0.0025043562 0.010386203 0.0019092793 -0.00015533045 -0.0009963715 0.0068121515 0.00083468016
0.0032191514 -0.0010494501 -0.0011069812 0.0013321732 0.006186182 0.005256015 0.0026585483 -0.0032855263
-0.00018644368 -0.0076462487 -0.00035075186 0.004482673 0.0018299192 0.00053449406 -0.0045801555 0.0007265692
0.00020570094 0.0018922897 -0.00083611056 0.0063540637 -0.0072172727 0.0009708847 -0.0013991306 -0.0067876363
0.008356709 -0.0051622023 0.0019352741 0.0022362792 -0.0034432577 -0.0012060085 0.0008959671 0.0023860752
0.0057943775 0.006806122 9.935083e-05 -0.0040092748 0.007295592 -0.0012216688 0.00649405 -0.0047708927
-0.005886385 0.00036389503 0.008169312 -0.003149408 -0.005260991 0.0047892816 0.00047980598 -0.004391896
-0.003170509 -0.00030344303 0.0037824651 -0.0027527125 0.0002361438 -0.00022825474 -0.008097996 -0.0022335066
-0.0030586063 -0.0030719794 0.002395152 0.002393441 -0.002257898 0.004485881 0.0131749 0.002405516
0.006195109 -0.00575223 -0.0009578725 0.0004950302 -0.007463813 0.007687559 0.0037767 0.0010823212
-0.0056033772 -0.005942652 -0.0010671467 0.003185525 0.0061124773 0.0063062627 -0.0020794668 -0.0020995587
0.00518204 0.0009335222 -0.007308555 0.0008695218 0.0031994125 0.0010365925 -0.0045383843 -0.0016141615
0.003170713 0.0016323768 0.0037954843 0.0018239552 -0.004119429 0.007223455 0.008588554 -0.0028614562

worker.f_stateW.2.weight f4 [25, 128]
00000000: f00c 90bd 15a4 363e 59ba 7ebd 3312 b7bd
00000010: 33e3 8abd c01f fd3c 7756 b1bd bee4 96bc
00000020: e539 7c3d 078d 2c3c 8f37 59bd 09d9 17be
00000030: e3a5 4c3d cadb afbc f981 2f3c 9971 883c
00000040: e2e0 6e3d 934d a2bd 47d5 1f3a e944 47be
00000050: 9246 8cbd 8088 f2bc a014 2ebc 5bd8 60bc
00000060: 1015 b33d 8f46 6b3d b291 3c3d 231c 153e
00000070: e8de 143e 8e5d f23d 0f16 bfbd d63b c83d
00000080: 4c56 89bd fd62 25be 14b4 12bd 820a b03d
00000090: 4012 373d 5bb8 3ebd 03d9 d13d 7525 10be
000000a0: ae42 9b3c 30a3 60bb 6b65 e9bd f962 e0bd
000000b0: 0504 db3c 56ab 75bd 0a78 88bd afc0 c03d
000000c0: 288e c6bd 67ff 9dbc b349 f23d adcf 303d
000000d0: bde3 903d f7b5 97bc 2e71 39bc c391 283d
000000e0: f310 cbbd 3ff4 443c b407 303d 5cc9 ea3c
000000f0: 792a 6f3d 2589 84bd 1c24 733e 1128 03be
00000100: 6fba dabd c98a c9bd 65dc 1a3d 9741 b0bd
00000110: 792a 65bd 8a93 883d c9a0 d43d 5c0c 6e3d
00000120: f7b1 e1bb e521 953d 4c4d 3bbc ae19 f43c
00000130: 5508 823d 0e28 4fbd b042 da3c 1f47 0e3e
00000140: e455 dbbd 1585 3f3d d945 d4bc 712a 95bd
00000150: 93d6 45bd d9e4 f13d 0c39 853e f960 ce3d
00000160: c371 0dbe f400 233e f799 3cbc d2ec 8abc
00000170: 366d 1dbc 2ee0 aebd 9b02 373d b12e a1bc
00000180: 2c1b 9e3b 49e5 95bd 4047 603c 1ab2 4a3e
00000190: 1cc1 41bd 546c 2fbe e0c6 e03c 2ce4 afbc
000001a0: c472 c2bc 70de 883d 6cf8 b7bc 2c9d 0fbd
000001b0: 6a1a b63c edb8 81bd 0362 103c b16e afbd
000001c0: 652c 803d dbf7 933c cf91 91bc 9e74 d43d
000001d0: 6fd7 ea3d 3d60 e53d 2220 eabc 5376 0cbe
000001e0: 30b3 043e fa84 2d3e 030d 843d bf22 b83d
000001f0: 8660 00be 37c2 aabd 6596 ccbd 96cb ab3d
00000200: ecfe 8dbc 4b4e 1b3d b80f cabd 7bc9 06be
00000210: 757b 0c3e 0d2d d83d c558 4fbd 7a8d 143c
00000220: e6f8 87bd 2631 32be 686e bbbd 0f39 42bc
00000230: 9482 f6bd 149a 80bc 5a0f 643e bcab 933d
00000240: fbec 6d3d 56c3 b0bd 3679 f13d 334c ba3b
00000250: 2cca 31bd 13ea b0bd e06e d7bd efad 7fbb
00000260: 4ac2 093d c902 143e 8643 9f3c e49d a53d
00000270: 2564 1abd f09a 1e3c 7214 9abd c186 bdbd
00000280: 09ce b13d 184a d8bd 967b 1fbd 67b5 82bd
00000290: a579 2abd 321f 9c3d 1788 01be 431e 243e
000002a0: 7d90 2f3d c2c8 85bd 8004 4e3d 50c7 6e3d
000002b0: 1835 6dbd 05c7 80bd b776 093d 51d1 11bd
000002c0: a335 ca3c 238e e5bd 8d1f 553d ea2b 77bb
000002d0: 0fc2 1bbe cad4 433c 4b2f 0ebd e608 babc
000002e0: 5d18 a03d 9a0e cbbd 928d bf3d add0 adbd
000002f0: f81d 3d3d 5b13 733d 66fb 4a3d c39c 2e3c
00000300: 3459 17be 516a e23c 1bde 113d 87c1 3abd
00000310: 8ea0 b63d 5e7c e4bc b712 d7bd 8120 67be
00000320: 2fd2 293d 1e63 a5bd d3c8 4fbd aada e23d
00000330: 940e d93c d6db b13d 672f d33d f1ac d5bd
00000340: 9f1e 193d 7ad3 debd 18ca b13d 5319 9b3d
00000350: 49bc 34bb f433 8d3c b009 1a3e bbd0 e3bc
00000360: 1233 8a3e 73eb 00be f334 3b3e 4462 c9bc
00000370: 5cbb 513c d3ca 17be b58d 233d f487 a739
00000380: 73f0 823a 59f6 c33d 1967 c53d 5656 5b3e
00000390: da80 903d 1e20 c93c e291 983d 3593 283b
000003a0: 1fb4 8abd 65e9 2c3d 8ae4 24bc 8459 5e3b
000003b0: 4e23 1b3c a643 a03c 4bac 5abc 4cf9 243b
000003c0: 0720 ba3c af7e a63d 1ae8 cabd 90ae 2f3d
000003d0: 0933 8ebd 0d4d 303d 272b 653d 8c6a 71be
000003e0: 1300 2c3d 6a1c a03d d165 9ebc 2172 15be
000003f0: a0fc 9d3d 734e 993d 1b8d b73b 38fb d1bc
-0.07033718 0.1783603 -0.062189434 -0.08939018 -0.06781616 0.030898929 -0.0865907 -0.01841962
0.06157865 0.01053167 -0.0530315 -0.14828886 0.04996289 -0.021467108 0.01071214 0.01665573
0.058319934 -0.07924952 0.00060971495 -0.19459881 -0.06849398 -0.029606104 -0.010625035 -0.013723458
0.08744252 0.057440337 0.046037383 0.14561515 0.14538157 0.118342504 -0.09330379 0.09777038
-0.06705913 -0.16151042 -0.035816267 0.08595754 0.04469514 -0.046562534 0.1024647 -0.14076789
0.018952694 -0.0034276955 -0.11396297 -0.109563775 0.026735315 -0.05997785 -0.06663521 0.094117515
-0.09695083 -0.019286824 0.11830463 0.043166805 0.07074688 -0.018519385 -0.011318488 0.041154634
-0.09915342 0.012021123 0.042976096 0.028660469 0.058390114 -0.06471471 0.23744243 -0.12808253
-0.10680091 -0.09840924 0.03780784 -0.0860626 -0.05594871 0.06668766 0.1038223 0.058117256
-0.00688767 0.072818555 -0.011432003 0.029797401 0.063492455 -0.05057531 0.026643127 0.13894318
-0.10709742 0.046757776 -0.025912212 -0.07283486 -0.048300337 0.11811227 0.26020086 0.1007709
-0.13812928 0.15918332 -0.011511317 -0.016958628 -0.009608557 -0.08538853 0.04468022 -0.019675585
0.0048250165 -0.07319123 0.013688862 0.19794503 -0.047303304 -0.17131168 0.027438581 -0.021471106
-0.023736365 0.066830516 -0.022457324 -0.035062 0.022229392 -0.063341 0.00881243 -0.085660346
0.062584676 0.018062523 -0.017769722 0.103738055 0.11466872 0.111999966 -0.028579775 -0.13717012
0.1295898 0.16945258 0.06447794 0.08991002 -0.12536821 -0.08337825 -0.09989623 0.0838844
-0.01733347 0.037916463 -0.09866279 -0.13162796 0.1371897 0.10555468 -0.050621767 0.009066934
-0.066392705 -0.17401561 -0.09151918 -0.011854424 -0.120366246 -0.01569847 0.22271481 0.0721049
0.05808733 -0.086310074 0.11790697 0.005685353 -0.043405697 -0.08638396 -0.105191946 -0.0039013585
0.033632554 0.14454187 0.019441377 0.08086756 -0.03769316 0.009680495 -0.07523431 -0.09254218
0.08681876 -0.10561007 -0.03893622 -0.06382256 -0.041619916 0.076231375 -0.1264957 0.16027169
0.042862404 -0.06532432 0.05029726 0.058295548 -0.057911962 -0.0628796 0.03356048 -0.03560001
0.02468378 -0.11208751 0.052032042 -0.0037715384 -0.15210746 0.011952588 -0.03471307 -0.022709321
0.07817147 -0.099148944 0.09353174 -0.08487067 0.04617116 0.05934463 0.04955616 0.010657492
-0.14780122 0.027638586 0.035612207 -0.04559472 0.08917342 -0.027891334 -0.105016164 -0.22570993
0.041460212 -0.08075546 -0.05072863 0.11076863 0.02649621 0.086845085 0.10311776 -0.104333766
0.03738272 -0.1088018 0.086811244 0.075731896 -0.0027578047 0.017236687 0.15042758 -0.027809491
0.2699209 -0.12589817 0.18281917 -0.02458299 0.012801018 -0.14823465 0.039930064 0.00031954015
0.0009989872 0.095684715 0.09638805 0.21419653 0.070558265 0.024551447 0.074497 0.0025722508
-0.067726366 0.04221477 -0.010064254 0.0033927867 0.0094688665 0.019563507 -0.013346742 0.0025173007
0.02272035 0.08129632 -0.09907551 0.042891085 -0.06943328 0.04304223 0.055949356 -0.235758
0.04199226 0.078179196 -0.01933566 -0.14594318 0.077142 0.07485666 0.005601538 -0.025632486

worker.f_stateW.2.bias f4 [25]
00000000: c220 f7bb c2cc 8dba fd23 3bbb c8c4 9ebb
00000010: a171 123b 3e18 0bbb ee4d d2bb 52dc 813a
00000020: 0000 0000 de8e 1ebb 6d3c 23bb 2481 a339
00000030: 1a2e 173b d402 8fba cde5 243c c612 0638
00000040: 7c08 063c 54e4 d23a da65 5f3b 1e38 a63a
00000050: 1e07 013b 18aa 36bb 0b7e 35ba 5a4d d4b9
00000060: 1c93 463b
-0.007541747 -0.0010818469 -0.0028555386 -0.0048452355 0.002234556 -0.0021224166 -0.0064179813 0.000990758
0.0 -0.0024194042 -0.0024907843 0.00031186 0.002306825 -0.0010910877 0.010064554 3.1965574e-05
0.008180734 0.0016089776 0.0034087808 0.0012681519 0.001968808 -0.002787238 -0.0006923384 -0.00040493422
0.0030300086
