vwgym/saved_model/vwgym_f_net_step_300000.pt (torch_old, 356479 bytes, 51 tensors)

f_percept.percept.0.weight f4 [16, 3, 3, 3]
0	0xbe806cd5	-0.25083032
1	0x3dba463c	0.090954274
2	0x3cc8b3a2	0.024499718
3	0xbe42852b	-0.18996112
4	0xbd4add90	-0.049527705
5	0x3cd29822	0.025707308
6	0x3e4e22b5	0.20130427
7	0x3e8bb634	0.27287447
8	0xbd547847	-0.051872518
9	0xbc821600	-0.015879631
10	0xbde8a2a3	-0.113591455
11	0xbf000dcc	-0.5002105
12	0x3db8029a	0.08984871
13	0xbe09a2d0	-0.13441014
14	0xbd11fa76	-0.03563925
15	0xbe7437a9	-0.23849358
16	0x3eddb59d	0.43302622
17	0x3e57c628	0.21071684
18	0xbe04307d	-0.12909122
19	0x3d468d97	0.048474874
20	0x3d210e39	0.039320204
21	0xbea24cf0	-0.31699324
22	0xbe2d2228	-0.16907561
23	0xbe140519	-0.1445507
24	0x3d78be5e	0.060728423
25	0x3e1a8c8f	0.15092681
26	0x3cd2a296	0.025712293
27	0xbd3ffc61	-0.046871547
28	0xbdc206bd	-0.094739415
29	0xbdfb114e	-0.1225916
30	0x3e7a427f	0.24439429
31	0xbe78dbb6	-0.24302563
32	0xbe8fcd16	-0.28086156
33	0xbdf7b472	-0.12094964
34	0x3e3703ed	0.17872591
35	0xbdb9ee5a	-0.09078665
36	0x3e651fb5	0.22375377
37	0x3d00b736	0.031424724
38	0x3e146954	0.14493304
39	0x3ca180fd	0.019714827
40	0xbe00932c	-0.12556142
41	0x3e2bd683	0.16781048
42	0x3ea96ef4	0.33092463
43	0x3da0c805	0.07850651
44	0xbeb4c43b	-0.35305962
45	0xbe227526	-0.15865001
46	0x3dbe0a2b	0.09279283
47	0x3e505af3	0.20347194
48	0xbe0a242f	-0.13490365
49	0xbe86059d	-0.26176158
50	0xbecbc126	-0.39795798
51	0x3e36fe82	0.17870525
52	0xbcc5b336	-0.024133306
53	0xbda4551a	-0.08024044
54	0xbd3ccecd	-0.046095658
55	0xbe7c46f8	-0.24636447
56	0xbe84f802	-0.25970465
57	0x3edf82d4	0.436545
58	0x3df4a4ad	0.11945472
59	0x3dbdefac	0.092742294
60	0xbe170cc1	-0.14750959
61	0xbe3d3620	-0.18477678
62	0x3cc36954	0.023853935
63	0x3da0b5ab	0.078471504
64	0xbe1b63c7	-0.15174781
65	0xbe4b6667	-0.19863282
66	0x3d575ef8	0.052580804
67	0xbc984270	-0.018586367
68	0x3e5ac61d	0.21364637
69	0xbea6cc14	-0.32577574
70	0xbe05d311	-0.13068797
71	0x3d513249	0.051073346
72	0xbc178ca0	-0.009249836
73	0xbd0c75da	-0.03429208
74	0x3e85ec68	0.26156926
75	0xbe2c3df7	-0.16820513
76	0xbe919ea7	-0.28441355
77	0x3e882a49	0.2659476
78	0xbc8d3ad8	-0.017239973
79	0xbe4e59ea	-0.20151487
80	0x3e868b18	0.26277995
81	0x3d9e2569	0.07721979
82	0xbddb0eab	-0.10696157
83	0x3e3a5a1f	0.18198441
84	0x3e9aca73	0.30232581
85	0x3cae18ae	0.021252003
86	0x3d18c20b	0.03729443
87	0x3ecb65b8	0.39726043
88	0xbc915e01	-0.01774502
89	0xbdd4aac6	-0.10384135
90	0xbd9fafde	-0.07797216
91	0xbea96d14	-0.33091033
92	0x3dfffc8e	0.12499343
93	0x3ea871fd	0.32899466
94	0x3e7d6cf7	0.24748598
95	0xbd15264e	-0.036413483
96	0x3e8f8513	0.28031215
97	0x3ea740ba	0.3266657
98	0xbe14e103	-0.1453896
99	0xbd2eb64e	-0.042654328
100	0xbda2d078	-0.079499185
101	0x3dbb367e	0.09141253
102	0xbe1f6ce4	-0.15568882
103	0x3e3fb890	0.18722749
104	0x3e9700aa	0.29492694
105	0xbc9283eb	-0.017885169
106	0xbd962be6	-0.07332592
107	0xbdf5ef80	-0.120085716
108	0xbe3494ac	-0.17634839
109	0x3d9ebd78	0.07750982
110	0x3d9df86c	0.07713398
111	0xbd200f41	-0.039077047
112	0xbe0385a5	-0.1284395
113	0xbded0a79	-0.11574263
114	0x3ebdf409	0.37100247
115	0xbdc3a790	-0.095534444
116	0x3c53a762	0.012918325
117	0x3ac3e784	0.0014946316
118	0x3c6ed5cf	0.014577343
119	0x3e8bf560	0.27335644
120	0x3c8c2b87	0.0171106
121	0xbef035ab	-0.46915945
122	0x3e764e23	0.24053244
123	0xbe837bcc	-0.25680387
124	0x3c0d8164	0.008636806
125	0xbc1f0be2	-0.009707423
126	0xbe1c9528	-0.15291274
127	0xbecb88d5	-0.39752832
128	0xbcfb8b3f	-0.030706046
129	0x3e8c2b1d	0.27376643
130	0xbe49fc61	-0.19725181
131	0x3e24b983	0.16086392
132	0xba5aa7f3	-0.00083410664
133	0xbd93f611	-0.07224668
134	0xbe47f9e1	-0.19528915
135	0xbdf4f4b0	-0.11960733
136	0xbd975994	-0.073901325
137	0x3e829cb9	0.25510195
138	0x3ce9f841	0.02856076
139	0x3dfedba2	0.124442354
140	0xbe53d0af	-0.20685075
141	0x3dbb0780	0.0913229
142	0x3c712754	0.014718849
143	0x3d34176b	0.043967646
144	0x3eb2631d	0.34841242
145	0xbdc469a0	-0.09590459
146	0xbeaf8e79	-0.34288386
147	0xbe0c8ba2	-0.1372514
148	0x39394691	0.00017669263
149	0x3e949938	0.29023147
150	0x3d984248	0.07434517
151	0xbeb41863	-0.35174856
152	0x3d311e6c	0.043241903
153	0x3e02a6dd	0.12758966
154	0x3d9d0baa	0.0766824
155	0xbe27439d	-0.16334386
156	0xbe64f44a	-0.22358814
157	0x3e18ca67	0.1492096
158	0x3d3f0586	0.046636127
159	0xbdd5e295	-0.10443608
160	0xbe1180f4	-0.14209348
161	0xbee99216	-0.45619267
162	0x3e28f6a7	0.1650034
163	0xbb01bcca	-0.0019796365
164	0xbccddd59	-0.02512996
165	0xbd21dccc	-0.03951721
166	0x3dda4d72	0.10659303
167	0x3bd7196e	0.0065643108
168	0xbe883d87	-0.26609442
169	0x3d8b8696	0.068127796
170	0x3e9c18b8	0.3048761
171	0xbdda54f2	-0.10660733
172	0x3e17b2ac	0.14814252
173	0xbe5cc688	-0.21560109
174	0x3e71e08b	0.23620813
175	0xbdebe162	-0.11517598
176	0x3e151ed0	0.14562535
177	0x3e466300	0.19373703
178	0x3e9a9c27	0.3019726
179	0xbe432fc8	-0.19061196
180	0x3eb3d839	0.35125902
181	0xbdf9aeb8	-0.12191528
182	0xbd19d96c	-0.037560865
183	0x3df8ea4a	0.12154062
184	0xbe9e344c	-0.30899274
185	0x3e11488b	0.14187829
186	0xbeba2049	-0.36352757
187	0x3dde65c6	0.108592555
188	0xbe5efcd1	-0.2177613
189	0xbe49f0be	-0.19720742
190	0xbcb4ab0a	-0.022054214
191	0xbde33b17	-0.11095255
192	0x3e67c002	0.22631839
193	0xbdafec9b	-0.08590051
194	0xbdfec764	-0.124403745
195	0x3da2e793	0.079543255
196	0x3e553be2	0.20823625
197	0x3dec6a88	0.11543757
198	0x3ae6c8e4	0.0017607477
199	0xbdfc549f	-0.12320828
200	0xbb8b8ff2	-0.004259103
201	0xbe7fed22	-0.24992803
202	0xbd8929a0	-0.066973925
203	0xbd9e9c9d	-0.07744715
204	0x3ec0f8aa	0.37689716
205	0x3da08de3	0.07839563
206	0x3e9b432d	0.3032469
207	0x3ea5796a	0.32319194
208	0xbe899ec6	-0.26878947
209	0xbecdcf56	-0.40197247
210	0x3c967fae	0.01837143
211	0xbdbcae24	-0.09212902
212	0x3d16278c	0.03665881
213	0x3dee6a1c	0.116413325
214	0xbe09e92a	-0.13467851
215	0x3ea6a602	0.3254853
216	0x3e32929d	0.17438741
217	0x3e09b9d3	0.13449793
218	0x3da4d92c	0.08049235
219	0xbcd24a6b	-0.02567025
220	0x3df83192	0.1211883
221	0xbeb2794f	-0.34858176
222	0xbdc32805	-0.095291175
223	0xbd080379	-0.033206437
224	0xbdea50eb	-0.11441215
225	0xbe893672	-0.2679935
226	0x3d1fc33e	0.039004557
227	0xbd33b88a	-0.043877162
228	0x3e11c8d9	0.14236774
229	0x3e118547	0.14210998
230	0x3eb20d25	0.34775653
231	0xbe7c3254	-0.24628574
232	0x3e56178c	0.2090742
233	0xbe00647e	-0.12538335
234	0x3d3b3b23	0.045710694
235	0x3e424f6b	0.18975608
236	0xbebc8b3b	-0.36824974
237	0x3d9042c6	0.07043986
238	0x3bc17a50	0.0059044734
239	0xbd1750c9	-0.036942277
240	0x3ea8d813	0.32977352
241	0xbeb996e2	-0.36247927
242	0x3de731d8	0.11288804
243	0x3d8fc785	0.07020477
244	0xbe20fe40	-0.15721989
245	0x3e820959	0.25397757
246	0x3cc81fe9	0.024429278
247	0xbeb64af3	-0.35604057
248	0x3e4c5c87	0.19957171
249	0x3da28ee1	0.07937408
250	0x3dbd296a	0.09236415
251	0xbe2983b2	-0.16554144
252	0x3d7001c2	0.058595426
253	0x3ec0c9fe	0.37654108
254	0xbd7ef5bc	-0.06224607
255	0xbe3eb3c5	-0.18623264

f_percept.percept.0.bias f4 [16]
0	0x3b629029	0.003457079
1	0xbc0a0ec2	-0.00842637
2	0x3b892dab	0.0041863522
3	0xb9b1d530	-0.00033918908
4	0x3b4837bb	0.0030550796
5	0x3aa11e10	0.0012292285
6	0x3ae164e5	0.0017196207
7	0xbb822f03	-0.0039728894
8	0xbc06f292	-0.008236544
9	0xbbe55c31	-0.0069995155
10	0x396d457b	0.00022627965
11	0xbbe9d529	-0.0071360064
12	0xbc0bc793	-0.008531469
13	0xbbfc7384	-0.0077042
14	0xbb09a9d6	-0.002100577
15	0x3bd60016	0.006530772

f_percept.percept.3.weight f4 [64, 16]
0	0xbd85528d	-0.06509886
1	0xbe80e730	-0.25176382
2	0x3ea99aed	0.33126011
3	0xbb818206	-0.0039522676
4	0xbd529d92	-0.051419802
5	0x3ddd0867	0.10792618
6	0xbe2f53f0	-0.17121863
7	0xbe0c8ef5	-0.13726409
8	0x3ce90f88	0.028449789
9	0xbe51e266	-0.2049652
10	0xbe24d12a	-0.16095415
11	0xbe4d8ebf	-0.20073985
12	0xbd60d5bf	-0.054891344
13	0xbe36a21a	-0.17835274
14	0xbd52b603	-0.05144311
15	0x3d61de27	0.0551435
16	0xbde91007	-0.1138001
17	0xbd983a13	-0.07432952
18	0xbcc46f9d	-0.023979003
19	0xbe87abdd	-0.2649831
20	0xbd45a07f	-0.048248764
21	0xbb72fc4e	-0.0037076655
22	0x3d947ab7	0.072499685
23	0x3da35972	0.07976045
24	0x3d4aa715	0.049475748
25	0xbd18f213	-0.037340235
26	0xbe05755e	-0.13033053
27	0x3c0b7125	0.0085108625
28	0x3d90cade	0.07069944
29	0xbbf9c381	-0.007622183
30	0x3e5ae142	0.21374992
31	0xbdce9d71	-0.10088623
32	0xbd356869	-0.044289026
33	0xbd95331a	-0.072851375
34	0x3e317f2f	0.17333673
35	0x3d2dae54	0.04240258
36	0xbe2e0902	-0.16995624
37	0xbd5fb904	-0.054619804
38	0xbcec837a	-0.028871287
39	0xbe0b216d	-0.1358697
40	0xbe5178bc	-0.20456213
41	0x3dca21cb	0.09869727
42	0xbe24d2f3	-0.16096096
43	0x3e377852	0.17916992
44	0xbe8384b0	-0.2568717
45	0xbd6cd021	-0.057815675
46	0x3e318a8d	0.17338009
47	0x3e35633e	0.17713639
48	0xbca3cca8	-0.019995049
49	0xbce545ee	-0.027987447
50	0xbe885823	-0.26629743
51	0xbe054b29	-0.13016953
52	0xbe079053	-0.13238649
53	0xbdc1c1f7	-0.09460824
54	0x3dc53c95	0.09630696
55	0x3cfdb192	0.030968461
56	0x396ee7f2	0.00022783855
57	0x3db7b95e	0.08970903
58	0xbc1aa929	-0.009439745
59	0xbde1c456	-0.11023776
60	0xbe813c75	-0.25241438
61	0xbd59dc0f	-0.05318838
62	0xbd0647ee	-0.03278344
63	0x3c106d3c	0.008815106
64	0xbdf6fb40	-0.12059641
65	0x3d9d3431	0.0767597
66	0x3df3cf16	0.11904733
67	0xbc65f6e7	-0.014035917
68	0xbe2932ce	-0.16523287
69	0xbe2e6086	-0.17029008
70	0x3dd67879	0.10472197
71	0x3dde8b52	0.10866417
72	0xbdd178a8	-0.102280915
73	0xbd8f4450	-0.069954515
74	0xbe359bc2	-0.17735198
75	0xbddd3c44	-0.108025104
76	0xbdab1093	-0.08352771
77	0x3ea05064	0.31311333
78	0x3d3bb53f	0.045827147
79	0x3cec3e55	0.028838316
80	0xbd078704	-0.033087745
81	0xbd245e9c	-0.04012929
82	0x3d0239f9	0.03179357
83	0xbd851a11	-0.064991124
84	0xbde0cbfe	-0.109764084
85	0xbd30fd11	-0.043210093
86	0xbdf651b8	-0.12027305
87	0x3df05d48	0.11736542
88	0x3df926e2	0.121656194
89	0xbe239758	-0.15975702
90	0x3d181a37	0.037134375
91	0x3da90df0	0.082546115
92	0x3dbb8d1f	0.09157776
93	0xbd90e894	-0.07075611
94	0x3e05cc9d	0.13066335
95	0xbdbee4a2	-0.09320952
96	0xbe594028	-0.2121588
97	0x3e1003b2	0.1406391
98	0x3dae095d	0.0849788
99	0x3e4e0c1c	0.20121807
100	0x3dd8cb6b	0.10585674
101	0xbdd7c81c	-0.10536215
102	0xbd93a554	-0.07209268
103	0x3e271192	0.16315296
104	0xbdb4e5dd	-0.088329054
105	0x3da5a080	0.080872536
106	0xb9bcc756	-0.0003600667
107	0x3d7f0756	0.062262855
108	0x3e03aac2	0.12858108
109	0xbdbd7cc1	-0.092523105
110	0x3e3b8598	0.1831268
111	0xbd89bd9e	-0.0672562
112	0x3e4d2d73	0.20036869
113	0xbe97a895	-0.29620805
114	0x3c6ab2b9	0.014324837
115	0x3e5277ea	0.20553556
116	0x3e665a67	0.22495423
117	0x3de0d0da	0.10977335
118	0x3e000254	0.12500888
119	0x3cbaecc2	0.022817973
120	0xbe7e5db2	-0.2484043
121	0x3e20f805	0.15719612
122	0x3e16ac59	0.14714183
123	0x3cfdfa48	0.031003132
124	0x3d45a0ed	0.048249174
125	0xbda5505f	-0.0807197
126	0xbd0cf1eb	-0.0344104
127	0x3dad4997	0.08461302
128	0xbda8a199	-0.08233947
129	0xbdbdd1f5	-0.09268562
130	0x3e40bdc5	0.18822391
131	0x3cc48c70	0.023992747
132	0x3c042350	0.00806506
133	0x3e664dc5	0.22490604
134	0x3e8783f9	0.26467875
135	0x3e37c8d0	0.17947698
136	0x3d77a2c1	0.06045795
137	0xbda6fc7a	-0.08153625
138	0xbdc647ed	-0.096816875
139	0x3c0ea60d	0.008706582
140	0xbe60e3d4	-0.2196191
141	0xbe0fa315	-0.14027055
142	0x3c5dc6ec	0.013536196
143	0xbd7172ba	-0.058947302
144	0xbd772d36	-0.06034585
145	0xb6390c27	-2.7574222e-06
146	0xbc972bf7	-0.018453581
147	0xbd6c5331	-0.057696525
148	0xbe39f7e5	-0.1816097
149	0xbe03f375	-0.1288584
150	0x3dcc2a89	0.099690504
151	0xbd85aa93	-0.06526675
152	0xbbf41c11	-0.007449635
153	0xbd3d883b	-0.046272498
154	0x3c9f7a07	0.019467367
155	0x3d3fb724	0.046805516
156	0xbdca417a	-0.0987577
157	0xbe310538	-0.17287147
158	0xbe2234f7	-0.15840517
159	0x3cb1a999	0.021687316
160	0xbe6cfa46	-0.23142347
161	0x3e6765d1	0.22597434
162	0x3e04690c	0.12930697
163	0x3ddf9723	0.10917499
164	0x3e6a9a32	0.22910383
165	0xbe5a70f0	-0.21332145
166	0x3e67d646	0.22640333
167	0xbdfa70b9	-0.122285314
168	0xbd7b29cd	-0.06131916
169	0xbcb6eafb	-0.022328844
170	0x3e195850	0.14975095
171	0x3caabb4a	0.02084126
172	0xbdfc7670	-0.12327278
173	0x3cdeb4d5	0.027185837
174	0x3d5a3d20	0.05328095
175	0xbb040aad	-0.0020147965
176	0xbccb04a4	-0.024782486
177	0xbe1bad7b	-0.15202896
178	0xbd911520	-0.070841074
179	0x3e670024	0.22558647
180	0xbd6da79d	-0.058021177
181	0xbe03e404	-0.1287995
182	0x3e0a7c4b	0.13523977
183	0xbdd41f3a	-0.103575185
184	0x3c17cef8	0.009265654
185	0xbe869a70	-0.262897
186	0x3e3d3ab0	0.18479419
187	0xbd4d971f	-0.05019295
188	0xb88994f2	-6.560412e-05
189	0x3d7d0ae6	0.06177797
190	0xbe11abe1	-0.14225723
191	0x3de11121	0.10989595
192	0xbbe40b98	-0.00695939
193	0xbe6a51d4	-0.22882777
194	0x3d0abc5e	0.033871047
195	0x3e0c4ba6	0.13700733
196	0xbd6adf45	-0.057341833
197	0xbd18df1e	-0.037322156
198	0x3e106c7f	0.14103888
199	0xbc41a809	-0.011819848
200	0x3e8e371c	0.2777642
201	0xbd215b30	-0.039393604
202	0xbdabc8c4	-0.083879024
203	0xbdbfd384	-0.09366515
204	0x3e5ad45b	0.2137007
205	0x3dc2eff1	0.095184214
206	0xbe60e789	-0.21963324
207	0xbe74facd	-0.23923798
208	0x3e0bdf8e	0.13659498
209	0xbcd1087d	-0.025516743
210	0x3e2f6a86	0.17130479
211	0x3d2fc12c	0.042908832
212	0xbdbd0850	-0.09230101
213	0xbd3a34ca	-0.0454605
214	0xbd0c84bb	-0.03430627
215	0x3ad0e9a7	0.0015938774
216	0xbc94a165	-0.018143365
217	0xbe8b966d	-0.27263203
218	0x3dd0c177	0.101931505
219	0x3dab49c3	0.08363678
220	0x3d54aa03	0.05191995
221	0x3de8b922	0.11363436
222	0xbc8db5fb	-0.01729869
223	0x3e352141	0.17688467
224	0xbe0d6c1c	-0.13810772
225	0xbd122cef	-0.035687383
226	0x3adb42cd	0.0016728282
227	0xbcc5849d	-0.024111087
228	0x3e59c77e	0.21267506
229	0x3e377870	0.17917037
230	0xbc920860	-0.01782626
231	0xbd379d8a	-0.044827975
232	0xbe1d9dca	-0.15392223
233	0xbb9e1a1f	-0.004824891
234	0x3dff5d1a	0.124689296
235	0xbda5553d	-0.080728985
236	0x3dbe4942	0.092913166
237	0xbda3b5f0	-0.07993686
238	0xbdfb1464	-0.122597486
239	0x3e1880e5	0.1489292
240	0xbe38c478	-0.18043697
241	0xbd8d4d92	-0.06899561
242	0xbe06be38	-0.131585
243	0xbe4af977	-0.19821726
244	0xbe5b5196	-0.21417841
245	0xbdf1688b	-0.11787518
246	0xbcbe66ad	-0.023242319
247	0xbdf06b6b	-0.11739238
248	0xbdd55734	-0.10417023
249	0xbcc22e6a	-0.023703773
250	0x3d5a02bb	0.05322526
251	0x3dcbe265	0.09955291
252	0x3c224b0a	0.009905586
253	0x3c98cfe5	0.01865382
254	0x3e1a36b6	0.15059933
255	0xbea43318	-0.3207023

f_percept.percept.3.bias f4 [64]
0	0x3c4825dc	0.012216058
1	0x3b8ba0c8	0.00426111
2	0x3ce09adc	0.027417593
3	0x3c605582	0.013692262
4	0xbbe453ab	-0.006967982
5	0x3cdd2baa	0.02699836
6	0x3cdb1f0e	0.026748206
7	0x3c2696e6	0.010167813
8	0x3c70a233	0.014687109
9	0x3bdc823f	0.0067293937
10	0x3cd99d54	0.026564278
11	0x3c2bd00c	0.010486614
12	0x3cdea378	0.027177557
13	0x3c6c88db	0.014436926
14	0x3c3d02a4	0.011536274
15	0x3cd379cf	0.025814919
16	0x3c2a56c0	0.010396659
17	0x3c0a8b9b	0.008456136
18	0x3ca2fd98	0.019896314
19	0xbc3bab46	-0.011454409
20	0x3c96a445	0.018388877
21	0x3a11a8b5	0.00055564503
22	0x3c8ab836	0.016933542
23	0x3bce4779	0.0062951413
24	0x3ca73ea2	0.020415608
25	0x3be37d25	0.0069424086
26	0x3b582141	0.0032978805
27	0x3c56e4f0	0.013116106
28	0x3b8acade	0.0042356094
29	0x3c74ed57	0.014949164
30	0x3c5f4cb7	0.01362913
31	0x3caecca9	0.021337824
32	0x3c9dbdc5	0.019255528
33	0x3c021b28	0.007941045
34	0x3ca187aa	0.01971801
35	0x3b314243	0.0027047552
36	0x3b8b7ec4	0.004257055
37	0x3c32f922	0.010923656
38	0x3a13c2a8	0.0005636611
39	0x3b20bf1d	0.0024527975
40	0xbaa2a5d9	-0.0012409046
41	0xbb84ad76	-0.0040489985
42	0x3cd9ea85	0.026601085
43	0x3cc67c3d	0.024229163
44	0x3c220e22	0.009891065
45	0x3c3d35eb	0.0115485
46	0x3cc2b652	0.023768578
47	0x3b157558	0.0022805538
48	0x3c2032c0	0.009777725
49	0x3bd1f70f	0.0064076255
50	0x3c2a8eb0	0.010409996
51	0x3d0617b3	0.032737445
52	0x3c3a8dac	0.011386316
53	0x3c922b6a	0.017842967
54	0x3b3399aa	0.0027404823
55	0x3c42f174	0.011898387
56	0x3c4bdc18	0.012442611
57	0x3c508e92	0.012729304
58	0xbc036000	-0.008018494
59	0x3c948b17	0.01813273
60	0x3b424d36	0.0029648072
61	0x3c4715b0	0.012151167
62	0x3c390f4f	0.011295154
63	0xbb80b4b7	-0.003927793

manager.M_space.weight f4 [64, 64]
0	0xbd282724	-0.041052952
1	0xbd826533	-0.063669585
2	0x3e1627fb	0.14663689
3	0x3cfcb780	0.030849218
4	0x3db75b81	0.08953
5	0x3dfb8313	0.1228086
6	0xbd0d314b	-0.034470838
7	0x3e094b51	0.13407637
8	0x3dd6294b	0.10457095
9	0x3d8df39e	0.06931232
10	0x3e1a5a2d	0.15073462
11	0x3caebd76	0.021330576
12	0x3e0fecae	0.1405513
13	0x3d71ad89	0.059003387
14	0x3c7c7933	0.0154097555
15	0xbe07df07	-0.13268672
16	0xbe2b1a21	-0.16709186
17	0x3e1af7bb	0.15133564
18	0xbe1af929	-0.1513411
19	0xbd8a2bf7	-0.06746667
20	0xbcb1d589	-0.021708267
21	0xbe548070	-0.2075212
22	0xbdc7e244	-0.097599536
23	0xbd634c8a	-0.055492915
24	0x3d7956ed	0.060873915
25	0xbdf8e18c	-0.12152395
26	0xbe903f3a	-0.28173238
27	0xbdd734ef	-0.10508143
28	0xbde5cbe9	-0.112205334
29	0xbdca5f3c	-0.09881446
30	0xbcef493e	-0.02920973
31	0xbe253f45	-0.16137417
32	0x3deacba9	0.11464626
33	0x3c5ba255	0.013405402
34	0xbd952ce4	-0.07283953
35	0xbdfe9cf2	-0.12432279
36	0x3e21b886	0.15793046
37	0xbde15740	-0.1100297
38	0x3e0e0f76	0.13873085
39	0xbbb953cb	-0.005655741
40	0xbd9916a7	-0.07475024
41	0x3e0c727a	0.13715544
42	0x3e606ea8	0.21917212
43	0xbddf4795	-0.10902325
44	0x3e00be58	0.1257261
45	0x3cc98221	0.024598183
46	0xbe33831d	-0.17530484
47	0x3c92961d	0.017893845
48	0xbe0d6dab	-0.13811366
49	0x3db69db7	0.089168005
50	0xbda3ba1f	-0.07994484
51	0x3d9a5307	0.075353675
52	0x3d9125da	0.07087298
53	0xbe6cbee3	-0.23119693
54	0x3c9b5f90	0.018966466
55	0x3debf134	0.11520615
56	0xbe38d355	-0.18049367
57	0x3da23258	0.079197586
58	0xbcde04bc	-0.027101867
59	0x3dc921f1	0.09820927
60	0x3ea997d2	0.33123642
61	0xbe6bd8bf	-0.23031901
62	0x3dc673d9	0.09690065
63	0xbd327753	-0.043570828
64	0x3ddb1444	0.10697225
65	0xbe84cd1c	-0.25937736
66	0x3ab98d2b	0.0014156451
67	0x3d2c29f4	0.042032197
68	0xbe90bccb	-0.28269038
69	0xbd8eab64	-0.06966284
70	0xbd46f144	-0.048569933
71	0x3bbddfb8	0.0057944916
72	0x3e0a1d4f	0.13487743
73	0xbd784c6e	-0.060619764
74	0xbe645a5a	-0.22300091
75	0x3ce8d04d	0.028419638
76	0x3d8ac632	0.06776084
77	0xbe769965	-0.24081953
78	0xbe716ef1	-0.23577477
79	0xbdb7588c	-0.08952436
80	0xbd56118f	-0.05226284
81	0xbdc76505	-0.09736065
82	0xbe39c882	-0.18142894
83	0x3d27afdf	0.040939208
84	0x3e1229f0	0.1427381
85	0x3de8e832	0.11372413
86	0xbda2e785	-0.07954315
87	0x3e27b46b	0.16377418
88	0x3e1e5722	0.15462926
89	0x3d95b47a	0.07309814
90	0xbdef26ba	-0.116773084
91	0x3da8c7be	0.08241223
92	0x3de550a4	0.111970216
93	0x3b61babe	0.0034443582
94	0xbdd5ea77	-0.10445111
95	0xbd63ff35	-0.055663306
96	0x3d2b1e8a	0.04177717
97	0x3d343a32	0.044000812
98	0xbe1dccff	-0.15410231
99	0x3e87b44e	0.2650475
100	0x3d48915a	0.048966743
101	0x3cae9faf	0.021316377
102	0x3d45eeb7	0.04832336
103	0x3e28d84d	0.16488762
104	0x3dcdb884	0.10044959
105	0x3b8e3e04	0.004340889
106	0x3e121836	0.14267048
107	0x3b83b727	0.004019636
108	0xbd5f2f2a	-0.05448834
109	0x3c336d57	0.010951362
110	0xbea176f8	-0.31536078
111	0x3d537746	0.05162742
112	0xbe5a0c12	-0.21293667
113	0xbe140785	-0.14455993
114	0xbdcf0a39	-0.10109372
115	0xbce06c92	-0.02739552
116	0x3e42a419	0.19007911
117	0x3d22c9d8	0.039743274
118	0xbd6328a0	-0.055458665
119	0xbd3bc7ea	-0.04584495
120	0x3d4d1a41	0.050073866
121	0xbd9cf1ac	-0.07663283
122	0xb922e8e4	-0.00015536282
123	0xbe328a61	-0.174356
124	0xbcb77cce	-0.022398379
125	0x3df32d53	0.11873879
126	0xbdcee499	-0.10102195
127	0xbc8e874d	-0.0173985
128	0x3d51fca9	0.051266346
129	0x3d3d185b	0.046165805
130	0xbdc1ebfc	-0.094688386
131	0xbcb40b45	-0.02197803
132	0xbde2d11b	-0.1107504
133	0xbb2ed89d	-0.0026679405
134	0xbc27cfa8	-0.01024238
135	0xbda7bc44	-0.08190206
136	0xbe57877a	-0.21047774
137	0xbe2585ed	-0.1616437
138	0xbcab69ba	-0.020924438
139	0xbd9e1e52	-0.07720627
140	0x3eaa1cb0	0.33225012
141	0x3d9d5e17	0.07683962
142	0xbe2ed6f0	-0.1707418
143	0x3d09eac6	0.033671163
144	0xbe11aa52	-0.14225128
145	0xba143b2c	-0.0005654569
146	0x3d988055	0.074463524
147	0xbc89b7ac	-0.016811214
148	0x3dc814e3	0.09769609
149	0x3e125d02	0.14293292
150	0xbe469f89	-0.19396795
151	0xbd08428a	-0.03326658
152	0xba50cc38	-0.0007965001
153	0xbd23a92a	-0.03995625
154	0x3e5e1684	0.21688277
155	0x3c40d3bb	0.0117692305
156	0xbc35fe3b	-0.011107977
157	0x3d432a44	0.04764773
158	0x3e3101c0	0.17285824
159	0xbe0e7c48	-0.13914597
160	0x3e2bf1e2	0.1679149
161	0xbdeaab79	-0.11458487
162	0xbd91d7da	-0.071212485
163	0xbe38b60c	-0.18038195
164	0x3e09cd00	0.13457108
165	0x3d2128a0	0.039345384
166	0xbe513c58	-0.20433176
167	0xbcceec5f	-0.025259195
168	0xbd095ff8	-0.03353879
169	0x3cf1289d	0.029438311
170	0xbea85a3c	-0.32881343
171	0xbe3b0b57	-0.18266045
172	0x3e508bb7	0.20365797
173	0x3e22a5ec	0.15883607
174	0x3c389b8a	0.011267552
175	0x3cb908be	0.022587176
176	0x3cb6ad2f	0.022299377
177	0xbd96cdb7	-0.07363456
178	0xbd933f68	-0.07189828
179	0xbd9fe711	-0.07807744
180	0x3e434d57	0.19072472
181	0x3d9b8053	0.07592835
182	0x3e067e90	0.13134217
183	0xbcaae919	-0.020863103
184	0xbe2a673b	-0.16640942
185	0xbdf5b01e	-0.11996482
186	0x3d7a2c92	0.06107766
187	0xbde0750f	-0.10959827
188	0x3e14e00d	0.14538594
189	0xbd8cfc96	-0.068841144
190	0xbd7a34a9	-0.061085377
191	0xbe3783f9	-0.17921437
192	0x3d707808	0.05870822
193	0x3d9d7129	0.07687599
194	0x3e2a3747	0.16622649
195	0x3e14daa4	0.1453653
196	0x3e0919b9	0.13388719
197	0x3d63296e	0.055459432
198	0x3d419fd3	0.04727156
199	0xbe1209aa	-0.14261499
200	0xbda6cf8f	-0.081450574
201	0xbdd8f78e	-0.10594092
202	0x3e1782fa	0.14796057
203	0x3d9d5e0e	0.07683955
204	0xba349ab5	-0.0006889508
205	0xbe208da9	-0.15679039
206	0xbd11166f	-0.035421785
207	0xbd0cfe3c	-0.034422144
208	0xbe8af867	-0.2714264
209	0x3e0c60d5	0.13708813
210	0x3d5bd516	0.05367001
211	0x3de0414d	0.10949955
212	0x3d0a5362	0.033770926
213	0xbc93a0d3	-0.018021023
214	0xbd58909f	-0.052872296
215	0x3d5b8ced	0.053601194
216	0x3bda506e	0.00666242
217	0x3df3fd56	0.11913554
218	0xbe2324b6	-0.15931973
219	0x3d2eda13	0.04268844
220	0x3d534d1f	0.05158722
221	0x3de41c13	0.11138167
222	0x3bf18372	0.007370406
223	0xbe47552b	-0.19466083
224	0xbe2590ca	-0.16168514
225	0xbdd297d7	-0.102828674
226	0x3cb3bf48	0.021941796
227	0x3df0abf6	0.11751549
228	0x3c4945ab	0.012284677
229	0x3dbf66d3	0.09345784
230	0xbe309cf1	-0.17247368
231	0xbc4317a7	-0.011907495
232	0xbd75cd7f	-0.06001043
233	0x3dd0d8ee	0.10197626
234	0x3e35d80b	0.17758195
235	0x3e0789cc	0.13236159
236	0xbdc829c3	-0.097735904
237	0x3cc1f12d	0.023674572
238	0x3e027da6	0.12743244
239	0x3e1db266	0.15400085
240	0x3e06bd57	0.13158165
241	0xbc9c7716	-0.019099753
242	0x3e6757a8	0.22592032
243	0x3e24f616	0.161095
244	0x3ec0aab8	0.37630248
245	0x3e6bcd35	0.23027499
246	0xbd66c2a2	-0.05633796
247	0xbe3b491d	-0.18289609
248	0xbda9be86	-0.082882926
249	0x3d8d4812	0.06898512
250	0x3e086ebb	0.1332349
251	0x3ddaf30d	0.106908895
252	0xbd6df4d4	-0.058094814
253	0x3cb0aa84	0.021565683
254	0x3e3f5e81	0.18688394
255	0xbc014b51	-0.007891492

manager.M_space.bias f4 [64]
0	0x3c575d5b	0.013144816
1	0xbb9be32c	-0.0047573056
2	0xbc1fd2ed	-0.0097548785
3	0xbbbb6466	-0.0057187555
4	0x3b320ad3	0.0027167096
5	0x3c0a3d17	0.0084374165
6	0xbc19d41e	-0.009388952
7	0x3bb7557c	0.0055949073
8	0x3c4aa8ab	0.012369315
9	0xbb653e09	-0.0034979603
10	0x3b5a4e2c	0.0033310754
11	0x3c34ff8f	0.011047258
12	0x3c5566e6	0.013025021
13	0xbc35c242	-0.011093678
14	0xbc077363	-0.008267256
15	0xbc528d59	-0.012851083
16	0x38a40948	7.821858e-05
17	0x3ba363b9	0.004986253
18	0xbbda9bf0	-0.006671421
19	0x3b9176d0	0.0044392124
20	0x3c2a6d6e	0.010402067
21	0xbb8b9e67	-0.0042608264
22	0x3c40abda	0.011759723
23	0x3c56bf2f	0.013107105
24	0xbc6cba49	-0.014448711
25	0xbc4c8296	-0.012482306
26	0xb9ac2054	-0.00032830483
27	0x3cce4089	0.025177257
28	0x3c9f501b	0.019447377
29	0x3c1e7585	0.0096715735
30	0x3b937f70	0.0045012757
31	0x3c96c090	0.018402368
32	0xba69f3c5	-0.0008924569
33	0xbb6de6e7	-0.0036300959
34	0x3b962e02	0.0045831213
35	0x3c5efac1	0.013609589
36	0x3b5e9894	0.0033965455
37	0x3af00a66	0.0018313646
38	0x3b314802	0.0027050977
39	0x3c2105e0	0.009828061
40	0xbb13d2af	-0.0022555997
41	0xbc7d2f16	-0.015453121
42	0x3cd46edb	0.025931766
43	0xbb99979e	-0.0046872636
44	0x3c38fe3f	0.011291086
45	0x3ce5e9ca	0.02806558
46	0x3c40d0e1	0.011768551
47	0xba9b31cd	-0.0011840403
48	0x3bf31fe9	0.0074195755
49	0x3bb16084	0.005413117
50	0xbb747aa3	-0.0037304542
51	0x3b9f62b0	0.0048640594
52	0x3c20e072	0.009819137
53	0x3c06e855	0.008234103
54	0xba183d99	-0.00058075186
55	0xba4f6fbf	-0.0007913075
56	0x3c446371	0.011986599
57	0x3c053da8	0.008132376
58	0x3b6d1d9e	0.0036180983
59	0xbc2abdea	-0.010421256
60	0x3bfeb1e8	0.007772673
61	0x3b0a2e96	0.0021084896
62	0x3cafecc8	0.02147521
63	0x3abe32cc	0.0014510988

manager.M_goals.weight f4 [64, 128]
0	0xbb6991c6	-0.0035639866
1	0x3d3586d2	0.044318028
2	0x3d6c8dc0	0.05775237
3	0x3d22561a	0.039632894
4	0xbd8c283d	-0.06843612
5	0x3c9a6f6f	0.018851964
6	0x3d7dabe5	0.06193151
7	0x3db00b3c	0.08595893
8	0xbd2de1c5	-0.04245164
9	0xbd934831	-0.07191504
10	0x3dff261b	0.1245844
11	0xbc86bebf	-0.016448377
12	0x3d1f5971	0.038903657
13	0x3dade0dd	0.08490155
14	0xbba39e00	-0.0049932003
15	0x3e320911	0.17386271
16	0x3e1c6fc5	0.15277012
17	0xbc86038a	-0.01635911
18	0xbd150f33	-0.03639145
19	0xbcfa2baf	-0.030538408
20	0x3d77e643	0.06052233
21	0xbd84e769	-0.064894505
22	0x3c928725	0.017886708
23	0xbd827d46	-0.0637155
24	0x3d25eb73	0.040507745
25	0xbe408ccc	-0.1880371
26	0xbd3a8cc8	-0.045544416
27	0x3c9669ef	0.01836106
28	0x3db6c039	0.08923382
29	0xbd769eb0	-0.06020993
30	0xbb1bdc86	-0.0023782565
31	0x3e3ed02c	0.18634099
32	0x3d556bfa	0.052104928
33	0xbacc1308	-0.0015569637
34	0xbda4b771	-0.08042801
35	0xbe0e808e	-0.13916227
36	0xbdd9e135	-0.10638658
37	0xbd536220	-0.05160725
38	0xbd76a45a	-0.06021533
39	0xbccc2043	-0.024917727
40	0x3c76a535	0.015054037
41	0xbe99ef48	-0.3006537
42	0xbdab09b9	-0.08351464
43	0x3d37855a	0.04480491
44	0xbceb7628	-0.028742865
45	0x3df09739	0.117475934
46	0xbdcc7a5f	-0.09984278
47	0xbda4cf67	-0.08047371
48	0x3dc6850d	0.09693346
49	0xbd60ac03	-0.054851543
50	0x3beb7b83	0.0071863546
51	0xbe1a7c1f	-0.15086411
52	0x3e5a0293	0.21290044
53	0xbd3e98e1	-0.046532515
54	0xbc8ff1bf	-0.017571328
55	0xbd94eb69	-0.072714634
56	0xba6fcdc7	-0.00091477897
57	0xbd0a590b	-0.033776324
58	0xbd8d09d5	-0.06886641
59	0xbd91de69	-0.071224995
60	0x3c6174c4	0.013760749
61	0x3b95c4ab	0.004570564
62	0x3d91059c	0.07081148
63	0x3cb3dc85	0.021955738
64	0xbcd59208	-0.02607061
65	0xbe1f504d	-0.15557976
66	0xbc20006a	-0.009765724
67	0x3d86e6eb	0.06587013
68	0xbbebb51c	-0.007193221
69	0xbdfcf237	-0.12350886
70	0x3d303038	0.043014735
71	0xbe2e0529	-0.16994156
72	0xbdced2fa	-0.10098834
73	0x3d60f061	0.054916743
74	0xbd2dfc1f	-0.04247677
75	0xbd4377e5	-0.047721762
76	0x3e52a4c8	0.20570672
77	0x3de3f311	0.111303456
78	0x3c9f0443	0.019411212
79	0x3d3df789	0.046378646
80	0xbd99a7a6	-0.075026795
81	0xbd2a9306	-0.04164412
82	0xbd72a2e4	-0.059237376
83	0x3dc733f2	0.09726705
84	0x3d0d26c8	0.034460813
85	0x3d5aac86	0.053387187
86	0xbd13482f	-0.03595751
87	0xbbc8d0c8	-0.0061284043
88	0xbe52d444	-0.20588785
89	0xbcf83246	-0.03029741
90	0xbcb89b21	-0.022534909
91	0xbe44addc	-0.19206947
92	0xbccc7b68	-0.024961188
93	0x3dc6f3cf	0.097144715
94	0xbdc8fda6	-0.098140046
95	0xbd64e5ea	-0.055883326
96	0xbd850bd1	-0.064963944
97	0xbe4e8c2e	-0.20170662
98	0x3de06d6a	0.10958369
99	0xbe29d9ee	-0.1658704
100	0x3d90ef89	0.07076938
101	0x3d6b697f	0.057473656
102	0x3d49fee5	0.049315352
103	0x3c9c9636	0.019114595
104	0x3ceaeb33	0.028676605
105	0xbd7fa398	-0.062411875
106	0xbd06ec7c	-0.032940373
107	0xbd382a4c	-0.044962212
108	0x3d97beef	0.074094646
109	0x390dae8b	0.0001351183
110	0xbe13e30c	-0.1444208
111	0x3d8cf397	0.068823986
112	0xbd50e521	-0.050999764
113	0xbd1a95c0	-0.03774047
114	0xbd3902bb	-0.04516862
115	0x3bcb7bf2	0.006209844
116	0x3e01002e	0.12597725
117	0xbce2a502	-0.027666572
118	0x3e23b55a	0.15987149
119	0xbd1dd3ba	-0.038531996
120	0xbda7c926	-0.08192663
121	0x3ce67048	0.028129712
122	0xbd7eb50f	-0.06218439
123	0x3dbf580e	0.09342967
124	0x3e1c910b	0.15289705
125	0xbc9dbfd3	-0.019256508
126	0x3d99bb38	0.07506412
127	0xbc872ed3	-0.01650182
128	0x3d1e858b	0.038701575
129	0xbde4a322	-0.111639276
130	0xbdcac308	-0.099004805
131	0xbe24e405	-0.16102608
132	0x3dbd1205	0.092319526
133	0x3de6cb5e	0.11269258
134	0x3c562cec	0.013072234
135	0x3e501857	0.20321785
136	0xbd51fad7	-0.05126461
137	0x3d15b41f	0.03654873
138	0xbdc8e6e9	-0.098096676
139	0xbccae065	-0.024765203
140	0x3e292d7d	0.16521259
141	0xbd42b89e	-0.047539346
142	0x3bfefb92	0.0077814544
143	0x3df4e708	0.11958128
144	0x3c6f2c99	0.014598035
145	0x3e06d694	0.13167793
146	0x3dce367c	0.10068986
147	0xbdc33d66	-0.09533195
148	0xbdc884b0	-0.09790933
149	0x3befbbc7	0.007316086
150	0x3e196917	0.14981495
151	0xbd955a60	-0.07292628
152	0xbdea4074	-0.11438075
153	0xbd27e453	-0.04098923
154	0xbda1a2da	-0.078923896
155	0xbd8cb243	-0.06869938
156	0x3d7b6856	0.0613788
157	0x3cf3aa44	0.029744275
158	0xbbdc0fad	-0.006715736
159	0x3dea4cd5	0.11440436
160	0xbc390921	-0.01129368
161	0x3dc0eded	0.09420381
162	0xbd05fdd7	-0.032712784
163	0x3d8c3320	0.06845689
164	0xbd2d3213	-0.042284083
165	0xbbc5a73b	-0.0060318983
166	0x3dd4893b	0.10377737
167	0xbdae1dcc	-0.08501777
168	0x3d99a6c6	0.07502513
169	0x3d9e4dbe	0.07729672
170	0x3ce7aeb1	0.028281542
171	0x3dbcb67d	0.092144944
172	0xbdcd11d4	-0.10013166
173	0xbd6ab228	-0.05729881
174	0xbc58269b	-0.013192798
175	0xbccfcc20	-0.02536589
176	0x3e098e5d	0.13433214
177	0x3d674c52	0.05646927
178	0x3ddc60dc	0.10760662
179	0x3d3d27f0	0.046180665
180	0xbd257de4	-0.04040326
181	0x3c1c8456	0.009553036
182	0xbddbafa9	-0.10726864
183	0x3dbe5444	0.09293416
184	0x3e76d52e	0.24104759
185	0xbc7c6e78	-0.015407197
186	0xbd6be8a7	-0.05759492
187	0xbd35f2e3	-0.044421088
188	0xbcd90ddb	-0.026495865
189	0xbe0143ea	-0.12623563
190	0xbdb11cb0	-0.0864805
191	0xbd08a3ac	-0.033359215
192	0x3d13e313	0.036105227
193	0xbcc584bf	-0.02411115
194	0x3e43b844	0.1911326
195	0x3d831b92	0.06401743
196	0x3d152d98	0.036420435
197	0x3dc62f9e	0.09677051
198	0x3d835d5a	0.0641429
199	0x3e0b2c7c	0.13591188
200	0x3e08618b	0.1331846
201	0xbc88e686	-0.016711485
202	0xbde6d299	-0.11270637
203	0xbd0958b7	-0.03353187
204	0x3c08a8e6	0.00834105
205	0xbd494f99	-0.049148176
206	0x3dbf9b85	0.09355835
207	0xbd8fef3b	-0.070280515
208	0xbd77cf39	-0.060500357
209	0x3d932b96	0.07186048
210	0x3dcfa3da	0.10138674
211	0x3d278bac	0.040904686
212	0x3da38b07	0.07985502
213	0xbd2b10f4	-0.041764215
214	0xbdd09da3	-0.10186317
215	0xbbc371cc	-0.0059644934
216	0x3d983d6a	0.07433589
217	0x3dcd046a	0.100106075
218	0xbd4dcc08	-0.050243407
219	0xbe101308	-0.1406976
220	0x3c578daa	0.013156334
221	0xbc08f8e1	-0.008360119
222	0xbc4f203b	-0.012641962
223	0xbd76003e	-0.060058825
224	0xbc6b45ec	-0.014359932
225	0xbd1d1e0b	-0.03835873
226	0xbc1e1b45	-0.009650056
227	0xbc12d322	-0.008961471
228	0x3d64e089	0.055878196
229	0x3d13de40	0.036100626
230	0xbd82b6ba	-0.063825086
231	0xbdd1e78b	-0.102492414
232	0x3db67d8c	0.08910665
233	0xbd88d884	-0.06681922
234	0xbcdb7cdd	-0.026792938
235	0x3e6e2166	0.23254928
236	0xbe0ecdb8	-0.13945663
237	0xbe11bc21	-0.14231922
238	0xbd14cb65	-0.036326785
239	0x3d89cb15	0.06728188
240	0xbcaf9065	-0.021431157
241	0x3e2745ba	0.16335192
242	0x3dab093d	0.083513714
243	0x3bdb1d5e	0.0066868505
244	0xbcebc5a0	-0.028780758
245	0xbe2a3fb7	-0.16625868
246	0x3dd9374a	0.10606249
247	0xbdcb72fb	-0.0993404
248	0xbd8cd599	-0.06876678
249	0xbdc0019f	-0.09375309
250	0xbd41ac12	-0.04728324
251	0xbd03332f	-0.032031234
252	0x3cef1c01	0.029188158
253	0xbe150c33	-0.14555435
254	0xbd4c3339	-0.049853537
255	0xbe002e9a	-0.12517777

manager.M_goals.bias f4 [64]
0	0x3c3f0cd7	0.011660776
1	0xbc8a723c	-0.016900174
2	0xbc0e5bac	-0.0086888485
3	0x3c1902c3	0.009339037
4	0x3a9b4d85	0.0011848664
5	0xbbc8d704	-0.0061291475
6	0x3c5423a4	0.0129479505
7	0x3b43b558	0.0029862728
8	0x3c5f92a3	0.013645801
9	0xbaef11e4	-0.0018239585
10	0x3c82b493	0.015955245
11	0xbbc3de0b	-0.0059773973
12	0xbc29c37d	-0.010361549
13	0xbc1980e6	-0.009369111
14	0xbbcfc2f2	-0.006340378
15	0xbc12fff7	-0.00897216
16	0xbb9d87fd	-0.004807471
17	0x3b0ef3b7	0.0021812746
18	0xbb07e110	-0.0020733513
19	0xbb9f6c05	-0.004865172
20	0x3be72e98	0.007055115
21	0x3c24459b	0.010026361
22	0xbbafe5f1	-0.0053679873
23	0x3beeefdd	0.0072917775
24	0xbb5fc13c	-0.0034142276
25	0xba91c2c3	-0.0011120666
26	0xbc1326f0	-0.008981451
27	0xbc252382	-0.0100792665
28	0x39d586a2	0.00040726835
29	0x3bda771c	0.006667031
30	0x3cb83cf2	0.022489998
31	0xbc01bf3f	-0.007919132
32	0xbba1f02c	-0.004941961
33	0x3a976d54	0.0011552968
34	0x3c15acd8	0.009135447
35	0x3bcbf52f	0.0062242965
36	0xbcab8790	-0.020938665
37	0xbbf4903a	-0.007463482
38	0x3cadaec2	0.021201495
39	0x3b110e78	0.0022133868
40	0x3c58843f	0.013215124
41	0xbc0173c6	-0.007901138
42	0x3ccf97d6	0.025340956
43	0xbc809ea1	-0.01570064
44	0xbac9c922	-0.0015395025
45	0xbb614711	-0.0034374634
46	0x3aaa5f9f	0.0012998468
47	0x3b9253c2	0.004465551
48	0x3b4b0721	0.003097959
49	0xbbd45e5d	-0.0064809755
50	0x3bf34570	0.007424049
51	0xbc25bc88	-0.01011575
52	0xbb805434	-0.003916288
53	0xbb83b838	-0.0040197633
54	0xbb19f834	-0.0023493888
55	0x3c10143e	0.008793889
56	0x3c44922a	0.011997739
57	0xbc712e51	-0.014720515
58	0xbb11f586	-0.0022271588
59	0xbac7548d	-0.0015207693
60	0x3b9e0a9f	0.0048230435
61	0x3b557271	0.0032569433
62	0xbc40b398	-0.0117615685
63	0x3be716ab	0.007052263

manager.M_value.weight f4 [1, 64]
0	0xbdc254f7	-0.09488862
1	0x3e2550aa	0.16144052
2	0xbdcafedb	-0.09911891
3	0xbd1be39d	-0.038058866
4	0x3e07df78	0.1326884
5	0x3bc68f6c	0.0060595777
6	0x3e77df84	0.24206358
7	0x3e4cc9db	0.19998877
8	0x3e7861d9	0.24256076
9	0xbe2e96e6	-0.1704975
10	0xbc8a4d3d	-0.016882533
11	0xbda7e278	-0.08197492
12	0x3d7fec8b	0.062481444
13	0x3dcf9297	0.10135382
14	0xbe4040d6	-0.18774733
15	0x3dc4bbc3	0.09606125
16	0x3e98798f	0.29780242
17	0x3e96cd82	0.29453665
18	0x3d927346	0.07150893
19	0xbe0c9360	-0.13728094
20	0xbe6113ad	-0.21980162
21	0x3e00c1b9	0.125739
22	0x3d633d26	0.055478238
23	0xbe121371	-0.14265229
24	0xbce45872	-0.027874205
25	0xbe152e44	-0.1456843
26	0x3b36d5c8	0.002789842
27	0xbe85c2a9	-0.26125076
28	0x3d27b95c	0.040948257
29	0xbe06e769	-0.13174213
30	0x3d8d3aac	0.068959564
31	0x3c2f84be	0.010712801
32	0x3d9324ec	0.07184777
33	0x3c8aea41	0.016957404
34	0xbd58805e	-0.052856795
35	0xbc919fb2	-0.017776344
36	0x3d31e451	0.04343063
37	0xbd622d93	-0.055219244
38	0x3d472869	0.048622523
39	0x3c739bba	0.014868671
40	0xbd6a049a	-0.057133295
41	0xbc90d059	-0.017677473
42	0xbe0141b8	-0.12622726
43	0x3e105e86	0.14098558
44	0xbe062891	-0.13101412
45	0x3e47675e	0.19473025
46	0xbcedad88	-0.02901341
47	0xbdd93b6f	-0.10607039
48	0x3d2b38c2	0.041802175
49	0x3c7a9d7c	0.015296336
50	0xbdc97228	-0.09836227
51	0xbdb7ad8c	-0.08968648
52	0xbd96cf7f	-0.073637955
53	0xbd9288db	-0.07155009
54	0xbd15ca1c	-0.0365697
55	0x3e4631a5	0.19354875
56	0x3e816e49	0.25279453
57	0xbd61b3f5	-0.05510326
58	0xbdb717cf	-0.08940088
59	0xbe681b30	-0.22666621
60	0xbdddac9d	-0.10823939
61	0x3e28c3da	0.16480961
62	0x3e2879ae	0.16452667
63	0x3d361dc0	0.044461966

worker.f_stateW.0.weight f4 [128, 64]
0	0xbde2cd2e	-0.11074291
1	0xbdb817dd	-0.089889266
2	0x3d2ba98a	0.041909732
3	0x3caa814c	0.020813607
4	0xbc0210b0	-0.007938549
5	0xbd818c4c	-0.06325588
6	0x3d9147f2	0.070938006
7	0xbdb04858	-0.086075485
8	0x3d998bbe	0.07497357
9	0x3dd436dd	0.10362027
10	0x3d3aad13	0.045575213
11	0xbdc1511b	-0.09439298
12	0xbd7b3246	-0.06132724
13	0xbd05ab21	-0.032633904
14	0x3ce52204	0.027970321
15	0xbdd534b1	-0.10410441
16	0xbda492b7	-0.08035796
17	0xbbee3985	-0.0072700405
18	0x3cfa88da	0.030582834
19	0x3d5553f6	0.052082025
20	0xbe348fce	-0.17632982
21	0x3ce8a48c	0.028398775
22	0xbd8624e9	-0.06550009
23	0x3e059b4b	0.13047521
24	0xbc0f86e8	-0.0087601915
25	0x3bd24e0d	0.006417996
26	0x3dca45c7	0.0987659
27	0x3e084236	0.13306507
28	0xbdb89cec	-0.090143055
29	0x3dd1f390	0.10251534
30	0xbd9d70e4	-0.07687548
31	0xbd64083f	-0.055671927
32	0x3c9509dc	0.018193178
33	0x3d7dd85c	0.061973915
34	0xbd4634ca	-0.048390187
35	0x3cbcbe8a	0.023040075
36	0xbb93cae0	-0.0045102686
37	0xbcec8720	-0.028873026
38	0x3d910bfd	0.07082365
39	0xbe4aebd8	-0.1981653
40	0xbd617c1d	-0.055050004
41	0x3c3e82c5	0.011627858
42	0xbdeb8726	-0.11500387
43	0xbcba291a	-0.022724677
44	0x3e0131d7	0.12616669
45	0x3db5091c	0.08839628
46	0x3e130825	0.14358576
47	0xbdb3bfe3	-0.08776834
48	0xbe0f8380	-0.14015007
49	0xbe8419a5	-0.25800815
50	0x3d578c39	0.05262396
51	0xbd62d7ec	-0.0553817
52	0x3bb15d34	0.005412722
53	0x3d271892	0.040794916
54	0xbcbfbee5	-0.023406455
55	0x3d9c4482	0.07630254
56	0xbd24acab	-0.04020373
57	0x3d9d1c78	0.076714456
58	0x3bf431d0	0.007452227
59	0xbca51405	-0.020151148
60	0xbd13f0dd	-0.036118377
61	0xbd030d36	-0.03199502
62	0x3dd59cd9	0.10430307
63	0xbdab0bf7	-0.083518915
64	0x3d42c17c	0.047547802
65	0xbd3073f7	-0.043079343
66	0x3e1146da	0.14187184
67	0x3d6f7bb5	0.058467586
68	0x3c6a33c0	0.014294565
69	0x3d67a318	0.056552023
70	0x3dbcc431	0.09217108
71	0xbcd1bd01	-0.02560282
72	0x3de6565b	0.1124694
73	0x3ce97070	0.028495997
74	0x3d107779	0.035270188
75	0x3d3c70d2	0.04600603
76	0xbd74b659	-0.059744213
77	0xbbc01257	-0.0058615613
78	0x3db36509	0.08759505
79	0x3d8a6c50	0.0675894
80	0x3dc84e55	0.09780566
81	0xbddde0a5	-0.10833863
82	0x3e6d3e06	0.23168191
83	0xbe070faa	-0.13189569
84	0xbe83cc19	-0.25741652
85	0x3d8d079c	0.06886217
86	0x3d911ea0	0.070859194
87	0x3c1309e6	0.008974528
88	0x3d15500f	0.036453303
89	0x3b121e51	0.0022295902
90	0x3c7e4888	0.0155202225
91	0xbd147417	-0.036243524
92	0xbd45d0fb	-0.048295002
93	0x3ca7e98e	0.02049711
94	0x3bad1c17	0.0052828896
95	0x3ce33b6c	0.027738295
96	0x3e877695	0.26457658
97	0xbce44ceb	-0.027868709
98	0x3de26dd3	0.110561036
99	0x3e09ffa9	0.13476433
100	0x3c0af586	0.008481389
101	0x3e0fd9cb	0.14047925
102	0x3ddf3069	0.108979054
103	0xbbb4bbdf	-0.00551556
104	0x3e215df3	0.15758495
105	0x3d3e6ba0	0.046489358
106	0x3e1313cf	0.14363025
107	0xbe077068	-0.13226473
108	0x3d8f7dad	0.07006393
109	0xbdf63a67	-0.12022858
110	0x3c4276c2	0.011869134
111	0xbdbde9ef	-0.09273135
112	0x3d974538	0.07386249
113	0xbdd63df1	-0.10461033
114	0x3caf7679	0.021418797
115	0x3e018329	0.1264769
116	0x3c84a0b2	0.016189907
117	0x3c118707	0.008882291
118	0xbd21081b	-0.03931437
119	0x3d94e703	0.072706245
120	0x3d6af13c	0.057358965
121	0x3c0f8726	0.008760249
122	0xbc57ec73	-0.0131789325
123	0xbde7ed44	-0.11324552
124	0xbd307011	-0.043075625
125	0xbd061710	-0.032736838
126	0xbdd3924d	-0.10330639
127	0x3da19892	0.078904286
128	0xbd2187da	-0.0394362
129	0xbc9faee2	-0.01949257
130	0xbddbefe0	-0.10739112
131	0x3d522f0c	0.0513144
132	0xbda07865	-0.078354634
133	0x3cae8441	0.021303298
134	0xbdca3693	-0.098736905
135	0xbd32bc05	-0.04363634
136	0xbcd6c44b	-0.026216647
137	0xbdc12ce4	-0.0943239
138	0xbd55589f	-0.05208647
139	0xbdc3ae36	-0.095547125
140	0x3d5ffa67	0.05468216
141	0xbd84d497	-0.06485861
142	0x3d243a70	0.040094793
143	0xbdcca466	-0.09992294
144	0xbdd60b25	-0.104513444
145	0xbda7987b	-0.0818338
146	0x3e15aa79	0.14615811
147	0xbe6d5e1c	-0.23180431
148	0x3dd73f5d	0.105101325
149	0x3cf408c1	0.02978933
150	0x3da80fa3	0.082061075
151	0x3e0667df	0.13125561
152	0xbddca542	-0.10773708
153	0x3d1fccdd	0.039013732
154	0xbe0b35e9	-0.13594784
155	0xbd254771	-0.040351335
156	0xbdab8ff7	-0.083770685
157	0x3d6f97cf	0.058494385
158	0x3e6480fc	0.22314829
159	0x3e146cb5	0.14494593
160	0xbd432c5c	-0.047649726
161	0x3d95101e	0.07278465
162	0xbd64243f	-0.05569863
163	0xbd6b70e0	-0.057480693
164	0xbd91f8d9	-0.07127542
165	0x3c9a7c05	0.018857965
166	0x3db80ac9	0.08986432
167	0xbc73c7d4	-0.014879186
168	0x3cce5037	0.025184734
169	0xbdb8742f	-0.09006535
170	0x3ddc3757	0.10752743
171	0xba9135e1	-0.0011078679
172	0x3dc4f312	0.096166745
173	0xbd886c30	-0.0666126
174	0xbdd5ad95	-0.10433499
175	0xbe1ee600	-0.15517426
176	0xbcffa8d6	-0.031208437
177	0x3b8fc012	0.0043869102
178	0xbd827dc1	-0.06371642
179	0x3cd24310	0.025666744
180	0x3cd005b4	0.025393344
181	0x3e394869	0.18094029
182	0x3d682f7b	0.056685906
183	0xbd0a15d4	-0.033712223
184	0x3e366967	0.17813645
185	0x3c8f1518	0.017466113
186	0x3cf4df9a	0.029891778
187	0x3cc13edf	0.02358955
188	0x3d5b47fd	0.05353545
189	0xbdd33326	-0.1031249
190	0xbc4df6b4	-0.012571026
191	0xbcc9e4b8	-0.024645194
192	0x3d7ab13e	0.061204188
193	0x3d29e027	0.041473534
194	0xbcd71de4	-0.02625937
195	0x3cd35b2c	0.02580031
196	0x3d0aaece	0.033858113
197	0xbd1585bb	-0.03650449
198	0x3dba0db1	0.09084643
199	0xbbf9d133	-0.0076238154
200	0x3c448870	0.01199542
201	0xbd351681	-0.044210915
202	0x3dea77a2	0.114485994
203	0xbdb6ba73	-0.08922281
204	0xbd923bb8	-0.07140297
205	0x3c813fbf	0.015777467
206	0x3d6807ca	0.056648053
207	0x3e0a4b6b	0.13505332
208	0xbdaa8241	-0.08325625
209	0x3d1b29b1	0.037881557
210	0x3dd93923	0.10606601
211	0xbd3de336	-0.046359263
212	0x3e16851b	0.14699213
213	0xbe24713f	-0.16058825
214	0x3d8ac0f6	0.06775086
215	0xbbf2c508	-0.007408742
216	0x3d7060a7	0.058685925
217	0xbd6b14f3	-0.057393026
218	0xbd707bb3	-0.05871172
219	0xbc3191b3	-0.01083796
220	0x3c343e4f	0.011001184
221	0xbab1cbeb	-0.0013564801
222	0xbdf6c536	-0.12049334
223	0x3df771bb	0.12082239
224	0x3e396c51	0.18107726
225	0xbdcf7681	-0.10130025
226	0xbc743ae9	-0.014906623
227	0xbd5dfd20	-0.054196477
228	0xbd8af5fa	-0.067851976
229	0xbd1e73aa	-0.038684525
230	0xbd2ebe7a	-0.04266212
231	0xbda1f1d6	-0.07907455
232	0xbe1c559e	-0.15267035
233	0x3d824faf	0.06362855
234	0xbe1bdb10	-0.15220284
235	0xbd79281c	-0.060829267
236	0xbd1bee45	-0.03806903
237	0x3db6ba46	0.089222476
238	0xbd40fa5f	-0.047113772
239	0xbcfb7c83	-0.03069902
240	0x3e3cd531	0.18440701
241	0x3dd7e890	0.10542405
242	0x3d85dc6f	0.06536185
243	0x3cd3fa1a	0.025876094
244	0xbd005b57	-0.03133711
245	0xbe22d600	-0.15901947
246	0x3df35908	0.11882216
247	0x3da3a42a	0.07990296
248	0xbd704b16	-0.058665358
249	0xbd768d04	-0.060193077
250	0x3cc448be	0.023960467
251	0xbc5c5454	-0.01344784
252	0x3cb255df	0.021769462
253	0xbde324da	-0.11091013
254	0xbdac4a02	-0.08412553
255	0xbd2db416	-0.04240807

worker.f_stateW.0.bias f4 [128]
0	0xbbbd5961	-0.005778477
1	0x3c8f5095	0.01749448
2	0x3ac820e5	0.0015268592
3	0x3c242a31	0.010019825
4	0x38302e19	4.20046e-05
5	0x3c7bcb14	0.015368242
6	0xbc18ed59	-0.009333932
7	0xba7bd467	-0.00096065406
8	0x3c9e93aa	0.019357521
9	0x3c46e4c0	0.012139499
10	0x3cc9e996	0.024647515
11	0x3c0692a3	0.008213672
12	0xbbb6a863	-0.0055742725
13	0x3c9fc86b	0.019504746
14	0xbac9ae58	-0.0015387041
15	0x3c1d036a	0.0095833335
16	0xbc169b55	-0.0091923075
17	0x3cac76f3	0.021052813
18	0xbc93a396	-0.01802234
19	0x3cd8dd8d	0.026472831
20	0x3ca809a1	0.020512404
21	0x3c167c8d	0.009184969
22	0xbc57da51	-0.013174609
23	0x3ca94e55	0.020667234
24	0x3c9441bf	0.018097756
25	0xbc6d02be	-0.014465986
26	0xbbe506e2	-0.006989346
27	0x3c722f7c	0.014781829
28	0xbc4250f8	-0.011860125
29	0x3c5b66a5	0.013391172
30	0x39edb66e	0.00045340083
31	0xbc13ca18	-0.009020351
32	0xbb949df3	-0.0045354306
33	0x3c4640e7	0.012100435
34	0xbc237792	-0.009977238
35	0x3cb76bc5	0.022390256
36	0x3ca362d6	0.01994459
37	0xbb78e26d	-0.0037976757
38	0xbc1a0e5f	-0.00940284
39	0xbc3ce51a	-0.011529231
40	0xbca47bd3	-0.020078575
41	0xbc1ec4bf	-0.009690463
42	0xbc60df0c	-0.0137250535
43	0x3cf2eb2c	0.029653154
44	0xbc2a2447	-0.010384626
45	0x3c76d520	0.015065461
46	0x3b58c4c9	0.0033076277
47	0x3c1be58c	0.009515177
48	0x3cb212a9	0.021737413
49	0x3c5d7135	0.01351576
50	0x3c2d9cf1	0.0105965
51	0x3c101923	0.008795056
52	0x3c21366e	0.009839637
53	0xbc995999	-0.018719481
54	0x3c3c7c77	0.011504284
55	0xbcb22cf1	-0.021749945
56	0xbb07d6a5	-0.0020727303
57	0x3ca4fa7a	0.020138968
58	0x3bd0626f	0.0063593904
59	0x3ceed291	0.02915314
60	0xbc16a6cc	-0.009195041
61	0xbb818b07	-0.003953341
62	0x3ccd8e10	0.025092155
63	0x3bbb6ea5	0.005719977
64	0xbb8e0e03	-0.0043351664
65	0x3b8b2abb	0.004247037
66	0x3bcc167c	0.0062282663
67	0x3cb1f795	0.021724502
68	0x3c9545f8	0.01822184
69	0x3be7354c	0.007055914
70	0xba05a7a9	-0.00050985307
71	0x3c365db1	0.011130736
72	0x3c95c167	0.018280698
73	0xbacd6783	-0.0015671108
74	0x3c7f989d	0.015600351
75	0x3bb31eed	0.005466333
76	0x3c60f446	0.013730114
77	0xbc4fdc44	-0.012686793
78	0x3ca59412	0.020212207
79	0x3c9388fb	0.018009653
80	0x3c1288fa	0.008943791
81	0x3be51a31	0.0069916476
82	0xbc51e158	-0.012810074
83	0x3c1f786f	0.009733303
84	0x3bd0aeb9	0.006368485
85	0x3a8a609b	0.0010557355
86	0xbb4e53f9	-0.0031483157
87	0xbb075b0b	-0.002065363
88	0x3c5aa282	0.013344409
89	0x3cb0556d	0.02152511
90	0x3ca753f3	0.020425772
91	0xbb24094a	-0.002502995
92	0x3cd2a3ad	0.025712812
93	0x3c99183e	0.018688317
94	0xbbdbc619	-0.0067069647
95	0x3aa07fd8	0.0012245132
96	0xbbb5c9e4	-0.005547749
97	0xbb2a5c29	-0.0025994873
98	0xbc1d7649	-0.009610721
99	0x3ca76eef	0.02043864
100	0x3c495303	0.012287858
101	0x3c876307	0.016526712
102	0x3c4229e9	0.0118508125
103	0xbad598c5	-0.0016296139
104	0xbc316c7e	-0.010829089
105	0x3c6c1688	0.014409669
106	0x3c2d75c1	0.010587157
107	0xbbb39d89	-0.005481426
108	0xbc364cfd	-0.011126754
109	0x3c48be4c	0.012252402
110	0x3c7c8596	0.015412709
111	0xbb386532	-0.002813649
112	0xbad00ec8	-0.0015873546
113	0x3c6af8ca	0.0143415425
114	0xbc2e1743	-0.010625663
115	0xbbe79a6b	-0.0070679686
116	0x3c117f70	0.008880481
117	0x3c0b8c8f	0.0085173985
118	0xbc9272f4	-0.01787708
119	0x3a2ccbf5	0.0006591671
120	0xbc5fb488	-0.013653882
121	0x3b530bd7	0.0032203102
122	0xbbd45bc7	-0.0064806673
123	0x3c265509	0.01015211
124	0x3c3da0fd	0.011574027
125	0xbb210917	-0.0024572068
126	0xbb69d288	-0.0035678465
127	0xbc12354e	-0.008923842
