vwgym/saved_model/vwgym_f_net_step_3500000.pt (torch_old, 382114 bytes, 57 tensors)

f_percept.percept.0.weight f4 [16, 3, 3, 3]
0	0x3d89b873	0.06724634
1	0xbd8fb3e3	-0.070167325
2	0xbdbd3ef6	-0.092405245
3	0xbe846774	-0.25860178
4	0x3df83cae	0.12120949
5	0x3d8e7ae7	0.069570355
6	0xbea66aef	-0.3250346
7	0xbe1b4cef	-0.15166067
8	0xbe586fc3	-0.21136384
9	0x3e9c409f	0.30518052
10	0xbe0a0827	-0.13479672
11	0xbee24af7	-0.4419782
12	0x3bad1e08	0.005283121
13	0x3dad0149	0.08447511
14	0x3e9514ea	0.2911752
15	0xbc85cfee	-0.0163345
16	0xbe57311d	-0.21014829
17	0xbe2ccd13	-0.16875105
18	0x3e5e1763	0.21688609
19	0xbea548bc	-0.32282054
20	0x3db32560	0.08747363
21	0xbe38247f	-0.17982672
22	0xbb68a43b	-0.003549828
23	0x3bd45914	0.0064803455
24	0xbde9bf7c	-0.11413476
25	0x3e43d6e2	0.1912494
26	0xbdcc4f94	-0.09976116
27	0xbe71278f	-0.23550247
28	0xbd51c4c5	-0.051213045
29	0x3e92d756	0.28679913
30	0xbdbfb6f3	-0.09361067
31	0x3c8ae94b	0.016956946
32	0x3e30ad6a	0.17253652
33	0xbe6fea71	-0.23429276
34	0xbe0366a5	-0.12832125
35	0x3e39b228	0.18134367
36	0xbd8894b7	-0.0666899
37	0x3ecec53a	0.40384847
38	0x3c28af60	0.010295719
39	0xbbc375e5	-0.005964982
40	0x3e3f32e4	0.18671757
41	0x3e640040	0.2226572
42	0xbe8e18ca	-0.27753288
43	0x3dc70b95	0.09719006
44	0xbe87b526	-0.26505393
45	0xbe3d8a0d	-0.18509693
46	0x3d41140b	0.047138255
47	0xbe18b954	-0.14914447
48	0xbdc83e7b	-0.09777542
49	0x3eab7546	0.3348791
50	0xbe730d62	-0.23735574
51	0x3d5a480a	0.053291358
52	0xbc33bf0e	-0.010970844
53	0x3e85564f	0.2604241
54	0xbdf73ae9	-0.12071783
55	0x3e18e39f	0.1493058
56	0x3e925cf4	0.28586543
57	0x3e879618	0.264817
58	0xbd87c433	-0.06629219
59	0x3de8379e	0.11338733
60	0xbcc78311	-0.02435449
61	0x3e08e446	0.1336833
62	0xbe57046e	-0.20997784
63	0x3e58f818	0.2118839
64	0xbd5a1def	-0.053251203
65	0xbdfba2dd	-0.12286923
66	0x3d3d5b8c	0.046229884
67	0xbd17af94	-0.03703268
68	0xbdec7290	-0.115452886
69	0xbb9100ae	-0.00442513
70	0x3d36d033	0.044632148
71	0x3e4aaa84	0.19791609
72	0x3e93cf92	0.288693
73	0xbdbd6c5a	-0.09249182
74	0xbe6ff34e	-0.23432657
75	0xbdf4b918	-0.11949366
76	0x3ef2ac83	0.4739724
77	0x3ec9e437	0.39431927
78	0x3e01e680	0.12685585
79	0xbe68b6c5	-0.22725971
80	0x3cc18948	0.023625031
81	0x3e01ab41	0.12662984
82	0xbe3913f3	-0.18074016
83	0x3c89221b	0.016739896
84	0x3e63b491	0.2223685
85	0x3e9bc17b	0.3042105
86	0x3e1cf869	0.15329136
87	0x3dd66d47	0.10470062
88	0xbe3dcbd7	-0.1853479
89	0xbc9c354c	-0.019068383
90	0x3ebb584c	0.36590803
91	0x3e0aa2cd	0.13538666
92	0x3e12f028	0.14349425
93	0xbe12ec68	-0.14347994
94	0x3d07e595	0.03317793
95	0xbe1b1f26	-0.15148601
96	0xbe82b012	-0.25524956
97	0xbdf3758d	-0.118876554
98	0xbdf64801	-0.120254524
99	0x3db2b7fc	0.087264985
100	0x3e918370	0.2842059
101	0x3dc0261d	0.093822695
102	0x3d400471	0.046879236
103	0x3dc4551e	0.09586547
104	0xbe1af5b3	-0.1513279
105	0x3d9f410a	0.07776077
106	0xbd940093	-0.07226672
107	0xbf08d2e8	-0.5344682
108	0x3e94c1f7	0.29054233
109	0xbd69f184	-0.057115093
110	0x3d05db38	0.032679766
111	0xbdd480dc	-0.103761405
112	0xbe43651f	-0.19081543
113	0xbeddc56a	-0.43314677
114	0xbc4a9ad7	-0.012366018
115	0x3dbab5a5	0.09116677
116	0x3e98a575	0.29813734
117	0x3d6cdaf2	0.05782599
118	0xbe04e721	-0.12978794
119	0x3df092f1	0.11746777
120	0xbec80355	-0.39065042
121	0x3db0d134	0.08633652
122	0x3daae40e	0.08344279
123	0x3e1c0f42	0.15240195
124	0xbe8d427b	-0.27589783
125	0x3c639915	0.013891478
126	0xbcaac6d4	-0.020846762
127	0x3dada00a	0.08477791
128	0x3d5c11c3	0.053727876
129	0xbeb9d419	-0.3629463
130	0x3eb17336	0.3465821
131	0xbd78f6d7	-0.06078228
132	0x3da1a9e3	0.078937314
133	0xbd98ce82	-0.07461263
134	0xba6604ec	-0.0008774537
135	0x3e6e46c2	0.2326918
136	0x3e71a1f8	0.23596942
137	0xbe229310	-0.15876412
138	0xbeacddfb	-0.33763108
139	0x3ea73c3e	0.3266315
140	0x3e1ee61f	0.15517472
141	0xbd25ff97	-0.040526953
142	0x3d5e4522	0.05426515
143	0x3e25c3c4	0.1618796
144	0xbe77e811	-0.2420962
145	0x3e4af78e	0.19820997
146	0xbcf27fb3	-0.029601907
147	0xbe0c2f83	-0.1369
148	0xbd919026	-0.07107572
149	0x3c8d54b4	0.017252304
150	0x3e0ae0b6	0.13562283
151	0x3e6258c5	0.22104175
152	0x3e100a02	0.14066318
153	0x3e5f62fa	0.218151
154	0xbda4c75d	-0.08045838
155	0x3df46438	0.11933178
156	0x3e63dc5d	0.2225203
157	0x3e8da4a4	0.27664673
158	0x3d875963	0.06608846
159	0x3ec26793	0.37969646
160	0x3e1b7346	0.15180692
161	0xbdedea82	-0.116169944
162	0xbda94f58	-0.08267087
163	0xbe9255b8	-0.28581023
164	0x3a907deb	0.0011023855
165	0xbeb40827	-0.3516247
166	0xbe4d1cb4	-0.2003048
167	0x3c62bbe8	0.013838746
168	0x3dcf418c	0.10119924
169	0x3e63c646	0.22243604
170	0x3e600b47	0.21879302
171	0x3c7e1345	0.015507524
172	0x3e0bcb77	0.13651834
173	0x3e78f551	0.24312331
174	0x3e8dfe97	0.277333
175	0xbe0388bb	-0.12845127
176	0x3d8c9e1c	0.068660945
177	0x3b995a4b	0.004679953
178	0xbd0e9214	-0.03480728
179	0xbe9c44cb	-0.30521235
180	0x3e49a405	0.19691475
181	0xbd9eaf20	-0.07748246
182	0xbea4a331	-0.32155755
183	0xbd98fac7	-0.07469707
184	0xbdd814ba	-0.10550828
185	0x3e9a3732	0.30120236
186	0x3d8e1746	0.06938033
187	0x3c76fe6b	0.015075306
188	0xbea8d792	-0.32976967
189	0xbd924f78	-0.07144064
190	0xbe86a899	-0.26300505
191	0x3e6bfc17	0.23045383
192	0xbdba4e43	-0.090969585
193	0xbc952b98	-0.018209264
194	0x3ec7322a	0.3890546
195	0x3e17d4bc	0.14827245
196	0xbee2dee3	-0.44310674
197	0x3dfa662d	0.1222652
198	0xbe0a3205	-0.13495643
199	0xbe650b3d	-0.22367568
200	0x3d95892d	0.07301555
201	0xbea16068	-0.31518865
202	0x3de88ebd	0.1135535
203	0x3e347f86	0.17626771
204	0x3e0f4c20	0.13993883
205	0xbe0ff6b9	-0.14058961
206	0x3e595938	0.2122544
207	0x3e2150c7	0.1575347
208	0x3d4598eb	0.048241537
209	0xbdd2615d	-0.10272477
210	0x3bd040d1	0.006355383
211	0xbe73bca3	-0.23802428
212	0x3e25d041	0.16192724
213	0x3e31b3b8	0.17353714
214	0xbdc6bfdb	-0.09704562
215	0x3e0a30a3	0.13495116
216	0xbed11e1a	-0.40843278
217	0x3dd39aa5	0.103322305
218	0x3c461d69	0.012091973
219	0x3d81ebd7	0.06343811
220	0x3e437c42	0.1909037
221	0xbd6524d9	-0.055943344
222	0x3ebae959	0.36506155
223	0x3e8c7239	0.27430895
224	0x3e1a4458	0.15065134
225	0xbd7128bf	-0.05887675
226	0xbe7cccc1	-0.24687482
227	0xbde93da6	-0.11388712
228	0x3d21bcca	0.039486684
229	0x3d7379a6	0.059442185
230	0x3e4bf631	0.19918133
231	0xbd6eb7d3	-0.058280777
232	0xbde3c965	-0.11122397
233	0xbe43acd9	-0.19108905
234	0x3ede915a	0.4347027
235	0x3e8a7e66	0.2704956
236	0x3e36dcec	0.17857713
237	0x3ba68a85	0.005082431
238	0x3d7d9b6c	0.0619158
239	0xbe1fca13	-0.15604429
240	0x3b4f8509	0.0031664988
241	0x3e371fb1	0.17883183
242	0x3e0a273c	0.13491529
243	0xbdb202ac	-0.08691916
244	0x3e7139c3	0.2355719
245	0xbd0ffda1	-0.03515399
246	0xbe337377	-0.17524515
247	0x3d6936ff	0.056937214
248	0x3cf50bec	0.029912911
249	0x3eaefa83	0.341755
250	0xbdee40f7	-0.11633485
251	0xbec2d0a5	-0.38049808
252	0x3e87c4aa	0.2651723
253	0x3e353273	0.17695026
254	0x3ea2c4dc	0.31790817
255	0xbd99a333	-0.07501831

f_percept.percept.0.bias f4 [16]
0	0xba853285	-0.0010162151
1	0x3a092916	0.00052322575
2	0x3a0691d2	0.0005133423
3	0x3a97c596	0.0011579271
4	0xbab233aa	-0.0013595719
5	0xb994222c	-0.0002825422
6	0xb9e0b861	-0.00042861982
7	0xba5f7fde	-0.00085258286
8	0xba9cd7f8	-0.0011966219
9	0xbab9527c	-0.0014138962
10	0xba3d1f38	-0.000721443
11	0xba515767	-0.0007985741
12	0x398ceea4	0.00026880682
13	0xba888394	-0.001041519
14	0x3978db3a	0.00023732791
15	0x38bd2809	9.0196794e-05

f_percept.percept.3.weight f4 [64, 16]
0	0x3d90ca46	0.070698306
1	0x3d096d09	0.03355125
2	0x3caa9176	0.020821314
3	0xbe28282b	-0.16421573
4	0xbd985a3a	-0.07439084
5	0xbd6edfa1	-0.058318738
6	0xbd864a89	-0.06557185
7	0xbe16bdb5	-0.14720805
8	0x3d5b8837	0.0535967
9	0xbe0abac4	-0.13547808
10	0x3dd6b4e0	0.10483718
11	0xbdb76bcf	-0.0895611
12	0x3c2052fe	0.009785412
13	0xbe12a2a2	-0.14319852
14	0xbe19617a	-0.1497859
15	0xbcdce7d2	-0.02696601
16	0x3e1856da	0.14876881
17	0xbe0689dc	-0.13138527
18	0x3e19bcad	0.1501338
19	0xbde2326e	-0.11044775
20	0xbd3080f3	-0.043091726
21	0xbe6676fc	-0.22506326
22	0xbe1fb306	-0.15595636
23	0x3e0f7cc9	0.14012446
24	0xbd1fa402	-0.03897477
25	0xbb137691	-0.002250109
26	0xbbc817e8	-0.0061063655
27	0x3d82b33a	0.06381841
28	0xbdda5508	-0.1066075
29	0xbdf12aea	-0.11775763
30	0xbe8f0048	-0.27929902
31	0xbd8dcb05	-0.069234885
32	0x3cd3e09b	0.025863936
33	0x3e753f82	0.23950008
34	0xbd72e9eb	-0.059305113
35	0xbe0a653a	-0.13515177
36	0x3dc7b2f7	0.09750932
37	0xbcba1277	-0.022713883
38	0x3e2933b9	0.16523637
39	0x3d971f6a	0.07379039
40	0x3db18165	0.08667258
41	0x3d7a621a	0.061128713
42	0xbd865a13	-0.06560149
43	0xbda957ae	-0.08268677
44	0x3e8b57af	0.27215335
45	0xbd830123	-0.06396701
46	0xbe526e4f	-0.20549892
47	0xbd1b1e98	-0.037870973
48	0x3e164a9c	0.14676899
49	0x3d68354f	0.056691464
50	0xbd70acc0	-0.058758497
51	0xbd2b0eb1	-0.041762058
52	0xbdc7a810	-0.09748852
53	0xbe2028c6	-0.15640554
54	0x3d5dfa5c	0.05419384
55	0xbe344e52	-0.17608002
56	0xbdcf239b	-0.10114213
57	0xbe9305e3	-0.2871543
58	0x3c88b8e0	0.016689718
59	0x3dbd60c3	0.092469715
60	0x3da10746	0.078627154
61	0xbd2e5d92	-0.042569704
62	0xbba153bc	-0.004923312
63	0x3ddb20a5	0.10699586
64	0xbdfdabe3	-0.123863004
65	0xbe0cf0ba	-0.13763705
66	0x3d9a7617	0.07542055
67	0x3e09c986	0.13455781
68	0x3e065245	0.13117321
69	0x3e0162b3	0.12635307
70	0xbe3e9eab	-0.18615215
71	0xbcac02a3	-0.020997351
72	0x3de83236	0.11337702
73	0x3e376fd0	0.17913747
74	0xbe798706	-0.24367914
75	0x3cebfbd9	0.028806614
76	0xbc9a83e4	-0.018861718
77	0xbed57da1	-0.4169741
78	0x3ce5ec83	0.02806688
79	0xbd5f53d2	-0.054523297
80	0xbdf356f1	-0.11881817
81	0xbd3bccd7	-0.045849647
82	0x3e24dfa2	0.16100934
83	0x3e133a95	0.14377816
84	0x3d92bacf	0.07164537
85	0xbc8724d4	-0.016497053
86	0x3e0d33b7	0.13789259
87	0xbe27e544	-0.16396052
88	0x3d567c5b	0.05236469
89	0xbdf6327c	-0.12021348
90	0x3e42e12a	0.19031206
91	0xbe05e3c4	-0.13075167
92	0xbddb438d	-0.10706244
93	0x3cf5bd7c	0.02999758
94	0x3dc7b5f6	0.09751503
95	0x3e0dc551	0.13844801
96	0xbdcbe2d0	-0.099553704
97	0xbd529147	-0.05140808
98	0x3dff96ce	0.124799356
99	0x3d95f39a	0.07321854
100	0xbe053aed	-0.1301076
101	0x3e2d1209	0.16901411
102	0x3d33ddca	0.043912686
103	0x3e022e25	0.12712915
104	0x3e0d870d	0.13821049
105	0x3b034955	0.0020032723
106	0x3d7d61aa	0.061860718
107	0xbd6e46d9	-0.058173034
108	0x3ccbe61c	0.024889998
109	0x3d70e11d	0.058808435
110	0xbdc14403	-0.094368
111	0xbd82b339	-0.0638184
112	0xbdd2afaa	-0.102874115
113	0xbda45c86	-0.0802546
114	0xbe9552ab	-0.29164633
115	0x3e236906	0.15958032
116	0x3e232dfb	0.15935509
117	0xbd37c6d3	-0.044867348
118	0xbe8cebad	-0.27523556
119	0xbc93504c	-0.017982624
120	0xbe4f3e0b	-0.20238511
121	0x3daf01a5	0.085452355
122	0xbe0fe523	-0.14052252
123	0xbd1cc588	-0.038274318
124	0xbe04d4f4	-0.1297186
125	0x3d459900	0.048241615
126	0xbd25b457	-0.04045519
127	0x3e126429	0.1429602
128	0x3c7ae94e	0.015314413
129	0xbe647412	-0.22309902
130	0xbdd66b1e	-0.1046965
131	0x3db5f66c	0.08884892
132	0xbe5c91c9	-0.21539988
133	0xbe190501	-0.14943315
134	0x3de76313	0.11298194
135	0xbe55f6dc	-0.2089495
136	0x3e31359c	0.17305607
137	0xbe172cd3	-0.14763193
138	0xbde709d1	-0.11281169
139	0xbe3b0325	-0.18262918
140	0xbd72aaee	-0.059245043
141	0x3e49ae99	0.1969551
142	0xbd9323c4	-0.07184556
143	0xbcc373ef	-0.023858992
144	0x3dd73704	0.1050854
145	0x3e72ff35	0.23730166
146	0xbc4ff5c0	-0.012692869
147	0x3dda54cd	0.10660706
148	0x3e108c6d	0.14116068
149	0xbcf84c57	-0.03030984
150	0x3d0bd004	0.034133926
151	0xbe1dbe73	-0.15404682
152	0x3da16fa5	0.07882623
153	0x3dde759f	0.10862278
154	0xbd9c3447	-0.076271586
155	0x3e4ff0b8	0.2030667
156	0xbcbc93d3	-0.023019707
157	0x3c82afdb	0.015952995
158	0x3dbb86e0	0.09156585
159	0x3cd3d4f2	0.025858376
160	0x3d8e6f71	0.069548495
161	0xbdfe4d74	-0.12417117
162	0xbcdbd1f3	-0.02683351
163	0xbe684d1e	-0.22685668
164	0x3d0d90d9	0.034561966
165	0xbdc23808	-0.09483343
166	0x3e287823	0.16452079
167	0x3cd56a96	0.0260518
168	0x3dee200c	0.11627206
169	0x3cc06c31	0.02348909
170	0xbe3ec147	-0.18628417
171	0x3db088e7	0.08619862
172	0xbe16fa58	-0.14743936
173	0xb8b2745a	-8.5093736e-05
174	0x3e1ae669	0.15126957
175	0xbdb0fb93	-0.08641734
176	0x3dec1a45	0.11528448
177	0xbd9544b9	-0.072884984
178	0x3e30a807	0.17251597
179	0xbd32a461	-0.043613795
180	0xbd7322f6	-0.059359513
181	0xbdbb39c5	-0.09141878
182	0x3df165f8	0.11787027
183	0xbdf28c1c	-0.1184313
184	0xbc82a71d	-0.015948826
185	0x3dc22620	0.09479928
186	0xbdabf528	-0.08396369
187	0xbd1f3704	-0.038870826
188	0xbd05b9c7	-0.032647874
189	0xbe2a9358	-0.1665777
190	0xbc5b4a70	-0.0133844465
191	0x3e59148a	0.21199241
192	0x3dc97239	0.09836239
193	0xbe564008	-0.20922863
194	0x3d1842c7	0.03717306
195	0x3e327e9e	0.17431113
196	0xbd833425	-0.0640643
197	0x3cf9debd	0.030501718
198	0xbd12fe58	-0.035887092
199	0xbe854510	-0.26029253
200	0x3d1ba8fa	0.038002945
201	0x3db9f5c8	0.09080082
202	0xbcb211dd	-0.021737034
203	0xbe6f7a7c	-0.23386568
204	0x3d96a699	0.07355995
205	0x3e107098	0.14105451
206	0xbd411b72	-0.047145315
207	0xbc242f50	-0.010021046
208	0xbe819673	-0.25310096
209	0x3d017f6c	0.03161566
210	0x3e38d9f4	0.18051893
211	0x3e8aaec9	0.27086475
212	0xbc4258dd	-0.011862007
213	0xbe285e2f	-0.16442178
214	0xbc9c3b88	-0.019071355
215	0x3dfe0498	0.1240322
216	0x3e0639a5	0.13107927
217	0x3cefe7ea	0.02928539
218	0x3d0337c8	0.03203562
219	0xbcbde4b0	-0.023180336
220	0x3d91fd17	0.07128351
221	0xbd839bd1	-0.06426204
222	0x3d66652d	0.056248832
223	0x3db8319f	0.089938395
224	0x3e0e992c	0.13925618
225	0x3d41583f	0.0472033
226	0xbd50b684	-0.05095531
227	0x3e184240	0.14869022
228	0x3e2dd49b	0.16975634
229	0xbcf4761a	-0.029841471
230	0x3d03faab	0.032221477
231	0x3e58c25f	0.21167897
232	0x3c891d10	0.01673749
233	0xbdac16ce	-0.08402787
234	0x3d8d66b5	0.069043554
235	0xbe36b9df	-0.17844342
236	0xbda345b1	-0.07972277
237	0xbe2fc894	-0.17166358
238	0x3c7b286c	0.015329462
239	0x3acc677b	0.0015594804
240	0x3e043678	0.12911403
241	0xbe203d65	-0.1564842
242	0xbd056746	-0.032569192
243	0xbe9067e6	-0.28204268
244	0x3e910b91	0.28329137
245	0xbd49267c	-0.049108967
246	0x3d2846c0	0.041083097
247	0x3df6e6ce	0.12055741
248	0xbb829c45	-0.003985914
249	0xbc81729e	-0.015801724
250	0x3e38221e	0.17981765
251	0x3c05b6f2	0.008161293
252	0x3d96481c	0.073379725
253	0x3e6fa264	0.23401791
254	0xbcc68faa	-0.024238426
255	0xbcbfebb1	-0.023427816

f_percept.percept.3.bias f4 [64]
0	0xba4b81bd	-0.0007763168
1	0x3b3c2a19	0.0028711616
2	0x3b305a72	0.0026909378
3	0x3b322aff	0.0027186272
4	0x3b076e88	0.0020665247
5	0x3b48564a	0.003056901
6	0x3921aad6	0.00015417798
7	0x3ae8d7b6	0.0017764482
8	0xbaff08c6	-0.0019457571
9	0x3b39e596	0.0028365604
10	0x3b4a303c	0.0030851504
11	0xbb4f08f7	-0.0031591037
12	0x3b001d84	0.0019548843
13	0x3b7d858d	0.0038684339
14	0x38f8237a	0.000118321695
15	0xbb9ab2d8	-0.004721027
16	0xbb091673	-0.0020917922
17	0xbb2e7ede	-0.0026625912
18	0x3acab163	0.0015464242
19	0xb9386d04	-0.00017588219
20	0x3a67f787	0.0008848835
21	0x3a998a73	0.0011714235
22	0x3aeff316	0.0018306698
23	0x3a8dc262	0.0010815377
24	0x3979f2e8	0.0002383698
25	0x3acc3986	0.0015581108
26	0x3b6f6554	0.0036528902
27	0xbac28d21	-0.0014843085
28	0xbb4da002	-0.003137589
29	0xb981238e	-0.00024631288
30	0x3b0bb5a4	0.0021317983
31	0xbb00a9ea	-0.0019632527
32	0x3b5de05c	0.0033855652
33	0x3b71092f	0.0036779155
34	0xba476712	-0.0007606606
35	0xba24a07a	-0.00062800164
36	0x3afc67da	0.0019257024
37	0x3af7a3b2	0.001889339
38	0x3b1227db	0.0022301588
39	0xb98b37c1	-0.00026553686
40	0xbb5fd041	-0.0034151229
41	0x3a8ea856	0.0010883908
42	0x3b9cd78e	0.0047864383
43	0x38b684f0	8.703198e-05
44	0x394171e5	0.00018448343
45	0x3a17dc44	0.0005793015
46	0x3b58d9b7	0.0033088753
47	0x3abf8cc9	0.0014614101
48	0x3a123457	0.0005577257
49	0x3bcad48c	0.0061898883
50	0xbb21d19b	-0.0024691585
51	0x3b756e8d	0.0037449927
52	0x3b7605da	0.003754011
53	0x3b94ea93	0.004544565
54	0xbb455049	-0.0030107668
55	0x3b1b7b27	0.0023724528
56	0xbaf55ac0	-0.0018719062
57	0x3b3fa8db	0.0029244933
58	0xbbb09106	-0.005388382
59	0x3b143136	0.002261234
60	0xb9493af7	-0.0001919082
61	0x3b9f727c	0.0048659425
62	0xb9eae5d6	-0.000448032
63	0x3affb6b5	0.0019509407

manager.M_space.weight f4 [64, 64]
0	0xbd076dae	-0.033063583
1	0x3df6b597	0.12046354
2	0x3ea1f32a	0.31630832
3	0xbd2b2a92	-0.041788645
4	0x3d8d6604	0.069042236
5	0x3e358289	0.17725576
6	0xbd5562cf	-0.052096184
7	0x3e38881e	0.18020675
8	0x3e41af0d	0.18914433
9	0xbd176a00	-0.036966324
10	0xbce389ed	-0.02777573
11	0xbddf9eb8	-0.10918945
12	0xbe055421	-0.13020374
13	0x3e0e01ba	0.13867846
14	0xbe12d51c	-0.14339107
15	0x3dfbc9d7	0.12294357
16	0xbc539717	-0.012914441
17	0x3d29ccf5	0.041455228
18	0xbde26eec	-0.11056313
19	0xbe07458e	-0.13210127
20	0xbe71b4e1	-0.23604156
21	0xbc8b703a	-0.017021287
22	0xbd4c072a	-0.04981152
23	0x3d6e76c2	0.058218725
24	0x3e44547f	0.19172858
25	0xbdb2d79d	-0.08732531
26	0xbe698248	-0.22803605
27	0x3d51d160	0.051225066
28	0x3d04a812	0.032386847
29	0xbe7d8eff	-0.2476158
30	0xbe082ba4	-0.13297898
31	0xbd414731	-0.047187034
32	0xbda14190	-0.07873833
33	0xba998f86	-0.0011715747
34	0xbd2ba6d7	-0.041907158
35	0xbdf58b74	-0.11989489
36	0xbe402c1b	-0.18766825
37	0x3dfce762	0.1234882
38	0x3d9658c4	0.073411494
39	0x3e47b472	0.19502428
40	0xbe32d7a0	-0.17465067
41	0xbdb5c690	-0.088757634
42	0x3e86ae13	0.26304683
43	0xbc82af57	-0.01595275
44	0xbd1bb0fd	-0.038010586
45	0xbd197aa3	-0.03747047
46	0xbdc0f455	-0.09421603
47	0x3cd7ea17	0.02635674
48	0xbd92d899	-0.07170219
49	0xbdfc5f2c	-0.1232284
50	0xbe0ac255	-0.13550694
51	0xbcb1dbe9	-0.021711307
52	0x3de07d39	0.10961384
53	0xbe074b42	-0.13212302
54	0x3da54896	0.08070485
55	0x3e340491	0.17579867
56	0xbe0eab2d	-0.13932486
57	0x3d9c184b	0.07621821
58	0xbda630af	-0.081147544
59	0x3e07c76f	0.13259672
60	0xbd259576	-0.04042574
61	0xbc46ecc1	-0.0121414075
62	0xbdb48750	-0.08814871
63	0x3df0785c	0.11741707
64	0x3cd283d8	0.025697634
65	0xbbc82957	-0.0061084437
66	0x3aa139c3	0.001230054
67	0x3de3c349	0.11121232
68	0xbc45d0c4	-0.012073699
69	0xbd04e9e9	-0.032449637
70	0x3e3397d7	0.17538391
71	0x3e5d7e08	0.21630108
72	0x3de21f1c	0.1104109
73	0x3dc5c92a	0.096575096
74	0xbd3bb5b2	-0.045827575
75	0xbdca246e	-0.0987023
76	0xbc34fdfa	-0.011046881
77	0xbdd74c7d	-0.10512636
78	0xbd2bb53b	-0.04192088
79	0xbe706412	-0.23475674
80	0xbdb36736	-0.0875992
81	0xbdd6018a	-0.10449512
82	0xbd3553ba	-0.0442693
83	0xbdc42383	-0.09577086
84	0xbd2c1aa9	-0.042017613
85	0x3d48b893	0.04900415
86	0xbd8b2795	-0.06794659
87	0x3e96b411	0.29434255
88	0xbdc4307b	-0.095795594
89	0x3ded4d28	0.11586982
90	0xbdabdee2	-0.08392121
91	0x3bfba720	0.007679835
92	0xbe358db8	-0.17729843
93	0x3e20c9ce	0.15701982
94	0x3e63ada7	0.22234212
95	0x3e65fe16	0.22460207
96	0x3def60db	0.116883956
97	0x3e0387db	0.12844793
98	0xbc8c0540	-0.017092347
99	0x3dea496f	0.114397876
100	0xbdf43757	-0.11924618
101	0xbc2d7378	-0.010586612
102	0xbd3b64bb	-0.04575036
103	0xbddd110b	-0.10794266
104	0xbe119b0e	-0.14219305
105	0xbc709201	-0.014683248
106	0x3d505258	0.05085978
107	0x3d31f3fe	0.04344558
108	0xbdf00dc2	-0.11721374
109	0x3e1d71e9	0.15375485
110	0x3c519c60	0.01279363
111	0x3dc4dd95	0.09612576
112	0x3dc0059d	0.09376071
113	0x3dc77858	0.097397506
114	0xbed4e5be	-0.4158153
115	0x3dc866dc	0.09785244
116	0xbe82d0b9	-0.25549868
117	0xbd84056a	-0.06446345
118	0x3e40179e	0.18759009
119	0xbd154048	-0.036438257
120	0x3dc9b121	0.09848238
121	0x3d815772	0.06315507
122	0xbdef098c	-0.11671743
123	0xbcea0c8e	-0.02857044
124	0x3cec6582	0.028856996
125	0x3d5ecc75	0.054394204
126	0x3da0bd49	0.07848603
127	0x3dbb896d	0.09157071
128	0xbe16be7e	-0.14721105
129	0xbcc6645b	-0.024217775
130	0x3df43b29	0.119253464
131	0xbafe4fe0	-0.0019402467
132	0x3de793a2	0.113074556
133	0xbe411160	-0.18854284
134	0xbd1f91d4	-0.038957432
135	0x3ecc7acc	0.39937437
136	0x3e03d3bd	0.1287374
137	0xbe1e208c	-0.15442103
138	0xbd4c3702	-0.049857147
139	0x3cd0a4e1	0.025469245
140	0x3db19ccb	0.08672484
141	0x3b01269e	0.0019706856
142	0x3d913c00	0.07091522
143	0x3be508fe	0.0069895973
144	0xbd2398c8	-0.039940625
145	0x3e4d22f9	0.20032872
146	0xbe31e2d2	-0.17371681
147	0x3dec32c2	0.11533119
148	0x3e68b1a4	0.22724015
149	0xbd20c5b5	-0.039251048
150	0xbe67d9f9	-0.22641744
151	0xbe58e935	-0.21182711
152	0xbdacda2d	-0.08440051
153	0x3cfc3eba	0.03079163
154	0x3d01a9cd	0.031656075
155	0x3cda93ee	0.026681866
156	0xbe096e10	-0.13420892
157	0xbd86e8e4	-0.06587389
158	0x3daaf2cf	0.08347093
159	0x3e0e48fe	0.13895032
160	0x3e01d2c6	0.1267806
161	0x3da2a309	0.07941253
162	0x3a00d973	0.0004915215
163	0x3dd630cb	0.10458525
164	0x3c77f3fe	0.015133856
165	0x3d469cfc	0.048489556
166	0x3d58a1ad	0.05288856
167	0x3cf44ac1	0.029820802
168	0xbe00422b	-0.12525241
169	0x3e0e8392	0.13917378
170	0xbcd4394d	-0.02590623
171	0xbde83df5	-0.11339942
172	0xbde4430f	-0.11145603
173	0xbe231777	-0.1592692
174	0x3b1ac623	0.0023616634
175	0x3e1d4a9b	0.15360491
176	0x3e1ce631	0.15322186
177	0xbd62040e	-0.055179648
178	0x3dfbff81	0.12304593
179	0xbe0ebdae	-0.13939545
180	0x3dd3c43c	0.10340163
181	0x3d303af9	0.04302499
182	0xbcfabe7a	-0.030608404
183	0x3c9331b2	0.017968033
184	0xbda11a79	-0.078663774
185	0x3e0699c6	0.13144597
186	0x3d105efa	0.035246827
187	0x3defc202	0.11706926
188	0x3d82dce7	0.0638979
189	0x3cc6599d	0.024212653
190	0x3e676a25	0.22599085
191	0xbe97d961	-0.29658034
192	0x3d3b5c46	0.045742296
193	0x3e6c8ce8	0.23100626
194	0xbde6d7fd	-0.11271665
195	0x3e642ce5	0.22282751
196	0x3eab1c85	0.33420196
197	0xbd774622	-0.06036962
198	0xbb290686	-0.0025791242
199	0x3db93e45	0.0904508
200	0x3e02c553	0.12770586
201	0x3c8a7983	0.016903644
202	0x3d223010	0.039596617
203	0xbe53f7b3	-0.20699959
204	0x3db8d9bd	0.09025905
205	0x3d101fa1	0.035186414
206	0x3dc541ea	0.09631713
207	0xbd1f8308	-0.03894332
208	0x3e9ffb2b	0.31246313
209	0x3bcdf92d	0.0062858076
210	0x3d063644	0.032766595
211	0x3e0e394a	0.13889042
212	0xbdbfb2e0	-0.093602896
213	0x3d208371	0.039187852
214	0x3c00b509	0.007855662
215	0xbbbe90cf	-0.0058156024
216	0xbac8465c	-0.0015279758
217	0xbdeb62ea	-0.11493476
218	0x3c3228c6	0.010873979
219	0x3dc8ac4f	0.0979849
220	0xbdd65785	-0.10465912
221	0x3d488c49	0.04896191
222	0x3d865942	0.06559993
223	0xbe0abb1d	-0.1354794
224	0xbb0792fc	-0.0020686975
225	0xbce177d8	-0.027522966
226	0x3d9043db	0.070441924
227	0x3e4082db	0.18799917
228	0x3d8ba527	0.0681861
229	0x3e3dae65	0.18523557
230	0x3dc79107	0.09744459
231	0x3dfba6fc	0.12287709
232	0x3c8f7216	0.017510455
233	0x3e42aa87	0.19010364
234	0x3e37613b	0.17908184
235	0x3e232dbb	0.15935414
236	0x3cd1d00f	0.025611905
237	0x3da819bc	0.082080334
238	0x3e51da2e	0.20493385
239	0x3d79307b	0.06083725
240	0xbe4be9b0	-0.19913363
241	0xbe8757f5	-0.26434293
242	0xbca18571	-0.01971695
243	0x3e1faadd	0.15592523
244	0xbda2c7fd	-0.07948301
245	0x3d92fb8c	0.07176885
246	0xbe6b1412	-0.22956875
247	0xbdded511	-0.10880483
248	0x3d903bb4	0.070426375
249	0xbe02fa94	-0.127909
250	0x3d1c7dae	0.038205795
251	0xbdbbe001	-0.09173585
252	0x3b092a7f	0.002092987
253	0xbcc49e6d	-0.024001325
254	0xbba2b604	-0.0049655456
255	0x3cead379	0.028665291

manager.M_space.bias f4 [64]
0	0xbab3c38d	-0.0013714895
1	0x3b2b6ccb	0.0026157375
2	0x3b0b8cf3	0.002129373
3	0x3b39a606	0.0028327717
4	0xb99cb85e	-0.00029892003
5	0x3b5556eb	0.0032553028
6	0xbae49efe	-0.0017442403
7	0xbb5055dd	-0.003178946
8	0x3b1e1190	0.0024119355
9	0x3b46d49a	0.0030339123
10	0x3b0d3677	0.0021547356
11	0x39664d97	0.00021963414
12	0xbb393444	-0.0028259913
13	0x3b81245b	0.0039411015
14	0x3a7b8304	0.0009594413
15	0x3af435a3	0.0018631708
16	0x3a9a1d9e	0.0011758094
17	0x3ad2c198	0.0016079424
18	0xba7cf07a	-0.0009648871
19	0xbb43cbd7	-0.0029876137
20	0x3b3c954e	0.0028775516
21	0x3a9f7d32	0.0012168048
22	0x39b69531	0.000348249
23	0x3b6c827a	0.0036088512
24	0x3b4aa2f8	0.003091989
25	0xbaf603c6	-0.0018769435
26	0x38122fd0	3.485364e-05
27	0x3b082e80	0.002077967
28	0xbae6e65e	-0.0017616262
29	0x3b16b6eb	0.0022997211
30	0xba4d40e5	-0.00078297994
31	0x3b60e0f9	0.0034313782
32	0x3b3a864e	0.00284614
33	0x3b7d4061	0.003864311
34	0x3a110e56	0.0005533447
35	0xbb5c1510	-0.003358189
36	0xbb56a893	-0.0032754287
37	0xbb62b99d	-0.0034595497
38	0xb9f61b5b	-0.00046941158
39	0x3aafcf6c	0.0013413257
40	0x3a31d8ed	0.00067843386
41	0xb9cedfc7	-0.0003945811
42	0xbb611940	-0.0034347326
43	0xbb86cb1c	-0.004113568
44	0x3b25f455	0.0025322635
45	0x3b389b2e	0.0028168666
46	0xbb264ba5	-0.0025374677
47	0xbab1a5b2	-0.0013553409
48	0x3af59321	0.0018735864
49	0x3b2cf9ce	0.0026394012
50	0xbb1b49bc	-0.0023695072
51	0x3b2416f6	0.00250381
52	0xbb445ff8	-0.0029964428
53	0xbb5858c9	-0.0033011904
54	0x3b296ee7	0.0025853456
55	0xbb274a20	-0.002552636
56	0xbb512998	-0.003191566
57	0xbaa92a9c	-0.0012906375
58	0x3a15f119	0.0005719825
59	0x3a9c5bce	0.0011929215
60	0x3957afd1	0.00020569495
61	0xbb9fa569	-0.0048720133
62	0xbb679b8f	-0.0035340523
63	0x3b534eb7	0.0032242963

manager.M_goals.weight f4 [64, 128]
0	0xbd9107cc	-0.07081565
1	0xbd0d8dc8	-0.03455904
2	0xbd1af0fa	-0.03782747
3	0xbdd57c9f	-0.1042416
4	0x3e266a9f	0.1625161
5	0x3e069323	0.13142066
6	0x3d0c28da	0.034218647
7	0x3d7626b5	0.060095508
8	0xbe0dd09c	-0.1384911
9	0x3e294985	0.16531952
10	0x3ce48c0d	0.027898813
11	0xbea10c9f	-0.31454942
12	0x3e2a72d3	0.16645364
13	0x3e1a9962	0.15097573
14	0x3cbbe06c	0.022934161
15	0x3e2a94d5	0.16658337
16	0xbd66e5cc	-0.056371495
17	0x3cb44a2a	0.02200802
18	0xbdf57cb2	-0.11986674
19	0x3c59e7c9	0.013299891
20	0xbd998e9b	-0.07497903
21	0x3d66e2ca	0.056368627
22	0x399aebad	0.0002954876
23	0x3c2bf0da	0.010494435
24	0xbccf30dc	-0.025291853
25	0xbd857fdc	-0.06518528
26	0xbbed262b	-0.007237216
27	0xbe21cd7d	-0.15801044
28	0x3a237648	0.0006235582
29	0xbe60f826	-0.21969661
30	0xbd4abafa	-0.04949472
31	0xbcf8e628	-0.030383185
32	0x3dc4bb4c	0.096060365
33	0xbd018f72	-0.03163094
34	0xbcb9995f	-0.02265614
35	0x3db03ea0	0.08605695
36	0xbd289b64	-0.041163817
37	0xbd93e009	-0.07220466
38	0x3dea6c95	0.11446492
39	0xbd8fa894	-0.070145756
40	0xbd845c68	-0.064629376
41	0xbdd8c654	-0.10584703
42	0x3e10b426	0.14131221
43	0x3d2c51ea	0.042070307
44	0x3c8039c5	0.015652547
45	0x3c90dce2	0.01768345
46	0xbdd00274	-0.10156718
47	0xbdfbeb5a	-0.12300749
48	0xbce438b7	-0.027859075
49	0x3a865711	0.0010249336
50	0x3d1b0f43	0.03785635
51	0x3d82a0d3	0.06378331
52	0x3dab61ca	0.08368261
53	0x3e1a6f9b	0.15081637
54	0xbd6f3351	-0.05839855
55	0x3e1eda8f	0.15513061
56	0x3c33a1e5	0.010963892
57	0x3d3a34be	0.045460455
58	0xbe2a780c	-0.16647357
59	0xbd070f4e	-0.03297358
60	0x3d29c2f6	0.041445695
61	0x3db601d6	0.08887069
62	0xbd6c29fd	-0.05765723
63	0x3b9746a7	0.0046165767
64	0x3dafbde0	0.08581138
65	0x3e2a6623	0.16640525
66	0xbdc954ba	-0.098306134
67	0x3c912c12	0.01772121
68	0xbc85a5c3	-0.016314393
69	0xbd30ae04	-0.043134704
70	0x3debdfda	0.11517306
71	0xbda05679	-0.07828993
72	0xbd391281	-0.045183662
73	0xbc3c3752	-0.011487799
74	0x3d94061b	0.07227727
75	0xbd77d939	-0.060509894
76	0x3e2405a9	0.16017784
77	0xbd7c351b	-0.061574083
78	0xbd69c202	-0.057069786
79	0x3d67380f	0.056449946
80	0x3cd784af	0.026308386
81	0xbcd4aadc	-0.025960378
82	0x3c3717bc	0.011175092
83	0x3d03af6f	0.03214973
84	0x3c98625e	0.018601593
85	0xbd5abd92	-0.053403445
86	0xb9c0811c	-0.00036717288
87	0xbd7b8826	-0.06140914
88	0xbe54ddaa	-0.20787683
89	0x3c03225a	0.0080037955
90	0xba7231ff	-0.00092390174
91	0x3d254cd8	0.040356487
92	0x3d49ef24	0.049300328
93	0x3e08fe48	0.1337825
94	0x3d00b445	0.03142192
95	0x3cce58ff	0.025188921
96	0x3dd4a3b2	0.10382785
97	0xbd296ba9	-0.04136244
98	0x3d926e03	0.07149889
99	0xbc9fb379	-0.019494759
100	0xbe49f222	-0.19721273
101	0xbd8407f7	-0.06446832
102	0x3df98805	0.12184147
103	0x3aa95e0c	0.0012921705
104	0x3d73a974	0.059487775
105	0x3db0ba91	0.08629335
106	0xbc8e7e9f	-0.017394362
107	0x3c9e1d75	0.019301156
108	0x3dcf2885	0.1011515
109	0x3ca00e01	0.019537928
110	0x3bc64f1b	0.0060519106
111	0xbcbabe0b	-0.022795698
112	0xbdc4c49b	-0.09607812
113	0x3d1a8ee4	0.037733927
114	0xbc1167ed	-0.0088748755
115	0x3cfe00e8	0.031006292
116	0x3d158e32	0.03651256
117	0x3d89ef97	0.06735151
118	0x3e232db4	0.15935403
119	0xbda261c8	-0.079288065
120	0xbd0d2b65	-0.034465212
121	0x3c20cf91	0.009815113
122	0xbe0b5131	-0.13605191
123	0x3e15bf1a	0.1462368
124	0x3c0a9f44	0.008460823
125	0xbd617125	-0.055039544
126	0x3bab06d0	0.005219318
127	0x3cea7c01	0.028623583
128	0x3ddca803	0.10774233
129	0xbd631052	-0.055435486
130	0xbde645d4	-0.112437874
131	0xbdc6b32d	-0.09702144
132	0x3de7fae7	0.11327153
133	0xbe0c9019	-0.13726844
134	0x3db17e52	0.08666672
135	0x3e2ef584	0.17085844
136	0xbd87eecb	-0.06637343
137	0xbb2ffbf5	-0.002685306
138	0xbd87d751	-0.06632865
139	0xbcb716c3	-0.02234972
140	0xbd16584f	-0.03670531
141	0xbd5f367f	-0.05449533
142	0x3d2bd4e7	0.041951086
143	0xbd4b6095	-0.049652655
144	0xbdd92209	-0.10602195
145	0xbc0117eb	-0.007879238
146	0xbd42f307	-0.04759505
147	0x3d8e0bf7	0.06935876
148	0x3e4d5677	0.20052515
149	0x3db46f3b	0.08810278
150	0xbd5af94a	-0.053460397
151	0x3e204841	0.15652563
152	0x3e09d496	0.13460001
153	0x3e473bb5	0.1945637
154	0xbe258224	-0.16162926
155	0x3d42e485	0.047581214
156	0x3d07a614	0.03311737
157	0x3cb22d8b	0.021750232
158	0x3c801cb0	0.01563868
159	0xbd3f2e6c	-0.04667513
160	0x3d0b37fe	0.033988945
161	0x3d2ad25a	0.041704513
162	0x3d9f9557	0.07792156
163	0x3cc0b2d3	0.02352277
164	0xbd591734	-0.053000644
165	0x3d6595d4	0.05605109
166	0x3ccf97ee	0.025341
167	0xbd4fc5c4	-0.050725713
168	0xbc7361dd	-0.014854875
169	0x3bc5cb28	0.006036181
170	0x3e0e3067	0.13885652
171	0xbc1ded1a	-0.009639049
172	0xbe212fd4	-0.15740901
173	0x3dc7a150	0.09747565
174	0x3c607cc1	0.013701619
175	0xbdb2f8fc	-0.08738896
176	0xbda5b22a	-0.08090623
177	0x3dbde882	0.09272863
178	0xbe108978	-0.1411494
179	0x3dbfc26b	0.09363254
180	0xbd66c3ff	-0.05633926
181	0xbd7b7eef	-0.06140035
182	0xbd827cbc	-0.063714474
183	0x3c19b9c3	0.009382668
184	0x3c864418	0.016389892
185	0xbd902fb6	-0.0704035
186	0x3b9e7925	0.004836219
187	0xbd72b49f	-0.059254285
188	0xbda9c323	-0.082891725
189	0xbdcad9d1	-0.099048264
190	0x3df158be	0.11784504
191	0xbcb4483d	-0.022007102
192	0xbcc7897b	-0.024357548
193	0x3d896b7d	0.06709955
194	0xbdcc5f6c	-0.09979138
195	0x3d88e329	0.06683952
196	0x3d047708	0.03234008
197	0xbcb427fb	-0.02199172
198	0x3d8cf2c6	0.06882243
199	0x3dfa5e77	0.12225049
200	0x3c708cd3	0.014682013
201	0xbda34397	-0.07971876
202	0xbde2b9ff	-0.11070632
203	0xbe438c22	-0.19096425
204	0x3cfe4472	0.031038497
205	0x3cac5077	0.021034462
206	0x3dacf294	0.084447056
207	0xbdec3e0a	-0.115352705
208	0x3d86a8c1	0.06575156
209	0x3d3fb7b0	0.046806037
210	0xbcdd3a17	-0.027005238
211	0xbb4e608f	-0.003149066
212	0x3d8dd29e	0.06924938
213	0x3ca44bb2	0.020055626
214	0x3be4593f	0.006968647
215	0x3e05759c	0.13033146
216	0xbcf9426d	-0.030427182
217	0x3d554fb8	0.05207798
218	0xbd1bc415	-0.038028795
219	0x3e6bfc01	0.2304535
220	0xbddb93d7	-0.107215576
221	0xbda2dad0	-0.079518914
222	0xbcc36ec6	-0.023856532
223	0xbd1734ab	-0.036915462
224	0xbd8c5c7a	-0.06853576
225	0x3dfe0fc8	0.12405354
226	0x3dd14db9	0.102199025
227	0xbdb95167	-0.090487294
228	0xbd82ca92	-0.063862935
229	0x3e26046f	0.16212629
230	0xbd45180e	-0.048118643
231	0xbd48700e	-0.04893499
232	0x3bf85ed9	0.007579666
233	0x3e3241db	0.17407934
234	0x3c1fe194	0.009758372
235	0xbe117a5a	-0.1420683
236	0x3dad5960	0.084643126
237	0x3d256846	0.040382646
238	0x3d80962e	0.062786445
239	0x3bda1d63	0.006656335
240	0xbcd231df	-0.025658546
241	0xbd48e618	-0.04904756
242	0x3e034b7e	0.12821767
243	0xbbb25354	-0.0054420624
244	0xbdbb4cba	-0.09145494
245	0xbe1d073e	-0.15334794
246	0xbcf0cc46	-0.02939428
247	0x3db034e2	0.086038366
248	0x3cd8612a	0.026413519
249	0x3d2a40df	0.041565772
250	0xbe1a64cd	-0.15077515
251	0xbddd7566	-0.108134076
252	0x3d7b6a3b	0.061380606
253	0xbcc72f8d	-0.024314666
254	0xbe5dd8c7	-0.21664725
255	0xbdc8c0a4	-0.09802368

manager.M_goals.bias f4 [64]
0	0xb995682f	-0.00028497117
1	0xbb371900	-0.0027938485
2	0x3b69fa14	0.0035702037
3	0x3b32ba58	0.0027271714
4	0xbb880661	-0.004151151
5	0xbb807db1	-0.0039212336
6	0x3b489330	0.0030605309
7	0xbb409ac7	-0.002938913
8	0xbb4ab138	-0.0030928385
9	0x3b5539e4	0.0032535726
10	0x3a38a68a	0.0007043859
11	0x3b4736e2	0.0030397703
12	0x3ae506c2	0.0017473327
13	0xbb61d33b	-0.0034458179
14	0x3b224ff1	0.0024766887
15	0xbb419973	-0.0029540926
16	0xbb8aea4a	-0.004239355
17	0x3b3c0858	0.0028691497
18	0x3b4c429c	0.0031167632
19	0x38e72ef5	0.00011023685
20	0xbb464d14	-0.0030258344
21	0x3a27524a	0.00063828065
22	0x3b11e533	0.0022261858
23	0x3b55fdb6	0.0032652444
24	0xbb058ba9	-0.0020377433
25	0xbb4b8004	-0.0031051645
26	0xbb3c6458	-0.0028746333
27	0x3b247e18	0.0025099572
28	0x3b359ad6	0.0027710698
29	0x3b5e585d	0.003392718
30	0xbb1c7a9a	-0.0023876787
31	0xbb2c50a4	-0.0026293183
32	0xbb853ef7	-0.004066344
33	0xbacb842a	-0.0015527059
34	0xbb48142f	-0.0030529608
35	0x3b83e1e1	0.0040247296
36	0xbb5d3459	-0.0033753125
37	0xbabeafb1	-0.001454821
38	0xbb5a0d0f	-0.0033271944
39	0x3b40b87f	0.0029406843
40	0x3b11b857	0.002223512
41	0x3a141aed	0.0005649764
42	0xb9f3e358	-0.00046517956
43	0x3a14ad60	0.0005671587
44	0x3b75ee39	0.0037526025
45	0xbb36b9f0	-0.0027881823
46	0xbb07f6d6	-0.002074649
47	0xbacfcc2d	-0.0015853696
48	0x3b8d524a	0.004312788
49	0xbb0b8e9a	-0.0021294714
50	0x3b4c9bf7	0.0031220892
51	0x3b08d815	0.0020880748
52	0xbb845a9a	-0.004039121
53	0x3b45723c	0.0030127903
54	0x3b5383e9	0.003227467
55	0x3b789f32	0.0037936685
56	0x3b4b20d3	0.0030994907
57	0xbb8d86aa	-0.0043190317
58	0xbb27d1df	-0.002560727
59	0x3b509f9e	0.003183342
60	0x3a8d1b21	0.0010765531
61	0x3b242e3a	0.0025051967
62	0x3ab63296	0.0013900574
63	0x3b2f7130	0.0026770346

manager.M_value.0.weight f4 [32, 64]
0	0x3e17be2d	0.1481864
1	0x3e272280	0.16321754
2	0xbe1b26a4	-0.15151459
3	0x3e1e1771	0.1543863
4	0x3e2b68e5	0.16739233
5	0xbd01768f	-0.031607207
6	0xbd098848	-0.033577234
7	0x3ced409b	0.02896147
8	0xbe0ac1ab	-0.13550441
9	0xbda13992	-0.07872309
10	0xbe9b53ce	-0.30337375
11	0x3e0a87bb	0.1352834
12	0x3c07aa9e	0.008280424
13	0xbaa81e26	-0.0012826368
14	0x3da473cc	0.08029899
15	0xbd41527f	-0.047197815
16	0x3dae309b	0.085053645
17	0xbd0878ea	-0.033318438
18	0xbce89858	-0.028392956
19	0xbc84e53e	-0.016222592
20	0x3be72b4c	0.007054722
21	0xbd160480	-0.036625385
22	0xbe012621	-0.12612201
23	0x3e56db29	0.2098204
24	0xbccd72ca	-0.02507915
25	0x3e9138d1	0.2836366
26	0x3db630c3	0.08896019
27	0xbe73dec6	-0.2381545
28	0x3d240907	0.04004767
29	0x3c303589	0.010754951
30	0xbe239127	-0.1597334
31	0x3e29bdc2	0.16576293
32	0x3e0cefd9	0.1376337
33	0x3e08ec43	0.13371377
34	0xbd49f926	-0.049309872
35	0xbdbd4741	-0.09242106
36	0x3dd09194	0.10184017
37	0xbd65c759	-0.056098316
38	0xbca97c81	-0.02068925
39	0x3db3879d	0.087661006
40	0x3e0fdeb2	0.14049795
41	0x3da7aa7b	0.081868134
42	0xbde1badc	-0.11021969
43	0xbb4d2880	-0.0031304657
44	0xbe2820be	-0.1641874
45	0xbe48de91	-0.19616152
46	0x3d499c46	0.0492213
47	0x3e3a92cd	0.18220063
48	0x3dba6925	0.09102086
49	0xbd7d1a5a	-0.06179271
50	0x3de0d579	0.10978217
51	0x3d890d48	0.06691986
52	0x3e63d20d	0.22248097
53	0x3c9bb260	0.019005954
54	0xbe164ec0	-0.14678478
55	0xbbf139a3	-0.007361607
56	0xbe4e5b13	-0.2015193
57	0x3d8b42af	0.06799828
58	0xbcc2bdf2	-0.023772214
59	0x3d761546	0.06007888
60	0xbe0264f1	-0.12733819
61	0xbe45c10b	-0.19311921
62	0x3df5c018	0.119995296
63	0x3e271899	0.16317977
64	0xbe28f00f	-0.16497825
65	0x3e545d4c	0.20738715
66	0xbd069300	-0.032855034
67	0xbd2d1307	-0.042254474
68	0x3cd2712d	0.025688732
69	0x3d4c5859	0.049888942
70	0xbe19c13a	-0.15015116
71	0x3d2bb490	0.041920245
72	0xbd28960b	-0.041158717
73	0xbeaa3528	-0.3324368
74	0x3de153f1	0.11002339
75	0x3d5ac8bd	0.053414095
76	0xbea9f3cf	-0.33193824
77	0x3cd6e246	0.026230942
78	0xba657158	-0.0008752546
79	0xbdc92e72	-0.09823312
80	0x3d653088	0.055954486
81	0x3c7f88f2	0.015596615
82	0x3e2f1c5d	0.17100663
83	0xbe4bd9a7	-0.19907247
84	0xbbf20a3a	-0.007386473
85	0x3d94e83a	0.07270856
86	0x3dcc3db7	0.09972709
87	0x3d39c7e1	0.045356635
88	0xbbce6b7e	-0.006299435
89	0xbd8d0f65	-0.06887702
90	0x3de32e30	0.11092794
91	0xbe3125d4	-0.17299587
92	0xbe193418	-0.14961278
93	0xbd6eba06	-0.058282875
94	0xbd192619	-0.03738985
95	0x3b056ec2	0.0020360206
96	0x3e1a6863	0.15078883
97	0x3b85d64d	0.0040843845
98	0x3dd3e5f3	0.10346594
99	0x3e2b482a	0.16726747
100	0x3e0a3abe	0.13498971
101	0x3e461804	0.19345099
102	0x3d0129c0	0.031533957
103	0xbd841ba6	-0.06450586
104	0x3c8b0266	0.016968917
105	0x3c4528e7	0.012033678
106	0x3e92e91b	0.2869347
107	0x3dd82f1f	0.10555863
108	0xbd7306dc	-0.059332713
109	0x3db32822	0.08747889
110	0x3e825e87	0.25462744
111	0xbdd4a69f	-0.10383343
112	0xbe3429cc	-0.17594069
113	0x3d108bd1	0.03528959
114	0x3cde87fb	0.02716445
115	0xbe134fcd	-0.1438591
116	0xbda3acc4	-0.07991937
117	0x3d7994dc	0.06093298
118	0x3e0176b2	0.12642935
119	0xbe11b222	-0.14228109
120	0x3d5c1c56	0.05373796
121	0x3d75b732	0.05998916
122	0x3ddf2bec	0.10897049
123	0x3e016160	0.12634802
124	0xbe3e146b	-0.18562476
125	0xbdc7c0c0	-0.09753561
126	0x3d5c6d0c	0.053814933
127	0x395f5ef1	0.00021302306
128	0xbe11d456	-0.14241156
129	0xbdb60301	-0.08887292
130	0x3d170e98	0.036879152
131	0x3e50a7fd	0.20376582
132	0x3c887687	0.01665808
133	0xbd11f34e	-0.035632424
134	0x3c3d86da	0.011567796
135	0x3d28a6c1	0.041174654
136	0x3df06a6f	0.117390506
137	0x3e7589cc	0.23978347
138	0xbd3be5fd	-0.04587363
139	0x3e112b3b	0.14176647
140	0xbd1b6b80	-0.037944317
141	0x3d38a61f	0.0450803
142	0xbb407c65	-0.002937102
143	0xbeccfa81	-0.4003487
144	0xbc8f3921	-0.017483296
145	0x3e27ca6d	0.16385813
146	0xbd31abf4	-0.043376878
147	0x3d845e6d	0.06463323
148	0xbe849d31	-0.25901178
149	0x3e254517	0.16139637
150	0x3e1c2c72	0.1525133
151	0x3e125508	0.1429025
152	0x3e062e43	0.13103585
153	0xbd8e9f25	-0.06963948
154	0xbda9a013	-0.08282485
155	0xbaf416af	-0.0018622483
156	0x3e32006b	0.17382972
157	0x3e57139c	0.21003574
158	0x3d1fe5d0	0.039037526
159	0xbc96dc8e	-0.018415716
160	0x3e1899c6	0.1490241
161	0x3dd664c0	0.10468435
162	0xbdf687c7	-0.12037616
163	0xbdb9337b	-0.09043022
164	0x3d334b27	0.043772843
165	0xbadc28cd	-0.0016796828
166	0xbbcc2433	-0.006229901
167	0x3e27f589	0.16402258
168	0x3e0064dd	0.12538476
169	0x3e28cd93	0.1648467
170	0x3d70cb08	0.058787376
171	0x3dc67802	0.096908584
172	0x3e25c8fc	0.1618995
173	0x3d97d8e2	0.07414414
174	0xbd2421c5	-0.040071268
175	0xbe26552c	-0.16243428
176	0x3e100ddc	0.14067787
177	0x3dde6738	0.10859531
178	0xbe1bcc17	-0.15214573
179	0x3b8aaa26	0.004231709
180	0xbdda5456	-0.10660617
181	0xbc89a30e	-0.016801383
182	0x3da974ca	0.08274229
183	0xbc8da781	-0.017291786
184	0xbbab64a7	-0.0052305046
185	0xbcdddf87	-0.027084125
186	0x3e3b561f	0.18294571
187	0xbb483d67	-0.0030554177
188	0xbe0a07c7	-0.1347953
189	0x3cf6fd34	0.030150034
190	0x3a29f845	0.00064838334
191	0x3e886191	0.26636937
192	0x3e3cb5d9	0.18428744
193	0xbd9c422e	-0.0762981
194	0x3e958e6e	0.29210228
195	0x3d41dc8f	0.04732948
196	0xbe485eeb	-0.19567458
197	0xbd10257f	-0.03519201
198	0xbe1fa4c1	-0.15590192
199	0x3cb3fb12	0.021970306
200	0xbb04c002	-0.0020256047
201	0xbd950e8b	-0.072781645
202	0x3e2d8f70	0.16949248
203	0x3da6212b	0.08111795
204	0x3cab51ff	0.020913122
205	0xbc8542ac	-0.016267143
206	0x3d856750	0.06513846
207	0x3e4a1e75	0.19738181
208	0x3c5326a6	0.0128876325
209	0x3c746d42	0.014918627
210	0xbe2855aa	-0.16438928
211	0x3da74db7	0.0816912
212	0xbd6b42df	-0.05743682
213	0x3b2758be	0.0025535072
214	0xbe085643	-0.13314156
215	0xbdea71ca	-0.11447485
216	0xbca30bdb	-0.019903114
217	0x3e84b1ea	0.25916988
218	0xbd8a4477	-0.0675134
219	0xbd590952	-0.052987404
220	0xbe4c0094	-0.19922096
221	0x3e3cacd7	0.18425308
222	0xbcae2224	-0.021256514
223	0x3d6d8666	0.0579895
224	0xbd08f6b2	-0.033438392
225	0x3dd20e60	0.10256648
226	0xbe02ef4f	-0.12786601
227	0xbd44c39c	-0.04803811
228	0x3d8ce080	0.068787575
229	0x3d574280	0.052553654
230	0xbc746290	-0.014916077
231	0xbd6eed3e	-0.05833172
232	0x3c53d7f7	0.012929908
233	0xbdabf91e	-0.08397125
234	0x3e007195	0.12543328
235	0xbdc54223	-0.09631755
236	0x3d714223	0.058900964
237	0x3e75f021	0.24017383
238	0x3e222a33	0.1583641
239	0x3c07bf57	0.008285365
240	0x3e911d0f	0.28342482
241	0x3e184a7c	0.14872164
242	0xbdf03b60	-0.11730075
243	0x3ccca2b9	0.024979936
244	0xbd93e3a7	-0.072211556
245	0x3e47323c	0.19452757
246	0xbe63b1c7	-0.22235785
247	0x3ce0d076	0.027443152
248	0xbd8a89f0	-0.06764591
249	0x3c7ad754	0.015310127
250	0x3e88d6df	0.26726434
251	0x3e46b55f	0.19405125
252	0xbcdba048	-0.026809826
253	0x3c966a80	0.01836133
254	0x3da88ef3	0.082303904
255	0xbd916a30	-0.07100332

manager.M_value.0.bias f4 [32]
0	0xbb58f7f1	-0.003310677
1	0xbb97a0cf	-0.004627324
2	0x3b548b11	0.0032431523
3	0xbb346976	-0.002752868
4	0xbb62ff2e	-0.0034636962
5	0xbb6b2eea	-0.0035886117
6	0x3b5870b7	0.0033026168
7	0x39604143	0.00021386617
8	0x3b68d62c	0.0035528047
9	0xbb7762a0	-0.0037747994
10	0xbb709dee	-0.0036715227
11	0xbb155f6c	-0.0022792472
12	0x39d0d2f5	0.00039830027
13	0xbadfb8a0	-0.0017068572
14	0xbb561e2c	-0.0032671792
15	0x3b4d567d	0.0031332069
16	0x3b2ee969	0.0026689416
17	0xbb7befac	-0.0038442416
18	0x3b57f79e	0.0032953988
19	0x3b725971	0.003697958
20	0x3b56a0b0	0.0032749586
21	0xbb3d1f79	-0.002885787
22	0xbb661beb	-0.0035111855
23	0xbb7f32d3	-0.0038940206
24	0x3b460a7a	0.0030218647
25	0x3b6281d6	0.0034562252
26	0x3b568a77	0.003273634
27	0xbb2e7f76	-0.0026626266
28	0x3a8665de	0.0010253747
29	0xbb67f8fb	-0.0035396207
30	0x3b474088	0.0030403454
31	0x3b273bc7	0.0025517808

manager.M_value.2.weight f4 [1, 32]
0	0x3de8b751	0.1136309
1	0x3e467b53	0.19382982
2	0xbeadfced	-0.3398203
3	0x3e0702fc	0.13184732
4	0x3e67f802	0.22653201
5	0x3dd36657	0.10322254
6	0xbd647577	-0.055776086
7	0xbc2f269f	-0.01069036
8	0xbe647fce	-0.22314379
9	0x3e2b86a6	0.16750583
10	0x3e0b6311	0.1361201
11	0x3de8e6b9	0.11372132
12	0xbd524acf	-0.051340874
13	0x3d8e162e	0.06937824
14	0x3def6a52	0.11690201
15	0xbd94fb56	-0.07274501
16	0xbda7a40d	-0.08185587
17	0x3dab0d9e	0.08352207
18	0xbd1b04ed	-0.037846494
19	0xbd6071e3	-0.05479611
20	0xbe0b54b7	-0.13606535
21	0x3e2074ed	0.15669604
22	0x3ea059de	0.31318563
23	0x3ea7fb8a	0.32809097
24	0xbcca7e10	-0.024718314
25	0xbe763405	-0.24043281
26	0xbe58b552	-0.21162918
27	0x3d7273df	0.059192535
28	0xbe4e0c82	-0.20121959
29	0x3ed939ec	0.42427003
30	0xbd7792d9	-0.06044278
31	0xbd9315c2	-0.07181884

worker.f_stateW.0.weight f4 [128, 64]
0	0x3d7baa15	0.0614415
1	0x3d47521c	0.04866229
2	0xbd59aa88	-0.053141147
3	0xbd1f5c16	-0.03890618
4	0xbdb177ec	-0.086654514
5	0x3d5e5b0f	0.05428606
6	0xbc314040	-0.010818541
7	0xbe50ce1a	-0.20391122
8	0x3dc525c3	0.09626343
9	0xbdaa4025	-0.08313016
10	0xbb32c1c4	-0.0027276138
11	0xbba7f924	-0.0051261354
12	0xbc417b49	-0.011809179
13	0x3cdb560a	0.026774425
14	0x3e06c2ac	0.13160199
15	0xbcf2064b	-0.029544016
16	0x3dbc46c5	0.09193186
17	0xbbc00379	-0.005859789
18	0x3e6ac796	0.22927698
19	0xbdb88988	-0.09010607
20	0xbde60d88	-0.1123305
21	0xbdf980e5	-0.12182788
22	0xbd08c335	-0.03338929
23	0x3caef1f8	0.021355614
24	0x3e5c36ed	0.21505328
25	0xbdc28091	-0.09497178
26	0x3e1b0b8f	0.15141128
27	0xbdf9914e	-0.12185918
28	0xbcf3636f	-0.0297105
29	0xbd0402ac	-0.03222911
30	0x3d9a4dd8	0.07534379
31	0x3d390d2f	0.04517859
32	0x3dc92cd3	0.09823003
33	0x3d4d31ff	0.050096508
34	0x3b945677	0.004526909
35	0x3c93aacd	0.01802578
36	0xbce367a5	-0.027759383
37	0xbcbdfed9	-0.02319281
38	0x3d89a449	0.06720788
39	0xbd93d564	-0.072184354
40	0xbe18e050	-0.14929318
41	0x3d770f94	0.06031759
42	0x3da68f75	0.08132831
43	0x3b0b7e5c	0.0021285033
44	0xbd4b3ed0	-0.04962045
45	0x3d13624f	0.035982426
46	0xbb5e25a2	-0.0033896943
47	0x3d6091fc	0.05482672
48	0xbd5f1a88	-0.05446866
49	0xbdfdddcf	-0.12395822
50	0x3d774c29	0.060375366
51	0x3d81e0fa	0.06341739
52	0x3dfa3399	0.12216873
53	0xbd807407	-0.062721305
54	0x3d5faec2	0.05461002
55	0xbe1dce08	-0.15410626
56	0xbc4bbf31	-0.01243572
57	0x3ced1016	0.028938334
58	0xbe172105	-0.1475869
59	0x3c207239	0.009792858
60	0x3c907fb6	0.017639022
61	0x3df9eab3	0.122029684
62	0x3d0d82e8	0.03454867
63	0xbcb830a4	-0.022484131
64	0x3d2d1309	0.04225448
65	0x3d0544c6	0.03253629
66	0xbe0f55c7	-0.13997565
67	0xbd4df499	-0.050282095
68	0xbdc02428	-0.09381896
69	0x3c92cdb2	0.017920349
70	0x3dc36123	0.09540012
71	0x3d1916e8	0.03737536
72	0x3de2b696	0.11069982
73	0x3d6e38b1	0.058159534
74	0x3cf16111	0.02946523
75	0xbde8b7ef	-0.113632075
76	0xbbb1e417	-0.0054288018
77	0xbdcdfdee	-0.10058199
78	0x3c93f6ed	0.01806208
79	0x3a3030d1	0.00067211414
80	0x3da26797	0.079299144
81	0x3d48d466	0.049030684
82	0xbd4a2300	-0.049349785
83	0x3d2e44e8	0.042546183
84	0x3d8ae04d	0.06781063
85	0xbb928db2	-0.004472458
86	0x3d88656d	0.066599704
87	0xbcddb39a	-0.02706318
88	0xbe898074	-0.26855814
89	0xbdcc52b2	-0.099767104
90	0x3dacddd2	0.08440746
91	0xbdcb358b	-0.09922322
92	0x3ca712b6	0.020394664
93	0x3e20f0a6	0.157168
94	0x3ce816a6	0.028331112
95	0xbd984b68	-0.074362576
96	0xbdbc9f87	-0.09210115
97	0xbdbb1a59	-0.09135885
98	0xbc0e5900	-0.008688211
99	0xbaed362c	-0.001809781
100	0xbd23dbf0	-0.04000467
101	0xbdb26de7	-0.087123685
102	0x3cc7e1c8	0.024399653
103	0xbdaa148f	-0.083047025
104	0x3d2e4feb	0.042556684
105	0xbdecc3e1	-0.115607984
106	0xbd12e1ae	-0.035859756
107	0x3da6187c	0.08110139
108	0x3c00080f	0.007814421
109	0x3da5f581	0.08103467
110	0xbe36d9af	-0.17856477
111	0xbdd8bd23	-0.1058295
112	0x3e368f73	0.17828159
113	0x3ba9cfca	0.005182241
114	0x3dc7e555	0.097605385
115	0xbe0de98c	-0.13858622
116	0x3e14decd	0.14538117
117	0x3c17743b	0.00924402
118	0xbdc24b50	-0.09487021
119	0x3e16c6c8	0.14724267
120	0x3d089d14	0.033352926
121	0x3de7105a	0.11282416
122	0x3dd89d2a	0.10576852
123	0x3e01304c	0.1261608
124	0x3c10f38f	0.008847131
125	0x3dc8438f	0.09778511
126	0x3d9225a1	0.071360834
127	0xbd948afb	-0.07253071
128	0xbc4148ce	-0.011797143
129	0xbc94797e	-0.018124338
130	0xbe0acc62	-0.13554528
131	0x3e28e914	0.16495162
132	0xbdc82845	-0.09773306
133	0xbd0039b9	-0.03130505
134	0xbdde6f45	-0.10861067
135	0x3cbb9b74	0.022901274
136	0x3de03ccb	0.10949095
137	0xbc9db01d	-0.019249016
138	0x3d887830	0.06663549
139	0xbde328e5	-0.110917844
140	0xbd8f6dc5	-0.07003359
141	0x3d1d0422	0.03833402
142	0xbc9b97cb	-0.018993279
143	0xbd40b63c	-0.047048792
144	0xbe50e8f9	-0.20401372
145	0xbd657e0f	-0.056028422
146	0xbd17759a	-0.036977388
147	0xbddb9f50	-0.10723746
148	0x3d9da630	0.076977134
149	0x3d5545c3	0.052068483
150	0x3b7ad467	0.0038273574
151	0x3e254b96	0.16142115
152	0x3deff6c0	0.11716986
153	0x3d8779a7	0.06615
154	0x3d273757	0.04082426
155	0x3c8beb2e	0.017079916
156	0x3d575f9b	0.05258141
157	0xbc732395	-0.014840026
158	0x3b086049	0.0020809344
159	0x3db8055f	0.089853995
160	0xbddd6211	-0.1080972
161	0xbd9c1904	-0.07621959
162	0xbe533764	-0.20626599
163	0xbcd3d6d9	-0.025859283
164	0xbd479890	-0.04872948
165	0x3cb11c01	0.021619799
166	0x3a71a0ed	0.00092174
167	0x3d0d8016	0.03454598
168	0xbd87a5d4	-0.06623426
169	0x3d3921d8	0.04519829
170	0xbc88720f	-0.01665595
171	0x3dc73af2	0.0972804
172	0xbdd80357	-0.10547512
173	0x3d2cfdb7	0.04223415
174	0x3db99371	0.09061325
175	0xbdac8f45	-0.08425764
176	0x3d48b1a7	0.048997547
177	0x3dae6288	0.08514887
178	0x3dff911e	0.12478851
179	0x3c97efa3	0.018546885
180	0x3d97af37	0.074064665
181	0xbd0cdc35	-0.034389693
182	0xbe2ecd1c	-0.1707043
183	0xbe020825	-0.1269842
184	0x3d29616f	0.041352686
185	0xbce06344	-0.027391084
186	0x3d49ad75	0.049237687
187	0x3cae6ee2	0.021293107
188	0xbd755f0f	-0.059905108
189	0xbdb35ece	-0.08758317
190	0x3d40476e	0.04694312
191	0x3e269dc6	0.16271123
192	0xbe0e9b7d	-0.13926502
193	0xbc89f15b	-0.01683872
194	0x3de98fd9	0.1140439
195	0x3da0d4ee	0.07853113
196	0xbd862bd0	-0.06551325
197	0xbdf12978	-0.11775488
198	0xbdb907de	-0.09034704
199	0xb7cacb48	-2.4174937e-05
200	0x3c0ec2cf	0.008713438
201	0xbd39c5d9	-0.045354698
202	0x3d791d2e	0.060818844
203	0xbe1803ce	-0.14845201
204	0xbe10f2f8	-0.14155185
205	0xbd84d7ac	-0.06486449
206	0xbdb98a24	-0.09059551
207	0x3e4aa023	0.1978765
208	0xbcfec8d7	-0.031101627
209	0x3d08c614	0.033392027
210	0xbe0a0bf3	-0.13481121
211	0x3c5a44fd	0.013322112
212	0xbe2f20eb	-0.17102401
213	0xbcecf646	-0.028926026
214	0xbe3c1037	-0.1836556
215	0xbd5b0762	-0.053473838
216	0xbdc6a5fa	-0.09699626
217	0xbd7be621	-0.061498765
218	0x3d4f4986	0.050607227
219	0xbe2ef780	-0.17086601
220	0xbd8aa3cb	-0.06769522
221	0x3d6b72f3	0.05748267
222	0x3d183ec2	0.037169226
223	0xbd522d67	-0.05131283
224	0x3d47ae12	0.04874999
225	0x3cde9db6	0.027174812
226	0x3daa3717	0.08311289
227	0x3e045df9	0.12926473
228	0x3bf53ed0	0.0074842945
229	0x3dd288e5	0.10280017
230	0x3cee8e50	0.029120594
231	0x3dac6c6e	0.08419119
232	0x3c4a6827	0.012353933
233	0x3b98a839	0.0046587256
234	0x3df480b8	0.11938614
235	0xbe1373f2	-0.14399698
236	0xbe197649	-0.14986528
237	0x3db16a22	0.08662821
238	0x3d670d6d	0.05640929
239	0x3bb13754	0.005408207
240	0xbe3ec955	-0.1863149
241	0x3d201544	0.03908278
242	0x3cebba4e	0.02877536
243	0xbcdf4acd	-0.027257347
244	0xbde4f209	-0.11178977
245	0xbd2358c8	-0.03987959
246	0xbbbe9cac	-0.0058170166
247	0xbddc3f05	-0.107542075
248	0xbdaf1fe6	-0.08551006
249	0x3d6aef48	0.057357103
250	0xbd3ec0a5	-0.04657044
251	0xbcf8a7bd	-0.030353421
252	0x3cc53d67	0.02407713
253	0xbe28cd6f	-0.16484617
254	0x3cae347f	0.021265266
255	0xbe28df93	-0.16491537
