vwgym/saved_model/vwgym_f_net_step_300000.pt (torch_old, 758073 bytes, 51 tensors)

f_percept.percept.0.weight f4 [16, 3, 3, 3]
-0.030569613 0.21728864 0.05052336 -0.056552023 0.32130453 0.18402924 0.2634463 -0.25977236
0.04418176 0.02979638 -0.2213949 -0.2236078 -0.23329338 0.16781624 0.23508164 0.18995468
-0.34809795 -0.33204222 0.20183489 -0.02672096 0.0928667 -0.19890513 -0.19193418 -0.14501907
0.13970503 0.050606832 0.05547632 -0.33832443 0.15212639 -0.26384357 -0.2510111 -0.20344141
-0.21621868 -0.1434751 0.09044047 0.24852094 -0.06750045 -0.018197928 -0.09002401 -0.13082026
-0.15003355 0.08807405 0.29083058 0.08102953 -0.29280615 -0.066443846 0.4050586 0.08208475
0.095814325 0.30364677 -0.052259788 0.19155805 0.022734134 -0.015456847 -0.037029825 -0.46633774
0.020329274 -0.35470948 0.05299382 0.32544962 -0.14225776 0.03879908 0.04264676 -0.079865
0.1091806 0.16316743 -0.26760358 -0.114887714 -0.062168255 -0.42334747 -0.04104103 -0.3254233
0.07905134 -0.095888026 0.14663997 -0.08971645 0.19458559 0.029383013 0.070972376 0.07242863
0.13406137 -0.051664665 -0.048184007 -0.07108332 0.16652372 -0.10941947 -0.07727159 -0.08732076
-0.24777961 0.26364598 -0.4225289 0.20831244 0.012653638 0.15595664 -0.017035302 -0.36116648
-0.049403533 -0.17643315 0.025741868 0.036074586 -0.06772727 -0.09914531 -0.046492904 -0.25288865
-0.048614193 0.5302342 0.15530223 -0.043479223 -0.0041313074 -0.3641901 -0.12492528 0.35431173
0.032824162 -0.328881 0.18649286 0.212696 0.0131810745 0.008648992 0.16830601 -0.22063504
-0.043950345 0.109058015 0.04327849 0.07043794 0.003354124 -0.31406295 -0.036870893 -0.23837805
-0.11905816 -0.33813423 0.22460692 -0.024228638 -0.029424023 -0.14213724 -0.29265088 -0.20496264
0.08262678 -0.10089989 -0.1156897 -0.02935611 -0.3952857 0.11571923 0.15072227 -0.08429018
-0.008030336 0.1416971 0.05052407 0.035870053 -0.037626024 0.2661095 -0.15574636 -0.25445583
0.35056612 0.33757567 -0.20792155 0.27162868 -0.12373973 0.089673616 0.20683749 0.1720798
-0.070252165 0.30041283 -0.16333552 -0.0146 -0.20685016 0.20133987 0.31879842 -0.075778335
0.15371247 -0.17251313 0.055966824 -0.117761336 -0.11064062 0.40571448 -0.06757347 -0.080793194
0.010094976 0.0804632 0.09101341 -0.2284118 -0.13499743 -0.14789972 0.0045503355 0.32330522
-0.096667826 0.5268087 -0.03655735 -0.15366848 0.038056936 -0.06574487 -0.036713153 -0.10526713
0.054404948 -0.2686586 0.37135556 0.046672318 -0.32152098 0.20490602 -0.08078626 -0.112871304
-0.25783825 0.31454355 -0.060236793 0.2622223 -0.011107769 0.29130557 0.06787597 -0.14667761
-0.17249383 0.19774954 -0.23526365 0.11493713 0.14693645 0.048517466 -0.29466075 0.105121285
0.15047173 0.0027821767 0.19843338 0.007419957 -0.24894324 -0.23091535 -0.007803666 -0.281159
0.23007725 0.006758189 -0.07425248 -0.23578753 -0.15773377 -0.0049921274 -0.07553749 -0.15203325
-0.42384857 0.0122812 -0.2724741 -0.097817205 0.28140783 0.23520684 0.17390455 0.17149495
-0.2840085 0.12248068 -0.14762363 0.1640437 -0.028687393 -0.25018477 -0.14567164 0.069950946
-0.39585042 -0.23377907 -0.4339487 0.052345317 0.13538489 -0.11846059 0.15777549 0.035091136
00000000: 206d fabc ea80 5e3e 95f1 4e3d 18a3 67bd
00000010: 0782 a43e 2972 3c3e 6fe2 863e e200 85be
00000020: eff7 343d 8a17 f43c 58b5 62be 71f9 64be
00000030: 76e4 6ebe 05d8 2b3e 3eb9 703e 7b83 423e
00000040: e539 b2be 7001 aabe cead 4e3e eae5 dabc
00000050: e530 be3d c9ad 4bbe 658a 44be e17f 14be
00000060: d60e 0f3e 1c49 4f3d 233b 633d dc38 adbe
00000070: 05c7 1b3e 8116 87be 8784 80be f252 50be
00000080: 6e68 5dbe 23eb 12be da38 b93d 467c 7e3e
00000090: ad3d 8abd d213 95bc 825e b8bd bff5 05be
000000a0: 65a2 19be 2b60 b43d bfe7 943e cff2 a53d
000000b0: b0ea 95be b613 88bd d763 cf3e 0d1c a83d
000000c0: 4d3a c43d 9777 9b3e 5c0e 56bd cb27 443e
000000d0: ef3c ba3c b73e 7dbc 96ac 17bd d2c3 eebe
000000e0: 9489 a63c 7b9c b5be 0c10 593d 55a1 a63e
000000f0: 05ac 11be c9eb 1e3d 5eae 2e3d 4390 a3bd
00000100: 149a df3d 5d15 273e 5603 89be 404a ebbd
00000110: 24a4 7ebd 00c1 d8be a41a 28bd e29d a6be
00000120: abe5 a13d f160 c4bd ca28 163e 42bd b7bd
00000130: 7241 473e a5b4 f03c f759 913d 7655 943d
00000140: 6247 093e 549e 53bd 985c 45bd 2294 91bd
00000150: 3285 2a3e 5117 e0bd 9140 9ebd 3ad5 b2bd
00000160: f0b9 7dbe 9bfc 863e b555 d8be db4f 553e
00000170: 3451 4f3c 19b3 1f3e 9e8d 8bbc d0ea b8be
00000180: 5c5b 4abd e4aa 34be 9ce0 d23c f2c2 133d
00000190: 98b4 8abd b20c cbbd 586f 3ebd 9f7a 81be
000001a0: ad1f 47bd 6ebd 073f 8c07 1f3e 4517 32bd
000001b0: eb5f 87bb 2077 babe d3d8 ffbd 5968 b53e
000001c0: a172 063d 1763 a8be fcf7 3e3e fbcc 593e
000001d0: 6ff5 573c 80b4 0d3c 6958 2c3e 27ee 61be
000001e0: 4705 34bd cf59 df3d c944 313d c441 903d
000001f0: ddd0 5b3b dccc a0be ef05 17bd 6019 74be
00000200: c4d4 f3bd ee1f adbe 5bff 653e 237b c6bc
00000210: a60a f1bc 6d8c 11be 56d6 95be bae1 51be
00000220: 3b38 a93d 9aa4 cebd b9ee ecbd 3a7c f0bc
00000230: e362 cabe 34fe ec3d f056 1a3e 54a0 acbd
00000240: ac91 03bc 0b19 113e 54f2 4e3d 7aec 123d
00000250: bf1d 1abd 813f 883e f97b 1fbe 0948 82be
00000260: 677d b33e b8d6 ac3e 63e9 54be ea12 8b3e
00000270: 416b fdbd cda6 b73d 35cd 533e b035 303e
00000280: 5ee0 8fbd b6cf 993e 6d41 27be d734 6fbc
00000290: 87d0 53be 0a2c 4e3e 8c39 a33e ac31 9bbd
000002a0: cd66 1d3e 48a7 30be 783d 653d db2c f1bd
000002b0: 8d97 e2bd cfb9 cf3e f663 8abd e776 a5bd
000002c0: 6665 253c e4c9 a43d 3d65 ba3d c8e4 69be
000002d0: c43c 0abe 0673 17be fb1a 953b 4388 a53e
000002e0: c8f9 c5bd efdc 063f 29bd 15bd 455b 1dbe
000002f0: 97e1 1b3d 3fa5 86bd 8860 16bd 4b96 d7bd
00000300: b9d7 5e3d 9f8d 89be 5122 be3e 792b 3f3d
00000310: 669e a4be e2d2 513e 4473 a5bd 1229 e7bd
00000320: 6003 84be da0b a13e dbba 76bd 0042 863e
00000330: 5cfd 35bc 0126 953e 8e02 8b3d a832 16be
00000340: 39a2 30be db7e 4a3e f4e8 70be 2864 eb3d
00000350: 8276 163e 40ba 463d c6dd 96be d449 d73d
00000360: 4315 1a3e 2e55 363b 1f32 4b3e 1c23 f33b
00000370: faea 7ebe 1375 6cbe e5b5 ffbb 13f4 8fbe
00000380: 5f99 6b3e cc73 dd3b af11 98bd 4972 71be
00000390: f684 21be 0095 a3bb 66b3 9abd 9bae 1bbe
000003a0: ae02 d9be 1637 493c ba81 8bbe 6354 c8bd
000003b0: b014 903e 10da 703e 0914 323e 5f9c 2f3e
000003c0: 9069 91be 27d7 fa3d a62a 17be 12fb 273e
000003d0: d301 ebbc 3818 80be f22a 15be 7142 8f3d
000003e0: e8ac cabe c863 6fbe 862e debe 0b68 563d
000003f0: 56a2 0a3e 779b f2bd e68f 213e b9bb 0f3d

f_percept.percept.0.bias f4 [16]
0.003193139 0.005958618 0.0073311254 0.004958188 -0.0011210368 -0.0021232194 -0.0027088674 0.0031831947
0.006028026 -0.00063379074 0.0050571035 -0.0049905526 0.0024468969 -0.0017124444 -0.00076825346 -0.002041611
00000000: fc43 513b 8340 c33b f039 f03b 4c78 a23b
00000010: c1ef 92ba b625 0bbb 4187 31bb 259d 503b
00000020: bf86 c53b fa24 26ba 0fb6 a53b ca87 a3bb
00000030: 1e5c 203b 1974 e0ba 9e64 49ba 8ccc 05bb

f_percept.percept.3.weight f4 [64, 576]
0.021051388 -0.044891234 0.008580753 -0.056535225 -0.03305255 0.008241992 -0.0031058819 0.06789406
-0.027241085 0.042032637 -0.058667574 -0.07168365 -0.03530067 -0.011121858 0.02331968 0.024465274
-0.032889925 0.032464188 0.046767086 0.01651329 0.055770222 -0.015347867 -0.048706923 -0.05824189
0.038261827 -0.007023743 0.011731606 0.0054637757 0.015193472 0.049231976 -0.03573356 -0.027621124
-0.0019643516 -0.039556067 -0.042041346 -0.008907209 -0.004255521 0.059931803 -0.029330347 0.014811739
0.021414982 0.0038155252 0.016766934 0.046106815 -0.01179016 -0.02480826 0.031840354 0.03370814
-0.016825644 -0.024075 0.03395752 -0.019653743 -0.101150066 0.08477057 0.050177123 0.057067882
-0.02307513 0.004943162 -0.031463835 -0.019323869 -0.079620734 -0.06453593 -0.0015356963 -0.018791704
0.040923152 -0.03936997 -0.02297831 0.037232313 -0.008060201 -0.026492195 -0.06636532 -0.04153726
-0.015783811 -0.009460756 0.053350694 -0.01873832 -0.0061761215 0.098295026 -0.047335535 0.0068820845
0.10916225 0.04759372 0.059027627 -0.06499436 0.021250762 -0.06036089 -0.035943095 0.031417426
-0.0065801805 -0.051932223 -0.022138208 0.007874885 -0.008937935 -0.03430117 -0.023748087 -0.040157937
-0.03342844 -0.035810508 -0.00870111 -0.026258314 0.018603317 0.02832217 0.023164852 -0.050323278
-0.0066588265 -0.0074772853 0.03642143 0.05221907 0.010953708 0.016888283 -0.043687653 -0.01701552
0.035598233 0.03273493 -0.046577368 -0.009701861 0.026158947 0.03171101 -0.06097938 0.003763612
-0.003227198 -0.092648916 0.002347081 0.025066612 0.0060111186 -0.04602063 -0.072189145 -0.04008372
-0.009077915 0.031972222 -0.08776536 -0.004954221 -0.01052259 -0.03708219 -0.0043719164 -0.0559229
0.0262958 0.0059521846 0.0061846967 -0.028167233 -0.065134875 -0.001205496 0.04711341 0.0180282
0.006019063 0.025741827 -0.02325407 -0.026694037 -0.009957988 0.012143516 -0.027320288 -0.021781387
-0.04610137 0.044464234 0.013758153 0.024840305 -0.035521053 -0.015726777 0.036937296 -0.0116753215
-0.064322256 0.0038781094 -0.0425018 -0.0006799843 -0.1608794 -0.04647376 -0.03844594 -0.0512811
-0.023441946 0.0263176 -0.024036715 -0.07063298 -0.060557473 -0.027961431 -0.017350245 -0.02367449
0.017495826 -0.08797104 0.046115756 -0.007240567 -0.02552444 -0.013559873 0.07386772 0.06445194
0.027906196 0.015683219 0.01937814 -0.020739326 -0.027921226 -0.058891844 -0.022304052 -0.055434972
-0.041793406 -0.07810858 -0.058394454 0.008238095 -0.027776796 -0.004696976 -0.053946413 -0.019001976
-0.02551021 0.02351532 0.018517774 0.0019229152 0.03201595 -0.029439673 0.06767423 -0.028832456
0.020492742 0.046240002 -0.03882762 -0.045883223 -0.033045687 0.026435968 0.022951322 -0.09349981
-0.014695059 -0.013958229 0.020526452 0.032021195 -0.07687849 -0.011145926 -0.002302099 -0.007130887
0.011069527 0.0013028887 -0.008434997 0.090670645 -0.026039893 0.051301043 0.04681828 0.0094981175
-0.00047234926 -0.018432664 -0.004965057 0.04248671 0.016814874 -0.009864536 0.05058845 -0.0005815657
-0.043458365 -0.055208415 0.055641726 0.031875715 -0.027684076 -0.039575268 -0.013610572 -0.0017786624
-0.00568853 -0.0111767175 0.00512066 -0.02481698 0.022680104 -0.04227552 -0.016310148 -0.009812345
00000000: f673 ac3c dfdf 37bd 4996 0c3c 7b91 67bd
00000010: 1c62 07bd 6c09 073c 0d8c 4bbb 0a0c 8b3d
00000020: b228 dfbc 6a2a 2c3d 694d 70bd e1ce 92bd
00000030: 6f97 10bd 7438 36bc ea08 bf3c 666b c83c
00000040: 96b7 06bd 2bf9 043d d88e 3f3d e146 873c
00000050: 516f 643d 9f75 7bbc e980 47bd 0c8f 6ebd
00000060: 6fb8 1c3d 6d27 e6bb ec35 403c 7909 b33b
00000070: 0aee 783c 78a7 493d 5a5d 12bd b245 e2bc
00000080: 5abc 00bb 8b05 22bd 8c33 2cbd 8bef 11bc
00000090: e671 8bbb 0d7b 753d 3246 f0bc f0ac 723c
000000a0: 796e af3c e40d 7a3b cf5a 893c 80da 3c3d
000000b0: 842b 41bc b13a cbbc 086b 023d 8c11 0a3d
000000c0: efd5 89bc ef38 c5bc 0a17 0b3d e300 a1bc
000000d0: c427 cfbd 319c ad3d 8786 4d3d 03c0 693d
000000e0: 0e08 bdbc 40fa a13b 39e0 00bd 174d 9ebc
000000f0: 3210 a3bd 6a2b 84bd 6b49 c9ba 0ff1 99bc
00000100: 099f 273d 6842 21bd 023d bcbc e980 183d
00000110: ef0e 04bc 2906 d9bc 8aea 87bd f922 2abd
00000120: 0d4d 81bc 4901 1bbc 4286 5a3d 1b81 99bc
00000130: 1061 cabb e74e c93d e8e2 41bd 1c83 e13b
00000140: 7590 df3d a2f1 423d f4c6 713d c31b 85bd
00000150: 1416 ae3c fb3c 77bd 1139 13bd 8faf 003d
00000160: 8e9e d7bb e2b6 54bd 305b b5bc a905 013c
00000170: 6b70 12bc 627f 0cbd 598b c2bc a67c 24bd
00000180: 43ec 08bd 0aae 12bd 1a8f 0ebc ad1b d7bc
00000190: fc65 983c e503 e83c 37c4 bd3c c81f 4ebd
000001a0: 4932 dabb 0404 f5bb a32e 153d aae3 553d
000001b0: 2e77 333c 4c59 8a3c d3f1 32bd 2264 8bbc
000001c0: 74cf 113d 1015 063d e9c7 3ebd 8ef4 1ebc
000001d0: 4a4b d63c 67e3 013d 84c5 79bd eea6 763b
000001e0: 667f 53bb b7be bdbd 7cd1 193b 7f58 cd3c
000001f0: ebf8 c43b 2180 3cbd e7d7 93bd d42e 24bd
00000200: 89bb 14bc 4ef5 023d 53be b3bd 0557 a2bb
00000210: f166 2cbc 7fe3 17bd 4b42 8fbb 690f 65bd
00000220: 4a6a d73c 8b0a c33b ffa8 ca3b f8be e6bc
00000230: 6f65 85bd bc01 9eba fef9 403d e0af 933c
00000240: 8f3b c53b 86e0 d23c 527f bebc 74ad dabc
00000250: d426 23bc 99f5 463c ccce dfbc e16e b2bc
00000260: cad4 3cbd 2120 363d e069 613c e57d cb3c
00000270: 867e 11bd 71d5 80bc 904b 173d d949 3fbc
00000280: 63bb 83bd e127 7e3b 5e16 2ebd f940 32ba
00000290: 92bd 24be 455b 3ebd 7d79 1dbd 210c 52bd
000002a0: 5309 c0bc 0298 d73c a5e8 c4bc 06a8 90bd
000002b0: 1d0b 78bd 5f0f e5bc 1a22 8ebc 01f1 c1bc
000002c0: 6853 8f3c 292a b4bd e0e3 3c3d 4742 edbb
000002d0: a118 d1bc 3b2a 5ebc f647 973d 61ff 833d
000002e0: 899b e43c 187a 803c e8be 9e3c 85e5 a9bc
000002f0: 0ebb e4bc 9338 71bd fdb6 b6bc c80f 63bd
00000300: 902f 2bbd 64f7 9fbd 062f 6fbd 13f9 063c
00000310: 2a8c e3bc 17e9 99bb eaf6 5cbd 08aa 9bbc
00000320: cafa d0bc 33a3 c03c 96b2 973c 540a fc3a
00000330: 2823 033d 782b f1bc c998 8a3d 0b32 ecbc
00000340: 65e0 a73c 2866 3d3d b609 1fbd 0cf0 3bbd
00000350: ea5a 07bd 3e90 d83c 6904 bc3c d47c bfbd
00000360: 8bc3 70bc 0eb1 64bc 1727 a83c a828 033d
00000370: 7872 9dbd 679d 36bc d0de 16bb 37aa e9bb
00000380: f65c 353c b1c5 aa3a f132 0abc 88b1 b93d
00000390: 9d51 d5bc 0b21 523d 86c4 3f3d fe9d 1b3c
000003a0: a5a5 f7b9 1900 97bc ebb1 a2bb 8b06 2e3d
000003b0: 59bf 893c dd9e 21bc d635 4f3d 3774 18ba
000003c0: 6601 32bd 3822 62bd 94e8 633d 1c90 023d
000003d0: b7c9 e2bc ad19 22bd e0fe 5ebc 0222 e9ba
000003e0: d966 babb 8d1e 37bc 36cb a73b fb4c cbbc
000003f0: a0cb b93c 1829 2dbd dc9c 85bc f5c3 20bc

f_percept.percept.3.bias f4 [64]
0.0012393709 -0.0038840114 -0.0045820475 0.004823155 -0.00059949013 0.0017682507 0.0011733047 -0.0029630514
-0.004920473 0.0062989877 0.00069026195 -0.0029929683 -0.00661681 0.00348171 0.005877029 0.0010821063
0.0027416963 -0.0011922105 -0.002079096 0.0019453566 -0.0016491974 0.0006423456 0.0028412244 0.0009297019
0.0009778374 -0.0038524112 0.0012826583 -0.0029408273 0.0030089256 0.005025233 0.00051335455 0.0016997867
0.010996373 0.00021964604 -0.0019386392 0.00012481095 -0.00018366317 0.0003055419 -0.00023717455 -0.00017529281
0.0009745186 0.0014028858 0.0022622524 0.00012839973 -0.0012945501 -0.0026757387 0.0006742704 0.0015750977
-0.0037238742 0.0006667043 0.0018104807 0.0031024385 -0.0002758273 -0.004023056 0.001361089 -0.003636981
-0.0044959066 -0.0014398484 0.0030666983 0.0014897973 0.0056578508 -0.0029231296 -0.0053071254 -0.0059489
00000000: 6372 a23a e68a 7ebb 0025 96bb 8e0b 9e3b
00000010: 1a27 1dba a6c4 e73a 93c9 993a c12f 42bb
00000020: eb3b a1bb bd67 ce3b b2f2 343a ad25 44bb
00000030: d3d1 d8bb 672d 643b 1894 c03b 76d5 8d3a
00000040: 08ae 333b f243 9cba 7141 08bb 56fb fe3a
00000050: e229 d8ba 1563 283a d633 3a3b 3db7 733a
00000060: c72a 803a bc78 7cbb df1e a83a e5ba 40bb
00000070: 6531 453b b6aa a43b a492 063a 61cb de3a
00000080: 222a 343c c950 6639 f019 feba afdf 0239
00000090: b595 40b9 2431 a039 0fb2 78b9 cece 37b9
000000a0: d676 7f3a 09e1 b73a 4c42 143b 0aa3 0639
000000b0: e5ad a9ba 725b 2fbb 85c1 303a 8273 ce3a
000000c0: 3e0c 74bb c5c5 2e3a a74d ed3a 4852 4b3b
000000d0: ea9c 90b9 d7d3 83bb 9166 b23a 6a5a 6ebb
000000e0: 6652 93bb 4cb9 bcba a9fa 483b 4d45 c33a
000000f0: 7e65 b93b fa91 3fbb 65e7 adbb fdee c2bb

manager.M_space.weight f4 [64, 64]
0.19277014 -0.11769087 0.033544876 -0.11147664 -0.08010462 -0.074256174 0.015971802 -0.05273786
-0.13585839 0.0594843 0.028856361 0.15127297 -0.1851171 0.028364616 -0.028411757 0.15168743
0.018463695 0.24205264 0.08781344 0.21833049 -0.033908624 0.08415679 -0.14344913 0.22165942
0.03424683 0.0926317 -0.04855988 -0.010507776 0.063592516 -0.13638444 -0.029836062 -0.12575157
0.07407971 0.19289495 0.13178666 -0.3310347 -0.095691696 -0.07820559 0.088378474 0.02274785
-0.038543884 -0.28700635 -0.09367516 -0.09741871 -0.11925498 0.023802739 0.09384149 0.042752314
-0.095216215 0.026865793 -0.0618531 -0.10752886 0.19378704 0.061407305 0.26908186 0.090452544
0.15590404 0.0041241613 -0.14236623 0.048996717 -0.06547404 0.19952245 -0.09801197 0.09106513
-0.09518359 -0.06255318 -0.06350838 -0.0066878707 0.101205505 0.13975611 0.13002113 0.15795459
0.2624305 -0.041918363 0.19733894 0.13323233 -0.26230803 -0.15377942 0.15681063 0.092165634
-0.05222683 0.0008736936 0.026863653 -0.073849745 0.07119323 -0.047960296 0.007938717 -0.08514494
0.44818246 -0.19307016 -0.08089784 0.020419251 -0.053890254 -0.0833972 0.051054187 -0.22316797
-0.0008786982 0.045683056 -0.117377676 -0.052721754 -0.061764754 0.17884107 4.9751412e-05 -0.11332618
-0.104042836 0.12681977 0.0036615822 -0.09643496 0.15958141 -0.17380181 0.0883458 0.09456489
-0.04814615 -0.041851193 -0.11153198 0.13540944 -0.0053167217 -0.12870602 0.027421573 -0.13517675
0.00816647 0.06536799 -0.025595175 0.09696279 -0.20878053 0.047919195 -0.059792016 0.142311
-0.08537596 -0.07400201 0.20181155 0.17947239 0.20127858 0.079197794 0.15419775 -0.124229975
0.08235968 -0.21054141 -0.14521419 -0.15410145 -0.012228038 -0.034426436 0.08244649 0.03864406
-0.06402741 -0.012935869 -0.049174085 0.011431069 0.15949613 -0.017508281 0.28900465 -0.13690789
-0.111495525 0.24736902 0.015264551 0.028599681 -0.038652387 -0.06372968 0.0541945 -0.07547498
0.007529812 -0.08877769 -0.1362705 -0.094174415 0.033265486 0.078608565 0.16774239 0.070984595
-0.24719681 -0.12434261 -0.0061607314 -0.10237029 -0.047619686 -0.20337036 -0.10241679 -0.0495481
-0.22514209 -0.09970693 0.06463471 -0.19977146 0.026580274 -0.14260648 0.06380383 0.06161729
0.084758595 0.000850316 -0.025003185 -0.18263015 0.15101601 0.22601604 0.1671406 0.040654242
0.034486566 0.047770504 0.13615826 -0.15477501 -0.0012694228 -0.11738236 -0.07724244 -0.019429494
-0.2945453 -0.0016098866 0.08371033 -0.097942166 0.0572085 0.10242015 -0.2641532 -0.008496017
-0.07037344 0.21465743 -0.017100912 0.06424292 0.15177995 0.0028685762 0.15874568 -0.044208027
0.1975494 -0.056310214 0.05245186 0.20872878 0.19057733 0.07489243 0.10202779 -0.17040603
-0.032433037 0.11583599 -0.0651667 0.1443604 -0.14685845 -0.05828179 0.11041071 0.10735054
-0.14180024 -0.019895753 -0.1235177 -0.16432662 0.046930674 -0.01514026 -0.056695092 0.103095874
0.16953403 5.599646e-05 -0.020783799 -0.20896602 -0.14271502 -0.1306494 -0.19741571 -0.16181494
-0.25862205 0.17323479 -0.031338613 0.12907654 0.0070767137 0.018074466 0.05422482 0.034556407
00000000: 8965 453e e907 f1bd 5a66 093d dd4d e4bd
00000010: e40d a4bd 9f13 98bd 4cd7 823c a703 58bd
00000020: 761e 0bbe cfa5 733d 2d64 ec3c 4de7 1a3e
00000030: 568f 3dbe e95c e83c c6bf e8bc f353 1b3e
00000040: 2d41 973c a6dc 773e 88d7 b33d 0792 5f3e
00000050: c5e3 0abd 655a ac3d 54e4 12be b0fa 623e
00000060: 6746 0c3d b0b5 bd3d bae6 46bd cf28 2cbc
00000070: cb3c 823d 5da8 0bbe c26a f4bc 05c5 00be
00000080: 1ab7 973d 4186 453e 15f3 063e 617d a9be
00000090: 02fa c3bd 412a a0bd c6ff b43d b359 ba3c
000000a0: 31e0 1dbd 7ff2 92be c3d8 bfbd 7683 c7bd
000000b0: f43b f4bd f6fd c23c f82f c03d 0d1d 2f3d
000000c0: b800 c3bd a715 dc3c ad59 7dbd 1738 dcbd
000000d0: 1c70 463e 3a86 7b3d 19c5 893e 2f3f b93d
000000e0: 4fa5 1f3e f923 873b 74c8 11be c8b0 483d
000000f0: 4117 86bd 9d4f 4c3e 80ba c8bd 5b80 ba3d
00000100: 9def c2bd e21b 80bd ae10 82bd ed25 dbbb
00000110: d544 cf3d 3a1c 0f3e 4224 053e d9be 213e
00000120: 4a5d 863e 97b2 2bbd 3813 4a3e 0e6e 083e
00000130: 3d4d 86be 5a78 1dbe f792 203e 56c1 bc3d
00000140: cdeb 55bd 9608 653a 2a11 dc3c 893e 97bd
00000150: c2cd 913d 0472 44bd 6411 023c 7860 aebd
00000160: 2c78 e53e 2fb4 45be c4ad a5bd 4646 a73c
00000170: 07bc 5cbd 27cc aabd 321e 513d 2586 64be
00000180: 7058 66ba 281e 3b3d b563 f0bd c4f2 57bd
00000190: 0afd 7cbd 1d22 373e 2cac 5038 8e17 e8bd
000001a0: 6914 d5bd 0bdd 013e 28f7 6f3b b17f c5bd
000001b0: 4f69 233e 1af9 31be a5ee b43d 3dab c13d
000001c0: e634 45bd 286c 2bbd e16a e4bd c6a8 0a3e
000001d0: e537 aebb 83cb 03be 35a3 e03c c66b 0abe
000001e0: a8cc 053c a7df 853d f9ac d1bc 6d94 c63d
000001f0: 90ca 55be eb46 443d 79e8 74bd fab9 113e
00000200: 97d9 aebd 5e8e 97bd b0a7 4e3e 9cc7 373e
00000210: f91b 4e3e 7432 a23d 04e6 1d3e 496c febd
00000220: 31ac a83d 2b98 57be 07b3 14be c5cc 1dbe
00000230: 1c58 48bc bc02 0dbd b5d9 a83d 3c49 1e3d
00000240: cd20 83bd f8f0 53bc c46a 49bd 6149 3b3c
00000250: f452 233e 876d 8fbc 6bf8 933e 9531 0cbe
00000260: c457 e4bd 4e4e 7d3e 2b18 7a3c e149 ea3c
00000270: f751 1ebd b584 82bd 0dfb 5d3d a092 9abd
00000280: a4bc f63b 14d1 b5bd 7e8a 0bbe 84de c0bd
00000290: 6441 083d 87fd a03d a9c4 2b3e 5f60 913d
000002a0: 2921 7dbe 57a7 febd f6df c9bb 84a7 d1bd
000002b0: dc0c 43bd 5240 50be e5bf d1bd f3f2 4abd
000002c0: a68b 66be 2633 ccbd 345f 843d e490 4cbe
000002d0: e0be d93c 6f07 12be 95ab 823d 6962 7c3d
000002e0: ea95 ad3d bee7 5e3a 7bd3 ccbc 6603 3bbe
000002f0: f1a3 1a3e c070 673e e826 2b3e 1085 263d
00000300: c941 0d3d 01ab 433d 126d 0b3e 577d 1ebe
00000310: c362 a6ba 2a66 f0bd 4931 9ebd 9a2a 9fbc
00000320: a4ce 96be d502 d3ba 5270 ab3d e795 c8bd
00000330: 7653 6a3d a8c1 d13d 173f 87be e132 0bbc
00000340: f31f 90bd 28cf 5b3e 3617 8cbc cb91 833d
00000350: 346c 1b3e b9fe 3b3b 3a8e 223e 7a13 35bd
00000360: 644a 4a3e 8aa5 66bd c3d7 563d ffbc 553e
00000370: b426 433e 3461 993d f2f3 d03d eb7e 2ebe
00000380: 81d8 04bd 6b3b ed3d 1e76 85bd 36d3 133e
00000390: 1062 16be e3b8 6ebd 031f e23d 9ada db3d
000003a0: 1534 11be 6bfc a2bc d9f6 fcbd 3d45 28be
000003b0: 613a 403d da0e 78bc 1d39 68bd ee23 d33d
000003c0: 549a 2d3e bedd 6a38 c942 aabc 30fb 55be
000003d0: e323 12be f5c8 05be 5827 4abe d1b2 25be
000003e0: 1c6a 84be 7664 313e eb5c 00bd a42c 043e
000003f0: c7e3 e73b e710 943c d81a 5e3d 058b 0d3d

manager.M_space.bias f4 [64]
-0.00060246495 0.004414601 -0.0014606632 -0.0030817953 -0.010292405 -0.0041688466 -0.00213557 -0.002250304
-0.0058801835 -0.0020572098 -0.0025603774 -0.0009856835 -0.0024091692 0.0019201563 -0.0004774922 0.0011483838
0.002837359 0.0038348832 -0.007134328 0.00018580459 0.000769573 0.0011939601 0.0002748653 0.0014804959
0.003724817 0.0031695652 -0.0024953354 -0.00034829084 7.43651e-05 -0.002445945 -0.0073992675 -0.0006815105
0.0069711125 -0.00083479343 -0.003389336 0.0042142407 -0.0018927903 -0.0033349271 -0.002947843 0.001387024
-0.0030262785 0.012220022 -0.0011999249 0.0010723559 0.0029284612 -0.005493723 -0.0026339728 -0.00023801907
-0.001400522 0.0039742147 0.0024882874 -0.00059122744 -0.00038829056 -7.541167e-05 -0.0022895492 -0.0047136694
-0.001881758 -0.0065557873 0.0030148178 -0.003499606 -0.00052690564 0.00057008996 -0.004780178 -0.004348436
00000000: bdee 1dba 5ba8 903b b973 bfba f2f7 49bb
00000010: 7aa1 28bc d29a 88bb ebf4 0bbb d679 13bb
00000020: 8eae c0bb 41d2 06bb 01cc 27bb 0d32 81ba
00000030: 27e3 1dbb c1ad fb3a eb57 fab9 5e85 963a
00000040: fcf2 393b aa52 7b3b 15c7 e9bb 8ad4 4239
00000050: 2bbd 493a a77e 9c3a cc1b 9039 330d c23a
00000060: 0f1c 743b 7bb8 4f3b c888 23bb ce9a b6b9
00000070: 76f4 9b38 264c 20bb 8e75 f2bb 65a7 32ba
00000080: ee6d e43b 0ad6 5aba 9f1f 5ebb 9d17 8a3b
00000090: 8117 f8ba cb8e 5abb 9930 41bb cdcc b53a
000000a0: 8754 46bb 7d36 483c cc46 9dba 4b8e 8c3a
000000b0: 6deb 3f3b b004 b4bb bb9e 2cbb c294 79b9
000000c0: b891 b7ba 213a 823b 8912 233b 9afc 1aba
000000d0: 7a93 cbb9 5526 9eb8 430c 16bb 2075 9abb
000000e0: 52a5 f6ba eed1 d6bb 4094 453b a559 65bb
000000f0: 0a20 0aba 1772 153a 0aa3 9cbb 537d 8ebb

manager.M_goals.weight f4 [64, 128]
-0.019593764 0.02093391 0.052868348 0.1349234 0.061479412 0.0103566535 -0.02627846 -0.018853737
-0.014519163 -0.017431326 0.031454407 -0.12990478 0.05391912 -0.051470418 -0.18715458 -0.073771596
0.13462633 0.08980486 -0.025603574 0.12769812 -0.21813633 -0.17302382 0.004824777 0.045741066
-0.030169778 0.08938197 0.101140186 -0.093420856 -0.0811209 -0.19515373 0.0116418665 -0.024894776
0.07288424 0.0031007607 0.16184042 0.08805702 -0.02349393 -0.0030109782 0.033560358 -0.01210242
-0.1185181 0.074341714 -0.09202876 0.062078826 -0.17630467 0.007895734 -0.16082835 0.042008694
-0.09641887 0.0005161909 0.08048362 0.025945572 0.11232719 -0.020261459 -0.086091176 -0.046398126
0.06612256 0.07585652 0.07176752 0.12496499 0.13229416 0.04659171 -0.17224585 0.057873163
-0.1153201 -0.13719642 -0.08595323 0.03259651 0.008088295 0.002635812 -0.035514683 -0.1111512
-0.02936167 0.03490835 0.12778488 -0.09566639 0.06201396 0.0017527922 -0.15034495 0.06549148
0.04373972 -0.071347654 -0.11660848 -0.16555081 -0.024893384 -0.09019296 0.047501817 -0.08457239
0.023419052 0.00042357942 0.06923067 -0.02120495 -0.10879392 0.035019927 0.09834483 0.105963126
0.051986728 -0.12976393 0.13252717 -0.07008377 0.083736904 0.0024244674 0.082908146 -0.0018957442
0.17961115 0.03370702 0.019962978 0.058138426 -0.0023784926 0.11059738 0.048330814 -0.11207638
0.13694727 -0.0115588615 0.0608195 -0.065942325 -0.07287579 -0.10934615 -0.052631434 -0.12612356
0.10302018 -0.10759736 -0.0806628 0.044542186 -0.12819697 -0.027819104 0.050188184 0.0054948945
0.057309013 0.009372927 0.0617638 0.033068396 0.026871625 0.056610145 0.10259978 -0.08481516
0.08843927 0.03855638 0.11823227 -0.062467054 -0.007395196 -0.023821518 0.056044284 -0.040280893
0.030707885 0.06993467 -0.10489212 -0.095659755 -0.040773023 -0.08052005 -0.027219417 -0.10572097
-0.20213018 -0.1291167 0.14743736 -0.09741716 -0.050077938 0.11660165 0.032499168 0.03970116
0.02628401 -0.08113689 0.07429412 0.01358343 -0.08136292 -0.05580149 0.098005526 -0.1012845
-0.13030827 0.2111399 0.049482983 -0.028921865 0.06397367 0.19450025 0.035550635 0.10202354
-0.1349895 -0.07265715 0.09885404 0.13297327 -0.038433883 0.001506546 0.10404542 -0.049360484
0.013350817 0.041581765 0.06789807 0.08921281 0.1115535 -0.022249954 -0.011472095 0.03607582
-0.009961057 0.06556861 -0.0038048404 -0.09953146 0.0855289 0.030228892 0.096123315 0.008305639
0.12675098 0.095343515 -0.0447226 0.08332595 -0.1738525 0.030587554 -0.10957998 -0.0013090584
-0.09416165 -0.12463661 -0.07061954 0.07256971 -0.080522336 0.07686398 0.047751214 -0.048561037
-0.09212848 -0.1373777 -0.0025866255 -0.0185894 -0.058727022 -0.12641485 0.08048435 0.0528826
0.0009415965 0.0503688 -0.106420726 -0.14044483 -0.12729643 -0.24224102 0.0059298207 -0.009851847
-0.19574419 -0.021655919 -0.045772746 -0.11978529 -0.08671205 -0.11050511 0.0013049138 -0.034635976
-0.09831024 -0.0979386 0.051249947 0.12344231 0.027693717 -0.009367003 0.13803451 -0.012817863
-0.04959651 -0.02446639 -0.15162921 -0.0662426 0.10821587 0.050232213 -0.10471515 0.12503298
00000000: 1a83 a0bc 977d ab3c 7b8c 583d 5c29 0a3e
00000010: d6d1 7b3d f4ae 293c ed45 d7bc 2773 9abc
00000020: c9e1 6dbc 24cc 8ebc 56d6 003d c205 05be
00000030: 4cda 5c3d a5d2 52bd 73a5 3fbe 9015 97bd
00000040: 7cdb 093e 9ceb b73d 96be d1bc 4cc3 023e
00000050: 215f 5fbe 282d 31be 2a19 9e3b fc5a 3b3d
00000060: 9c26 f7bc e50d b73d 9622 cf3d 6f53 bfbd
00000070: b722 a6bd 61d6 47be 87bd 3e3c 21f0 cbbc
00000080: 5544 953d 2236 4b3b 7fb9 253e 3d57 b43d
00000090: 5876 c0bc d553 45bb 9676 093d 3b49 46bc
000000a0: 9eb9 f2bd 7840 983d 9379 bcbd 5e46 7e3d
000000b0: 3689 34be 1c5d 013c 30b0 24be 4f11 2c3d
000000c0: 4277 c5bd fc50 073a 99d4 a43d cf8b d43c
000000d0: cc0b e63d 5cfb a5bc 9250 b0bd f60b 3ebd
000000e0: 446b 873d aa5a 9b3d d9fa 923d a5ed ff3d
000000f0: 1f78 073e f3d6 3e3d 3761 30be 690c 6d3d
00000100: f22c ecbd 387d 0cbe 3f08 b0bd eb83 053d
00000110: c584 043c 96bd 2c3b d877 11bd 3ea3 e3bd
00000120: e387 f0bc 0ffc 0e3d 0ada 023e beec c3bd
00000130: 5a02 7e3d f2bd e53a 07f4 19be 6620 863d
00000140: 6c28 333d b81e 92bd 6dd0 eebd 2786 29be
00000150: 36ed cbbc 16b7 b8bd 4491 423d 4a34 adbd
00000160: 50d9 bf3c de13 de39 cfc8 8d3d 01b6 adbc
00000170: 59cf debd 0e71 0f3d 0469 c93d 3203 d93d
00000180: 09f0 543d d6e0 04be 34b5 073e 1488 8fbd
00000190: 417e ab3d d0e3 1e3b bfcb a93d 9f7a f8ba
000001a0: fceb 373e 5f10 0a3d 6689 a33c 8f22 6e3d
000001b0: 7ce0 1bbb e180 e23d 88f6 453d 4d88 e5bd
000001c0: e83b 0c3e 6161 3dbc de1d 793d c50c 87bd
000001d0: e73f 95bd e0f0 dfbd 0f94 57bd 8926 01be
000001e0: 3efc d23d 015c dcbd 8a32 a5bd de71 363d
000001f0: 1146 03be e4e4 e3bc 2092 4d3d 840e b43b
00000200: dbbc 6a3d e890 193c 0afc 7c3d ba72 073d
00000210: e221 dc3c 0ae0 673d d51f d23d 92b3 adbd
00000220: a61f b53d 4bed 1d3d c323 f23d 74dd 7fbd
00000230: 6653 f2bb 5825 c3bc b18e 653d 94fd 24bd
00000240: 1a8f fb3c e939 8f3d aed1 d6bd 43e9 c3bd
00000250: 9d01 27bd b2e7 a4bd 41fb debc 3c84 d8bd
00000260: 37fb 4ebe 2b37 04be d2f9 163e a682 c7bd
00000270: 861e 4dbd d9cc ee3d d91d 053d af9d 223d
00000280: 9051 d73c 192b a6bd 8427 983d 098d 5e3c
00000290: 9aa1 a6bd 1a90 64bd 1fb7 c83d 3f6e cfbd
000002a0: 886f 05be 0f35 583e abae 4a3d 8ced ecbc
000002b0: a104 833d 132b 473e 8b9d 113d b8f1 d03d
000002c0: b03a 0abe 46cd 94bd fd73 ca3d 252a 083e
000002d0: d96c 1dbd 4c77 c53a c415 d53d 382e 4abd
000002e0: 63bd 5a3c a451 2a3d 250e 8b3d 35b5 b63d
000002f0: 2976 e43d 8945 b6bc 74f5 3bbc 3dc4 133d
00000300: b433 23bc d648 863d a15a 79bb 26d7 cbbd
00000310: c729 af3d 95a2 f73c 4ddc c43d 6014 083c
00000320: 02cb 013e 7643 c33d 0c2f 37bd cca6 aa3d
00000330: 6406 32be c092 fa3c 786b e0bd b694 abba
00000340: d3d7 c0bd 7b41 ffbd faa0 90bd 6e9f 943d
00000350: e5e8 a4bd dd6a 9d3d c796 433d f0e7 46bd
00000360: dbad bcbd bdac 0cbe 6084 29bb cc48 98bc
00000370: bf8b 70bd e572 01be fbd4 a43d 6d9b 583d
00000380: 79d5 763a 844f 4e3d 1cf3 d9bd c5d0 0fbe
00000390: ff59 02be 080e 78be f14e c23b a469 21bc
000003a0: 2a71 48be c167 b1bc 347c 3bbd fd51 f5bd
000003b0: 1696 b1bd 8150 e2bd a409 ab3a 74de 0dbd
000003c0: e156 c9bd 0894 c8bd 77eb 513d 52cf fc3d
000003d0: efdd e23c 0f78 19bc eb58 0d3e 0402 52bc
000003e0: b625 4bbd bd6d c8bc b044 1bbe 33aa 87bd
000003f0: 48a0 dd3d 4bc0 4d3d e674 d6bd a508 003e

manager.M_goals.bias f4 [64]
-0.0020976649 -0.0035900825 -0.0035774107 -0.0017204051 -0.004634118 0.004216168 -0.0022618158 -0.004778195
0.0018682932 -0.0014423801 0.0021783686 -0.0051140995 -0.003907339 -0.0071117184 -0.0020367461 -0.002060149
-0.0022526332 0.0010179108 0.00021659632 -0.0023720458 -0.00042215796 0.0019053704 -0.0003309338 -0.0048021674
0.00093197875 0.0022798274 -0.0031207858 0.0031019272 0.0031049715 -0.0020448696 0.00376886 -0.0018215225
0.0006144077 -0.0005468857 -0.0011155277 0.00058296905 -0.0032484694 -0.003949733 -0.0019944853 -0.0013558799
0.00040222655 0.0003617823 -0.0010204043 -0.008788886 0.0025230744 -0.00048754134 0.0004991877 0.0034100285
-0.0038507693 0.0017366968 -0.0011970972 -0.00010167957 -0.0033873545 0.001396849 -0.00052500644 -0.0054410035
0.005147547 0.00065296766 0.0039329333 -0.0024863956 0.012765209 -0.0003361908 -0.0009121111 0.00094431883
00000000: fa78 09bb 9747 6bbb fe72 6abb 377f e1ba
00000010: cdd9 97bb c827 8a3b f93a 14bb 6892 9cbb
00000020: 84e1 f43a 3f0e bdba f6c2 0e3b 2d94 a7bb
00000030: 2309 80bb 6b09 e9bb ee7a 05bb 9103 07bb
00000040: eaa0 13bb 6b6b 853a 221e 6339 5374 1bbb
00000050: 1555 ddb9 9fbd f93a 2f81 adb9 805b 9dbb
00000060: 0950 743a 2869 153b 1986 4cbb b449 4b3b
00000070: c77c 4b3b 3803 06bb fafe 763b 27c0 eeba
00000080: 3410 213a e15c 0fba e636 92ba 64d2 183a
00000090: 46e4 54bb c36c 81bb e9b5 02bb c8b7 b1ba
000000a0: efe1 d239 99ad bd39 16bf 85ba 42ff 0fbc
000000b0: 2a5a 253b b19c ffb9 ebdb 023a c97a 5f3b
000000c0: 305d 7cbb e0a1 e33a ebe7 9cba ce3c d5b8
000000d0: 61fe 5dbb 7a16 b73a 96a0 09ba 724a b2bb
000000e0: c1ac a83b eb2b 2b3a d6df 803b ccf2 22bb
000000f0: 2b25 513c c442 b0b9 bd1a 6fba 2a8c 773a

manager.M_value.weight f4 [1, 64]
-0.15550551 -0.095275916 0.0070880135 0.08392795 -0.14220454 -0.12753937 -0.102497056 0.23962604
-0.04617177 0.0984962 0.08167925 0.0672039 -0.12471966 0.07926816 -0.16562827 -0.16689032
-0.14117104 -0.2639589 -0.103800386 0.062741034 -0.035654183 -0.13472547 0.20619668 0.039028034
0.012662903 0.14694169 0.10232784 -0.065621614 0.08945116 0.1847112 -0.059830382 -0.016013892
-0.06736491 -0.12191617 0.14421056 -0.2447025 0.11056941 -0.013440217 0.15336151 0.13769706
0.18905823 -0.05190091 -0.026174651 -0.2091769 -0.10863893 0.06132783 0.07096082 -0.10955342
0.0010403967 -0.020566942 0.094723314 0.050897624 -0.06844858 -0.092921495 -0.16984639 0.29666615
0.04309214 -0.019072229 -0.018742505 0.06520416 0.04560347 0.08240977 -0.089380294 0.17728323
00000000: d63c 1fbe 0520 c3bd 9142 e83b 6be2 ab3d
00000010: 119e 11be ae99 02be fae9 d1bd 8760 753e
00000020: 9c1e 3dbd 60b8 c93d 7347 a73d 33a2 893d
00000030: 056d ffbd 5857 a23d 759a 29be 4ce5 2abe
00000040: 248f 10be 9f25 87be 4c95 d4bd 5f7e 803d
00000050: 1f0a 12bd 79f5 09be 3925 533e dcdb 1f3d
00000060: 1178 4f3c e277 163e 4291 d13d a064 86bd
00000070: 2b32 b73d ef24 3d3e b410 75bd 912f 83bc
00000080: 9df6 89bd 2faf f9bd efab 133e 4b93 7abe
00000090: 3772 e23d 5b34 5cbc cd0a 1d3e 7500 0d3e
000000a0: 7b98 413e 0c96 54bd 396c d6bc 7832 56be
000000b0: 167e debd e432 7b3d e853 913d 8b5d e0bd
000000c0: ec5d 883a 017c a8bc 4cfe c13d 077a 503d
000000d0: c52e 8cbd a04d bebd 36ec 2dbe a0e4 973e
000000e0: 6281 303d 5d3d 9cbc e289 99bc c289 853d
000000f0: b4ca 3a3d 74c6 a83d 040d b7bd bc89 353e

worker.f_stateW.0.weight f4 [128, 64]
-0.026535654 -0.11453699 -0.11961333 -0.05485802 0.033913765 0.15730326 0.03474057 0.08768913
-0.15317225 -0.051969666 0.04392368 -0.14413878 -0.09146426 0.13497443 -0.025946604 0.049933102
-0.15283671 0.034428738 -0.07988068 -0.0051305513 0.03831113 0.039313603 -0.048769083 -0.23446128
0.0074994606 0.18775222 -0.08840352 0.012332395 -0.01880559 -0.16324928 -0.026919411 0.037754707
0.15084015 0.068786085 0.007377749 -0.07482016 -0.036084667 -0.13544503 -0.027749645 0.05567543
0.07125996 -0.02010222 0.09634714 0.06877467 0.11252144 -0.064144306 -0.09225661 -0.019681396
0.10943327 -0.08964575 0.006292355 -0.015769819 0.013227289 -0.03947201 -0.020882102 0.08325353
0.06488487 0.16031985 0.14663403 0.0058759605 -0.031481717 -0.1498115 -0.033485208 0.13931221
0.014808146 0.08624365 0.08643943 0.01828229 -0.09248017 -0.0111848125 -0.06496546 -0.073856615
-0.055651195 -0.10418351 0.09921738 -0.034367964 -0.06522049 -0.0070139393 -0.051187687 -0.024846805
-0.11242149 0.16004753 0.18587045 0.04446603 -0.096620984 -0.050093353 0.08213313 -0.014101394
0.14878275 0.14745127 -0.08061062 0.005545631 -0.16381562 0.06955564 -0.14458756 -0.043410715
-0.07817554 -0.06872443 -0.0066978727 -0.04834264 0.029599326 -0.03439838 -0.06484525 0.06855859
0.026700929 0.006639651 -0.13422912 0.021700356 0.068096966 0.05262043 0.006249253 0.023551155
0.010201259 -0.061064422 0.07249921 -0.102708586 0.05211766 0.11445862 -0.08737875 -0.08863245
0.020774832 0.04779725 0.12740783 0.009267292 0.04490222 -0.039937504 0.04851796 0.09393885
-0.014432652 -0.10064411 0.10870202 -0.0549775 0.013514548 0.011444018 0.17992884 0.12663294
-0.023132643 0.010950233 -0.08306956 0.120732196 -0.038242538 0.04418752 -0.025450027 0.044228647
0.24343336 0.037104692 0.0052247564 -0.123225905 -0.04757098 0.09512156 -0.12365663 0.14679615
0.1317431 -0.029081967 -0.16662464 0.11940921 -0.16312946 0.044697154 -0.05827016 0.07923061
-0.082544416 0.056691784 -0.085544445 0.021562574 0.03769539 0.036318507 0.1288852 0.005242484
-0.046887487 0.033237997 0.056760408 0.05140896 0.10965933 -0.01502735 -0.08604581 0.071622565
-0.15650901 0.01632809 0.09304596 -0.024488587 -0.13765615 -0.09295806 -0.11742477 -0.009161502
0.17461845 0.096295275 0.102511026 -0.052705202 -0.0313225 -0.05288232 -0.0062389174 -0.018362984
0.009877607 0.12149643 0.07511625 0.038189948 0.022265634 0.17436737 0.038797908 0.0700609
0.13904345 0.022864679 -0.11022202 -0.034210593 -0.18644892 -0.092996955 0.016043153 -0.0531547
0.03648006 0.09149511 0.003948339 0.107026674 0.1058289 -0.17384529 0.017380277 0.07727973
-0.12829609 0.058251124 0.044334542 -0.03982197 -0.023530444 -0.10579588 -0.118484914 -0.13093808
0.0150556015 0.008105112 -0.029078256 -0.07996953 -0.016766492 0.038520128 -0.06038489 0.06335321
-0.1612343 -0.06510056 0.015479258 0.0824147 -0.024867313 -0.16551384 -0.02660841 -0.09386134
-0.06962136 0.038856816 -0.023713382 -0.030145863 0.057168573 -0.012261799 0.0030119421 0.039586432
0.040585905 -0.044173215 -0.05649593 0.09861938 -0.109764695 -0.056910466 0.020840675 -0.08911935
00000000: 4d61 d9bc 5f92 eabd d5f7 f4bd ceb2 60bd
00000010: 29e9 0a3d 1b14 213e 214c 0e3d 5c96 b33d
00000020: 30d9 1cbe 25de 54bd 51e9 333d 1e99 13be
00000030: 9d51 bbbd bd36 0a3e f98d d4bc a786 4c3d
00000040: 3a81 1cbe 2605 0d3d 7b98 a3bd 2f1e a8bb
00000050: 22ec 1c3d 4d07 213d 17c2 47bd 9e16 70be
00000060: 09be f53b 1e42 403e e80c b5bd d00d 4a3c
00000070: 2e0e 9abc d22a 27be 1986 dcbc aea4 1a3d
00000080: d775 1a3e b8df 8c3d 0bc1 f13b 503b 99bd
00000090: 84cd 13bd 1ab2 0abe 3953 e3bc eb0b 643d
000000a0: bef0 913d 69ad a4bc a651 c53d bcd9 8c3d
000000b0: a471 e63d 175e 83bd 09f1 bcbd e13a a1bc
000000c0: 8d1e e03d 3198 b7bd 1930 ce3b b52f 81bc
000000d0: 45b7 583c 67ad 21bd f110 abbc d480 aa3d
000000e0: 5ce2 843d e32a 243e 3b27 163e 218b c03b
000000f0: f9f2 00bd 3068 19be c927 09bd dca7 0e3e
00000100: de9d 723c 83a0 b03d 2807 b13d bec4 953c
00000110: 3e66 bdbd 8140 37bc 9c0c 85bd 2342 97bd
00000120: 82f2 63bd 2a5e d5bd 7b32 cb3d 6cc5 0cbd
00000130: 5292 85bd 30d5 e5bb 2eaa 51bd 878b cbbc
00000140: 3d3d e6bd 80e3 233e d354 3e3e 0322 363d
00000150: 39e1 c5bd b02e 4dbd 6a35 a83d 8909 67bc
00000160: 815a 183e 77fd 163e 2e17 a5bd 20b8 b53b
00000170: 48bf 27be 3073 8e3d c30e 14be 6fcf 31bd
00000180: 7f1a a0bd 65bf 8cbd d479 dbbb ef02 46bd
00000190: 497a f23c 51e5 0cbd 96cd 84bd 7268 8c3d
000001a0: e8bb da3c 6e91 d93b 5c73 09be f2c4 b13c
000001b0: 6c76 8b3d 8588 573d 89c6 cc3b 5aee c03c
000001c0: 2e23 273c b01e 7abd 777a 943d e158 d2bd
000001d0: 5479 553d 4869 ea3d a1f3 b2bd ee84 b5bd
000001e0: fb2f aa3c 0dc7 433d 3377 023e d7d5 173c
000001f0: 64eb 373d 8295 23bd c5ba 463d 0363 c03d
00000200: ee76 6cbc 801e cebd 2a9f de3d 1630 61bd
00000210: 1f6c 5d3c b17f 3b3c 443f 383e 11ac 013e
00000220: ab80 bdbc 9b68 333c 6020 aabd 7142 f73d
00000230: 35a4 1cbd f9fd 343d 937c d0bc 1929 353d
00000240: 9846 793e 17fb 173d 6f34 ab3b dd5d fcbd
00000250: cad9 42bd 18cf c23d b03f fdbd bb51 163e
00000260: aae7 063e 4e3d eebc a69f 2abe d18c f43d
00000270: 690b 27be 5d14 373d b1ac 6ebd a843 a23d
00000280: 0c0d a9bd a535 683d ed31 afbd ffa3 b03c
00000290: 7b66 1a3d b7c2 143d 7bfa 033e 25c9 ab3b
000002a0: 180d 40bd 9124 083d 9a7d 683d 3492 523d
000002b0: 1295 e03d 4635 76bc c938 b0bd daae 923d
000002c0: e643 20be 7dc2 853c e18e be3d 4a9c c8bc
000002d0: bcf5 0cbe cc60 bebd 667c f0bd 201a 16bc
000002e0: 2ecf 323e 7536 c53d 4df1 d13d 69e1 57bd
000002f0: 064c 00bd 229b 58bd d56f ccbb f86d 96bc
00000300: b0d5 213c 1fd3 f83d 8cd6 993d 106d 1c3d
00000310: 6b66 b63c 5c8d 323e 8eea 1e3d 177c 8f3d
00000320: 6861 0e3e b54e bb3c 15bc e1bd 6820 0cbd
00000330: 77ec 3ebe 3075 bebd ee6c 833c beb8 59bd
00000340: 1e6c 153d ca61 bb3d 1161 813b cd30 db3d
00000350: d3bc d83d 8004 32be 1561 8e3c d644 9e3d
00000360: 0d60 03be bb98 6e3d 2398 353d 5d1c 23bd
00000370: ebc2 c0bc 83ab d8bd 38a8 f2bd a214 06be
00000380: c5ab 763c 4ecb 043c 8635 eebc 11c7 a3bd
00000390: e259 89bc 48c7 1d3d 2556 77bd 54bf 813d
000003a0: 9b1a 25be 7153 85bd b79c 7d3c 0ac9 a83d
000003b0: 89b6 cbbc 767c 29be e1f9 d9bc 603a c0bd
000003c0: a595 8ebd 5328 1f3d 9142 c2bc 75f4 f6bc
000003d0: 9829 6a3d b6e5 48bc 0164 453b 6225 223d
000003e0: 683d 263d f9ee 34bd 4768 67bd f5f8 c93d
000003f0: 50cc e0bd f31a 69bd 10ba aa3c 3584 b6bd

worker.f_stateW.0.bias f4 [128]
0.004696462 -0.0039763353 0.0005283339 -0.008217971 -0.0012527579 -0.0010657287 0.0013095089 0.00049249234
0.00015394107 0.00572396 -0.0008009627 -0.006878874 -0.0022287003 0.0017996953 -0.005118244 -0.00016467698
0.0015687378 -0.000597986 0.0031427476 0.0027786093 -0.00812277 0.003895258 0.005644501 -0.0029362037
-0.0015631166 -0.0036574116 0.008821383 0.0023309896 0.0011867974 -0.00094347727 0.0051892656 0.00042463373
0.0032681625 -0.000980604 -0.0033371884 0.0006306071 0.0053769033 0.0040309844 0.0025817822 -0.001076691
0.00017053226 -0.0072162407 3.0174808e-05 0.0029573354 0.0013425668 0.0012650153 -0.004512682 0.002760475
0.0010358426 0.0022553392 -0.0010471687 0.0064315763 -0.0060839797 0.0013841973 -0.0038450146 -0.00619846
0.009166416 -0.0056855083 0.0024253817 0.0013995029 -0.0018926222 -0.0014999063 0.0019952175 0.0023040522
0.0055576903 0.0046741613 9.7020726e-05 -0.0011945568 0.0065315003 -0.0017681164 0.00638263 -0.0030468265
-0.0059529855 0.00029087102 0.007951891 0.0023296727 -0.0034933414 0.0046177623 0.0020837039 -0.002835123
-0.0036583594 -0.0006598255 0.0011683197 -0.0030508675 -0.0009036171 9.060216e-05 -0.0055194627 -0.002194207
-0.002157313 -0.0034217911 0.0009444612 0.0036070112 -0.00017895622 0.0034718362 0.013054143 0.00040435896
0.0049597793 -0.0034008352 -0.0005881096 -0.002139187 -0.0062856963 0.0065756645 0.004170451 0.0008376626
-0.002569228 -0.0056692394 -0.0012149868 0.0025554302 0.0044421963 0.0062080678 -0.0035228378 -0.0020433462
0.005481733 0.001191292 -0.007111573 0.00023173117 0.0024287957 0.0007472602 -0.0013788937 -0.0031207504
0.003625769 0.0013372609 0.0054931017 0.0014480385 -0.0045597795 0.0075734267 0.0060442453 -0.0026890074
00000000: c7e4 993b eb4b 82bb e37f 0a3a aba4 06bc
00000010: 9433 a4ba ecaf 8bba d4a3 ab3a 9a1a 013a
00000020: 3e6b 2139 0f90 bb3b b2f7 51ba 2d68 e1bb
00000030: 630f 12bb c1e3 eb3a f1b6 a7bb 24ad 2cb9
00000040: 1b9e cd3a 29c2 1cba 8ef6 4d3b 5419 363b
00000050: 5e15 05bc 9647 7f3b 82f5 b83b 536d 40bb
00000060: 7de1 ccba 2fb1 6fbb 9087 103c 84c3 183b
00000070: 508e 9b3a b053 77ba b70a aa3b 60a1 de39
00000080: ab2e 563b 9c87 80ba bbb4 5abb 534f 253a
00000090: bc30 b03b 5916 843b 1e33 293b c11f 8dba
000000a0: e8d0 3239 3776 ecbb e81f fd37 dbcf 413b
000000b0: 11f9 af3a dfce a53a 1fdf 93bb 16e9 343b
000000c0: 1cc5 873a 50ce 133b 2741 89ba f9bf d23b
000000d0: 1f5c c7bb f46d b53a a4fc 7bbb 731c cbbb
000000e0: bc2e 163c 804d babb 27f3 1e3b 866f b73a
000000f0: dd11 f8ba 8198 c4ba 32c2 023b 95ff 163b
00000100: 491d b63b b529 993b 9b77 cb38 ad92 9cba
00000110: 3206 d63b 24c0 e7ba 6225 d13b 44ad 47bb
00000120: 4311 c3bb 0c80 9839 a648 023c 6cad 183b
00000130: 8bf0 64bb 9950 973b c08e 083b 79cd 39bb
00000140: 16c1 6fbb 24f8 2cba 4e22 993a 10f1 47bb
00000150: b8e0 6cba aa01 be38 9cdc b4bb afcc 0fbb
00000160: b561 0dbb 2140 60bb b895 773a 9b63 6c3b
00000170: 32a6 3bb9 bf87 633b 0be1 553c 2400 d439
00000180: a585 a23b 8ce0 5ebb 5e2b 1aba 9a31 0cbb
00000190: 3ef8 cdbb ac78 d73b 47a8 883b 9696 5b3a
000001a0: 7e60 28bb 07c5 b9bb 3140 9fba 0179 273b
000001b0: d88f 913b 0c6d cb3b 69df 66bb a9e9 05bb
000001c0: 1ca0 b33b 2025 9c3a 3308 e9bb ddfc 7239
000001d0: 6e2c 1f3b c8e3 433a ffbb b4ba 8185 4cbb
000001e0: 4f9e 6d3b 0847 af3a 7aff b33b 1ccc bd3a
000001f0: 346a 95bb 822a f83b ce0e c63b 0f3a 30bb

worker.f_stateW.2.weight f4 [25, 128]
-0.06935526 0.17868714 -0.061369315 -0.08902168 -0.06593674 0.033473 -0.08650601 -0.017108874
0.0644144 0.012446412 -0.052644085 -0.14660954 0.05108261 -0.020632947 0.010587945 0.017782373
0.059325285 -0.07718344 6.271803e-05 -0.19172981 -0.06840906 -0.029917812 -0.011614468 -0.012330325
0.08888682 0.057433896 0.0503825 0.14655603 0.14356779 0.11836704 -0.0923601 0.100411385
-0.067205444 -0.16032459 -0.034934107 0.08546328 0.046688784 -0.04522924 0.10538512 -0.14064872
0.02007763 -0.0029234008 -0.11433349 -0.10786668 0.028695881 -0.05818599 -0.06705295 0.0965409
-0.0944261 -0.017190875 0.11687728 0.044828206 0.071442254 -0.016869357 -0.01193403 0.042446986
-0.09710353 0.012604181 0.045404598 0.032687996 0.056831203 -0.06479617 0.2398109 -0.12651794
-0.10538541 -0.09390652 0.037754342 -0.083110124 -0.052382704 0.07076342 0.10668218 0.05802973
-0.00591243 0.07329053 -0.00965077 0.035361275 0.06293207 -0.0480103 0.028042242 0.13925366
-0.108180456 0.04543071 -0.024408925 -0.07209291 -0.048239008 0.12138992 0.26201174 0.102356024
-0.13821797 0.16037275 -0.013066912 -0.015929068 -0.008882612 -0.08047999 0.048648153 -0.016250443
0.0040425896 -0.07356668 0.013676347 0.19905376 -0.045906145 -0.16671145 0.029196905 -0.019258175
-0.02261507 0.06743142 -0.020327285 -0.031630695 0.02049491 -0.063750654 0.008724324 -0.08441891
0.0649924 0.0211938 -0.016518334 0.10125783 0.11645664 0.11412194 -0.028548421 -0.1369769
0.12723385 0.1682116 0.06674298 0.092171825 -0.123855874 -0.08117698 -0.099887684 0.083166376
-0.01842065 0.037145406 -0.10024052 -0.13251668 0.1396659 0.106077306 -0.050294828 0.010435991
-0.06741797 -0.17302474 -0.09304307 -0.012715606 -0.12011243 -0.012746371 0.2252705 0.07474649
0.057438094 -0.086454235 0.11989526 0.008540684 -0.04298126 -0.08504285 -0.10527798 -0.0017198937
0.032914706 0.14409712 0.021399058 0.08293863 -0.036814112 0.009662262 -0.0720322 -0.09119541
0.09044326 -0.10612165 -0.038593143 -0.06443332 -0.039231736 0.07975894 -0.123290256 0.1605442
0.043276772 -0.065952264 0.049274996 0.054461673 -0.055924196 -0.06418396 0.0334365 -0.034898445
0.024157839 -0.11131833 0.052773066 -0.002760682 -0.15216011 0.013565363 -0.034289356 -0.024285091
0.07909315 -0.10062802 0.09564344 -0.08350858 0.04507327 0.059318937 0.05145079 0.014097242
-0.14530607 0.029737893 0.034579232 -0.04617515 0.08806228 -0.027562564 -0.101980105 -0.2269323
0.041089553 -0.080601364 -0.05063584 0.10859456 0.033978604 0.08824025 0.10408137 -0.10499514
0.039142776 -0.10446054 0.088381104 0.076980844 -0.00066072954 0.018561134 0.15115428 -0.024153192
0.2732919 -0.12191121 0.18287387 -0.023306167 0.01180042 -0.15303569 0.04087246 9.041277e-05
0.006699591 0.096219055 0.09655146 0.21332599 0.07277095 0.024832673 0.076136164 0.0037787438
-0.06811548 0.041919284 -0.0081569245 0.0052545075 0.014937699 0.021855753 -0.01330101 0.008653056
0.02327167 0.084482245 -0.098699145 0.046829946 -0.06439794 0.044258207 0.054219417 -0.23598023
0.048116848 0.08190489 -0.02112405 -0.14152505 0.07874423 0.07643717 0.008935306 -0.02549809
00000000: 210a 8ebd c3f9 363e 645e 7bbd 0051 b6bd
00000010: d709 87bd fc1a 093d 102a b1bd e927 8cbc
00000020: b2eb 833d 09ec 4b3c 53a1 57bd d020 16be
00000030: 003c 513d 6d06 a9bc 0f79 2d3c 57ac 913c
00000040: 12ff 723d 5a12 9ebd 7c87 8338 d254 44be
00000050: 0d1a 8cbd 3316 f5bc 9c4a 3ebc 2205 4abc
00000060: 4b0a b63d ce3f 6b3d e15d 4e3d c912 163e
00000070: 6f03 133e 6b6a f23d 4b27 bdbd 7ca4 cd3d
00000080: 02a3 89bd 212c 24be 1117 0fbd 5f07 af3d
00000090: bd3c 3f3d 4c42 39bd 27d4 d73d 3806 10be
000000a0: d879 a43c 8796 3fbb ad27 eabd 35e9 dcbd
000000b0: a013 eb3c 6f54 6ebd 0f53 89bd 3cb7 c53d
000000c0: 7962 c1bd e1d3 8cbc 5b5d ef3d c89d 373d
000000d0: 5150 923d 9b31 8abc f386 43bc e4dc 2d3d
000000e0: 37de c6bd c481 4e3c 2cfa 393d d9e3 053d
000000f0: d6c7 683d dbb3 84bd fd90 753e eb8d 01be
00000100: 4ed4 d7bd 1052 c0bd 4ca4 1a3d a435 aabd
00000110: 3f8f 56bd 69ec 903d 307c da3d 95b0 6d3d
00000120: 0fbd c1bb 5819 963d 431e 1ebc fcd6 103d
00000130: 87e2 803d 73a6 44bd d8b8 e53c 8398 0e3e
00000140: b78d ddbd 8d15 3a3d 3af5 c7bc 73a5 93bd
00000150: 4496 45bd 479b f83d 6726 863e 09a0 d13d
00000160: 0389 0dbe c138 243e 9a16 56bc ad7d 82bc
00000170: 6088 11bc b1d2 a4bd 4943 473d a61f 85bc
00000180: b377 843b 21aa 96bd c212 603c c0d4 4b3e
00000190: 1508 3cbd 68b6 2abe 592e ef3c 52c3 9dbc
000001a0: 3d43 b9bc 7c19 8a3d 6885 a6bc 308f 01bd
000001b0: f1e4 a73c b48f 82bd 78f0 0e3c d2e3 acbd
000001c0: bc1a 853d 9f9e ad3c 7551 87bc 4460 cf3d
000001d0: d280 ee3d c4b8 e93d 61de e9bc ac43 0cbe
000001e0: 9749 023e a93f 2c3e 8bb0 883d 95c4 bc3d
000001f0: 26a8 fdbd 1e40 a6bd ea91 ccbd 2253 aa3d
00000200: e7e6 96bc c825 183d e74a cdbd 74b2 07be
00000210: 9404 0f3e 0f3f d93d f301 4ebd b8fb 2a3c
00000220: 6f12 8abd 662d 31be 5d8d bebd 1e55 50bc
00000230: 81fd f5bd 28d6 50bc 4fad 663e b014 993d
00000240: 3544 6b3d eb0e b1bd a58b f53d 3aee 0b3c
00000250: 1e0d 30bd f22a aebd fb9b d7bd 0e6e e1ba
00000260: 92d1 063d 328e 133e 144d af3c badb a93d
00000270: 65ca 16bd 774e 1e3c 9e85 93bd a9c4 babd
00000280: 513a b93d 4f56 d9bd d813 1ebd 9ef5 83bd
00000290: 75b1 20bd a858 a33d 9a7f fcbd b365 243e
000002a0: fc42 313d fb11 87bd 94d4 493d 3413 5f3d
000002b0: c510 65bd e172 83bd b6f4 083d acf1 0ebd
000002c0: a9e6 c53c ddfa e3bd 9228 583d 8fec 34bb
000002d0: dccf 1bbe 4241 5e3c ff72 0cbd 87f1 c6bc
000002e0: 97fb a13d 1016 cebd b5e0 c33d 8c06 abbd
000002f0: c09e 383d 6af8 723d 10be 523d 1ef8 663c
00000300: 1dcb 14be e29c f33c f4a2 0d3d 2722 3dbd
00000310: ff59 b43d e3ca e1bc f2da d0bd f160 68be
00000320: 854d 283d 5412 a5bd 8767 4fbd d366 de3d
00000330: 262d 0b3d 4eb7 b43d 9d28 d53d b107 d7bd
00000340: 2d54 203d 68ef d5bd 2701 b53d 22a8 9d3d
00000350: cf34 2dba 850d 983c 30c8 1a3e eadc c5bc
00000360: eaec 8b3e 96ac f9bd 4a43 3b3e 93ec bebc
00000370: 8c56 413c 63b5 1cbe e169 273d fc9b bd38
00000380: 3e88 db3b 7f0e c53d c6bc c53d 2172 5a3e
00000390: f008 953d e46d cb3c 47ed 9b3d cda4 773b
000003a0: 2180 8bbd 8eb3 2b3d 9fa4 05bc 012e ac3b
000003b0: 40bd 743c d60a b33c 7bec 59bc 8cc5 0d3c
000003c0: 3ba4 be3c 0705 ad3d c722 cabd c2d0 3f3d
000003d0: 11e3 83bd 1848 353d 2e15 5e3d cda4 71be
000003e0: 2c16 453d c0bd a73d 580c adbc f1eb 10be
000003f0: a844 a13d 178b 9c3d 6465 123c 5fe1 d0bc

worker.f_stateW.2.bias f4 [25]
-0.0057993154 0.00054534315 -0.001286306 -0.0035669834 0.0024203963 -0.0016861837 -0.0039522126 0.000961441
0.0 -0.003621812 -0.0023306462 0.0006730161 0.0026640573 -0.0024682623 0.0095730135 0.0006906543
0.007493461 0.0018660165 0.0019174566 0.0004918959 -0.0005736842 -0.0022510123 0.0020886355 -0.00038901862
0.0026368832
00000000: 2f08 bebb 5cf5 0e3a 4499 a8ba 0dc4 69bb
00000010: 839f 1e3b f002 ddba 9081 81bb 3709 7c3a
00000020: 0000 0000 ec5b 6dbb c1bd 18bb 596d 303a
00000030: 7797 2e3b 92c2 21bb 21d8 1c3c 070d 353a
00000040: b58b f53b 2095 f43a 2b53 fb3a 93f2 003a
00000050: 4c63 16ba b885 13bb 7de1 083b 32f5 cbb9
00000060: 8fcf 2c3b
