vwgym/saved_model/vwgym_f_net_step_6100000.pt (torch_old, 382117 bytes, 57 tensors)

f_percept.percept.0.weight f4 [16, 3, 3, 3]
00000000: b113 8b3d 3e53 90bd 58bb bfbd 474a 84be
00000010: fe58 f93d 331d 903d 426f a6be 77ed 1bbe
00000020: 6b1d 57be 998d 9c3e e750 0abe 8dba e2be
00000030: e7d9 b13b 6696 ad3d 1b54 953e bb25 85bc
00000040: e70b 57be 077c 2bbe 2aab 5d3e 3a37 a5be
00000050: 5203 b43d 568a 38be 5c6d 7ebb ce62 b13b
00000060: 652d ecbd bf2a 433e 7d56 ccbd 2bba 70be
00000070: 5149 51bd 70a8 923e 7723 bfbd 3420 863c
00000080: 5090 303e dbfd 6fbe 220d 03be 22cf 393e
00000090: 1109 87bd d9c0 ce3e b7a7 233c 6cb0 b8bb
000000a0: fa89 3e3e 64fd 633e 5413 8ebe 7ae2 c73d
000000b0: 41b1 87be cc3e 3dbe af67 3e3d 7c2a 19be
000000c0: 5387 c9bd dfd2 ab3e 8392 72be 729f 5a3d
000000d0: 6ef1 2bbc a199 853e 8bc8 f9bd 7f9e 193e
000000e0: ebef 913e 8c81 873e c683 87bd 8730 ea3d
000000f0: 1788 c7bc 305e 083e 27fb 56be 38c3 573e
00000100: 8971 58bd 402b fdbd b7f2 3a3d 0488 18bd
00000110: bebf e9bd 3889 9ebb 1277 343d 127b 4a3e
00000120: 2428 943e 9a64 bfbd 1661 70be e6da f1bd
00000130: 30df f23e 5c3f c93e 2dfe 023e 3d2d 69be
00000140: f583 c53c 71dd 013e d458 39be e8a9 893c
00000150: 8ba2 613e 2f7e 9b3e 7df5 1b3e 29f6 d83d
00000160: 0693 3ebe 76e4 93bc 3d63 bb3e 3e16 0a3e
00000170: dac3 123e 0a6b 14be 78b5 053d c2b6 1bbe
00000180: cf36 82be e422 f5bd d883 f3bd f0dc b33d
00000190: 7eb1 913e 822b c13d 187a 413d 499e c33d
000001a0: cada 1bbe 349a 9b3d 7aba 93bd ff01 09bf
000001b0: bfa7 943e 6866 62bd 7fa6 063d 3218 d5bd
000001c0: 3443 43be 0670 debe 7736 42bc 14b6 b83d
000001d0: 4d24 983e 2670 6b3d a345 03be a6e7 ef3d
000001e0: d329 c8be 3671 b03d 9c22 a83d 0cfe 1b3e
000001f0: 52b8 8dbe 698a 553c dd01 bfbc 6ba7 aa3d
00000200: fd8e 583d a61c babe 854b b13e 98a3 78bd
00000210: 80e2 a23d 2c8e 98bd 09ce 39ba 754c 6e3e
00000220: a44a 713e 7c0d 21be 0647 acbe 008b a73e
00000230: 8ee2 1e3e ece5 23bd 5277 603d 72b5 243e
00000240: a4fb 77be 1615 4b3e 10d0 e2bc 89d0 0abe
00000250: 2b92 8fbd f5ab 903c 1ece 0b3e be17 633e
00000260: c810 0f3e c439 613e b6f1 a5bd 1c06 f63d
00000270: 0f07 643e c7ad 8d3e 6344 853d 84ab c23e
00000280: 5a6f 1c3e f4ec efbd 6ac6 a7bd 308b 92be
00000290: 6026 de3a 6b95 b3be 40a5 4cbe a7d4 643c
000002a0: 1f0b cd3d 3ea8 643e 7ef4 5f3e 3cc6 863c
000002b0: 4019 0c3e 2629 7a3e ee66 8e3e 26d9 02be
000002c0: 3913 8d3d 4e67 823b 08b8 0abd db35 9cbe
000002d0: e153 493e acd1 9dbd 7be5 a4be fe37 97bd
000002e0: fb7a dabd 2318 9a3e 612b 903d d4c9 8a3c
000002f0: 4f9a a8be a7bf 8fbd 252e 87be c7a4 6b3e
00000300: 83ec bcbd 0563 9ebc de32 c73e 2490 173e
00000310: acc3 e2be dae9 fc3d c88a 09be fe0d 66be
00000320: 1c1a 943d 16f6 a1be 4b8c e73d 427c 343e
00000330: 98ea 0e3e fae7 0fbe ace3 5a3e a730 1f3e
00000340: de23 423d f1c6 d1bd bf43 e53b e92c 73be
00000350: 9fbe 253e 885c 313e 7619 c6bd 836e 0b3e
00000360: 9397 d1be 6d2b d03d 37c8 503c 0385 823d
00000370: 273b 443e 9959 63bd 6e68 ba3e 64a7 8c3e
00000380: 2603 1a3e 5ba5 74bd 8e5a 7ebe 8f68 e8bd
00000390: 3755 233d 9a69 763d 4211 4c3e d821 72bd
000003a0: 8e9f e4bd 6dee 43be f6de de3e e65a 8a3e
000003b0: 8dbe 363e 1718 8d3b a3a4 793d a209 20be
000003c0: 407a 1b3b a5fc 353e 0609 093e 78b3 b3bd
000003d0: 445e 703e 3106 06bd 80cd 34be bc33 623d
000003e0: 89ca f13c 65c7 ae3e 3156 f1bd a97c c3be
000003f0: 0c61 873e ce54 343e d5df a33e 2159 9cbd
0.06790865 -0.07047127 -0.09361905 -0.2583792 0.12175177 0.07036819 -0.32506758 -0.15227304
-0.21007316 0.3057678 -0.13507424 -0.44282952 0.0054275873 0.08475952 0.2916573 -0.016253343
-0.21000634 -0.16746531 0.21647325 -0.32268697 0.08789696 -0.18021521 -0.0038822507 0.0054133898
-0.11532096 0.19059275 -0.09977434 -0.23508517 -0.05109531 0.28644133 -0.09332936 0.016372778
0.17242551 -0.23436682 -0.12797979 0.18145421 -0.06593526 0.40381506 0.009988717 -0.0056362655
0.18607321 0.2226463 -0.2774912 0.09759994 -0.26502421 -0.18480986 0.0464856 -0.14957613
-0.09840264 0.3355932 -0.23688702 0.053374715 -0.010494573 0.26093772 -0.12196454 0.15001868
0.28503355 0.26466024 -0.06616931 0.11435037 -0.024356885 0.1331718 -0.20994245 0.21070564
-0.05284265 -0.12361765 0.045641627 -0.03723909 -0.11413525 -0.004838135 0.044058867 0.1977351
0.28936875 -0.0934536 -0.23474535 -0.1180933 0.47435904 0.39306152 0.12792273 -0.22771163
0.024110774 0.1268213 -0.18100291 0.01680465 0.22034661 0.30369708 0.15230365 0.10593826
-0.18610772 -0.018053275 0.3659915 0.13485047 0.14332524 -0.14493957 0.032643765 -0.15206435
-0.2543244 -0.119695455 -0.118903816 0.08782375 0.28455728 0.094321266 0.04723558 0.09551675
-0.1522018 0.07597771 -0.07213302 -0.5351867 0.2903423 -0.055273443 0.032873627 -0.104050055
-0.19068605 -0.43444842 -0.011853806 0.09019104 0.29715195 0.05748 -0.12819533 0.11714105
-0.3909441 0.08615343 0.08209726 0.1523363 -0.27679688 0.013033488 -0.023316318 0.08332714
0.05287074 -0.36349982 0.3462793 -0.06070289 0.07953358 -0.07448992 -0.00070878916 0.23271354
0.2356363 -0.157278 -0.33647937 0.32723236 0.15516111 -0.040014192 0.054801293 0.16084841
-0.24217087 0.19832262 -0.027687103 -0.13556112 -0.07010301 0.01766012 0.13652846 0.22177026
0.13971245 0.21994692 -0.08102743 0.12012884 0.22268318 0.27671644 0.06507184 0.3802148
0.15276852 -0.11715117 -0.08192141 -0.28621817 0.0016948693 -0.35074934 -0.19984913 0.013966716
0.10011887 0.22329804 0.2187061 0.016451947 0.13681507 0.2442976 0.27812904 -0.12778148
0.06888432 0.0039796 -0.033866912 -0.30509838 0.19660904 -0.07706007 -0.3220633 -0.073837265
-0.10667988 0.3009654 0.07039524 0.016941942 -0.32930228 -0.07018977 -0.26402393 0.23012076
-0.092247985 -0.019334326 0.38905996 0.14801079 -0.4428991 0.12349291 -0.13431847 -0.22466275
0.072315425 -0.3163306 0.11306056 0.17625526 0.13956678 -0.14053336 0.21375912 0.15545903
0.047397487 -0.10243023 0.0069966014 -0.237476 0.16185997 0.17320454 -0.09672825 0.13616376
-0.40935954 0.10164533 0.012743047 0.06373026 0.1916319 -0.05550537 0.364078 0.2747146
0.15040264 -0.059728008 -0.24839231 -0.11348068 0.03987619 0.060159303 0.19928458 -0.059114307
-0.11163245 -0.19133921 0.4352948 0.27022475 0.17846127 0.0043058502 0.060948025 -0.15628675
0.002372399 0.17772157 0.13382348 -0.08774465 0.2347346 -0.03272075 -0.17656517 0.05522512
0.029515522 0.341365 -0.11784018 -0.38181046 0.26441228 0.17610475 0.32006708 -0.076341875

f_percept.percept.0.bias f4 [16]
00000000: 36dc d4ba cd24 d439 d373 a63a b6c7 e83a
00000010: 9738 95ba db1e b9ba 4da2 ccba 89bc 5aba
00000020: 241e 64ba 810c 1cb9 6d6d 70ba 30ef e3b9
00000030: d132 c5b9 424e d0ba e81b f4b9 e815 393a
-0.0016239944 0.0004046321 0.0012699313 0.0017759714 -0.0011384663 -0.0014123576 -0.0015612334 -0.0008344134
-0.0008702001 -0.00014881977 -0.0009171579 -0.00043475023 -0.0003761263 -0.0015892463 -0.00046560098 0.0007060454

f_percept.percept.3.weight f4 [64, 16]
00000000: bbcc 933d 153a 083d 155e b03c 5f0d 25be
00000010: a99b 99bd d45d 6fbd bdf0 84bd becb 16be
00000020: 8909 533d e7e0 09be 5665 d73d 0718 b7bd
00000030: b3ec 1a3c 9100 12be 9e15 18be d7b6 d6bc
00000040: d44c 173e 4da1 07be 9903 1a3e f292 e2bd
00000050: 133b 33bd 712e 67be 7c23 20be ac5b 113e
00000060: 7c04 1ebd d59f 50bb fa55 b2bb a813 853d
00000070: 288f d9bd f5f4 f1bd 73d1 8ebe 20f9 8bbd
00000080: 257a d33c e129 763e f2ff 73bd 6f34 0abe
00000090: 24d3 c73d 72e4 bebc 53e4 283e b8ad 993d
000000a0: 2010 ae3d 59ea 7b3d d917 83bd 4267 a9bd
000000b0: 8b59 8b3e 8088 7dbd b8d1 52be bcef 1cbd
000000c0: a88d 153e 9d83 683d 2261 6cbd 5fc2 24bd
000000d0: edcf c6bd 7831 20be 5445 623d c6a4 32be
000000e0: 92c6 d1bd 511e 93be b949 923c 76c4 be3d
000000f0: c73b a13d f6ce 2abd 3210 9bbb 4013 de3d
00000100: 932a febd 1077 0cbe 1616 983d ab69 0a3e
00000110: 1e9b 053e 211f 013e b5e2 3ebe e4f4 a9bc
00000120: 1ab0 ea3d 2670 373e 27ba 78be 40aa f43c
00000130: 07bc 97bc 15ba d5be 9999 f33c 9fbd 58bd
00000140: 8e60 f5bd 1e83 40bd 9b32 253e a842 123e
00000150: 4170 943d cc69 89bc aa0c 0e3e 620e 27be
00000160: 5a5f 593d e61d f5bd d4d4 433e f51c 06be
00000170: d309 ddbd 1029 f73c 831c c93d 9b62 0d3e
00000180: 4cdf cbbd 2171 51bd 7822 003e f716 993d
00000190: c839 06be f87c 2b3e d611 343d 9216 013e
000001a0: 44a9 0b3e ea7e 493a 5d0d 783d 6c1b 6dbd
000001b0: 043f d13c 1102 703d 271f bdbd 6e06 80bd
000001c0: 62a4 d1bd 0238 a6bd 860d 96be 3d45 243e
000001d0: c1d8 223e 7bca 35bd f7ba 8dbe 78ff 94bc
000001e0: f22b 4fbe 3232 af3d 50e7 0ebe e806 20bd
000001f0: 4e5e 04be 5297 473d f180 23bd 7d12 133e
00000200: 7eb8 7e3c ed9c 63be 206b dabd 7ef0 b23d
00000210: 60df 5cbe bad5 17be 3ab8 e33d bd85 55be
00000220: 918b 313e 716b 16be c6fb e7bd 3a44 3bbe
00000230: 3194 73bd a004 4b3e 3755 91bd c23d c5bc
00000240: de13 d83d 8c96 723e 55b9 5fbc 886f d73d
00000250: b6cb 0f3e 6a98 eabc 914c 053d 98a5 1fbe
00000260: d138 a03d ce99 dc3d b327 9bbd fdcd 4f3e
00000270: 8e5d babc ce15 983c 5e84 bb3d 45d5 be3c
00000280: e818 8f3d 6d84 00be 296e debc 69de 68be
00000290: 991c 083d 5e98 bfbd d268 283e fa1a e63c
000002a0: aea7 ee3d 2c66 c33c c78a 3ebe 8678 af3d
000002b0: 8ffb 18be 4470 a0b9 867f 1b3e cdf9 b0bd
000002c0: 5ff1 ec3d 698e 96bd 63ee 303e 4064 36bd
000002d0: f6f0 6abd d07f bbbd 045f f33d e784 f5bd
000002e0: 1c99 82bc b185 c33d 7f83 abbd 8244 24bd
000002f0: 24ef 05bd c585 2bbe 861d 76bc ac99 573e
00000300: a2c6 c93d e94a 56be 3d1e 183d cb6b 333e
00000310: d496 83bd 4e34 e93c 22bb 11bd 377f 84be
00000320: 47a7 193d 4f6a b83d d592 aabc 3740 6fbe
00000330: 821b 973d 2e90 0f3e 60a9 38bd b9a2 1bbc
00000340: c43e 81be 19ed fb3c 299e 383e 25d9 8a3e
00000350: 7d32 50bc 0691 28be 6978 9fbc af61 ff3d
00000360: 7898 053e a1f9 e83c 9a9c 073d fd7a bebc
00000370: 827c 923d 26bb 80bd 7762 683d 12ac bb3d
00000380: e180 0d3e 1b30 3e3d 1af2 56bd f087 173e
00000390: 1d0e 2d3e 3905 f6bc 2fe7 003d c193 593e
000003a0: 350c 8e3c 9fd8 acbd 40e1 8d3d 6a6c 36be
000003b0: 9634 a5bd 1e1b 2fbe ed96 883c a013 a13a
000003c0: bead 033e 647d 1fbe d552 febc 06e4 90be
000003d0: 5c35 913e 5bb2 49bd ebd0 2b3d 58c0 f83d
000003e0: 1a90 95bb d57f 77bc df82 383e cf02 113c
000003f0: deef 953d 4d59 6f3e d980 bfbc d4d8 c8bc
0.072167836 0.033258516 0.021529237 -0.16118382 -0.07500393 -0.05843909 -0.0649123 -0.14726159
0.051522765 -0.134647 0.10517375 -0.0894013 0.009455848 -0.14258029 -0.14851996 -0.026210232
0.14775401 -0.13245125 0.15040435 -0.11063184 -0.04375751 -0.2257631 -0.15638536 0.14195126
-0.038578495 -0.0031833549 -0.005442378 0.0649789 -0.10623008 -0.118143 -0.27894172 -0.06834626
0.025815079 0.24039413 -0.05957026 -0.13496564 0.09757069 -0.02330229 0.16493349 0.07503837
0.08499169 0.06150279 -0.06401033 -0.08271648 0.27216753 -0.061897755 -0.20587814 -0.038314566
0.14604819 0.05676614 -0.05770982 -0.04022443 -0.097076274 -0.15643871 0.055241898 -0.17445669
-0.102429524 -0.28734067 0.01785742 0.09314816 0.0787273 -0.04170128 -0.0047321552 0.108435154
-0.12410464 -0.13717294 0.074260876 0.13516872 0.13047454 0.12609531 -0.1864117 -0.020746656
0.1145937 0.17913875 -0.24289761 0.029866338 -0.018522276 -0.41743532 0.029736327 -0.05291521
-0.11981307 -0.047000043 0.16132586 0.1428324 0.07247973 -0.01677408 0.13872018 -0.1631408
0.05306945 -0.11968593 0.19124156 -0.13096984 -0.107928894 0.030170947 0.09819891 0.13807146
-0.099547 -0.05113328 0.12513149 0.07475083 -0.1310798 0.1674689 0.043962322 0.12606266
0.13638788 0.0007686453 0.06055962 -0.05788748 0.025542744 0.05859572 -0.092344575 -0.06251226
-0.10236432 -0.081161514 -0.29307193 0.16042037 0.15902998 -0.044382554 -0.27681705 -0.018188223
-0.20231608 0.08554496 -0.13955426 -0.039069086 -0.129266 0.048728295 -0.03991789 0.14362521
0.015546916 -0.22227831 -0.10664964 0.087372765 -0.21569586 -0.14827624 0.11119123 -0.20851798
0.17338397 -0.14689423 -0.11327319 -0.18287745 -0.0594675 0.19825983 -0.070963316 -0.0240773
0.10550664 0.23690242 -0.013655026 0.1051932 0.14042553 -0.02863713 0.032543723 -0.15590513
0.07823337 0.107715234 -0.075759314 0.20293422 -0.022749688 0.018565085 0.091561064 0.023295054
0.06987172 -0.12550516 -0.027152138 -0.22741093 0.033230398 -0.093552336 0.16446236 0.028089035
0.11653076 0.02385243 -0.18607627 0.0856791 -0.14939712 -0.00030601223 0.15185365 -0.08641396
0.115694754 -0.07351381 0.17278437 -0.0445292 -0.057358705 -0.09155238 0.11883357 -0.1198824
-0.015942149 0.09546984 -0.0837469 -0.040104397 -0.032698765 -0.16750248 -0.015021687 0.21054715
0.09852339 -0.20927013 0.037138212 0.17521589 -0.064252526 0.028467324 -0.035578854 -0.25878307
0.037513044 0.09004652 -0.020821968 -0.2336434 0.073782936 0.14019844 -0.045083404 -0.009499245
-0.252432 0.030752705 0.18029083 0.27118793 -0.01270735 -0.16461572 -0.019466596 0.124698035
0.13046443 0.028439345 0.03310833 -0.023252005 0.07152654 -0.06285696 0.05673453 0.09163679
0.13818695 0.046432596 -0.05247698 0.1479795 0.16899915 -0.030031787 0.031470474 0.2124777
0.017339805 -0.08439755 0.06927729 -0.17814794 -0.080666706 -0.17100188 0.01667353 0.0012289174
0.12859246 -0.15575176 -0.031045357 -0.28298968 0.28361022 -0.04924236 0.041947287 0.12146062
-0.0045642974 -0.015106161 0.18018673 0.008850767 0.07321142 0.2337391 -0.023376869 -0.024517454

f_percept.percept.3.bias f4 [64]
00000000: 4435 1abb bc54 4f3b c307 5e3b a539 373b
00000010: 9430 333b e71f 993b 9ca8 b7ba 5f6e 253b
00000020: b5e9 d0ba 38ad 413b 2174 953b c355 21bb
00000030: 7ea0 603a 52d5 903b 29a4 0637 9ca7 a2bb
00000040: 0b22 27bb 0f81 4cbb ab5f 483b 9f3e 3db9
00000050: 9bff 063b 98a0 dd3a 0957 713b 8c76 a63a
00000060: 845a 40ba 2137 773a 12ef 8d3b de8a 16bb
00000070: e13d 8abb cee5 a3ba 1f2f 1d3b 6ef6 8cbb
00000080: 7172 643b c672 993b 5ff9 b1b9 cb3f aeba
00000090: 9854 e43a 3726 303b afca 593b 8042 b4ba
000000a0: f041 28bb 343b e539 b520 c03b 870e e539
000000b0: 7382 a839 585e 30ba 2459 823b dcf2 c03a
000000c0: 4ba1 1dba 61ab fb3b 9a9b 19bb 1ac4 843b
000000d0: 68c5 903b 7c10 993b ced6 60bb 3922 0f3b
000000e0: 89a5 5cba 352c 6b3b 655d cabb 8db6 553b
000000f0: 8df9 fbb8 223e ae3b 5d26 c1ba 1b94 fd3a
-0.0023530284 0.00316362 0.0033879138 0.0027957943 0.0027342187 0.0046729925 -0.0014012042 0.0025242788
-0.0015938791 0.002955271 0.004560963 -0.0024617768 0.0008568837 0.004419961 8.025244e-06 -0.0049638283
-0.002550247 -0.0031204855 0.00305746 -0.00018047773 0.002059913 0.0016908823 0.0036825559 0.0012700125
-0.00073377066 0.0009430517 0.004331478 -0.0022970955 -0.0042188023 -0.00125044 0.0023984385 -0.0043018376
0.0034858251 0.0046828715 -0.00033945867 -0.0013294158 0.001742023 0.0026878247 0.003323238 -0.0013752729
-0.0025674067 0.00043722393 0.005863274 0.00043689107 0.0003214065 -0.00067279255 0.0039779115 0.0014720815
-0.0006013109 0.007680342 -0.0023438693 0.0040516974 0.004418064 0.0046711545 -0.003430772 0.0021840467
-0.00084170006 0.0035884504 -0.0061756843 0.003261003 -0.00012015095 0.0053174654 -0.0014736165 0.0019346507

manager.M_space.weight f4 [64, 64]
00000000: dcb2 ffbc 83bd f83d fe03 a33e 242e 25bd
00000010: 82bf 8c3d 6287 363e 3ffd 54bd e34e 393e
00000020: 471a 423e fda4 16bd cdaa e2bc 092a dcbd
00000030: 0340 04be 508c 0e3e b6b2 10be 0a42 fd3d
00000040: 503a 45bc 69f0 2e3d 7f37 e1bd e99f 06be
00000050: cd8a 71be 120a 8dbc 8985 46bd ccce 6d3d
00000060: 0eed 453e 63a6 b1bd 076b 68be 00b1 4f3d
00000070: c805 023d f87a 7dbe 48a2 06be 0a70 3dbd
00000080: ded9 9cbd dc71 d9ba 193e 27bd 5a97 f5bd
00000090: 8f63 3ebe 4a0d ff3d 5ab1 983d da2d 493e
000000a0: da14 32be 0ff3 b4bd f0b3 863e 7384 6bbc
000000b0: 23c7 1cbd 9c65 18bd 624e bebd e75c e53c
000000c0: 140f 91bd 90a6 fabd fefb 0abe 7396 a8bc
000000d0: 3412 e13d 4419 06be 9144 a63d f990 343e
000000e0: b94c 0dbe 9f0b 9e3d 3e10 a5bd cb0d 093e
000000f0: b01d 1fbd e4f2 42bc 93cc b2bd 825d f13d
00000100: 005c c83c dc56 dfbb e643 10ba ba74 e33d
00000110: 56ee 54bc 653d 08bd 64bc 323e 1118 5d3e
00000120: 9cd3 e13d 35d5 c33d 8e91 3bbd 9701 cbbd
00000130: 6822 3fbc 8cfb d7bd ab7e 2ebd ebc7 70be
00000140: fd97 b3bd dbe5 d7bd 1655 3abd f0b0 c3bd
00000150: 0bd7 2abd 786c 493d 73a0 8bbd ccc5 963e
00000160: f44f c5bd e6d6 e93d c1cc abbd e82e fe3b
00000170: 0e44 35be 5d84 203e 04d3 633e 61b2 653e
00000180: 503e ec3d 8f21 043e 03f8 8fbc eeff ea3d
00000190: db9f f6bd 1c27 3bbc fcfc 3ebd fc22 e0bd
000001a0: 3568 12be 43d6 77bc 57e4 523d ff92 2d3d
000001b0: fe47 f1bd 5b93 1c3e 4837 3f3c af4b c33d
000001c0: 42dc be3d a089 c63d 9fdf d4be e7aa c53d
000001d0: 09a7 82be 05e5 84bd cf47 403e 7a20 18bd
000001e0: 6c06 c93d d2aa 7f3d c08f f1bd bc6b f5bc
000001f0: 9d77 e33c 478f 593d 7087 9f3d a435 bb3d
00000200: 7d29 18be 355e c8bc 7e54 f13d 7487 08bb
00000210: 11e5 e63d 1468 41be a5c7 20bd d84c cc3e
00000220: 91a3 023e f1bb 1ebe cefe 4fbd c145 cb3c
00000230: 1b2d af3d fbd3 fa3a ff26 903d 9ce6 c23b
00000240: 6626 25bd cf3b 4c3e aa24 33be 49dd eb3d
00000250: 2d50 683e a435 23bd 2ba0 68be 5467 58be
00000260: 64d5 adbd c546 f33c 2c88 fb3c f846 d83c
00000270: 8d2b 09be ffc0 88bd 468d aa3d f1e2 0d3e
00000280: 4cb3 003e c56c a33d f48c 2237 5143 d63d
00000290: 8ae7 623c cc2e 413d 787c 553d cc80 e83c
000002a0: 1dc7 ffbd b880 0d3e 7124 d3bc 22b1 ebbd
000002b0: 2263 e5bd 9987 23be 95b8 913a ec54 1b3e
000002c0: 35b8 1b3e 0a52 60bd 92d2 fa3d 2d09 10be
000002d0: f466 d33d 005f 303d 3d0d f9bc 59ec 903c
000002e0: 9460 a1bd 907e 053e 935c 0e3d 5828 ec3d
000002f0: 7076 823d 1793 be3c d7e0 663e 59e0 97be
00000300: b34f 373d 0e2b 6c3e 224a e9bd 3d01 643e
00000310: fdb8 aa3e e0cc 76bd c15d 30bb 140b b83d
00000320: ce89 023e ada0 883c 86d2 203d 9a17 54be
00000330: bee7 b63d ed86 123d 52cd c43d fd7c 20bd
00000340: a4c7 9f3e 8c9b b53b b44e 023d b4a4 0e3e
00000350: 4d6b bebd a3fc 1e3d 355f fe3b f74f a6bb
00000360: 9f2b deba 1970 edbd e0ae 303c a034 c93d
00000370: 8574 d4bd 2261 463d dbe3 863d da67 0abe
00000380: 9d45 69bb a7ef dabc 0c0d 903d 0778 403e
00000390: 6c57 893d c1b2 3c3e ef31 c63d 242f f83d
000003a0: 63aa 8f3c 2d8c 413e 6050 383e cf32 223e
000003b0: 1687 d03c 816e a73d 9cc1 503e ac8f 723d
000003c0: 9d69 4dbe 3a01 87be e901 a1bc 0c6f 1e3e
000003d0: 29ba a1bd a9a3 923d adc6 6abe 9f19 dfbd
000003e0: 7ca7 8f3d c538 04be 3d2c 1b3d 78fe bdbd
000003f0: fddc ac3a 6365 cdbc 2219 a5bb fc20 ea3c
-0.031213216 0.121455215 0.31838983 -0.040327206 0.06872465 0.17825082 -0.051999327 0.18096499
0.18955337 -0.03677844 -0.027669335 -0.10750205 -0.12915044 0.13920712 -0.14130673 0.123661116
-0.012037829 0.04270974 -0.10996913 -0.13146938 -0.23588105 -0.017216716 -0.048467193 0.058058545
0.1932871 -0.08674314 -0.22697078 0.05070591 0.031743795 -0.2475394 -0.13147843 -0.046249427
-0.07658742 -0.0016589719 -0.040830705 -0.11991759 -0.18592666 0.124537066 0.07455702 0.19646397
-0.17390767 -0.08835422 0.26309156 -0.01437484 -0.03827585 -0.037206277 -0.09292294 0.0279984
-0.07082954 -0.122388005 -0.1357269 -0.020579552 0.109898 -0.13095576 0.08118547 0.17633428
-0.13798799 0.0771706 -0.080597386 0.13384168 -0.03884667 -0.01189873 -0.08730426 0.11785413
0.024457932 -0.0068157744 -0.0005503282 0.11106248 -0.012996277 -0.033261675 0.17454678 0.21591212
0.110266894 0.095621504 -0.04579311 -0.099124126 -0.011665918 -0.10546026 -0.04260127 -0.23513763
-0.08769224 -0.10541888 -0.0454913 -0.095552325 -0.041708987 0.04917571 -0.06817713 0.29447782
-0.096343905 0.11417942 -0.08388663 0.0077570565 -0.17701742 0.15675493 0.22248465 0.22431327
0.11535323 0.12903427 -0.017574316 0.11474596 -0.12042209 -0.011422899 -0.046627983 -0.10944173
-0.14297564 -0.015126768 0.051487293 0.042376515 -0.117813095 0.15290587 0.011670895 0.0953592
0.093193546 0.09694219 -0.4157686 0.09651738 -0.25518063 -0.064889945 0.18777393 -0.037140347
0.09815678 0.062418766 -0.11794996 -0.029958598 0.027766997 0.053115156 0.077895045 0.091410905
-0.14859577 -0.024458984 0.11783694 -0.002083269 0.1127416 -0.18887359 -0.039252896 0.39902377
0.12757708 -0.15501381 -0.05078011 0.024813535 0.08553525 0.0019136661 0.07038688 0.005947901
-0.040319823 0.1994469 -0.17494455 0.11516816 0.22686835 -0.039846078 -0.22717349 -0.21133167
-0.08487967 0.029696831 0.03070458 0.026401028 -0.1339552 -0.06677436 0.08327727 0.13856103
0.12568396 0.079797305 9.688771e-06 0.10462058 0.0138491485 0.04716377 0.052120656 0.028381728
-0.1248915 0.13818634 -0.025774213 -0.11508395 -0.11200549 -0.15969695 0.0011117632 0.15169114
0.15206988 -0.05476574 0.12247194 -0.14066 0.10322371 0.04305935 -0.03040182 0.017690824
-0.07879749 0.13036561 0.034756254 0.115311325 0.063702464 0.023263497 0.22546707 -0.2966335
0.04475374 0.23063299 -0.11391093 0.22266097 0.3334426 -0.060253978 -0.002691135 0.08986488
0.12747881 0.016678179 0.03926327 -0.20712128 0.0893092 0.035773207 0.09609474 -0.039181698
0.31207 0.0055422243 0.03181334 0.13930017 -0.0929781 0.038815152 0.0077628144 -0.0050754505
-0.0016950256 -0.115936466 0.010783881 0.098244905 -0.10373787 0.048432477 0.06586429 -0.13516179
-0.0035594471 -0.026725603 0.070337385 0.18795787 0.067061275 0.18427564 0.09677493 0.12118366
0.017537301 0.18901129 0.1799941 0.15839694 0.025455039 0.08175374 0.20386356 0.059219047
-0.2005982 -0.26368123 -0.019654231 0.15472049 -0.07896835 0.07160122 -0.22927351 -0.10893559
0.07014367 -0.12912281 0.037883986 -0.09277052 0.0013188418 -0.025072759 -0.0050383965 0.028580181

manager.M_space.bias f4 [64]
00000000: a110 fdb9 1f5e 0b3b 3979 bf3a b8a5 233b
00000010: a3ff 0d3a 5b42 553b a637 3fbb b2f9 67bb
00000020: 7deb 0f3b 56f8 4c3b f803 953a 5520 993a
00000030: fc6c 40bb 3151 ac3b 6da3 6c3a aa48 a03a
00000040: d19e 163a 353e 853b 6756 85ba 665f 3fbb
00000050: ddfe 333b 7b3e e739 2e33 e9b9 845f 7f3b
00000060: 68cc 403b a86e c7ba 5445 0dba 7200 ae3a
00000070: bc48 41bb fdb8 303b 2c35 a6ba 9308 803b
00000080: c4c4 463b d20d c73b 10fb 253a fa73 8cbb
00000090: 85b3 6dbb e4ff 6fbb 79e8 2bba 3c38 a63a
000000a0: 6d20 b1ba 5fdc cfba 90eb 65bb 6b90 91bb
000000b0: 66db ab3a 0d19 343b a6c0 48bb d736 4bbb
000000c0: f8ce bc3a d2b3 283b c11c 22bb 43fa 0f3b
000000d0: 8967 4cbb b303 a3bb a77b 963b bfe7 15bb
000000e0: a903 33bb f6dd cdb9 bc30 7b3a b9e3 1eb9
000000f0: 58ac bb39 b746 b7bb 5c56 b9bb efcf 443b
-0.0004826831 0.0021265817 0.0014608271 0.0024970602 0.0005416816 0.0032540772 -0.0029177456 -0.0035396633
0.002196043 0.003127595 0.0011368981 0.0011682609 -0.0029361835 0.005258702 0.0009027038 0.0012228687
0.00057457114 0.0040662535 -0.0010172845 -0.002920115 0.0027465143 0.00044106305 -0.00044479355 0.0038966844
0.002941871 -0.0015215473 -0.0005389054 0.0013275279 -0.0029492816 0.002696573 -0.0012680641 0.003907272
0.0030329684 0.0060746456 0.0006331662 -0.0042862864 -0.0036270332 -0.0036621029 -0.00065577734 0.0012681554
-0.0013513692 -0.0015858522 -0.0035083033 -0.004442265 0.001311165 0.0027480752 -0.0030632406 -0.003100803
0.0014404943 0.0025741947 -0.0024736377 0.0021969236 -0.0031189641 -0.004974806 0.004592377 -0.0022873727
-0.0027315414 -0.0003926602 0.0009582152 -0.00015152887 0.00035795826 -0.0055931467 -0.005656047 0.0030031165

manager.M_goals.weight f4 [64, 128]
00000000: b3b3 91bd 20db 0abd 6bb7 15bd b37f d3bd
00000010: 3e40 273e 342c 083e d022 0e3d 9e2a 763d
00000020: 4cea 0cbe 2f25 2a3e c2bb e63c 2786 a0be
00000030: fcb2 2a3e 6922 1b3e a036 c33c 0185 2a3e
00000040: b49a 60bd b39e ba3c ccf3 f4bd e97e 6a3c
00000050: a53b 98bd fcaa 6a3d 9890 0b3b cfcc 283c
00000060: 2fe1 cabc 6a01 83bd f307 d8bb 3ac1 20be
00000070: dedc 163a af9d 60be d421 4bbd 2899 ecbc
00000080: 248b c53d 7a0b fdbc 6453 bbbc 2608 b03d
00000090: d6e4 26bd 719c 94bd 2c5d ec3d 415a 8dbd
000000a0: db48 81bd c19b d8bd 7f46 103e 728e 2e3d
000000b0: 3627 843c 8a84 8d3c b25c cebd 9f7b fabd
000000c0: cdcb e0bc 5240 183b ee0e 1f3d f593 833d
000000d0: c60e ac3d 8b24 1b3e ceb5 70bd 5725 1f3e
000000e0: c161 303c 41d8 3d3d b4b9 2abe acf7 03bd
000000f0: b24e 333d 8979 b53d 799e 6abd b6d0 a23b
00000100: 4626 af3d 6406 2b3e 72ef c6bd 3fd5 973c
00000110: f9fe 80bc 6671 29bd 5bb1 ec3d 8d82 a0bd
00000120: 4efc 34bd 57a8 30bc 3cbd 943d 10d5 72bd
00000130: 4da6 233e 2d2c 79bd b5ac 66bd f824 683d
00000140: 70f0 e33c 03b8 cdbc 0fa4 3a3c 8991 063d
00000150: 3f6f a03c 4eb1 57bd 4f60 b43a 9919 7cbd
00000160: fb1b 54be 1111 183c 8751 08b9 f49e 2a3d
00000170: fcf8 493d 028c 093e ceb9 ff3c e68c d93c
00000180: 3058 d53d 4f17 26bd f928 923d afd0 9fbc
00000190: a852 49be 6b7c 84bd 19d8 fb3d 3cf2 0c3b
000001a0: a3f0 783d 9811 b13d ecca 8fbc 2e9d a13c
000001b0: 6344 cf3d 2e5f 9e3c 4697 de3b e81c b2bc
000001c0: 2466 c4bd 5fe3 1e3d f7c8 07bc 42b2 013d
000001d0: 7c4d 163d c27f 8b3d a1d4 223e 8573 a2bd
000001e0: a0b0 0dbd deff 343c 6de5 0bbe 4072 163e
000001f0: d115 273c d6e4 63bd 1ee7 b53b 3ad8 ee3c
00000200: a797 dc3d ffca 63bd b767 e5bd ef0e c6bd
00000210: 67f6 e83d c146 0cbe 0cd1 b13d 991d 2f3e
00000220: faa7 87bd 11fb 16bb 8929 88bd 2938 b3bc
00000230: 4b1c 17bd e820 5fbd 7b46 2f3d 2773 4ebd
00000240: 48de d6bd d0aa f9bb bc18 42bd c0b5 8d3d
00000250: 9343 4d3e 4932 b53d e379 58bd 208f 203e
00000260: cff2 093e ca8b 473e cf4e 25be 9ffa 423d
00000270: f8a8 093d 30b9 b43c 9a79 7a3c 9d31 3ebd
00000280: c300 0a3d 4e49 2c3d ea2c a03d 2125 bb3c
00000290: d7a8 58bd 887b 653d bf64 d23c 63c1 4cbd
000002a0: 1669 6ebc f407 c63b 589f 0d3e d64b 0fbc
000002b0: 3a99 20be 25ba c73d 22bc 5c3c c1f3 b1bd
000002c0: 2bc6 a2bd 1fe9 bf3d 2cf5 0ebe de3e c03d
000002d0: 834e 68bd 5b6b 7abd c7ea 83bd 28a5 173c
000002e0: 39eb 7f3c 9d57 91bd fe4b 8f3b c82d 70bd
000002f0: 7a10 a7bd 3317 cbbd e205 f23d ff06 b0bc
00000300: 3f5a c8bc 92e6 883d 2ef9 cbbd b23b 893d
00000310: 8c90 053d db54 b2bc 8a22 8d3d b3bb fa3d
00000320: abb7 743c f3a0 a2bd 0499 e2bd baee 42be
00000330: 7336 f93c edc7 ac3c ea6b ae3d a82a edbd
00000340: e9d5 883d 2799 403d 24ca d9bc 0cfc 68bb
00000350: 94f7 8d3d 0840 a63c b2d7 f33b 23d7 053e
00000360: 483a f7bc 6d53 563d 90e8 19bd 64e7 6b3e
00000370: e270 dabd 9905 a2bd f226 c5bc 6b90 16bd
00000380: a2df 8cbd e776 fe3d 1b6c d13d d6f7 babd
00000390: fcc2 82bd d124 263e a5f5 43bd 9585 45bd
000003a0: 5352 ff3b 8f3e 323e 6c26 1a3c 24be 10be
000003b0: 058c ad3d 5240 263d fdba 803d 3ada ea3b
000003c0: 4f6d c7bc 95b2 45bd bdab 043e 3980 a6bb
000003d0: d867 bcbd c2e5 1cbe 34f5 f5bc 3b36 af3d
000003e0: 32d4 d13c 5d5a 283d 432b 1bbe 9324 dcbd
000003f0: fb8f 7f3d d5aa c7bc 14a9 5dbe f651 c7bd
-0.07114353 -0.03390038 -0.036551874 -0.10327091 0.163331 0.13298112 0.03470117 0.060099237
-0.13761252 0.16615747 0.028165702 -0.3135235 0.1666984 0.15149845 0.023829758 0.166523
-0.054835036 0.022780752 -0.11960563 0.014312484 -0.07433251 0.05729197 0.0021295901 0.010302736
-0.024765579 -0.06396754 -0.0065927445 -0.1569871 0.00057549577 -0.21935152 -0.049592808 -0.028881624
0.096456796 -0.030889262 -0.022866912 0.08595304 -0.04074558 -0.07256401 0.115412086 -0.0690198
-0.06312724 -0.10576583 0.14089392 0.042616315 0.016131978 0.017275114 -0.10076274 -0.1223061
-0.02744093 0.0023231697 0.038832597 0.06424705 0.08401255 0.15150659 -0.058767132 0.15541588
0.010765494 0.046348814 -0.16672403 -0.03221862 0.04377622 0.088610716 -0.057280038 0.004968728
0.08552222 0.16701657 -0.09713639 0.0185343 -0.01574658 -0.04136791 0.11557265 -0.078374006
-0.04418593 -0.010782323 0.07262656 -0.059285223 0.15981407 -0.060833145 -0.05631705 0.05667588
0.02782461 -0.025112158 0.011391654 0.032853637 0.019584296 -0.052659325 0.0013761612 -0.06154785
-0.20713799 0.009281413 -0.00013000342 0.041655496 0.049309716 0.13432315 0.031216528 0.026556443
0.10417211 -0.040549573 0.07136721 -0.019508688 -0.19660437 -0.06469043 0.12297077 0.0021506688
0.060776364 0.08645934 -0.017552815 0.01972827 0.101204656 0.019332495 0.0067929355 -0.0217423
-0.09589794 0.038791057 -0.00828766 0.03166414 0.03669499 0.06811477 0.15901424 -0.0793219
-0.03459227 0.011047332 -0.13661738 0.1469202 0.0101980725 -0.055638157 0.005551233 0.02915584
0.10771113 -0.055613514 -0.11201423 -0.09670817 0.113751225 -0.13698865 0.08682451 0.17101134
-0.06623836 -0.002303783 -0.06648547 -0.021877365 -0.036892217 -0.05447474 0.042791825 -0.050402787
-0.104916155 -0.0076192394 -0.04738687 0.06919432 0.20045309 0.08847482 -0.052850615 0.15679598
0.1347153 0.19486919 -0.16143344 0.047602292 0.033608407 0.02206096 0.015287781 -0.046434034
0.033692133 0.042062096 0.07821067 0.022844853 -0.052895393 0.05602601 0.025682805 -0.049989115
-0.014551422 0.0060434286 0.13830316 -0.008746108 -0.15683451 0.09752301 0.013472589 -0.086890705
-0.07947954 0.09370636 -0.13960713 0.09386991 -0.0567155 -0.06113754 -0.064412646 0.009255685
0.015620046 -0.07096789 0.0043730726 -0.05863741 -0.081574395 -0.09916534 0.11817528 -0.021487711
-0.024457095 0.06684603 -0.09959637 0.06700839 0.032608554 -0.021768978 0.068913534 0.12242832
0.014936368 -0.07940855 -0.11064342 -0.1903638 0.030421471 0.021091426 0.08516677 -0.11580402
0.06681425 0.047021057 -0.026585646 -0.0035550622 0.069319874 0.020294204 0.0074414844 0.1307035
-0.030179158 0.052325655 -0.037575305 0.23037487 -0.10666062 -0.07911224 -0.024066422 -0.03675882
-0.06878592 0.124250226 0.102256976 -0.09129302 -0.063848466 0.16224982 -0.047841687 -0.048223097
0.0077917962 0.17406677 0.009408575 -0.14135033 0.08473972 0.040588684 0.06285665 0.007167128
-0.024344115 -0.048266012 0.12956138 -0.0050812033 -0.09199494 -0.1532202 -0.030024149 0.085552655
0.025613878 0.041101802 -0.15153222 -0.107491635 0.06239317 -0.024373451 -0.2164653 -0.0973243

manager.M_goals.bias f4 [64]
00000000: 68ee 0739 fa41 31bb fff4 563b ef32 183b
00000010: e360 85bb 0c2c 86bb e4d8 3b3b 4628 29bb
00000020: f725 84bb 1ab2 433b b6c7 f939 7016 343b
00000030: fbf6 203b 46d5 57bb d6ae c23a 1c9c 35bb
00000040: 472d c5bb f770 423b f2ed 363b 8630 53b9
00000050: db8a 3abb 9353 083a 7fe4 163b 339b 5b3b
00000060: 1489 05bb 5206 6cbb 2bd1 5bbb 7aba 243b
00000070: 10ba 133b 1def 5d3b a3fb 74bb ed14 1fbb
00000080: 8508 c0bb 78f0 dfba b381 3abb ebe6 7a3b
00000090: e083 a8bb ba22 13bb 2b90 71bb 21d6 263b
000000a0: 0d92 f53a 1721 a2ba 6ab5 36b7 ae6d f2b6
000000b0: e20a 813b 9c9a 4cbb 012f feba ca07 bdb9
000000c0: e4a3 9c3b 2db3 06bb 71bf 683b fadc 703b
000000d0: 6fac 7cbb 3256 2b3b 87e0 743b f12b 423b
000000e0: dd90 ac3b dbaf a5bb ebcf 21bb 1a2d 283b
000000f0: 853c 213a 8aab 023b 6663 483a 45b3 193b
0.00012963417 -0.0027047382 0.0032799838 0.0023223718 -0.0040703877 -0.0040946063 0.0028663212 -0.0025811358
-0.004032846 0.0029860795 0.00047641777 0.0027479194 0.0024561274 -0.0032933517 0.001485313 -0.0027711457
-0.0060173604 0.0029669383 0.0027912823 -0.00020140604 -0.0028464112 0.0005200442 0.0023024378 0.0033509254
-0.0020375894 -0.003601451 -0.0033541422 0.0025135563 0.0022541322 0.0033864446 -0.0037381432 -0.0024273947
-0.0058603906 -0.0017085215 -0.0028458654 0.003828461 -0.005142674 -0.0022451119 -0.0036859612 0.002545722
0.0018735543 -0.0012369481 -1.0890284e-05 -7.2249304e-06 0.003938065 -0.0031220084 -0.001939267 -0.00036054692
0.0047802795 -0.0020553574 0.0035514499 0.0036752806 -0.0038554927 0.0026143906 0.0037365274 0.0029628242
0.0052662925 -0.005056364 -0.002469058 0.0025661648 0.0006150681 0.001993867 0.0007644206 0.00234528

manager.M_value.0.weight f4 [32, 64]
00000000: 038d 173e e004 273e 3b79 1abe 8e78 1e3e
00000010: d2f7 2a3e 74b4 00bd 2b70 06bd d83e ff3c
00000020: 4d78 0abe 3405 a0bd a049 9bbe ee09 0b3e
00000030: 3773 143c 7fd5 66ba 9ee1 a43d b62d 40bd
00000040: a0e0 b13d e872 08bd a427 e2bc 33a7 88bc
00000050: 556d f83b 7945 16bd bbdc ffbd 878d 573e
00000060: 8f8c d2bc 18cd 903e c7e4 b33d c597 73be
00000070: 2f46 273d b2a3 3f3c 3f66 24be 7bae 293e
00000080: 0396 0d3e cde1 083e 7bd3 49bd afcc bbbd
00000090: 5f0f d23d 7b5c 65bd 1d96 aabc 7a3e b53d
000000a0: edac 103e d6b4 aa3d 73ad e4bd 878e 24bb
000000b0: d0e9 26be 4d04 49be a604 493d 7f0f 3b3e
000000c0: 9472 bb3d c516 73bd e65c e23d 7f2e 8a3d
000000d0: 932c 643e 2ea8 a43c 150e 16be f370 bdbb
000000e0: 18d6 4dbe 2f84 8b3d a116 bdbc 5e18 793d
000000f0: 41d8 00be be0e 45be a79d f73d 1fe5 273e
00000100: 7824 2abe bd60 523e 507a 0bbd 8c8d 33bd
00000110: a797 d23c 2852 443d 6981 1abe d5df 273d
00000120: 5d68 2cbd ffc8 aabe 6777 de3d 01c8 543d
00000130: 6676 a9be a275 c73c c815 31bb 7628 cbbd
00000140: 8ac1 643d f41f 7f3c 82dc 2d3e 5619 4cbe
00000150: 0c3c 19bc 11f4 903d c21e cb3d 5276 333d
00000160: 7af1 eabb 1016 92bd c66c e13d 5685 32be
00000170: 31d0 1abe d273 74bd 0a1b 22bd 25e1 193a
00000180: b4db 193e e2fb 533b 91c1 cf3d c85f 293e
00000190: 2e7e 093e aadc 453e e589 f33c 9c63 88bd
000001a0: 529b 883c e728 453c c4c1 913e eeca d53d
000001b0: 03f0 75bd d820 b13d ce24 823e fe6c d7bd
000001c0: 2075 35be 6e92 143d 7d26 d83c 0791 14be
000001d0: b22c a7bd 3a60 753d 59b5 003e 271d 12be
000001e0: 7241 523d 0af0 703d 8e8a db3d 0031 013e
000001f0: cf66 3fbe 03bf c8bd 72ce 583d ea78 a3ba
00000200: b59e 11be e836 b5bd 124b 153d ba58 503e
00000210: ea01 8b3c f5cb 11bd 35b7 2b3c e188 223d
00000220: 5631 f13d d4ee 743e efa6 3bbd a70a 113e
00000230: f70c 20bd 8800 383d e6df 4cbb 5b0f cdbe
00000240: 7e7c 9bbc 85e8 273e cc09 34bd 99aa 843d
00000250: fcca 84be 69b0 253e 0c33 1b3e ac90 113e
00000260: add0 063e 19e7 8bbd 676e a7bd fa61 08bb
00000270: ba54 313e da4c 563e c95f 243d 5fbd 94bc
00000280: 1f08 183e 744d d63d 9795 f6bd b599 babd
00000290: 3d2a 313d 8216 f1ba 2d28 c4bb 4933 273e
000002a0: d997 ff3d 7135 273e 97ee 753d 790d c53d
000002b0: 099e 243e be8d 963d cc77 24bd 509d 26be
000002c0: 248f 0f3e 29a0 d93d f268 1cbe 3131 7b3b
000002d0: 9649 dbbd 0fa5 91bc 511b aa3d 2f7f 99bc
000002e0: cc22 b8bb bf9f ddbc bd8c 3a3e 41a4 8bbb
000002f0: 2b41 0bbe f826 f23c 5cd5 84b9 f41a 883e
00000300: 31af 3c3e 09f9 9cbd bac3 953e d0eb 423d
00000310: 6a98 48be dc83 10bd 16ca 1ebe c483 c03c
00000320: 20c4 11bb 37e6 93bd 8972 2d3e dd37 a63d
00000330: e324 b43c 7746 85bc 126d 853d b447 4a3e
00000340: 2a01 6c3c 63ac 733c fbb1 27be 6c0c a73d
00000350: ec63 69bd 97e8 043b ba94 07be 2be5 e8bd
00000360: ab4e a8bc 990f 843e ce25 8cbd a51a 58bd
00000370: 6e59 4bbe ec90 3d3e d487 b8bc 5801 6c3d
00000380: 2090 06bd 40f4 d13d ded2 02be 5084 42bd
00000390: d5ae 8d3d 592d 583d b26f 77bc fbb4 6bbd
000003a0: 35af 5c3c e62b a9bd f447 fe3d 0f11 c4bd
000003b0: 71af 753d b68d 763e 8934 223e a2a9 0b3c
000003c0: 1a59 913e cdb3 1a3e 62e7 eebd 40ea cf3c
000003d0: e263 93bd 3921 483e b2f7 63be 8995 eb3c
000003e0: bfee 89bd 96a2 783c 4c31 893e a225 483e
000003f0: be01 d2bc e38b 9b3c 0d14 ab3d 667a 90bd
0.14799885 0.16310453 -0.15085308 0.15475675 0.16696098 -0.031422094 -0.032821815 0.031157896
-0.13522454 -0.078134924 -0.3032961 0.13578007 0.0090606725 -0.0008805617 0.080508456 -0.046918593
0.08685422 -0.03331271 -0.027606793 -0.01668129 0.007581393 -0.036687348 -0.12493273 0.21050082
-0.02570179 0.28281474 0.0878387 -0.23788364 0.040838417 0.011696743 -0.16054629 0.16570465
0.13826756 0.13367386 -0.04927395 -0.091699 0.10256838 -0.0559964 -0.020823533 0.08849807
0.14128466 0.08335273 -0.11165895 -0.0025109367 -0.1630013 -0.19630547 0.0490767 0.1826763
0.091527134 -0.059347887 0.11052875 0.0674715 0.22282629 0.020099726 -0.1465381 -0.005781287
-0.20101202 0.068123214 -0.02308208 0.060814254 -0.12582494 -0.19243905 0.12090617 0.16395997
-0.16615474 0.20544715 -0.034052193 -0.04383616 0.02570708 0.047929913 -0.15088429 0.040984947
-0.042091716 -0.33356473 0.10862618 0.05194855 -0.33098143 0.024348084 -0.002702104 -0.09919827
0.055848636 0.015571583 0.16978648 -0.1993154 -0.009352695 0.07077802 0.09917976 0.04381401
-0.0071698995 -0.07133114 0.11007075 -0.17433676 -0.15118481 -0.059680767 -0.039576568 0.0005870036
0.15025216 0.0032346179 0.10144342 0.16540444 0.1342704 0.19322458 0.02972884 -0.06659624
0.016675625 0.012033678 0.28468144 0.104390964 -0.060043346 0.086488426 0.25418705 -0.105188355
-0.17720461 0.03627246 0.02638554 -0.14508449 -0.08162822 0.059906222 0.12569179 -0.14268933
0.051331945 0.05882267 0.107197866 0.12616348 -0.18691562 -0.098020576 0.052931257 -0.0012471948
-0.14220698 -0.08848363 0.036448546 0.20346346 0.016968686 -0.0355949 0.010480692 0.03968132
0.11776988 0.2391923 -0.045813497 0.1416422 -0.039074864 0.04492238 -0.0031261384 -0.40050778
-0.018980261 0.16397293 -0.043954656 0.064778514 -0.25936115 0.16180576 0.15156192 0.14215344
0.13165541 -0.06831188 -0.081753545 -0.0020810352 0.17317477 0.20927754 0.04013041 -0.018156705
0.14846848 0.10463992 -0.12040251 -0.091113485 0.043253172 -0.0018393549 -0.0059862346 0.16328157
0.124801345 0.1632898 0.06004199 0.0962171 0.1607591 0.07351254 -0.04015331 -0.16270947
0.14019448 0.10626251 -0.15274408 0.003832888 -0.10707395 -0.017778901 0.083059914 -0.018737404
-0.0056193825 -0.027053712 0.1821775 -0.004261524 -0.13599078 0.029559597 -0.00025335967 0.26583064
0.18426205 -0.07664687 0.2925089 0.04758817 -0.19589391 -0.035282 -0.15506777 0.02350033
-0.0022242144 -0.07221644 0.16938223 0.08116124 0.021990245 -0.016268952 0.06514944 0.19753915
0.014404574 0.014872643 -0.16376488 0.08156666 -0.05698006 0.0020280236 -0.13240328 -0.11371835
-0.020545324 0.2579315 -0.06843148 -0.052759785 -0.19858333 0.18512315 -0.022525705 0.05761847
-0.032852292 0.10251665 -0.12775752 -0.047489464 0.06918112 0.052777622 -0.015102314 -0.057545643
0.013469507 -0.08260326 0.12416068 -0.09573566 0.059981767 0.24077496 0.15840353 0.00852433
0.28388292 0.15107651 -0.116652265 0.025380254 -0.071967855 0.19543923 -0.22262457 0.028757827
-0.0673499 0.015175482 0.26795423 0.19545606 -0.025635596 0.018987602 0.08353434 -0.07054596

manager.M_value.0.bias f4 [32]
00000000: 52fb 41bb 358e cabb da5d 473b 6e56 29bb
00000010: 9a4d 69bb 7a5a 67bb 3b1e 4a3b 808b ff39
00000020: ee5f 713b 00de 82bb 022d 5bbb abc5 56bb
00000030: 6062 f839 f741 74ba c420 52bb 57ce 373b
00000040: 2869 243b d13c 75bb 9921 483b 390f 783b
00000050: 5b42 493b 2d56 52bb 8bff 6abb bca6 86bb
00000060: 445f 233b d104 523b 0d53 473b b0fa 14bb
00000070: f11c 3bba fb81 69bb e8c1 493b b1d8 ed3a
-0.0029599261 -0.006181503 0.003042093 -0.002583887 -0.0035599233 -0.003530173 0.0030840773 0.00048741326
0.003683086 -0.0039937496 -0.0033443575 -0.0032771628 0.0004737554 -0.0009317691 -0.0032062987 0.0028046572
0.0025087092 -0.0037420283 0.0030537604 0.003785087 0.0030709717 -0.0032094822 -0.0035857882 -0.0041092318
0.002492861 0.0032046328 0.0030414492 -0.002273243 -0.00071377965 -0.0035630453 0.0030785743 0.0018146244

manager.M_value.2.weight f4 [1, 32]
00000000: 82cb e93d 99c6 443e 2fa9 adbe 0e6b 073e
00000010: 7bc6 673e bfc9 d23d 8788 62bd f3a1 33bc
00000020: 4c45 64be eccd 2a3e 48b5 0b3e ae09 e73d
00000030: 5be7 51bd 2ffd 8f3d 467b ef3d 583e 94bd
00000040: 6690 a6bd 5716 ab3d 9029 19bd e90b 5ebd
00000050: 6d91 0abe d5f4 203e e105 a03e dfa1 a73e
00000060: 9fda c6bc bbbf 75be 16db 57be 72a0 753d
00000070: b81b 4bbe c4ca d83e e5b0 78bd 2599 8fbd
0.11415769 0.19216384 -0.3391814 0.13224432 0.22634308 0.10292386 -0.055305984 -0.010963905
-0.2229206 0.16680115 0.13643372 0.11281143 -0.05124603 0.07030713 0.116934344 -0.072384536
-0.081330106 0.0835387 -0.037393153 -0.054210577 -0.13532038 0.15718396 0.31254485 0.32740685
-0.024274169 -0.2399892 -0.21079668 0.059967466 -0.19834793 0.42342198 -0.060715575 -0.07011632

worker.f_stateW.0.weight f4 [128, 64]
00000000: e88d 7e3d 89ef 4d3d 6cb5 55bd 061b 1ebd
00000010: 3a14 b0bd b15a 5e3d 78dc 2abc c55d 4fbe
00000020: 7064 c53d 5d11 a9bd 4683 9eba 29b9 a0bb
00000030: 73fd 40bc 2789 df3c d132 073e e177 debc
00000040: 6e70 be3d f9a7 a4bb f48b 6c3e b603 b8bd
00000050: c10c e5bd bab5 f5bd f3b5 07bd abe4 ae3c
00000060: 67ba 5c3e 5c45 c1bd ce0d 1d3e 210e f6bd
00000070: 2c25 e9bc 371c ffbc 4095 9a3d 70ea 403d
00000080: ea61 ca3d 9300 503d 460f a33b 6a5c 9c3c
00000090: 2a1b debc b142 babc e82f 8a3d 7743 91bd
000000a0: 2333 19be 9366 7d3d 4fd1 a63d 07d8 373b
000000b0: 3de8 41bd 2cfe 133d 476c f5ba cf2e 673d
000000c0: 2be0 5bbd ed55 fcbd 0274 793d 14f6 823d
000000d0: b5ee fb3d d679 7fbd ae8a 653d e3b5 1cbe
000000e0: 538c 4bbc 1d9f ee3c 4a5f 16be c2a2 2c3c
000000f0: fca6 933c 9610 fc3d b30d 123d ac30 b9bc
00000100: ff05 2f3d b3d7 073d 7594 0dbe 15a4 4dbd
00000110: 5f41 c0bd 5e60 923c 8f53 c43d fbad 1a3d
00000120: 3cfb e13d c200 713d 9ce9 f93c 2d27 eabd
00000130: f459 cbbb ab62 cfbd e5b2 963c b7a3 443b
00000140: 40d2 a23d e057 483d bcda 42bd 1f30 2e3d
00000150: 8ca7 8a3d e49c 78bb 5682 893d 382b dcbc
00000160: 905b 89be eafd c9bd 9d79 ae3d 4d91 c7bd
00000170: a5bb ad3c f9ac 213e 140e ed3c dd20 95bd
00000180: 6821 bcbd 1212 bcbd ea2b 03bc 81b1 1eba
00000190: 0a28 1dbd 3baa b2bd 0d37 c93c abd9 a8bd
000001a0: 3961 2c3d e002 eabd 1df0 12bd a79a a73d
000001b0: bcf7 0b3c 0572 a63d aaa2 35be 309d d6bd
000001c0: dac1 373e 9d97 b23b 0ccc c83d 5e68 0dbe
000001d0: 369b 143e cd7e 0c3c 1942 c1bd 6e6a 173e
000001e0: badf 063d 93a5 e73d 61f0 da3d 2620 033e
000001f0: 975e 0f3c 2b56 c93d 892a 933d aa51 96bd
00000200: 9a08 3fbc 11f1 9cbc ce99 0bbe a810 293e
00000210: 2300 cabd 1f00 febc 1115 e0bd 2b53 b43c
00000220: 7b8d de3d 69d5 9abc de0d 873d f02b e3bd
00000230: 40c6 90bd 3c68 1d3d 6354 a4bc a94b 40bd
00000240: f51f 51be 0b47 6cbd 1563 1bbd 2253 dbbd
00000250: c94e 9b3d c9c1 543d 551d 793b abb8 243e
00000260: 7554 ed3d 82ed 863d 027a 253d 24bc 893c
00000270: 90d0 573d 746b 83bc f501 cb3a d61a b73d
00000280: e2ac debd 7108 9bbd 52cd 54be 0d21 d0bc
00000290: a621 46bd 90bf af3c e325 c239 51c9 0b3d
000002a0: cb5a 88bd 773f 383d a03b 89bc ff5f c73d
000002b0: 25be d8bd 31da 293d 26a5 b93d 4633 adbd
000002c0: 963c 4c3d e919 ae3d c6f9 fd3d 76cb 913c
000002d0: a926 963d fc0b 10bd 17e7 2ebe a1bd 02be
000002e0: 1425 243d 63ed e3bc 70ca 453d c688 ad3c
000002f0: 96c6 77bd 9c46 b5bd 3571 3b3d b7a2 253e
00000300: 2213 0dbe e253 85bc 46bd ec3d 0e1e a23d
00000310: 2502 86bd 9af2 eebd e000 b5bd d5bf 3a3a
00000320: 19ba 0c3c 3317 39bd d458 783d cfe1 16be
00000330: ae48 10be a201 83bd 3bba b6bd e97c 4c3e
00000340: 1b1e fcbc 1779 0c3d a8e8 07be 10bf 693c
00000350: 3d2c 2fbe 4ec7 e9bc f1ea 3bbe 4548 54bd
00000360: 2c12 c5bd ba3c 78bd 63d7 543d 9e1e 2dbe
00000370: 2ab2 8abd 87f2 703d d3f0 1f3d ed6e 4bbd
00000380: ca24 473d 9875 ee3c d1dd ac3d ebb1 053e
00000390: 70bc 193c b7ab d33d 014e ec3c 86ea ad3d
000003a0: 9c33 4d3c 99f6 c43b 3b87 f63d 4469 12be
000003b0: eff3 18be 2e8b b53d 84b0 653d 12b4 bd3b
000003c0: e665 3dbe 5820 223d e665 ef3c 9bab e0bc
000003d0: 4b7c e4bd 1eb8 23bd f13a 9fbb ca20 d9bd
000003e0: 2329 adbd 7abc 703d b3de 39bd 14a2 ecbc
000003f0: 3fd6 c83c b25e 27be b4c3 b03c 1600 27be
0.06214705 0.050277267 -0.05217497 -0.03859999 -0.08597608 0.05428571 -0.01042854 -0.20250614
0.096382976 -0.08255265 -0.0012093566 -0.0049048853 -0.011779177 0.027287079 0.13202979 -0.027156772
0.09298788 -0.0050249067 0.23100263 -0.08985083 -0.11184073 -0.11997552 -0.033132505 0.021349272
0.21555482 -0.094370574 0.15337297 -0.120144136 -0.028460108 -0.031141384 0.075479984 0.047098577
0.09881957 0.050781798 0.004976186 0.019087035 -0.027112562 -0.022736879 0.06747419 -0.07092946
-0.14960913 0.0618654 0.08145391 0.0028052346 -0.04734062 0.03613107 -0.0018724286 0.056441125
-0.05368058 -0.123210765 0.06090165 0.06394592 0.12301389 -0.06237205 0.05604046 -0.1530376
-0.012423593 0.029128605 -0.14684787 0.010536851 0.01802396 0.12307851 0.035657596 -0.022606216
0.042730328 0.03316469 -0.13826163 -0.05020531 -0.093874685 0.017868217 0.0958625 0.037763577
0.11034247 0.058838613 0.030506901 -0.114332534 -0.0062057916 -0.10126241 0.01839585 0.0030004808
0.07950258 0.04891193 -0.047571883 0.04252636 0.06770238 -0.003793531 0.06714313 -0.026876077
-0.2682767 -0.098628834 0.0851929 -0.09744511 0.02120764 0.1578864 0.028937377 -0.07281659
-0.09186059 -0.09183134 -0.008006075 -0.0006053672 -0.038368262 -0.08723875 0.024562383 -0.08244642
0.042084906 -0.114263296 -0.03587352 0.081837945 0.008542951 0.08127216 -0.17737833 -0.104792
0.17945042 0.0054502026 0.09804544 -0.13809344 0.14512333 0.008575154 -0.09436435 0.14786693
0.032928206 0.11310878 0.1069038 0.12805232 0.008750579 0.09830888 0.07185847 -0.07339795
-0.011659766 -0.019157918 -0.1363289 0.1651026 -0.09863307 -0.031005917 -0.10941518 0.022012314
0.10866829 -0.01890059 0.06594442 -0.11092365 -0.07069063 0.038429484 -0.02005977 -0.046947155
-0.20422347 -0.05768494 -0.03793629 -0.10709216 0.075833865 0.05194262 0.0038011868 0.1608607
0.115883745 0.0658827 0.04039956 0.016813345 0.052689135 -0.016042449 0.0015488254 0.089406654
-0.108728185 -0.075699694 -0.20781448 -0.025406385 -0.048371933 0.021453649 0.0003703079 0.034127537
-0.066579424 0.0449824 -0.016752064 0.09735107 -0.10583142 0.04146785 0.09064703 -0.08457045
0.049862467 0.08501036 0.12401156 0.017797213 0.073315926 -0.03516768 -0.17080341 -0.1276765
0.040074423 -0.027823156 0.048288763 0.021183383 -0.06049212 -0.08851358 0.04576226 0.16175352
-0.1377683 -0.01627535 0.115595385 0.07915889 -0.06543378 -0.11667366 -0.088380575 0.0007123922
0.008589291 -0.04518814 0.060631588 -0.14734577 -0.14090225 -0.06396796 -0.089222394 0.19969524
-0.030776074 0.034295168 -0.13272345 0.014266744 -0.1710672 -0.028537419 -0.18351342 -0.051826734
-0.09622607 -0.06060479 0.05196322 -0.16906211 -0.06772263 0.058825042 0.039048027 -0.049666334
0.04861907 0.029108807 0.084407456 0.13056152 0.009383306 0.103354864 0.028845789 0.084919974
0.012524512 0.006010842 0.12037512 -0.14297968 -0.14936803 0.08864437 0.05607654 0.0057892883
-0.18495902 0.039581627 0.029223394 -0.027425578 -0.111565195 -0.03997051 -0.0048593213 -0.10601957
-0.08455112 0.058773495 -0.0453784 -0.028885879 0.024516223 -0.16344717 0.021577694 -0.16308627

worker.f_stateW.0.bias f4 [128]
00000000: d6b1 d93b 7e0f 7b3b a1b7 86bb 6710 033b
00000010: cdca 23bb 84db dbba 3f89 d1bb 8e8f 23bb
00000020: 34ff 873b ee32 b33a e228 883b b3cc d73b
00000030: 4a07 503b dd0e 99bb d287 c6bb bfa5 91bb
00000040: 1c21 c3bb 0096 723a 51ea 363b 621e c339
00000050: a8a8 55bb 65e9 15bb ba4e 9b3b 074a aa3b
00000060: 5592 e3b9 d002 b9b9 754c a73b f408 3f3b
00000070: 6e7e 96bb 23a8 36bb 9860 5c3b d661 50bb
00000080: e58c 4abb f81c e23a e04e 78bb 63ce cd3b
00000090: 9f57 2abb 0bba a83a 835c 813b 023e 7cbb
000000a0: f1f6 01bc 0043 2e3a b0d8 8ebb c9e5 a8bb
000000b0: 10a2 80bb 811f d83b 6d7c 0a3b cb0a 9f3b
000000c0: 7eca 063a 1a55 a2b9 5c55 33b7 5973 e23b
000000d0: eb04 99bb 713d 113b 9806 963b 2eac 7a3b
000000e0: f2ba f23b 46f6 99bb 5e69 753b 21d2 843b
000000f0: 4f79 d73b cdeb 80bb 769d b3bb e7c0 c139
00000100: 97c4 9f3b 9770 8f38 f56a 013c 6d95 edba
00000110: 3f57 f3b8 b08f 343b 122b d73b bba2 00bc
00000120: 66af ba3b ce1a 74ba 3795 bfbb 93b8 da3b
00000130: cfdf a03a 67e2 23bb f036 c5b9 a885 843b
00000140: d505 f7bb c5a8 bd3b 4090 9c3b e8ab 18bb
00000150: a8fc 993b 040f 703b 3523 0fbb 0257 9bbb
00000160: 594f 803a bf79 b2ba aa6f 413b 1122 aebb
00000170: 4427 06ba 015e f1bb 675b b93b efd7 a3bb
00000180: d27c e93a 1c92 5ebb 95be cab9 6ce7 f13a
00000190: e459 243b 42ed 97bb 74b2 903a 7ecb fc39
000001a0: 756b 9dbb e783 153b 257e 743b 1779 28bb
000001b0: 1e04 cbbb ac0f 5fb9 4848 973b 905e 8a3b
000001c0: 9024 fe3a b8de 7fbb 8be3 a5bb 9bde b0bb
000001d0: a95b 50bb 144a c0bb db42 ee3a f3dc eb3a
000001e0: d833 d23b ea9d aabb 578c 68bb fb9f b8ba
000001f0: 763b a0ba 63c0 83b8 6264 12bb fa00 0c3a
0.006643514 0.0038308795 -0.0041112457 0.001999879 -0.0024992705 -0.0016773795 -0.006394535 -0.0024957391
0.0041502956 0.0013671794 0.0041552642 0.0065856813 0.0031742626 -0.0046709613 -0.0060586715 -0.0044448073
-0.0059548747 0.0009253919 0.002791066 0.00037215935 -0.0032601748 -0.002287471 0.0047396095 0.005196813
-0.0004340584 -0.00035288045 0.00510555 0.0029149624 -0.0045927083 -0.0027871213 0.003362691 -0.0031796596
-0.0030906734 0.0017251065 -0.003788881 0.0062807067 -0.0025992168 0.0012872828 0.003947796 -0.0038489108
-0.007932411 0.0006647557 -0.0043593273 -0.0051543457 -0.0039255694 0.0065955524 0.0021131292 0.0048535815
0.0005141868 -0.00030962453 -1.0689106e-05 0.006910723 -0.0046697757 0.0022161866 0.0045784228 0.00382496
0.0074075395 -0.0046985475 0.0037446837 0.0040533696 0.0065757404 -0.0039343596 -0.0054814173 0.00036955552
0.0048757303 6.839743e-05 0.007899036 -0.0018126197 -0.00011603394 0.0027551465 0.0065664137 -0.007851298
0.0056971787 -0.00093118555 -0.005846645 0.006674835 0.0012273731 -0.0025006772 -0.000376157 0.0040442534
-0.007538537 0.005787941 0.004777938 -0.0023295823 0.0046993084 0.0036630044 -0.0021841053 -0.0047405967
0.0009789272 -0.0013616605 0.002951602 -0.0053141196 -0.00051175454 -0.0073659425 0.005656648 -0.0050001065
0.0017813689 -0.00339616 -0.00038670437 0.001845581 0.0025077993 -0.0046364376 0.0011039511 0.000482168
-0.0048040696 0.0022814216 0.0037306633 -0.002570694 -0.006195559 -0.00021272775 0.004616771 0.0042226985
0.0019389559 -0.0039042663 -0.0050625256 -0.0053976304 -0.0031792915 -0.005868206 0.0018177883 0.0017994925
0.0064148717 -0.005206813 -0.003548404 -0.0014085764 -0.0012224752 -6.2824016e-05 -0.0022337665 0.00053407217
