vwgym/saved_model/vwgym_f_net_step_5800000.pt (torch_old, 382122 bytes, 57 tensors)

f_percept.percept.0.weight f4 [16, 3, 3, 3]
00000000: 9f1b 8a3d 3075 90bd 6fcb bebd 3153 84be
00000010: bce1 f83d 0b74 8f3d c048 a6be 1a41 1cbe
00000020: fc53 57be 7c54 9c3e 4966 0abe 5397 e2be
00000030: 7fda b23b 2b1e ad3d 4423 953e a64b 83bc
00000040: 3b75 57be 62bb 2bbe 5c62 5e3e d912 a5be
00000050: 639b b33d c858 38be 9120 82bb 900d b33b
00000060: c7c7 ebbd 0587 433e 6d16 ccbd 6aa0 70be
00000070: 2be2 52bd 82cf 923e 3711 bfbd 6f02 863c
00000080: 147f 303e 1b1c 70be a630 03be b2c8 393e
00000090: 93f4 86bd e993 ce3e 3a79 273c 90e7 babb
000000a0: c476 3e3e bbe7 633e e922 8ebe c4b9 c73d
000000b0: adaf 87be 3903 3dbe 0b7b 3e3d b25d 19be
000000c0: 9b9a c9bd 8ce2 ab3e 9e62 72be 6d04 5b3d
000000d0: d362 36bc 76ae 853e 0695 f9bd 2eb7 193e
000000e0: 5602 923e d685 873e a1a1 87bd 168a e93d
000000f0: 3b28 c7bc ab76 083e d9ea 56be 35d8 573e
00000100: 038c 58bd 5602 fdbd 10f0 3a3d 9c0f 19bd
00000110: c972 eabd 67be 9abb 3261 353d 2080 4a3e
00000120: 800a 943e 025e bfbd e740 70be a7e1 f1bd
00000130: 3df1 f23e 3653 c93e 86fd 023e a0ed 68be
00000140: ae85 c63c edf2 013e 063e 38be 8539 883c
00000150: 76dd 613e f95d 9b3e 03ba 1b3e 5bc0 d73d
00000160: 961f 3fbe c59e 92bc 6867 bb3e 1134 0b3e
00000170: 267b 123e 8a5b 14be 36db 043d 1421 1cbe
00000180: 6077 82be 0d28 f6bd 56fe f3bd b884 b33d
00000190: 0f8b 913e dfbc c03d 52aa 3f3d 115e c33d
000001a0: 7ae5 1bbe 411b 9d3d e422 93bd cb06 09bf
000001b0: 70bb 943e eb04 66bd 121e 083d 1d5a d4bd
000001c0: 12ca 42be c541 debe ec40 47bc b4a1 b93d
000001d0: 9e47 983e f611 6c3d e4fd 03be 4d29 f13d
000001e0: dcf2 c7be 6e62 b13d e1ee a83d 14f7 1b3e
000001f0: e86f 8dbe 88fe 5a3c d9a7 babc f4da aa3d
00000200: f87c 593d bffa b9be 7a6a b13e 08e8 76bd
00000210: 585a a23d 856c 99bd 827b bfb9 0737 6e3e
00000220: 17d4 713e 7b43 21be f40a acbe f7af a73e
00000230: e485 1e3e b179 24bd 5c38 603d d8fc 243e
00000240: 4004 78be 6299 4b3e 3749 e4bc b68b 0abe
00000250: a2f8 8ebd 7dd1 8f3c bbb8 0b3e f628 633e
00000260: 0c5a 0f3e deb3 603e e110 a6bd e8fa f53d
00000270: 199d 633e 2b9c 8d3e 0e9e 853d d6d7 c23e
00000280: c27c 1c3e 7533 efbd c4d8 a7bd 7b7f 92be
00000290: ad54 e93a d157 b3be f147 4cbe 2223 663c
000002a0: 3a90 cc3d ddf1 643e b2d9 5f3e d0a4 853c
000002b0: 5289 0c3e b073 7a3e dca7 8e3e f462 02be
000002c0: 487b 8d3d cfcd 753b 0b35 09bd f73e 9cbe
000002d0: b1a8 483e efb6 9dbd 98c4 a4be 2d25 98bd
000002e0: cb03 dabd 7645 9a3e 252d 903d 17b9 833c
000002f0: a7d2 a8be e66b 8fbd 9d54 87be e765 6b3e
00000300: d6f0 bcbd 1210 9dbc 8405 c73e 9589 173e
00000310: 0e0d e3be 100d fd3d 5258 09be c564 66be
00000320: 9a6c 933d b406 a2be 82bd e73d 8021 343e
00000330: 9fca 0e3e aa57 10be c2e0 5a3e 82b2 1e3e
00000340: 7256 423d e4de d1bd 0e37 e93b 1328 73be
00000350: e588 253e ea71 313e 97d8 c5bd d184 0b3e
00000360: ba98 d1be b079 d03d 97ee 4e3c 167d 823d
00000370: de34 443e 2a66 63bd 1760 ba3e 67b5 8c3e
00000380: c40f 1a3e 68ae 74bd 8a14 7ebe 5a9e e8bd
00000390: dd4d 233d a850 763d 1323 4c3e bb59 72bd
000003a0: f763 e4bd 55ca 43be 8efd de3e 064e 8a3e
000003b0: e2a3 363e e2ea 8e3b 06d2 793d c1f6 1fbe
000003c0: 19e9 2c3b ea00 363e 9804 093e 4505 b4bd
000003d0: 2284 703e bcf0 06bd 4aad 34be 2fa9 623d
000003e0: fc18 f33c 2dcf ae3e 501c f1bd 106c c3be
000003f0: 4256 873e f24d 343e 2cd9 a33e cc18 9cbd
0.067435496 -0.07053602 -0.09316146 -0.2584472 0.121524304 0.07004555 -0.3247738 -0.1525921
-0.21028131 0.30533206 -0.13515581 -0.44256076 0.0054581757 0.0845302 0.29128468 -0.016027283
-0.21040814 -0.167707 0.21717209 -0.32240942 0.08769872 -0.18002617 -0.0039711674 0.0054642633
-0.11512714 0.19094475 -0.09965215 -0.23498693 -0.05148522 0.2867394 -0.09329455 0.016358582
0.17235976 -0.23448221 -0.12811527 0.18142965 -0.065896176 0.40347221 0.010221774 -0.005703874
0.18599993 0.22256367 -0.2776101 0.09752229 -0.26501217 -0.1845826 0.04650406 -0.14977148
-0.09843942 0.3357128 -0.23670432 0.053471018 -0.01113196 0.26109666 -0.12186627 0.15011284
0.28517407 0.26469296 -0.06622625 0.11403291 -0.024311176 0.13326518 -0.20988025 0.2107857
-0.0528679 -0.12353961 0.045639098 -0.037368402 -0.11447675 -0.0047224048 0.044282146 0.19775438
0.2891426 -0.093441024 -0.23462258 -0.11810618 0.47449675 0.39321297 0.12792024 -0.22746897
0.024233665 0.12690325 -0.1799241 0.01662899 0.22057137 0.30345133 0.15207677 0.10534736
-0.18664393 -0.017897973 0.3660233 0.1359408 0.1430479 -0.14488044 0.03243562 -0.15246993
-0.254817 -0.12019358 -0.11913745 0.087655485 0.28426406 0.09411024 0.04679329 0.09539426
-0.15224257 0.07671214 -0.07184389 -0.5352599 0.29049253 -0.056157034 0.033231802 -0.1036875
-0.19022396 -0.43409553 -0.012161475 0.090640455 0.2974214 0.057634316 -0.1288982 0.117754556
-0.39052474 0.08661352 0.082486875 0.15230972 -0.2762444 0.013366349 -0.022785114 0.08342543
0.053097695 -0.36324117 0.34651548 -0.060279876 0.07927388 -0.074914016 -0.0003652238 0.23263179
0.23616062 -0.15748398 -0.33602107 0.32751438 0.15480763 -0.040155116 0.05474125 0.16112077
-0.24220371 0.1988273 -0.027866943 -0.13529858 -0.06981017 0.017555946 0.13644688 0.22183594
0.13999194 0.21943614 -0.08108688 0.12010747 0.22227897 0.2765821 0.06524287 0.38055295
0.15281966 -0.116797365 -0.08195642 -0.28612885 0.0017801725 -0.35027936 -0.19949318 0.014046462
0.099884465 0.22357889 0.21860388 0.01631394 0.13724259 0.24458194 0.27862442 -0.1273306
0.0690828 0.0037506705 -0.03349785 -0.30516788 0.195956 -0.077009074 -0.3218124 -0.07428966
-0.10645255 0.3013112 0.07039861 0.016079469 -0.32973215 -0.07003002 -0.26431742 0.22988091
-0.09225623 -0.019172702 0.38871396 0.14798577 -0.44345897 0.12356007 -0.13412598 -0.22499378
0.071984485 -0.3164574 0.113154426 0.17590904 0.13944481 -0.14095941 0.21374801 0.15497783
0.047445722 -0.10247591 0.0071171587 -0.23745756 0.16165502 0.17328611 -0.09660452 0.13624884
-0.40936834 0.1017946 0.012630126 0.063715145 0.19160792 -0.055517353 0.36401436 0.2748215
0.15045077 -0.05973664 -0.24812523 -0.11358328 0.039869178 0.060135514 0.19935255 -0.059167605
-0.11151879 -0.19120152 0.43552822 0.27012652 0.17835954 0.0043614963 0.06099131 -0.15621473
0.0026384054 0.17773786 0.13380659 -0.087900676 0.23487905 -0.032944426 -0.1764423 0.055337127
0.029675 0.34142438 -0.11772978 -0.38168383 0.26432997 0.17607859 0.32001626 -0.07621917

f_percept.percept.0.bias f4 [16]
00000000: 42fb a6ba 5c42 083a 3060 aa3a 978d 043b
00000010: 3881 cbba 0449 e3ba e5de 06bb 1e92 05ba
00000020: 3bf8 63ba 0df2 8db9 5191 8cba 9a3c 28ba
00000030: afbc 40b9 1f4c bdba e4a1 e1b8 d0c6 503a
-0.0012739676 0.00051978766 0.0012998637 0.0020225996 -0.0015526181 -0.0017340486 -0.0020579633 -0.00050953205
-0.0008696352 -0.00027073958 -0.001072446 -0.0006417722 -0.00018380837 -0.0014442242 -0.000107589905 0.00079641957

f_percept.percept.3.weight f4 [64, 16]
00000000: e5c7 923d ea27 0a3d 554d b33c bf65 25be
00000010: 1921 99bd 8707 6fbd 1c1b 85bd f038 17be
00000020: e96f 523d 112b 0abe 8296 d63d 3f4d b7bd
00000030: 521a 233c cbae 11be 1832 18be bbda d6bc
00000040: 2d8f 173e 6ac3 07be 84fa 193e 41dc e2bd
00000050: 2d7e 32bd 94e5 66be c1ca 1fbe c359 113e
00000060: 9db1 1cbd afb8 51bb a275 abbb 6313 843d
00000070: 8085 d9bd 1fe2 f2bd 4fec 8ebe 5093 8cbd
00000080: e7bd d33c 7dd1 753e f0a6 74bd af47 0abe
00000090: 3109 c83d 34a0 bebc 8c52 293e 4dce 993d
000000a0: 70f5 ae3d 2b64 7a3d a416 83bd 14b4 a9bd
000000b0: 2362 8b3e f996 7fbd c08e 52be 67d3 1dbd
000000c0: 075c 153e 4e86 693d e89d 6cbd 0a36 25bd
000000d0: bdd0 c6bd e07d 20be ca02 623d 329c 32be
000000e0: 82d0 d1bd 471e 93be 4bc3 943c 8872 be3d
000000f0: b18d a13d b506 2bbd 8130 96bb 8dc8 dd3d
00000100: 6dc5 febd cad1 0cbe 03bf 973d 4d74 0a3e
00000110: 32b6 053e a05b 013e 5dc9 3ebe 77cf acbc
00000120: 0018 ea3d da52 373e 2bd3 78be abd0 f13c
00000130: 4e5a 97bc 3eb6 d5be 472f f23c 5a04 5abd
00000140: 8a57 f6bd e361 40bd 1115 253e 0148 123e
00000150: 0f7a 943d f7d6 89bc 6c64 0e3e 51f3 26be
00000160: 42b0 5a3d e573 f5bd 6e9e 433e 00f5 05be
00000170: 9365 ddbd 4004 f73c 5df7 c83d 882a 0d3e
00000180: fa8d cbbd c188 50bd 2440 003e eadf 983d
00000190: 3dd4 05be bfa7 2b3e 4061 333d 93d5 003e
000001a0: e77a 0b3e 7ac4 883a 2288 7a3d 3121 6dbd
000001b0: 0845 d23c 36e0 6f3d 7726 bebd fbe0 80bd
000001c0: e1f2 d1bd be27 a6bd be1f 96be 475c 243e
000001d0: 690a 233e c291 35bd b781 8dbe 72fd 91bc
000001e0: b323 4fbe 4502 af3d d1c9 0ebe 448b 1fbd
000001f0: 67ad 04be fcda 473d 8544 23bd 9fce 123e
00000200: 4c88 823c 7002 64be 9657 dabd 4606 b43d
00000210: 1000 5dbe 3906 18be 496d e43d f4bf 55be
00000220: ed9e 313e 9e9c 16be d92a e8bd 4089 3bbe
00000230: c15a 74bd 2e76 4a3e c1d1 91bd 9d3d c4bc
00000240: 8517 d83d b6a7 723e cd66 60bc 27cf d83d
00000250: 1e9e 0f3e cd9e ebbc c42f 073d 4ae3 1ebe
00000260: c80a a13d a8f0 dc3d f88d 9bbd d0ab 4f3e
00000270: 6afe babc a743 933c 58d9 bc3d 1618 c33c
00000280: 2b11 8f3d 128f 00be d0af debc ada3 68be
00000290: e691 093d 8c4e bfbd b58d 283e 473a e53c
000002a0: 8a7d ef3d 287c bf3c 0482 3ebe d57d af3d
000002b0: ed9b 18be b838 1dba c18c 1b3e ffe3 b0bd
000002c0: cf47 ec3d 5b59 96bd d814 313e f1ef 35bd
000002d0: dec6 6dbd 6315 bcbd ac6f f33d 0482 f5bd
000002e0: e975 83bc d875 c33d 494a acbd 4edc 22bd
000002f0: 090e 06bd 7ffb 2abe b5f7 6dbc fa9e 573e
00000300: 02a9 c93d 5166 56be 8a1d 193d 3233 333e
00000310: 9e47 83bd 05e3 eb3c 6b52 11bd 5698 84be
00000320: 92c5 183d d82e b83d 90c5 a7bc e59c 6fbe
00000330: 29c2 973d 9a5f 0f3e 4ffc 3abd b802 1dbc
00000340: 5e64 81be e0f4 fc3c 05cb 383e 19fe 8a3e
00000350: ebe0 4bbc 0ca8 28be d3af 9cbc a30c 003e
00000360: 3bc5 053e 73a7 e73c 0c91 073d 13f8 bfbc
00000370: 29cf 923d b19d 81bd 07e5 683d 43f8 ba3d
00000380: 6797 0d3e 6a0e 3f3d 2b63 56bd bf05 183e
00000390: c803 2d3e 1d6e f2bc 223f 033d 03e2 593e
000003a0: d3b0 8e3c aad0 acbd ed63 8d3d 45bd 36be
000003b0: 7017 a6bd 6d45 2fbe 8201 893c dc53 d13a
000003c0: 0fc1 033e 9adb 1fbe 816b febc 2607 91be
000003d0: 2023 913e 41bf 4abd 1022 2c3d 472b f93d
000003e0: 8bd0 7fbb 2200 71bc 9e6c 383e 29d1 0f3c
000003f0: 518a 953d 28dc 6e3e d2d1 c0bc 4f8a c7bc
0.07167033 0.03372947 0.02188746 -0.16152094 -0.07477016 -0.058356788 -0.06499311 -0.14767814
0.051376257 -0.13492991 0.10477926 -0.089502804 0.009955006 -0.14226834 -0.14862859 -0.026227346
0.14800711 -0.13258138 0.1503697 -0.11077166 -0.04357736 -0.22548515 -0.15604688 0.14194398
-0.038255323 -0.003200095 -0.005232529 0.0644901 -0.10621166 -0.118595354 -0.27914664 -0.06864035
0.025847388 0.24005695 -0.059729517 -0.13503908 0.09767378 -0.02326975 0.16535395 0.07510052
0.08542907 0.061130684 -0.06400803 -0.082863 0.2722331 -0.062399838 -0.20562267 -0.038531687
0.14585887 0.05701285 -0.05776778 -0.04033474 -0.097077824 -0.15673018 0.05517844 -0.17442396
-0.10244848 -0.28734037 0.01815953 0.09299189 0.078883536 -0.041754443 -0.004583419 0.10829268
-0.1244 -0.13751903 0.074094795 0.13520928 0.13057783 0.12632608 -0.18631501 -0.02109502
0.11430359 0.17902699 -0.24299304 0.029518446 -0.018475678 -0.41740602 0.02956356 -0.053226806
-0.120284155 -0.046968352 0.16121317 0.1428528 0.07249843 -0.016826136 0.13905495 -0.16303755
0.05339075 -0.11984996 0.19103405 -0.13081741 -0.10810389 0.030153394 0.09812806 0.13785756
-0.09939189 -0.05091167 0.12524468 0.07464583 -0.13069244 0.16763209 0.043793917 0.12581472
0.13621102 0.0010434531 0.061164983 -0.057892982 0.025667682 0.058563434 -0.0928468 -0.062929116
-0.102514036 -0.08113049 -0.29321092 0.16050826 0.1592194 -0.04432846 -0.27638027 -0.017821047
-0.20228462 0.08545355 -0.13944174 -0.038951173 -0.12956773 0.048792824 -0.039860267 0.14336632
0.015934132 -0.22266555 -0.10661237 0.08790259 -0.21582055 -0.14846124 0.11153657 -0.20874006
0.17345782 -0.14708182 -0.113362975 -0.18314075 -0.059656862 0.19771644 -0.071200855 -0.02395516
0.10551361 0.23696789 -0.013696385 0.10586386 0.1402516 -0.028762246 0.033004537 -0.15516391
0.078633845 0.10788089 -0.07595438 0.20280385 -0.022826392 0.017976595 0.092211425 0.023815196
0.069856964 -0.12554577 -0.027183443 -0.22718687 0.033586405 -0.093411535 0.16460307 0.02798189
0.116938666 0.023374632 -0.18604285 0.085689224 -0.14903231 -0.00059975265 0.15190412 -0.08637237
0.11537134 -0.07341262 0.17293108 -0.04441828 -0.058050983 -0.09183767 0.11886534 -0.11987689
-0.016047435 0.09543961 -0.08412606 -0.03976088 -0.03272823 -0.166975 -0.01452439 0.21056738
0.09846689 -0.20937468 0.037381686 0.17499998 -0.06410144 0.028794775 -0.03547899 -0.25897473
0.037297793 0.0899331 -0.020479947 -0.23399694 0.0741008 0.14001313 -0.045650776 -0.009583168
-0.25271887 0.030878484 0.18046196 0.27146986 -0.012443761 -0.16470355 -0.019126808 0.1250482
0.13063519 0.028278088 0.03309731 -0.02343372 0.07168419 -0.063289054 0.056859042 0.091293834
0.13827287 0.046644606 -0.052340668 0.14845942 0.16895974 -0.029593522 0.03204263 0.21277623
0.0174183 -0.08438237 0.06903825 -0.17845638 -0.08109939 -0.17116328 0.016724352 0.0015970427
0.12866615 -0.15611115 -0.031057121 -0.28325766 0.2834711 -0.0494988 0.042024672 0.121664576
-0.0039034213 -0.014709504 0.18010184 0.008777895 0.073017724 0.2332617 -0.02353755 -0.024357943

f_percept.percept.3.bias f4 [64]
00000000: 0792 10bb f9ff 5b3b 1f1d 5e3b 14a0 353b
00000010: db08 313b 480f 9f3b dc63 b4ba 7fd7 233b
00000020: d943 afba fbeb 4c3b 4fcd 963b c423 34bb
00000030: a380 943a 364c 973b a562 a739 dfef 9dbb
00000040: b76f 26bb 78b3 39bb 1560 453b cbc5 78b9
00000050: f7df 0b3b fa6b dd3a b5d1 723b c0fe 9b3a
00000060: 640a 33ba d4d7 993a 62ae 8a3b d80f 2bbb
00000070: d951 8ebb 665d 84ba 80d7 363b 82f5 75bb
00000080: 1c0c 593b 92e5 9a3b 95c0 07ba 39b9 93ba
00000090: 7ccd 0e3b 76ed 303b e1eb 5a3b f0c7 85ba
000000a0: f8d9 44bb 3154 043a 8976 c63b 1038 8239
000000b0: 2e16 ce39 6a52 2db9 11d7 7b3b eb1a df3a
000000c0: 579d 16ba 38da f93b 16e6 25bb 6ecb 8c3b
000000d0: 4c1e 973b e2dc 9e3b 4f6c 6abb b88d 113b
000000e0: adaa 85ba c018 703b 6e51 c2bb 4206 5b3b
000000f0: f734 a9b9 3312 ae3b 6aad d1ba 9663 053b
-0.0022059695 0.003356932 0.003389187 0.0027713822 0.0027013335 0.0048541166 -0.001376267 0.0025000272
-0.0013371661 0.0031268585 0.0046021114 -0.0027487138 0.0011329841 0.0046172393 0.00031926218 -0.0048198546
-0.0025396177 -0.0028335731 0.0030117084 -0.00023724807 0.002134321 0.0016893141 0.0037051265 0.0011901483
-0.00068298564 0.0011737295 0.004232214 -0.0026101973 -0.004343253 -0.0010098636 0.0027899444 -0.0037530367
0.003311879 0.004727074 -0.0005178538 -0.0011270411 0.0021789959 0.0026997006 0.0033404755 -0.0010206681
-0.0030037146 0.0005047946 0.006056611 0.00024837302 0.00039307907 -0.00016529267 0.003842775 0.0017021572
-0.00057454914 0.0076248907 -0.0025314144 0.0042967116 0.004611766 0.0048481086 -0.0035770123 0.0022209715
-0.001019796 0.0036635846 -0.0059301173 0.0033420478 -0.00032273654 0.005312228 -0.0015997116 0.0020353547

manager.M_space.weight f4 [64, 64]
00000000: f7d7 00bd 5636 f83d 1fe2 a23e 8c2f 26bd
00000010: ae3b 8c3d 2223 363e 5f21 56bd ab00 393e
00000020: b82f 423e 5763 18bd 3910 e7bc 9443 ddbd
00000030: 6981 04be c91c 0e3e 192e 11be 49b2 fc3d
00000040: faa9 4dbc fdc0 2d3d bd59 e1bd 3a20 07be
00000050: a1a5 71be cc5f 8ebc a79c 48bd c9ca 6d3d
00000060: 3794 453e 5d44 b2bd 68c1 68be 8f41 4f3d
00000070: 3f4b 023d 4e4b 7dbe 70d2 06be c898 3ebd
00000080: c793 9dbd 4f40 f0ba 79c2 27bd 662a f6bd
00000090: 5a9f 3ebe 93fb fd3d da3b 983d eeef 483e
000000a0: 7558 32be b780 b5bd 0482 863e dc6b 6dbc
000000b0: 4612 1ebd 3068 19bd a103 bfbd 651f e23c
000000c0: 66c6 91bd e59b fbbd 84e1 0abe cf15 a9bc
000000d0: 3477 e03d 59b1 06be a82c a63d 363d 343e
000000e0: c3a4 0dbe a2cd 9d3d 217c a5bd e438 093e
000000f0: f7fb 20bd 802f 44bc b993 b3bd a2ce f03d
00000100: 2a2b cb3c 89b9 dcbb 994e 96b8 2fcb e33d
00000110: f9df 52bc 7747 07bd e42a 333e 1807 5d3e
00000120: c0de e13d e93c c43d 920b 3cbd af0c cbbd
00000130: b7c6 3dbc 0b56 d7bd 8cb1 2dbd 3a7d 70be
00000140: 2088 b3bd 882c d7bd acce 39bd cb8d c3bd
00000150: 33c6 2abd 5332 493d f388 8bbd ebec 963e
00000160: 210c c5bd 975a ea3d cf5f abbd 7b07 013c
00000170: 3650 35be 22b2 203e 42db 633e c3f7 653e
00000180: b7d2 ec3d 9021 043e a0c5 8cbc f6df ea3d
00000190: a914 f6bd 9ca5 39bc 1e22 3fbd 087a dfbd
000001a0: d120 12be f064 76bc 21a1 523d abec 2e3d
000001b0: 2970 f1bd 60db 1c3e 276e 403c cf6f c33d
000001c0: 2dc0 be3d 57c0 c63d 71e7 d4be 6c01 c63d
000001d0: adb5 82be 7bb2 84bd 772e 403e 74df 16bd
000001e0: f24a c93d 0a60 803d 40e9 f0bd c8d7 f2bc
000001f0: db1f e63c df5b 5a3d 38dc 9f3d 0acc bb3d
00000200: fdb1 17be 6505 c6bc 4359 f23d 8103 f4ba
00000210: 8688 e73d 3210 41be 47ab 1fbd 3358 cc3e
00000220: 49ca 023e a598 1ebe 32fb 4ebd b6ea cc3c
00000230: 9eb1 af3d 8a13 153b 4027 913d adcd cf3b
00000240: 79e8 22bd 91a6 4c3e 21c0 32be e0ee eb3d
00000250: 8979 683e 4bd0 22bd 3d71 68be 311e 58be
00000260: 7f43 adbd e768 f53c 53c5 fd3c 398e d83c
00000270: 413c 09be 0483 88bd 4036 ab3d 0e4e 0e3e
00000280: f615 013e 7a97 a33d b704 c139 b299 d63d
00000290: f80a 693c a537 423d 2f9b 553d 6e7e ea3c
000002a0: 0a6a ffbd b8db 0d3e 982d d1bc 099e eabd
000002b0: d107 e5bd 9a10 23be 198c 933a 0963 1b3e
000002c0: 7824 1c3e 52ba 5fbd 9cd9 fa3d 08ae 0fbe
000002d0: 1321 d43d 501b 323d 0879 f8bc de81 923c
000002e0: 9fe9 a0bd 7ccc 053e e654 0f3d 8b20 ed3d
000002f0: 81f2 823d 6fc4 c13c b9f3 663e 3bb7 97be
00000300: 9069 383d 824a 6c3e 2d99 e8bd 980b 643e
00000310: 6fd0 aa3e 82bf 75bd 7d4b 1ebb 7d32 b83d
00000320: ae8a 023e f2a5 883c d534 213d 790d 54be
00000330: b72e b73d b731 133d ab61 c53d b0be 1ebd
00000340: a2e2 9f3e 9af2 bb3b db97 033d f796 0e3e
00000350: fe84 bebd 0057 1f3d 20df 013c 62d8 9dbb
00000360: 282f d4ba a13a edbd 9c6d 333c 0290 c93d
00000370: b797 d4bd c8fb 463d 2a0b 873d 0a15 0abe
00000380: b807 56bb 5ee1 dabc b192 903d 08b4 403e
00000390: 6ec4 893d 17e7 3c3e e424 c63d a8d5 f83d
000003a0: cea8 903c 7a04 423e 4734 383e 969f 223e
000003b0: 425b d03c 1a19 a83d 3ad7 503e 8848 733d
000003c0: 9f04 4dbe b2fc 86be a8c9 a1bc 8faa 1e3e
000003d0: 7705 a2bd a60b 933d c3d2 6abe 49d5 debd
000003e0: bce1 8f3d 30f7 03be 73d6 1b3d b626 bdbd
000003f0: 2a94 d23a 0cfc cabc 3dd8 a2bb ac05 eb3c
-0.03145596 0.12119739 0.31813142 -0.040572688 0.068473205 0.1778684 -0.05227792 0.18066661
0.18963516 -0.037204113 -0.028205978 -0.10803905 -0.12939991 0.13878168 -0.14177741 0.12338693
-0.012552733 0.042420376 -0.11003444 -0.13195887 -0.23598339 -0.017379664 -0.04897752 0.05805472
0.1929482 -0.087044455 -0.22730029 0.05059963 0.03181004 -0.24735758 -0.13166213 -0.046532422
-0.07694202 -0.0018329712 -0.040956948 -0.120198056 -0.18615475 0.124014996 0.07433291 0.19622776
-0.17416556 -0.08862441 0.2627107 -0.014491048 -0.038591646 -0.037452877 -0.09326864 0.02760286
-0.071179196 -0.12285594 -0.1356259 -0.020640282 0.10960236 -0.1315359 0.08113986 0.17601475
-0.13832383 0.07705237 -0.08080316 0.13400608 -0.039302792 -0.0119742155 -0.0876841 0.11758162
0.024800856 -0.0067359847 -7.167197e-05 0.111227386 -0.012870782 -0.03302714 0.1749683 0.21584737
0.11028814 0.0958193 -0.04590947 -0.099145286 -0.011583022 -0.10514458 -0.04240565 -0.2348527
-0.08766198 -0.105065405 -0.045363113 -0.09548529 -0.041692924 0.04912026 -0.0681323 0.2947763
-0.09621454 0.1144306 -0.083678834 0.007875319 -0.1770638 0.15692952 0.22251609 0.22457795
0.11563628 0.12903428 -0.017184079 0.114684984 -0.12015659 -0.011330988 -0.046663396 -0.109119475
-0.14270331 -0.015038714 0.051423196 0.042706173 -0.11788971 0.1531806 0.011745012 0.0954281
0.09313998 0.09704655 -0.41582826 0.0966824 -0.25529233 -0.06479355 0.18767725 -0.036834195
0.09828748 0.06268318 -0.11763239 -0.029643908 0.028091362 0.05331027 0.07805675 0.09169777
-0.14813991 -0.024172494 0.118334316 -0.0018616767 0.11305337 -0.18853834 -0.038981702 0.3991104
0.12772478 -0.15487917 -0.050532527 0.025014263 0.085788 0.0022747242 0.070875645 0.006341657
-0.039772484 0.19985415 -0.17456104 0.11520171 0.22702612 -0.039749425 -0.22699447 -0.21105267
-0.084601395 0.029957248 0.03097788 0.026435005 -0.13401891 -0.06665614 0.08359957 0.13896963
0.12606034 0.07987876 0.0003681534 0.10478534 0.014223807 0.047416348 0.052149948 0.02862474
-0.12471397 0.13853347 -0.025534436 -0.11455924 -0.111831315 -0.15924302 0.0011256962 0.15174498
0.15248287 -0.05462105 0.12248537 -0.14031231 0.10357871 0.04348308 -0.03033115 0.017884191
-0.0785706 0.13066286 0.034993075 0.11578473 0.0639391 0.023653237 0.2255391 -0.2963198
0.045022547 0.23075297 -0.11357341 0.22270048 0.33362147 -0.05999709 -0.0024153881 0.08994005
0.12748215 0.016680691 0.039357025 -0.20708264 0.08944457 0.035936084 0.09637769 -0.038756073
0.31227595 0.0057357075 0.032127243 0.13924776 -0.0930271 0.03890133 0.007926732 -0.0048170546
-0.001618837 -0.11583448 0.010951426 0.098419204 -0.103805 0.04857996 0.06593926 -0.13484588
-0.003265841 -0.026718792 0.07059229 0.18818676 0.06726919 0.18447529 0.09675005 0.12150127
0.017658617 0.1894702 0.17988692 0.1588119 0.02543414 0.08207913 0.20394602 0.059395343
-0.20021294 -0.26364666 -0.019749478 0.1549475 -0.079111986 0.07179956 -0.22931962 -0.10880525
0.07025477 -0.12887263 0.03804631 -0.09235899 0.0016065885 -0.024778388 -0.0049696253 0.028689228

manager.M_space.bias f4 [64]
00000000: 89bb 53ba c612 153b cca4 e83a ec32 303b
00000010: 5cac 4c3a f03d 523b 665b 3cbb de2b 67bb
00000020: ce77 173b bc07 513b 92d8 933a 9343 643a
00000030: afab 4fbb 888b a93b ac3d 913a b5b0 933a
00000040: cd99 403a 4823 843b b580 3aba 8a46 41bb
00000050: 838d 1d3b 7532 303a 611b c6b7 2bb8 823b
00000060: 90ba 4a3b ebbd dbba 4e0f d2b9 85c6 c33a
00000070: 112f 2ebb 5be3 2e3b 6b49 b5ba 7740 773b
00000080: 1d90 493b 1e6a ba3b c7fe ff39 6782 8cbb
00000090: 03f3 73bb 0bf4 6bbb fd61 6bba 48a8 9d3a
000000a0: dc96 77ba 72d9 e1ba 5b47 65bb 4259 90bb
000000b0: cf2a d73a a81e 453b 6eb2 40bb 1191 3bbb
000000c0: 824b b33a da68 243b 45ea 3abb 30e8 1a3b
000000d0: 1750 37bb 5753 9dbb 1cc1 973b 0f99 25bb
000000e0: 8cb4 48bb eb5d 3aba 3c4b 343a 8895 12b9
000000f0: 0c67 ae39 1f67 b1bb 41d2 b5bb ca26 4f3b
-0.0008076956 0.0022746786 0.0017749309 0.002688582 0.0007807666 0.0032080375 -0.0028741 -0.003527395
0.002311218 0.003189548 0.0011279753 0.0008707579 -0.0031688025 0.005174104 0.0011081002 0.0011267873
0.0007347137 0.004032526 -0.0007114516 -0.0029491507 0.0024040646 0.0006721386 -2.3616189e-05 0.0039892397
0.0030933954 -0.0016764974 -0.00040065724 0.0014936483 -0.0026578347 0.0026685807 -0.0013831084 0.0037727633
0.0030756064 0.0056889197 0.00048827214 -0.004288006 -0.0037223704 -0.0036003615 -0.000897914 0.0012028301
-0.0009444782 -0.0017230941 -0.0034985158 -0.0044051716 0.0016415956 0.0030078087 -0.0029403227 -0.0028620402
0.0013679119 0.002508691 -0.0028520983 0.002363693 -0.0027971321 -0.0048011946 0.0046311747 -0.0025268232
-0.0030625192 -0.0007109332 0.0006877666 -0.0001397935 0.00033264642 -0.0054139043 -0.005548746 0.0031608813

manager.M_goals.weight f4 [64, 128]
00000000: c12b 92bd 0e36 0cbd 3479 16bd b15b d4bd
00000010: d7e1 263e c3c7 073e 3486 0d3d 8e32 753d
00000020: b74e 0dbe e8f6 293e c695 e33c f9b3 a0be
00000030: ce87 2a3e 03d6 1a3e 180b c23c 6f64 2a3e
00000040: 8e82 61bd 192b b93c cb3b f5bd 2584 6c3c
00000050: d390 98bd 866b 693d b6ac eb3a 9fa9 283c
00000060: 17d9 ccbc 7f36 83bd 3076 e2bb aee4 20be
00000070: 91d0 2a3a 2cc9 60be 1727 4cbd 75aa eebc
00000080: b45b c53d 7019 fdbc 9b27 bdbc 41c7 af3d
00000090: 0b9b 27bd b1dd 94bd cf9d eb3d 17f9 8cbd
000000a0: e2fc 81bd dcb5 d8bd 9783 103e 9066 2d3d
000000b0: a447 843c a008 8c3c 6b02 cfbd 3ffa fabd
000000c0: 2217 dfbc 482a 163b 1eea 1c3d b802 833d
000000d0: 1547 ac3d 6ada 1a3e 9f02 71bd ad0a 1f3e
000000e0: e21a 2d3c 811f 3c3d 13e7 2abe 9ece 04bd
000000f0: 3879 323d aa3a b53d 7d2c 6bbd d3a3 963b
00000100: 9798 ae3d 10a6 2a3e 1847 c7bd 107f 943c
00000110: 2ad0 83bc 08f8 2abd 405e ec3d c2d3 a0bd
00000120: 5aad 36bd 775d 33bc 1906 943d 194d 74bd
00000130: c187 233e 0cac 7abd b4d9 66bd e26e 673d
00000140: b439 e23c 5ae1 cebc 2b85 3a3c 225a 073d
00000150: 45c7 9e3c 4bfd 58bd eca4 923a 792b 7cbd
00000160: 5b5e 54be d8d3 153c b414 06ba a5ba 293d
00000170: 5a12 4a3d f25f 093e 1689 fe3c 6f5f d83c
00000180: 0226 d53d f4ed 25bd 02f1 913d 47ec a0bc
00000190: f59a 49be 4fb4 84bd 7432 fb3d 5d6c 173b
000001a0: a282 773d 96ed b03d 9066 8ebc d569 9f3c
000001b0: 78d3 cf3d 71c6 9c3c 1e03 d83b d634 b4bc
000001c0: 81e2 c3bd 6925 1f3d edc1 10bc 0161 003d
000001d0: 3ed8 163d b0df 8a3d 8bb9 223e 5096 a2bd
000001e0: ff70 0ebd cb87 2e3c 63f8 0bbe b234 163e
000001f0: c621 1e3c b896 64bd 99d9 b13b e328 eb3c
00000200: 3fd4 db3d 4160 63bd e634 e5bd 75fd c5bd
00000210: 61cd e83d 4644 0cbe 52fb b13d f40f 2f3e
00000220: 339e 87bd 59bb 16bb cd07 88bd 4723 b3bc
00000230: 06c5 16bd a204 5fbd 4417 2f3d 29ae 4dbd
00000240: 952c d7bd 4aaa f7bb 1bc8 42bd 7e48 8e3d
00000250: d884 4d3e c210 b53d 9d65 59bd 67a7 203e
00000260: f1e0 093e 1384 473e da32 25be 1c97 433d
00000270: 2501 0a3d 18f4 b43c 0438 7f3c 5637 3dbd
00000280: 80dd 0a3d 2463 2c3d 75d3 9f3d fd89 bb3c
00000290: c603 5abd 483b 663d 0994 d33c 3b9f 4cbd
000002a0: 9c36 70bc f407 c63b 07cf 0d3e 4d96 10bc
000002b0: f8a9 20be fe71 c73d 65a0 5e3c e6a7 b1bd
000002c0: 7720 a2bd 45d0 bf3d 6c75 0fbe 310e c03d
000002d0: 451e 68bd 896b 7abd 32f7 83bd 8871 153c
000002e0: cd20 7f3c 5085 91bd 9eeb 873b 7cf7 70bd
000002f0: cd63 a7bd c475 cbbd cff9 f13d 55b0 b1bc
00000300: cc27 cbbc ea1b 893d dea8 cbbd 4e54 893d
00000310: 0154 053d 0564 b2bc 4e58 8d3d e49f fa3d
00000320: b4ed 743c 6798 a2bd b8b5 e2bd 45f1 42be
00000330: c36f fa3c 74a9 ac3c 0964 ae3d 2be1 ecbd
00000340: 808b 883d 14dc 403d 8292 dbbc 285f 57bb
00000350: e36b 8e3d 8b35 a63c 3cb4 ed3b 75e9 053e
00000360: 85f8 f7bc fe3f 563d 2299 19bd 2710 6c3e
00000370: e32c dabd 1201 a2bd 375f c3bc 0fa4 15bd
00000380: e86a 8cbd 0f7b fe3d eb25 d13d 73db babd
00000390: 3d7b 83bd a14c 263e a686 43bd 7da1 45bd
000003a0: 625a fc3b 8f3e 323e 8741 1c3c 31c6 10be
000003b0: 7c65 ad3d 3982 253d 52c4 803d 7143 ee3b
000003c0: d982 c4bc 28e5 45bd b643 043e c0f5 a9bb
000003d0: 5f40 bcbd 21da 1cbe 2b04 f6bc 2122 af3d
000003e0: 8946 d13c c7a7 273d bd66 1bbe 2493 dcbd
000003f0: 91ce 7e3d d3f1 c8bc 2caa 5dbe 05b6 c7bd
-0.07137252 -0.034231238 -0.036736682 -0.10369051 0.16297089 0.13259797 0.034551814 0.059862666
-0.13799559 0.16598094 0.027781378 -0.31387308 0.16653368 0.15120701 0.02368693 0.16639875
-0.055056147 0.022603558 -0.11974295 0.014435803 -0.07449498 0.056987308 0.0017980549 0.010294347
-0.02500586 -0.06406879 -0.0069110617 -0.15712234 0.0006516064 -0.21951741 -0.049841966 -0.029134015
0.096366316 -0.030895919 -0.023090174 0.085829265 -0.040919345 -0.07268847 0.11504709 -0.068834476
-0.06347062 -0.10581562 0.14112698 0.04233414 0.016147442 0.017093956 -0.10107883 -0.12254762
-0.02723271 0.0022913385 0.03830921 0.06397003 0.08411995 0.15122381 -0.05884039 0.15531416
0.010565491 0.045928482 -0.1668971 -0.032423608 0.043572634 0.0884908 -0.057415474 0.004597166
0.08525198 0.1666491 -0.09730357 0.018126994 -0.016090471 -0.041740447 0.11541414 -0.078528896
-0.044598915 -0.010947577 0.072277255 -0.05964384 0.15969755 -0.061199233 -0.05635996 0.05650223
0.027615406 -0.02525394 0.011384289 0.03304494 0.019382128 -0.052975934 0.0011188067 -0.061564896
-0.20739119 0.009144746 -0.00051147793 0.041437764 0.049333908 0.13415506 0.031071227 0.026412694
0.1040764 -0.040510133 0.07126047 -0.019643916 -0.19688018 -0.06479704 0.122654825 0.002310536
0.060427316 0.08639066 -0.01738289 0.019459644 0.10147756 0.019137593 0.0065921685 -0.02199785
-0.095646866 0.038854036 -0.008835298 0.03134251 0.03682732 0.06780946 0.15891092 -0.07938826
-0.03477573 0.010652493 -0.13668971 0.14668539 0.009651607 -0.0558078 0.005427551 0.02870602
0.10733842 -0.055511717 -0.1119173 -0.09667484 0.11367298 -0.13697919 0.08690514 0.1709593
-0.06621971 -0.0022999851 -0.06642113 -0.021867407 -0.03680899 -0.054447778 0.042746797 -0.05021492
-0.1050655 -0.007558142 -0.047554117 0.069474205 0.20070207 0.08841087 -0.05307542 0.15688859
0.13464715 0.19483976 -0.1613268 0.04775153 0.033692498 0.02208905 0.01557732 -0.04619535
0.033902645 0.042086735 0.07804004 0.022892946 -0.053226255 0.05620888 0.025827425 -0.04995654
-0.014661457 0.0060434286 0.13848506 -0.008824897 -0.15689838 0.09738539 0.013588046 -0.08674602
-0.079163484 0.09365896 -0.14009637 0.09377707 -0.056669492 -0.06113771 -0.06443633 0.009121306
0.015571785 -0.071055055 0.004147961 -0.05882977 -0.08173332 -0.099345714 0.11815225 -0.021690527
-0.02479925 0.06694777 -0.09944318 0.06705533 0.032550815 -0.021776209 0.069016084 0.12237528
0.014949251 -0.07939225 -0.11069816 -0.1903735 0.03057087 0.021076895 0.08515174 -0.11566385
0.066672325 0.047084883 -0.026803259 -0.0032863114 0.069541715 0.020289203 0.0072541516 0.13077338
-0.03026987 0.05230712 -0.037499554 0.23053037 -0.10653093 -0.079103604 -0.023849113 -0.03653341
-0.06856328 0.12425815 0.102123104 -0.09123888 -0.0641999 0.16240169 -0.047735833 -0.04824971
0.007701204 0.17406677 0.009537107 -0.14138104 0.08466622 0.040407393 0.06287445 0.0072712232
-0.023988174 -0.048314244 0.12916455 -0.0051867664 -0.09191965 -0.15317585 -0.030031284 0.085514314
0.02554633 0.04093149 -0.1517591 -0.10770252 0.062208716 -0.024529373 -0.21646947 -0.09751514

manager.M_goals.bias f4 [64]
00000000: ac46 beb8 fda0 31bb 9bd0 523b 84f9 2b3b
00000010: f2dc 86bb 440e 89bb d0bf 4e3b cef1 2abb
00000020: bc83 89bb 64bd 4c3b 2805 533a d07d 3c3b
00000030: d224 243b 11a2 54bb c1e4 e03a e255 37bb
00000040: eadd bebb e825 3f3b eb90 3e3b cfc1 48b9
00000050: 7e55 3dbb 6b11 df39 2dc4 213b 0151 673b
00000060: d602 f2ba 0cd1 7cbb 4fd1 5dbb ce37 233b
00000070: 51d4 203b fc0f 663b 4360 75bb b805 1ebb
00000080: 3e8b c1bb a969 03bb 1d9c 46bb 1f6e 7a3b
00000090: c67c 9cbb 6f7a 15bb f1aa 75bb c14e 373b
000000a0: fb45 f33a bfbd a3ba b830 6ab9 678c 2439
000000b0: 6f41 833b 681c 4dbb d6f5 08bb e4b7 86b9
000000c0: 0a08 9c3b 6700 0bbb f1e3 683b a225 5c3b
000000d0: 18f4 78bb 8b11 393b 5ac0 743b 25c7 4b3b
000000e0: aeb5 a53b d16c 9fbb 8f9d 22bb ea8d 2a3b
000000f0: 2ba6 043a 4f25 103b fe2f 4c3a 3d53 213b
-9.07307e-05 -0.0027104013 0.0032167796 0.0026241252 -0.004115694 -0.004182609 0.0031547435 -0.0026084068
-0.004196612 0.0031240815 0.00080497796 0.0028761514 0.002504636 -0.0032445232 0.0017158018 -0.0027974774
-0.005824794 0.002916688 0.0029078077 -0.00019145686 -0.0028890069 0.00042546852 0.002468358 0.0035296085
-0.001846398 -0.003857675 -0.0033846681 0.0024905088 0.0024540613 0.0035104742 -0.003744141 -0.0024112295
-0.0059064915 -0.0020051992 -0.0030305453 0.003821261 -0.0047756163 -0.0022808572 -0.0037485922 0.0027970525
0.0018560285 -0.0012492462 -0.00022334128 0.00015692563 0.004005603 -0.003129745 -0.0020898483 -0.0002569548
0.0047617005 -0.0021209957 0.0035536254 0.0033591767 -0.0037987288 0.0028239216 0.0037346096 0.0031094041
0.0050570583 -0.004865267 -0.002481315 0.0026024529 0.00050601613 0.0021994894 0.0007789134 0.0024616264

manager.M_value.0.weight f4 [32, 64]
00000000: b37f 173e 7938 273e 4c7e 1abe 0b7d 1e3e
00000010: 7f0a 2b3e 7118 01bd cef6 06bd bac3 fe3c
00000020: b3d9 0abe c32c a0bd 5451 9bbe 8ded 0a3e
00000030: aabe 123c 3604 5fba 5266 a43d 164f 40bd
00000040: 86eb b13d 5b6e 08bd 2ad7 e2bc 363b 89bc
00000050: 5788 f73b 9e95 16bd e72f 00be 0e25 573e
00000060: 66f7 d0bc b7dd 903e e301 b43d e8c4 73be
00000070: 74f6 263d 9e18 3c3c 104e 24be 10e4 293e
00000080: 3042 0d3e cac2 083e c781 4abd 23d4 bbbd
00000090: 7509 d23d 5261 65bd 810e abbc 8dae b43d
000000a0: 11a3 103e 4cc8 aa3d 0c45 e4bd 733d 27bb
000000b0: b30a 27be fe1e 49be c120 493d f00c 3b3e
000000c0: f044 bb3d 923e 73bd 416a e23d 8b60 8a3d
000000d0: b30b 643e ecba a33c 4ee6 15be 9923 bebb
000000e0: 61e0 4dbe 384e 8b3d 1652 bdbc f467 783d
000000f0: a9fa 00be 5f1d 45be 3f6a f73d 27c7 273e
00000100: 56d9 29be 9684 523e 56ce 0abd 1900 33bd
00000110: 12cd d33c 2d37 453d 1a72 1abe 86a7 283d
00000120: 512b 2cbd a2b1 aabe aeb8 de3d 4e1a 563d
00000130: 18b5 a9be 713c c73c 5998 2cbb 8bcd cabd
00000140: 5f0a 653d 848c 7f3c ca04 2e3e 021b 4cbe
00000150: 1bbd 16bc bb5a 913d 5e01 cb3d 36d0 333d
00000160: 5477 e0bb 12b3 91bd 20c7 e13d 7f6b 32be
00000170: dc9c 1abe 68d0 73bd 6d47 21bd 8836 323a
00000180: 8ef2 193e 18c5 5b3b 1ea7 d03d 237d 293e
00000190: fa7f 093e 85dc 453e 5033 f53c 370e 88bd
000001a0: 7063 8a3c e728 453c 54e9 913e 5b56 d63d
000001b0: c695 75bd 0d18 b13d b827 823e 1955 d7bd
000001c0: f255 35be f7e0 143d 6704 d83c ab81 14be
000001d0: 2fc7 a6bd 486d 753d abca 003e a2ef 11be
000001e0: 2f37 533d 03f0 713d b415 dc3d bb65 013e
000001f0: ac45 3fbe 628a c8bd 27e3 583d f1f2 90ba
00000200: 9a99 11be bc8e b5bd 68ba 153d 3272 503e
00000210: c810 8b3c 2c72 11bd ce33 2e3c ea36 233d
00000220: 220c f23d 5014 753e e018 3bbd e130 113e
00000230: a09e 1fbd deef 373d 6340 40bb d408 cdbe
00000240: 7ec7 9abc a8e3 273e 3e4f 33bd d21c 853d
00000250: 16c5 84be 07d2 253e c762 1b3e 15f9 113e
00000260: 3fcf 063e a6f3 8bbd bdba a7bd aaf6 f2ba
00000270: 2975 313e 4a9d 563e 2805 243d 3901 96bc
00000280: 1b54 183e a0e4 d63d 925c f6bd c759 babd
00000290: 2fd3 313d e13a f0ba 1df3 c0bb 0b83 273e
000002a0: a9d0 ff3d 002b 273e 634f 753d 8e1b c53d
000002b0: f1d7 243e 0e0b 973d 3a35 24bd a684 26be
000002c0: f5be 0f3e 4abe d93d 774b 1cbe d24b 7e3b
000002d0: 1bfa dabd cdfa 8fbc 3530 aa3d 3039 99bc
000002e0: 0359 b5bb a038 dcbc 5294 3a3e 750b 87bb
000002f0: f41c 0bbe b143 f43c 61b8 deb8 2828 883e
00000300: a0a3 3c3e 21ab 9cbd 54b4 953e 5d70 423d
00000310: c8a3 48be c6df 10bd 7b06 1fbe be26 bf3c
00000320: 018a 31bb 8137 94bd 304b 2d3e 0ee8 a53d
00000330: 4df7 b23c 5118 85bc 783d 853d 163a 4a3e
00000340: b404 6a3c 8cca 733c 1de9 27be 30a0 a63d
00000350: ba90 69bd 547c f63a aeb1 07be ecb9 e9bd
00000360: e655 a8bc d00e 843e fbe5 8bbd a012 59bd
00000370: 467d 4bbe 8d38 3d3e 1e00 b8bc a0af 6c3d
00000380: 99e0 07bd 154a d13d 25fe 02be 4d06 43bd
00000390: 9a57 8d3d 7927 583d 11ab 79bc 721b 6dbd
000003a0: 7604 5b3c 822e a9bd 7392 fe3d 4620 c4bd
000003b0: 6ab0 743d 474e 763e cc28 223e 5627 0a3c
000003c0: a140 913e 68a2 1a3e 472e efbd be33 cf3c
000003d0: a8ab 93bd a2ed 473e 100c 64be e30b eb3c
000003e0: 900e 8abd e1ca 753c a829 893e 860a 483e
000003f0: dd97 d3bc be45 993c e6b6 aa3d a7b3 90bd
0.14794807 0.16330136 -0.15087241 0.15477388 0.16703223 -0.03151745 -0.032950215 0.03109919
-0.13559608 -0.078210376 -0.30335486 0.13567181 0.008956591 -0.00085074024 0.080273286 -0.046950422
0.08687501 -0.03330837 -0.027690489 -0.016751867 0.007554095 -0.03676378 -0.12518273 0.21010229
-0.025508594 0.28294155 0.08789422 -0.23805583 0.04076238 0.011480479 -0.16045403 0.16590905
0.1379478 0.13355556 -0.04944017 -0.09171321 0.1025571 -0.056001015 -0.02088094 0.088223554
0.14124705 0.08338985 -0.11145982 -0.0025518804 -0.16312675 -0.19640729 0.049103502 0.18266654
0.09144008 -0.059385844 0.110554226 0.06756695 0.22270088 0.019986592 -0.14638636 -0.0058025834
-0.20105125 0.068020284 -0.02311043 0.060646012 -0.1259562 -0.19249485 0.12080812 0.16384564
-0.16586813 0.2055839 -0.033888184 -0.043701265 0.025854621 0.048148323 -0.15082589 0.041175388
-0.042033497 -0.33338648 0.108750686 0.05227118 -0.33145976 0.024320813 -0.0026335923 -0.099024855
0.055918094 0.015597466 0.16994014 -0.19932178 -0.00920036 0.070973836 0.0991237 0.043899737
-0.0068501625 -0.07114233 0.11024308 -0.17423819 -0.150989 -0.059524924 -0.039374758 0.0006798287
0.15033934 0.0033534225 0.10188125 0.16551642 0.13427725 0.19322403 0.029931694 -0.06643336
0.016893119 0.012033678 0.28498328 0.1046569 -0.05995729 0.086471654 0.25420928 -0.10514278
-0.17708567 0.036347356 0.026369287 -0.1450259 -0.0814346 0.05991867 0.12577312 -0.14251569
0.0515663 0.059066784 0.10746327 0.12636463 -0.18678921 -0.097920194 0.052951004 -0.001105873
-0.1421875 -0.08865115 0.036554724 0.20356062 0.016975775 -0.035509273 0.010632468 0.039847292
0.118187204 0.2393353 -0.04567802 0.14178802 -0.038969636 0.04490649 -0.0029335252 -0.40045798
-0.018893953 0.16395438 -0.043776743 0.06499638 -0.25931615 0.161934 0.151744 0.14255174
0.13164996 -0.068335816 -0.081899144 -0.0018536646 0.1732985 0.20958439 0.04004398 -0.01831113
0.14875834 0.104928255 -0.12029375 -0.09099155 0.04341429 -0.0018328094 -0.0058883564 0.16358583
0.12490971 0.16324997 0.059890162 0.09624396 0.16098 0.073751554 -0.040089823 -0.16261539
0.14037688 0.10631998 -0.15263163 0.0038802517 -0.10692235 -0.017575646 0.08309976 -0.018704027
-0.0055342927 -0.02688247 0.18220642 -0.004121239 -0.13585263 0.029817434 -0.00010620128 0.26593137
0.18421793 -0.07649828 0.29239142 0.04747044 -0.19593728 -0.035369657 -0.15529816 0.023333903
-0.0027090313 -0.07237149 0.16923213 0.081009015 0.021846438 -0.016246947 0.06505865 0.1974872
0.014283348 0.014879834 -0.1639752 0.08136022 -0.057022788 0.0018805363 -0.13251373 -0.11412415
-0.020548772 0.2579255 -0.06830975 -0.052996278 -0.19872007 0.18478604 -0.022460993 0.057784677
-0.033173177 0.10219208 -0.12792261 -0.04761343 0.06901474 0.05277202 -0.015238539 -0.057887502
0.013367763 -0.08260824 0.12430277 -0.09576468 0.059738554 0.24053298 0.15835875 0.00843223
0.2836962 0.15101016 -0.116787486 0.025293227 -0.07210475 0.19524243 -0.22270226 0.028692191
-0.06741059 0.015001983 0.26789594 0.19535264 -0.02582925 0.018710013 0.08335666 -0.07065516

manager.M_value.0.bias f4 [32]
00000000: 1459 46bb 22d1 c5bb c5a3 503b 6c8f 33bb
00000010: 436e 73bb 8e81 6ebb 8b0f 543b 16e8 e339
00000020: 9653 623b 47c0 87bb 671f 5ebb afbf 55bb
00000030: 55e9 0e3a f1e7 8aba 077d 58bb b9d4 413b
00000040: 3c40 313b 4fef 81bb bc22 513b ad5c 823b
00000050: ea9b 523b 265f 58bb 82e0 71bb 0a8f 87bb
00000060: 1957 313b 0411 5d3b 4fb0 503b 6487 1ebb
00000070: f894 d6b9 6f73 71bb c389 583b 31f3 f73a
-0.0030265497 -0.0060368935 0.0031835895 -0.0027398719 -0.0037144579 -0.0036393139 0.0032357897 0.00043469731
0.0034534684 -0.0041427943 -0.003389323 -0.0032615473 0.00054516393 -0.0010597688 -0.0033033506 0.0029576255
0.0027046343 -0.0039652954 0.0031911572 0.003978333 0.003213639 -0.0033015697 -0.0036907499 -0.0041369246
0.002705997 0.0033732066 0.003184337 -0.0024189586 -0.0004092825 -0.0036842485 0.0033041097 0.0018917081

manager.M_value.2.weight f4 [1, 32]
00000000: 31b7 e93d 62e2 443e e1c6 adbe 783b 073e
00000010: 9d87 673e eece d23d eb23 63bd 8b1d 33bc
00000020: 8e22 64be cda5 2a3e 37c8 0b3e 7d2d e73d
00000030: 0256 52bd 47c4 8f3d 8a73 ef3d 2f73 94bd
00000040: 0fec a6bd deb7 aa3d a48d 19bd 76f6 5ebd
00000050: fcbe 0abe 80c8 203e 45f5 9f3e 2eae a73e
00000060: b6be c8bc 5fdb 75be e914 58be 770a 753d
00000070: 1382 4bbe d8c7 d83e 705b 79bd e8e8 8fbd
0.11411894 0.19226983 -0.33940795 0.1320628 0.22610326 0.10293375 -0.055454176 -0.010932337
-0.22278807 0.1666481 0.13650595 0.11287973 -0.051351555 0.07019859 0.11691959 -0.07248532
-0.08150493 0.08335851 -0.037488595 -0.054434262 -0.13549417 0.15701485 0.31241813 0.32750076
-0.024505 -0.24009465 -0.21101727 0.059824433 -0.19873838 0.4233997 -0.060878217 -0.07026845

worker.f_stateW.0.weight f4 [128, 64]
00000000: a23e 7f3d 14f8 4d3d a833 55bd b3e9 1dbd
00000010: ca55 b0bd 8499 5e3d 2f37 2abc 4e74 4fbe
00000020: f3e0 c53d 882d a9bd faf6 a6ba 91a1 98bb
00000030: 6bc3 3ebc 8da3 df3c 1e61 073e 448d dfbc
00000040: 35f5 be3d fac4 9ebb 615a 6c3e bb0a b8bd
00000050: 869a e4bd 236d f5bd 18f7 07bd f983 af3c
00000060: a4e2 5c3e 3888 c1bd 83ba 1c3e ae3e f6bd
00000070: 737d eabc 92c0 febc b5ce 9a3d 2266 413d
00000080: 4c86 ca3d c24e 503d 4a2c aa3b 8a72 9d3c
00000090: 08ad ddbc d2ee b8bc 18b4 8a3d 8878 91bd
000000a0: a409 19be 9b29 7d3d cd01 a73d 4ffb 313b
000000b0: 49bd 42bd 1c67 143d c8fa f4ba bfea 663d
000000c0: bf19 5bbd 025b fcbd c549 793d a874 833d
000000d0: 206b fc3d 0fb5 7ebd ecbf 653d 38b1 1cbe
000000e0: b49d 49bc c465 ed3c 2779 16be f5fd 2c3c
000000f0: f548 943c 0f00 fc3d 10c1 123d 05d5 b7bc
00000100: 4bc6 2f3d 1d17 083d 04d2 0dbe 334d 4cbd
00000110: 0980 c0bd 6a1f 913c 1646 c43d c9f8 193d
00000120: cae6 e23d bcad 703d 1831 fa3c f18c e9bd
00000130: 3ea0 c5bb a06f cfbd beb1 963c 0e0e 1f3b
00000140: e53c a33d 1e10 493d f374 44bd 56ff 2e3d
00000150: bba7 8b3d b9e0 72bb 2c1f 893d 4acd dbbc
00000160: 9850 89be 2933 cabd e9d2 ad3d 06bc c7bd
00000170: fff8 ad3c e1bd 213e 6b4e ed3c 45d4 95bd
00000180: 5658 bcbd a96b bbbd e5d6 01bc 960e 4eba
00000190: 8c09 1ebd 9ee5 b1bd caff cb3c 9b15 a9bd
000001a0: 556e 2d3d 188d eabd 2bd6 11bd 132d a73d
000001b0: afbd 073c 2b61 a63d 8c83 35be cdc2 d6bd
000001c0: d37c 373e e926 b83b 6b60 c93d d50f 0dbe
000001d0: acdb 143e 4e77 103c 1aad c0bd 6060 173e
000001e0: cbe9 073d f60c e73d 509a da3d 13dc 023e
000001f0: f19c 0e3c 1387 c93d 3ecc 933d f199 95bd
00000200: ef80 41bc e51a 9cbc a486 0bbe 3030 293e
00000210: 08f0 c9bd 5bea fdbc 26f8 dfbd 90ab b53c
00000220: 3195 de3d 9c65 9abc 13e7 863d 9a6f e3bd
00000230: 26d6 90bd d54c 1e3d 0b40 a2bc 4cc9 40bd
00000240: 3b89 51be 57de 6bbd ee6e 1abd 95a3 dabd
00000250: fae6 9b3d 411d 553d b149 823b 8c23 253e
00000260: 5b0d ee3d c8ff 863d 9a5e 253d 9d31 8a3c
00000270: e01f 593d f825 82bc 8e02 df3a fa21 b73d
00000280: f05d debd 5d63 9abd 339f 54be 5b5b d0bc
00000290: da67 46bd bdd6 af3c 3e8d f839 c368 0c3d
000002a0: 9c5a 88bd 2c88 373d 9343 86bc f043 c73d
000002b0: 03fe d8bd 12a4 293d 5ebd b93d 0138 adbd
000002c0: 4384 4c3d c1a4 ae3d 0a10 fe3d 50d0 933c
000002d0: 8d69 963d 7796 0fbd cdb8 2ebe 3873 02be
000002e0: 0640 253d 2b36 e4bc cdfa 463d 1470 ae3c
000002f0: 29ed 76bd 6dbe b4bd 2a5d 3c3d 4ab4 253e
00000300: 4a01 0dbe c376 85bc 43e7 ec3d 5ecd a13d
00000310: a1a6 85bd 54f8 eebd 3ac8 b4bd f8e0 163a
00000320: 9eb9 0e3c 08c0 39bd aaa5 783d 28fc 16be
00000330: 9551 10be c1a0 82bd 83e4 b6bd c28b 4c3e
00000340: c8eb f9bc 6e48 0d3d 8ff4 07be 099d 693c
00000350: 7dde 2ebe 7420 e9bc e1f5 3bbe 90b5 54bd
00000360: e19c c5bd 5097 78bd 3f49 553d 8f2f 2dbe
00000370: edd6 8abd 5827 713d 6623 1f3d eeb3 4abd
00000380: dfd0 473d 23f3 ee3c 1c02 ad3d 2da3 053e
00000390: 7d31 173c d360 d33d 5b41 ea3c 1ef8 ad3d
000003a0: 626b 503c 4883 c63b 4c89 f63d 61e6 11be
000003b0: 6df6 18be 199b b53d 4872 653d 42b6 b73b
000003c0: 2c62 3dbe aba6 213d 6558 ef3c e80c e1bc
000003d0: 344d e4bd da61 23bd 95c0 a4bb 18eb d8bd
000003e0: b801 adbd abc6 703d 67a5 39bd 3dbc ecbc
000003f0: 4fb3 c93c df4d 27be 392b b13c bcfc 26be
0.06231559 0.050285414 -0.052051216 -0.03855295 -0.08610113 0.054345623 -0.010389133 -0.2025921
0.09662046 -0.082606375 -0.00127384 -0.004657932 -0.011643271 0.027299667 0.13220641 -0.02728904
0.09324113 -0.004845259 0.23081352 -0.08986422 -0.111622855 -0.11983707 -0.03319463 0.021425234
0.21570832 -0.0944981 0.15305524 -0.12023674 -0.028624272 -0.031097684 0.075589575 0.047216542
0.09888896 0.05085636 0.005193268 0.019219656 -0.027060047 -0.022574816 0.067726314 -0.07103068
-0.14945084 0.061807256 0.0815464 0.0027157848 -0.047543798 0.036231145 -0.0018690461 0.056376215
-0.05349135 -0.12322046 0.060861368 0.06418735 0.1232512 -0.06218439 0.056091234 -0.15301979
-0.012305666 0.02897919 -0.14694653 0.010558595 0.018101195 0.12304699 0.03582865 -0.022440443
0.042913716 0.033225168 -0.13849646 -0.04987831 -0.09399421 0.017715175 0.0958368 0.037590776
0.11079176 0.058759436 0.030540988 -0.114038356 -0.0060310652 -0.10128713 0.018395301 0.0024269852
0.07970599 0.049087636 -0.047963094 0.042723976 0.068191014 -0.0037060215 0.06695399 -0.026831288
-0.268193 -0.09873039 0.084874935 -0.097526595 0.021236895 0.1579509 0.028968057 -0.07315878
-0.09196536 -0.09151394 -0.00792477 -0.000786045 -0.038583323 -0.08686374 0.024902243 -0.08256074
0.04234155 -0.11452693 -0.035604637 0.08162894 0.00828497 0.08124002 -0.17725962 -0.10486374
0.1791871 0.005619873 0.098328434 -0.1377557 0.14536923 0.008817507 -0.094080165 0.14782858
0.033181947 0.11281769 0.10673964 0.12779264 0.00870441 0.098402165 0.072166905 -0.073047526
-0.011810525 -0.019055793 -0.1362558 0.16522288 -0.098602355 -0.030995538 -0.109360024 0.022176534
0.108683 -0.01884728 0.06587043 -0.11105271 -0.070720956 0.03864749 -0.019805929 -0.04706697
-0.20462506 -0.057585087 -0.037703447 -0.10675732 0.07612415 0.05202985 0.00397607 0.16126841
0.11623641 0.06591755 0.040373422 0.01686936 0.053008914 -0.015887246 0.0017014311 0.089420274
-0.10857761 -0.07538483 -0.20763855 -0.025434187 -0.048438884 0.0214647 0.0004740748 0.034279596
-0.06657907 0.044807598 -0.016389644 0.09729755 -0.10595324 0.041416235 0.09069322 -0.084579475
0.049930822 0.08527518 0.12405403 0.018043667 0.07344351 -0.035055604 -0.17062683 -0.12739265
0.04034426 -0.02785786 0.048579026 0.021293677 -0.060284767 -0.08825383 0.045987286 0.16182056
-0.13770023 -0.016291982 0.11567547 0.07900499 -0.065259226 -0.116684586 -0.08827253 0.0005755569
0.008711247 -0.04534915 0.060704865 -0.14744627 -0.14093621 -0.063783176 -0.08930304 0.19975188
-0.030507937 0.034492902 -0.13276885 0.0142586315 -0.1707706 -0.028457858 -0.18355514 -0.051930964
-0.09649063 -0.060691178 0.052071806 -0.16912673 -0.06779275 0.05887541 0.038852118 -0.049488
0.04878318 0.029168671 0.08447668 0.13050528 0.0092281075 0.10321202 0.028595617 0.0849459
0.012720915 0.0060581304 0.12037906 -0.14248039 -0.14937754 0.08867473 0.05601719 0.0056064436
-0.18494481 0.039465588 0.029216954 -0.027471974 -0.11147538 -0.03988824 -0.0050278404 -0.105917156
-0.084475935 0.058783215 -0.045323756 -0.028898353 0.024621634 -0.16338299 0.021627055 -0.16307348

worker.f_stateW.0.bias f4 [128]
00000000: 2479 da3b f9d4 793b ee75 81bb 192b 063b
00000010: d38d 21bb 9476 dcba 6007 d3bb 8b13 27bb
00000020: b600 893b d233 aa3a 5908 863b 0843 d13b
00000030: fe4b 453b 740a 9dbb c7f6 d3bb 537e 99bb
00000040: d2f3 bebb 0336 9c3a f5e9 3b3b 596d c239
00000050: c113 52bb fa89 04bb 3259 9c3b 38ae ac3b
00000060: 31d2 f5b9 5e2d a0b9 874c a63b ce61 393b
00000070: 11c8 95bb 3e38 3cbb eb28 713b b0d9 5ebb
00000080: 853a 53bb 0973 d33a 91fb 50bb f121 cd3b
00000090: 2f6b 2fbb c8e6 3e3a 51cf 7d3b eb27 80bb
000000a0: 702e fcbb 0bd2 4f3a 6d4d 8fbb c8b2 a8bb
000000b0: e07e 75bb 265d d33b 6e9d 093b 9ccc a03b
000000c0: 81fd 823a 6198 18ba e801 0bb9 1ba3 e43b
000000d0: 0bc2 92bb 9af7 1d3b e426 a33b 2dad 813b
000000e0: 34b0 eb3b e25f 98bb 81f3 6a3b e2e9 863b
000000f0: 3097 da3b e2ec 86bb e871 b1bb 0fe3 ee39
00000100: dd40 a13b 4a31 9b39 c0cb 043c c45e 04bb
00000110: b347 1139 d6ba 313b 49b8 d53b 2b45 03bc
00000120: 96f6 bb3b 59a2 80ba 8c85 b9bb cc99 df3b
00000130: 5183 a43a 02d6 19bb b5b7 64b9 c903 893b
00000140: a66e fabb ccd6 c03b d54e a73b ac97 08bb
00000150: 78ed 9c3b 74d7 723b a00a 05bb 9a52 99bb
00000160: 7c9d 8a3a ef41 c0ba 4dc0 2f3b 4370 acbb
00000170: 9a9a f9b9 e3ae ebbb f90d b83b 7cb2 a5bb
00000180: 5910 d33a 9792 64bb 8b34 9bb9 68bc 003b
00000190: 25cd 273b ca3b 8bbb 8168 963a a6b2 1d3a
000001a0: 2c01 9dbb 26c4 193b d04f 7a3b 913a 28bb
000001b0: 898b d3bb d889 0fba 10f4 953b 2222 823b
000001c0: 94e5 113b 89ec 7abb d9a6 a5bb 2dc2 b7bb
000001d0: 78af 59bb 0690 c1bb faa0 b83a 1af6 fd3a
000001e0: afdb d73b 299f a9bb 4790 61bb 49fd d1ba
000001f0: 1df4 e0ba 5b6b 26ba 3dbc 1abb 2594 6d39
0.006667273 0.0038121326 -0.003950826 0.0020472466 -0.0024651184 -0.0016820007 -0.006440088 -0.0025493826
0.004180993 0.0012985414 0.0040903506 0.0063861646 0.003010511 -0.004792506 -0.006468627 -0.0046842485
-0.0058274055 0.0011917952 0.0028673385 0.00037084034 -0.0032055231 -0.0020223842 0.004771375 0.005269792
-0.00046886646 -0.0003055138 0.0050750407 0.0028287056 -0.004570969 -0.0028720046 0.003679807 -0.0034004264
-0.0032230925 0.0016132306 -0.0031888227 0.0062601496 -0.0026766767 0.0007282314 0.0038728307 -0.0039110086
-0.0076959655 0.0007927722 -0.0043732435 -0.0051482655 -0.0037459657 0.006450313 0.0020998376 0.004907204
0.0009993763 -0.0005821046 -0.00013256783 0.0069774515 -0.004478698 0.002410388 0.0049790014 0.0039574117
0.007192636 -0.004650102 0.0035850706 0.0041172365 0.006670855 -0.004117594 -0.00541519 0.0004556407
0.0049210624 0.00029600627 0.008105218 -0.0020198086 0.00013854988 0.002711942 0.0065222126 -0.008012096
0.0057361824 -0.0009814008 -0.005661672 0.006823754 0.0012551342 -0.0023473506 -0.0002181221 0.0041813594
-0.007642585 0.005884981 0.005105833 -0.0020842357 0.0047890507 0.003705469 -0.0020300522 -0.0046790363
0.0010575498 -0.0014668087 0.00268175 -0.005262406 -0.00047608168 -0.007192479 0.0056169 -0.0050566774
0.0016102894 -0.0034877413 -0.0002960305 0.001964355 0.0025604453 -0.004249071 0.0011475236 0.00060156954
-0.0047913995 0.002346286 0.0038194545 -0.0025669674 -0.006455843 -0.00054755574 0.0045762137 0.003971354
0.0022262083 -0.0038287959 -0.00505529 -0.0056078644 -0.003321616 -0.0059070615 0.0014086061 0.0019375712
0.0065874676 -0.005176444 -0.0034418271 -0.001602092 -0.0017162595 -0.00063483947 -0.0023610734 0.0002265727
