vwgym/saved_model/vwgym_f_net_step_1500000.pt (torch_old, 356488 bytes, 51 tensors)

f_percept.percept.0.weight f4 [16, 3, 3, 3]
0	0x3e5c3411	0.21504237
1	0xbd54165c	-0.051779136
2	0xbe9c2305	-0.30495468
3	0x3d285153	0.04109318
4	0x3d9f9004	0.07791141
5	0x3e416e34	0.18889695
6	0xbdd53410	-0.10410321
7	0xbe973019	-0.29528883
8	0x3e688a40	0.22708988
9	0x3eacf91b	0.33783802
10	0xbd9c55cf	-0.07633554
11	0x3e229371	0.15876557
12	0x3df6e7b8	0.120559156
13	0x3db7ef3d	0.08981178
14	0x3e173506	0.1476632
15	0x3e0afd4b	0.13573186
16	0x3e0ccfd9	0.13751163
17	0xbe70a7fe	-0.23501584
18	0xbceb18f7	-0.028698428
19	0x3d0c2932	0.034218974
20	0x3e73d041	0.23809911
21	0x3e00f5ba	0.12593737
22	0xbe543cba	-0.2072629
23	0xbea2c34d	-0.31789628
24	0x3ecc8acd	0.39949647
25	0x3d6f2d71	0.058392946
26	0xbdfa0599	-0.12208099
27	0xbd15cd05	-0.036572475
28	0x3edb2e06	0.4280855
29	0x3e0d8adc	0.13822502
30	0x3d7a974b	0.06117944
31	0x3e423077	0.189638
32	0x3e51911e	0.20465514
33	0xbda8aa0e	-0.0823556
34	0x3e3c75a5	0.18404253
35	0xbdf2a0d9	-0.118470855
36	0x3c8d236b	0.017228803
37	0x3e34c7c8	0.17654335
38	0x3dfd0f67	0.123564534
39	0xbe490be1	-0.19633438
40	0xbc2dcbeb	-0.0106077
41	0xbb8dc6c2	-0.0043266723
42	0x3e8f4840	0.2798481
43	0x3ef5d8e1	0.48017028
44	0x3e979fb5	0.29614034
45	0xbd70f83f	-0.058830496
46	0x3e32419f	0.17407845
47	0x3e65ccd7	0.22441421
48	0x3baf7a64	0.0053551663
49	0x3c922f46	0.017844807
50	0x3e175f68	0.14782488
51	0x3e550d5a	0.20805874
52	0xba1f691d	-0.0006081032
53	0x3d8fa8b9	0.07014603
54	0x3e630e2f	0.2217338
55	0xbe8b6a3b	-0.27229485
56	0xbd8f3a5b	-0.06993552
57	0xbe885ce5	-0.26633373
58	0x3d7030c7	0.058640268
59	0x3e1417d6	0.14462218
60	0x3c438b56	0.011935076
61	0x3d376a15	0.044778902
62	0xbe827645	-0.25480857
63	0xbea86b4b	-0.32894358
64	0xbe419fa7	-0.18908559
65	0x3e394700	0.1809349
66	0x3e040bf4	0.12895185
67	0xbd937257	-0.07199543
68	0xbe33f2ff	-0.17573164
69	0x3e4d72d1	0.2006333
70	0xbc8602c1	-0.016358735
71	0xbe08f21e	-0.1337361
72	0x3e26cdd6	0.16289458
73	0x3d067e42	0.032835253
74	0x3e9aaf6c	0.3021196
75	0x3d9aa88a	0.075516775
76	0xbe699888	-0.22812092
77	0x3e9948bc	0.29938304
78	0xbc1273bb	-0.008938725
79	0xbeb02560	-0.34403515
80	0x3e4fcaae	0.2029216
81	0x3ec72fc3	0.38903627
82	0x3d0fa6fb	0.035071354
83	0x3ddf1885	0.108933486
84	0xbdfed6c5	-0.12443308
85	0xbe60be1c	-0.21947521
86	0xbc1f4f2b	-0.009723465
87	0xbe44ab58	-0.19205987
88	0x3e0376d1	0.12838294
89	0xbe250791	-0.16116168
90	0xbd96ae06	-0.07357411
91	0x3d907107	0.07052808
92	0x3be17c45	0.006881269
93	0xbde7a195	-0.11310116
94	0xbda38c74	-0.07985774
95	0x3df4ee8d	0.119595625
96	0xbe479057	-0.19488655
97	0xbd0f3e5c	-0.03497158
98	0xbdeca773	-0.11555376
99	0xbebcdbd3	-0.36886463
100	0x3e87c024	0.2651378
101	0xbe7608ae	-0.24026749
102	0x3f101be2	0.56292546
103	0x3b870e83	0.004121603
104	0x3c90c809	0.01767351
105	0x3d9fc55f	0.078013174
106	0x3c2fb6f7	0.010724775
107	0xbd3bdaa5	-0.045862813
108	0xbe715da5	-0.23570879
109	0xbe41ae89	-0.18914236
110	0x3d80b69e	0.062848315
111	0x3daf933e	0.08573006
112	0xbbd8eaea	-0.006619801
113	0xbea4d777	-0.32195637
114	0x3d8b4700	0.068006516
115	0x3db24a26	0.08705549
116	0x3d11825c	0.03552471
117	0xbe2a6157	-0.16638695
118	0xbcf032c0	-0.029321074
119	0x3e818e30	0.25303793
120	0x3d9b9915	0.075975575
121	0x3ef0474b	0.46929392
122	0x3e1c4785	0.15261658
123	0x3d1ec07b	0.038757782
124	0x3bee1168	0.0072652586
125	0x3dfa9385	0.12235168
126	0xbeb9a4c3	-0.36258516
127	0xbe9ad8de	-0.30243582
128	0x3e915edc	0.28392684
129	0x3e87001c	0.2636727
130	0x3d798c50	0.060924828
131	0x3db37054	0.08761659
132	0x3dc93756	0.098250076
133	0xbd608ca7	-0.054821637
134	0xbdc0771c	-0.09397718
135	0xbebf5c28	-0.37374997
136	0x3e53d065	0.20684965
137	0xbde89524	-0.11356571
138	0xbdb9f098	-0.09079093
139	0x3d398e35	0.045301635
140	0xbdec4c9a	-0.11538048
141	0xbe853571	-0.26017335
142	0xbe032a40	-0.12809086
143	0xbe6fddc5	-0.23424442
144	0xbe465eef	-0.19372152
145	0xbea071a4	-0.313367
146	0x3d9ba697	0.07600134
147	0xbc01dde0	-0.007926434
148	0x3e0047bc	0.12527364
149	0xbd49c517	-0.049260225
150	0xbe61ca94	-0.22049934
151	0x3d9bad61	0.07601429
152	0xbc92f574	-0.017939307
153	0xbd888992	-0.066668645
154	0x3db9164b	0.09037455
155	0xbe73ce06	-0.2380906
156	0xbd901e13	-0.07036986
157	0xbd95f9f7	-0.07323068
158	0xbe66c1a1	-0.22534801
159	0x3e9e9bf2	0.30978352
160	0xbdc44e9b	-0.09585305
161	0x3edb3189	0.4281123
162	0xbe4dd7df	-0.2010188
163	0xbdfa7c5a	-0.122307494
164	0x3d97af49	0.0740648
165	0xbea397cb	-0.31951746
166	0x3e3984f9	0.18117131
167	0xbe0f9cbc	-0.14024633
168	0x3e3f4a1a	0.18680611
169	0x3edf79ad	0.4364752
170	0x3dd73447	0.10508018
171	0x3e7786e6	0.24172553
172	0xbe56dac1	-0.20981885
173	0x3c2c97c6	0.0105342325
174	0x3e9ab5ea	0.30216914
175	0xbdac463c	-0.08411834
176	0x3da66f0c	0.08126649
177	0x3e622ca5	0.22087343
178	0x3dc5e631	0.09663046
179	0xbe474e9d	-0.19463582
180	0xbe5f1469	-0.2178513
181	0x3ec0b517	0.3763816
182	0xbd06ca37	-0.03290769
183	0xbe00aa36	-0.1256493
184	0x3dcdd2bc	0.1004996
185	0x3c9c325f	0.019066988
186	0x3bd1e0ed	0.006404987
187	0x3e47c7df	0.19509839
188	0x3c8eba45	0.017422805
189	0x3e27f183	0.16400723
190	0x3bffc721	0.0078057204
191	0x3da0833f	0.07837533
192	0x3e5b663f	0.21425723
193	0x3da29047	0.07937675
194	0xbde830b9	-0.11337418
195	0xbebd488b	-0.36969408
196	0x3b0f41af	0.0021859219
197	0x3dd00673	0.1015748
198	0x3da5979d	0.080855586
199	0xbe1668e7	-0.14688455
200	0x3e02529f	0.1272683
201	0x3dbfb623	0.09360912
202	0xbecff8a5	-0.40619388
203	0xbdf02763	-0.117262624
204	0x3ea97075	0.3309361
205	0xbdb58750	-0.088636994
206	0xbc69e5c8	-0.0142759755
207	0xbea50d4b	-0.32236704
208	0xbeb8045b	-0.35940823
209	0xbe1e5d96	-0.15465388
210	0xbe236ffe	-0.1596069
211	0x3e89a9c6	0.2688734
212	0x3d3d9499	0.046284292
213	0x3da2f660	0.079571486
214	0xbe34f2cd	-0.17670746
215	0x3d8b049f	0.06787991
216	0x3e37ab47	0.17936431
217	0x3d9ebb39	0.07750554
218	0xbcd57455	-0.026056448
219	0x3d0cf6bf	0.034415003
220	0xbd0da177	-0.034577813
221	0x3e4a8ca0	0.19780207
222	0x3d878af6	0.066183016
223	0x3e1cb8d2	0.15304878
224	0xbd141df4	-0.036161378
225	0xbe82c026	-0.25537223
226	0x3ebfb8d1	0.3744569
227	0x3e1487e7	0.14504968
228	0x3ec5baf1	0.38619187
229	0x3e05c317	0.13062702
230	0x3e25aacc	0.16178435
231	0xbcb8c888	-0.022556558
232	0xbd5eba80	-0.05437708
233	0x3d5e3104	0.054245964
234	0xbe864b50	-0.26229334
235	0xbda3be65	-0.07995299
236	0xbe5a8173	-0.21338443
237	0xbec7d123	-0.39026746
238	0xbec92d4c	-0.3929237
239	0xbe231122	-0.15924504
240	0xbbe2b729	-0.006918807
241	0x3d83fca9	0.064446755
242	0x3db2bf17	0.08727854
243	0x3b688a14	0.0035482692
244	0xbdaf57dd	-0.085616805
245	0xbc446f3c	-0.011989411
246	0xbea3e2bf	-0.3200893
247	0x3c1acaf2	0.0094478
248	0xbdf30563	-0.11866262
249	0xbe2992e4	-0.1655994
250	0xbe80124e	-0.25013965
251	0x3e8f3c6c	0.27975786
252	0xbb9269e1	-0.004468188
253	0xbd1ca3fc	-0.038242325
254	0xbd8513be	-0.06497906
255	0x3ead8b43	0.3389531

f_percept.percept.0.bias f4 [16]
0	0xbb4759aa	-0.0030418434
1	0x3c6a707d	0.014309046
2	0x3b4ea29e	0.0031530033
3	0x3cac95ae	0.021067467
4	0xbc9b91fb	-0.018990507
5	0xbc304650	-0.010758951
6	0xbc8137e6	-0.015773725
7	0xbc77fc98	-0.015135907
8	0x3c101ff2	0.008796679
9	0x3c5e774a	0.013578245
10	0xbc88b290	-0.016686708
11	0x3befe228	0.007320661
12	0x3c4919d3	0.012274223
13	0xbc4f98cc	-0.012670707
14	0x3c39f145	0.011349027
15	0xbcc96748	-0.024585381

f_percept.percept.3.weight f4 [64, 16]
0	0x3cdba485	0.026811847
1	0x3e0a32ee	0.1349599
2	0xbe37c6c0	-0.17946911
3	0xbe8c301a	-0.2738045
4	0xbe121f1d	-0.14269681
5	0xbc42e3f3	-0.011895168
6	0xbe21e089	-0.1580831
7	0x3e349066	0.17633209
8	0xbc5e9312	-0.013584869
9	0x3ed324ae	0.41238922
10	0x3c975cb6	0.018476825
11	0x3cdef5d2	0.027216826
12	0x3decb39a	0.11557694
13	0x3ee0c4d5	0.4390017
14	0xbe040782	-0.12893489
15	0xbd9b9adf	-0.07597899
16	0xbe37dc4f	-0.17955135
17	0xbd9a3c3b	-0.07531019
18	0x3e2c4888	0.16824543
19	0x3dfc7c4b	0.123283945
20	0x3d2951bb	0.04133771
21	0xbd81912f	-0.0632652
22	0xbe1b1f96	-0.15148768
23	0x3d838b96	0.06423108
24	0xbe09faf4	-0.13474637
25	0x3d15a70f	0.036536273
26	0x3dae4af1	0.08510388
27	0x3d82bc43	0.06383564
28	0xbe864dff	-0.2623138
29	0x3e6b5706	0.22982416
30	0x3e339192	0.17536
31	0xbd62e577	-0.055394616
32	0x3e7409f1	0.23831917
33	0xbc9b597e	-0.018963572
34	0x3d49cf06	0.0492697
35	0xbcfc1cda	-0.030775476
36	0x3c25bea2	0.010116251
37	0xbe96a803	-0.29425058
38	0xbd099c3a	-0.033596255
39	0xbe3c51d8	-0.18390596
40	0x3c885a78	0.016644701
41	0xbd69ee1c	-0.057111844
42	0x3e867ae4	0.26265633
43	0x3cf9e3d7	0.03050415
44	0xbda3cbef	-0.079978816
45	0x3d849414	0.06473556
46	0x391f16b8	0.00015171885
47	0xbda6baca	-0.08141096
48	0xbd8bffe0	-0.06835914
49	0x3d1000b0	0.035156906
50	0xbd89bb37	-0.067251615
51	0xbe6821de	-0.2266917
52	0x3e7213d0	0.2364037
53	0x3e2aa4c0	0.1666441
54	0x3dc7ffa5	0.09765557
55	0x3e480d58	0.1953634
56	0xbd9b6c56	-0.07589023
57	0x3de4d172	0.11172761
58	0x3e4a042a	0.19728151
59	0xbcb4d3b5	-0.022073606
60	0xbe4ad1d7	-0.1980661
61	0x3d91b5ea	0.071147755
62	0xbdb68506	-0.08912091
63	0xbe0524fb	-0.13002388
64	0xbe2f9f50	-0.17150617
65	0x3d275d0c	0.04086022
66	0x3ce4e8a6	0.027942967
67	0xbe79b15a	-0.2438406
68	0xbe02ad1c	-0.12761348
69	0xb9781c92	-0.00023661766
70	0xbc15b056	-0.00913628
71	0x3dd3aa82	0.10335256
72	0xbd9c40ae	-0.07629524
73	0x3e16f522	0.14741948
74	0xbdaf5195	-0.085604824
75	0x3d72c81e	0.059272878
76	0x3d564971	0.052316133
77	0xbe9d9f52	-0.30785614
78	0xbdba6502	-0.09101297
79	0x3d20a510	0.039219916
80	0xbe7e8f54	-0.24859363
81	0x3bec1a7e	0.0072053066
82	0x3e117a65	0.14206846
83	0x3d1bda00	0.038049698
84	0x3db7bfe4	0.08972147
85	0xba3de95d	-0.00072445517
86	0xbe0b967a	-0.13631621
87	0xbd6b3131	-0.05741996
88	0x3d9fcfa2	0.07803275
89	0xbe205abe	-0.15659615
90	0xbcac238f	-0.02101305
91	0x3ebd7d6c	0.37009752
92	0x3d8b6672	0.06806649
93	0xbd8a7145	-0.06759886
94	0x3e551599	0.2080902
95	0x3c1c360a	0.009534368
96	0x3c906aa3	0.017628973
97	0xbd673d10	-0.056454718
98	0x3e7c528f	0.24640869
99	0x3d0582f5	0.032595593
100	0xbe501b65	-0.2032295
101	0x3dc1bc6f	0.09459769
102	0xbe8fc370	-0.28078794
103	0x3d4a1c47	0.049343374
104	0xbe45d10f	-0.19318031
105	0x3e43dc61	0.19127037
106	0x3df3bbb9	0.1190104
107	0xbe587822	-0.21139577
108	0x3e605bf1	0.21910073
109	0xbd25eee6	-0.040511034
110	0x3d3ce7e5	0.04611959
111	0x3dd4e2cc	0.103948206
112	0xbe2987ad	-0.16555662
113	0xbdc111c9	-0.094272204
114	0xbb2417fb	-0.0025038708
115	0xbe758efb	-0.23980324
116	0xbde6d696	-0.11271398
117	0x3d80d6a8	0.062909424
118	0x3e7e2489	0.24818625
119	0xbcd31dba	-0.02577101
120	0xbe2c8c7f	-0.1685047
121	0xbe3ac400	-0.1823883
122	0xbd5d4f7c	-0.05403088
123	0xbe1ee44b	-0.15516774
124	0x3c9cbde7	0.019133521
125	0x3dfe9023	0.12429836
126	0xbd84e6fe	-0.06489371
127	0xbd80fdc9	-0.06298406
128	0xbe42b50f	-0.19014381
129	0x3c125300	0.008930922
130	0x3e37beba	0.1794385
131	0x3df1e56e	0.11811338
132	0x3ceae44c	0.028673314
133	0xbd2fae10	-0.04289061
134	0x3e681aec	0.2266652
135	0x3a10bb5e	0.0005521084
136	0xbea3930a	-0.3194812
137	0x3dec7198	0.11545104
138	0x3c6fccc8	0.014636226
139	0x3d76699b	0.060159307
140	0x3e80f37c	0.25185764
141	0x3ca335d3	0.019923126
142	0x3e0c5011	0.13702418
143	0xbd868b9b	-0.065695964
144	0x3c772e59	0.015086734
145	0x3d8178d4	0.06321874
146	0xbe2b467a	-0.16726103
147	0xbd5b55ce	-0.053548627
148	0x3e60e873	0.21963672
149	0x3ddcd1ed	0.10782228
150	0xbdf7df7a	-0.12103172
151	0x3d5ea734	0.054358676
152	0xbe5ea3b6	-0.21742138
153	0xbc66b82c	-0.014081996
154	0xbe2f0c3c	-0.17094511
155	0x3e8c8f58	0.27453113
156	0xbcf0083a	-0.029300798
157	0x3d25c429	0.040470276
158	0xbbbe7d23	-0.0058132573
159	0x3cec7073	0.028862214
160	0xbdd36b36	-0.10323183
161	0xbd586d6a	-0.05283872
162	0xbe829579	-0.25504664
163	0xbd970fee	-0.07376085
164	0xbdb19daf	-0.08672654
165	0x3d15cd27	0.0365726
166	0x3cf1f195	0.02953414
167	0x3e8479a7	0.25874063
168	0xbdc23f55	-0.09484736
169	0xb911881a	-0.0001387898
170	0xbd9ac24a	-0.07556589
171	0x3d903016	0.07040422
172	0xbe066ddb	-0.13127844
173	0xbd8a6c68	-0.06758958
174	0x3e22cccc	0.15898436
175	0xbe80078e	-0.25005764
176	0x3d63dc66	0.05563011
177	0xbdc757cb	-0.09733542
178	0xbcf0f742	-0.029414777
179	0x3de06363	0.109564565
180	0xbe85d376	-0.26137894
181	0xbcf3bcf3	-0.029753184
182	0x3df49fd6	0.11944549
183	0xbcf7711e	-0.030205306
184	0xbd1854ac	-0.037190124
185	0xbe2c6e0d	-0.16838856
186	0xbdfb1f9b	-0.12261888
187	0xbdfbc092	-0.12292589
188	0xbe8671e9	-0.26258782
189	0xbd1b1a17	-0.037866678
190	0xbdd76b71	-0.1051854
191	0xbe03b1f2	-0.1286085
192	0x3e0c5243	0.13703255
193	0xbe1807b3	-0.14846687
194	0x3eb01180	0.3438835
195	0xbc7c7ae3	-0.015410158
196	0xbd0b6beb	-0.034038465
197	0xbe0a65b9	-0.13515367
198	0xbd15ea9c	-0.036600694
199	0x3d2a41ae	0.041566543
200	0x3da7c6c3	0.08192208
201	0x3dfb2ab5	0.12264005
202	0xbe5b0f36	-0.21392521
203	0x3dc220a1	0.0947888
204	0xbdec9d81	-0.11553479
205	0xbe1213f9	-0.14265431
206	0x3cc0d1a7	0.02353747
207	0xbdb16af7	-0.0866298
208	0x3e853b62	0.26021868
209	0x3cae84ef	0.021303622
210	0xbd94d5a1	-0.07267309
211	0x3cd734e8	0.026270345
212	0x3d9dceb8	0.07705444
213	0xbcf72e1f	-0.03017336
214	0x3e1e55a3	0.15462355
215	0x3ddde144	0.10833982
216	0xbe936f80	-0.28796005
217	0x3c73f1a8	0.014889158
218	0x3d80f454	0.06296602
219	0x3e80c176	0.251476
220	0x3cdf4f5d	0.027259523
221	0x3e0368fa	0.12833014
222	0x3d9a080e	0.075210676
223	0x3dad009e	0.08447383
224	0x3e049600	0.12947845
225	0x3da5393a	0.08067556
226	0x3ea6a353	0.32546481
227	0xbec45207	-0.38343832
228	0xbd6e79f9	-0.05822179
229	0xbdd5c5f1	-0.10438145
230	0x3d163b4c	0.036677644
231	0xbe3fb0a2	-0.18719724
232	0x3ccb6614	0.024828948
233	0x3bd6ac2c	0.006551286
234	0xbe23061a	-0.15920296
235	0x3dba2875	0.09089748
236	0x3d79885c	0.060921058
237	0xbdab435d	-0.08362458
238	0x3e1b80d1	0.15185858
239	0xbda39560	-0.079874754
240	0x3dc17cfe	0.094476685
241	0xbe1d7789	-0.1537763
242	0x3d609ca3	0.05483688
243	0xbd10a90d	-0.03531747
244	0x3e64b385	0.22334106
245	0x3c84269e	0.016131695
246	0xbe644e62	-0.22295526
247	0xbe0ef160	-0.13959265
248	0x3e0ebb24	0.13938576
249	0x3da26d1a	0.07930966
250	0x3c9c1633	0.019053554
251	0x3e523aa8	0.20530188
252	0xbe176281	-0.1478367
253	0xbcb6754f	-0.022272734
254	0x3ced1fed	0.028945887
255	0xbd0d37cc	-0.03447704

f_percept.percept.3.bias f4 [64]
0	0x3d022856	0.03177675
1	0x3c097e63	0.008391949
2	0x3d7338fa	0.05938051
3	0x3d00f336	0.031481944
4	0x3c9b2036	0.018936258
5	0x3d306b23	0.043070924
6	0x3ce8266e	0.028338637
7	0x3a3c396e	0.00071801885
8	0x3d116c3b	0.035503607
9	0xba846bef	-0.0010102967
10	0x3c4307b7	0.011903695
11	0x3d19651a	0.037449934
12	0x3c9b9627	0.018992497
13	0x3bf360e3	0.0074273213
14	0x3c2f9ff7	0.010719291
15	0xbaf3b40c	-0.0018593087
16	0x3c229966	0.009924268
17	0x3d0d0965	0.034432787
18	0x3c48c841	0.0122547755
19	0x3c210d78	0.009829871
20	0x3c32d8b3	0.010915923
21	0x3bf25afa	0.007396099
22	0x3c7a8f1c	0.015292909
23	0x3ca25900	0.01981783
24	0x3bd5a3e4	0.0065197814
25	0x3cd0cdb7	0.025488717
26	0x3d1565f8	0.036474198
27	0x3c6b0732	0.014344977
28	0x3cb3fd99	0.02197151
29	0xbc171d31	-0.009223268
30	0x3c7ccf49	0.01543028
31	0x3d062143	0.032746565
32	0x3caef0bb	0.021355024
33	0x3c9397dd	0.01801675
34	0x3ceff088	0.029289499
35	0x399f2f61	0.00030362143
36	0x3d35d438	0.04439184
37	0x3ba415e8	0.0050074942
38	0x3d284a2f	0.041086372
39	0x3b54ae74	0.0032452615
40	0x3c240ce8	0.010012843
41	0x3cd71f24	0.026259966
42	0x3ca2cd59	0.019873308
43	0x3aca8812	0.0015451929
44	0xbc4d70dc	-0.012539115
45	0x3d4f4b01	0.05060864
46	0x3ce2aa58	0.027669117
47	0x3c8cf966	0.017208766
48	0x3cd21ab0	0.025647491
49	0x3b34f874	0.002761391
50	0x3cf47ea9	0.029845553
51	0x3d09dc3f	0.03365731
52	0x3d5baa8d	0.053629447
53	0x3c3d3265	0.0115476595
54	0x3b08482b	0.0020794969
55	0x3c29f86f	0.010374173
56	0x3c432db9	0.011912757
57	0x3d20bdff	0.039243694
58	0x3b421d00	0.0029619336
59	0x3c9622bd	0.018327111
60	0x3cb0fabd	0.021603936
61	0xbbf91641	-0.00760153
62	0x3d89e544	0.06733182
63	0x3ca30056	0.019897621

manager.M_space.weight f4 [64, 64]
0	0x3d42c6ca	0.04755286
1	0xbd159ba8	-0.0365254
2	0xbd4b687d	-0.049660195
3	0xbcaa1c6a	-0.020765502
4	0x3e39569c	0.18099445
5	0x3e903170	0.28162718
6	0x3db1e5d4	0.08686414
7	0xbd96ab4b	-0.0735689
8	0x3cf8856d	0.03033706
9	0x3de44832	0.11146583
10	0x3ddf03ef	0.10889422
11	0xbc15e8d4	-0.009149749
12	0xb93452c4	-0.0001719697
13	0x3d523d9f	0.051328298
14	0x3dfb190e	0.12260638
15	0x3d9f80ea	0.0778826
16	0xbc45af24	-0.012065683
17	0x3cfd605c	0.030929737
18	0xbb40555f	-0.002934776
19	0x3e08cb4b	0.133588
20	0x3e56fb62	0.20994332
21	0xbda12299	-0.07867927
22	0x3da733ed	0.08164201
23	0xbd07e6bb	-0.033179026
24	0x3cc40612	0.023928676
25	0xbe6707f6	-0.2256163
26	0xbda61ba7	-0.08110743
27	0xbdb7aecb	-0.08968886
28	0xbce0865e	-0.027407821
29	0xbccb2d43	-0.024801856
30	0xbd5a02b5	-0.053225238
31	0xbcdaecd7	-0.026724262
32	0xbe4d31ba	-0.200385
33	0xbeaaa8e8	-0.3333199
34	0xbc614f65	-0.013751839
35	0xbe15ba0f	-0.14621757
36	0xbdb7c804	-0.08973697
37	0xbcbe8d41	-0.023260714
38	0xbec19153	-0.37806186
39	0x3dd9ad0a	0.10628708
40	0xbccab1b3	-0.024742937
41	0xbe50b406	-0.20381173
42	0x3d836881	0.06416417
43	0xbde07668	-0.10960084
44	0x3d6b50f5	0.057450254
45	0xbd8872c1	-0.066625126
46	0x3dfc5947	0.12321716
47	0xbea000cc	-0.31250608
48	0xbe480f84	-0.19537169
49	0xbda05f91	-0.07830728
50	0x3d8a7851	0.0676123
51	0xbd94ecd4	-0.07271734
52	0x3df86b46	0.12129836
53	0x3ddf972f	0.10917508
54	0xbdb44539	-0.08802266
55	0x3e005214	0.1253131
56	0xbc9d33ef	-0.019189803
57	0x3dfb5a4b	0.122730814
58	0xbd07e518	-0.033177465
59	0xbd717141	-0.058945898
60	0x3cb7f14c	0.022453927
61	0xbe145292	-0.14484623
62	0x3df6a5c9	0.1204334
63	0xbe337c41	-0.17527868
64	0x3dacfea3	0.084470056
65	0x3e371ea3	0.1788278
66	0x3e5b74e4	0.21431309
67	0xbdf2a7f6	-0.11848442
68	0xbe10122d	-0.14069434
69	0xba581f05	-0.00082443684
70	0x3daf08ec	0.085466236
71	0x3e7aa52f	0.24477075
72	0x3e020c3a	0.12699977
73	0x3c09d2f6	0.008412113
74	0xbdb0bf36	-0.086302206
75	0x3df9cbf3	0.12197103
76	0xbd096952	-0.033547707
77	0x3c239a5e	0.0099855345
78	0x3d3ef5d7	0.04662117
79	0x3d4d2482	0.050083645
80	0x3d2a7618	0.04161653
81	0xbd024ab7	-0.031809535
82	0x3e007372	0.12544039
83	0x3ddead03	0.10872843
84	0xbc855ad1	-0.016278656
85	0x3e1081f2	0.1411207
86	0xbd275641	-0.040853743
87	0x3e2bd4eb	0.1678044
88	0xbdd91392	-0.10599436
89	0x3d14c1ac	0.036317512
90	0xbd59ac95	-0.053143103
91	0x3d39282f	0.045204338
92	0xbd926d5e	-0.071497664
93	0x3db229aa	0.08699353
94	0xbddc790e	-0.10765277
95	0x3da8b179	0.08236975
96	0xbde6d686	-0.11271386
97	0x3d6c54ef	0.057698186
98	0xbda96d18	-0.08272761
99	0xbe209282	-0.15680888
100	0xbd4c6711	-0.04990298
101	0xbe36006e	-0.17773601
102	0x3e533664	0.20626217
103	0x3e1336cd	0.14376374
104	0x3dbd6db5	0.092494406
105	0x3ca4da63	0.020123666
106	0x3e312434	0.17298967
107	0x3e1f8f8b	0.15582101
108	0x3e30c0c2	0.17261031
109	0x3e223653	0.15841036
110	0xbd8d44d2	-0.06897892
111	0x3e34a817	0.17642246
112	0xbe6c1c9e	-0.23057792
113	0xbd630852	-0.055427857
114	0xbe287aed	-0.16453142
115	0x3d83cc4a	0.064354494
116	0x3e7918b4	0.2432583
117	0x3e1c6361	0.15272285
118	0x3de15599	0.110026546
119	0x3eacfea0	0.33788013
120	0xbe1fd4be	-0.15608498
121	0x3e7931f5	0.24335463
122	0xbdf64415	-0.12024704
123	0xbddbea8b	-0.10738095
124	0xbd60e0a3	-0.05490173
125	0x3cc8b4ea	0.024500329
126	0x3e09535e	0.13410708
127	0x3df58107	0.11987501
128	0xbd9c24fc	-0.07624242
129	0xbd9f4e55	-0.077786125
130	0x3e179b0e	0.14805242
131	0x3ca29406	0.019845974
132	0xbe4b395c	-0.198461
133	0xbdaf6cba	-0.0856566
134	0xbe10a23b	-0.14124386
135	0xbd4574fa	-0.04820726
136	0x3c18ee5b	0.009334172
137	0x3bbbe942	0.0057345936
138	0xbe331ca2	-0.17491391
139	0xbe009e84	-0.12560469
140	0xbd729c00	-0.059230804
141	0xbe389b6c	-0.18028039
142	0xbdf3aeb7	-0.118985586
143	0xb91e6fef	-0.00015109753
144	0xbe4a96d7	-0.19784103
145	0xbe5bf4fb	-0.21480171
146	0xbd186d48	-0.037213594
147	0x3e0c150b	0.13679902
148	0x3e4097af	0.18807863
149	0xbca66d52	-0.0203158
150	0x3d2861ce	0.0411089
151	0x3e2fb392	0.17158344
152	0x3dbd7039	0.092499204
153	0x3e6b52a6	0.22980747
154	0xbe1d1ff8	-0.15344226
155	0xbd01e695	-0.03171404
156	0xbd95d032	-0.07315101
157	0xbc32b814	-0.010908145
158	0x3e297815	0.16549714
159	0xbd9ef069	-0.07760698
160	0x3de092b1	0.10965479
161	0xbc83c6c7	-0.016085995
162	0x3e22d220	0.15900469
163	0x3d0368bb	0.0320823
164	0x3b6376e1	0.0034708309
165	0x3e0522d8	0.13001573
166	0x3b9f914a	0.0048696147
167	0xbe063fbd	-0.13110252
168	0xbc34c13c	-0.011032399
169	0xbe3da4fc	-0.18519968
170	0x3ea71e53	0.32640323
171	0x3e7ae602	0.24501804
172	0xbdcb1846	-0.09916739
173	0x3d3c9bd4	0.046047047
174	0xbe47549c	-0.1946587
175	0x3be30998	0.006928634
176	0x3dcc7ac5	0.09984354
177	0x3c3d148e	0.011540545
178	0x3dc8dfd0	0.09808314
179	0xbee48a35	-0.44636694
180	0xbcbd108c	-0.02307918
181	0xbcf55e4c	-0.02995219
182	0x3dde9a44	0.108692676
183	0x3e488e35	0.19585498
184	0x3e3f946a	0.18708959
185	0x3e1ad67c	0.15120882
186	0xbd76ab09	-0.060221706
187	0xbe8e71e8	-0.2782128
188	0x3d681377	0.056659188
189	0xbe6867dd	-0.2269587
190	0x3db86a71	0.09004677
191	0xbe303054	-0.17205936
192	0xbd7cf21f	-0.061754342
193	0x3c876e07	0.016531957
194	0x3d64a80d	0.05582433
195	0xbd9be113	-0.07611289
196	0x3d444263	0.047914874
197	0xbe374730	-0.1789825
198	0x3e4cacad	0.19987746
199	0xbe02c963	-0.12772135
200	0xbe01dbab	-0.12681453
201	0x3d804146	0.0626245
202	0x3e5acb41	0.21366598
203	0xbe8ad752	-0.271174
204	0xbdb013a2	-0.08597495
205	0x3de920cd	0.113832094
206	0x3d01c8e5	0.03168573
207	0xbcf8f4f8	-0.030390248
208	0xbe1ea1f7	-0.15491472
209	0x3dc7e5be	0.09760617
210	0x3d5e6458	0.054294914
211	0xbd2a0535	-0.041508872
212	0xbc07686e	-0.008264644
213	0xbd6d14b8	-0.057881087
214	0xbd12e3fb	-0.03586195
215	0x3c13e53d	0.009026823
216	0x3d967b01	0.0734768
217	0x3e3d5d2c	0.18492573
218	0xbe3233e4	-0.17402607
219	0x3d745492	0.059650965
220	0xbe6a2c9d	-0.22868581
221	0x3df6880c	0.12037668
222	0xbe1f0b92	-0.15531757
223	0x3d9dc7b8	0.07704109
224	0xbc97c41b	-0.018526128
225	0xbe151776	-0.14559731
226	0x3dd23ea7	0.10265856
227	0x3dc94586	0.09827714
228	0x3e147c05	0.14500435
229	0xbe4a5f0b	-0.19762819
230	0x3a83e6dd	0.001006331
231	0xbdd755b7	-0.10514396
232	0x3d996504	0.0748997
233	0xbe1755cb	-0.14778821
234	0xbd9a8230	-0.075443625
235	0x3de96651	0.113964684
236	0x3e970343	0.29494676
237	0xbd1c6942	-0.03818632
238	0xbc77921d	-0.01511052
239	0xbe195c20	-0.14976549
240	0x3d78d3db	0.060748916
241	0x3eb11684	0.3458749
242	0xbaea4f9d	-0.001787651
243	0xbc8ab1e6	-0.016930532
244	0xbc1c257b	-0.00953042
245	0x3bb18e52	0.005418577
246	0x3e005e8d	0.12536068
247	0x3c1042cf	0.008804991
248	0xbe08a791	-0.13345172
249	0x3d644bbc	0.05573629
250	0x3b636963	0.0034700267
251	0xbd32dbbc	-0.043666586
252	0xbda5610a	-0.08075149
253	0xbd0aa621	-0.03384984
254	0x3b779bf8	0.0037782174
255	0x3e930ba7	0.28719828

manager.M_space.bias f4 [64]
0	0x3c27b5d9	0.010236227
1	0x3bd71206	0.006563428
2	0x3c5ad15a	0.013355577
3	0x3bb171d4	0.0054151807
4	0xbc213259	-0.009838664
5	0x3c9797cc	0.018505
6	0x3bd618c4	0.006533714
7	0x3c93dbfa	0.018049229
8	0x3c621edf	0.013801306
9	0xbb91c4e0	-0.004448518
10	0x3b282adb	0.002566031
11	0x3d73bd73	0.059506845
12	0x3d300f26	0.042983197
13	0x3ba7bbb3	0.005118811
14	0x3b77e9e7	0.0037828626
15	0x3c02b6db	0.007978166
16	0xbc60936e	-0.013707025
17	0x3d750851	0.059822384
18	0x3c2cd9f9	0.010550016
19	0xba43da94	-0.00074712303
20	0x3b44627b	0.0029965925
21	0x3c9848b4	0.018589355
22	0x3bd9e1d2	0.0066492343
23	0x3c93b7be	0.018031951
24	0x3b8b112d	0.004243991
25	0x3cce14b4	0.025156356
26	0x3c4d47eb	0.012529354
27	0xba9212c1	-0.0011144505
28	0x3bc16399	0.0059017655
29	0x3d12021c	0.035646543
30	0xbc060565	-0.008179997
31	0x3bc30880	0.005951941
32	0x3cbc7a97	0.023007674
33	0x3c6eb69a	0.014569903
34	0xbba2a309	-0.004963283
35	0xbbeb246b	-0.007175972
36	0xbba9155d	-0.0051600174
37	0x3b014675	0.0019725834
38	0x39ccc097	0.00039053403
39	0x3b51e9d6	0.0032030246
40	0xbc1f1787	-0.009710199
41	0x3ab0f747	0.0013501429
42	0xbb9546f2	-0.0045555765
43	0x3bd028ab	0.0063525042
44	0xba5415c6	-0.00080904027
45	0x3ba47d1f	0.0050197984
46	0xbc30827e	-0.010773299
47	0x3db27389	0.08713443
48	0x3ae8826a	0.0017739062
49	0x3b5eac64	0.0033977265
50	0xba999340	-0.0011716858
51	0x3cb9123f	0.022591708
52	0x3c834f96	0.01602916
53	0xba9a8611	-0.0011789222
54	0x3a6d50e3	0.00090528856
55	0x3b359f4c	0.0027713357
56	0x3a7b1b0b	0.000957892
57	0x3bcbb132	0.0062161917
58	0x3cd69429	0.026193695
59	0xba9a72bc	-0.0011783461
60	0xbb6ba3c8	-0.0035955776
61	0x3bc2f0dd	0.0059491233
62	0xbbf87407	-0.007582191
63	0xbca8f614	-0.020625152

manager.M_goals.weight f4 [64, 128]
0	0xbd6400fa	-0.055664994
1	0xbbcf479f	-0.0063256766
2	0xbe15ffdc	-0.14648384
3	0xbb07ad82	-0.0020702784
4	0xbdbead0b	-0.09310349
5	0xbd5b9b9f	-0.05361521
6	0x3e17f753	0.1484044
7	0xbc0fafa6	-0.008769905
8	0x3de1cece	0.11025773
9	0xbaa1d6e2	-0.0012347365
10	0xbd7d26c2	-0.06180454
11	0xbaa29764	-0.0012404737
12	0x3df4f35b	0.11960479
13	0xba73cedd	-0.00093005394
14	0x3dc59a82	0.09648611
15	0xbbf588e8	-0.007493127
16	0x3c82c711	0.015964063
17	0xbe7d9a16	-0.2476581
18	0x3dfcafa4	0.12338188
19	0xbde46b25	-0.11153249
20	0xbd97ebd7	-0.0741803
21	0xbccab83b	-0.024746051
22	0x3da0eea0	0.07858014
23	0x3d8d5ea8	0.0690282
24	0x3e07fead	0.13280745
25	0xbd6cbfcb	-0.057800096
26	0x3b030381	0.0019991102
27	0x3d5c4bf1	0.05378336
28	0x3e13c907	0.14432155
29	0x3e6156d8	0.22005785
30	0x3d25a24d	0.040437985
31	0xbe2a5c22	-0.16636708
32	0xbe00ef83	-0.12591366
33	0x3d8a95f6	0.06766884
34	0xbd7efca2	-0.06225265
35	0xbddd99fa	-0.10820384
36	0x3d97a0b8	0.074037015
37	0xbcbf1259	-0.023324179
38	0xbc26f128	-0.010189332
39	0xbe0cd552	-0.1375325
40	0xbd9785db	-0.07398578
41	0xbcd433ac	-0.025903545
42	0x3e4f649f	0.20253228
43	0x3d806b62	0.06270482
44	0xbd26161c	-0.04054843
45	0x3d4f686d	0.050636698
46	0xbe260804	-0.16213995
47	0xbdfa04ae	-0.12207924
48	0xbdf3a148	-0.11895996
49	0x3cbe6d35	0.023245433
50	0x3c9e506c	0.019325458
51	0xbd75eb86	-0.060039066
52	0xbd8bfbab	-0.06835111
53	0xbd46af0d	-0.048506785
54	0xbdace706	-0.08442502
55	0xbd38243d	-0.044956435
56	0x3e411e71	0.18859269
57	0xb963dc84	-0.00021730555
58	0xbc6b2b33	-0.014353561
59	0x3c52a644	0.012857024
60	0xbde2aad7	-0.11067741
61	0x3cb6c1ca	0.022309203
62	0xbd888f5f	-0.06667971
63	0x3cc5c123	0.024139946
64	0xbd8cf7e4	-0.06883219
65	0xbddb74bb	-0.10715624
66	0xbdf207d8	-0.11817902
67	0x3da9f919	0.08299465
68	0x3e2e49c6	0.1702033
69	0x3e2139ad	0.15744658
70	0x3e46cbc2	0.19413665
71	0x3d073160	0.033006072
72	0x3ddd0af1	0.107931025
73	0xbbc3ab46	-0.005971345
74	0x3be91fd2	0.007114389
75	0xbe3d84d6	-0.18507704
76	0x3ca727c0	0.020404696
77	0x3dbae0dc	0.0912492
78	0x3d977138	0.07394642
79	0xbcffc488	-0.031221643
80	0x3cb5313e	0.022118207
81	0xbe226f6e	-0.1586282
82	0x3dac3a1c	0.08409521
83	0x3d8255aa	0.063639954
84	0xbc1826ca	-0.009286592
85	0x3db0010d	0.085939504
86	0xbd6f9674	-0.058493093
87	0xbd1b5810	-0.03792578
88	0xbcb934ec	-0.022608243
89	0xbd2671da	-0.04063592
90	0x3dd14014	0.102173
91	0xbb3ada3b	-0.0028511423
92	0x3d8378f3	0.064195536
93	0x3e01d121	0.12677433
94	0xbdc802ac	-0.097661346
95	0x3c7a1866	0.015264606
96	0x3aefed83	0.0018305037
97	0xbbfc3fe6	-0.007698047
98	0xbdce9d8e	-0.10088645
99	0x3e2f32ac	0.17109174
100	0x3d217282	0.039415844
101	0x3cc21730	0.023692697
102	0xbd436b61	-0.047709826
103	0xbd02925b	-0.031877857
104	0xbdbcc247	-0.09216743
105	0x3d47eac5	0.048807878
106	0xbd664eaf	-0.056227382
107	0xbda793bb	-0.08182474
108	0xbd8afd47	-0.0678659
109	0x3c0f918f	0.008762731
110	0x3d3ec25a	0.046572067
111	0xbe5bc839	-0.21463098
112	0x3bf0c3a4	0.007347541
113	0xbd80febb	-0.06298586
114	0x3db1e023	0.08685329
115	0x3ca0af94	0.019614972
116	0xbe64a033	-0.22326736
117	0x3d5f25b5	0.05447932
118	0x3dcea385	0.100897826
119	0xbd59e665	-0.053198237
120	0xbd9d99c7	-0.07695346
121	0xbd81e2be	-0.06342076
122	0x3dce4ea6	0.10073595
123	0xbc138ba7	-0.009005464
124	0x3d48d1e3	0.04902829
125	0x3e287564	0.16451031
126	0xbd30e200	-0.04318428
127	0xbdc1aee8	-0.09457189
128	0xbcfc52ac	-0.03080114
129	0xbe0613a9	-0.13093437
130	0x3c9675ca	0.018366713
131	0xbd929d5d	-0.07158921
132	0x3cde5a5c	0.027142696
133	0xbdbc07bb	-0.09181162
134	0x3e08f5c5	0.13375004
135	0xbe5dbb2e	-0.21653435
136	0x3d883b46	0.066519305
137	0xbc9a7449	-0.018854277
138	0xbe0c8620	-0.1372304
139	0x3d1aabb7	0.037761416
140	0x3d05052b	0.03247563
141	0xb96fbf1d	-0.00022864011
142	0xbcbb1326	-0.02283628
143	0x3cba32e0	0.022729337
144	0xbcf0e318	-0.029405162
145	0xbdd4976b	-0.10380443
146	0x3c81d2da	0.015847612
147	0x3da7720a	0.08176048
148	0xbb6b8d73	-0.0035942465
149	0x3d85d2d3	0.06534352
150	0xbcc5a130	-0.024124712
151	0xbcd371c7	-0.02581109
152	0xbd6b6f12	-0.05747897
153	0x3d2a6482	0.041599758
154	0x3cca42ce	0.024690058
155	0xbd73efd3	-0.059554886
156	0x3dcfdad9	0.10149164
157	0xbda0188d	-0.07817183
158	0xbcfc3e9c	-0.030791573
159	0x3dea220f	0.114322774
160	0xbc2fee39	-0.010737949
161	0x3d7294e2	0.059224017
162	0x3d20e4b0	0.039280593
163	0xbe052637	-0.13002859
164	0xbd34ab76	-0.04410883
165	0xbd86a31d	-0.0657408
166	0xbd6e34eb	-0.058155935
167	0x3dd74e21	0.10512949
168	0x3d9cd31c	0.076574534
169	0x3cd8bc6e	0.026457038
170	0x3de0c291	0.109746106
171	0x3d576be9	0.052593146
172	0x3df6cb77	0.120505266
173	0x3cd224cb	0.02565231
174	0x3d83246e	0.06403433
175	0xbdeb9853	-0.11503663
176	0x3d8e468e	0.06947051
177	0x3d6cc8dc	0.057808742
178	0xbc6290fa	-0.01382851
179	0x3d777e39	0.06042311
180	0x3d57ec19	0.052715395
181	0xbda5a7f2	-0.08088674
182	0x3db9e145	0.0907617
183	0x3bbfbf73	0.00585168
184	0xbe070705	-0.13186271
185	0x3ca247e7	0.019809676
186	0xbd1455e8	-0.03621474
187	0xbd1f5292	-0.038897105
188	0x3aa2f4c9	0.0012432571
189	0x3e073d4d	0.13206978
190	0xbd5855d8	-0.052816242
191	0xbd9d9b74	-0.07695666
192	0x3e10f71d	0.14156766
193	0x3cd9e560	0.026598632
194	0x3dd39d05	0.103326835
195	0xbcad7ff1	-0.021179171
196	0xbdee1749	-0.11625535
197	0x3d65446b	0.05597345
198	0x3e0e5733	0.13900451
199	0x3deb9ef9	0.11504931
200	0xbade0798	-0.0016939519
201	0xbd357e7e	-0.044310085
202	0x3d984f25	0.074369706
203	0xbe7b86a6	-0.24563083
204	0xbd522cde	-0.05131232
205	0x3df769ef	0.12080752
206	0xbc9dd13b	-0.019264808
207	0xbdc2aa98	-0.095051944
208	0xbde0776a	-0.109602764
209	0x3d72d9fd	0.05928992
210	0x3d384c32	0.04499454
211	0xbe22dadd	-0.15903802
212	0x3d97e9de	0.074176535
213	0x3e181c36	0.14854512
214	0x3d1c62cb	0.038180154
215	0x3dafa7a5	0.085768975
216	0x3e292688	0.16518605
217	0xbdb6753a	-0.08909078
218	0x3ca7fed3	0.020507252
219	0x3dee707a	0.11642547
220	0x3c067970	0.008207664
221	0x3dfa51fc	0.122226685
222	0xbd7f5b45	-0.0623429
223	0xbdbc61d6	-0.09198348
224	0x3dc95cda	0.09832163
225	0x3da74c74	0.08168879
226	0x3df584ec	0.119882435
227	0x3c9c6415	0.019090692
228	0x3d4302f7	0.04761025
229	0x3df4ae7f	0.11947345
230	0xbd821d33	-0.063532256
231	0x3c1bc336	0.009506991
232	0x3d956371	0.072943576
233	0x3de2808e	0.11059676
234	0xbd93bb20	-0.07213426
235	0xbd293126	-0.041306637
236	0x3e8269c0	0.25471306
237	0xbd7ed1cc	-0.062211797
238	0xbd94f14f	-0.072725885
239	0xbe43abfb	-0.19108574
240	0x3e04652d	0.1292922
241	0xbe099863	-0.13437037
242	0x3cc6f0a5	0.02428467
243	0xbdee5b51	-0.11638511
244	0xbbb3cc05	-0.0054869675
245	0x3c98da46	0.018658768
246	0xbd3525a6	-0.044225357
247	0x3e47fa77	0.19529139
248	0x3e33cb44	0.17558008
249	0xbe13ce13	-0.1443408
250	0xbd9ea489	-0.07746226
251	0xbd9a232d	-0.075262405
252	0x3df23deb	0.11828216
253	0xbd36b899	-0.04460964
254	0x3d0c742d	0.03429048
255	0xbe20eb01	-0.15714647

manager.M_goals.bias f4 [64]
0	0x3bd0ffa0	0.006378129
1	0x3c78a94e	0.015177084
2	0x39ae889a	0.00033289642
3	0x3acb5acf	0.0015514734
4	0x3c55a562	0.013039919
5	0x3c5d095c	0.013491001
6	0x3ba239da	0.004950744
7	0xbbfe7c5b	-0.007766289
8	0xbbbf2c3d	-0.005834131
9	0xbbf049ce	-0.007333017
10	0xbc1966f1	-0.009362922
11	0xbb14da4e	-0.0022713128
12	0x3b3e7080	0.0029058754
13	0x3b65c00b	0.0035057093
14	0x3c18b1c5	0.009319727
15	0x3c9815cd	0.018565083
16	0x3c7409d0	0.014894918
17	0x3bf780b7	0.007553186
18	0xbc4940ce	-0.012283517
19	0xba0dab1c	-0.00054042204
20	0xbc420dbb	-0.011844094
21	0x3bbbc00e	0.005729682
22	0x38de5836	0.000106022155
23	0x3c0093e0	0.007847756
24	0x3c650d7f	0.0139802685
25	0x3c37c321	0.011215956
26	0x3ca3c96d	0.019993508
27	0xbc498ce7	-0.01230166
28	0x3c1bea8c	0.00951637
29	0xbc533c80	-0.012892842
30	0xbc4950b8	-0.012287311
31	0xbb1eb1bb	-0.0024214822
32	0x3bb931db	0.005651695
33	0x3c3b55c6	0.011434024
34	0x3ca7f972	0.020504687
35	0x3d8868e3	0.066606306
36	0x3c1d0589	0.009583839
37	0x3b7a0fd6	0.0038156412
38	0x364ac66d	3.0215845e-06
39	0x3cc80722	0.024417464
40	0x3b05d844	0.0020423094
41	0x3bf700c9	0.0075379354
42	0xbb6f5348	-0.0036518145
43	0x3b80fa6e	0.0039361035
44	0xbbb5a96f	-0.0055438797
45	0x3b8b83fe	0.004257678
46	0xbba8948f	-0.0051446627
47	0x3c8f779c	0.017513089
48	0xbb6f5641	-0.0036519917
49	0xbafd0d1d	-0.0019306276
50	0xbbcf95b1	-0.0063349833
51	0xbc32897c	-0.010897037
52	0xbba0c67a	-0.0049064728
53	0x3d1b4f5b	0.037917476
54	0xbc021d80	-0.007941604
55	0x3c912d98	0.017721936
56	0x3c0d079c	0.008607771
57	0xbb1e09e8	-0.0024114791
58	0x3b7df6b2	0.0038751778
59	0xba9d9edf	-0.0012025497
60	0xbc105309	-0.00880886
61	0xbb173770	-0.0023073815
62	0xba3ae4ae	-0.0007129413
63	0xbc410598	-0.011781119

manager.M_value.weight f4 [1, 64]
0	0xbcdbd1f6	-0.026833516
1	0xbda80320	-0.08203721
2	0xbd8b1f2b	-0.06793054
3	0xbd0ec00e	-0.034851126
4	0x3d6e0b30	0.058116138
5	0xbea72760	-0.32647228
6	0xbd7cc8b3	-0.06171484
7	0x3c881320	0.016610682
8	0x3d98fc2b	0.07469972
9	0x3e455910	0.19272256
10	0x3dc8a895	0.097977795
11	0xbcd2aaba	-0.025716174
12	0xbd1ddc4b	-0.038540166
13	0xbeaaddf4	-0.33372462
14	0xbe2ef2e8	-0.17084849
15	0x3c97ef28	0.018546656
16	0xbd9d926f	-0.076939456
17	0xbe09ba80	-0.1345005
18	0x3d4c6157	0.049897518
19	0xbe24ff99	-0.16113128
20	0xbc150264	-0.009094808
21	0xbd9644f8	-0.073373735
22	0x3d1220c0	0.035675764
23	0xbe53e554	-0.2069295
24	0xbea317b1	-0.31854013
25	0x3c906d8f	0.017630367
26	0xbdedc0e9	-0.1160906
27	0x3d827a09	0.063709326
28	0x3e441e5b	0.19152205
29	0x3e09d651	0.13460661
30	0xbd2b740f	-0.04185873
31	0xbccabea1	-0.024749102
32	0xbded0f04	-0.1157513
33	0xbcf23872	-0.02956793
34	0xbd3c35ab	-0.04594962
35	0xbe283456	-0.16426215
36	0xbe8b8e8e	-0.27257198
37	0x3e0382b6	0.12842831
38	0x3e209c7c	0.15684694
39	0xbc5b5100	-0.013386011
40	0xbddd28e5	-0.10798816
41	0xbeba0df5	-0.36338773
42	0x3e06cdd1	0.1316445
43	0xbd5ceea9	-0.05393854
44	0x3e73b63e	0.23799989
45	0xbd5fd6ff	-0.054648396
46	0xbe16b0f3	-0.14715938
47	0xbda7adcb	-0.08187445
48	0x3de23678	0.11045545
49	0x3eb40d61	0.35166457
50	0x3e5d3c4a	0.2160503
51	0x3e5f7768	0.21822894
52	0xbbc987a6	-0.0061502038
53	0x3df165dd	0.11787007
54	0x3d76da0d	0.060266543
55	0xbd6aa019	-0.057281587
56	0x3d970213	0.073734425
57	0x3c1afc38	0.009459548
58	0xbd30266a	-0.043005385
59	0xbd88771e	-0.06663345
60	0x3dee2bc5	0.11629442
61	0xbacece6d	-0.0015778072
62	0x3e0026d0	0.12514806
63	0xbcb2cedd	-0.021827156

worker.f_stateW.0.weight f4 [128, 64]
0	0xbc3779a8	-0.011198439
1	0x3e2b8656	0.16750464
2	0x3dc36d12	0.09542288
3	0xbd6d883d	-0.057991255
4	0x3e630a78	0.22171962
5	0x3de781b2	0.11304034
6	0x3d8ca556	0.06867473
7	0xbc82c91e	-0.01596504
8	0xbd5e9355	-0.054339726
9	0xbe2cb0f4	-0.16864377
10	0x3dc47c78	0.09594053
11	0x3d1f093b	0.038827162
12	0x3d5e29ef	0.05423921
13	0xbd43a212	-0.047761984
14	0x3d3e8849	0.04651669
15	0xbda1cec6	-0.07900767
16	0xbae243fc	-0.0017262693
17	0x3dcf6571	0.1012677
18	0xbd7208fb	-0.059090596
19	0x3c9dbc70	0.019254893
20	0xbd213735	-0.03935929
21	0x3cd1daa3	0.02561695
22	0xbd3a58fe	-0.045495026
23	0xbc6b0689	-0.01434482
24	0x3dae81fd	0.08520887
25	0x3e422e19	0.18962897
26	0x3c831a30	0.016003698
27	0xbc99eb06	-0.018788826
28	0xbdfee988	-0.12446886
29	0x3da8d2dd	0.08243344
30	0x3e161f74	0.14660436
31	0x3d677933	0.05651207
32	0x3de8adb5	0.11361257
33	0xbd3432ea	-0.043993868
34	0x3c815275	0.015786389
35	0x3e086342	0.13319114
36	0x3d1c2c5c	0.038128242
37	0x3c290e08	0.010318287
38	0x3da37a9a	0.07982369
39	0x3d21fcd3	0.039547753
40	0xbd6878bd	-0.05675577
41	0xbae14221	-0.0017185846
42	0x3c358be2	0.011080714
43	0x3e037b12	0.12839916
44	0x3c19a480	0.009377599
45	0x3d8e1372	0.06937303
46	0xbd0753b0	-0.033038795
47	0x3db03322	0.08603503
48	0x39f73643	0.0004715194
49	0xbe62101e	-0.2207646
50	0xbe13a046	-0.14416608
51	0x3cd7ac2b	0.026327213
52	0x3d0c5a32	0.034265704
53	0x3ca6c922	0.02035958
54	0xbdd2610f	-0.10272419
55	0x3d159f51	0.03652889
56	0xbc8d2b96	-0.017232697
57	0xba9075d1	-0.001102144
58	0x3dec6260	0.11542201
59	0xbd8289cf	-0.06373941
60	0xbd9d5ed7	-0.07684105
61	0x3e05e755	0.13076527
62	0xbd8c12e2	-0.06839539
63	0x3e042538	0.12904823
64	0x3de18b6b	0.1101292
65	0x3d0325ab	0.032018345
66	0xbdec46a0	-0.11536908
67	0x3b8b7163	0.00425546
68	0xbd3aea01	-0.04563332
69	0xbdd66c9c	-0.10469934
70	0xbd6e0cae	-0.05811756
71	0xbdc5bbb1	-0.0965494
72	0x3d62a2eb	0.055331152
73	0xbcf861c4	-0.030320056
74	0x3d8227c0	0.06355238
75	0x3d8a4118	0.06750697
76	0xbd1158bb	-0.03548501
77	0x3dd9b494	0.10630146
78	0x3df0e26c	0.117619365
79	0xbdd94649	-0.10609109
80	0x3d0e79e4	0.034784213
81	0x3db2eaa9	0.08736164
82	0x3deb72fd	0.11496542
83	0xbdacf90a	-0.08445938
84	0xbbdb0f67	-0.0066851857
85	0x3e0e501c	0.13897747
86	0x3b025550	0.0019887276
87	0x3db29c5b	0.08721229
88	0x3da7ef8a	0.08199985
89	0x3dd9a420	0.106270075
90	0x3d38e4d7	0.045140114
91	0x3d671c11	0.05642325
92	0xbd0bddc2	-0.03414703
93	0x3b2a6c02	0.002600432
94	0xbd8be201	-0.06830216
95	0x3dfc4be3	0.12319162
96	0x3cbfffdc	0.023437433
97	0xbd35595f	-0.044274684
98	0xbd015fdc	-0.03158556
99	0x3c9d566f	0.019206254
100	0xbdd59879	-0.104294725
101	0x3d13608d	0.03598075
102	0x3d11c207	0.03558543
103	0x3d4bd217	0.049760904
104	0xbd9e17a2	-0.07719351
105	0x3c52ea63	0.012873265
106	0xbe0b9338	-0.13630378
107	0xbd713a26	-0.058893345
108	0x3dc0a66b	0.09406742
109	0x3e13636a	0.14393392
110	0x3d772205	0.060335178
111	0x3cddd933	0.027081108
112	0xbe767d9d	-0.24071355
113	0xbd423f94	-0.047423914
114	0xbde08965	-0.10963706
115	0x3a5d4c0e	0.0008441814
116	0x3e0d9ffd	0.13830562
117	0xbd29bbb3	-0.04143877
118	0xbd8d2f3d	-0.068937756
119	0xbd08a04f	-0.033356007
120	0xbe1c182f	-0.152436
121	0xbc213059	-0.009838187
122	0x3d779236	0.060442172
123	0x3cbe67a7	0.023242785
124	0xbccf5eee	-0.02531382
125	0xbd40f5d1	-0.04710943
126	0x3cecb682	0.02889562
127	0x3dc4b362	0.09604527
128	0xbdfda4ed	-0.12384973
129	0xbcd2315c	-0.025658302
130	0x3d5af39c	0.05345498
131	0xbde90943	-0.1137872
132	0x3ddda5ba	0.108226255
133	0x3dd43236	0.103611395
134	0xbcdb76b5	-0.026790002
135	0x3d517b23	0.051142823
136	0xbca48c8a	-0.020086545
137	0x3e317aef	0.17332052
138	0xbde8eb72	-0.11373033
139	0x3e3d56f5	0.18490203
140	0x3d72c4c2	0.059269674
141	0x3d7b88eb	0.061409872
142	0xbc9107f2	-0.017703984
143	0xbe0e6e33	-0.13909225
144	0x3da091c4	0.078403026
145	0xbe33aab0	-0.17545581
146	0x3df6800a	0.1203614
147	0x3d5a3f1f	0.053282853
148	0x3dac8c58	0.08425206
149	0x3dac4b54	0.08412805
150	0xbe0542ab	-0.13013713
151	0x3e79c7f2	0.2439268
152	0xbcf094ba	-0.029367793
153	0x3d5e8eec	0.05433552
154	0xbe2551e2	-0.16144517
155	0x3d9997a9	0.0749963
156	0xbd655cac	-0.055996582
157	0x3d047a8d	0.032343436
158	0x3d6807c0	0.056648016
159	0xbc213f5f	-0.009841769
160	0xbd36459a	-0.04449997
161	0x3db14cff	0.08657264
162	0xbae277b9	-0.0017278112
163	0x3df78ab6	0.12087004
164	0xbd469354	-0.048480347
165	0x3e35b596	0.17745051
166	0x3ca61231	0.020272346
167	0xbda7ede8	-0.08199674
168	0x3d324837	0.0435259
169	0xbc94b942	-0.018154744
170	0x3ce0298b	0.02736356
171	0x3bd12af9	0.0063832966
172	0xbd6434bb	-0.05571435
173	0x3de97802	0.11399843
174	0xbe27c97f	-0.16385458
175	0x3dd93ebc	0.10607669
176	0x3e39500b	0.1809694
177	0x3d6dd7e9	0.058067236
178	0x3d83bb64	0.06432226
179	0x3d9ae0c8	0.07562405
180	0x3c35df52	0.011100607
181	0xbd16ba7c	-0.03679894
182	0xbdde71c9	-0.108615465
183	0xbe097237	-0.13422476
184	0x3cfd3ace	0.03091183
185	0xbcc82a67	-0.024434282
186	0x3d1696a3	0.036764752
187	0x3d3d11c1	0.04615951
188	0x3e105c35	0.14097674
189	0xbdd71699	-0.10502357
190	0x3de4a028	0.1116336
191	0x3e18178e	0.14852735
192	0x3e2f1d45	0.17101009
193	0x3c2ba526	0.010476386
194	0x3d1a6d35	0.037701804
195	0xbc32d374	-0.010914672
196	0x3d971774	0.0737752
197	0x3dac04f1	0.0839938
198	0x3d45918a	0.0482345
199	0x3e453249	0.19257464
200	0x3e119686	0.14217576
201	0xbdb93910	-0.09044087
202	0x3de03923	0.10948398
203	0x3cb8fb5d	0.022580797
204	0x3dfb5407	0.12271886
205	0x3d40d82b	0.047081154
206	0x3de70e4e	0.11282025
207	0x3e0a094a	0.13480106
208	0x3e272345	0.16322048
209	0x3cb13e58	0.021636173
210	0xbd9f170f	-0.0776807
211	0x3ce72b40	0.028218865
212	0x3da446f7	0.08021348
213	0xbc8ed1e2	-0.017434064
214	0xbe526376	-0.20545754
215	0xbc0a93a8	-0.008458056
216	0x3e04e1f0	0.12976813
217	0xbe4d4767	-0.20046769
218	0x3e457e30	0.19286418
219	0x3e091caa	0.1338984
220	0xbda0e490	-0.07856095
221	0x3b88705d	0.0041637854
222	0x3d998e85	0.074978866
223	0xbdfd189e	-0.12358211
224	0x3e2065fb	0.15663902
225	0xbe23dc79	-0.16002072
226	0xbd6f908e	-0.058487467
227	0xbba785c0	-0.00511238
228	0x3e422035	0.18957599
229	0xbbc0056d	-0.005860022
230	0xbe1c1259	-0.15241374
231	0x3dc783ea	0.097419575
232	0x3e149fc0	0.14514065
233	0xbcf2edb9	-0.02965437
234	0x3dc01ea7	0.093808465
235	0x3d6d6946	0.057961725
236	0xbd59eb58	-0.053202957
237	0x3e1a8003	0.15087895
238	0x3c7236df	0.01478359
239	0x3c85837d	0.01629805
240	0x3d7988bd	0.06092142
241	0x3daa7171	0.083224185
242	0xbd1cfac4	-0.038325086
243	0xbdd67624	-0.10471752
244	0xbd78a0ac	-0.060700104
245	0xbc69da15	-0.014273186
246	0x3dde9a8d	0.10869322
247	0x3bd5a5b6	0.0065199984
248	0xbdb79828	-0.089645684
249	0x3d12bc7d	0.035824288
250	0xbe1d7b45	-0.15379055
251	0x3e56e9cb	0.20987622
252	0x3c057a34	0.008146811
253	0xbdeb3fd5	-0.11486784
254	0x3cac56ff	0.021037577
255	0xbd018432	-0.031620212

worker.f_stateW.0.bias f4 [128]
0	0x3cac0abd	0.021001214
1	0xbab13c2a	-0.0013521959
2	0x3c8a2f34	0.016868211
3	0x3c8a5e7c	0.016890757
4	0x3c5491ba	0.012974197
5	0x3bb2c32f	0.0054553966
6	0x3bc30f44	0.0059527475
7	0x3be5cc91	0.0070129116
8	0x3c6a2512	0.014291065
9	0x3bd5a8f2	0.006520384
10	0x3c927bad	0.017881239
11	0x3c73d705	0.014882808
12	0x3b9c9abc	0.004779188
13	0xbbb474b8	-0.005507078
14	0xba8f9c81	-0.0010956676
15	0x3ca47e27	0.020079685
16	0x3c6928b4	0.014230896
17	0x3c94ab96	0.018148225
18	0xbca74248	-0.020417348
19	0xbbaf11c4	-0.005342694
20	0xbb4c10b0	-0.0031137876
21	0xbaf5a760	-0.0018741898
22	0xbc6e0aa2	-0.014528902
23	0xbb8f209d	-0.0043679015
24	0x3c8e60b5	0.017380098
25	0x3ca154e4	0.0196938
26	0x3c193edd	0.009353367
27	0xbaf2cc19	-0.0018523961
28	0x3d328f36	0.043593608
29	0xbae24ad3	-0.0017264731
30	0x3d1fc472	0.039005704
31	0x3c2e0814	0.010622043
32	0x3c66ca8b	0.014086376
33	0x3c586dc7	0.013209767
34	0x3d02297d	0.031777848
35	0x3b9b487c	0.0047388654
36	0x3b4b1edc	0.0030993735
37	0x3b5956d6	0.003316333
38	0x3c8047ed	0.015659297
39	0x3c8fd7b2	0.017558906
40	0x3c3ea7ee	0.011636717
41	0x3c6fccf7	0.01463627
42	0x3d020f88	0.031753093
43	0x3bb61555	0.005556742
44	0x3cf4816a	0.029846866
45	0x3c14178c	0.009038817
46	0x3cfd7d21	0.030943455
47	0xbb07b6cd	-0.0020708323
48	0x3ceb2091	0.028702052
49	0x3c78bfc7	0.015182442
50	0xbc015b1a	-0.007895255
51	0x3c4e14d0	0.012578204
52	0x3b7ea78c	0.003885719
53	0x3c02bef1	0.007980094
54	0x3c7c842c	0.015412372
55	0x3c032836	0.0080051925
56	0x3b98ca63	0.0046627983
57	0x3bfe2736	0.007756139
58	0x3ce58a87	0.028020157
59	0x3c42032c	0.011841577
60	0x3d200046	0.03906276
61	0x3aa94c9d	0.0012916509
62	0x3cc3f9a7	0.023922754
63	0x3c531951	0.012884454
64	0xbbe57b21	-0.0070032035
65	0x3b754fc5	0.003743158
66	0x3ba50485	0.005035939
67	0x3ca7475b	0.020419767
68	0x3cb4e3a9	0.022081213
69	0x38f5183b	0.00011687024
70	0x3ca89aff	0.02058172
71	0x3ce9c995	0.028538505
72	0x3b86e15d	0.004116221
73	0x3cde8202	0.027161602
74	0xbc9fb5e7	-0.019495917
75	0x3cfc17cc	0.030773066
76	0x3ad7e251	0.0016470646
77	0xbcbaf6fd	-0.022822851
78	0x3c8dbe04	0.01730252
79	0xbc289990	-0.010290518
80	0x3b583716	0.0032991818
81	0xbb2a11e4	-0.0025950605
82	0x3ce90d74	0.028448798
83	0x3cf7c4f1	0.030245276
84	0x3baa5721	0.005198375
85	0xbbe359e0	-0.006938204
86	0x3c8dc28e	0.017304685
87	0xbbe52e56	-0.006994049
88	0xbba5ae41	-0.005056173
89	0xbc20863d	-0.00979763
90	0x3be88d65	0.0070969337
91	0x3c842b82	0.016134027
92	0x3c787045	0.015163486
93	0x3bba3ce9	0.0056835306
94	0xbae0d952	-0.001715461
95	0x3c56011e	0.01306179
96	0xbcb54903	-0.022129541
97	0x3c5ae873	0.013361084
98	0x3c23b7f4	0.009992588
99	0xbc34ff17	-0.011047146
100	0x3cd18f57	0.025581045
101	0x3bec2550	0.0072065964
102	0x386cf4bc	5.649471e-05
103	0x3a4db268	0.0007846714
104	0xbb850a28	-0.0040600486
105	0x3bf0b1e9	0.0073454273
106	0x3cc5b835	0.024135688
107	0x3c2a5dc2	0.01039833
108	0x3cbbff8e	0.022949006
109	0x3c9c5032	0.019081209
110	0x3c159f22	0.0091321785
111	0xbbf5ff97	-0.0075072753
112	0x3b487303	0.003058613
113	0x3ca8c94e	0.020603802
114	0x3c9f8ea0	0.019477189
115	0x3cec3ff8	0.028839096
116	0xbc0a4d7d	-0.008441326
117	0x3c14debc	0.009086307
118	0x3c8061e7	0.015671683
119	0xbb83154c	-0.0040003415
120	0x3c71d462	0.014760109
121	0x3c8a9794	0.016917981
122	0x3c0d49d0	0.008623555
123	0x3c44f7d4	0.012021977
124	0x3b8d2265	0.0043070787
125	0x3c246e66	0.010036087
126	0x3a031dd9	0.0005001701
127	0xbad7a4ad	-0.0016452275
