vwgym/saved_model/vwgym_f_net_step_8500000.pt (torch_old, 160590 bytes, 30 tensors)

f_percept.percept.0.weight f4 [16, 3, 3, 3]
000000 3a 1f 2f bd 44 79 5a 3e 6a 3e 70 3d f4 73 62 bd
       -0.04275439 0.21335322 0.058653273 -0.055286363
000010 8f 93 a2 3e e5 22 38 3e 88 17 86 3e 18 08 84 be
       0.31753203 0.17982061 0.26189828 -0.25787425
000020 ed 91 21 3d 1e d9 b8 3c 40 f6 65 be 49 71 5e be
       0.039445806 0.022564467 -0.22457218 -0.21722902
000030 41 c7 6d be e4 44 29 3e 5f 47 6f 3e f9 4d 41 3e
       -0.2322054 0.16530186 0.2336707 0.188774
000040 1b 41 b1 be fe 89 a9 be 01 1d 50 3e 44 40 be bc
       -0.34619984 -0.33113092 0.20323564 -0.023224004
000050 93 39 cc 3d 46 b4 48 be 65 29 4a be c0 f7 14 be
       0.09971919 -0.19600019 -0.19742353 -0.14547634
000060 49 28 11 3e 1d 5d 5c 3d e9 52 63 3d 0b 5a ac be
       0.14175524 0.053799737 0.05549899 -0.33662447
000070 9d 23 1d 3e cf cd 82 be ff 98 7d be ff 07 4d be
       0.15345617 -0.25547644 -0.24765395 -0.20022582
000080 5a 1c 62 be 51 94 0f be 1c 3d c5 3d 55 72 7d 3e
       -0.22081128 -0.14021422 0.09630796 0.24750645
000090 43 4d 87 bd 52 f5 8d bc fa e6 a9 bd d5 b9 03 be
       -0.066065334 -0.017328892 -0.082960084 -0.12863858
0000a0 ff 43 18 be ed f5 b0 3d a0 0a 97 3e 50 a1 b0 3d
       -0.14869688 0.086406566 0.29500294 0.08624518
0000b0 f4 49 96 be 06 0d 89 bd 66 c5 d0 3e 9b fd a2 3d
       -0.29353297 -0.06691937 0.40775603 0.07958528
0000c0 b7 cb ce 3d 70 4f 9c 3e 6a 9d 5a bd 8b 81 44 3e
       0.10097449 0.30529356 -0.053372778 0.19190042
0000d0 7d 9d 9f 3c ca f9 9d bc ab 67 36 bd db 9b ef be
       0.019484276 -0.019284148 -0.04453246 -0.46798596
0000e0 fe e9 e5 3c 84 c9 b1 be a4 76 86 3d 76 50 a9 3e
       0.028065678 -0.34724057 0.06565598 0.330692
0000f0 8e fa 10 be b3 0d 0e 3d bc ea 28 3d 1f e7 a9 bd
       -0.14158079 0.034681033 0.041239485 -0.08296036
000100 80 7a dd 3d 5c 95 2c 3e b8 1e 85 be 08 a7 d4 bd
       0.10814381 0.16853851 -0.26 -0.10383421
000110 26 2a 69 bd 63 2c d5 be 05 e9 36 bd ab 1a a4 be
       -0.05692496 -0.41635427 -0.04465582 -0.32051596
000120 5e 7f a1 3d 11 6f be bd b6 8e 13 3e cb 04 b8 bd
       0.078856215 -0.09298528 0.14409909 -0.08985289
000130 99 c7 4b 3e 3c 17 d2 3c db f6 8c 3d 8b e2 9a 3d
       0.19900359 0.025645845 0.068830214 0.07562741
000140 7e 5e 0c 3e 1b 56 24 bd b9 4e 5e bd 60 a4 9b bd
       0.13707921 -0.04012118 -0.054274295 -0.075997114
000150 6a c3 27 3e 09 0d d7 bd 99 98 92 bd a7 3b b8 bd
       0.16383138 -0.10500533 -0.07158012 -0.08995753
000160 21 dd 7f be a7 a3 89 3e c5 d0 d3 be 47 28 4f 3e
       -0.24986698 0.2688267 -0.41370216 0.20230208
000170 ac 63 06 3c 13 1d 1e 3e ba 6a 3c bc ed 25 b6 be
       0.008202475 0.15440778 -0.011500055 -0.3557581
000180 8f 54 4f bd 77 26 36 be 03 f5 fc 3c 69 6b 1e 3d
       -0.05061775 -0.1778811 0.03087855 0.038676653
000190 4a 49 89 bd 4f 1f ba bd ae 7c 49 bd a6 9b 84 be
       -0.06703432 -0.09088003 -0.04919117 -0.259
0001a0 1d 6c 5e bd 07 f4 09 3f d6 e6 22 3e d9 70 40 bd
       -0.054302324 0.5388798 0.1590837 -0.04698262
0001b0 8d 05 16 bc 80 07 be be f3 15 fe bd 3b b9 b5 3e
       -0.009156597 -0.37115097 -0.1240653 0.35492882
0001c0 e8 f5 0e 3d ff 82 a4 be 87 72 3e 3e ba 57 53 3e
       0.034902483 -0.32131192 0.18598376 0.20638934
0001d0 90 31 a2 3c 1a ce c4 3b b6 d4 26 3e 46 9c 5e be
       0.019799024 0.0060060145 0.1629208 -0.21739301
0001e0 5d 7e 2b bd a3 fd e7 3d 04 80 52 3d d4 43 90 3d
       -0.041868556 0.11327674 0.051391616 0.07044187
0001f0 a8 31 42 bb ed f7 9d be 04 ed fc bc ab 0d 72 be
       -0.0029631648 -0.30853215 -0.030874737 -0.23638026
000200 28 04 fc bd b1 f0 af be 44 ca 66 3e 80 a7 fd bc
       -0.1230548 -0.3436332 0.22538096 -0.03096366
000210 ff 78 90 bc d9 b7 14 be e4 6f 96 be 08 21 5a be
       -0.01763582 -0.14523257 -0.2938224 -0.21301663
000220 ef 69 a1 3d 9b a2 d7 bd ee bd e4 bd 77 90 e6 bc
       0.07881533 -0.105290614 -0.11169039 -0.028145058
000230 9a 79 ca be ff 21 e6 3d b9 f8 1f 3e 72 c9 9f bd
       -0.395459 0.11236953 0.15622224 -0.078020945
000240 12 04 8b bc 1d ea 0c 3e af c4 43 3d b3 fd 14 3d
       -0.016969714 0.13761182 0.047794994 0.03637476
000250 d9 a3 18 bd 78 eb 87 3e b6 1b 24 be 99 38 82 be
       -0.037265632 0.26546836 -0.16026196 -0.25433806
000260 88 3f b4 3e e1 b6 a7 3e 62 d8 56 be d3 18 89 3e
       0.3520472 0.32756713 -0.20980981 0.26776752
000270 70 b9 f8 bd 3f 4d cb 3d 38 af 50 3e 9a c3 29 3e
       -0.121447444 0.09926843 0.2037934 0.16578522
000280 cf bb 95 bd 2d 54 9c 3e 0e 84 25 be 34 87 97 bc
       -0.07311212 0.3053297 -0.16163656 -0.018497087
000290 a7 15 55 be 34 e7 49 3e f2 ea a3 3e 07 1b 9a bd
       -0.20809041 0.19717103 0.32015187 -0.07524686
0002a0 3d d0 22 3e 68 1d 33 be 5d ac 5b 3d b2 71 ea bd
       0.15899749 -0.17491686 0.053631175 -0.11447467
0002b0 fc f2 e6 bd db 46 cf 3e b1 69 91 bd a2 9c a1 bd
       -0.11276814 0.40483746 -0.07100237 -0.078912035
0002c0 db 21 49 3c b7 07 ae 3d 93 ab b9 3d c7 c2 6a be
       0.012276138 0.08497565 0.09065928 -0.22925864
0002d0 c0 33 07 be 25 5c 14 be b7 d2 eb 3b 99 e8 a2 3e
       -0.13203335 -0.14488275 0.00719675 0.31818083
0002e0 4f 34 bc bd d9 f0 07 3f a4 58 f8 bc 02 50 1a be
       -0.091896646 0.5310188 -0.030315705 -0.15069583
0002f0 cd a3 1e 3d 29 0d 77 bd 9d f5 d4 bc 40 ad cb bd
       0.03873043 -0.060315285 -0.025996024 -0.09945154
000300 f9 f0 36 3d 67 b9 89 be b9 cc bb 3e 37 3f 45 3d
       0.044663403 -0.26899263 0.36679628 0.04815599
000310 1b 72 a2 be 80 53 4d 3e b7 91 9a bd 60 95 d8 bd
       -0.3172768 0.20051384 -0.07547324 -0.10575366
000320 e9 57 83 be 5b 1a 9d 3e 5a 02 7a bd b4 82 84 3e
       -0.25653008 0.3068417 -0.0610374 0.2588097
000330 75 fc 34 bc 60 64 97 3e 1c ff 81 3d 83 0c 1b be
       -0.011046519 0.29568768 0.063474864 -0.15141492
000340 5c 5d 37 be b7 55 54 3e 3a 0b 78 be 1c 5b f2 3d
       -0.17906708 0.20735823 -0.24223033 0.11833784
000350 06 91 17 3e 10 2c 37 3d 48 a2 96 be 38 65 d8 3d
       0.14801416 0.044719756 -0.29420686 0.10566181
000360 47 cb 11 3e 78 1e 7a 3b 5b e8 52 3e a3 4d ec 3b
       0.142377 0.0038165133 0.20596449 0.0072114035
000370 46 49 79 be cd 3a 6d be f5 a9 04 bc d4 2a 8f be
       -0.24344358 -0.23166962 -0.008097162 -0.27962363
000380 0c 18 6b 3e 37 f5 74 3a 88 7c 99 bd 69 de 6c be
       0.22958392 0.0009344401 -0.074944556 -0.23131718
000390 10 a4 20 be c8 ed 16 bb 40 78 9e bd b8 60 1b be
       -0.15687585 -0.0023029912 -0.077377796 -0.15173614
0003a0 71 96 d8 be e6 5d 5c 3c 30 77 8b be a7 a3 c9 bd
       -0.42302278 0.0134501215 -0.2723937 -0.09845667
0003b0 c3 f3 91 3e a1 16 6f 3e f6 ef 34 3e 24 93 32 3e
       0.28506288 0.23348476 0.17669663 0.17438942
0003c0 5d 09 92 be 41 ca fd 3d ca 8d 16 be a2 f4 23 3e
       -0.2852277 0.123920925 -0.14702526 0.16011289
0003d0 12 56 ee bc 06 30 7e be 2a 01 15 be 05 17 8d 3d
       -0.029093776 -0.24823007 -0.14551225 0.06889156
0003e0 aa be cc be 93 79 70 be 41 23 de be 2f 53 4d 3d
       -0.39989215 -0.23483877 -0.43386272 0.05012816
0003f0 32 55 07 3e d8 d5 f5 bd c4 29 20 3e cf a8 0f 3d
       0.13216093 -0.12003678 0.15640932 0.035073098

f_percept.percept.0.bias f4 [16]
000000 2b 56 28 bb 42 7e f3 39 54 29 3e bb 2b 04 cd ba
       -0.0025686126 0.0004644264 -0.0029016333 -0.0015641501
000010 56 9e 99 bb f9 b4 82 3b 7d cb 10 bb ae e6 95 3b
       -0.0046880646 0.003988859 -0.0022093945 0.0045746183
000020 26 c3 d3 b9 af e7 87 3b 12 cd ab 3a 67 ca ae 3a
       -0.00040390453 0.004147492 0.001310738 0.0013335467
000030 e8 8a 14 bb 37 3e db 3b b7 e9 c0 ba 0c 2d 12 3b
       -0.0022665802 0.006690766 -0.001471809 0.0022304682

f_percept.percept.3.weight f4 [64, 16]
000000 51 31 91 3d 0e 62 1a be 84 43 0c 3d cc 3d 0f be
       0.070894845 -0.15076467 0.034244075 -0.13988417
000010 f6 bd ae bd 29 ed 80 bd 14 93 49 bd 33 4b 1e 3e
       -0.08532326 -0.06295235 -0.04921253 0.15458374
000020 19 e9 9c bd 3c ff c6 3d de a9 7a be 7d fd 33 be
       -0.07661647 0.09716651 -0.24478862 -0.17577167
000030 37 12 c2 bc 1e 85 5e 3c f3 ab a7 3d 79 74 8a 3d
       -0.023690326 0.013581542 0.081870936 0.06760497
000040 3f d6 b4 bd 32 6f f6 3d 86 b1 1a 3e 62 11 88 3d
       -0.08829927 0.120329276 0.15106782 0.066439405
000050 37 c0 e7 3d ce cd 78 3a 30 27 36 be f2 2a 3a be
       0.11315959 0.00094911165 -0.17788386 -0.18180445
000060 02 0e ea 3d e2 53 ec 3c 49 90 d5 3d fa 2b 02 3d
       0.11428453 0.028848592 0.10427911 0.03178022
000070 3e f1 b6 3c a5 f6 22 3e 5d 08 a0 bd 3e 08 8a bd
       0.02233183 0.159144 -0.07814095 -0.06739853
000080 8b e7 16 bc 44 f5 0c be 9b b7 0e be 09 9f 01 bd
       -0.009210478 -0.13765436 -0.13937227 -0.03164581
000090 84 71 35 3d 1b 89 10 3e 70 72 f4 bd 38 e8 a5 3c
       0.04429771 0.14114802 -0.1193589 0.020252332
0000a0 1c e0 fb 3c 4a ea cb bd 07 35 d3 3b 44 20 07 3e
       0.030746512 -0.099567965 0.0064455303 0.13195902
0000b0 e5 69 84 bb 08 17 28 bd ce aa 55 3d 75 86 00 3d
       -0.004040944 -0.04103759 0.052164845 0.03137823
0000c0 51 fd 4a bd 84 ba c6 bd eb 23 d8 3d 24 e1 f6 bc
       -0.049557988 -0.09703544 0.10553726 -0.030136652
0000d0 00 c0 94 be 89 62 5e 3e 32 33 0b 3d 80 30 51 3e
       -0.29052734 0.21717276 0.03398437 0.20428658
0000e0 54 2f dc 3d e8 27 88 bd c0 e1 c6 bd 0e 03 76 bc
       0.107512146 -0.066482365 -0.09711027 -0.015015377
0000f0 1a e8 43 be 4e 97 6f bd af 69 9e bd fe b2 14 be
       -0.19131508 -0.058493905 -0.07735001 -0.14521405
000100 f2 5f d8 3d 1a c9 f9 bd 40 1b a0 bd 2a fc ce 3d
       0.10565175 -0.1219656 -0.078176975 0.1010669
000110 4d 88 b1 3c 2c 5b 06 be f8 ec 50 be 2b 20 21 be
       0.021671439 -0.13120717 -0.20402896 -0.15734927
000120 dc 71 43 be 8c 23 0a 3a 1b 21 1a 3e 80 fb bb bb
       -0.19086403 0.0005269579 0.15051691 -0.0057367682
000130 5d 98 84 bd b6 ee 55 3e 07 56 f3 b9 a5 44 53 3b
       -0.064743735 0.20891842 -0.00046412667 0.003223696
000140 95 fb a9 3e 27 ec 37 3e 20 7f 21 3e fb 21 39 be
       0.33199754 0.17961179 0.1577115 -0.18079369
000150 dd c4 e7 bc cc 54 64 be 00 35 ec bd fc 9e d1 3d
       -0.028292114 -0.22297972 -0.115335464 0.10235402
000160 b9 51 a4 bd 2a 20 ee bd f9 e3 ee bc 25 4c cb 3d
       -0.080234 -0.116272286 -0.02916144 0.09926633
000170 e7 b7 80 bd 44 4b 04 be 1e 91 93 3b 13 e0 33 be
       -0.062850766 -0.12919337 0.0045033833 -0.17565946
000180 d8 51 bd bd a6 86 f3 bd cb 09 99 bc 68 ca 68 bd
       -0.09244126 -0.118909165 -0.018681427 -0.056833655
000190 c0 51 a7 3d 8a 30 65 3d c6 d5 71 3d 31 88 5f be
       0.081698895 0.055954494 0.05904176 -0.21829297
0001a0 12 4f f3 bc 42 50 36 bd e2 1d c6 3d 3b 19 1f 3e
       -0.02970079 -0.044510134 0.096736684 0.15536968
0001b0 7a 64 fc 3c 97 b0 9b 3c 8f 90 1b be e7 14 e3 3c
       0.03080963 0.019005103 -0.15191863 0.027719928
0001c0 e2 0c b8 3d c4 f5 e9 3d b8 f4 0a be 7a 60 90 bd
       0.08986832 0.11423829 -0.13569915 -0.070496514
0001d0 cc 5b a4 3d 1e b2 a9 3d 0a 48 39 be ff 11 8b 3d
       0.08025321 0.08285926 -0.18093887 0.06790542
0001e0 32 1b ea bd f7 27 c3 be 54 35 8a 3d 75 e5 0b bc
       -0.11430968 -0.38116428 0.06748453 -0.008538594
0001f0 74 7e 77 3d df 5e e1 bd 82 9e 87 be 7b 1d 15 be
       0.06042333 -0.11004423 -0.2648812 -0.14562027
000200 08 2a d3 bc e8 72 df 3d e4 02 90 be 66 db ac bd
       -0.025776878 0.109105885 -0.28127205 -0.084402844
000210 45 06 a1 3c e6 7b ac bd 6f cb ad 3d 86 bb 66 bd
       0.01965631 -0.08422069 0.084860675 -0.05633118
000220 6b d3 9a 3d 11 5e 04 3d 2e 2e 96 ba 57 4f 22 be
       0.07559856 0.03231627 -0.0011457854 -0.15850578
000230 71 95 4b be 18 56 bb 3c 5e 9e 0c 3e d6 f8 15 3e
       -0.19881226 0.022868201 0.13732287 0.14645705
000240 b2 8f be ba 90 dd ae 3d ea f5 a2 bd e1 35 c9 bd
       -0.0014538674 0.085383534 -0.07957061 -0.0982473
000250 43 f9 b9 bb a3 bd 3f 3d 4f c2 ae bd a3 ce 69 bc
       -0.0056754663 0.04681171 -0.08533155 -0.014270457
000260 10 5c 2c be 2d e6 1b 3e 1a 67 5a 3d 02 fe bf 3d
       -0.16831994 0.15224524 0.05332098 0.0937462
000270 2a 03 eb bd 45 04 c1 bd e7 78 00 3e d7 35 0d bc
       -0.11475213 -0.094246425 0.1254612 -0.008618793
000280 40 fd 4f be 44 9c 0f 3d 72 16 02 be 3a eb 09 bd
       -0.20311451 0.035061136 -0.12703875 -0.033671595
000290 f8 85 d0 be 1c 3c b6 bd e4 a5 09 be 76 8d 2a 3d
       -0.4072721 -0.08898184 -0.13442189 0.041638814
0002a0 95 23 40 3d ad 78 f8 3d 85 19 52 bd 94 be 13 be
       0.046908934 0.12132392 -0.05129387 -0.14428169
0002b0 c0 fe 24 be 29 20 fd bb 3b 92 92 bc 27 50 90 bd
       -0.16112804 -0.007724781 -0.017891994 -0.07046538
0002c0 a7 80 86 3d ae c3 93 be 53 a7 01 3e 15 dd 52 3d
       0.06567507 -0.2886023 0.12661485 0.05148037
0002d0 85 b5 44 bd 92 10 13 be 64 04 67 3e 27 81 06 3d
       -0.048024673 -0.1436179 0.22560269 0.032838013
0002e0 fd 7c 02 3e 14 97 98 3c 5e 66 7d bc aa fb 6f bc
       0.12742992 0.018626727 -0.015466301 -0.014647404
0002f0 4f c6 17 be 8a ce 4a be 4d f0 98 bd cc 94 01 be
       -0.14821742 -0.19805351 -0.07467709 -0.12654418
000300 48 d4 04 be 07 65 85 be 1b f6 4a be 33 d6 af 3c
       -0.12971604 -0.2605364 -0.19820444 0.021464443
000310 e0 3c 4c 3c a3 2d 52 bd 78 1a 0d be ce 6e ac bd
       0.012465686 -0.051313054 -0.13779628 -0.08419572
000320 87 71 45 be 4b 07 f0 3c fa 5c 9f bc 7a 6c b6 3c
       -0.19281588 0.029300353 -0.019453514 0.022268523
000330 e2 8a 15 3e d7 de 36 be cf 24 95 3e cb 1a 5c bd
       0.14603761 -0.17858444 0.29129645 -0.05373649
000340 1c e0 93 3d 9f 61 2f 3e 55 4b e7 bd fe 3f 27 be
       0.0722048 0.17127083 -0.11293665 -0.16333005
000350 ec ba cb bd 6f fa ca 3d d3 70 a8 3d 96 03 4d be
       -0.09947762 0.09911048 0.082246445 -0.20020899
000360 10 4d 52 3d 07 dc 12 bd 37 b1 b2 3d fc 78 9e 3d
       0.051343024 -0.035854366 0.08725207 0.0773792
000370 36 81 6c be f6 15 c6 bc fb 22 16 bd bc e8 bf 3d
       -0.23096165 -0.024180394 -0.036654454 0.093705624
000380 c2 0c 2d 3d 11 20 52 3c 01 19 f4 bc 21 a1 79 3e
       0.042248495 0.012825028 -0.029797079 0.24377872
000390 ae 59 8a bd a0 ad 3d 3e 1c 55 03 3e dd ff 4f 3d
       -0.06755386 0.18523264 0.12825435 0.05078112
0003a0 59 bd d5 3d d4 69 03 bd 75 8b a0 3c b4 c1 fe 3d
       0.10436506 -0.032083347 0.019597748 0.1243929
0003b0 ae 42 b0 3c 92 d2 2d bd 17 c4 f0 3d 12 22 c1 bd
       0.02151617 -0.042437144 0.11756151 -0.094303265
0003c0 49 ab d8 bd c5 e2 3a be d0 78 2f 3e e1 88 18 3e
       -0.10579545 -0.18250568 0.1713593 0.14895965
0003d0 26 d0 b5 bd 03 90 04 be 1d a5 8e bd 1d 72 98 bd
       -0.08877592 -0.12945561 -0.069650866 -0.074436404
0003e0 4a 23 92 bc 45 f8 ed ba 4e 41 6d 3c 33 47 80 3c
       -0.017839093 -0.0018155655 0.014480902 0.01565895
0003f0 f6 21 b2 3c 0b b2 19 be 72 91 2f 3c 42 5f 0d 3d
       0.02174471 -0.15009324 0.010715829 0.034514673

f_percept.percept.3.bias f4 [64]
000000 37 27 cb 3a 67 6c b2 3a bc fb 19 3b c4 4e cd ba
       0.0015499358 0.0013612629 0.0023495993 -0.0015663733
000010 30 91 28 3b 03 eb fe ba f7 2d 88 3b 5b 5c 81 ba
       0.0025721304 -0.0019448701 0.00415587 -0.0009869443
000020 77 fb 97 3b 64 84 e1 3b 8a 08 ca b9 e0 29 20 bc
       0.0046381312 0.0068822373 -0.00038534804 -0.009775609
000030 f9 f2 e5 ba 6b 02 09 3b 2d c7 84 3b bb 27 b4 bc
       -0.0017543725 0.0020905982 0.004052064 -0.021991601
000040 c7 d0 73 bb 9f 80 1b 3b e7 27 91 b9 e6 37 98 3b
       -0.0037203298 0.0023727787 -0.00027686285 0.0046453355
000050 db a8 fe 3b 27 27 b7 bb f6 95 24 bc 95 16 05 3b
       0.007771594 -0.005589384 -0.010045519 0.002030765
000060 8e b4 35 ba 6c 1f 6c bb 53 73 ee bb 8d 58 37 3b
       -0.0006931507 -0.003602947 -0.0072769313 0.0027976364
000070 0e 09 2d bc 13 7c b2 bb 6d 3e 3f 3b a8 c2 b9 bb
       -0.010561241 -0.0054469197 0.0029181496 -0.005668957
000080 e8 07 93 39 b1 f9 fb 3a 4f ab 10 3c 84 0a b4 bb
       0.00028043916 0.0019224194 0.008829906 -0.0054944176
000090 31 0d ba 38 32 02 83 ba 48 18 1a bb f1 a7 3a bc
       8.871628e-05 -0.0009995161 -0.0023513008 -0.011392579
0000a0 47 6a 9e bb b5 04 98 3a 01 f3 08 3b 5d b3 5e bb
       -0.0048344466 0.0011598082 0.0020896795 -0.003398142
0000b0 2a d5 4c bb 67 15 fe ba b3 32 26 3b 78 44 b4 bb
       -0.0031254985 -0.001938504 0.002535981 -0.005501326
0000c0 0d 8e 58 3a 14 ad 0e bc 77 3f 4e bb ef 1c 2e 3c
       0.00082609133 -0.008708257 -0.0031470933 0.0106270155
0000d0 47 20 d5 bb bb fa 38 bc 78 2e 2c bb 0b 37 06 bb
       -0.006504092 -0.011290248 -0.0026272815 -0.0020479586
0000e0 7a 4e a4 ba 16 af b1 bb 36 4e 7b 38 bd 6b 93 bb
       -0.0012535595 -0.005422483 5.9915903e-05 -0.0044989274
0000f0 ea 31 ce 3b cb ee 1e bc 8b c1 5a 3a 35 0b d1 bb
       0.0062925713 -0.009700487 0.000834488 -0.00637951

manager.M_space.weight f4 [64, 64]
000000 10 33 4a 3e db dd fa bd fa d0 fe 3c 50 11 e1 bd
       0.19746041 -0.12249347 0.031105507 -0.1098963
000010 2e cd 9d bd 0e 7d 9c bd c8 9e 42 3c f2 c0 5e bd
       -0.077051505 -0.0764104 0.011878677 -0.054383226
000020 6b f9 08 be 5c 1d 82 3d 93 f0 8f 3c 24 82 16 3e
       -0.13376395 0.06353256 0.01757077 0.14698082
000030 77 94 3f be c0 0d fd 3c 78 10 f1 bc 85 38 18 3e
       -0.18708979 0.030890346 -0.029426798 0.1486531
000040 c3 46 8b 3c 3a 9b 7f 3e 4e 9c a1 3d c7 9b 58 3e
       0.017001515 0.24961558 0.07891141 0.21153174
000050 0f 77 18 bd 85 91 ae 3d 3d 46 16 be ec d5 65 3e
       -0.037222918 0.085238494 -0.14675231 0.22444886
000060 f1 1d 30 3d 43 2b c3 3d 28 a5 53 bd 52 4a 89 bc
       0.042997304 0.09529736 -0.051671177 -0.016759071
000070 28 6a 85 3d be 2e 03 be 95 00 05 bd 41 f7 01 be
       0.06514388 -0.128108 -0.03247126 -0.12691976
000080 6e c7 9c 3d 89 8e 49 3e a2 fc 0d 3e 18 13 ab be
       0.07655226 0.19683279 0.13865903 -0.33413005
000090 2b 3f b4 bd ef 5d 9b bd 6b eb a7 3d 49 62 62 3c
       -0.08801111 -0.07586276 0.08199199 0.013817378
0000a0 64 83 10 bd 89 7e 8f be 52 cf c8 bd c2 16 c2 bd
       -0.035281554 -0.28026226 -0.09805168 -0.09476997
0000b0 a0 7a e8 bd 9b ea e5 3c 38 69 a3 3d fb dc 24 3d
       -0.11351514 0.02806597 0.07979053 0.040249806
0000c0 b5 e3 d1 bd c5 4b cd 3c 91 c7 6c bd b2 f1 cb bd
       -0.1024851 0.025060544 -0.05780751 -0.09958209
0000d0 81 46 46 3e 65 bd 5f 3d 32 50 88 3e a7 2b c2 3d
       0.19362833 0.05462398 0.26623684 0.09480982
0000e0 ad df 1c 3e d6 e7 42 3c 6f 7b 11 be 2a cf 3a 3d
       0.153197 0.011896094 -0.14207242 0.045607723
0000f0 4d 86 7a bd a3 e5 4b 3e 7f 57 c6 bd 44 a5 be 3d
       -0.061163235 0.19911818 -0.09684657 0.09308866
000100 df 3a c7 bd d0 3b 69 bd 1a d8 80 bd 7a 46 95 bc
       -0.09728026 -0.056941807 -0.06291218 -0.018222082
000110 85 29 cc 3d 9e 07 0f 3e 2d cb 00 3e 02 53 25 3e
       0.09968857 0.1396775 0.12577505 0.16144946
000120 3f ee 89 3e c2 c0 41 bd d7 4e 4c 3e 3a 1f 08 3e
       0.2693958 -0.04730297 0.1995195 0.13293162
000130 5a 12 8a be d1 8a 22 be 8e 85 16 3e f0 e2 b2 3d
       -0.26967126 -0.15873267 0.14699385 0.08734691
000140 f1 32 69 bd 06 ea 05 bc bc 8d ea 3c 68 d4 91 bd
       -0.056933347 -0.008173471 0.028632037 -0.071205914
000150 e3 27 87 3d ae 6c 52 bd cf 7e 6c ba 9d fc a5 bd
       0.06599405 -0.051373176 -0.00090215815 -0.08104823
000160 1a 34 de 3e 8a 31 49 be b8 07 99 bd 75 f3 a6 3c
       0.43399125 -0.19647804 -0.07472175 0.020379761
000170 7d b3 73 bd 6f b2 d1 bd 52 56 40 3d 73 fe 6a be
       -0.059497345 -0.10239112 0.04695732 -0.22948627
000180 fb d1 3f bc 78 b7 3a 3d 88 37 07 be 6f 39 3b bd
       -0.011707778 0.045585126 -0.13204777 -0.04570907
000190 9e 21 78 bd 61 47 2e 3e 2a d1 ab ba 8b 42 eb bd
       -0.060578935 0.17019416 -0.00131086 -0.114873014
0001a0 c4 ee d4 bd 60 4d ec 3d 2c 79 1f ba 1f d0 c8 bd
       -0.103971034 0.115381956 -0.00060834247 -0.09805321
0001b0 6e 50 19 3e 19 b6 30 be c9 1a c2 3d 52 59 cc 3d
       0.14972088 -0.17256965 0.09477765 0.09977974
0001c0 be 17 5f bd 00 82 3a bd 53 61 00 be 09 ac fe 3d
       -0.054466 -0.045534134 -0.12537126 0.12435157
0001d0 39 21 1b bc ba e9 03 be bb 82 f6 3c 26 83 08 be
       -0.00946837 -0.12882128 0.030091634 -0.13331279
0001e0 0d 67 c9 3b 58 5b 65 3d bb d1 f8 bc ae 49 ae 3d
       0.006146318 0.055995315 -0.030373445 0.08510147
0001f0 f6 22 61 be 49 b9 26 3d d8 58 84 bd 1b 6a 0d 3e
       -0.21985993 0.040704045 -0.06462258 0.13810007
000200 df cd b6 bd e0 fe 93 bd b4 4e 4b 3e 12 07 37 3e
       -0.089259855 -0.07226348 0.19854242 0.17873791
000210 38 fc 51 3e 13 88 ad 3d c3 0a 17 3e 58 c7 f4 bd
       0.2050637 0.0847322 0.14750199 -0.11952084
000220 fa 2c ab 3d 29 fc 54 be 27 9a 0f be 82 e9 2c be
       0.08358188 -0.20799316 -0.14023648 -0.16885951
000230 c2 a5 4b bc a1 27 06 bd 8c 4f a4 3d 05 b2 f9 3c
       -0.012429656 -0.032752637 0.08022985 0.030480394
000240 96 72 87 bd e4 8e 74 bc 22 2b 35 bd 58 89 19 3c
       -0.066136524 -0.014926646 -0.044230588 0.009371124
000250 bb 3f 20 3e 8d e9 94 bc 72 00 90 3e b3 18 11 be
       0.15649311 -0.018177772 0.2812534 -0.14169578
000260 21 40 e8 bd 93 15 7a 3e bb 17 c4 3c 8b a7 cb 3c
       -0.113403566 0.24422292 0.023937097 0.024860164
000270 c6 dc 38 bd b6 11 78 bd 39 04 61 3d 1f 53 9a bd
       -0.04513242 -0.060563765 0.054935668 -0.07535385
000280 b0 d2 eb 3b 9f 4e c3 bd 1d 3c 10 be 2d a7 c9 bd
       0.0071967468 -0.0953648 -0.14085431 -0.098463394
000290 7f ca d7 3c 34 20 9f 3d 05 78 28 3e 8c ad 92 3d
       0.026341675 0.07769814 0.16452034 0.07162008
0002a0 76 b1 7a be 66 05 00 be c9 d5 45 bc e5 5f cf bd
       -0.24481758 -0.1250206 -0.012074896 -0.10125712
0002b0 0c 58 4f bd 92 04 4f be a1 08 c6 bd f5 aa 59 bd
       -0.050621077 -0.20216587 -0.096696146 -0.053141553
0002c0 7b 47 67 be 7a 62 c4 bd ba 6e 87 3d 4a bb 56 be
       -0.22585861 -0.095890954 0.06612916 -0.20969883
0002d0 03 24 c4 3c 18 dd 16 be 9c 77 88 3d a6 f2 86 3d
       0.023942953 -0.14732778 0.06663439 0.0658925
0002e0 39 37 b0 3d 1c 5f 41 3b 7a 56 ba bc 2d f6 3a be
       0.08604283 0.0029506152 -0.022746313 -0.18257971
0002f0 4f 8a 1d 3e 95 54 61 3e 9e 44 29 3e 9c 2a 1b 3d
       0.15384792 0.22004922 0.16530082 0.037882432
000300 d4 bb f3 3c 86 fa 6a 3d a9 eb 0b 3e 80 2e 1d be
       0.02975265 0.057367824 0.13664116 -0.1534977
000310 13 20 fd b9 ef 26 f3 bd 2c 59 9f bd 08 19 96 bc
       -0.00048279818 -0.1187266 -0.0778068 -0.018322483
000320 5a 31 95 be 49 29 f3 3b 06 ad b4 3d 28 28 d0 bd
       -0.29139215 0.007420693 0.08822064 -0.10163909
000330 25 20 74 3d a7 d6 de 3d d9 9a 85 be f8 27 d2 bb
       0.059600968 0.108807854 -0.26094702 -0.006413456
000340 90 a8 83 bd 3d 0d 5e 3e e0 8c 5c bc 6b 1d 88 3d
       -0.06428635 0.21684738 -0.013461322 0.06646236
000350 11 2c 1d 3e 1c a2 85 3b 96 3c 22 3e 01 95 48 bd
       0.15348841 0.004078163 0.15843424 -0.048970226
000360 10 ae 48 3e d6 4e 63 bd 00 08 5e 3d b5 10 5a 3e
       0.1959765 -0.055495106 0.05420685 0.21295436
000370 b5 c4 45 3e 6c 79 a5 3d e0 96 d3 3d 76 70 2e be
       0.19313319 0.080798 0.103315115 -0.17035088
000380 64 b7 ed bc 06 0f f3 3d 8b 8b 85 bd 33 ba 15 3e
       -0.029018112 0.118681 -0.06520756 0.1462181
000390 bc ab 1c be 36 77 5b bd 22 ed e5 3d 51 42 dc 3d
       -0.15299886 -0.053580485 0.1122687 0.10754836
0003a0 40 bd 0e be 15 30 7a bc e5 c8 01 be 8a b6 26 be
       -0.1393938 -0.015270253 -0.12674291 -0.1628057
0003b0 29 d4 46 3d 00 c6 32 bc 06 8b 6a bd 89 89 da 3d
       0.048542175 -0.010911465 -0.05726149 0.10670764
0003c0 4a dc 2c 3e 28 3e 22 3c d1 a7 88 bc 30 e4 53 be
       0.16880909 0.0099025145 -0.016681584 -0.20692515
0003d0 5e 06 13 be ba d8 02 be b9 48 48 be 23 8c 27 be
       -0.14357898 -0.12777987 -0.19558991 -0.16362052
0003e0 3a 1d 83 be 39 3a 30 3e 62 4a cd bc aa 43 07 3e
       -0.25608236 0.1720971 -0.025059883 0.13209406
0003f0 03 06 91 3c e9 f1 8d 3c ee 7e 64 3d 63 0c ee 3c
       0.017703062 0.017327266 0.055785112 0.02905864

manager.M_space.bias f4 [64]
000000 44 a1 26 39 c3 53 11 bb b0 b6 70 bb 84 fe 64 ba
       0.0001589107 -0.002217517 -0.0036729984 -0.00087354355
000010 a3 03 44 3b 66 5f 6a 3b 53 8c e4 3a aa 91 23 3b
       0.0029909394 0.0035762428 0.0017436839 0.0024958649
000020 dc 3d 39 b9 3a 9e 36 3b 7f 59 03 bb fe 1d cb ba
       -0.00017666019 0.0027865306 -0.0020042358 -0.0015496609
000030 28 ce b4 ba bc cb fb bb 51 80 16 bb 9f ef 40 3a
       -0.001379435 -0.007684199 -0.0022964666 0.0007359925
000040 b4 63 82 39 1f e5 01 b8 f2 e0 dd bb b5 1a 55 bb
       0.00024869817 -3.0969382e-05 -0.0067712003 -0.003251714
000050 be b2 8c ba c3 01 6f 3b 33 51 79 bb 3a 7a e5 ba
       -0.0010734422 0.0036469556 -0.0038042783 -0.001750774
000060 17 4a f7 ba 7c 75 12 bb a4 e0 9a bb 4b 51 ea ba
       -0.0018866685 -0.0022347858 -0.0047264863 -0.001787701
000070 5c ac 64 39 ed 55 0a 3b a6 69 40 ba 62 f9 94 3b
       0.00021807983 0.0021108345 -0.00073399616 0.0045463303
000080 28 9e ba ba 66 0c 26 39 03 8f 4d 3b 85 3f 22 3c
       -0.0014237808 0.00015835612 0.003136576 0.00990284
000090 c0 46 bd 3a 49 ed 73 3a 16 fa 8a 3a f2 32 95 ba
       0.0014440641 0.00093050726 0.0010603096 -0.0011382981
0000a0 28 28 a7 bb 42 3a 68 3b fd 05 3d bc 64 b9 82 3a
       -0.0051012225 0.0035435115 -0.011537072 0.0009973464
0000b0 04 44 fe 3b 9b 82 e5 b9 67 72 1a bb 68 4e 98 3a
       0.007759573 -0.00043775592 -0.0023566724 0.0011620047
0000c0 13 42 9d bb 80 29 e5 3a 61 3f a5 3a ca 78 30 3c
       -0.0047991364 0.0017483681 0.0012607389 0.010770986
0000d0 db 29 1a bb 28 7b 9d bb 76 2c 90 bb f4 17 ce bb
       -0.0023523483 -0.004805941 -0.0043998314 -0.0062894765
0000e0 6d 3b 7d 3b f0 c4 89 bb 98 9f 8f 3a 1e 53 bc 37
       0.0038640157 -0.004204385 0.0010957597 2.245005e-05
0000f0 b9 00 d5 39 44 02 95 3b 6f 9e 83 bb b6 34 13 bc
       0.00040627064 0.004547389 -0.0040166895 -0.008984735

manager.M_goals.weight f4 [64, 128]
000000 ea af 58 bc c1 74 bc 3c 58 24 5f 3d e1 d3 0c 3e
       -0.013225535 0.023004891 0.05447802 0.137527
000010 7f 69 89 3d 84 65 8e 3c ff 89 e0 bc b8 80 36 bc
       0.06709575 0.01738239 -0.027409552 -0.011139087
000020 2e ee 11 bc 7f 17 5f bc ad 83 1a 3d d9 e9 07 be
       -0.008906884 -0.013616442 0.037723232 -0.132728
000030 f9 a0 6e 3d 44 9c 28 bd 06 7b 3d be 43 78 8d bd
       0.058258984 -0.04116465 -0.18503961 -0.06907704
000040 c5 bc 0d 3e 70 f3 bf 3d e8 ec a1 bc f8 57 fc 3d
       0.13841541 0.09372604 -0.019766286 0.12321466
000050 99 07 5d be 8e d4 2b be 98 1e 47 3c 44 74 5c 3d
       -0.2158493 -0.16780302 0.01215329 0.053821817
000060 41 6b eb bc 2f e7 c9 3d 5b ad d8 3d c2 bc b8 bd
       -0.028737666 0.09858548 0.1057994 -0.09020378
000070 36 ac 9f bd 71 3d 43 be bd 6d 8a 3c d1 f6 aa bc
       -0.077965185 -0.19066407 0.01689803 -0.020869644
000080 fd d6 a3 3d 8a 15 0c 3c 65 51 29 3e a5 da ba 3d
       0.0799999 0.008550057 0.16534956 0.091237344
000090 20 9c a8 bc f9 9d 0b bc a6 79 fb 3c 77 23 6d bc
       -0.020582259 -0.00852155 0.030697655 -0.0144737875
0000a0 28 39 ee bd 14 b5 a8 3d 3f ec be bd da 53 8f 3d
       -0.116319954 0.08237663 -0.09322404 0.06998415
0000b0 d5 8a 2f be 55 17 84 3c 9e 58 24 be b5 23 2d 3d
       -0.17142804 0.016124407 -0.1604943 0.04227038
0000c0 e3 f9 bd bd 2a 96 cc 3b 91 e1 ad 3d 2c 1f d5 3c
       -0.09276178 0.006243487 0.08490289 0.02601584
0000d0 e7 71 f1 3d 45 1a 88 bc 09 4c ae bd 6f a0 3c bd
       0.11789303 -0.016614089 -0.08510596 -0.04605144
0000e0 2d 84 7f 3d 7a b2 9e 3d 59 c8 91 3d e2 ff 01 3e
       0.062381912 0.077488855 0.071182914 0.12695268
0000f0 e9 84 09 3e 2f b4 46 3d 7e 79 30 be 72 2f 63 3d
       0.13429607 0.04851168 -0.17233846 0.05546517
000100 75 83 d8 bd 0a d2 09 be 7d 60 aa bd db c1 12 3d
       -0.105719484 -0.1345903 -0.08319185 0.035829406
000110 a9 b3 79 3c d9 e0 07 3c 88 c1 0f bd 48 c0 d1 bd
       0.015240588 0.008293354 -0.035096675 -0.10241753
000120 cf 55 b5 bc 52 fe 22 3d 0a 39 09 3e 21 8a cb bd
       -0.022135643 0.03979332 0.13400665 -0.099384554
000130 99 7f 87 3d 6b e7 66 3c d4 fd 14 be 88 3a 92 3d
       0.06616134 0.01409326 -0.14549953 0.0714007
000140 72 e8 43 3d ab 3c 8b bd f1 38 df bd 1a 11 2e be
       0.0478291 -0.06798681 -0.108995326 -0.16998711
000150 f7 23 b2 bc 12 2f b3 bd 02 a0 63 3d 48 8e 9b bd
       -0.021745665 -0.08749212 0.055572517 -0.07595497
000160 46 34 db 3c 50 0b 2c 3c 01 eb 93 3d a6 4e 8f bc
       0.026758324 0.010500744 0.07222558 -0.017493557
000170 62 a8 d3 bd f8 aa 1f 3d d9 a7 d8 3d 68 6d e2 3d
       -0.10334851 0.038981408 0.105788894 0.11056024
000180 7b 3d 79 3d 19 7d 00 be ad 2b 0b 3e 82 86 89 bd
       0.060849648 -0.12547721 0.1359088 -0.067151085
000190 97 08 b3 3d bd 1c f8 3a 95 cf a2 3d 55 ba 15 bb
       0.08741873 0.0018929463 0.079497494 -0.0022846658
0001a0 93 ef 35 3e 23 04 25 3d 8f 8c 8c 3c 5e c1 89 3d
       0.17767172 0.04028715 0.017156867 0.06726335
0001b0 d0 92 55 3a 1b e2 f0 3d 14 0c 44 3d 9e 5e e3 bd
       0.0008147182 0.11761876 0.04786308 -0.11102031
0001c0 10 ce 0f 3e aa 4d d1 bb 70 9a 83 3d 40 33 87 bd
       0.1404345 -0.006387432 0.06425941 -0.06601572
0001d0 93 01 8a bd 39 7a db bd 54 e8 57 bd d5 60 01 be
       -0.067385815 -0.107166715 -0.0527118 -0.12634595
0001e0 0f d6 d1 3d 21 5d d6 bd 91 d5 aa bd 2a 12 3c 3d
       0.102459066 -0.10466982 -0.08341516 0.04591576
0001f0 83 3b 02 be 83 5a e7 bc 75 8a 4c 3d 72 94 01 3b
       -0.12718014 -0.028241402 0.04993673 0.0019772318
000200 de 82 7b 3d 97 55 99 3c f8 b1 85 3d d2 6f 14 3d
       0.0614041 0.01871757 0.065280855 0.036239453
000210 da 0b 0c 3d e8 5d 7c 3d 3c 99 d0 3d 6b 35 a8 bd
       0.03419099 0.061612993 0.10185477 -0.08213314
000220 2b 30 bf 3d cf c3 25 3d f8 50 f6 3d d7 b6 58 bd
       0.09335359 0.04046994 0.12027162 -0.052908745
000230 8c 3f a1 bb 05 3b 1d bc 5b b0 66 3d 8d 81 16 bd
       -0.0049209055 -0.009596591 0.05632053 -0.036744643
000240 6c db 14 3d c5 1a a1 3d 2c 95 d0 bd bd 42 c2 bd
       0.03634207 0.07866434 -0.10184702 -0.094853856
000250 2d 79 2d bd 3f 9a 95 bd d4 b8 ac bc d5 bd cc bd
       -0.04235189 -0.07304811 -0.021084227 -0.09997145
000260 1a f0 49 be ad 23 f0 bd 31 29 1d 3e 5d 3f bf bd
       -0.19720498 -0.117255546 0.15347745 -0.093382575
000270 35 3d 2e bd 78 40 fe 3d 18 54 14 3d 5d 44 3d 3d
       -0.04253884 0.1241464 0.03621301 0.046207774
000280 2c 17 e6 3c 34 07 a3 bd 5f fa 9c 3d 74 6c 93 3c
       0.028087221 -0.07960358 0.07664942 0.01799605
000290 0a b8 9a bd 97 ca 78 bd aa d2 cc 3d 70 fc d2 bd
       -0.07554634 -0.06074008 0.100011185 -0.10302055
0002a0 2c a8 01 be a8 4f 5c 3e 97 e8 4f 3d 90 69 9d bc
       -0.12661809 0.21514761 0.050758924 -0.019215375
0002b0 31 a6 91 3d 7d 25 52 3e e4 d2 13 3d 63 ff ce 3d
       0.071117766 0.20522113 0.036089793 0.10107305
0002c0 fe 85 05 be 4b ce 87 bd f4 01 cf 3d f2 1b 0d 3e
       -0.13039395 -0.06631144 0.101077944 0.13780192
0002d0 47 0d f7 bc b3 3c 29 3c 8b 38 d5 3d b4 6d 42 bd
       -0.030157698 0.010329413 0.10411175 -0.047467902
0002e0 bf d1 44 3c 32 c1 2f 3d 10 84 8d 3d e0 00 b6 3d
       0.012012898 0.042908855 0.069099545 0.08886886
0002f0 fc 80 e5 3d f7 77 9f bc 02 16 e8 bb 4b d0 0b 3d
       0.112062424 -0.019466383 -0.0070827017 0.03413419
000300 0c 74 ca bb d2 cf 9a 3d ff 50 d6 3a 27 0c c3 bd
       -0.0061783846 0.0755917 0.0016351043 -0.09523802
000310 44 05 bf 3d 78 3f 0a 3d 76 31 c3 3d a3 39 42 3c
       0.09327176 0.033751935 0.09530918 0.011854562
000320 eb 3a 08 3e a2 69 ce 3d 4d ac 31 bd 34 7f bc 3d
       0.13303725 0.100787416 -0.04337721 0.092039496
000330 88 cf 2e be 7f d1 34 3d 5b c8 dd bd 78 21 81 3b
       -0.17071354 0.044145104 -0.108292304 0.0039407574
000340 38 aa b3 bd 37 ce eb bd c7 aa 89 bd 06 08 9a 3d
       -0.08772701 -0.11513942 -0.06722026 0.075210616
000350 14 81 aa bd 94 d1 ad 3d c8 79 63 3d dc 70 2b bd
       -0.08325401 0.084872395 0.05553606 -0.041855678
000360 41 18 b1 bd 96 72 ff bd f3 17 11 3b 9b c3 5f bc
       -0.08647204 -0.124730274 0.002213952 -0.013657476
000370 ea 66 3b bd 49 26 f4 bd 74 0e b1 3d f2 0b 77 3d
       -0.045752443 -0.11921365 0.08645335 0.060314126
000380 2b 32 06 3b 9f 47 53 3d ef 95 d4 bd 10 5b 0b be
       0.002047668 0.051581975 -0.1038016 -0.13608956
000390 47 63 f9 bd d7 5e 7a be ba b4 ec 3b b1 37 20 bc
       -0.12177139 -0.24450241 0.0072236927 -0.009778903
0003a0 ce ca 48 be 73 41 99 bc 08 e0 39 bd ea b3 e0 bd
       -0.19608614 -0.018707966 -0.04537967 -0.10971816
0003b0 40 fe a5 bd 3c e0 cf bd ab 52 26 3a 50 a9 0c bd
       -0.08105135 -0.10150191 0.0006344716 -0.034341156
0003c0 4f 7b bd bd be ff bc bd 79 b4 56 3d 9f 0a 03 3e
       -0.09252035 -0.092284665 0.052418206 0.1279702
0003d0 74 81 15 3d 7b 70 8c ba 60 a5 0c 3e ef 33 27 bc
       0.03650041 -0.0010714674 0.1373496 -0.010205253
0003e0 1e 4e 43 bd 87 a9 bb bc 09 19 1b be 3e 44 8a bd
       -0.04768192 -0.022907985 -0.15146269 -0.067512974
0003f0 13 1f df 3d 8d 88 56 3d bb e8 c9 bd 6d e2 fa 3d
       0.10894599 0.05237632 -0.09858843 0.122502185

manager.M_goals.bias f4 [64]
000000 a0 68 2d 3b b5 98 35 3b 8f a5 0d bb 30 13 75 bb
       0.0026460066 0.0027709429 -0.0021613573 -0.003739547
000010 84 0c 5b 3b 85 99 b8 3a a7 48 ba 3a 44 27 95 bb
       0.0033424208 0.0014083838 0.0014212326 -0.0045518
000020 b9 26 f5 3a 5c 2c 64 bb 48 a8 06 bb fb a0 8f bb
       0.0018703557 -0.003481648 -0.002054708 -0.004383204
000030 f9 c8 3d 3b b4 f0 5f bb b7 85 c8 3a d2 65 90 3a
       0.00289589 -0.003417057 0.0015298639 0.0011016673
000040 9f 91 1c 3b f4 66 b5 ba 35 19 82 3b 46 56 63 bb
       0.0023890508 -0.0013839887 0.00397029 -0.0034688874
000050 d8 9c 0a bb 4c a3 12 3b 10 dc 8e bb 06 7d f0 ba
       -0.0021150615 0.0022375165 -0.0043597296 -0.0018347807
000060 1d a0 c9 ba d7 29 9b bb c3 d3 be ba c6 cc 5b 3b
       -0.00153828 -0.0047352123 -0.001455896 0.0033538803
000070 5d 98 47 3b 18 f8 a4 bb 2e 3f 54 3b 95 88 b7 3a
       0.0030455806 -0.005034458 0.003238629 0.0014002497
000080 c1 73 64 3b ee 2f e9 3b 62 e7 a1 bb d3 69 69 bb
       0.0034859034 0.0071163094 -0.004940913 -0.0035616055
000090 4f 5b 73 bb 53 71 29 3b 8a 10 85 bb 47 61 90 b9
       -0.0037133282 0.00258549 -0.0040608095 -0.00027538298
0000a0 c3 f8 19 bb 8e f1 e4 b9 bb 4f f4 3a a0 59 62 3a
       -0.002349422 -0.0004366752 0.0018639484 0.0008634571
0000b0 47 ea 6c 3b 40 ab 1b bb 1c 82 0a ba e8 37 86 3b
       0.0036150382 -0.0023753196 -0.000528367 0.00409602
0000c0 dc 60 04 3b 56 af 36 ba 91 4d 45 bb 54 a3 84 bb
       0.0020199334 -0.0006968876 -0.0030106048 -0.0040477905
0000d0 41 3a b8 3b da 37 57 3b 27 10 3a 3b c6 55 14 3a
       0.005622179 0.0032839687 0.0028390975 0.0005658533
0000e0 14 8e 10 bb 38 24 42 3b ec 73 31 3b 8d 74 82 ba
       -0.0022057341 0.002962364 0.0027077151 -0.0009952948
0000f0 15 cd ca b9 be 38 76 bb 86 a8 b0 3a a4 c6 10 bb
       -0.0003868124 -0.0037570442 0.0013477958 -0.0022091055

manager.M_value.weight f4 [1, 64]
000000 5e e4 25 be 0c 36 d2 bd 8a 02 49 3b 9a 73 a9 3d
       -0.16200396 -0.10264215 0.003067168 0.082740024
000010 60 6a 1a be 15 57 fb bd 55 06 e1 bd 8c 87 75 3e
       -0.15079641 -0.12272469 -0.10987536 0.23977488
000020 c1 b8 43 bd 75 ce c4 3d 26 43 9c 3d 5a 4d 8d 3d
       -0.047783617 0.09609691 0.07629995 0.06899519
000030 e5 1d 05 be c6 d5 ab 3d ee a6 2b be 6e 95 2b be
       -0.12999685 0.083903834 -0.16762897 -0.16756222
000040 1f 20 15 be 3d 68 84 be fa 50 e2 bd e9 f0 85 3d
       -0.14563034 -0.25860777 -0.11050601 0.065400906
000050 d6 bc ee bc 91 c8 0a be 36 80 53 3e 16 0c 3b 3d
       -0.029142778 -0.13553073 0.20654377 0.045665823
000060 3d 3a fb 3a 6c 98 12 3e 17 45 d8 3d 4c 02 87 bd
       0.0019167137 0.14315957 0.10560053 -0.06592235
000070 08 df b9 3d ab ea 3f 3e a6 49 84 bd 1a ec 88 bc
       0.09075743 0.18741862 -0.0645936 -0.016714144
000080 e9 34 8e bd 81 a2 03 be 5e a4 10 3e 28 32 75 be
       -0.069436856 -0.12854959 0.14125201 -0.23944914
000090 0c 71 ea 3d d4 e0 9a bc 26 43 1b 3e 8a bc 0a 3e
       0.11447343 -0.018906035 0.15162334 0.13548484
0000a0 19 34 3d 3e d3 11 64 bd 99 2c 07 bd 46 b9 5e be
       0.18476905 -0.05568106 -0.033001516 -0.21750364
0000b0 fd c1 db bd 34 8b 6a 3d 27 11 8a 3d ba 2b f7 bd
       -0.1073036 0.05726166 0.06741553 -0.12068887
0000c0 fb 74 55 ba 4b 48 84 bc a2 03 bc 3d 18 e1 4d 3d
       -0.00081427366 -0.016147753 0.091803804 0.050263494
0000d0 b4 b0 a1 bd 67 8c d2 bd ea 2a 30 be 5c ea 98 3e
       -0.078950316 -0.10280686 -0.1720387 0.29866302
0000e0 1c cd 20 3d 4b 15 ab bc 23 d8 80 bc 04 73 82 3d
       0.039258108 -0.020884177 -0.015728062 0.06369594
0000f0 aa ce 0d 3d 9c 53 a5 3d 37 25 bf bd 64 64 34 3e
       0.03462092 0.08072588 -0.0933327 0.17616421

worker.f_stateW.weight f4 [40, 64]
000000 05 36 27 bd d8 c1 10 be 89 7d 42 be 3c 16 96 bd
       -0.040823 -0.14136446 -0.189932 -0.073284596
000010 08 42 66 3d 5f cb 43 3e 40 04 88 bc ed 73 bc 3d
       0.056215316 0.19120549 -0.016603589 0.092017986
000020 74 78 54 be 83 65 a4 bd 57 66 eb 3d b4 c8 2d be
       -0.20749074 -0.08027174 0.11494129 -0.16971093
000030 97 54 ce bd 3f e5 6a 3e 17 83 9d 3c 57 93 be 3d
       -0.10074728 0.22939013 0.019227548 0.093054466
000040 ac d0 0c be fd 57 7e 3d 5c a8 3f be 7f 9e 1d bd
       -0.13751477 0.06209563 -0.18716568 -0.03848123
000050 b6 e7 93 bd 6a 99 7e 3d e7 2e 1d 3d 7d 4a 98 be
       -0.0722193 0.062158026 0.038374808 -0.2974433
000060 da 8f fd 3c a4 a1 bb 3e 7f fa ac bd 52 43 4d bd
       0.030952383 0.3664676 -0.08446216 -0.05011303
000070 2b ea b0 bc 70 54 0f be 85 dd 1d 3d ad 11 a5 3d
       -0.021596035 -0.13997054 0.038541336 0.08060012
000080 7b fa 1c 3e fd d2 a4 bc 13 1d a5 3b 89 24 31 be
       0.15329926 -0.020120138 0.0050388663 -0.17299093
000090 9c dc 59 3d 3b 65 62 be a2 2d 16 3d c2 6b b2 3d
       0.053188905 -0.22108929 0.036664613 0.087119594
0000a0 58 86 17 3d 19 01 21 be de 18 5a 3e 57 fe 5d 3d
       0.036993355 -0.15723075 0.21298549 0.054197636
0000b0 a4 a6 b4 3c f2 d1 0e be 41 b9 b3 bd 35 8b 96 3c
       0.022052117 -0.13947275 -0.08775569 0.018376926
0000c0 ee 21 82 3d 6d 9e 8f bd d2 b7 3b bd 21 2f 89 3c
       0.06354128 -0.07012639 -0.0458296 0.016746106
0000d0 44 27 c6 3c 6e 95 b7 bd b0 2e 2b bd e4 08 39 3e
       0.024188645 -0.08964048 -0.04179257 0.18069798
0000e0 bc 59 5e 3c 15 1f 72 3e b3 27 33 3d e8 36 80 3d
       0.013571199 0.2364467 0.043739032 0.062604725
0000f0 9a f6 ab 3b e1 48 18 be 7c d6 40 be 1a 81 ad 3d
       0.005247903 -0.14871551 -0.1883182 0.0847189
000100 3b 90 a7 3c 81 d9 03 3e 28 a8 36 3e 53 77 a4 3c
       0.020454517 0.1287594 0.17837584 0.02007643
000110 35 57 3a be 4a f6 98 bc a9 c1 cd bd ed d2 bb bd
       -0.1819733 -0.018672127 -0.10046703 -0.0917109
000120 c6 7b c7 bd 87 b3 43 be 0c 3d 30 3e 67 3d 72 bd
       -0.09740405 -0.19111453 0.17210788 -0.05914059
000130 47 22 9e bd 31 71 4e bd 5b de 01 be 84 39 02 bb
       -0.07721382 -0.050400916 -0.12682478 -0.0019870708
000140 e6 a1 15 be e6 51 6f 3e 8d 9f 52 3e db fe 46 3d
       -0.1461254 0.23371086 0.20568676 0.048582893
000150 92 39 3e be e7 76 f4 bc 82 da d0 3d e3 15 18 3d
       -0.18576649 -0.029841853 0.10197927 0.037130248
000160 27 47 7b 3e d6 d5 62 3e 4c 0d 80 bd 5b 4e a8 3b
       0.24538861 0.22151884 -0.06252536 0.005136294
000170 bd c3 90 be a7 0e db 3d 60 ea 1d be c6 60 ea bd
       -0.28274336 0.10696154 -0.15421438 -0.11444239
000180 26 cb 5b be 5c 39 55 be 31 55 a1 bc 4d 11 13 be
       -0.21464214 -0.20822662 -0.019693943 -0.14362068
000190 fc 2c 13 3e 09 4b 29 bc 33 e4 db bc a3 78 e4 3d
       0.14372629 -0.010332831 -0.026842212 0.11155822
0001a0 bb 58 bf 3d d3 4c 41 3c f9 d2 6b be 72 c2 72 3d
       0.09343096 0.0117981015 -0.23029698 0.05926747
0001b0 d4 2e 3a 3d 9a 4a a1 3d be 7f bc 3d 56 a9 ba 3d
       0.045454815 0.07875557 0.092040524 0.091143295
0001c0 04 e5 2d bb 76 6a c6 bd 25 93 05 3e a2 10 1e be
       -0.002653421 -0.096882746 0.13044412 -0.15436032
0001d0 cb da 49 bd 9a a1 ee bc a2 cc 5f be 28 64 76 bd
       -0.049280923 -0.029129792 -0.21855405 -0.06015411
0001e0 3f e0 ca bd 6f 40 20 3d 48 48 59 3c 10 81 2a bd
       -0.09906053 0.03912395 0.013261862 -0.04162699
0001f0 3f 2b e3 3d a0 93 fb bd 42 00 c0 3d 6b 34 2c bd
       0.11092233 -0.122840166 0.09375049 -0.042042177
000200 34 b9 18 bd ee 90 1e be 96 29 af 3d 11 a4 96 bd
       -0.037286 -0.15484974 0.08552854 -0.07355512
000210 42 f5 3a 3d b7 89 02 3d 12 42 6d 3e 93 6f 07 3e
       0.045644052 0.031869616 0.23169735 0.13226156
000220 49 92 ce bd c9 2f 8d 3c 5c 25 88 bd cc 2a 15 3e
       -0.100864954 0.0172347 -0.06647751 0.14567107
000230 f5 92 8f bd 2b d8 07 3e 8e f6 07 bd 43 71 3d 3d
       -0.07010452 0.13266055 -0.033194117 0.046250593
000240 56 16 86 3e 7c 7b 3e 3d 64 ca 43 bc b2 00 5b be
       0.26188916 0.046504483 -0.011950109 -0.21386984
000250 ac 3a 68 3c f5 12 16 3d c1 4e e8 bd 0e 13 3a 3d
       0.014174145 0.036639173 -0.11343146 0.04542833
000260 55 70 fd 3d 25 ac 8c bd ba b9 aa be f0 49 f9 3d
       0.12374941 -0.068687715 -0.33344823 0.121723056
000270 1d a4 04 be 94 1b 35 be ae bd 16 be 5b 0b 23 3e
       -0.12953229 -0.17686301 -0.14720795 0.159223
000280 9e ee 25 be ab fd c7 3d 5f d9 ea bd 03 1c cc 3d
       -0.16204306 0.0976518 -0.114672415 0.0996628
000290 58 f2 87 3c 7b b7 12 3d 5a e9 1a 3e ac 04 8f bd
       0.01659505 0.03581951 0.15128079 -0.06983313
0002a0 05 e3 31 3d bc c6 d6 3d 52 7c 0a 3d 85 31 cb 3d
       0.043429393 0.10487124 0.033809967 0.099215545
0002b0 40 41 3e 3e 2f de 38 3e 3d 9f 95 bd 7f 19 42 3c
       0.18579578 0.18053506 -0.07305763 0.011846899
0002c0 52 83 cd bc 8f 07 c5 3d 6f 82 7d 3e 41 ae d9 bd
       -0.025087032 0.09620582 0.24756788 -0.106289394
0002d0 bf f4 43 bd 33 19 47 bd 7f e6 92 bd 56 f5 0b be
       -0.04784083 -0.048608016 -0.0717287 -0.13667807
0002e0 90 ba 99 3e 32 ff d2 3c 6c a1 21 bd 48 76 d9 bd
       0.30025148 0.025756452 -0.039460585 -0.106182635
0002f0 bc 88 e8 3c 66 90 20 be 34 e6 17 be 8a 89 84 3d
       0.028385513 -0.15680084 -0.1483391 0.06471546
000300 3b ce 02 3c 52 1c ed 3d 95 54 0c 3e 8e 3b df 3c
       0.0079837395 0.11577667 0.1370414 0.027250078
000310 d0 cb 54 3d 06 eb 91 3e 41 13 c6 3d e3 3a 04 3e
       0.051952183 0.2849962 0.09671641 0.12913089
000320 90 79 3d 3e 3a e5 e6 3c f9 80 4d be 6c 22 5d bd
       0.18503404 0.028185476 -0.2006873 -0.053987905
000330 2e f0 97 be 2d 7c 24 bd c3 05 03 3d c8 2c 8b bd
       -0.2967543 -0.040157486 0.031987917 -0.06795651
000340 0e 3b 80 3d d0 c1 34 3e 43 1d 3b bc 40 c5 54 3e
       0.06261264 0.17652059 -0.011420551 0.2077837
000350 a9 99 73 3e d1 dc 8d be 25 ae 61 3d 38 2b 02 3e
       0.23789085 -0.27707532 0.055097718 0.12711799
000360 47 4e 1b be f8 ce 2a 3e c0 6d 76 3d ff 54 3b bc
       -0.15166579 0.16680515 0.06016326 -0.011433839
000370 f3 0e ad bd fd ef bd bd fa 33 1e be 8c 2c 3c bd
       -0.08450117 -0.0927429 -0.15449515 -0.04594092
000380 f5 ae b2 3c 4b 17 ac bc 72 04 ef bb 85 82 2f be
       0.021811942 -0.0210072 -0.007294231 -0.17139633
000390 99 8c 0b bd cd 97 ec 3d 92 b0 80 bd 99 b7 29 bc
       -0.03406963 0.11552391 -0.06283678 -0.0103587145
0003a0 84 8e 87 be 9a 57 03 be 29 73 62 bd 47 e7 1a 3e
       -0.26475918 -0.12826386 -0.055285607 0.15127288
0003b0 36 d4 da 3d 47 e4 26 be 18 d8 21 3c ef a8 2e be
       0.10685007 -0.16298018 0.009878181 -0.1705663
0003c0 ca 01 5f be e6 89 8c 3d f0 fa 4f 3d 59 0e ce bd
       -0.21778026 0.068622395 0.050776422 -0.1006133
0003d0 de 1d d1 3d 89 bf ce bd 82 f4 9d 3b f1 7f a8 3d
       0.10210775 -0.10095126 0.0048204074 0.08227528
0003e0 65 00 aa 3d 17 2e 59 bd ef 05 c0 bd c2 8e f9 ba
       0.083008565 -0.05302247 -0.09376132 -0.0019039738
0003f0 f2 ba be bd 3b 25 76 3c a4 e7 79 bb 1a dc f2 3c
       -0.09313001 0.015023525 -0.0038132453 0.029645968

worker.f_stateW.bias f4 [40]
000000 ce bb 19 bb fd fe f5 bb 09 49 42 bb 43 8e 81 3b
       -0.0023457888 -0.0075072036 -0.0029645583 0.0039537265
000010 f4 9c 95 bb 93 4b 2f bc 00 00 00 00 0e d3 c1 bb
       -0.0045658294 -0.010699171 0.0 -0.0059150523
000020 01 b8 86 3a 02 88 1f bc 0f 89 66 3b 62 84 23 bb
       0.0010278226 -0.009737017 0.0035176908 -0.0024950732
000030 9b 5b 27 bc ad f3 2c 3b e4 4e 0d bc 8f 98 b7 3b
       -0.010214712 0.002639036 -0.008624766 0.005602903
000040 05 b1 bc 3a 01 c6 ef bb a5 a7 53 bc 25 2d df 3a
       0.0014396018 -0.007317305 -0.012918388 0.0017027004
000050 99 c4 74 39 4e df b2 3b ef e9 ae ba 4e 4a 66 3b
       0.00023342892 0.005458749 -0.0013344864 0.0035139504
000060 fe 15 21 3c 6c 70 64 ba fd 6c 86 3b 27 31 0c bb
       0.0098319035 -0.0008714262 0.004102348 -0.0021391602
000070 31 59 da 3b 81 34 11 3b 91 ab a2 3b 19 72 a8 bb
       0.0066634645 0.002215654 0.0049643 -0.0051405546
000080 7c 75 d4 3a 5e 2d 68 bb 51 ca 1a bc 95 3a 82 3b
       0.001620933 -0.0035427432 -0.00944765 0.0039742687
000090 7d be 8c bb 47 3b 95 3b 7b 45 0b 37 70 cd 3b 3b
       -0.004295169 0.0045541856 8.301223e-06 0.0028656386
