vwgym/saved_model/vwgym_f_net_step_10500000.pt (torch_old, 160590 bytes, 30 tensors)

f_percept.percept.0.weight f4 [16, 3, 3, 3]
-0.041985642 0.2128866 0.058837146 -0.053971875 0.3187122 0.18063042 0.26304734 -0.25673568
0.038348354 0.024116721 -0.22478978 -0.21673128 -0.23094267 0.16642424 0.23461094 0.1899182
-0.34506127 -0.33102536 0.20373358 -0.022086395 0.098796934 -0.1964457 -0.19721285 -0.14423198
0.14289454 0.054937597 0.057148863 -0.33615693 0.1540308 -0.25514227 -0.24860619 -0.20077784
-0.22023958 -0.13947812 0.0968824 0.24809018 -0.06493485 -0.016754443 -0.08271614 -0.1294754
-0.14903946 0.08707852 0.29584527 0.08681962 -0.2929499 -0.066206366 0.40833053 0.07876287
0.10181329 0.30443233 -0.05328869 0.19247536 0.020058917 -0.019567745 -0.04386235 -0.46890402
0.027276255 -0.34805766 0.06495979 0.32990247 -0.14182548 0.033915494 0.040374428 -0.08235542
0.10714877 0.16774926 -0.26081452 -0.10456465 -0.05771422 -0.41697964 -0.045141343 -0.32123548
0.07873457 -0.093773365 0.14354353 -0.09054991 0.19960725 0.026397496 0.06804113 0.07483949
0.1366943 -0.039160434 -0.055766463 -0.0757027 0.16462168 -0.10507289 -0.07099502 -0.08938492
-0.24903178 0.26966336 -0.41277054 0.20100161 0.008879777 0.15523401 -0.011459461 -0.35498565
-0.049796876 -0.17704591 0.03171499 0.03872433 -0.066198364 -0.09044475 -0.049229864 -0.25987974
-0.054118216 0.5397176 0.15991889 -0.046718363 -0.008778701 -0.37210688 -0.1239286 0.35587522
0.035031397 -0.32162327 0.18674275 0.20638125 0.020473797 0.0060667684 0.16207899 -0.21691515
-0.040952798 0.11388096 0.05110979 0.07120164 -0.0026911886 -0.30761454 -0.030225432 -0.23560368
-0.123166315 -0.34298486 0.22468236 -0.03065094 -0.016858706 -0.14445598 -0.29333523 -0.21355067
0.079426624 -0.10600557 -0.111652374 -0.028980242 -0.39561936 0.112866305 0.15569359 -0.07755815
-0.01738413 0.13814883 0.047116585 0.036396783 -0.038033627 0.26508057 -0.15973304 -0.25482538
0.35241202 0.32736173 -0.20982023 0.2673769 -0.1216143 0.09908025 0.20344129 0.165775
-0.07312237 0.30524886 -0.16121168 -0.019130733 -0.2082957 0.19747536 0.32061026 -0.075554945
0.15905108 -0.17445982 0.05513429 -0.11405313 -0.113363266 0.40470898 -0.07070833 -0.078314826
0.012173948 0.085071795 0.091116555 -0.22798894 -0.13191444 -0.1444253 0.0074830926 0.3180887
-0.09084785 0.53145033 -0.029858273 -0.1502387 0.038237415 -0.059831917 -0.024949364 -0.10026376
0.043634467 -0.26969656 0.36579534 0.048087418 -0.31728476 0.19987033 -0.07498158 -0.10497523
-0.25761074 0.30583206 -0.06184686 0.25780874 -0.010979735 0.29553086 0.0623657 -0.15120329
-0.1800654 0.20848799 -0.24164924 0.11842843 0.14860557 0.04372027 -0.2952071 0.10550973
0.14199944 0.0040866532 0.20565827 0.0075792745 -0.24411254 -0.23197523 -0.007790958 -0.28033412
0.22920635 0.00055702694 -0.07466274 -0.23165531 -0.15649763 -0.002801457 -0.0778898 -0.1515692
-0.4235418 0.013072408 -0.2723936 -0.09883379 0.2848958 0.23284476 0.17729755 0.17437854
-0.28560475 0.123543836 -0.14652783 0.16024293 -0.02955292 -0.24860696 -0.14524625 0.06862908
-0.3997094 -0.23528624 -0.43343937 0.0512893 0.13232376 -0.12044512 0.15598214 0.035423856
00000000: 23f9 2bbd f2fe 593e 38ff 703d 9d11 5dbd
00000010: 3f2e a33e 2ef7 383e 24ae 863e dc72 83be
00000020: 2a13 1d3d 6e90 c53c 4b2f 66be ceee 5dbe
00000030: 3c7c 6cbe 1e6b 2a3e da3d 703e eb79 423e
00000040: dfab b0be 287c a9be 899f 503e 87ee b4bc
00000050: 0c56 ca3d 1029 49be 2af2 49be 8cb1 13be
00000060: f252 123e 3f06 613d ed14 6a3d c31c acbe
00000070: 40ba 1d3e 02a2 82be 9f92 7ebe b598 4dbe
00000080: 7c86 61be 5ad3 0ebe 486a c63d 5a0b 7e3e
00000090: 90fc 84bd 9d40 89bc 1467 a9bd 3395 04be
000000a0: cd9d 18be 3956 b23d 0879 973e 7cce b13d
000000b0: 87fd 95be 3497 87bd b310 d13e 6d4e a13d
000000c0: 7c83 d03d 8ede 9b3e 3e45 5abd 4318 453e
000000d0: 9952 a43c 894c a0bc 02a9 33bd 3014 f0be
000000e0: 7472 df3c 9d34 b2be a309 853d fae8 a83e
000000f0: b33a 11be f9ea 0a3d a85f 253d f5a9 a8bd
00000100: d070 db3d 76c6 2b3e 7b89 85be fe25 d6bd
00000110: bf65 6cbd 5b7e d5be 21e6 38bd fa78 a4be
00000120: 973f a13d 400c c0bd 13fd 123e 3b72 b9bd
00000130: d865 4c3e 903f d83c 2659 8b3d 7245 993d
00000140: 97f9 0b3e b166 20bd 606b 64bd 040a 9bbd
00000150: 9692 283e 7530 d7bd d665 91bd 710f b7bd
00000160: 3002 7fbe 5111 8a3e a956 d3be 5ed3 4d3e
00000170: 7c7c 113c aaf5 1e3e 77c0 3bbc aec0 b5be
00000180: cff7 4bbd 864b 35be 94e7 013d 679d 1e3d
00000190: 0293 87bd 193b b9bd 41a5 49bd f50e 85be
000001a0: 10ab 5dbd ef2a 0a3f c7c1 233e c15b 3fbd
000001b0: 8ad4 0fbc cb84 bebe 47ce fdbd 4735 b63e
000001c0: 157d 0f3d ceab a4be 7e39 3f3e 9b55 533e
000001d0: aab8 a73c becb c63b 09f8 253e 011f 5ebe
000001e0: 1fbe 27bd 6c3a e93d 8058 513d 2ad2 913d
000001f0: a75e 30bb a77f 9dbe 539b f7bc 1742 71be
00000200: 9f3e fcbd b69b afbe 2213 663e ae17 fbbc
00000210: 451b 8abc 45ec 13be 0930 96be 07ad 5abe
00000220: 6daa a23d 7319 d9bd 00aa e4bd f967 edbc
00000230: 9f8e cabe 7326 e73d 246e 1f3e cfd6 9ebd
00000240: 2a69 8ebc e376 0d3e 52fd 403d cb14 153d
00000250: 26c9 1bbd a4b8 873e 0f91 23be 7978 82be
00000260: 596f b43e f59b a73e 1ddb 56be a0e5 883e
00000270: eb10 f9bd 96ea ca3d ea52 503e ecc0 293e
00000280: 2ec1 95bd 9449 9c3e ad14 25be 0eb8 9cbc
00000290: 784b 55be fb36 4a3e 0727 a43e 8dbc 9abd
000002a0: 49de 223e 98a5 32be 7ed4 613d b094 e9bd
000002b0: 002b e8bd 0436 cf3e 87cf 90bd 8663 a0bd
000002c0: 3d75 473c 1f3a ae3d 519b ba3d ef75 69be
000002d0: 9414 07be 3ae4 13be bb34 f53b 86dc a23e
000002e0: 700e babd 210d 083f 5699 f4bc 2cd8 19be
000002f0: d69e 1c3d 5012 75bd 9c62 ccbc 1657 cdbd
00000300: 0eba 323d ab15 8abe 8749 bb3e 50f7 443d
00000310: 2673 a2be cfaa 4c3e f18f 99bd 41fd d6bd
00000320: 8ee5 83be 0596 9c3e 2253 7dbd 82ff 833e
00000330: 59e4 33bc d24f 973e 2d73 7f3d 09d5 1abe
00000340: 1063 38be e07d 553e e672 77be 9b8a f23d
00000350: 0f2c 183e 0714 333d 6325 97be 7c15 d83d
00000360: 4d68 113e 55e9 853b 1598 523e 905b f83b
00000370: a3f8 79be ea8a 6dbe 4b4b ffbb f487 8fbe
00000380: 12b5 6a3e 7205 123a c7e8 98bd 0d37 6dbe
00000390: ea40 20be a698 37bb b084 9fbd f534 1bbe
000003a0: 79da d8be a72d 563c 2d77 8bbe 5f69 cabd
000003b0: dddd 913e db6e 6e3e 7d8d 353e 4a90 323e
000003c0: c93a 92be 8d04 fd3d 640b 16be b916 243e
000003d0: f718 f2bc d392 7ebe 6fbb 14be 678d 8c3d
000003e0: b6a6 ccbe e0ee 70be c4eb ddbe bb14 523d
000003f0: e17f 073e eeab f6bd c8b9 1f3e 9b18 113d

f_percept.percept.0.bias f4 [16]
-0.0036802099 -9.800076e-05 -0.002127031 -0.002389563 -0.0054576737 0.004007657 -0.0026604128 0.005558196
-3.495287e-05 0.0039885533 5.6659916e-05 0.0019143925 -0.0021102878 0.006727547 -0.0022414087 0.0021458787
00000000: ad2f 71bb c285 cdb8 a965 0bbb 379a 1cbb
00000010: 49d6 b2bb aa52 833b 525a 2ebb 8721 b63b
00000020: 5c9a 12b8 69b2 823b 1fa6 6d38 5aec fa3a
00000030: c14c 0abb c172 dc3b 99e4 12bb dfa1 0c3b

f_percept.percept.3.weight f4 [64, 16]
0.069743395 -0.15185101 0.034463115 -0.14050315 -0.08460902 -0.06268357 -0.048561826 0.15541291
-0.07595242 0.09846085 -0.24470602 -0.17607062 -0.023929227 0.0120146405 0.08168869 0.06681119
-0.08879986 0.120817825 0.1513252 0.06599821 0.1137052 0.0012465528 -0.17690419 -0.1817821
0.11454718 0.02852695 0.10553823 0.032118272 0.023533093 0.16037379 -0.07774172 -0.06577962
-0.009733149 -0.13740589 -0.14125228 -0.03172951 0.045134798 0.14050399 -0.11830041 0.021617148
0.030806497 -0.099981494 0.0069438713 0.13267665 -0.005068314 -0.041070662 0.05229543 0.031440433
-0.05106652 -0.09586005 0.10547894 -0.02893687 -0.2915945 0.21634297 0.033339493 0.20526072
0.10774913 -0.06682008 -0.09725613 -0.014353908 -0.19164902 -0.059112143 -0.077448115 -0.14474173
0.10460143 -0.12203807 -0.07895294 0.10060756 0.021440798 -0.13277863 -0.20350832 -0.15679605
-0.19106203 0.0009459218 0.15215646 -0.0051875436 -0.06429485 0.20799972 0.0008344896 0.0031187886
0.3328907 0.18087937 0.15650387 -0.18180163 -0.027228223 -0.22283374 -0.1142366 0.10321325
-0.080288336 -0.1174159 -0.028369455 0.10041075 -0.06342714 -0.12871829 0.006179949 -0.1744377
-0.09376191 -0.118866794 -0.018883517 -0.056481935 0.081731446 0.05513447 0.058444627 -0.2181357
-0.028784547 -0.04255202 0.0971065 0.15549028 0.031386483 0.018587206 -0.15250143 0.028589694
0.089816235 0.11435109 -0.13553984 -0.07040746 0.07885749 0.081352636 -0.18158278 0.06788219
-0.114318654 -0.38110125 0.06682849 -0.008048698 0.059134904 -0.108916454 -0.26476452 -0.14518544
-0.026788775 0.10888736 -0.28129458 -0.08479807 0.020367667 -0.084669314 0.08474444 -0.055523988
0.07667587 0.033863787 -0.0029600977 -0.15815549 -0.20053531 0.023804396 0.1376953 0.14743489
-0.0027056374 0.08562712 -0.07907032 -0.0992867 -0.004400061 0.045611702 -0.08574515 -0.013367617
-0.16874298 0.15260042 0.052340962 0.09406697 -0.11555295 -0.09407582 0.12663966 -0.00726781
-0.20235564 0.034724515 -0.12603879 -0.034608204 -0.40722495 -0.08919264 -0.1345814 0.041037567
0.046487205 0.12207857 -0.051002074 -0.14414936 -0.16190581 -0.0085189035 -0.01710806 -0.07020091
0.0684165 -0.28734344 0.12767285 0.051813595 -0.04914232 -0.14344952 0.2246213 0.030922413
0.12566629 0.018561099 -0.014655763 -0.015051883 -0.14660491 -0.19695005 -0.07360493 -0.1253329
-0.13022849 -0.25852895 -0.19930862 0.022378908 0.013212363 -0.05045302 -0.13772139 -0.08410239
-0.19360253 0.02920809 -0.019748626 0.022797007 0.14688934 -0.17859624 0.29261884 -0.05325664
0.07265421 0.1708576 -0.112499006 -0.16351706 -0.098705165 0.09985987 0.08211384 -0.20045303
0.051589068 -0.035728768 0.087911636 0.077753395 -0.23008966 -0.024964055 -0.035831463 0.0929794
0.041274857 0.013802474 -0.030477613 0.24381934 -0.065714076 0.18646641 0.12852658 0.051979307
0.105247416 -0.03265424 0.020025086 0.12534517 0.023033675 -0.041829742 0.11691614 -0.09339839
-0.10462514 -0.18112516 0.1699916 0.14987217 -0.089361124 -0.12879498 -0.06953757 -0.07277738
-0.019052194 -0.0021518948 0.014217879 0.016062545 0.0215857 -0.14841323 0.010712527 0.035006735
00000000: a0d5 8e3d d57e 1bbe 3229 0d3d 0fe0 0fbe
00000010: 7e47 adbd 3e60 80bd c4e8 46bd 9024 1f3e
00000020: f18c 9bbd d8a5 c93d 3794 7abe db4b 34be
00000030: 3a07 c4bc 0ed9 443c 664c a73d 4ed4 883d
00000040: b3dc b5bd 566f f73d fef4 1a3e 122a 873d
00000050: 46de e83d 5f63 a33a 5f26 35be 1625 3abe
00000060: b697 ea3d 5ab1 e93c 6d24 d83d 738e 033d
00000070: 79c8 c03c 0739 243e 0d37 9fbd 77b7 86bd
00000080: c977 1fbc 21b4 0cbe 70a4 10be cdf6 01bd
00000090: 44df 383d 47e0 0f3e 7c47 f2bd 7216 b13c
000000a0: e85d fc3c 19c3 ccbd 6a89 e33b 63dc 073e
000000b0: 1914 a6bb b639 28bd bc33 563d afc7 003d
000000c0: 212b 51bd 4652 c4bd 5805 d83d 040d edbc
000000d0: e04b 95be 0389 5d3e fe8e 083d de2f 523e
000000e0: 93ab dc3d f7d8 88bd 392e c7bd a72c 6bbc
000000f0: a43f 44be 931f 72bd 1e9d 9ebd 2d37 14be
00000100: 4639 d63d 18ef f9bd 14b2 a1bd 560b ce3d
00000110: 9da4 af3c 1ff7 07be 7c64 50be 258f 20be
00000120: c4a5 43be bdf7 773a e7ce 1b3e 45fc a9bb
00000130: 05ad 83bd e1fd 543e a6c1 5a3a 9764 4c3b
00000140: a670 aa3e 7138 393e 8d42 203e 352a 3abe
00000150: b90d dfbc 872e 64be e1f4 e9bd 7861 d33d
00000160: 366e a4bd bf77 f0bd 0f67 e8bc 27a4 cd3d
00000170: 17e6 81bd bace 03be 2b81 ca3b cc9f 32be
00000180: 3f06 c0bd 6f70 f3bd 9bb1 9abc 9a59 67bd
00000190: d162 a73d afd4 613d a263 6f3d f75e 5fbe
000001a0: 92cd ebbc 074b 2ebd c6df c63d d838 1f3e
000001b0: 1d8f 003d 3244 983c 5629 1cbe ef34 ea3c
000001c0: 93f1 b73d e730 ea3d f5ca 0abe c931 90bd
000001d0: 0980 a13d 369c a63d d6f0 39be d105 8b3d
000001e0: e61f eabd b41f c3be 60dd 883d b0de 03bc
000001f0: 7137 723d 970f dfbd 378f 87be 7eab 14be
00000200: 2274 dbbc 5600 df3d d805 90be 9caa adbd
00000210: 18da a63c 1b67 adbd 7e8e ad3d 1f6d 63bd
00000220: 3d08 9d3d c1b4 0a3d 33fe 41bb 83f3 21be
00000230: 2159 4dbe 7001 c33c ffff 0c3e 2cf9 163e
00000240: 1051 31bb 465d af3d 9fef a1bd d356 cbbd
00000250: 632e 90bb 56d3 3a3d 279b afbd d903 5bbc
00000260: f6ca 2cbe 4943 1c3e 7a63 563d 2fa6 c03d
00000270: 06a7 ecbd d3aa c0bd d4ad 013e cf26 eebb
00000280: 5136 4fbe 4b3b 0e3d 5010 01be 55c1 0dbd
00000290: ca7f d0be a1aa b6bd b5cf 09be 0217 283d
000002a0: 5e69 3e3d 5404 fa3d 8de7 50bd e49b 13be
000002b0: a3ca 25be df92 0bbc 3426 8cbc 7fc5 8fbd
000002c0: f31d 8c3d ae1e 93be acbc 023e 7e3a 543d
000002d0: 7549 49bd 6ee4 12be 2003 663e 0051 fd3c
000002e0: aaae 003e 720d 983c ba1e 70bc 2c9c 76bc
000002f0: 991f 16be 46ad 49be 2ebe 96bd 4557 00be
00000300: 9e5a 05be e85d 84be 8f17 4cbe f953 b73c
00000310: ab78 583c d3a7 4ebd d606 0dbe e03d acbd
00000320: be3f 46be ce45 ef3c dfc7 a1bc cac0 ba3c
00000330: 296a 163e efe1 36be 23d2 953e a223 5abd
00000340: bbcb 943d 4bf5 2e3e e165 e6bd 0471 27be
00000350: ef25 cabd 5583 cc3d 4d2b a83d 8f43 4dbe
00000360: 0f4f 533d 5458 12bd 040b b43d 2c3d 9f3d
00000370: a09c 6bbe 6b81 ccbc 03c4 12bd fc6b be3d
00000380: d30f 293d c623 623c 30ac f9bc c7ab 793e
00000390: 1a95 86bd 0df1 3e3e 799c 033e 41e8 543d
000003a0: f58b d73d 74c0 05bd a60b a43c 7c5a 003e
000003b0: 1eb1 bc3c aa55 2bbd bb71 ef3d a847 bfbd
000003c0: b545 d6bd e078 39be 4712 2e3e 1778 193e
000003d0: f702 b7bd d5e2 03be b769 8ebd 4f0c 95bd
000003e0: 5913 9cbc ce06 0dbb 1bf2 683c 9995 833c
000003f0: 7ed4 b03c a3f9 17be 9883 2f3c 3963 0f3d

f_percept.percept.3.bias f4 [64]
0.0019547925 0.002019791 0.003391888 -0.0011880792 0.003016969 -0.001319361 0.004753951 -0.00093355746
0.0060316664 0.00809461 -0.00042403358 -0.011189541 -0.0014296939 0.0020975089 0.0048966473 -0.023457777
-0.0050281845 0.0030995777 -3.038954e-05 0.0061143967 0.009218914 -0.0063656955 -0.010803982 0.0029688727
-0.0012901183 -0.003462957 -0.008511863 0.0032042635 -0.011953361 -0.0061767036 0.0036448517 -0.006000802
0.00060898083 0.0031348877 0.010190722 -0.0066207102 0.0005963735 -0.00029883368 -0.0018170313 -0.012967326
-0.0045058653 0.0008096089 0.0030175794 -0.0040529245 -0.004991246 -0.0026259185 0.0027086383 -0.0067842454
-6.0741688e-05 -0.009282816 -0.003818801 0.01196438 -0.0056683687 -0.012307824 -0.0040668542 -0.0018516966
-0.0012050937 -0.004971742 0.00034709353 -0.0038883765 0.006638164 -0.010106728 0.001747374 -0.0073551238
00000000: fa1b 003b 785e 043b 704a 5e3b 53b9 9bba
00000010: 57b8 453b 69ee acba 08c7 9b3b fbb9 74ba
00000020: 49a5 c53b 419f 043c d350 deb9 5654 37bc
00000030: 9164 bbba 5c76 093b 0e74 a03b 862a c0bc
00000040: 78c3 a4bb 4922 4b3b 0aed feb7 475b c83b
00000050: ee0a 173c 5397 d0bb 2f03 31bc 6b91 423b
00000060: 3019 a9ba c7f2 62bb 5775 0bbc 9ffe 513b
00000070: 08d8 43bc f265 cabb 77de 6e3b 60a2 c4bb
00000080: 03a4 1f3a b072 4d3b fcf6 263c 8bf2 d8bb
00000090: f355 1c3a c7ac 9cb9 7429 eeba e874 54bc
000000a0: f0a5 93bb ef3b 543a 95c2 453b 65ce 84bb
000000b0: 9b8d a3bb 9a17 2cbb 6983 313b 604e debb
000000c0: e4c4 7eb8 f416 18bc d944 7abb 3f06 443c
000000d0: b9bd b9bb c1a6 49bc 3f43 85bb a1b4 f2ba
000000e0: 3cf4 9dba ffe9 a2bb 1bfa b539 22d4 7ebb
000000f0: f584 d93b b196 25bc 2408 e53a 4003 f1bb

manager.M_space.weight f4 [64, 64]
0.19719104 -0.12332092 0.03132306 -0.10994449 -0.07761104 -0.075606585 0.010445279 -0.053610962
-0.13418 0.0637834 0.016765365 0.14658217 -0.18791854 0.031035125 -0.029567065 0.14704771
0.0172899 0.24930634 0.07791009 0.21168336 -0.038126435 0.085614726 -0.1471166 0.22507386
0.04355084 0.096098974 -0.051611338 -0.01720309 0.064746924 -0.12847424 -0.032398086 -0.12648232
0.07683136 0.19758373 0.13875331 -0.33425385 -0.08801408 -0.076139934 0.08087181 0.011939024
-0.036309127 -0.2807076 -0.09858414 -0.094201386 -0.114371814 0.027902419 0.07908257 0.04080415
-0.103967145 0.025141815 -0.05750573 -0.09963262 0.1939922 0.053950246 0.26552108 0.094703525
0.15224405 0.012582954 -0.14260773 0.045014683 -0.061146993 0.1990581 -0.09724783 0.09199058
-0.09703214 -0.056070235 -0.06313112 -0.018469088 0.100910716 0.14022613 0.12620662 0.16106272
0.27039668 -0.04670236 0.19968985 0.13293703 -0.2692367 -0.15782292 0.14643446 0.088076144
-0.057253577 -0.0073199365 0.029724892 -0.07062305 0.06636136 -0.05130488 -0.0005356974 -0.08076391
0.43395984 -0.19690266 -0.07382573 0.020704431 -0.058959667 -0.10217224 0.047046646 -0.2302683
-0.012084027 0.0457319 -0.13233627 -0.045336142 -0.05983081 0.17093098 -0.0010937047 -0.11411622
-0.10275752 0.11507042 -0.00033742713 -0.09776493 0.15018956 -0.17154539 0.0946637 0.10067919
-0.054049686 -0.045133337 -0.12525727 0.1245926 -0.009556151 -0.12849286 0.03086154 -0.13283934
0.0059373328 0.055384878 -0.030311607 0.08517962 -0.22017725 0.040391304 -0.06443534 0.1386419
-0.08896131 -0.07187603 0.19771884 0.17841764 0.20496482 0.085982606 0.14705688 -0.11959778
0.083416305 -0.2079995 -0.1402446 -0.16962697 -0.012530141 -0.0325296 0.079761356 0.030629389
-0.06642182 -0.014332474 -0.043913074 0.009670897 0.15657781 -0.018802436 0.28042105 -0.14238183
-0.11314726 0.24396737 0.025280269 0.025115957 -0.045875054 -0.060323417 0.054946497 -0.07584528
0.0070919944 -0.09554019 -0.14170893 -0.09768156 0.02595398 0.07818138 0.16493204 0.07218798
-0.24453881 -0.12552129 -0.011924091 -0.101045236 -0.051195133 -0.20193839 -0.097371355 -0.05360852
-0.22536518 -0.0952075 0.06614292 -0.2101267 0.023087192 -0.14750496 0.0666441 0.06585709
0.0857651 0.002800415 -0.022550995 -0.18288125 0.15384749 0.2191067 0.16551358 0.037934154
0.029592562 0.057240926 0.13701086 -0.15333934 2.7285658e-05 -0.118640356 -0.07738053 -0.018222895
-0.2906061 0.008075935 0.08804822 -0.102018036 0.060316388 0.109383956 -0.26064536 -0.0066830437
-0.06371951 0.21717834 -0.012770698 0.06652803 0.15280515 0.004224802 0.15827939 -0.04991514
0.19623762 -0.05535997 0.05470505 0.21281457 0.19356214 0.08129337 0.103585824 -0.1704519
-0.028758716 0.11866392 -0.06565239 0.14614533 -0.1527095 -0.053403813 0.112221494 0.108033106
-0.13940899 -0.0148259895 -0.12723793 -0.1622894 0.048539653 -0.010805075 -0.056460857 0.10722467
0.16899952 0.01003498 -0.016598804 -0.20740397 -0.14401916 -0.12806614 -0.19490778 -0.16333973
-0.25551584 0.17185242 -0.025433956 0.13261047 0.017885149 0.016914519 0.05527539 0.028788675
00000000: 73ec 493e ae8f fcbd 9c4c 003d 942a e1bd
00000010: 89f2 9ebd a0d7 9abd ad22 2b3c 2b97 5bbd
00000020: 7b66 09be dfa0 823d 8557 893c a319 163e
00000030: b86d 40be 603d fe3c a136 f2bc ad93 163e
00000040: 8ca3 8d3c 294a 7f3e 538f 9f3d 86c3 583e
00000050: 772a 1cbd c656 af3d bca5 16be c379 663e
00000060: 5e62 323d 8acf c43d 6966 53bd 7fed 8cbc
00000070: 099a 843d c08e 03be dbb3 04bd 9584 01be
00000080: c359 9d3d 6453 4a3e 5915 0e3e 5223 abbe
00000090: ba40 b4bd 41ef 9bbd 1fa0 a53d e59b 433c
000000a0: e1b8 14bd e8b8 8fbe 7be6 c9bd a8ec c0bd
000000b0: c53b eabd 9d93 e43c 0bf6 a13d 4122 273d
000000c0: baec d4bd 35f6 cd3c 218b 6bbd 300c ccbd
000000d0: e4a5 463e effa 5c3d 61f2 873e ecf3 c13d
000000e0: dde5 1b3e bc28 4e3c c307 12be 5161 383d
000000f0: 4575 7abd e3d5 4b3e df29 c7bd 8f65 bc3d
00000100: c9b8 c6bd e7a9 65bd e34a 81bd 7c4c 97bc
00000110: 47aa ce3d 7097 0f3e 4f3c 013e a0ed 243e
00000120: 6f71 8a3e f94a 3fbd 7f7b 4c3e a520 083e
00000130: 65d9 89be 559c 21be eaf2 153e 4461 b43d
00000140: ba82 6abd 14dc efbb 9e81 f33c d1a2 90bd
00000150: 77e8 873d 1125 52bd 0b6e 0cba 8d67 a5bd
00000160: fc2f de3e daa0 49be f231 97bd 579c a93c
00000170: b17f 71bd ae3f d1bd fcb3 403d 74cb 6bbe
00000180: 15fc 45bc 5f51 3b3d 2983 07be 64b2 39bd
00000190: 2711 75bd 8808 2f3e a45a 8fba c4b5 e9bd
000001a0: 8972 d2bd 0aaa eb3d b4e8 b0b9 fb38 c8bd
000001b0: 4bcb 193e 98a9 2fbe 0bdf c13d e430 ce3d
000001c0: 3463 5dbd bcdd 38bd 7143 00be 682a ff3d
000001d0: 6791 1cbc a293 03be 57d1 fc3c 0907 08be
000001e0: f58d c23b 41db 623d 0c50 f8bc a772 ae3d
000001f0: 2576 61be 5a71 253d adf6 83bd 24f8 0d3e
00000200: 5931 b6bd bd33 93bd cf76 4a3e 1db3 363e
00000210: 4ce2 513e a617 b03d 1496 163e aeef f4bd
00000220: 2bd6 aa3d d2fd 54be 489c 0fbe b1b2 2dbe
00000230: 384b 4dbc c23d 05bd ec59 a33d 7cea fa3c
00000240: 2a08 88bd c1d2 6abc 32de 33bd af72 1e3c
00000250: ef55 203e 9107 9abc 5993 8f3e 8bcc 11be
00000260: c0b9 e7bd 95d2 793e 9118 cf3c fbbf cd3c
00000270: 7be7 3bbd b015 77bd 940f 613d c554 9bbd
00000280: f663 e83b 93aa c3bd 251c 11be 450d c8bd
00000290: 719d d43c 8f1d a03d f2e3 283e 4bd7 933d
000002a0: 6268 7abe a788 00be 435d 43bc cef0 cebd
000002b0: fdb1 51bd f0c8 4ebe a26a c7bd 9c94 5bbd
000002c0: 21c6 66be 26fc c2bd f075 873d 742b 57be
000002d0: 5a21 bd3c 8a0b 17be b47c 883d 15e0 863d
000002e0: 9da5 af3d 2b87 373b ddbc b8bc 3945 3bbe
000002f0: 328a 1d3e 825d 603e 647c 293e d860 1b3d
00000300: 1a6c f23c 7675 6a3d 934c 0c3e fd04 1dbe
00000310: 81e3 e437 b7f9 f2bd af79 9ebd 2e48 95bc
00000320: 53ca 94be ed50 043c a052 b43d d5ee d0bd
00000330: 510e 773d b204 e03d 4f73 85be 6ffd dabb
00000340: 607f 82bd 0064 5e3e 313c 51bc d93f 883d
00000350: f478 1c3e 3570 8a3b fe13 223e d173 4cbd
00000360: 84f2 483e 23c1 62bd 6712 603d 10ec 593e
00000370: 2735 463e 237d a63d ce24 d43d f18a 2ebe
00000380: 6697 ebbc 1206 f33d c374 86bd 1fa7 153e
00000390: e15f 1cbe f5bd 5abd 62d4 e53d 7640 dd3d
000003a0: 3bc1 0ebe b5e8 72bc a94a 02be 312f 26be
000003b0: 84d1 463d c507 31bc 8043 67bd 9c98 db3d
000003c0: 360e 2d3e c269 243c 37fa 87bc b561 54be
000003d0: c279 13be c523 03be e895 47be 8842 27be
000003e0: f9d2 82be 15fa 2f3e df5a d0bc 0acb 073e
000003f0: e083 923c 5190 8a3c 7368 623d 3ad6 eb3c

manager.M_space.bias f4 [64]
0.00018666312 -0.00200607 -0.003988135 -0.00067167106 0.0028927035 0.004410627 0.0010620841 0.0026868319
-3.5372464e-05 0.0030194751 -0.001974879 -0.001577383 -0.0016121122 -0.008845577 -0.0022683055 0.0007806415
-8.014592e-05 0.000111104964 -0.007256977 -0.0034596543 -0.0013585016 0.00400545 -0.004091044 -0.002077991
-0.001979451 -0.0020817828 -0.0054423385 -0.0015965174 -0.00068510644 0.0024896585 -0.00085705466 0.004873591
-0.0009063852 0.00044725565 0.0032799311 0.010982923 0.0011678564 0.0010209451 0.0010247832 -0.0012459736
-0.0052780365 0.003841055 -0.012188769 0.0020089196 0.0078688795 -0.001750138 -0.003000103 0.001564655
-0.0054415776 0.001904157 0.0005720302 0.011544099 -0.0022863057 -0.00580256 -0.0042614145 -0.0069091436
0.0030699559 -0.0047975355 0.0012960704 0.00015636036 0.0005068482 0.0041311462 -0.004724268 -0.010389505
00000000: 00bb 4339 4578 03bb e7ae 82bb 1513 30ba
00000010: 8393 3d3b 0587 903b a135 8b3a 8f15 303b
00000020: e55c 14b8 63e2 453b f96c 01bb 31c0 ceba
00000030: 824d d3ba 0aed 10bc daa7 14bb f7a3 4c3a
00000040: 0314 a8b8 0601 e938 efcb edbb 5ebb 62bb
00000050: c00f b2ba 2640 833b 2a0e 86bb e72e 08bb
00000060: adb9 01bb 856e 08bb a555 b2bb 3c42 d1ba
00000070: b798 33ba 8a29 233b f7ab 60ba a5b2 9f3b
00000080: 7b9a 6dba a37d ea39 1df4 563b b8f1 333c
00000090: c212 993a 3cd1 853a 0552 863a f04f a3ba
000000a0: 61f3 acbb 36ba 7b3b 67b3 47bc 14a8 033b
000000b0: 79ec 003c e364 e5ba 609d 44bb 1c15 cd3a
000000c0: 434f b2bb e894 f93a 4cf4 153a 7623 3d3c
000000d0: d8d5 15bb 6723 bebb 56a3 8bbb 1966 e2bb
000000e0: 5031 493b a534 9dbb e8e0 a93a aaf4 2339
000000f0: 02de 043a 915e 873b 08ce 9abb be38 2abc

manager.M_goals.weight f4 [64, 128]
-0.012821261 0.02258354 0.05416477 0.13730502 0.06682963 0.017585564 -0.027914189 -0.011384768
-0.008971967 -0.014155505 0.037820775 -0.1330424 0.058546145 -0.041026946 -0.18535705 -0.06907469
0.13807079 0.09362199 -0.02000201 0.122438416 -0.21552898 -0.16815287 0.012197451 0.05419439
-0.028691163 0.09853747 0.10565606 -0.091305204 -0.07822742 -0.1905813 0.016929056 -0.02093797
0.079689026 0.007734851 0.16513963 0.091127776 -0.020574179 -0.00866776 0.030078953 -0.014745666
-0.11599318 0.08259082 -0.09348899 0.07023991 -0.17100671 0.016040003 -0.16014437 0.041693613
-0.09279956 0.006183515 0.08525351 0.025715537 0.117911 -0.016906755 -0.08563724 -0.04605294
0.060190074 0.076881096 0.07079501 0.12668486 0.13348362 0.04815699 -0.1725372 0.05516284
-0.105709225 -0.13510387 -0.08333705 0.035897728 0.014998701 0.008185993 -0.035648778 -0.10244358
-0.022260409 0.039284125 0.13421914 -0.0996746 0.06636267 0.014390649 -0.14546253 0.07125485
0.047616262 -0.06781267 -0.10910297 -0.17093949 -0.021572674 -0.08814136 0.055644546 -0.07609061
0.026715659 0.010178572 0.072264366 -0.018325739 -0.103520416 0.038912855 0.106020294 0.11053069
0.060517784 -0.12601279 0.1356296 -0.067220934 0.087687984 0.0017018069 0.07873412 -0.0022517985
0.17779669 0.040395726 0.017034143 0.067667134 0.0010360365 0.11745508 0.04798158 -0.111329414
0.14037736 -0.0065498655 0.06454302 -0.06636639 -0.0673805 -0.10752988 -0.053287946 -0.12624335
0.10097418 -0.10509772 -0.08389594 0.045460787 -0.12801723 -0.028579732 0.049844865 0.0017112134
0.06268581 0.017999051 0.065554716 0.035702292 0.033728443 0.061349064 0.10195566 -0.081913926
0.09375411 0.041016117 0.1201874 -0.052859023 -0.0046241386 -0.0091630565 0.055994764 -0.036344416
0.036022898 0.07799943 -0.10213939 -0.09398239 -0.04255828 -0.073071286 -0.020531423 -0.099076934
-0.19715045 -0.11735969 0.15343262 -0.09387263 -0.0423856 0.1248192 0.036126494 0.046384785
0.0277656 -0.080407426 0.07669822 0.018201584 -0.07575761 -0.06094649 0.10006043 -0.10307954
-0.12607999 0.21523242 0.050500903 -0.018843578 0.07157779 0.20569012 0.03634684 0.10048567
-0.13037047 -0.06606365 0.101513736 0.13811651 -0.030266788 0.010905127 0.10370858 -0.0469212
0.010717064 0.042528566 0.068830624 0.0895064 0.11160388 -0.019882971 -0.00649481 0.034246802
-0.0051255743 0.07485381 0.0020148514 -0.09542943 0.092877 0.03338653 0.09542836 0.012189833
0.13333203 0.10136048 -0.043376613 0.09214493 -0.17036256 0.04482989 -0.1082717 0.0042288317
-0.08789802 -0.115401834 -0.06744612 0.07605403 -0.083608046 0.08485124 0.056106918 -0.041248415
-0.086430274 -0.12500422 0.0023595546 -0.014117251 -0.04546407 -0.118581064 0.0865036 0.060488682
0.0016999992 0.05113982 -0.10382698 -0.13585281 -0.12180706 -0.2446861 0.007113273 -0.00958181
-0.195862 -0.018671457 -0.045421675 -0.109280206 -0.08061332 -0.101108365 0.0007749435 -0.034605347
-0.09241566 -0.092137046 0.05276231 0.1282955 0.036407154 -0.0004951866 0.13680884 -0.009554981
-0.048538055 -0.023437949 -0.15192929 -0.06703656 0.10850954 0.052089877 -0.097877 0.12265272
00000000: 4410 52bc 1e01 b93c e1db 5d3d b099 0c3e
00000010: f9dd 883d 9a0f 903c 4cac e4bc 2e87 3abc
00000020: 28ff 12bc 7eec 67bc f5e9 1a3d 443c 08be
00000030: 15ce 6f3d df0b 28bd 3dce 3dbe 0877 8dbd
00000040: 6e62 0d3e e3bc bf3d 41db a3bc fec0 fa3d
00000050: a1b3 5cbe 4430 2cbe d1d7 473c f0fa 5d3d
00000060: bb09 ebbc 03ce c93d 3462 d83d 39fe babd
00000070: b335 a0bd bf27 43be ceae 8a3c 1b86 abbc
00000080: 0034 a33d a274 fd3b 5d1a 293e 33a1 ba3d
00000090: 2e8b a8bc 3803 0ebc 2368 f63c ce97 71bc
000000a0: d58d edbd 6025 a93d 2877 bfbd f1d9 8f3d
000000b0: 621c 2fbe 5366 833c e3fc 23be ecc6 2a3d
000000c0: b20d bebd 159f ca3b 6499 ae3d 64a9 d23c
000000d0: 537b f13d 0980 8abc 9462 afbd 02a2 3cbd
000000e0: de89 763d d673 9d3d f9fc 903d adb9 013e
000000f0: eeaf 083e 4440 453d 97ad 30be 6ef2 613d
00000100: 147e d8bd ab58 0abe 9eac aabd 7f09 133d
00000110: 1dbd 753c 8b1e 063c 7404 12bd f1cd d1bd
00000120: 765b b6bc 64e8 203d be70 093e 3222 ccbd
00000130: 27e9 873d c2c6 6b3c 21f4 14be 10ee 913d
00000140: 4509 433d 5ee1 8abd 6171 dfbd c30a 2fbe
00000150: 2db9 b0bc 7583 b4bd 89eb 633d 65d5 9bbd
00000160: ccda da3c 06c4 263c 57ff 933d dc1f 96bc
00000170: 8302 d4bd 1663 1f3d 2b21 d93d ea5d e23d
00000180: 7fe1 773d 7f09 01be 7ce2 0a3e 21ab 89bd
00000190: c295 b33d 2a0f df3a 5b3f a13d e992 13bb
000001a0: 5610 363e fd75 253d 308b 8b3c 1195 8a3d
000001b0: 9ecb 873a 4a8c f03d 5588 443d ad00 e4bd
000001c0: 15bf 0f3e 41a0 d6bb 222f 843d 1aeb 87bd
000001d0: cafe 89bd a038 dcbd 7644 5abd f045 01be
000001e0: 8dcb ce3d 793d d7bd a2d1 abbd 1735 3a3d
000001f0: f316 03be 0b20 eabc 212a 4c3d cb4a e03a
00000200: 6b61 803d bf72 933c 8d41 863d 913c 123d
00000210: d626 0a3d 2849 7b3d 21ce d03d 7dc2 a7bd
00000220: 2802 c03d 8400 283d d024 f63d b482 58bd
00000230: 1686 97bb a520 16bc c45a 653d e2dd 14bd
00000240: bf8c 133d 2abe 9f3d 752e d1bd d779 c0bd
00000250: 9751 2ebd 66a6 95bd 8431 a8bc d9e8 cabd
00000260: cfe1 49be 475a f0bd 711d 1d3e 4b40 c0bd
00000270: 869c 2dbd 35a1 ff3d 60f9 133d f9fd 3d3d
00000280: af74 e33c a6ac a4bd f513 9d3d 7d1b 953c
00000290: ce26 9bbd 07a3 79bd 7cec cc3d 5e1b d3bd
000002a0: 1d1b 01be e365 5c3e 09da 4e3d d95d 9abc
000002b0: 6097 923d 6ea0 523e 6de0 143d 6ecb cd3d
000002c0: d67f 05be 614c 87bd 6fe6 cf3d 6a6e 0d3e
000002d0: 0ef2 f7bc 6bab 323c 2a65 d43d 7230 40bd
000002e0: a096 2f3c 6f32 2e3d 12f7 8c3d 224f b73d
000002f0: 9390 e43d 9de1 a2bc 6ad2 d4bb 6046 0c3d
00000300: 6ff4 a7bb f44c 993d 990b 043b 8170 c3bd
00000310: 4c36 be3d 50c0 083d f26f c33d deb7 473c
00000320: 3188 083e 1596 cf3d adab 31bd 7bb6 bc3d
00000330: 8673 2ebe 8c9f 373d 8ebd ddbd 0392 8a3b
00000340: e103 b4bd cc57 ecbd 3121 8abd 37c2 9b3d
00000350: b23a abbd 7dc6 ad3d 5ed0 653d 19f4 28bd
00000360: 5b02 b1bd 1b01 00be c2a2 1a3b 0b4c 67bc
00000370: 8838 3abd a1da f2bd cd28 b13d fbc2 773d
00000380: 82d2 de3a fd77 513d 3da3 d4bd 001d 0bbe
00000390: fb75 f9bd fe8e 7abe 7516 e93b 06fd 1cbc
000003a0: 0c90 48be e2f4 98bc 140c 3abd 4dce dfbd
000003b0: 9918 a5bd e711 cfbd 9425 4b3a 56be 0dbd
000003c0: 6c44 bdbd 59b2 bcbd 4b1d 583d e55f 033e
000003d0: ab1f 153d 69cf 01ba 9e17 0c3e 7f8c 1cbc
000003e0: d7cf 46bd f100 c0bc 5a93 1bbe 774a 89bd
000003f0: 403a de3d 325c 553d bd73 c8bd 5931 fb3d

manager.M_goals.bias f4 [64]
0.0026664673 0.0030846323 -0.0025739532 -0.0041164947 0.0035150216 0.0013540125 0.0014686768 -0.004888727
0.00221475 -0.0040413653 -0.0015071282 -0.004770684 0.003181035 -0.003342859 0.0017983868 0.0010511827
0.002656495 -0.0019282476 0.004404473 -0.0038074576 -0.0031320709 0.0022334703 -0.004388413 -0.0019983265
-0.00033970832 -0.005017496 -0.0013552139 0.0036092154 0.0029727283 -0.005236211 0.0034576096 0.0010039427
0.0035104589 0.0073113833 -0.005472083 -0.0050015952 -0.0040685027 0.003004896 -0.0041929344 -0.0006345168
-0.0024782966 -0.0008123913 0.001441921 0.0005413539 0.003914813 -0.0028125762 0.00073564163 0.0047141146
0.0021254485 -0.0015691406 -0.003237491 -0.0042035915 0.0059959455 0.0035759048 0.0030942028 0.0009158672
-0.0018639142 0.0033646987 0.0029386773 -0.00093767233 -0.00029697668 -0.004066643 0.0012742555 -0.0020588588
00000000: e6bf 2e3b 8b27 4a3b c5af 28bb a9e3 86bb
00000010: 475c 663b 1f79 b13a 9e80 c03a 9d31 a0bb
00000020: 5725 113b 6e6d 84bb d58a c5ba 6653 9cbb
00000030: e978 503b de13 5bbb d9b7 eb3a d7c7 893a
00000040: 9718 2e3b 41bd fcba 6653 903b 8a86 79bb
00000050: 6e43 4dbb 6a5f 123b adcc 8fbb 5bf6 02bb
00000060: e11a b2b9 cf69 a4bb 6fa1 b1ba 9688 6c3b
00000070: 1bd2 423b 8594 abbb 1099 623b ba96 833a
00000080: ba0f 663b 5494 ef3b 294f b3bb 6ce4 a3bb
00000090: 1351 85bb caed 443b e264 89bb b455 26ba
000000a0: eb6a 22bb a8f6 54ba d7fe bc3a a5e9 0d3a
000000b0: d547 803b 3353 38bb 13d8 403a dc78 9a3b
000000c0: 1c4b 0b3b 9fab cdba 162c 54bb 48be 89bb
000000d0: a379 c43b ba59 6a3b 1cc8 4a3b cf16 703a
000000e0: 954e f4ba 4782 5c3b d396 403b 20ce 75ba
000000f0: 89b3 9bb9 7941 85bb eb04 a73a ebed 06bb

manager.M_value.weight f4 [1, 64]
-0.16191651 -0.10268099 0.0025853824 0.08227551 -0.15064731 -0.122360036 -0.109720096 0.23957142
-0.047776185 0.09565655 0.07667764 0.06877382 -0.12980787 0.08405716 -0.16754863 -0.16705307
-0.14568727 -0.25708637 -0.11110753 0.06517813 -0.027875628 -0.13519521 0.20656835 0.04593316
0.0014705965 0.1427553 0.10595898 -0.06630654 0.09086197 0.1867803 -0.06457831 -0.016382838
-0.068914816 -0.12841852 0.14056382 -0.2389106 0.11393402 -0.019657234 0.1515246 0.13502651
0.18462195 -0.055176925 -0.033974156 -0.21669403 -0.10739288 0.05705198 0.06791689 -0.12136314
-0.0010257387 -0.015617614 0.09162979 0.050197005 -0.079366066 -0.10296307 -0.17200062 0.29894704
0.03949648 -0.02101736 -0.015572541 0.06382784 0.03437399 0.08080775 -0.09292738 0.17646247
00000000: 71cd 25be 694a d2bd 856f 293b 1080 a83d
00000010: 4a43 1abe e697 fabd eeb4 e0bd 3652 753e
00000020: f6b0 43bd 95e7 c33d 2b09 9d3d 4ad9 8c3d
00000030: 5bec 04be 2926 ac3d de91 2bbe f60f 2bbe
00000040: 0b2f 15be d3a0 83be 588c e3bd 1d7c 853d
00000050: 6e5b e4bc 9d70 0abe a786 533e 6924 3c3d
00000060: 08c1 c03a 722e 123e 0601 d93d b9cb 87bd
00000070: d715 ba3d 5643 3f3e a241 84bd 4d35 86bc
00000080: 3623 8dbd 2580 03be f6ef 0f3e fba4 74be
00000090: 3d56 e93d 3508 a1bc 4429 1b3e 6444 0a3e
000000a0: 890d 3d3e 3301 62bd 7c28 0bbd 0ae5 5dbe
000000b0: ccf0 dbbd 56af 693d 0318 8b3d 3d8d f8bd
000000c0: 1472 86ba 05e1 7fbc 66a8 bb3d 609b 4d3d
000000d0: ad8a a2bd 4dde d2bd ee20 30be 960f 993e
000000e0: 10c7 213d 992c acbc f923 7fbc 2cb8 823d
000000f0: becb 0c3d 897e a53d b650 bebd 94b2 343e

worker.f_stateW.weight f4 [40, 64]
-0.04025837 -0.14260158 -0.1906087 -0.073329225 0.055348586 0.19192903 -0.017337644 0.09215022
-0.2078022 -0.08050505 0.11472455 -0.1696661 -0.10132992 0.22917159 0.018435609 0.09323558
-0.13795182 0.062598616 -0.18769905 -0.038232386 -0.073142126 0.061674062 0.039616928 -0.29822114
0.03081612 0.36565977 -0.08331925 -0.05085322 -0.021194436 -0.14080687 0.03802734 0.0794796
0.15315366 -0.020146491 0.005456484 -0.1717669 0.053827666 -0.22176687 0.03673766 0.0871898
0.03774629 -0.15913777 0.21251331 0.054181807 0.022051588 -0.13954794 -0.089429766 0.017314335
0.063924916 -0.07053003 -0.045898046 0.01672265 0.02365038 -0.09003074 -0.042239156 0.18035811
0.012655898 0.23588295 0.043304536 0.062260404 0.004197019 -0.14894244 -0.18860412 0.08357312
0.019385263 0.12806761 0.17701022 0.01922372 -0.18213816 -0.020128956 -0.10088023 -0.09191156
-0.0981688 -0.19196351 0.17174074 -0.059889242 -0.07783195 -0.051110696 -0.1278471 -0.0025729584
-0.14661804 0.23309702 0.20465563 0.04767604 -0.18702272 -0.031563833 0.10229045 0.036838636
0.24479991 0.22013064 -0.06344456 0.0051247254 -0.2836594 0.10637266 -0.15394157 -0.113590844
-0.21489957 -0.20886368 -0.019669693 -0.14437774 0.14278759 -0.01066957 -0.027858034 0.11071377
0.0926123 0.012520583 -0.22966827 0.058639135 0.045054294 0.077378675 0.09278726 0.08991265
-0.0030905646 -0.09708805 0.13065621 -0.15479171 -0.050420266 -0.030105716 -0.21971916 -0.060343664
-0.099876665 0.0380133 0.012210545 -0.042532884 0.10959786 -0.12302397 0.09333515 -0.042103063
-0.0388548 -0.15598755 0.08477552 -0.07403678 0.045069013 0.03184434 0.23075207 0.13200091
-0.102038845 0.017009517 -0.06755731 0.14413899 -0.07129906 0.13241538 -0.033693038 0.044601373
0.2610168 0.045895208 -0.0135082565 -0.21502064 0.012835256 0.03604961 -0.11495898 0.044948332
0.123032324 -0.0695095 -0.33371004 0.121308625 -0.13164303 -0.17645466 -0.1473104 0.15960294
-0.16161448 0.09727258 -0.1155091 0.098582506 0.01500096 0.03566395 0.15004121 -0.071611054
0.041291017 0.104835235 0.033304267 0.099729836 0.18495125 0.17954774 -0.07342681 0.011580943
-0.025213864 0.096227415 0.24759912 -0.10690592 -0.04842993 -0.05093014 -0.072948545 -0.13618828
0.29924783 0.025275297 -0.040403437 -0.106419474 0.027490152 -0.15705575 -0.14916752 0.063607745
0.009186311 0.116396636 0.13768399 0.02789109 0.052949157 0.2862615 0.09755107 0.12990472
0.18617527 0.02934005 -0.19991116 -0.05239644 -0.29531485 -0.03949931 0.032873906 -0.065887414
0.0637067 0.17882967 -0.009621517 0.20923157 0.23925464 -0.27609077 0.057718042 0.12814507
-0.15037638 0.16739652 0.061747972 -0.011178467 -0.082456045 -0.091677345 -0.1531127 -0.045385532
0.022293419 -0.020320486 -0.005538929 -0.16957147 -0.032878965 0.11515206 -0.06325072 -0.008260688
-0.2642782 -0.12708434 -0.054769345 0.15192716 0.108572826 -0.16123581 0.012016538 -0.17005497
-0.21637069 0.06947604 0.05143012 -0.09952196 0.10264389 -0.09938215 0.006387238 0.08332998
0.084808275 -0.053062674 -0.092186995 -0.0011330171 -0.09321234 0.016165638 -0.0033412196 0.03053399
00000000: f6e5 24bd 2606 12be ed2e 43be a22d 96bd
00000010: 33b5 623d 0b89 443e ad07 8ebc 41b9 bc3d
00000020: 1aca 54be d5df a4bd b4f4 ea3d f3bc 2dbe
00000030: 1086 cfbd f5ab 6a3e 4606 973c 4cf2 be3d
00000040: 3e43 0dbe b433 803d 2e34 40be 9099 1cbd
00000050: 8acb 95bd f19d 7c3d 5c45 223d 71b0 98be
00000060: 1672 fc3c c237 bb3e 48a3 aabd 774b 50bd
00000070: f49f adbc ad2f 10be 8ec2 1b3d 33c6 a23d
00000080: 50d4 1c3e 410a a5bc 4ecc b23b aae3 2fbe
00000090: 667a 5c3d db16 63be 3b7a 163d 9190 b23d
000000a0: db9b 1a3d 03f5 22be 179d 593e beed 5d3d
000000b0: 88a5 b43c a8e5 0ebe f426 b7bd cbd6 8d3c
000000c0: 11eb 823d 0c72 90bd 97ff 3bbd f0fd 883c
000000d0: 71be c13c 0962 b8bd f702 2dbd ccaf 383e
000000e0: af5a 4f3c 4d8b 713e 1960 313d c404 7f3d
000000f0: 2687 893b 5e84 18be 7021 41be 6228 ab3d
00000100: d8cd 9e3c 2824 033e 2b42 353e 107b 9d3c
00000110: 6d82 3abe 7be5 a4bc 4b9a cebd 213c bcbd
00000120: b90c c9bd 1592 44be cedc 2f3e 6c4e 75bd
00000130: 5b66 9fbd 7359 51bd 5aea 02be 149f 28bb
00000140: 0a23 16be fcb0 6e3e 3f91 513e f447 433d
00000150: e282 3fbe 1449 01bd a87d d13d 1ce4 163d
00000160: d4ac 7a3e ed69 613e 39ef 81bd 50ed a73b
00000170: ce3b 91be e9d9 d93d dca2 1dbe 51a2 e8bd
00000180: a20e 5cbe 5ce0 55be 5622 a1bc c2d7 13be
00000190: e936 123e 6ccf 2ebc 8836 e4bc e7bd e23d
000001a0: 84ab bd3d 2223 4d3c 292e 6bbe 972f 703d
000001b0: da8a 383d b678 9e3d 3f07 be3d 2024 b83d
000001c0: 128b 4abb 19d6 c6bd beca 053e b881 1ebe
000001d0: 7b85 4ebd 43a0 f6bc 0ffe 60be eb2a 77bd
000001e0: 238c ccbd d6b3 1b3d bd0e 483c f636 2ebd
000001f0: d874 e03d fef3 fbbd 8026 bf3d 4374 2cbd
00000200: 3626 1fbd 33bb 1fbe ca9e ad3d 98a0 97bd
00000210: 499a 383d 366f 023d 454a 6c3e 3f2b 073e
00000220: bef9 d0bd 8b57 8b3c 7d5b 8abd 2c99 133e
00000230: 3e05 92bd e697 073e b601 0abd eeaf 363d
00000240: fea3 853e 9dfc 3b3d bc51 5dbc 5f2e 5cbe
00000250: f74a 523c c1a8 133d 9d6f ebbd be1b 383d
00000260: 5ff8 fb3d ff5a 8ebd 0bdc aabe a870 f83d
00000270: 6ecd 06be 88b0 34be 8ad8 16be f46e 233e
00000280: 447e 25be d936 c73d 0990 ecbd a0e5 c93d
00000290: 96c6 753c 5d14 123d 67a4 193e d1a8 92bd
000002a0: c520 293d dbb3 d63d 0e6a 083d 283f cc3d
000002b0: dc63 3d3e 5ddb 373e cc60 96bd ffbd 3d3c
000002c0: 4e8d cebc e112 c53d a08a 7d3e 7ef1 dabd
000002d0: 765e 46bd 1f9c 50bd 0c66 95bd f174 0bbe
000002e0: 0337 993e 240e cf3c 137e 25bd 74f2 d9bd
000002f0: 0733 e13c 39d3 20be 5fbf 18be c744 823d
00000300: 2e82 163c 5c61 ee3d 08fd 0c3e db7b e43c
00000310: 37e1 583d de90 923e dbc8 c73d be05 053e
00000320: bba4 3e3e 8b5a f03c 83b5 4cbe a69d 56bd
00000330: 8233 97be 07ca 21bd caa6 063d fbef 86bd
00000340: a978 823d 201f 373e 91a3 1dbc cd40 563e
00000350: 2bff 743e c55b 8dbe c169 6c3d 7638 033e
00000360: 44fc 19be fe69 2b3e 71eb 7c3d e425 37bc
00000370: b7de a8bd 55c1 bbbd 93c9 1cbe 2ee6 39bd
00000380: b0a0 b63c 2677 a6bc e77f b5bb 25a4 2dbe
00000390: 18ac 06bd d8d4 eb3d 9889 81bd d657 07bc
000003a0: 794f 87be 6622 02be d255 60bd cb92 1b3e
000003b0: 6e5b de3d 001b 25be 03e1 443c e422 2ebe
000003c0: 4790 5dbe 7449 8e3d 64a8 523d 2bd2 cbbd
000003d0: f636 d23d de88 cbbd 094c d13b e9a8 aa3d
000003e0: f6af ad3d 3f58 59bd 89cc bcbd bf81 94ba
000003f0: 1ce6 bebd cd6d 843c 5df8 5abb 6b22 fa3c

worker.f_stateW.bias f4 [40]
-0.0022992007 -0.008643638 -0.0041593104 0.0053568836 -0.0040980885 -0.012118338 0.0 -0.0064848997
0.0013025659 -0.010487608 0.0042279954 -0.0037139696 -0.012301793 0.0037795187 -0.009041313 0.006721949
0.0024470864 -0.0085170455 -0.01443707 0.0027116216 0.0009747373 0.006348602 -0.002377125 0.004580009
0.0109978905 4.0333725e-05 0.0052595404 -0.0032497458 0.008381671 0.0011097954 0.005946376 -0.0065595307
0.00040383756 -0.0040086764 -0.009147404 0.005309157 -0.0047279857 0.0058190227 0.00037003437 0.002663162
00000000: 30ae 16bb 0c9e 0dbc d34a 88bb cc88 af3b
00000010: 4249 86bb fe8b 46bc 0000 0000 487f d4bb
00000020: dcba aa3a 37d4 2bbc ff8a 8a3b 1266 73bb
00000030: 768d 49bc cdb1 773b 0422 14bc cc43 dc3b
00000040: 4c5f 203b 148b 0bbc 7689 6cbc 76b5 313b
00000050: 8385 7f3a ef07 d03b 8ac9 1bbb e613 963b
00000060: 7f30 343c 022c 2938 3958 ac3b b0f9 54bb
00000070: 4753 093c 8e76 913a d1d9 c23b 55f1 d6bb
00000080: 29ba d339 375b 83bb fede 15bc 70f8 ad3b
00000090: 38ed 9abb 80ad be3b 2c01 c239 7288 2e3b

worker.phi.weight f4 [8, 64]
-0.104374535 0.2598359 -0.09113935 -0.12665121 -0.08907163 0.05327364 -0.12863928 -0.015233527
0.101526976 0.022252023 -0.074026965 -0.19726436 0.07915989 -0.024444494 0.018325167 0.03158521
0.092925675 -0.10676177 0.003372756 -0.26499245 -0.095804736 -0.03783076 -0.015643744 -0.010471164
0.12856653 0.084121786 0.087873824 0.21793301 0.20952196 0.17251241 -0.122999564 0.1528762
-0.09418861 -0.22792737 -0.044172965 0.12436303 0.07236762 -0.059052747 0.16362141 -0.18810995
0.034498148 -0.00061104127 -0.15884805 -0.15214592 0.042295475 -0.06726665 -0.09360872 0.1444966
-0.12844664 -0.024952454 0.17043343 0.07467827 0.10314232 -0.018716622 -0.008075425 0.06580491
-0.13271558 0.022529576 0.06803315 0.050867207 0.08891537 -0.096103474 0.35110787 -0.17730166
-0.14691429 -0.11274943 0.03952853 -0.120755054 -0.082035236 0.104986526 0.13499942 0.07522534
0.0019774649 0.10459833 -0.01618254 0.03794183 0.08261702 -0.06538062 0.03441597 0.19780768
-0.14833544 0.06701322 -0.032163154 -0.12381269 -0.07427299 0.17114867 0.36205256 0.14763734
-0.18486318 0.22693549 -0.0061077652 -0.010429606 0.0069521707 -0.105397984 0.0554953 -0.021188073
-0.0023179194 -0.116681226 0.014437168 0.28365767 -0.059116982 -0.23751742 0.056622703 -0.033828348
-0.018266242 0.09435546 -0.03168297 -0.050152406 0.030531 -0.09547611 0.005029997 -0.10560184
0.08797558 0.031212674 -0.021216234 0.14171137 0.1740663 0.16234124 -0.04492212 -0.17721723
0.1729574 0.23122345 0.09261118 0.13941948 -0.16871083 -0.11956663 -0.11040846 0.09747526
-0.037219193 0.03490102 -0.1389601 -0.22127959 0.20187965 0.19118467 -0.041889265 0.027333418
-0.10183757 -0.23397984 -0.14361712 -0.0201836 -0.14452504 -0.03461956 0.351227 0.15996575
0.06824641 -0.11869243 0.1826284 -0.0057693585 -0.08533668 -0.084600136 -0.07721683 0.029439792
0.012435039 0.27569437 0.0328622 0.13127623 -0.056204896 -0.012658487 -0.09444716 -0.1435588
0.14467512 -0.18406425 -0.04468478 -0.036069117 -0.06925969 0.07283589 -0.17582518 0.23393615
0.06066557 -0.085820235 0.07369912 0.07573757 -0.07155211 -0.11709849 0.050880164 -0.075879
0.057800338 -0.15767772 0.08236323 0.027785191 -0.18958293 0.06265316 -0.05284299 -0.08124627
0.15901089 -0.10873158 0.1768498 -0.08493352 0.030522922 0.06675148 0.051873 0.04187392
-0.20632073 0.033748362 0.041962538 -0.07499186 0.11634687 -0.046970487 -0.1309778 -0.3122124
0.04805691 -0.11641898 -0.067319006 0.12957653 0.045483485 0.11484478 0.12590371 -0.1558862
0.05048185 -0.14325134 0.10470124 0.084339514 -0.00047443397 0.018466836 0.19262248 -0.039777342
0.35995036 -0.17216016 0.23113248 -0.041001204 0.016850935 -0.18217939 0.04828261 0.011997986
-0.0034812468 0.11397455 0.117380224 0.28081283 0.09131218 0.036680497 0.10187332 -0.010377322
-0.09420377 0.051965505 -0.019868273 -0.0021563373 0.008463176 0.01852532 -0.016837092 0.011878227
0.02175188 0.1169533 -0.1393649 0.051953226 -0.098761745 0.036895297 0.06639708 -0.31488073
0.060188178 0.11272642 -0.03551091 -0.19265416 0.10343106 0.09469693 0.0092271585 -0.037599754
00000000: 51c2 d5bd 3609 853e 44a7 babd dbb0 01be
00000010: 306b b6bd 7635 5a3d 04ba 03be 0b96 79bc
00000020: 60ed cf3d e049 b63c 739b 97bd abff 49be
00000030: 951e a23d d23f c8bc a91e 963c 7e5f 013d
00000040: d14f be3d eaa5 dabd 7509 5d3b 17ad 87be
00000050: 4635 c4bd 6df4 1abd 4f27 80bc 3f8f 2bbc
00000060: f2a6 033e 0b48 ac3d 31f7 b33d d529 5f3e
00000070: ed8c 563e 18a7 303e 32e7 fbbd 948b 1c3e
00000080: f5e5 c0bd cb65 69be b6ee 34bd 0bb2 fe3d
00000090: 7a35 943d 4be1 71bd 5f8c 273e e59f 40be
000000a0: ee4d 0d3d 492e 20ba 10a9 22be 24cc 1bbe
000000b0: 053e 2d3d 19c3 89bd eeb5 bfbd ebf6 133e
000000c0: 8487 03be 1769 ccbc 1a86 2e3e ecf0 983d
000000d0: 483c d33d 9a53 99bc ca4e 04bc bac4 863d
000000e0: 98e6 07be f28f b83c f754 8b3d 225a 503d
000000f0: 4319 b63d e6d1 c4bd 69c4 b33e 918e 35be
00000100: b370 16be 2ce9 e6bd abe8 213d 6d4e f7bd
00000110: 1702 a8bd 2d03 d73d 4a3d 0a3e be0f 9a3d
00000120: 5b98 013b a637 d63d 3f91 84bc e468 1b3d
00000130: 1d33 a93d 46e6 85bd c3f7 0c3d 198e 4a3e
00000140: 3fe5 17be 3a3e 893d 83bd 03bd 8291 fdbd
00000150: 701c 98bd 9941 2f3e f45e b93e 3e2e 173e
00000160: c64c 3dbe c761 683e a623 c8bb f0e0 2abc
00000170: 09cf e33b e6da d7bd 0a4f 633d 9c92 adbc
00000180: 3ce8 17bb 91f6 eebd df89 6c3c 943b 913e
00000190: a624 72bd c437 73be 35ed 673d 988f 0abd
000001a0: 16a3 95bc 6f3d c13d 00c6 01bd 9c6c 4dbd
000001b0: 261c fa3c fb88 c3bd acd2 a43b c745 d8bd
000001c0: 8a2c b43d b9b1 ff3c abcd adbc c91c 113e
000001d0: 703e 323e c83c 263e 4200 38bd 6f78 35be
000001e0: bf1b 313e d7c5 6c3e eeaa bd3d fbc3 0e3e
000001f0: 88c2 2cbe 59df f4bd d51d e2bd 1ca1 c73d
00000200: 2773 18bd 5ff4 0e3d 8e4b 0ebe 1e97 62be
00000210: 8ab9 4e3e eac5 433e 1494 2bbd 55ea df3c
00000220: 3790 d0bd 6998 6fbe 5e10 13be 1458 a5bc
00000230: 5ffe 13be 3dcd 0dbd 06d4 b33e 10ce 233e
00000240: c6c4 8b3d 0415 f3bd f002 3b3e e30c bdbb
00000250: ffc4 aebd d642 adbd db23 9ebd b82b f13c
00000260: 55bc 4b3c d027 8d3e 849a 063d 476d 063e
00000270: 1b37 66bd 8b65 4fbc 836d c1bd 1401 13be
00000280: b725 143e 577b 3cbe 6307 37bd 36bd 13bd
00000290: 06d8 8dbd fc2a 953d 840b 34be f58c 6f3e
000002a0: 767c 783d 85c2 afbd 90ef 963d 4d1c 9b3d
000002b0: ea89 92bd 55d1 efbd b867 503d 7366 9bbd
000002c0: 0cc0 6c3d 4576 21be 0eae a83d c59d e33c
000002d0: 0722 42be 4d50 803d e471 58bd 7264 a6bd
000002e0: c0d3 223e aaae debd 1d18 353e a0f1 adbd
000002f0: 350b fa3c 00b5 883d c878 543d fd83 2b3d
00000300: be45 53be b93b 0a3d e9e0 2b3d 5595 99bd
00000310: 4547 ee3d 2064 40bd 0b1f 06be 4eda 9fbe
00000320: 53d7 443d 136d eebd 8cde 89bd b6af 043e
00000330: e44c 3a3d bd33 eb3d e7ec 003e a2a0 1fbe
00000340: 0ec6 4e3d 7bb0 12be 9b6d d63d 32ba ac3d
00000350: 73bd f8b9 c347 973c d43e 453e 91ed 22bd
00000360: 6a4b b83e c14a 30be fead 6c3e e1f0 27bd
00000370: f90a 8a3c 3c8d 3abe fcc3 453d 3393 443c
00000380: a125 64bb 7d6b e93d 0b65 f03d b3c6 8f3e
00000390: e101 bb3d 4a3e 163d f6a2 d03d a505 2abc
000003a0: e8ed c0bd c8d9 543d cac2 a2bc 5651 0dbb
000003b0: 22a9 0a3c 69c2 973c f1ed 89bc e59c 423c
000003c0: 0031 b23c 3685 ef3d acb5 0ebe e8cc 543d
000003d0: 9943 cabd 861f 173d 31fb 873d 0c38 a1be
000003e0: e187 763d 1cdd e63d e373 11bd 2247 45be
000003f0: aad3 d33d 77f0 c13d 822d 173c 3302 1abd
