vwgym/saved_model/vwgym_f_net_step_600000.pt (torch_old, 758078 bytes, 51 tensors)

f_percept.percept.0.weight f4 [16, 3, 3, 3]
0	0xbcb348cf	-0.021885304
1	0x3e59c2d4	0.21265727
2	0x3d53bb85	0.051692504
3	0xbd6b9c28	-0.05752197
4	0x3ea58183	0.32325372
5	0x3e3abf43	0.18237023
6	0x3e87d10d	0.2652668
7	0xbe86faa1	-0.2636309
8	0x3d2c54c2	0.04207302
9	0x3d045f0e	0.032317214
10	0xbe662b6f	-0.22477506
11	0xbe6574c6	-0.22407827
12	0xbe6ff134	-0.23431855
13	0x3e2d5c0d	0.16929646
14	0x3e6dfa76	0.23240075
15	0x3e44c48b	0.192156
16	0xbeb47230	-0.35243368
17	0xbeaa471b	-0.33257374
18	0x3e513542	0.20430472
19	0xbcd244b7	-0.025667531
20	0x3db40b30	0.08791196
21	0xbe4efaff	-0.20212935
22	0xbe3cbf7b	-0.18432419
23	0xbe0f1e39	-0.13976373
24	0x3e10b7dc	0.14132637
25	0x3d5be314	0.053683355
26	0x3d5f409b	0.054504972
27	0xbeab4b08	-0.33455682
28	0x3e1ac01c	0.15112346
29	0xbe8a6f5b	-0.27038082
30	0xbe7fad5d	-0.24968477
31	0xbe5154cd	-0.20442505
32	0xbe5d4332	-0.21607664
33	0xbe0df332	-0.13862303
34	0x3dba14d8	0.09086007
35	0x3e7ea5a3	0.24867873
36	0xbd82f9b7	-0.063952856
37	0xbc94f634	-0.018183805
38	0xbdc2203c	-0.094788045
39	0xbe04856f	-0.12941526
40	0xbe192a2f	-0.14957498
41	0x3db3a1d1	0.087710984
42	0x3e95b693	0.29240856
43	0x3da6b12b	0.08139261
44	0xbe95efd2	-0.2928453
45	0xbd86293a	-0.06550832
46	0x3ecfb45c	0.4056729
47	0x3da2657a	0.07929511
48	0x3dc4696b	0.095904194
49	0x3e9e197e	0.30878824
50	0xbd532eed	-0.051558424
51	0x3e433a34	0.19065171
52	0x3cacc9dd	0.02109235
53	0xbc878090	-0.016540796
54	0xbd25b077	-0.040451493
55	0xbeefbaa3	-0.4682208
56	0x3c60711a	0.0136988405
57	0xbeb7a502	-0.35868078
58	0x3d2a89ac	0.0416352
59	0x3ea480fa	0.3212965
60	0xbe12f6b6	-0.14351925
61	0x3d17702c	0.03697221
62	0x3d58ca93	0.052927565
63	0xbdaa57ce	-0.08317529
64	0x3dd8ccd0	0.1058594
65	0x3e239c80	0.15977669
66	0xbe8afbb5	-0.27145162
67	0xbdff3015	-0.12460343
68	0xbd87d378	-0.06632131
69	0xbed9ee3d	-0.42564574
70	0xbd2da47b	-0.04239319
71	0xbea2b8e5	-0.31781688
72	0x3d9e7238	0.07736629
73	0xbdc870e8	-0.0978716
74	0x3e156734	0.1459015
75	0xbdc25602	-0.09489061
76	0x3e40e6f8	0.18838108
77	0x3d031d5a	0.032010414
78	0x3d9600d6	0.07324378
79	0x3d98ab48	0.07454544
80	0x3e10484b	0.14090078
81	0xbd5b7d9d	-0.05358659
82	0xbd35c4ad	-0.044377018
83	0xbd9920a0	-0.07476926
84	0x3e2c0db4	0.16802102
85	0xbddbb4aa	-0.10727818
86	0xbd99c483	-0.07508185
87	0xbda5b8b5	-0.08091871
88	0xbe7e118b	-0.2481138
89	0x3e8a06bb	0.2695826
90	0xbed8fa0d	-0.42378274
91	0x3e5843c2	0.21119598
92	0x3c105c32	0.008811044
93	0x3e20b963	0.1569572
94	0xbc843946	-0.016140591
95	0xbeb7a040	-0.3586445
96	0xbd39d2e7	-0.045367148
97	0xbe34b9bd	-0.17648979
98	0x3cec0526	0.028811049
99	0x3d16c115	0.03680523
100	0xbd7da066	-0.061920546
101	0xbdcf4ce7	-0.1012209
102	0xbd43231c	-0.047640905
103	0xbe810b74	-0.2520405
104	0xbd4ba00c	-0.04971318
105	0x3f06eadd	0.5270212
106	0x3e1d8ec9	0.153865
107	0xbd283090	-0.041061938
108	0x3b4ac9b4	0.0030942978
109	0xbeba1740	-0.36345863
110	0xbe00ad2c	-0.1256606
111	0x3eb6e24e	0.35719532
112	0x3d27c8f6	0.040963136
113	0xbea53481	-0.3226662
114	0x3e41ca36	0.18924794
115	0x3e5a50e6	0.21319923
116	0x3c5758d2	0.013143735
117	0x3c7bd8fb	0.015371556
118	0x3e2d5542	0.16927055
119	0xbe6280d1	-0.22119452
120	0xbd31f457	-0.04344591
121	0x3defe293	0.117131375
122	0x3d4a6f9f	0.049422856
123	0x3d9629e1	0.073322065
124	0x3b8568fc	0.004071353
125	0xbea0bd15	-0.31394258
126	0xbd14a53d	-0.036290396
127	0xbe717557	-0.23579918
128	0xbdf35a1f	-0.118824236
129	0xbeae05af	-0.3398871
130	0x3e6acd09	0.22929777
131	0xbcbea90a	-0.023273963
132	0xbce30f72	-0.027717326
133	0xbe0dc4ab	-0.13844554
134	0xbe9496d4	-0.29021323
135	0xbe57cef7	-0.21075045
136	0x3dada4fe	0.084787354
137	0xbdd02be2	-0.1016462
138	0xbdf4956c	-0.119425625
139	0xbcf83e7b	-0.03030323
140	0xbec9267e	-0.3928718
141	0x3dedc389	0.11609561
142	0x3e13b67c	0.14425081
143	0xbda11725	-0.078657426
144	0xbc3e4e99	-0.011615419
145	0x3e1231aa	0.14276758
146	0x3d4b264f	0.04959708
147	0x3d05e002	0.032684334
148	0xbd1b4d0f	-0.037915286
149	0x3e89e364	0.26931298
150	0xbe1e9cb9	-0.15489472
151	0xbe843ebf	-0.2582912
152	0x3eb65659	0.35612753
153	0x3ead20c9	0.33814076
154	0xbe55ff42	-0.20898154
155	0x3e8a29d9	0.26985052
156	0xbe03f8f2	-0.12887934
157	0x3daf8385	0.08570007
158	0x3e51279b	0.20425265
159	0x3e308d21	0.17241336
160	0xbd98666c	-0.074414104
161	0x3e969cab	0.29416403
162	0xbe251ee3	-0.16125064
163	0xbc85fc3a	-0.016355623
164	0xbe523078	-0.20526302
165	0x3e516bc9	0.20451273
166	0x3ea2499a	0.3169678
167	0xbd93dc2c	-0.07219729
168	0x3e1c252c	0.15248555
169	0xbe334913	-0.17508344
170	0x3d7ecf85	0.062209625
171	0xbded4546	-0.115854785
172	0xbde1d54d	-0.11027012
173	0x3ecf6efe	0.40514368
174	0xbd887657	-0.066631965
175	0xbda9089c	-0.08253595
176	0x3c6326e7	0.0138642555
177	0x3d9a5598	0.07535857
178	0x3db0d497	0.08634298
179	0xbe63ae73	-0.22234516
180	0xbe0ccc27	-0.13749753
181	0xbe1ae15b	-0.15125029
182	0x3c3a8438	0.0113840625
183	0x3ea7c53e	0.3276767
184	0xbdc29260	-0.09500575
185	0x3f070de0	0.52755547
186	0xbcdf60d8	-0.027267858
187	0xbe1be45d	-0.15223832
188	0x3d24078f	0.04004627
189	0xbd8252c9	-0.06363446
190	0xbd26fc7d	-0.040768135
191	0xbddfe6a4	-0.10932663
192	0x3d7b4854	0.061348274
193	0xbe87c9e4	-0.26521218
194	0x3ebe6e37	0.37193462
195	0x3d3a976b	0.04555456
196	0xbea7f6e1	-0.3280554
197	0x3e4fb86a	0.20285192
198	0xbda1cd6d	-0.0790051
199	0xbde99163	-0.114046834
200	0xbe84f463	-0.25967702
201	0x3ea44502	0.320839
202	0xbd657d9e	-0.056028
203	0x3e864d8f	0.26231048
204	0xbc31092e	-0.010805411
205	0x3e925356	0.28579205
206	0x3d8a3392	0.067481175
207	0xbe16995c	-0.1470694
208	0xbe2f364f	-0.17110561
209	0x3e430ccd	0.19047852
210	0xbe6f9f81	-0.2340069
211	0x3de1fe20	0.110347986
212	0x3e16c091	0.14721896
213	0x3d4be9d7	0.049783554
214	0xbe97f6fc	-0.29680622
215	0x3dd08fd8	0.10183686
216	0x3e1cfa76	0.15329918
217	0x3b554f06	0.0032548322
218	0x3e4d7a3e	0.20066163
219	0x3c0c9895	0.0085813
220	0xbe809c0b	-0.2511905
221	0xbe6d34cc	-0.23164672
222	0xbbf586b7	-0.007492866
223	0xbe8f6ee7	-0.280143
224	0x3e6c28b5	0.23062404
225	0x3c2d01d6	0.01055952
226	0xbd945cd5	-0.07244269
227	0xbe6d04ce	-0.23146364
228	0xbe212fc7	-0.15740882
229	0xbbbee2a4	-0.0058253575
230	0xbd9f75f9	-0.077861734
231	0xbe194fa2	-0.14971784
232	0xbed8a530	-0.42313528
233	0x3c3d9983	0.011572245
234	0xbe8a052c	-0.2695707
235	0xbdc78fc5	-0.09744219
236	0x3e8fda3b	0.28096184
237	0x3e73b189	0.23798193
238	0x3e3597fd	0.1773376
239	0x3e29f41b	0.16597025
240	0xbe9217ef	-0.28533885
241	0x3df8f529	0.121561356
242	0xbe0fdfcf	-0.1405022
243	0x3e284075	0.16430838
244	0xbcfaf7a9	-0.030635672
245	0xbe7c02a9	-0.2461039
246	0xbe1cd271	-0.15314652
247	0x3d92482d	0.07142673
248	0xbecac702	-0.39604956
249	0xbe7586e5	-0.2397724
250	0xbedf3322	-0.435937
251	0x3d5e1e66	0.05422821
252	0x3e0b32c5	0.13593586
253	0xbdf92f4d	-0.12167225
254	0x3e26ba35	0.1628197
255	0x3ce9e581	0.028551819

f_percept.percept.0.bias f4 [16]
0	0x3b5db8b3	0.0033832013
1	0x3bbb55f9	0.005717036
2	0x3c3d04ba	0.011536771
3	0x3bd85f76	0.0066031767
4	0xbb8d208b	-0.004306858
5	0xbbd0ac3f	-0.0063681896
6	0xb9659ab7	-0.00021896778
7	0x3b3dfc73	0.0028989583
8	0x3bee09cb	0.007264351
9	0x3b2aeb7b	0.0026080299
10	0x3bd00da4	0.0063492823
11	0xbb78c614	-0.003795986
12	0x3aba7257	0.001422475
13	0xbb09462f	-0.0020946374
14	0xbadb3683	-0.001672462
15	0xbabfa5af	-0.0014621521

f_percept.percept.3.weight f4 [64, 576]
0	0x3ca91b2a	0.020642836
1	0xbd2ba6ee	-0.041907243
2	0x3bf2b0eb	0.007406344
3	0xbd6de22c	-0.058077022
4	0xbd11c219	-0.035585497
5	0x3c15be82	0.009139659
6	0xbb050d7a	-0.0020302222
7	0x3d865a49	0.06560189
8	0xbccd94c0	-0.025095344
9	0x3d33089f	0.043709394
10	0xbd5e1e5e	-0.05422818
11	0xbd8ee033	-0.06976356
12	0xbd14d64a	-0.036337174
13	0xbc135c18	-0.008994125
14	0x3ca5ab1e	0.020223197
15	0x3cb05ff4	0.021530129
16	0xbd0e658f	-0.034764823
17	0x3cfc0ba1	0.030767264
18	0x3d3da66a	0.046301283
19	0x3cb6ad1c	0.022299342
20	0x3d6ccce0	0.05781257
21	0xbc6f9902	-0.014623882
22	0xbd501cc0	-0.050808668
23	0xbd691e98	-0.056913942
24	0x3d1cec8b	0.038311522
25	0xbc1ebec4	-0.009689037
26	0x3c3ade1a	0.011405492
27	0xbad96b5d	-0.0016587783
28	0x3c49b407	0.012310988
29	0x3d4cf4fc	0.050038323
30	0xbd1c77d8	-0.03820023
31	0xbd074ce1	-0.0330323
32	0xbb656351	-0.0035001824
33	0xbd139572	-0.036031194
34	0xbd2271d6	-0.039659344
35	0xbc095356	-0.008381685
36	0xbb9730ea	-0.0046139853
37	0x3d64d3f7	0.055866208
38	0xbce6c554	-0.028170265
39	0x3c520b60	0.012820095
40	0x3cb28fca	0.02179708
41	0x3ac09728	0.0014693486
42	0x3c7c4cd1	0.015399174
43	0x3d353d12	0.044247694
44	0xbc6da9cd	-0.014505816
45	0xbce1ee95	-0.027579585
46	0x3cf539e3	0.02993483
47	0x3cf95676	0.030436736
48	0xbc26d054	-0.010181505
49	0xbcdf1283	-0.027230507
50	0x3cf6b3be	0.030115005
51	0xbcba3ce2	-0.02273411
52	0xbdcc8988	-0.099871695
53	0x3da8059f	0.08204197
54	0x3d560e3f	0.05225968
55	0x3d637e14	0.05554016
56	0xbd0f3965	-0.034966845
57	0xbb43fb8e	-0.0029904577
58	0xbd01e688	-0.031713992
59	0xbcb5c355	-0.022187868
60	0xbda60a42	-0.08107425
61	0xbd946c8a	-0.07247265
62	0xbb35cc6d	-0.0027740255
63	0xbcea2912	-0.028584037
64	0x3d147ded	0.036252905
65	0xbd25d5b3	-0.040487003
66	0xbcc541d4	-0.02407924
67	0x3d17e804	0.0370865
68	0xbc2a8189	-0.01040686
69	0xbd0d8fa6	-0.034560822
70	0xbd87f661	-0.0663879
71	0xbd323205	-0.043504734
72	0xbc7c6ce0	-0.015406817
73	0xbc08b509	-0.008343943
74	0x3d4ce77b	0.050025444
75	0xbca86d52	-0.02055994
76	0xbc0d6dd9	-0.008632147
77	0x3dc38fac	0.095488876
78	0xbd3edff4	-0.046600297
79	0x3b93e161	0.0045129512
80	0x3dda17be	0.1064906
81	0x3d419906	0.047265075
82	0x3d68d799	0.056846235
83	0xbd8a1c00	-0.06743622
84	0x3cbe504e	0.023231652
85	0xbd85bd29	-0.0653022
86	0xbd13ec98	-0.036114305
87	0x3cf59020	0.02997595
88	0xbc1cbeaf	-0.009566947
89	0xbd651ddf	-0.05593669
90	0xbccfbb40	-0.025357842
91	0x3bebd420	0.007196918
92	0xbc23c83c	-0.00999647
93	0xbd0bbba6	-0.034114502
94	0xbcd351ee	-0.025795903
95	0xbd25afa5	-0.04045071
96	0xbd18a366	-0.037265204
97	0xbd17d7d9	-0.037071083
98	0xbc9040a4	-0.017608948
99	0xbd0f30e4	-0.034958735
100	0x3c828e99	0.015937136
101	0x3cd12244	0.025529034
102	0x3ca0c050	0.019622952
103	0xbd5adc3a	-0.05343268
104	0xbc11d0a0	-0.008899838
105	0xbc1afaa9	-0.009459176
106	0x3d1dca4e	0.03852301
107	0x3d5213ff	0.0512886
108	0x3c441285	0.011967306
109	0x3c87bc92	0.01656941
110	0xbd2777a8	-0.040885597
111	0xbc9c87cf	-0.019107727
112	0x3d0b680b	0.03403477
113	0x3cf0e754	0.02940718
114	0xbd434761	-0.047675494
115	0xbbe713df	-0.0070519294
116	0x3cce8f25	0.025214741
117	0x3cfd8817	0.030948682
118	0xbd7669ec	-0.06015961
119	0x3bfbfb88	0.007689897
120	0xbbb491ea	-0.0055105584
121	0xbdb99670	-0.09061897
122	0x3b0312c8	0.0020000208
123	0x3cc3338c	0.02382829
124	0x3bc92501	0.0061384444
125	0xbd331ee7	-0.043730643
126	0xbd8ea53c	-0.0696511
127	0xbd32a1bb	-0.04361127
128	0xbc129f69	-0.008949139
129	0x3d2962b8	0.04135391
130	0xbdaf86ab	-0.08570608
131	0xbb4e3fa4	-0.0031471038
132	0xbc1e48fc	-0.0096609555
133	0xbd12ac7f	-0.035809036
134	0xbb884c0c	-0.004159456
135	0xbd878c28	-0.066185296
136	0x3ce506a1	0.027957262
137	0x3b87359f	0.004126265
138	0x3bb830a0	0.005621031
139	0xbd00d9b1	-0.031457607
140	0xbd8537ea	-0.065048054
141	0xbb80f799	-0.003935766
142	0x3d3669ca	0.044534482
143	0x3c873a92	0.01650742
144	0x3bfea4e4	0.0077711213
145	0x3cf6e2e7	0.030137492
146	0xbcb84b0f	-0.022496728
147	0xbccae775	-0.02476857
148	0xbc070f67	-0.008243418
149	0x3c2e31d8	0.010632001
150	0xbce450ba	-0.027870525
151	0xbc96ab72	-0.018392298
152	0xbd3e71ef	-0.046495374
153	0x3d2ef417	0.04271325
154	0x3c876751	0.016528757
155	0x3cc39ede	0.023879465
156	0xbd17e08b	-0.037079375
157	0xbc6d5b87	-0.014487154
158	0x3d1d7ef3	0.038451146
159	0xbbd1093b	-0.006379274
160	0xbd80273e	-0.06257485
161	0x3b8e4a37	0.004342343
162	0xbd239888	-0.039940387
163	0xbbc0991b	-0.0058776266
164	0xbe271cfa	-0.16319647
165	0xbd16b338	-0.03679201
166	0xbd1f3049	-0.038864408
167	0xbd488f08	-0.04896453
168	0xbcc5cc95	-0.024145404
169	0x3cdf3930	0.027248949
170	0xbcab9ad6	-0.020947855
171	0xbd8c8994	-0.068621784
172	0xbd7a7f60	-0.06115663
173	0xbcc8e71e	-0.024524268
174	0xbc73a60b	-0.014871131
175	0xbcbcc5b6	-0.023043495
176	0x3c957918	0.018246219
177	0xbdb36bc7	-0.08760791
178	0x3d2ed6dd	0.04268538
179	0xbc063167	-0.008190489
180	0xbce2dc1f	-0.027692853
181	0xbc571150	-0.013126686
182	0x3d9343bf	0.07190656
183	0x3d8169fc	0.06319043
184	0x3cd5e1a0	0.026108563
185	0x3c8a1dcd	0.016859913
186	0x3caa800b	0.020813009
187	0xbcbd4c4b	-0.023107668
188	0xbceb5ee0	-0.028731763
189	0xbd70368f	-0.05864578
190	0xbcd3544e	-0.025797036
191	0xbd66a44f	-0.05630904
192	0xbd1b16b5	-0.037863452
193	0xbda0ef41	-0.07858134
194	0xbd794521	-0.060856942
195	0x3bfa24fe	0.0076338043
196	0xbcec006f	-0.0288088
197	0xbc1d44d5	-0.00959893
198	0xbd668808	-0.056282073
199	0xbcb20d14	-0.021734752
200	0xbcf41165	-0.02979345
201	0x3ce27478	0.027643427
202	0x3c6d368d	0.014478338
203	0x3b5abed9	0.0033377914
204	0x3d07e10e	0.033173613
205	0xbd06cf18	-0.032912344
206	0x3da01cba	0.07817979
207	0xbd0ed653	-0.034872364
208	0x3cafdf70	0.021468848
209	0x3d31a358	0.043368667
210	0xbd2b35b1	-0.04179925
211	0xbd41698f	-0.04721981
212	0xbd0df4fb	-0.03465746
213	0x3cf7d130	0.030251116
214	0x3cce6bfb	0.025197973
215	0xbdc51c31	-0.09624518
216	0xbc87016e	-0.016480174
217	0xbc649ba5	-0.013953124
218	0x3cc3bcc3	0.02389372
219	0x3d0475a9	0.032338772
220	0xbda1216d	-0.078677036
221	0xbc0c9f98	-0.008582972
222	0xbb97a20e	-0.0046274727
223	0xbbdc5881	-0.0067244177
224	0x3c37c407	0.01121617
225	0x3a952c6e	0.0011381039
226	0xbc1aa6dd	-0.009439197
227	0x3dbcd38d	0.092200376
228	0xbceb2739	-0.028705226
229	0x3d434c81	0.04768038
230	0x3d33ecc8	0.043926984
231	0x3c683701	0.01417327
232	0xbb83a45a	-0.004017395
233	0xbc9cc019	-0.019134568
234	0xba759bb6	-0.0009369211
235	0x3d1b9188	0.037980586
236	0x3cb97a06	0.022641193
237	0xbc2a8785	-0.010408287
238	0x3d5025d3	0.050817322
239	0xbb1d27f3	-0.002398011
240	0xbd36f962	-0.044671424
241	0xbd5d2979	-0.05399463
242	0x3d68b24e	0.05681067
243	0x3d0ec5ca	0.034856595
244	0xbcef2042	-0.029190186
245	0xbd1d9b8b	-0.038478415
246	0xbc537bb9	-0.012907916
247	0xba87fcff	-0.0010375081
248	0xbb9269fb	-0.0044682003
249	0xbc48b0d0	-0.012249187
250	0x3bc2c828	0.0059442706
251	0xbcd01f26	-0.025405478
252	0x3cb8ff2f	0.022582619
253	0xbd1849c9	-0.037179742
254	0xbc6f4854	-0.014604647
255	0xbbe780a1	-0.0070648943

f_percept.percept.3.bias f4 [64]
0	0xbaa358ff	-0.0012462436
1	0xbba0027c	-0.0048831087
2	0xbbbe9015	-0.0058155158
3	0x3bab137e	0.0052208295
4	0x3b2b1b06	0.0026108637
5	0x3a80c34d	0.0009823829
6	0x3b7f65de	0.003897063
7	0x3b587bd1	0.0033032785
8	0xbb8e6f21	-0.0043467437
9	0x3bca0ceb	0.0061660907
10	0xb9e31c60	-0.00043317955
11	0xbafeb50b	-0.0019432617
12	0xbbf1a9e3	-0.0073749884
13	0x3b8b43bc	0.004250018
14	0x3c0589ce	0.008150531
15	0x3af62d21	0.001878176
16	0x3b6e9b14	0.0036408352
17	0xba98ac66	-0.0011648058
18	0xb96b2f28	-0.00022428914
19	0x3b8d8a32	0.0043194527
20	0x39aac41a	0.00032571034
21	0x3b640ea2	0.003479876
22	0x3b5432c8	0.00323789
23	0x3ada706a	0.0016665582
24	0x3b6d1c8a	0.003618034
25	0xbbbcae8e	-0.005758113
26	0x3b350f70	0.002762761
27	0xb89ec644	-7.570957e-05
28	0x395c0c53	0.00020985426
29	0x3bba88a3	0.005692558
30	0xbab7c083	-0.0014019165
31	0x3b4c80f6	0.0031204796
32	0x3c4b0503	0.012391332
33	0x3b94fa2c	0.0045464244
34	0xba94d46a	-0.0011354808
35	0x3b2ffeba	0.002685471
36	0x38a0345a	7.639146e-05
37	0xbab7a92b	-0.0014012208
38	0x3aa17667	0.0012318612
39	0x3b120d65	0.0022285816
40	0x3a61a80f	0.00086081115
41	0xba82b480	-0.0009972006
42	0x3b2108d9	0.0024571924
43	0xbb2623f7	-0.0025351027
44	0x39f8a636	0.00047426083
45	0xbb0d9f33	-0.0021609783
46	0x3a354794	0.0006915268
47	0x3a0a16e8	0.00052676955
48	0xbb20a78d	-0.002451393
49	0x37a46af4	1.9600127e-05
50	0xb9a91c72	-0.00032255385
51	0x3b4bfc11	0.0031125585
52	0x3ac88947	0.0015299701
53	0xbbdc5f74	-0.006725246
54	0xb8423013	-4.6297977e-05
55	0xbb7724a7	-0.0037711055
56	0xbbf91375	-0.0076011964
57	0x3ac99196	0.0015378471
58	0x3b474634	0.0030406835
59	0xba1659d2	-0.000573543
60	0x3bd7d1d5	0.006586293
61	0xbae222c3	-0.0017252791
62	0xbbb0e2a3	-0.005398111
63	0xbbed826f	-0.007248215

manager.M_space.weight f4 [64, 64]
0	0x3e438c4a	0.19096485
1	0xbdf09ede	-0.117490515
2	0x3cfe1a4a	0.031018395
3	0xbdef9219	-0.11697788
4	0xbda96481	-0.08271123
5	0xbd9ff9f9	-0.078113504
6	0x3c6e6ea8	0.01455275
7	0xbd595bbf	-0.05306601
8	0xbe167477	-0.14692865
9	0x3d5c1c5e	0.05373799
10	0x3cdbaa7c	0.026814692
11	0x3e1d31bb	0.15351002
12	0xbe401fd6	-0.18762144
13	0x3ca07a8c	0.019589685
14	0xbd13e20a	-0.03610424
15	0x3e18863b	0.14894955
16	0x3c70123d	0.014652786
17	0x3e6e1cc3	0.23253159
18	0x3d9861a3	0.07440498
19	0x3e5db12a	0.21649614
20	0xbd26fbdf	-0.040767547
21	0x3da47c05	0.08031467
22	0xbe16baa6	-0.14719638
23	0x3e61b81d	0.2204289
24	0x3d032bb8	0.032024115
25	0x3db104f4	0.08643523
26	0xbd7101b9	-0.058839533
27	0xbc8da211	-0.017289193
28	0x3d6e4f86	0.05818131
29	0xbe11310f	-0.1417887
30	0xbd09e295	-0.03366335
31	0xbe05abf0	-0.1305387
32	0x3d887fae	0.06664978
33	0x3e403620	0.18770647
34	0x3df94fa9	0.12173397
35	0xbeaac900	-0.33356476
36	0xbdceb175	-0.10092441
37	0xbda5cc7e	-0.080956444
38	0x3db103a2	0.08643271
39	0x3cb1164d	0.02161708
40	0xbd36b5b4	-0.04460688
41	0xbe95043c	-0.29104793
42	0xbdc3ed0f	-0.095667
43	0xbdd9d026	-0.10635404
44	0xbdff0d9c	-0.12453768
45	0x3c99461c	0.018710189
46	0x3dbbba21	0.09166361
47	0x3d2f0cbd	0.042736758
48	0xbdc9d483	-0.098549865
49	0x3cc6cd09	0.02426769
50	0xbd89651b	-0.067087375
51	0xbde8a5c3	-0.113597415
52	0x3e42457a	0.18971816
53	0x3d77f7ae	0.06053894
54	0x3e86b73f	0.2631168
55	0x3db5c890	0.08876145
56	0x3e1bc306	0.15211114
57	0xbbbb8cad	-0.005723557
58	0xbe16d6d6	-0.14730391
59	0x3d2c9aa3	0.04213966
60	0xbd83ef0d	-0.0644208
61	0x3e4a78ca	0.1977264
62	0xbdcc855b	-0.09986373
63	0x3dae4821	0.08509851
64	0xbdcdc68e	-0.10047637
65	0xbd759a24	-0.059961453
66	0xbd437188	-0.047715694
67	0xbbe4d008	-0.006982807
68	0x3dd341f5	0.10315315
69	0x3e1542db	0.14576285
70	0x3e0765a4	0.13222367
71	0x3e23183a	0.1592721
72	0x3e8e10bf	0.2774715
73	0xbd3a5abf	-0.0454967
74	0x3e45e7c4	0.19326693
75	0x3e053d48	0.13011658
76	0xbe8570ad	-0.26062527
77	0xbe1e5fec	-0.15466279
78	0x3e2007ff	0.1562805
79	0x3dc16159	0.09442396
80	0xbd5437d1	-0.051811043
81	0xb7d2280e	-2.5052603e-05
82	0x3d20a059	0.03921542
83	0xbd8cbcd4	-0.068719536
84	0x3dafffe0	0.08593726
85	0xbd3d2519	-0.046177957
86	0x3b85a848	0.0040788986
87	0xbda91212	-0.082554
88	0x3ee6a675	0.45048872
89	0xbe46bd82	-0.19408229
90	0xbd9846bc	-0.074353665
91	0x3d26b21c	0.040697202
92	0xbd65348f	-0.055958327
93	0xbdb7668f	-0.089551084
94	0x3d42bfa6	0.04754605
95	0xbe67f4d6	-0.22651991
96	0x38a34cab	7.786726e-05
97	0x3d4b5697	0.049643125
98	0xbde10b3e	-0.109884724
99	0xbd40e69c	-0.047094926
100	0xbd82164f	-0.06351911
101	0x3e35bda3	0.17748122
102	0x3b79c5c9	0.0038112274
103	0xbdf11217	-0.117710285
104	0xbde1cccf	-0.11025392
105	0x3e0b4f1b	0.13604395
106	0x3afff8f2	0.0019529148
107	0xbdbad3ad	-0.09122405
108	0x3e25815a	0.16162625
109	0xbe2ee19e	-0.17078254
110	0x3db862b8	0.09003204
111	0x3dc5a547	0.09650665
112	0xbd4897a9	-0.04897276
113	0xbd2f7735	-0.042838294
114	0xbde02dae	-0.10946213
115	0x3e063146	0.13104734
116	0xbb8e1d1e	-0.004336967
117	0xbe00d1f6	-0.12580094
118	0x3d10591f	0.035241242
119	0xbdffb21b	-0.12485143
120	0x3c62830e	0.013825191
121	0x3d7fc9b4	0.06244822
122	0xbcdf5b9b	-0.02726536
123	0x3dbd4a2d	0.092426635
124	0xbe550869	-0.2080399
125	0x3d5d5228	0.05403343
126	0xbd6beef1	-0.05760092
127	0x3e16b61b	0.14717905
128	0xbda98f06	-0.08279233
129	0xbd96d25d	-0.07364342
130	0x3e48bbb3	0.19602852
131	0x3e328350	0.17432904
132	0x3e4b5963	0.19858317
133	0x3da57f18	0.08080882
134	0x3e1e3661	0.15450431
135	0xbdf700b5	-0.12060682
136	0x3d8e5892	0.06950487
137	0xbe5ace3f	-0.21367739
138	0xbe154385	-0.14576538
139	0xbe256e4e	-0.16155359
140	0xbc80f725	-0.015742848
141	0xbd18163c	-0.03713058
142	0x3da114be	0.078652844
143	0x3d25ec6e	0.04050868
144	0xbd7a2a0c	-0.061075255
145	0xbc3623e6	-0.011116957
146	0xbd7b334d	-0.06132822
147	0x3c3a33f3	0.011364925
148	0x3e15f71f	0.1464505
149	0xbca3775e	-0.01995438
150	0x3e9293b3	0.2862831
151	0xbe0b0cb7	-0.13579069
152	0xbde8bb2d	-0.11363826
153	0x3e78c016	0.24292025
154	0x3bac8a51	0.005265512
155	0x3cd89160	0.026436508
156	0xbd1ba9d2	-0.03800375
157	0xbd8ab37e	-0.06772517
158	0x3d6358c7	0.055504587
159	0xbd9a5313	-0.075353764
160	0x3bfcb32a	0.0077117877
161	0xbdaf4407	-0.08557897
162	0xbe10dfef	-0.14147924
163	0xbdc7d242	-0.097569
164	0x3d160282	0.036623485
165	0x3d9fa717	0.07795542
166	0x3e26f582	0.16304591
167	0x3d87c063	0.06628492
168	0xbe810236	-0.25197
169	0xbdf5e1fe	-0.12005995
170	0xbbef39a7	-0.007300574
171	0xbdf06c83	-0.11739447
172	0xbd395b2a	-0.045252956
173	0xbe50e2db	-0.20399038
174	0xbddd67bb	-0.10810801
175	0xbd4f7f37	-0.05065843
176	0xbe687e5d	-0.22704454
177	0xbdc90198	-0.09814757
178	0x3d873dd7	0.06603592
179	0xbe541011	-0.20709254
180	0x3c95ac06	0.018270504
181	0xbe160fb9	-0.14654435
182	0x3d537563	0.05162562
183	0x3d614b60	0.055003524
184	0x3daef9c6	0.08543734
185	0xb9f27fbc	-0.00046253006
186	0xbcc674f7	-0.024225695
187	0xbe3cbdc5	-0.18431766
188	0x3e144f90	0.14483476
189	0x3e657693	0.22408514
190	0x3e2b6d9b	0.1674103
191	0x3cdd05da	0.02698033
192	0x3d101b8f	0.035182532
193	0x3d47ed06	0.048810028
194	0x3e0eef06	0.13958368
195	0xbe19c6ab	-0.15017192
196	0xbaae0063	-0.0013275262
197	0xbdecfd3b	-0.115717374
198	0xbd9bb90f	-0.076036565
199	0xbca4714f	-0.020073561
200	0xbe97b523	-0.29630384
201	0xba8fd345	-0.0010972997
202	0x3da75c4d	0.08171902
203	0xbdc75558	-0.09733075
204	0x3d6d2393	0.057895254
205	0x3dd37a39	0.103260465
206	0xbe87455f	-0.26420113
207	0xbbfe5ac3	-0.0077622845
208	0xbd90b1fc	-0.07065198
209	0x3e5ba856	0.21450934
210	0xbc7dfd2e	-0.015502257
211	0x3d84ee73	0.06490793
212	0x3e1edccd	0.15513916
213	0x3a97c16f	0.0011578033
214	0x3e22d852	0.15902832
215	0xbd2cdab8	-0.042200774
216	0x3e493c8d	0.19652005
217	0xbd66580b	-0.056236308
218	0x3d6859ca	0.056726255
219	0x3e57215d	0.21008821
220	0x3e4361bf	0.19080256
221	0x3d9e8806	0.07740788
222	0x3dcf6a50	0.101276994
223	0xbe2f0d58	-0.17094934
224	0xbd06bbd9	-0.03289399
225	0x3dee0904	0.11622813
226	0xbd8529e3	-0.0650213
227	0x3e1367a5	0.14395006
228	0xbe185231	-0.14875104
229	0xbd6f92a5	-0.05848946
230	0x3de6089f	0.11232113
231	0x3de29134	0.110628515
232	0xbe107968	-0.14108813
233	0xbc9f2853	-0.019428408
234	0xbe0091d5	-0.1255563
235	0xbe25e562	-0.16200784
236	0x3d420e53	0.047376942
237	0xbc70b29f	-0.014691024
238	0xbd69e06c	-0.05709879
239	0x3dd5eff3	0.10446157
240	0x3e2cee2a	0.16887727
241	0x39e45561	0.0004355116
242	0xbcae4a2e	-0.021275606
243	0xbe56888c	-0.20950526
244	0xbe0f64d4	-0.14003307
245	0xbe042698	-0.12905347
246	0xbe471d15	-0.19444688
247	0xbe24f7d0	-0.16110158
248	0xbe847b00	-0.25875092
249	0x3e3083c2	0.17237762
250	0xbcf959ab	-0.030438265
251	0x3e03e7e5	0.1288143
252	0x3c11a446	0.0088892635
253	0x3ca60978	0.020268187
254	0x3d60c124	0.054871693
255	0x3d1badba	0.038007475

manager.M_space.bias f4 [64]
0	0xbbefb577	-0.0073153335
1	0x3be65acd	0.0070298673
2	0xbbec291b	-0.0072070486
3	0xbb33a715	-0.002741282
4	0xbc655278	-0.013996713
5	0xbb64cb5d	-0.0034911253
6	0x3ae505e3	0.0017473068
7	0xb852666a	-5.0163282e-05
8	0xbbfbd491	-0.007685252
9	0xbbc0d614	-0.005884895
10	0xbb81ddc5	-0.0039632046
11	0xbb890fde	-0.0041827997
12	0xbb513e0e	-0.0031927857
13	0x3ba023cd	0.0048870803
14	0xbb47ae24	-0.0030468786
15	0xb719aaec	-9.1593065e-06
16	0x3b6555f4	0.003499386
17	0x3b12cb56	0.002239903
18	0xbacb496a	-0.001550955
19	0xbb88da52	-0.0041764164
20	0x3a42c728	0.0007430189
21	0x3bfee7ad	0.0077790827
22	0x3c343f46	0.011001414
23	0x3a4e8fa4	0.00078796805
24	0x3c21c8fc	0.009874579
25	0x3b86ceea	0.0041140215
26	0xbc22b5fc	-0.009931084
27	0xb982cc2b	-0.0002494765
28	0xb895cdc3	-7.1432e-05
29	0xbc416225	-0.011803185
30	0xbb9a4f1f	-0.004709139
31	0x39c71325	0.00037970502
32	0x3c1ac416	0.009446165
33	0x3b254747	0.0025219487
34	0xbbd36f8b	-0.006452506
35	0x3c1d2ded	0.009593469
36	0xb9c7f409	-0.00038138058
37	0xbb83b915	-0.004019866
38	0xba18bcc9	-0.0005826471
39	0x3b32c71e	0.0027279328
40	0xbc071f7a	-0.008247251
41	0x3c594b07	0.013262517
42	0xbc1dcd4a	-0.009631464
43	0xba8364a0	-0.0010024495
44	0x3aec96b7	0.0018050288
45	0x3a9d6b78	0.0012010178
46	0xbb348557	-0.0027545297
47	0xbb610d9d	-0.003434039
48	0x363accab	2.7835292e-06
49	0x3b5a6ef7	0.00333303
50	0x3b0fd62e	0.002194773
51	0x3be7022d	0.00704982
52	0xbc17c8c0	-0.009264171
53	0x3b0e09a4	0.0021673227
54	0xbc27a0a3	-0.01023117
55	0xbb58b082	-0.0033064191
56	0xbb7e2103	-0.0038777
57	0xbb39c669	-0.0028347021
58	0xbb02a7bd	-0.0019936406
59	0xba9099ae	-0.0011032128
60	0x3ae8f3f3	0.0017772898
61	0x3b5fe489	0.0034163317
62	0xbc4e8776	-0.012605539
63	0xbc6de621	-0.014520199

manager.M_goals.weight f4 [64, 128]
0	0xbcafb989	-0.021450775
1	0x3cb55828	0.022136763
2	0x3d520ef0	0.051283777
3	0x3e0a121e	0.13483474
4	0x3d7fd615	0.062460024
5	0x3bebea6a	0.007199575
6	0xbce80d1d	-0.028326565
7	0xbc929d3c	-0.01789724
8	0xbcae8ada	-0.021306444
9	0xbc8b60ef	-0.017013995
10	0x3d0001cb	0.03125171
11	0xbe053c4e	-0.13011286
12	0x3d629f2e	0.055327587
13	0xbd4b9d1e	-0.049710386
14	0xbe405a1e	-0.18784377
15	0xbd9726d3	-0.07380452
16	0x3e07ce62	0.13262323
17	0x3db312e5	0.08743838
18	0xbceb2a4f	-0.028706698
19	0x3e000529	0.12501968
20	0xbe6040f6	-0.2189978
21	0xbe326e20	-0.17424822
22	0x3ab4aacd	0.0013783813
23	0x3d3c5bb6	0.0459859
24	0xbd103d06	-0.035214446
25	0x3db91198	0.09036559
26	0x3dcb549a	0.09928246
27	0xbdc9500c	-0.09829721
28	0xbdaea3d6	-0.08527343
29	0xbe4a47c7	-0.19753943
30	0x3c3089d8	0.010775052
31	0xbcda2491	-0.026628764
32	0x3d99c29b	0.07507821
33	0xba8daf4f	-0.0010809692
34	0x3e259cc7	0.16173087
35	0x3db19f2c	0.08672938
36	0xbcdd7a4c	-0.027035855
37	0xbb377933	-0.0027995824
38	0x3d00561b	0.031332117
39	0xbc675e8e	-0.014121665
40	0xbdf44ddc	-0.11928913
41	0x3d9613f8	0.073280275
42	0xbdbeb5df	-0.09312033
43	0x3d747c6a	0.059688963
44	0xbe398b5b	-0.18119566
45	0x3bb4d3f9	0.005518433
46	0xbe26c846	-0.16287336
47	0x3d29f6a9	0.041495
48	0xbdc606fd	-0.09669302
49	0xba5c5188	-0.0008404483
50	0x3da76795	0.081740536
51	0x3cc07a8b	0.023495933
52	0x3de473e3	0.11154916
53	0xbc99fd9f	-0.018797694
54	0xbdb74251	-0.08948196
55	0xbd3d4878	-0.04621169
56	0x3d863f45	0.065550365
57	0x3d99a1f5	0.07501594
58	0x3d946f7f	0.07247829
59	0x3e003941	0.1252184
60	0x3e038e6f	0.12847303
61	0x3d40b1b1	0.04704446
62	0xbe2f1da9	-0.17101158
63	0x3d6a21b1	0.057161037
64	0xbdf1cacd	-0.11806259
65	0xbe0b81ed	-0.13623782
66	0xbdb1a302	-0.086736694
67	0x3d054acb	0.03254203
68	0x3bf7af87	0.0075587663
69	0xba3fff9a	-0.00073241594
70	0xbd187557	-0.03722128
71	0xbde1581b	-0.11003133
72	0xbd16eac1	-0.036844973
73	0x3d0af9ab	0.03392951
74	0x3e031125	0.12799509
75	0xbdc325af	-0.09528672
76	0x3d8158f2	0.06315793
77	0x3ba9f753	0.005186954
78	0xbe1a7c65	-0.15086515
79	0x3d821dd8	0.063533485
80	0x3d2ea47f	0.042637344
81	0xbd940a43	-0.0722852
82	0xbdf378eb	-0.11888298
83	0xbe2c7a1c	-0.16843456
84	0xbcd6e4ca	-0.026232142
85	0xbdbb6fa4	-0.09152153
86	0x3d2ac46d	0.041691232
87	0xbdad8318	-0.0847227
88	0x3c90bde1	0.017668666
89	0xbaf31a53	-0.0018547274
90	0x3d8cf239	0.06882138
91	0xbcd427fe	-0.025897976
92	0xbde5ad75	-0.11214725
93	0x3d04c9c9	0.032419
94	0x3dc53f63	0.09631231
95	0x3dd45a20	0.103687525
96	0x3d5cfd05	0.053952236
97	0xbe07633f	-0.13221453
98	0x3e073657	0.13204323
99	0xbd926fe4	-0.07150248
100	0x3da4af18	0.08041209
101	0x3b3bb2e6	0.0028640567
102	0x3da54256	0.08069293
103	0xbbc719fa	-0.0060760947
104	0x3e3670e2	0.17816499
105	0x3d05bf53	0.032653164
106	0x3c99a20b	0.018754026
107	0x3d664c0f	0.05622488
108	0xbc07cd61	-0.008288712
109	0x3ddd2eaf	0.1079992
110	0x3d3a8d0d	0.045544673
111	0xbde60744	-0.112318546
112	0x3e0b3e9d	0.13598104
113	0xbc49cd8b	-0.012317072
114	0x3d7ec26c	0.062197134
115	0xbd8c1366	-0.068396375
116	0xbd9837ba	-0.07432504
117	0xbdda9186	-0.10672288
118	0xbd5d0530	-0.053960025
119	0xbe00f9ba	-0.12595263
120	0x3dd1e8a3	0.1024945
121	0xbdde8495	-0.10865132
122	0xbda1eaa7	-0.079060845
123	0x3d3734a7	0.044727948
124	0xbe0691aa	-0.13141504
125	0xbce4905a	-0.027900863
126	0x3d4f6e55	0.05064233
127	0x3b890138	0.0041810535
128	0x3d5c3638	0.053762645
129	0x3b57dcee	0.003293808
130	0x3d6fe2e4	0.05856599
131	0x3d0023ce	0.031284146
132	0x3cc14231	0.023591133
133	0x3d5d75d0	0.054067433
134	0x3dc9ad9c	0.098475665
135	0xbdae9a4c	-0.085255235
136	0x3da78768	0.081801236
137	0x3d1d7cc9	0.038449083
138	0x3deecc47	0.116600566
139	0xbd8523b8	-0.065009534
140	0xbc08e52c	-0.00835542
141	0xbcaadaa0	-0.020856202
142	0x3d636df9	0.0555248
143	0xbd268ba3	-0.04066051
144	0x3cd455a9	0.025919752
145	0x3d8bb84e	0.06822263
146	0xbdcae17a	-0.099062875
147	0xbdc3f5d6	-0.09568374
148	0xbd2e4289	-0.04254392
149	0xbdb0589d	-0.08610652
150	0xbd0c97a0	-0.03432429
151	0xbdd68be1	-0.104758985
152	0xbe58e55c	-0.21181244
153	0xbe044ef8	-0.12920749
154	0x3e14d21a	0.14533272
155	0xbdd4283a	-0.10359235
156	0xbd480f4e	-0.04884272
157	0x3dec6230	0.11542165
158	0x3d0f64d5	0.03500827
159	0x3d0b5f9b	0.034026723
160	0x3d0baf30	0.03410262
161	0xbdaf487b	-0.085587464
162	0x3da0676a	0.07832225
163	0x3c700c5d	0.014651385
164	0xbda24fdf	-0.079253905
165	0xbd6b1784	-0.057395473
166	0x3dc29bdf	0.09502386
167	0xbdcb787f	-0.09935092
168	0xbe0306b7	-0.1279553
169	0x3e53be7b	0.20678131
170	0x3d3a65e2	0.04550732
171	0xbd016c33	-0.031597327
172	0x3d75aa62	0.059976943
173	0x3e47a40c	0.19496173
174	0x3d05c9b6	0.03266307
175	0x3ddaeccf	0.10689699
176	0xbe0cb435	-0.13740619
177	0xbd97dc46	-0.07415061
178	0x3dc54a0d	0.09633265
179	0x3e05d846	0.13070783
180	0xbd292b52	-0.04130108
181	0x3b577627	0.003287682
182	0x3de7362e	0.11289631
183	0xbd45c7ea	-0.048286356
184	0x3c2a80cd	0.010406685
185	0x3d2a10be	0.041519873
186	0x3d8fbc3c	0.07018325
187	0x3db44571	0.088023074
188	0x3ddef6dc	0.108869284
189	0xbc9f6765	-0.019458482
190	0xbc07d0ee	-0.008289559
191	0x3d09bb73	0.03362603
192	0xbc677fea	-0.014129618
193	0x3d756e85	0.059919853
194	0xbc01cda0	-0.00792256
195	0xbdcf56e4	-0.10123995
196	0x3da63728	0.08115989
197	0x3ce7250d	0.02821591
198	0x3dbeef10	0.09322941
199	0x3c06b2da	0.0082213525
200	0x3df4e7d6	0.11958282
201	0x3dbdd347	0.092688136
202	0xbd41fee4	-0.047362223
203	0x3da506f5	0.080579676
204	0xbe3217aa	-0.1739184
205	0x3d0a0625	0.033697266
206	0xbde2b1a9	-0.11069042
207	0xbb1f3d93	-0.0024298176
208	0xbdc8b260	-0.09799647
209	0xbe00785a	-0.1254591
210	0xbd837fbc	-0.06420848
211	0x3d92f86b	0.07176288
212	0xbda6eeef	-0.08151042
213	0x3d8ff890	0.070298314
214	0x3d16ea81	0.036844734
215	0xbd478221	-0.048708085
216	0xbdcf3fea	-0.101196125
217	0xbe0f5a01	-0.13999178
218	0xbb5fb882	-0.0034137075
219	0xbccc0213	-0.024903333
220	0xbd6ccd72	-0.057813115
221	0xbe020736	-0.12698063
222	0x3da62931	0.081133254
223	0x3d3f42e0	0.046694636
224	0x3c189958	0.009313904
225	0x3d3c813c	0.046021685
226	0xbdd9dc90	-0.10637772
227	0xbe0eb951	-0.1393788
228	0xbdff9485	-0.124795
229	0xbe7985f4	-0.24367505
230	0x3b89133e	0.004183202
231	0xbc1040ef	-0.008804544
232	0xbe47ebbf	-0.19523524
233	0xbcd22060	-0.025650203
234	0xbd4676b9	-0.048453066
235	0xbdf84de9	-0.12124235
236	0xbdb9c868	-0.090714276
237	0xbde06280	-0.109562874
238	0xbb17d405	-0.0023167145
239	0xbce7ff64	-0.028320022
240	0xbdcec3ff	-0.10095977
241	0xbdca9305	-0.09891323
242	0x3d3b38dd	0.045708526
243	0x3df7d8c6	0.12101893
244	0x3cc3a119	0.023880528
245	0xbbbeea68	-0.0058262832
246	0x3e174b6e	0.14774868
247	0xbc4f2be1	-0.012644739
248	0xbd5364a9	-0.05160967
249	0xbcc6b2d1	-0.024255188
250	0xbe178300	-0.14796066
251	0xbd8aa193	-0.06769099
252	0x3dda2623	0.10651805
253	0x3d569cd3	0.052395653
254	0xbdd0d7d9	-0.1019742
255	0x3df9c588	0.12195879

manager.M_goals.bias f4 [64]
0	0xbb976717	-0.0046204436
1	0xbba2fada	-0.0049737515
2	0xbc7e8492	-0.015534537
3	0xb77a41ad	-1.49164525e-05
4	0xbb9c0d7d	-0.00476235
5	0x3aa59e98	0.0012635766
6	0x393b75f0	0.00017877645
7	0xbbd3abda	-0.0064596953
8	0xbb032947	-0.0020013617
9	0xbbc7b7ef	-0.0060949246
10	0x3a70a146	0.0009179305
11	0xbc091dbc	-0.008368906
12	0xbbb312c2	-0.0054648826
13	0xbc074c1c	-0.008257892
14	0xbbc05081	-0.005868972
15	0xbb9b7ed3	-0.0047453432
16	0xbaf7fd79	-0.0018920145
17	0x3b8a3c51	0.004218616
18	0xbb88e7a0	-0.0041780025
19	0xbad59667	-0.0016295434
20	0xbb17874b	-0.0023121412
21	0x3bf790d7	0.007555108
22	0x3a21d2d1	0.00061730767
23	0xbbd3c877	-0.0064631063
24	0xbb86fcfb	-0.004119513
25	0x3ab37715	0.0013692105
26	0xbab6330e	-0.0013900714
27	0x3b878813	0.0041360944
28	0x3c0b331f	0.008496075
29	0xbbe31a70	-0.006930642
30	0x3a3c03f3	0.00071722193
31	0xba8e01d8	-0.001083429
32	0x3b552300	0.0032522082
33	0xbb8aeded	-0.0042397887
34	0x398cbcae	0.00026843458
35	0xbb202b1a	-0.0024439753
36	0xbc1cd7d0	-0.009572938
37	0xbc2eb0b0	-0.010662243
38	0xb82ffb40	-4.1957246e-05
39	0xba7ae613	-0.0009571027
40	0x3b2c8f15	0.00263304
41	0x3b9ef552	0.004851022
42	0xbaf35923	-0.0018565994
43	0xbc126ca8	-0.0089370385
44	0xba3a42ce	-0.00071052916
45	0x3bb11b75	0.0054048845
46	0x3a40d14d	0.0007355407
47	0xbb087a66	-0.0020824908
48	0xbb78ea14	-0.0037981318
49	0x3b10d988	0.0022102315
50	0x3abd0076	0.0014419693
51	0xbbbfcb90	-0.005853124
52	0xbaf2b720	-0.001851771
53	0xbc14604d	-0.009056163
54	0xbba66908	-0.0050784387
55	0xbba9d70d	-0.0051831068
56	0x3c1ee955	0.009699185
57	0xbb944be7	-0.00452565
58	0x3bd998cb	0.006640529
59	0xbb03980f	-0.0020079648
60	0xbac7cc0d	-0.0015243307
61	0xb9e32884	-0.00043327
62	0x3b7a98bb	0.0038238007
63	0x3b21ad46	0.002466993

manager.M_value.weight f4 [1, 64]
0	0xbe1c75ad	-0.15279265
1	0xbdaabf80	-0.08337307
2	0x3bb88608	0.005631212
3	0x3dadd932	0.08488692
4	0xbe03b1b6	-0.1286076
5	0xbe01b7f1	-0.12667824
6	0xbdd1761c	-0.10227606
7	0x3e734541	0.23756887
8	0xbd43cfd1	-0.04780561
9	0x3dc10d1e	0.0942633
10	0x3da0e8ee	0.07856928
11	0x3d83a3ec	0.0642775
12	0xbdf285bc	-0.11841914
13	0x3da3bd4c	0.0799509
14	0xbe2641bd	-0.16236015
15	0xbe25373e	-0.16134354
16	0xbe0c13de	-0.13679454
17	0xbe864356	-0.26223248
18	0xbdc8801f	-0.09790062
19	0x3d8502f0	0.06494701
20	0xbd02291f	-0.031777497
21	0xbe0c5153	-0.13702898
22	0x3e4fe0b6	0.20300564
23	0x3d16a08c	0.036774203
24	0x3c15e0f5	0.009147872
25	0x3e147d5d	0.14500947
26	0x3dcb89ca	0.099383906
27	0xbd7f6967	-0.06235638
28	0x3db446f0	0.08802593
29	0x3e396cb4	0.18107873
30	0xbd6ae04b	-0.05734281
31	0xbc7608ab	-0.015016715
32	0xbd91e989	-0.071246214
33	0xbdf2cbef	-0.118553035
34	0x3e14f2aa	0.14545694
35	0xbe770065	-0.24121244
36	0x3dd701b7	0.10498374
37	0xbc3ec743	-0.011644187
38	0x3e19d792	0.1502364
39	0x3e0e7ac2	0.13914016
40	0x3e4751b1	0.19464757
41	0xbd3bd205	-0.045854587
42	0xbcdf1f5d	-0.027236635
43	0xbe568ee4	-0.20952946
44	0xbdd179af	-0.102282874
45	0x3d7f01cd	0.062257577
46	0x3d91b62c	0.07114825
47	0xbdd45ad6	-0.10368888
48	0x3a51e7c0	0.0008007251
49	0xbca2e233	-0.01988325
50	0x3dc20864	0.09474257
51	0x3d5575a6	0.05211415
52	0xbd84cf84	-0.06484893
53	0xbdbb4239	-0.0914349
54	0xbe27eb25	-0.16398294
55	0x3e96c656	0.29448193
56	0x3d3c9c4a	0.046047486
57	0xbc4f021b	-0.012634779
58	0xbc70daaa	-0.014700571
59	0x3d843215	0.06454865
60	0x3d3283ed	0.043582845
61	0x3da781d7	0.08179062
62	0xbdc8e1a5	-0.09808663
63	0x3e2cf468	0.16890109

worker.f_stateW.0.weight f4 [128, 64]
0	0xbcda30d1	-0.026634606
1	0xbde8c400	-0.11365509
2	0xbdf754be	-0.1207671
3	0xbd6bd70d	-0.057578135
4	0x3d0587f3	0.032600354
5	0x3e23c914	0.15994674
6	0x3d0ae16c	0.033906385
7	0x3daebcff	0.08532142
8	0xbe19ed9f	-0.15032052
9	0xbd469671	-0.048483316
10	0x3d2ab2ed	0.041674543
11	0xbe16b8d1	-0.1471894
12	0xbdb51004	-0.08840945
13	0x3e0c73f5	0.13716109
14	0xbcc903ab	-0.024537882
15	0x3d571536	0.052510463
16	0xbe17225e	-0.14759204
17	0x3d2144ff	0.03937244
18	0xbda386d9	-0.079847045
19	0xbb62617f	-0.0034542975
20	0x3d22ecc9	0.039776597
21	0x3d2963d7	0.04135498
22	0xbd419169	-0.047257815
23	0xbe6d9627	-0.2320181
24	0x3c363956	0.011122068
25	0x3e3daa2f	0.18521951
26	0xbdb43b94	-0.08800426
27	0x3c81ac47	0.015829219
28	0xbc8fcbe4	-0.017553277
29	0xbe267a7f	-0.16257666
30	0xbce52034	-0.027969457
31	0x3d24c547	0.0402272
32	0x3e1c86b9	0.15285768
33	0x3d8f8945	0.07008604
34	0x3baf5af7	0.00535142
35	0xbd9c462f	-0.07630574
36	0xbcd627a6	-0.026141953
37	0xbe086ce2	-0.13322785
38	0xbd028bbe	-0.03187155
39	0x3d623007	0.055221584
40	0x3d8e679c	0.06953356
41	0xbc86abe6	-0.01643939
42	0x3dbe9e1f	0.09307503
43	0x3d84c707	0.06483274
44	0x3de87d9d	0.11352084
45	0xbd81c5f6	-0.06336586
46	0xbdb88590	-0.0900985
47	0xbc96c80d	-0.018405939
48	0x3de0dd95	0.109797634
49	0xbdb52287	-0.08844476
50	0x3c2731b1	0.010204718
51	0xbc81db65	-0.015851686
52	0x3c58d1b8	0.013233595
53	0xbd1fcaf3	-0.039011907
54	0xbcc4e41c	-0.024034552
55	0x3da4a989	0.08040149
56	0x3d851324	0.064977914
57	0x3e25ca6d	0.161905
58	0x3e18270c	0.14858645
59	0x3bd304a5	0.0064397627
60	0xbcedfc41	-0.029050948
61	0xbe185129	-0.1487471
62	0xbd0928fd	-0.033486355
63	0x3e096be9	0.1342007
64	0x3c85c1e0	0.016327798
65	0x3daee712	0.08540167
66	0x3db29e28	0.08721572
67	0x3c92da6e	0.017926421
68	0xbdbd37eb	-0.09239181
69	0xbbe73e4e	-0.007056988
70	0xbd868ba3	-0.06569602
71	0xbd9a74c0	-0.075417995
72	0xbd5d311c	-0.054001912
73	0xbdccd33f	-0.100012295
74	0x3dc8fbed	0.09813676
75	0xbd0d146e	-0.03444331
76	0xbd858696	-0.06519811
77	0xbc0f84b7	-0.008759669
78	0xbd4a4b80	-0.04938841
79	0xbcd50e60	-0.026007831
80	0xbde9c28b	-0.11414059
81	0x3e264c42	0.16240028
82	0x3e43762b	0.19088046
83	0x3d376bbd	0.04478048
84	0xbdbd333b	-0.09238287
85	0xbd4c465f	-0.0498718
86	0x3dae29f8	0.08504099
87	0xbc713263	-0.014721486
88	0x3e18206a	0.14856115
89	0x3e158752	0.14602402
90	0xbda92561	-0.082590826
91	0x3b8c4547	0.0042807194
92	0xbe253c76	-0.16136345
93	0x3d8cfe1c	0.06884405
94	0xbe138090	-0.14404511
95	0xbd25b27f	-0.04045343
96	0xbd9d3b90	-0.07677376
97	0xbd8bf9df	-0.068347685
98	0xbb1695b5	-0.0022977416
99	0xbd472e80	-0.04862833
100	0x3cfcecf3	0.030874705
101	0xbd0b39d6	-0.033990704
102	0xbd8878e4	-0.06663683
103	0x3d8742c0	0.066045284
104	0x3ccd9192	0.025093827
105	0x3be541fb	0.006996391
106	0xbe0d6542	-0.13808158
107	0x3cc5be3a	0.024138559
108	0x3d9647b9	0.07337899
109	0x3d594e17	0.053052988
110	0x3c015a28	0.00789503
111	0x3cb9b27e	0.02266812
112	0x3c3b201f	0.0114212325
113	0xbd77b058	-0.06047091
114	0x3d98739e	0.07443927
115	0xbdcb8a46	-0.09938483
116	0x3d551a81	0.05202723
117	0x3dec28eb	0.11531242
118	0xbdb6e849	-0.08931024
119	0xbdb490a6	-0.08816652
120	0x3ca8a945	0.020588527
121	0x3d4a150a	0.04933647
122	0x3e038e38	0.12847221
123	0x3c359a94	0.011084218
124	0x3d33f2c5	0.043932695
125	0xbd2479a8	-0.040155083
126	0x3d46ccfb	0.04853533
127	0x3dc125c3	0.094310306
128	0xbc5381c7	-0.012909359
129	0xbdce5b69	-0.10076029
130	0x3dddc6da	0.108289436
131	0xbd5e5bf4	-0.054286912
132	0x3c28f595	0.010312458
133	0x3c917f08	0.017760769
134	0x3e3bdab5	0.18345149
135	0x3dffb493	0.12485614
136	0xbcbc2798	-0.022968099
137	0x3c6965b1	0.0142454365
138	0xbda42930	-0.080156684
139	0x3dff833c	0.12476203
140	0xbd2466b9	-0.040137026
141	0x3d41775c	0.04723297
142	0xbcb16ee2	-0.021659318
143	0x3d3dea72	0.046366163
144	0x3e7ce6fe	0.24697492
145	0x3d29e1a8	0.04147497
146	0x3c0c1525	0.008549963
147	0xbdf97bd0	-0.121818185
148	0xbd4905d8	-0.04907784
149	0x3dc511ff	0.09622573
150	0xbdfb936f	-0.1228398
151	0x3e198a54	0.14994174
152	0x3e05d817	0.13070713
153	0xbce0d47e	-0.027445074
154	0xbe2c2643	-0.1681147
155	0x3df98735	0.12183992
156	0xbe248ad6	-0.16068587
157	0x3d308cb9	0.043102954
158	0xbd61b5b9	-0.055104945
159	0x3dac07db	0.08399936
160	0xbda23549	-0.079203196
161	0x3d60d4bd	0.054890383
162	0xbda9b23e	-0.0828595
163	0x3ccea807	0.025226606
164	0x3d20b54c	0.0392354
165	0x3d180323	0.037112366
166	0x3e02c907	0.12771998
167	0x3beed270	0.0072882697
168	0xbd4c2b2b	-0.049845856
169	0x3d0884f1	0.033329908
170	0x3d6f91d4	0.058488682
171	0x3d3f05fb	0.046636563
172	0x3ddddec2	0.10833503
173	0xbc457b29	-0.012053289
174	0xbda6cf71	-0.08145035
175	0x3d939417	0.0720598
176	0xbe1cebe4	-0.1532436
177	0x3c9f06eb	0.019412478
178	0x3dc02a59	0.09383077
179	0xbcb34263	-0.021882242
180	0xbe0ac3b5	-0.13551219
181	0xbdc313cf	-0.095252626
182	0xbde8b92e	-0.11363445
183	0xbc1ea3c4	-0.009682599
184	0x3e317da1	0.1733308
185	0x3dcbaa90	0.099446416
186	0x3ddb7bc2	0.10716964
187	0xbd48fa38	-0.049066752
188	0xbcd35d39	-0.025801288
189	0xbd568f32	-0.052382655
190	0xbbc953de	-0.006144031
191	0xbc9b62ff	-0.018968103
192	0x3c04536e	0.008076532
193	0x3df5c786	0.12000947
194	0x3d8c6685	0.068554915
195	0x3cf5003e	0.029907342
196	0x3c5613c1	0.013066233
197	0x3e2bd216	0.1677936
198	0x3d17109e	0.03688108
199	0x3d865283	0.065587066
200	0x3e08a9df	0.1334605
201	0x3c88b495	0.01668767
202	0xbde9cf00	-0.11416435
203	0xbd21f8ed	-0.039544035
204	0xbe42c8f1	-0.19021966
205	0xbdcc2efc	-0.09969899
206	0x3bfa13af	0.007631741
207	0xbd73ae38	-0.05949232
208	0x3d0433fc	0.03227614
209	0x3db2bc9c	0.08727381
210	0xbb5ba363	-0.0033514134
211	0x3dd4b28d	0.10385618
212	0x3dc80a16	0.09767549
213	0xbe35e72b	-0.17763965
214	0x3c124452	0.008927422
215	0x3d961e8d	0.07330046
216	0xbe054f06	-0.13018426
217	0x3d553699	0.05205402
218	0x3cfecb41	0.031102778
219	0xbd3a9eb5	-0.04556151
220	0xbce30feb	-0.027717551
221	0xbde67444	-0.11252645
222	0xbdf30bd4	-0.118674904
223	0xbe0ed136	-0.13946995
224	0x3bd6c4af	0.006554208
225	0x3bccc84c	0.006249463
226	0xbd1abe29	-0.037779007
227	0xbda638e5	-0.081163205
228	0xbca24a36	-0.019810777
229	0x3d0a5e11	0.033781115
230	0xbd7b2cd7	-0.06132206
231	0x3d7a6928	0.06113544
232	0xbe2e338d	-0.17011853
233	0xbd981c9d	-0.074273326
234	0x3c5c7cb7	0.013457469
235	0x3d957fc3	0.07299759
236	0xbcd3ed85	-0.025870094
237	0xbe2b3ccb	-0.1672241
238	0xbd14598a	-0.036218204
239	0xbdc444f2	-0.09583463
240	0xbd95d64d	-0.07316265
241	0x3d0d1eab	0.034453075
242	0xbcf4b272	-0.029870246
243	0xbd2bbafe	-0.041926377
244	0x3d38f885	0.04515888
245	0xbc4d4e3f	-0.012530862
246	0xbc03a08c	-0.008033883
247	0x3d20aebc	0.03922914
248	0x3d1d0eea	0.0383443
249	0xbd4915b1	-0.049092952
250	0xbd82533f	-0.06363534
251	0x3dbe6271	0.0929612
252	0xbded0422	-0.11573054
253	0xbd76bbbc	-0.06023763
254	0x3caa54c4	0.020792373
255	0xbdcc502b	-0.09976228

worker.f_stateW.0.bias f4 [128]
0	0x3bdb48eb	0.006692042
1	0xbb2c9b3a	-0.002633764
2	0x3b5ecc1d	0.0033996173
3	0xbc919f9a	-0.0177763
4	0xbb786b5f	-0.0037905795
5	0xbb363c6a	-0.0027807006
6	0x3abd1b73	0.0014427736
7	0x3ac0a742	0.0014698284
8	0xba28a09b	-0.00064326235
9	0x3c0354e2	0.008015843
10	0xbb3601a7	-0.002777198
11	0xbbff8066	-0.0077972887
12	0xbb2541fb	-0.002521633
13	0x3a893980	0.0010469407
14	0xbbbb4981	-0.0057155495
15	0xbae6497c	-0.0017569507
16	0xba3cff08	-0.00072096335
17	0xba404058	-0.0007333807
18	0x3b48d8ab	0.0030646722
19	0x3b730f6c	0.003708805
20	0xbbaf2887	-0.0053454074
21	0x3c0c2a4e	0.008555008
22	0x3bce36f4	0.006293172
23	0xbba9b697	-0.005179237
24	0xbbaf410e	-0.0053483313
25	0xbb624bb8	-0.0034529995
26	0x3c09b975	0.008406033
27	0x3ab4dcd6	0.0013798724
28	0xba6da1a5	-0.00090649194
29	0xbbbd06cd	-0.005768633
30	0x3bdc18a8	0.0067168064
31	0x3b024b8b	0.0019881453
32	0x3b92d459	0.00448088
33	0x3b6a15b2	0.0035718498
34	0xbb356335	-0.002767754
35	0xbaca6d92	-0.0015444031
36	0x3beb5681	0.007181943
37	0x3baf4493	0.005348751
38	0x3b0f3833	0.0021853566
39	0xbb4c19f3	-0.0031143397
40	0xbabdb0bb	-0.0014472225
41	0xbc0ca349	-0.008583852
42	0x3ac117be	0.0014731807
43	0x3bc72854	0.0060778055
44	0x3b0d2ed8	0.0021542814
45	0x3aae802c	0.0013313345
46	0xbc22d10e	-0.009937538
47	0x39ce2d0b	0.00039324941
48	0x39d40920	0.0004044259
49	0x399a775e	0.00029462104
50	0xbb25c399	-0.0025293587
51	0x3bb2b7aa	0.0054540234
52	0xbbe82342	-0.007084281
53	0x3b2407df	0.0025029106
54	0xbae8cd3f	-0.0017761363
55	0xbbd14340	-0.0063861907
56	0x3c26a42b	0.010170977
57	0xbba2e525	-0.004971164
58	0x3b27d370	0.0025608204
59	0x3b1f7b9e	0.0024335156
60	0xbc2e3f6f	-0.010635241
61	0xbb06bbce	-0.0020558718
62	0xba09d0c4	-0.0005257244
63	0x3a3f83e8	0.00073057273
64	0x3bc51570	0.0060145184
65	0x3bc0ef3d	0.0058878944
66	0x3a1220b3	0.00055743306
67	0xbad8d512	-0.0016542992
68	0x3c0c5b2d	0.00856666
69	0xbac6507a	-0.0015130185
70	0x3ba8ef3f	0.0051554735
71	0xbbc8a6fa	-0.006123421
72	0xbbc19c22	-0.005908505
73	0x3a0519be	0.0005077383
74	0x3c247db9	0.01003974
75	0xbb16b2fb	-0.0022994864
76	0xbbbabed1	-0.0056990166
77	0x3b739368	0.0037166718
78	0xba10be4a	-0.00055215193
79	0xbb8049dc	-0.0039150547
80	0xbb6030a5	-0.0034208682
81	0xba6e07a2	-0.0009080117
82	0x3b86fa4b	0.0041191927
83	0xbb607090	-0.003424678
84	0x399d3d0f	0.00029990866
85	0xb9871dd8	-0.00025771442
86	0xbc09ae30	-0.008403346
87	0xbb5475b9	-0.00324188
88	0xbb5a083b	-0.0033269066
89	0xbb4b720e	-0.0031043324
90	0xbbcecef0	-0.00631129
91	0xbb09d6a4	-0.0021032477
92	0x38c57fb6	9.41748e-05
93	0x3b611bce	0.0034348848
94	0x3c66da61	0.0140901515
95	0x3938e83d	0.00017634123
96	0x3bda2928	0.0066577382
97	0xbc0e28ad	-0.00867669
98	0xbbcd7cb7	-0.0062709707
99	0xbb88574f	-0.0041607986
100	0xbc0b4630	-0.008500621
101	0x3c0fabc8	0.008768983
102	0x3b4e6e26	0.003149876
103	0x398bc263	0.00026656975
104	0xbbb5bd06	-0.005546215
105	0xbbfa7889	-0.0076437634
106	0xbb43f6f7	-0.0029901841
107	0x3bb041e8	0.0053789504
108	0x3bc34df9	0.005960223
109	0x3bb6694e	0.0055667525
110	0xbba27704	-0.0049580354
111	0xbb210812	-0.002457146
112	0x3b681e44	0.003541843
113	0x3b4861f9	0.0030575974
114	0xbbd9ec78	-0.0066505037
115	0x3a8fb1ef	0.0010963063
116	0x3b048988	0.0020223577
117	0x3b01700a	0.0019750618
118	0xbbbb1367	-0.0057091
119	0xb9a1a1ee	-0.0003082896
120	0x3b1a5b4d	0.0023552955
121	0xb91b86ec	-0.00014832214
122	0x3bd223e7	0.0064129713
123	0x3ab07bd1	0.0013464635
124	0xbb437b3f	-0.00298281
125	0x3bd978be	0.006636708
126	0x3c24679b	0.010034467
127	0xbb8592af	-0.004076324
