vwgym/saved_model/vwgym_f_net_step_2400000.pt (torch_old, 382115 bytes, 57 tensors)

f_percept.percept.0.weight f4 [16, 3, 3, 3]
000000 62 e4 88 3d f4 6f 8c bd ef 21 be bd 69 8c 84 be
       0.066841856 -0.06857291 -0.09283816 -0.25888374
000010 46 01 f8 3d 86 2f 8e 3d 5a 0d a7 be 4b 25 1c be
       0.12109618 0.06942658 -0.32627374 -0.15248601
000020 63 0e 59 be 77 ca 9b 3e ce 7c 08 be 8f c8 e2 be
       -0.21196894 0.30427906 -0.13328859 -0.4429364
000030 33 bd 9f 3b d0 61 ac 3d 1b c3 94 3e 41 42 92 bc
       0.004874849 0.08417094 0.29055104 -0.017853858
000040 b6 4b 58 be f2 a7 2d be bc ac 5d 3e c5 11 a5 be
       -0.21122631 -0.16958597 0.21647924 -0.3224012
000050 49 2b b3 3d d4 43 37 be 10 5e 82 bb 89 ba c6 3b
       0.0874849 -0.17896968 -0.0039784983 0.006064717
000060 a9 79 e7 bd 2c 48 43 3e 78 47 cd bd d9 45 70 be
       -0.11302502 0.190705 -0.10023397 -0.23464145
000070 73 53 51 bd 58 dc 92 3e c6 a2 be bd d0 6f 8e 3c
       -0.051104974 0.28683734 -0.0930839 0.0173873
000080 c0 9a 30 3e dc 48 6f be bf 00 03 be 15 d9 38 3e
       0.17246532 -0.23367637 -0.12793253 0.1805156
000090 cd ad 86 bd fc e3 ce 3e 49 2b 2b 3c cf 67 b1 bb
       -0.065761186 0.40408313 0.010447332 -0.0054139863
0000a0 ac b8 3f 3e 53 30 64 3e f0 d0 8d be f4 f6 c7 3d
       0.1872279 0.22284059 -0.2769847 0.097638994
0000b0 5e 17 88 be a4 c6 3d be 19 c9 3f 3d 8e 90 18 be
       -0.26580328 -0.18532807 0.04682264 -0.14898893
0000c0 f9 25 c6 bd ae ff ab 3e 47 d3 72 be 33 8d 58 3d
       -0.096752115 0.33593506 -0.23713408 0.052869033
0000d0 50 fd 1c bc 9a d1 85 3e 48 b9 f6 bd f6 ee 18 3e
       -0.009581879 0.26136476 -0.12047058 0.14934906
0000e0 d7 71 92 3e b4 69 87 3e 0b ea 86 bd 16 7a e9 3d
       0.28602478 0.26447833 -0.06587609 0.11400239
0000f0 4d d7 ca bc 46 a0 08 3e 48 a8 56 be 91 38 59 3e
       -0.024760867 0.1334239 -0.20962632 0.21212985
000100 41 ac 58 bd a9 0d fb bd c4 f4 3c 3d 43 c4 14 bd
       -0.05289865 -0.12258465 0.046131864 -0.036319982
000110 64 26 eb bd 83 0b 99 bb 0e bd 36 3d f7 0d 4b 3e
       -0.11481932 -0.0046705618 0.04461389 0.19829546
000120 df ed 93 3e 09 7e bd bd 27 da 6f be 62 66 f5 bd
       0.2889242 -0.09252555 -0.23423062 -0.119824186
000130 30 c4 f2 3e 4f 09 ca 3e 04 b8 01 3e 0a cb 68 be
       0.47415304 0.39460227 0.12667853 -0.22733703
000140 ba 16 bd 3c e2 b3 00 3e 9b 40 38 be 5a c1 87 3c
       0.023082126 0.1256862 -0.17993395 0.01657169
000150 ca 04 63 3e fa d6 9b 3e c3 8d 1d 3e f0 b6 d6 3d
       0.22169796 0.30437452 0.15386109 0.10484111
000160 10 f8 3d be 19 65 98 bc 2b c7 ba 3e 9e 9f 0b 3e
       -0.1855166 -0.018602895 0.36480078 0.13635108
000170 7e 1e 13 3e aa 4d 13 be b3 9f 09 3d ee 80 1a be
       0.143671 -0.14385095 0.033599567 -0.15088245
000180 a9 a8 82 be 0d be f3 bd 29 1b f5 bd ee 31 b1 3d
       -0.25519302 -0.11901484 -0.11968071 0.086521015
000190 5a 8d 91 3e 8b 52 c1 3d f0 31 44 3d 02 12 c2 3d
       0.28428155 0.09439572 0.047899187 0.09476091
0001a0 30 64 1b be 1d 87 9e 3d 04 fa 95 bd 22 13 09 bf
       -0.15174937 0.077406146 -0.07323077 -0.5354482
0001b0 14 9c 94 3e b8 01 69 bd b5 d1 05 3d db cc d6 bd
       0.29025328 -0.056886405 0.032670695 -0.10488292
0001c0 51 89 43 be 0d 22 de be 83 9f 45 bc 42 59 bc 3d
       -0.19095351 -0.43385354 -0.012061956 0.09196712
0001d0 d5 89 98 3e 5d 1f 6a 3d d4 ba 04 be 31 37 f0 3d
       0.29792657 0.057158817 -0.12961894 0.11729277
0001e0 e5 99 c8 be 50 59 b0 3d 28 87 a9 3d 66 4f 1c 3e
       -0.39179912 0.08610785 0.08277732 0.15264663
0001f0 f3 cc 8c be a0 84 5b 3c 79 b1 ae bc 89 aa ad 3d
       -0.27500114 0.0133983195 -0.02132486 0.084797926
000200 58 5b 5c 3d b9 a3 b9 be ff 34 b1 3e 70 2d 77 bd
       0.05379805 -0.36257723 0.34610745 -0.060346067
000210 e2 36 a2 3d 8b e2 9a bd 69 17 62 ba ba 73 6d 3e
       0.07920624 -0.07562741 -0.0008624704 0.23188677
000220 35 f7 71 3e e5 2a 22 be 97 c9 ac be ad 3a a7 3e
       0.23629458 -0.15836675 -0.3374755 0.32661954
000230 7e e1 1e 3e 7d df 29 bd 97 12 60 3d 1d 81 26 3e
       0.15515706 -0.0414729 0.05470523 0.1626019
000240 39 b0 78 be cb 17 4b 3e 81 66 f2 bc e1 25 0c be
       -0.24285974 0.19833295 -0.029589893 -0.13686325
000250 99 6e 91 bd fd 2d 8d 3c 9f 5c 0a 3e 24 79 62 3e
       -0.07101173 0.017233843 0.13511895 0.22116524
000260 88 a2 10 3e 7f ee 5e 3e 9a 6d a5 bd e6 19 f5 3d
       0.14124501 0.21770667 -0.080775455 0.1196783
000270 31 21 64 3e 85 1b 8d 3e 8f ae 87 3d 81 b2 c2 3e
       0.22278287 0.27560058 0.06625091 0.38026813
000280 c7 99 1b 3e 9e 0b ee bd e6 e9 a7 bd 7d 14 92 be
       0.1519538 -0.116233096 -0.081989095 -0.28531256
000290 2b 43 ea 39 fd 85 b3 be d2 df 4c be 3c 56 55 3c
       0.00044682002 -0.35063162 -0.20007256 0.013021048
0002a0 33 e6 cf 3d 1f d4 63 3e 63 ba 5f 3e 73 01 85 3c
       0.10151329 0.22248887 0.21848445 0.016236043
0002b0 93 6d 0c 3e 1a 65 78 3e cf 6e 8e 3e 8b 3c 03 be
       0.13713674 0.24257317 0.27818915 -0.12816064
0002c0 03 d1 8a 3d a1 ed a3 3b 77 88 0e bd a5 7c 9c be
       0.06778147 0.005002693 -0.03479811 -0.30563846
0002d0 c1 ca 49 3e ae 2e 9f bd 6c b8 a4 be fe ec 98 bd
       0.1970625 -0.07772575 -0.32171953 -0.07467078
0002e0 86 e4 d6 bd fd c4 9a 3e da c9 8c 3d 82 97 78 3c
       -0.10492806 0.30228415 0.06874438 0.015172841
0002f0 b4 ba a8 be f0 6e 92 bd f4 cf 86 be 7f b8 6b 3e
       -0.32954943 -0.07150066 -0.2633053 0.23019598
000300 f8 cd b9 bd 2a 4e 99 bc 6d 75 c7 3e 87 fe 17 3e
       -0.090724885 -0.01871403 0.38956776 0.14843188
000310 fc cc e2 be d2 e8 f9 3d 22 3d 0a be 7e 48 65 be
       -0.44297016 0.1220261 -0.13499883 -0.22390935
000320 c5 53 95 3d a3 50 a1 be 2c 88 e7 3d a4 c2 34 3e
       0.072913684 -0.31506833 0.113052696 0.17652375
000330 ee 34 0f 3e 18 dc 0f be 91 43 59 3e 62 b0 21 3e
       0.13985035 -0.14048803 0.21217181 0.15789941
000340 84 77 43 3d b6 17 d2 bd 79 98 c6 3b 21 dd 73 be
       0.0477214 -0.10258429 0.0060606566 -0.23814823
000350 d9 01 25 3e 1d a6 31 3e 53 09 c7 bd 3c f1 09 3e
       0.16113986 0.17348523 -0.09718575 0.1347093
000360 48 a0 d1 be e1 2f d2 3d 63 ce 4d 3c 36 f5 82 3d
       -0.40942597 0.102630384 0.012561413 0.063944265
000370 2b 38 42 3e 08 5f 65 bd 04 73 ba 3e 7c 66 8c 3e
       0.18966739 -0.055998832 0.36415875 0.2742194
000380 8b 97 1a 3e 4b 1a 75 bd 87 a2 7d be 94 03 e9 bd
       0.15096872 -0.059839528 -0.2476903 -0.113776356
000390 a6 78 24 3d c6 fc 6e 3d 05 85 4b 3e 3f 54 73 bd
       0.04015412 0.058346532 0.19874962 -0.059406515
0003a0 1c 29 e4 bd f5 a8 43 be 77 68 de 3e c2 0b 8a 3e
       -0.111406535 -0.1910742 0.43439075 0.26962095
0003b0 84 2e 37 3e 75 cc b5 3b 35 c9 7e 3d 1f 26 20 be
       0.17888838 0.005548055 0.062203605 -0.15639542
0003c0 f4 9b 80 3b 35 10 37 3e 38 80 0a 3e fb 87 b0 bd
       0.003924841 0.17877276 0.13525474 -0.08619686
0003d0 17 ac 71 3e e9 ef 0e bd d8 21 34 be 58 e5 63 3d
       0.23600803 -0.034896765 -0.17591035 0.05563864
0003e0 14 77 f2 3c 26 96 ae 3e 06 3c ef bd 01 39 c3 be
       0.029597796 0.3409893 -0.116813704 -0.38129428
0003f0 35 11 88 3e e4 5b 35 3e 72 e8 a2 3e 33 35 9b bd
       0.26575628 0.17710835 0.31817967 -0.07578506

f_percept.percept.0.bias f4 [16]
000000 d6 04 0c 39 d8 46 ec 38 a3 f0 7b b8 e7 c5 74 3a
       0.00013353242 0.000112665526 -6.0067174e-05 0.0009337351
000010 ff 79 4b ba 80 e8 90 b9 b6 e8 23 ba cb 1b 72 ba
       -0.0007762014 -0.00027639046 -0.0006252633 -0.0009235709
000020 70 b8 41 b9 87 ba 28 ba b5 12 7b 39 13 d4 36 ba
       -0.00018474623 -0.0006436486 0.00023944194 -0.00069743505
000030 5c 27 8c 3a 61 ea 7a ba b0 df af 39 a2 c2 96 b9
       0.0010692882 -0.00095716683 0.0003354526 -0.00028755242

f_percept.percept.3.weight f4 [64, 16]
000000 68 33 8f 3d fd ff 0b 3d 7b af af 3c fa a3 2a be
       0.06992227 0.034179676 0.02144598 -0.16664115
000010 66 8c 98 bd ae 69 6d bd 94 50 88 bd 42 4c 18 be
       -0.07448654 -0.057962112 -0.06655994 -0.1487284
000020 96 7f 62 3d 9b a8 0b be fc 97 d7 3d 6f 78 b8 bd
       0.055297457 -0.13638537 0.105270356 -0.09007346
000030 c0 c0 20 3c 48 fc 14 be 06 9c 1b be 27 04 e5 bc
       0.00981158 -0.14549363 -0.15196237 -0.027956082
000040 62 7e 18 3e d8 f6 05 be f3 32 1a 3e 1f a4 e1 bd
       0.14891961 -0.13082445 0.15058498 -0.11017632
000050 99 66 2e bd c6 0e 65 be 98 fe 1f be 1f 3e 0e 3e
       -0.042578313 -0.22368917 -0.15624464 0.13890885
000060 6d 24 1e bd fe b5 da b9 bd 4d b1 bb 06 b3 81 3d
       -0.038608957 -0.00041715795 -0.0054108785 0.06332974
000070 a0 5b dc bd a2 82 f0 bd bb 00 8f be 26 0c 8e bd
       -0.107596636 -0.11743666 -0.27930245 -0.06935911
000080 06 00 c5 3c 4f 75 73 3e 0b 35 6e bd b4 23 0d be
       0.024047863 0.23775218 -0.058156054 -0.13783151
000090 82 10 c6 3d e0 41 bc bc 2f c6 28 3e 0a bd 94 3d
       0.09671117 -0.02298063 0.16481851 0.07262619
0000a0 11 38 b6 3d 05 ff 77 3d 7d b0 87 bd 4b 3a a7 bd
       0.088974126 0.06054594 -0.06625459 -0.081654154
0000b0 ae 86 8b 3e 49 5c 87 bd 5a c7 53 be 16 38 1d bd
       0.2725119 -0.06609399 -0.20681515 -0.038383566
0000c0 5e 20 17 3e 26 92 67 3d d8 91 72 bd 82 b2 2b bd
       0.14758441 0.056535862 -0.05922112 -0.041918285
0000d0 c3 11 c8 bd ec c2 1e be 37 14 5c 3d d3 56 35 be
       -0.09769013 -0.15504044 0.053730216 -0.17708902
0000e0 75 fc ca bd 7c eb 92 be 3b e0 81 3c 60 6f bd 3d
       -0.099114336 -0.28695285 0.015853992 0.09249759
0000f0 1b 94 a1 3d d3 6a 34 bd ce 5a 9b bb 88 1e da 3d
       0.07889577 -0.044047188 -0.0047410494 0.106503546
000100 59 f6 ff bd 79 5c 0d be 5c ff 99 3d 63 cc 07 3e
       -0.12498159 -0.13804807 0.07519409 0.13261561
000110 bb 98 05 3e db 51 ff 3d cb e6 3c be 41 7a a4 bc
       0.13046543 0.124667846 -0.18447416 -0.020077826
000120 57 68 e7 3d 6c 2a 37 3e 9a db 7a be a6 ec ed 3c
       0.11299198 0.17887276 -0.24497834 0.029043507
000130 d1 1b 8a bc 19 1e d4 be 04 68 e0 3c 84 1f 69 bd
       -0.016858967 -0.41429213 0.027393349 -0.05691482
000140 9f 8e f4 bd c1 11 33 bd 0a a3 25 3e 8f a6 11 3e
       -0.11941265 -0.043718103 0.16175476 0.14223693
000150 41 4b 8f 3d 77 6a 91 bc 4b 03 0c 3e 74 84 28 be
       0.069967754 -0.017750962 0.13673131 -0.16456777
000160 76 dd 58 3d ed 8d f5 bd ea c8 41 3e 3b ff 03 be
       0.052945577 -0.11989961 0.18924299 -0.12890331
000170 14 d4 da bd 0f 34 01 3d 04 78 c7 3d e8 23 0d 3e
       -0.10684982 0.031543788 0.09739688 0.13783228
000180 8c 03 cc bd 76 3d 4e bd 85 be ff 3d f9 22 95 3d
       -0.09961614 -0.050351582 0.124875106 0.07282061
000190 dc 6e 05 be 8b 8c 2f 3e 0b b5 38 3d 55 76 04 3e
       -0.13030571 0.17143457 0.04509453 0.12935765
0001a0 44 60 0f 3e 9b 47 57 3b 15 e4 7e 3d 55 df 70 bd
       0.14001566 0.0032849077 0.062229235 -0.058806736
0001b0 9f 3a c1 3c 39 8a 6c 3d de 8f c1 bd 8e 49 84 bd
       0.023587523 0.057749007 -0.094512686 -0.06459342
0001c0 1a d2 d2 bd 6f fd a2 bd b4 6d 94 be 00 59 22 3e
       -0.1029398 -0.07958495 -0.28989947 0.15854263
0001d0 bc ba 22 3e 9e 9c 31 bd 82 6c 8c be 2d bf 95 bc
       0.15891546 -0.043362252 -0.27426535 -0.018279636
0001e0 cd a3 4e be 6e 0f ad 3d 62 c6 10 be 70 95 1b bd
       -0.20179673 0.084502086 -0.14138177 -0.03798431
0001f0 65 50 04 be b7 4e 4a 3d 76 ee 26 bd 52 3f 10 3e
       -0.12921293 0.049391475 -0.040754758 0.14086655
000200 70 47 77 3c 79 87 65 be ce 92 d8 bd 07 20 b8 3d
       0.015092716 -0.2241496 -0.10574876 0.08990484
000210 9f c8 5a be b9 3f 18 be 4d a5 e9 3d d1 8e 53 be
       -0.21365593 -0.14868058 0.11408482 -0.20659949
000220 c2 74 30 3e 98 19 17 be 4f e7 e4 bd 04 6b 3a be
       0.1723204 -0.14755857 -0.11176931 -0.18204886
000230 65 d6 72 bd ba 9a 4a 3e 1c 0d 91 bd cb b7 c7 bc
       -0.059286494 0.19785586 -0.070825785 -0.024379632
000240 cd 37 d8 3d 5b 34 71 3e 9a b0 57 bc d0 89 da 3d
       0.10557518 0.23555128 -0.013164664 0.10670817
000250 4b 40 10 3e 5c 39 f9 bc 44 13 0b 3d 6b 38 1e be
       0.14087026 -0.030422859 0.03395392 -0.15451209
000260 35 b1 a1 3d cc 60 dd 3d 4e 94 9b bd 4c 7c 4f 3e
       0.07895128 0.10809478 -0.07596646 0.20262259
000270 97 a5 b5 bc b9 e4 7f 3c fe 34 b8 3d 95 7f c3 3c
       -0.022173686 0.015618497 0.089944825 0.023864547
000280 a6 c9 8d 3d a3 90 fd bd 01 65 df bc c8 f4 67 be
       0.06923227 -0.12381103 -0.027269842 -0.2265197
000290 36 95 0c 3d f1 ed c2 bd f3 a4 27 3e c9 96 be 3c
       0.034321986 -0.0951804 0.16371517 0.02326526
0002a0 b4 2f ec 3d bd ac b7 3c 7e 86 3e be 77 6c b0 3d
       0.11532536 0.022421235 -0.18605992 0.08614438
0002b0 77 cc 15 be d5 e1 5b 3a 14 2a 19 3e 62 2f b5 bd
       -0.14628778 0.00083878386 0.14957458 -0.08846928
0002c0 b0 af ee 3d 1f 94 95 bd 35 ee 30 3e 2e 80 35 bd
       0.116546035 -0.073036425 0.17278369 -0.044311695
0002d0 7d 85 74 bd 35 55 be bd 1d 1e f1 3d 18 31 f4 bd
       -0.059697617 -0.09293596 0.11773322 -0.119234264
0002e0 84 e8 7f bc 5f cc be 3d 5c 98 ab bd 23 e6 23 bd
       -0.015619401 0.093163244 -0.083786696 -0.040014397
0002f0 8c fa 03 bd d6 3f 2c be 1a 26 67 bc 57 79 5a 3e
       -0.032221362 -0.16821226 -0.014108205 0.2133535
000300 25 d3 c9 3d 2b 55 55 be 7e 1a 18 3d 09 fd 32 3e
       0.09854726 -0.2083327 0.03713464 0.17479338
000310 12 f7 80 bd b2 f1 ff 3c 85 06 13 bd a0 a9 84 be
       -0.06297125 0.031243179 -0.03589489 -0.25910664
000320 79 7f 1a 3d 69 70 bd 3d 26 da b5 bc 07 fd 6f be
       0.037719224 0.09249956 -0.022198748 -0.23436366
000330 12 fc 94 3d 3a 99 10 3e 84 04 40 bd ac 01 25 bc
       0.07274641 0.14120951 -0.046879306 -0.010071199
000340 2a 77 81 be 2e a3 ff 3c 12 09 39 3e 35 70 8a 3e
       -0.25286227 0.03120574 0.18069866 0.27038732
000350 60 10 38 bc 81 53 26 be 06 a6 9b bc 30 3d fc 3d
       -0.011234373 -0.16242792 -0.019000065 0.12316358
000360 a5 6f 06 3e c5 81 fe 3c c4 f5 00 3d 42 30 b8 bc
       0.13128527 0.031067738 0.03148438 -0.022483949
000370 d6 08 90 3d f6 39 84 bd 54 d3 64 3d a1 13 b5 3d
       0.07032935 -0.06456368 0.0558656 0.088416345
000380 6a ef 0d 3e 6f bf 44 3d b9 06 4f bd b8 93 16 3e
       0.1386086 0.048034128 -0.05054352 0.14704788
000390 e1 89 2b 3e 17 9f ea bc 41 c6 07 3d 33 0a 5a 3e
       0.16751815 -0.028640313 0.033148054 0.21292953
0003a0 21 5e 93 3c 8b 2d b1 bd 4b 27 8b 3d fa 4a 36 be
       0.01798922 -0.08651265 0.06794604 -0.17802039
0003b0 69 e7 9f bd d0 57 2e be 8d b3 7e 3c 46 c2 04 ba
       -0.0780781 -0.17025685 0.015545738 -0.00050643494
0003c0 ee 2f 05 3e e4 c8 21 be a0 f2 0a bd 2c 6d 90 be
       0.13006565 -0.1579929 -0.03392279 -0.28208292
0003d0 09 f3 91 3e bc 07 4f bd b3 6c 23 3d f6 cd f3 3d
       0.28505734 -0.050544485 0.039898586 0.11904518
0003e0 d2 7b 95 bb af b7 74 bc df c7 39 3e 30 71 eb 3b
       -0.0045618797 -0.014936372 0.18142651 0.007185124
0003f0 a3 39 97 3d 18 43 6e 3e 3c 96 d3 bc fb 58 bb bc
       0.0738404 0.23267782 -0.025828473 -0.022869578

f_percept.percept.3.bias f4 [64]
000000 72 79 12 3b c7 c5 2c 3b 1c 8e 26 3b 36 5e 22 3b
       0.002235022 0.0026363002 0.0025414294 0.0024775392
000010 0c 00 78 ba 30 c1 56 3a 43 cb 23 3b a4 77 0d ba
       -0.0009460456 0.00081922393 0.002499298 -0.0005396551
000020 b1 db 67 bb 39 a2 3a 3a b1 6a a0 3a 5e 1b cc ba
       -0.003537875 0.000711951 0.0012238828 -0.0015572121
000030 76 05 90 3a 83 fd 36 3b e8 f6 05 ba 54 22 3b bb
       0.0010987956 0.00279221 -0.0005110339 -0.0028554397
000040 44 2c a7 ba c5 c9 ea ba 17 42 07 ba cf a1 95 ba
       -0.0012754281 -0.0017912915 -0.00051596895 -0.001141602
000050 05 95 49 3a 27 b6 9a 39 2e e3 01 3a 64 10 83 ba
       0.0007689747 0.00029508883 0.0004954812 -0.0009999392
000060 c3 cf c3 3a 35 36 f4 3a b4 ba f9 3a 63 73 61 3a
       0.0014939237 0.0018631878 0.0019052834 0.0008600263
000070 78 8b cf ba b0 92 bc 3a c7 08 20 b9 f6 23 5d 39
       -0.0015834412 0.0014386978 -0.00015262059 0.00021089599
000080 7d 6c 02 3b e8 f6 8d 3a 93 17 11 bb 04 1c a5 3a
       0.001990109 0.001083103 -0.0022139295 0.001259685
000090 76 4e 25 b8 86 d9 2d b9 31 ea 55 b9 9b 4a 96 3a
       -3.9412138e-05 -0.000165796 -0.00020400506 0.0011466326
0000a0 83 68 c3 ba e2 8e 0c 3b 9d 70 fb 3a aa 36 cc ba
       -0.0014908466 0.002144747 0.0019183342 -0.0015580256
0000b0 2c cb 5f ba c8 e0 9b 3a b9 10 0e 3b d9 cd c5 3a
       -0.000853705 0.0011892552 0.0021677448 0.0015091255
0000c0 c3 ea 0a ba a3 ba 38 3b 9e ff 04 bb fc ad f0 3a
       -0.00052992644 0.0028187416 -0.0020293961 0.0018362398
0000d0 bf 3f b7 3a d2 6f 36 3b df 47 90 ba 97 78 3a 3b
       0.001398079 0.0027837646 -0.0011007747 0.0028453225
0000e0 66 f9 d9 ba 20 c5 74 3a b7 8a 5f bb 3a 3a 7b 3a
       -0.0016630113 0.0009337235 -0.003410978 0.00095835666
0000f0 58 5c d4 ba 3a 36 32 3b fa aa 31 b8 80 b9 a1 3a
       -0.0016201837 0.0027192966 -4.2359323e-05 0.0012338609

manager.M_space.weight f4 [64, 64]
000000 4d 6c 06 bd 4a af f7 3d fe 0b a2 3e 4e ff 28 bd
       -0.032818127 0.120939806 0.31649774 -0.041259103
000010 04 68 8c 3d 80 f1 34 3e e1 56 58 bd 3e 86 38 3e
       0.06855777 0.1767025 -0.05281723 0.1801996
000020 ad c9 41 3e 45 0e 1a bd 47 48 e6 bc 67 4c e0 bd
       0.1892459 -0.037611265 -0.028110636 -0.109520726
000030 fb c0 05 be af 34 0d 3e c6 ea 12 be 09 62 fc 3d
       -0.13061897 0.13789628 -0.14347371 0.12323386
000040 4d 51 51 bc 49 35 29 3d 5f 96 e2 bd 80 78 08 be
       -0.012775731 0.041310582 -0.11063837 -0.13327217
000050 9f 65 71 be 9a e1 8c bc 61 29 4f bd ef b1 6d 3d
       -0.23573922 -0.017197419 -0.05057657 0.05803102
000060 7f d9 43 3e d3 db b2 bd e2 c7 69 be e4 51 50 3d
       0.19125937 -0.087333344 -0.22830155 0.050859347
000070 ec 1e 04 3d e6 7d 7d be 9d c1 07 be 35 de 40 bd
       0.032256052 -0.24755058 -0.13257451 -0.047086913
000080 f6 07 a2 bd 98 45 cc ba 80 da 29 bd 21 6a f6 bd
       -0.07911675 -0.0015584705 -0.041468143 -0.12031961
000090 8f e5 3f be b2 65 fb 3d 8b e4 96 3d 46 be 47 3e
       -0.18739913 0.12275256 0.0736781 0.19506177
0000a0 99 73 33 be be ef b6 bd 2c 95 86 3e 51 cd 87 bc
       -0.17524566 -0.08932446 0.26285684 -0.016577395
0000b0 a4 44 1d bd 44 d0 1b bd 10 12 c2 bd 17 82 d1 3c
       -0.03839554 -0.038040414 -0.094761014 0.025574727
0000c0 56 d7 92 bd b6 09 fd bd c2 a9 0a be 88 8b b2 bc
       -0.07169978 -0.12355368 -0.1354132 -0.02179505
0000d0 56 60 e0 3d 36 ce 07 be ff 3e a6 3d 1e aa 33 3e
       0.109558746 -0.13262257 0.08117484 0.17545363
0000e0 1f 28 0f be b3 18 9c 3d c0 81 a6 bd b6 79 07 3e
       -0.13980149 0.076218985 -0.081302166 0.13230023
0000f0 21 26 25 bd b9 ac 47 bc 1d b5 b5 bd 65 b4 ef 3d
       -0.040319566 -0.012187176 -0.08872435 0.117043294
000100 c9 c6 d0 3c fc 2d d8 bb dc 37 a9 3a da 43 e2 3d
       0.025485413 -0.0065972786 0.0012910324 0.11048098
000110 53 ec 37 bc 99 33 03 bd b1 d9 33 3e 45 93 5d 3e
       -0.011225778 -0.03203163 0.17563511 0.2163821
000120 77 81 e0 3d 28 b5 c6 3d 8a 6a 3d bd 98 d9 c9 bd
       0.109621935 0.097025216 -0.04624418 -0.09855956
000130 39 d9 33 bc ce 0b d7 bd 82 c9 2a bd 4e 44 71 be
       -0.010977083 -0.105002984 -0.04169608 -0.23561212
000140 63 65 b3 bd 71 21 d6 bd 13 b1 33 bd d3 01 c5 bd
       -0.08759572 -0.10455597 -0.043870043 -0.096194886
000150 19 a7 30 bd 3d 2e 48 3d dd 7a 8a bd 31 b2 96 3e
       -0.043128107 0.04887222 -0.067617156 0.29432824
000160 ba b3 c3 bd 0d f4 ee 3d 27 a3 ac bd 09 79 ed 3b
       -0.095557645 0.11667643 -0.08429556 0.0072470945
000170 13 4a 36 be 01 96 20 3e 4f 2f 63 3e 2a bb 65 3e
       -0.17801695 0.15682222 0.22186016 0.22434679
000180 ac d9 f0 3d cf 4c 03 3e 4f 3a 91 bc d4 1e ea 3d
       0.117602676 0.12822269 -0.017727999 0.11431661
000190 fd e4 f3 bd c6 b5 25 bc 7f cc 3a bd e0 a1 dc bd
       -0.119089104 -0.010114139 -0.04560518 -0.10773063
0001a0 be 57 11 be b4 3c 6f bc 7d 60 50 3d 1e f2 33 3d
       -0.14193627 -0.014601875 0.05087327 0.043932073
0001b0 f8 95 ef bd 46 ee 1d 3e b0 11 5a 3c 40 3d c5 3d
       -0.11698526 0.15422925 0.013309881 0.09630823
0001c0 c9 75 c0 3d 75 9a c7 3d fa 19 d5 be 59 3f c9 3d
       0.09397466 0.09746257 -0.4162138 0.09826536
0001d0 cb ef 82 be e0 72 84 bd 5a 82 3f 3e 91 e4 14 bd
       -0.25573573 -0.06467223 0.18702069 -0.03635079
0001e0 49 ab c9 3d 7d 09 81 3d b0 28 ee bd 34 9d e6 bc
       0.09847123 0.06300638 -0.11628854 -0.028151132
0001f0 b2 dc ed 3c 5f 13 61 3d 0b 81 a0 3d d2 fd bb 3d
       0.0290359 0.054950114 0.07837113 0.09179272
000200 7c c4 16 be cc 80 ca bc 50 1a f4 3d e5 d2 2b bb
       -0.1472339 -0.024719618 0.11919081 -0.0026218232
000210 ad 48 e7 3d ac 18 41 be 6f ef 1e bd d5 30 cc 3e
       0.11293159 -0.18857068 -0.03880256 0.39881006
000220 4f e5 03 3e 4e cb 1d be a1 ed 4b bd ab 27 d4 3c
       0.12880443 -0.15409586 -0.049787167 0.025897821
000230 b1 6f b2 3d 6c 24 f8 3a 8e 43 91 3d 88 dd da 3b
       0.0871271 0.0018931753 0.07092963 0.0066792406
000240 3c a8 23 bd eb 44 4d 3e 3f 57 32 be 6e 77 ec 3d
       -0.039955363 0.20045821 -0.17416094 0.11546217
000250 ed 3b 68 3e d1 d3 1f bd 9a 58 67 be 7a c2 59 be
       0.2267911 -0.039020363 -0.22592393 -0.21265593
000260 1f ed ac bd b6 42 00 3d b5 94 00 3d e9 ef d8 3c
       -0.08443665 0.03131362 0.031391818 0.026481586
000270 85 b0 09 be d5 f3 86 bd c3 44 aa 3d 3f 03 0e 3e
       -0.13446243 -0.06589476 0.083138965 0.13868426
000280 44 12 02 3e 54 a5 a2 3d c3 0b b4 38 47 93 d6 3d
       0.1270228 0.0794169 8.58526e-05 0.1047731
000290 29 36 7c 3c 20 01 48 3d 6c 34 5a 3d d6 67 f4 3c
       0.015393772 0.048829198 0.05327265 0.02983467
0002a0 8e 4a 00 be 82 ed 0e 3e f9 3d d2 bc 35 f3 e6 bd
       -0.1252844 0.1395779 -0.025664316 -0.11276857
0002b0 69 21 e5 bd 22 2e 23 be d4 9e 3f 3b ea c9 1d 3e
       -0.11188013 -0.15935567 0.0029238956 0.15409055
0002c0 f0 de 1c 3e cd 8a 62 bd ed c0 fc 3d 84 a1 0e be
       0.15319419 -0.055308152 0.12341485 -0.13928801
0002d0 06 ae d3 3d ec ba 30 3d 66 11 00 bd b6 06 94 3c
       0.10335927 0.043147013 -0.031266592 0.018069606
0002e0 3a a0 a0 bd 6a a4 06 3e 67 03 10 3d f0 76 f0 3d
       -0.07843061 0.13148656 0.035159495 0.117414355
0002f0 13 b1 82 3d af ad c6 3c 65 b7 67 3e d0 bd 97 be
       0.063814305 0.02425274 0.22628553 -0.29637003
000300 77 e2 3a 3d 68 4e 6c 3e 1b 7d e7 bd 35 35 63 3e
       0.04562613 0.23076785 -0.11303159 0.22188266
000310 06 6a ab 3e 83 69 77 bd 06 fa 32 bb 2d 6e b8 3d
       0.33479327 -0.06040336 -0.002730967 0.09005389
000320 37 15 02 3e b2 90 8b 3c 67 3d 1f 3d b4 f9 53 be
       0.12703405 0.01703677 0.038876917 -0.20700723
000330 ec 0a b9 3d 7d 1a 0f 3d 73 0f c5 3d f2 9a 23 bd
       0.09035286 0.03493737 0.09622087 -0.03994269
000340 3c e7 9f 3e ac 03 ce 3b 9e 10 06 3d 13 52 0d 3e
       0.31231105 0.006287059 0.03273069 0.1380084
000350 7c 69 c1 bd a7 57 21 3d 38 32 02 3c 25 bd d1 bb
       -0.09443948 0.039390232 0.007946543 -0.0064007216
000360 4b df d5 ba 00 41 eb bd f2 cb 23 3c 62 98 c7 3d
       -0.0016317157 -0.11487007 0.009997355 0.097458616
000370 6c c9 d7 bd c7 51 47 3d 99 86 84 3d cd 23 0b be
       -0.10536465 0.048661973 0.06470985 -0.13587876
000380 b6 e8 b1 ba d6 6b e6 bc b7 cc 8e 3d 96 6b 40 3e
       -0.0013573382 -0.028127592 0.0697264 0.18791041
000390 bb 93 8b 3d e7 20 3e 3e ca 65 c8 3d 23 c4 fc 3d
       0.06815287 0.18567239 0.0978504 0.123420976
0003a0 ab d0 91 3c 39 1f 43 3e b3 ba 36 3e d9 8a 23 3e
       0.017799696 0.19054879 0.17844658 0.15970935
0003b0 ea c6 d1 3c 04 a5 a8 3d 51 87 52 3e 8e 90 7a 3d
       0.025607545 0.08234599 0.20559432 0.061173014
0003c0 05 e3 4b be 6e 47 87 be c3 42 a7 bc 15 ff 1f 3e
       -0.1991082 -0.26421684 -0.020417577 0.1562465
0003d0 d8 17 a3 bd 99 4e 93 3d 20 9e 6b be 4a 2f df bd
       -0.07963532 0.07192726 -0.23009539 -0.108976915
0003e0 43 52 90 3d f7 32 03 be 87 b3 1a 3d ed 92 bb bd
       0.0704694 -0.1281241 0.037768867 -0.09158883
0003f0 5d d8 12 3b 4a 73 c2 bc ec 2f 9e bb 81 42 ec 3c
       0.0022406795 -0.023736615 -0.00482749 0.028840305

manager.M_space.bias f4 [64]
000000 de bd c0 ba b4 0c 26 3b 01 7d 02 3b 24 f2 25 3b
       -0.0014705022 0.0025337161 0.0019910934 0.002532133
000010 f6 72 9b ba 8f 8f 39 3b 74 64 e2 ba 55 48 3e bb
       -0.0011859823 0.0028314327 -0.0017272369 -0.0029034812
000020 f8 25 1d 3b 01 a5 32 3b 20 2d ef 3a ba 52 18 3a
       0.002397893 0.0027258995 0.0018247701 0.0005810667
000030 23 5b 1c bb dd e8 51 3b 97 6a 71 3a 82 9e e7 3a
       -0.0023858033 0.0032029666 0.00092093035 0.001767114
000040 e9 ff ab 3a f0 20 6c 3a 2a c2 d4 ba d5 63 3c bb
       0.0013122532 0.00090075936 -0.0016232182 -0.0028746028
000050 cc 56 0a 3b e5 e2 92 3a 21 3d 99 39 a7 68 63 3b
       0.0021108864 0.0011206536 0.0002922798 0.0034699829
000060 15 9e 3f 3b d7 35 cf ba 50 42 33 3a 24 a0 bb 3a
       0.0029238511 -0.0015808892 0.00068381894 0.0014314693
000070 ae 3d b9 ba 23 5a e3 3a d8 2c 2a ba a8 76 44 3b
       -0.0014132762 0.0017345588 -0.00064916676 0.0029977951
000080 fe 98 28 3b b6 53 3b 3b 37 15 7e b9 3b 5d 22 bb
       0.0025725956 0.002858383 -0.00024231231 -0.0024774808
000090 12 39 4a bb 51 12 54 bb 08 d9 28 ba 0d 6a 86 3a
       -0.003085677 -0.003235955 -0.00064410316 0.0010254994
0000a0 a0 8d f9 39 e6 18 03 3a a0 3d 25 bb 64 f5 58 bb
       0.000475985 0.00050009636 -0.0025213733 -0.0033105249
0000b0 a6 c7 e7 3a 89 c4 09 3b 25 a7 38 bb 4c d8 3f ba
       0.0017683401 0.0021021685 -0.0028175798 -0.00073183025
0000c0 f9 4e b0 3a 97 a6 2c 3b 8a 88 01 bb e1 6c 21 3b
       0.001345127 0.0026344412 -0.0019765222 0.0024631547
0000d0 e7 78 1f bb d8 b7 25 bb 2b 7b 0b 3b aa 04 09 bb
       -0.0024333538 -0.0025286581 0.002128313 -0.002090732
0000e0 69 f6 3f bb 8e c9 c4 ba c0 f1 39 3a 40 9b ba 3a
       -0.002929116 -0.0015013681 0.00070932135 0.0014236942
0000f0 4f 45 21 39 5a 6f 85 bb ab 6c 3a bb 2c 94 49 3b
       0.00015379976 -0.004072112 -0.0028446119 0.0030758483

manager.M_goals.weight f4 [64, 128]
000000 88 9e 8f bd 2a e0 0c bd 4b 1c 1b bd 60 2d d6 bd
       -0.07012659 -0.034393467 -0.03786878 -0.10457873
000010 d7 d8 25 3e 1f c5 05 3e a7 32 0b 3d 9f df 74 3d
       0.16195999 0.13063477 0.033983853 0.059783574
000020 da 3c 0e be 3f 20 29 3e cf e4 e4 3c e8 39 a1 be
       -0.138904 0.16516207 0.027941136 -0.3148949
000030 3f 95 2a 3e 29 ec 1a 3e 25 fb b7 3c d7 a4 2a 3e
       0.16658495 0.1512915 0.022458622 0.16664444
000040 bb 8b 68 bd 9d 71 b2 3c 80 45 f5 bd c1 55 59 3c
       -0.056773882 0.02178269 -0.11976147 0.013265074
000050 ee d6 99 bd 91 99 67 3d d4 35 9a b9 b4 39 2b 3c
       -0.07511698 0.056542937 -0.00029413274 0.010450769
000060 94 7f cf bc 5f bc 85 bd b5 a1 f1 bb 5a ee 21 be
       -0.025329389 -0.065300696 -0.0073740133 -0.1581358
000070 a6 6e 94 3a 34 b8 60 be 43 f7 4a bd 17 75 f6 bc
       0.001132448 -0.21945268 -0.049552213 -0.03008513
000080 00 fb c4 3d 74 94 03 bd ee 0b bc bc fe 70 b1 3d
       0.09618187 -0.032123998 -0.022954907 0.0866413
000090 2b 13 2a bd 4c 4e 93 bd 72 9f ea 3d d6 b1 91 bd
       -0.041522186 -0.07192668 0.11456193 -0.07113998
0000a0 fb e7 84 bd f6 20 d9 bd 8c 42 11 3e d9 d9 2d 3d
       -0.06489559 -0.1060199 0.14185542 0.042444084
0000b0 87 5d 86 3c 98 ed 8e 3c e3 06 d0 bd 78 55 fc bd
       0.01640202 0.017447278 -0.101575635 -0.12320989
0000c0 9a 34 eb bc e0 24 27 38 d3 0a 19 3d 21 35 82 3d
       -0.028711606 3.9850245e-05 0.03736384 0.0635779
0000d0 0f 99 ac 3d 9d 44 1a 3e bb b2 6d bd 00 4d 1f 3e
       0.08427631 0.15065236 -0.05803178 0.15556717
0000e0 5d 8d 37 3c ee 12 37 3d 36 6d 2a be 6d e5 07 bd
       0.011203137 0.044695787 -0.16643223 -0.03317778
0000f0 50 23 26 3d e3 63 b7 3d d1 a6 6c bd c3 42 9e 3b
       0.04056102 0.08954599 -0.057776276 0.004829736
000100 c8 5a b1 3d ce 92 2a 3e ad 5a c9 bd 6d ae 8e 3c
       0.08659893 0.16657564 -0.09831748 0.017417157
000110 49 25 89 bc 8c 82 34 bd b5 7f eb 3d de f8 a0 bd
       -0.016741412 -0.04406981 0.114989676 -0.07859968
000120 bf 03 3b bd b5 c6 3d bc 6e ff 93 3d f8 b3 79 bd
       -0.04565787 -0.01158302 0.07226454 -0.060962647
000130 d5 71 24 3e 54 13 7b bd 5b fd 6b bd 55 7b 66 3d
       0.16059048 -0.06129773 -0.057614665 0.056269962
000140 c2 27 d4 3c 98 46 d7 bc aa ff 36 3c f3 4c 04 3d
       0.025897864 -0.026278779 0.0111693535 0.032299947
000150 c7 eb 95 3c 18 a1 59 bd b0 ea 88 ba 01 c6 7b bd
       0.018300904 -0.053132147 -0.0010445919 -0.061468128
000160 ed fb 54 be 8a ef fd 3b e0 54 93 ba da 70 24 3d
       -0.20799227 0.0077495025 -0.0011240505 0.040146686
000170 90 35 4c 3d 23 24 09 3e 23 3f 00 3d 43 2f d0 3c
       0.04985577 0.13392691 0.031310212 0.025413161
000180 62 fd d4 3d 38 ad 2b bd 15 76 91 3d 51 aa 9b bc
       0.103998914 -0.04191324 0.071026005 -0.019002112
000190 bc 4f 4a be d7 73 83 bd fc 94 f9 3d 72 8d 0e 3a
       -0.19756979 -0.06418579 0.1218662 0.0005437947
0001a0 76 c7 72 3d ec 93 b0 3d 38 ae 8b bc 25 e2 a1 3c
       0.059272252 0.08621964 -0.017050847 0.019761154
0001b0 65 f9 d0 3d 64 8d 9e 3c 68 b7 c7 3b c4 60 bc bc
       0.10203818 0.01935453 0.006094862 -0.02299536
0001c0 da 2a c6 bd 32 27 16 3d e4 47 16 bc c0 b9 fb 3c
       -0.09676142 0.036658473 -0.0091724135 0.030728221
0001d0 80 c5 18 3d 57 98 89 3d f1 94 23 3e b6 49 a1 bd
       0.037297726 0.0671851 0.15974785 -0.07875387
0001e0 c7 34 0c bd 0a 44 13 3c f1 41 0b be 07 9f 15 3e
       -0.03423002 0.00898839 -0.13599373 0.14611445
0001f0 f8 54 04 3c 68 45 5e bd 3e 21 a7 3b 0e c4 eb 3c
       0.008076899 -0.05426541 0.0051003983 0.02878001
000200 e7 a7 de 3d 0b 51 62 bd f3 65 e6 bd 5b 12 c7 bd
       0.108718686 -0.05525307 -0.11249914 -0.09720298
000210 47 7d e8 3d 29 b5 0c be 56 9d b1 3d 40 04 2f 3e
       0.1135202 -0.13740982 0.086725876 0.17091465
000220 3a ce 87 bd ba 67 39 bb 63 ae 87 bd fb dc ba bc
       -0.066311315 -0.0028290586 -0.066250585 -0.02281045
000230 85 1e 16 bd ac 42 60 bd d6 e7 29 3d 70 f1 4a bd
       -0.0366502 -0.054751083 0.04148086 -0.04954666
000240 4a 00 da bd 0b 58 01 bc 74 2d 42 bd 59 b3 8d 3d
       -0.106445864 -0.007894526 -0.04740663 0.069189735
000250 77 17 4d 3e 74 d2 b4 3d 5c b8 5b bd 8c 3a 20 3e
       0.20028482 0.08829203 -0.053642616 0.15647334
000260 1a e7 09 3e 81 1f 47 3e fa 5d 25 be 0f 69 42 3d
       0.13467064 0.19445612 -0.1614913 0.047463473
000270 b3 f5 08 3d 1d 4a b3 3c 40 3d 7f 3c 45 8a 3e bd
       0.033437442 0.021885926 0.015578568 -0.046518583
000280 97 62 0d 3d f7 33 29 3d 00 70 9e 3d 28 10 cb 3c
       0.03451785 0.041309323 0.07736206 0.024787977
000290 54 d8 57 bd c5 db 64 3d 37 24 cf 3c a8 87 4f bd
       -0.05269654 0.05587365 0.025285823 -0.05066648
0002a0 a1 09 7a bc 8c 27 c4 3b b1 ed 0e 3e d0 77 1d bc
       -0.015261085 0.0059861597 0.1395786 -0.009611085
0002b0 88 c6 20 be fa 62 c9 3d b3 0e 6f 3c 1e ae b3 bd
       -0.15700734 0.098333314 0.014590907 -0.087734446
0002c0 4c fb a6 bd cf 86 bc 3d 0d 17 10 be 8b ab bf 3d
       -0.081534 0.092054 -0.14071293 0.09358891
0002d0 c4 26 62 bd ad bc 7c bd 46 22 81 bd 79 6e 1e 3c
       -0.05521275 -0.061703373 -0.06305365 0.009669893
0002e0 2d 10 8c 3c a3 76 90 bd 63 61 ac 3b 5b fc 73 bd
       0.017097557 -0.07053878 0.005260633 -0.059566837
0002f0 4a a5 a9 bd d1 dc c9 bd 44 88 f0 3d 16 5b b4 bc
       -0.082834795 -0.098565705 0.117447406 -0.02201609
000300 73 8f be bc bf df 89 3d 12 3c cc bd 8b ac 88 3d
       -0.023261761 0.06732129 -0.09972395 0.06673535
000310 17 ed 05 3d 14 62 b5 bc 71 3a 8d 3d a1 86 fa 3d
       0.03269681 -0.022141494 0.068959124 0.1223271
000320 52 6a 70 3c 1b 87 a3 bd ac 8c e2 bd 1a fe 43 be
       0.014673786 -0.07984754 -0.11061987 -0.19139901
000330 52 60 00 3d 8f 08 aa 3c c5 34 ac 3d 85 59 ec bd
       0.03134186 0.020756034 0.084085025 -0.11540512
000340 28 a6 85 3d 33 5b 3f 3d 9c 25 db bc 26 e8 4d bb
       0.065258324 0.046717834 -0.026751332 -0.0031418889
000350 85 44 8d 3d 22 9b a5 3c 52 38 de 3b 56 61 05 3e
       0.06897835 0.020215575 0.0067816162 0.13025412
000360 73 bf f9 bc c2 fc 54 3d 65 ca 1b bd 19 d9 6b 3e
       -0.030486798 0.05199886 -0.038034815 0.23032035
000370 90 c8 da bd dd bb a2 bd 0c db c4 bc 17 cc 16 bd
       -0.106827855 -0.07945988 -0.024030231 -0.03681573
000380 4e 48 8b bd 19 66 fd 3d ba 3a d0 3d bb 91 b6 bd
       -0.068009004 0.12372989 0.10167451 -0.08914515
000390 aa 13 82 bd be bf 25 3e 56 bb 45 bd c6 ad 48 bd
       -0.06351407 0.16186425 -0.04827436 -0.04899385
0003a0 55 38 ed 3b 02 3a 32 3e db 0b 2c 3c e9 5d 11 be
       0.0072393813 0.1740494 0.010500873 -0.1419598
0003b0 6b ba ae 3d 7b 11 29 3d 2f e6 81 3d 8b 70 cf 3b
       0.0853165 0.041276436 0.06342732 0.006330555
0003c0 fd 37 d6 bc dc 72 4b bd 6c ea 03 3e 9c c8 b4 bb
       -0.026149744 -0.049670085 0.12882394 -0.0055170786
0003d0 0a e1 b8 bd 11 4a 1d be 87 a6 eb bc ab 4e b1 3d
       -0.09027298 -0.15360285 -0.02876593 0.08657583
0003e0 36 6e de 3c f3 2d 29 3d ff db 19 be cb 0b de bd
       0.027152162 0.041303586 -0.15025328 -0.10842093
0003f0 82 74 7c 3d 1f f2 c3 bc 00 2d 5e be 57 c9 c8 bd
       0.061634548 -0.023919163 -0.21696854 -0.098040275

manager.M_goals.bias f4 [64]
000000 78 bd 47 b9 0d 94 2f bb 27 c6 53 3b 60 b5 34 3b
       -0.00019048702 -0.0026791126 0.0032314153 0.0027573928
000010 31 5a 63 bb 72 10 56 bb 5a c3 11 3b 3d 1f 1f bb
       -0.003469121 -0.003266361 0.0022241683 -0.0024280094
000020 1c 8e 21 bb 95 c2 42 3b 15 2f 29 3a d0 2b 3e 3b
       -0.0024651354 0.002971803 0.0006453854 0.0029017814
000030 4f c7 0c 3b 77 9b 38 bb 05 df 0e 3b 2c eb 1f bb
       0.0021481102 -0.0028168836 0.002180041 -0.0024401648
000040 55 f3 50 bb 24 d6 35 3b 59 9c 3a 3b fc 2f d9 b8
       -0.0031883318 0.0027746046 0.0028474538 -0.00010356304
000050 e0 6f 33 bb 91 ac aa 39 a5 33 0d 3b bb 78 55 3b
       -0.0027379915 0.000325535 0.0021545675 0.0032573182
000060 df c4 c7 ba f4 6e 46 bb d0 00 1e bb bc ef 34 3b
       -0.0015241167 -0.0030278536 -0.002410937 0.0027608713
000070 0f 9a 2d 3b 01 54 47 3b 6e 35 10 bb 0b 9b 29 bb
       0.002648953 0.003041506 -0.0022004503 -0.0025879766
000080 c8 85 5f bb 66 ff e2 ba 40 93 35 bb 0e 00 75 3b
       -0.003410684 -0.0017318546 -0.0027706176 0.0037384066
000090 14 15 4c bb 9b ce a7 ba d1 41 43 bb e2 b2 3a 3b
       -0.0031140493 -0.0012802662 -0.0029793868 0.002848797
0000a0 e2 7e 0b 3b 6a f7 e8 37 16 8f da b9 e9 a9 8d 3a
       0.0021285345 2.7771766e-05 -0.00041686808 0.0010808083
0000b0 7f ad 56 3b e2 6a 1e bb 0f 59 d6 ba ef 5e cc ba
       0.003275722 -0.0024172594 -0.0016353446 -0.0015592257
0000c0 44 5a 71 3b ad 75 c9 ba b4 83 46 3b b7 91 b8 3a
       0.0036827484 -0.0015370153 0.0030290904 0.0014081512
0000d0 f3 99 60 bb a4 b9 36 3b 8c 98 30 3b 21 e8 50 3b
       -0.0034271448 0.0027881647 0.0026946394 0.003187664
0000e0 7d 7e 19 3b 70 48 6e bb 60 eb 0b bb e0 fc 39 3b
       0.002342134 -0.0036359094 -0.0021350011 0.0028379485
0000f0 17 b8 4a 3a 43 f1 16 3b 95 6b bf 3a a9 81 26 3b
       0.000773312 0.0023031987 0.0014604205 0.0025406873

manager.M_value.0.weight f4 [32, 64]
000000 1f 9e 18 3e 1a 5c 27 3e a7 25 1b be 5b 5a 1e 3e
       0.14904068 0.16343728 -0.15151082 0.15464155
000010 46 0e 2c 3e 4e 61 fe bc c2 9a 07 bd 00 00 e9 3c
       0.1680232 -0.031052258 -0.033106573 0.028442383
000020 03 0f 0a be 50 08 a1 bd b4 20 9b be ec bb 0a 3e
       -0.13482289 -0.078629136 -0.30298388 0.13548249
000030 21 d6 01 3c 23 e0 09 ba ea 93 a5 3d 00 8e 41 bd
       0.0079245875 -0.0005259534 0.08084853 -0.047254562
000040 ef ea ac 3d c2 9e 09 bd 16 7c e8 bc a6 a8 82 bc
       0.084432475 -0.03359867 -0.028379481 -0.015949558
000050 2a ea ef 3b f5 8f 14 bd ea a3 01 be 92 e4 56 3e
       0.0073216157 -0.0362701 -0.12660185 0.2098563
000060 31 68 c7 bc 78 83 91 3e 4f 0c b9 3d 3f 5f 73 be
       -0.024341675 0.28420615 0.09035551 -0.23766802
000070 47 01 25 3d e5 93 30 3c 7d 62 23 be 3c 4e 2a 3e
       0.04028442 0.010777448 -0.15955539 0.16631407
000080 d0 16 0d 3e 17 ff 08 3e 2a a5 47 bd 18 cd bc bd
       0.13778234 0.13378559 -0.048741497 -0.09218806
000090 da 16 d1 3d 42 d8 65 bd 00 fb a8 bc 62 c6 b3 3d
       0.10209437 -0.056114443 -0.020627499 0.08778073
0000a0 ca 55 0f 3e 36 a1 a8 3d a9 10 e0 bd a8 a9 48 bb
       0.1399757 0.082338735 -0.10940678 -0.00306187
0000b0 ea 5d 28 be 09 c9 48 be 2d 48 49 3d a6 d5 3a 3e
       -0.16442075 -0.19607939 0.049141098 0.18245563
0000c0 69 9f ba 3d 0b 1e 80 bd bf 3a e0 3d d9 a0 88 3d
       0.09112436 -0.0625573 0.10948705 0.06671304
0000d0 67 39 64 3e 02 9d 99 3c d7 5f 16 be b5 b6 ee bb
       0.22287522 0.018751625 -0.14684997 -0.007284964
0000e0 6d 62 4e be 8d 2b 8c 3d 3a f6 c3 bc 2e 68 77 3d
       -0.20154734 0.06844244 -0.02392112 0.060402088
0000f0 4f b8 02 be e4 8b 45 be dd 41 f6 3d fc 65 27 3e
       -0.1276562 -0.19291645 0.12024281 0.16347498
000100 a6 5d 28 be 64 85 54 3e bc 86 04 bd 2a e5 29 bd
       -0.16441974 0.2075401 -0.032355055 -0.041478314
000110 8e 3c d7 3c 1f 19 51 3d 8a 8b 19 be 1c ad 29 3d
       0.026273992 0.051049348 -0.14994636 0.041424856
000120 a7 96 26 bd a2 d7 a9 be 3e db e2 3d 7a ab 5e 3d
       -0.040671017 -0.33172327 0.110769734 0.05436275
000130 db e7 a9 be 79 c3 de 3c a8 89 89 39 ca 03 c7 bd
       -0.33184704 0.027192818 0.00026233238 -0.097175196
000140 e2 07 67 3d 3a 2b 75 3c 3b df 2f 3e 28 6b 4b be
       0.056404002 0.014963919 0.17175 -0.19865096
000150 80 4e d2 bb 67 34 96 3d 58 30 cc 3d f3 f3 3b 3d
       -0.0064180493 0.07334214 0.09970158 0.045886945
000160 6c 89 ba bb 3e 41 8c bd 7f a4 e4 3d 60 89 30 be
       -0.0056926515 -0.068483815 0.11164188 -0.17239904
000170 76 5f 18 be bd 3e 6c bd d9 e6 18 bd 85 68 14 3b
       -0.14880165 -0.05767702 -0.03732953 0.0022645306
000180 b4 d8 1a 3e 19 cb 8c 3b 55 c5 d5 3d 66 29 2c 3e
       0.15121728 0.004296672 0.10438029 0.16812667
000190 90 a5 0a 3e 07 c8 45 3e 30 85 04 3d b2 b5 82 bd
       0.1353972 0.19314586 0.03235358 -0.06382312
0001a0 d5 c5 8a 3c b0 a4 44 3c 47 2b 93 3e b7 a6 d8 3d
       0.016940037 0.012002155 0.28743955 0.10578673
0001b0 ce ca 6f bd 7b 94 b4 3d ba bf 82 3e 16 b1 d3 bd
       -0.05854302 0.08817383 0.255369 -0.10336511
0001c0 e5 94 33 be 40 93 10 3d ae 45 e2 3c 33 04 13 be
       -0.17537268 0.03529668 0.027621116 -0.1435707
0001d0 41 42 a2 bd 63 69 7b 3d dc ce 01 3e b3 94 10 be
       -0.07922793 0.0613798 0.12676567 -0.14119224
0001e0 5f fe 60 3d 64 6b 78 3d 75 b1 e0 3d d6 41 02 3e
       0.054930087 0.06064929 0.10971347 0.12720427
0001f0 c4 1f 3d be 55 ea c6 bd 0a f6 5b 3d 43 a4 8c 3a
       -0.18469149 -0.09712664 0.053701438 0.0010730106
000200 c1 8d 12 be 20 8a b6 bd b7 cb 16 3d 07 63 50 3e
       -0.14311887 -0.08913064 0.03681537 0.20350276
000210 a3 6c 83 3c a5 56 14 bd 63 f5 37 3c ce 57 2a 3d
       0.016043013 -0.036215443 0.011227938 0.041587643
000220 7d 26 ef 3d f5 71 75 3e 3b 36 3d bd da e4 10 3e
       0.11677263 0.23969252 -0.046194296 0.141498
000230 63 bc 19 bd 5c 86 35 3d 23 7a 63 bb 2f 32 cd be
       -0.037533175 0.04431759 -0.003471025 -0.4007735
000240 c3 29 8d bc 31 1a 28 3e 66 d1 31 bd 48 1e 84 3d
       -0.017231828 0.16416241 -0.04341259 0.06451088
000250 3c d3 84 be 4c ef 24 3e 49 b1 1c 3e 2d 80 12 3e
       -0.2594241 0.1610691 0.15302004 0.14306708
000260 2d 2e 05 3e 19 4f 8f bd 85 22 ac bd df 0b 0f bb
       0.13005896 -0.069975086 -0.084050216 -0.0021827144
000270 44 dc 31 3e 91 22 57 3e 81 fc 1f 3d 29 44 9a bc
       0.17369181 0.2100928 0.039059166 -0.01883133
000280 7e a6 18 3e 27 13 d6 3d 34 5f f7 bd 7b c4 b9 bd
       0.14907262 0.10452872 -0.120787054 -0.09070679
000290 1d 09 32 3d 6b 05 c1 ba 5a 2a d0 bb b0 01 28 3e
       0.043465722 -0.0014726346 -0.006352705 0.16406894
0002a0 14 c0 00 3e a8 41 28 3e 30 ae 6e 3d 28 b5 c7 3d
       0.12573272 0.16431296 0.058271587 0.0975135
0002b0 77 e5 25 3e d6 05 98 3d cf dd 24 bd 43 7c 26 be
       0.16200815 0.07422988 -0.040250596 -0.1625834
0002c0 d4 fe 0f 3e 11 38 e0 3d d2 c1 1b be 44 38 92 3b
       0.14062053 0.10948194 -0.15210655 0.004462274
0002d0 3a f1 da bd a3 b4 87 bc b4 62 a9 3d 3a 54 90 bc
       -0.106905416 -0.016565626 0.08270779 -0.017618287
0002e0 41 cb ab bb d0 aa e0 bc e4 da 3b 3e 3e 5b 51 bb
       -0.0052427356 -0.0274252 0.18345219 -0.0031945254
0002f0 e8 a1 09 be c7 03 f6 3c 9f 7d 42 3a 8c 30 88 3e
       -0.13440669 0.030031098 0.00074192317 0.26599538
000300 58 34 3d 3e 19 cc 9b bd 0c 8e 95 3e 40 75 42 3d
       0.18476999 -0.07607288 0.29209936 0.0474751
000310 7c 02 48 be fe 3f 0e bd ae bf 1f be b1 5a b0 3c
       -0.19532198 -0.034728996 -0.15600464 0.02152762
000320 2b 56 d1 ba d8 18 95 bd 13 cf 2d 3e 3b 8a a6 3d
       -0.0015971115 -0.07280129 0.16973524 0.08131834
000330 20 6b a9 3c a5 a7 7e bc 87 58 86 3d a4 88 4a 3e
       0.020680964 -0.015542899 0.06559854 0.19778687
000340 1f 21 4d 3c 5f 59 6f 3c 19 71 28 be 4c 5e a7 3d
       0.012520104 0.01460871 -0.16449393 0.081722826
000350 6a 7e 6a bd 69 8b 35 3b f8 dd 08 be 01 16 eb bd
       -0.057249464 0.0027701503 -0.13365924 -0.11478806
000360 bf 2b 9b bc 6e d8 84 3e dd f6 88 bd 67 52 58 bd
       -0.018941758 0.25946373 -0.066877104 -0.05281296
000370 5e 09 4c be e2 75 3c 3e 7c fb ae bc 46 3b 6f 3d
       -0.19925448 0.18404344 -0.021360151 0.058406137
000380 b4 d5 09 bd c0 62 d2 3d b6 dc 02 be 7b a2 43 bd
       -0.03365107 0.10272741 -0.12779507 -0.047762375
000390 bd 54 8d 3d 44 43 57 3d c7 c6 74 bc 27 ff 6f bd
       0.06900928 0.052554384 -0.01493997 -0.05859294
0003a0 f9 c5 4d 3c 44 42 ab bd f4 de 00 3e 00 8e c6 bd
       0.012559407 -0.083622485 0.1258505 -0.09695053
0003b0 b1 b1 70 3d d2 d3 75 3e ee 5a 22 3e e8 2e 09 3c
       0.05876321 0.24006584 0.15855 0.008373
0003c0 bc 1a 91 3e 50 62 17 3e 10 79 f0 bd 5b 4b ca 3c
       0.2834071 0.14783597 -0.11741841 0.024694135
0003d0 b2 63 93 bd 04 e8 46 3e 38 c5 63 be b3 da e4 3c
       -0.0719675 0.19424444 -0.22243202 0.027936315
0003e0 dd 66 8a bd 39 75 7f 3c 04 8d 88 3e 57 ad 46 3e
       -0.06757901 0.015591913 0.26670086 0.19402061
0003f0 44 9c df bc b2 6a 96 3c cc 1c a8 3d 1c ca 90 bd
       -0.027296193 0.018361423 0.082086176 -0.07069799

manager.M_value.0.bias f4 [32]
000000 4b 34 44 bb 9a e0 79 bb 5b 62 40 3b 74 79 27 bb
       -0.0029938396 -0.0038128258 0.00293555 -0.002555457
000010 43 24 42 bb 66 3c 4b bb 87 9f 44 3b e1 de 0b 39
       -0.0029623664 -0.0031011342 0.0030002312 0.00013339102
000020 18 0a 37 3b cf 2a 55 bb fc b3 4f bb ac 7d cf ba
       0.00279296 -0.0032526737 -0.0031692972 -0.00158303
000030 d8 68 e7 39 59 d9 e4 ba 62 ef 3e bb 68 6a 2d 3b
       0.00044137868 -0.0017459794 -0.0029134382 0.0026461128
000040 c8 de 28 3b 4b 27 66 bb 34 26 40 3b 32 cf 61 3b
       0.0025767554 -0.0035118635 0.0029319646 0.0034455773
000050 f6 7a 42 3b cf 3f 3c bb 3a ff 49 bb 3b e4 5a bb
       0.0029675341 -0.0028724556 -0.0030822293 -0.0033400196
000060 87 c0 34 3b 36 e2 4d 3b 4a 7d 42 3b 71 01 20 bb
       0.0027580576 0.003141535 0.002967673 -0.0024414922
000070 8a cb a7 3a 31 5b 48 bb 3e 72 33 3b 02 f7 17 3b
       0.0012801748 -0.0030571932 0.0027381326 0.0023188

manager.M_value.2.weight f4 [1, 32]
000000 6f 8f e9 3d 3d 83 47 3e 9e fc ad be c0 00 07 3e
       0.11404311 0.19483657 -0.33981794 0.1318388
000010 87 b0 68 3e 62 96 d4 3d 70 83 63 bd 3f f1 2b bc
       0.2272359 0.10380246 -0.05554527 -0.010494529
000020 50 fe 63 be 91 2e 2c 3e 05 d8 0b 3e 31 5f ea 3d
       -0.22264981 0.16814639 0.13656624 0.114439376
000030 df c2 52 bd 50 d1 8d 3d 5c 00 f0 3d 70 99 93 bd
       -0.051455375 0.06924689 0.117188185 -0.07207
000040 e4 07 a8 bd 8e c1 ab 3d 56 3c 1a bd de b3 60 bd
       -0.0820463 0.08386527 -0.037655197 -0.054859035
000050 aa 44 0b be 27 28 20 3e 14 a2 a0 3e b1 6f a8 3e
       -0.13600412 0.15640317 0.31373656 0.32897714
000060 47 74 c8 bc c0 e4 75 be 73 cb 58 be a1 af 72 3d
       -0.024469508 -0.24013042 -0.2117136 0.059249524
000070 d3 98 4e be 57 a2 d9 3e 70 7a 76 bd 71 51 93 bd
       -0.20175485 0.42506668 -0.06017536 -0.07193268

worker.f_stateW.0.weight f4 [128, 64]
000000 92 1a 6e 3d a1 07 3d 3d 74 2e 67 bd b2 7d 2a bd
       0.05813081 0.046149854 -0.056440786 -0.04162378
000010 f6 aa b6 bd 3c b2 52 3d 47 a1 64 bc eb a3 52 be
       -0.08919327 0.05143951 -0.013954467 -0.20570342
000020 36 a4 c0 3d bc a6 ae bd 1c ce ac bb bc 2d 13 bc
       0.09406321 -0.08527896 -0.0052735936 -0.008983072
000030 0d 89 70 bc ea 4d c4 3c 9a b6 03 3e 73 75 03 bd
       -0.014681113 0.023962934 0.12862626 -0.03209443
000040 f5 e4 b4 3d de 06 1b bc 00 7f 68 3e 93 dd bb bd
       0.088327326 -0.0094620865 0.22704697 -0.09173121
000050 0c b2 ea bd ad fc fd bd be 3f 12 bd 08 d6 9f 3c
       -0.11459741 -0.1240171 -0.03570532 0.019511238
000060 a0 49 59 3e 7b c5 c9 bd fe e1 17 3e 57 da fe bd
       0.21219492 -0.098521195 0.14832303 -0.12443989
000070 03 31 01 bd be b6 0d bd 82 3f 95 3d f0 9c 2c 3d
       -0.03154088 -0.034598105 0.07287504 0.042141855
000080 52 27 c3 3d 1b b1 43 3d 1d b4 aa 3a 94 61 7c 3c
       0.09528984 0.047776323 0.0013023649 0.015404124
000090 ad b9 ff bc d0 19 d6 bc 8d ce 83 3d 44 e7 99 bd
       -0.031216467 -0.026135355 0.06435881 -0.075148135
0000a0 6e 90 1b be b4 d9 6b 3d 3c fa a1 3d 6d bd e5 b9
       -0.15191814 0.057580665 0.079090565 -0.00043819417
0000b0 7b 38 57 bd 70 a9 07 3d b9 c7 c8 bb 6f 1e 56 3d
       -0.0525441 0.033120573 -0.0061273244 0.052275117
0000c0 2e 64 6c bd de d4 01 be 3a ed 6b 3d 6b 85 7a 3d
       -0.057712726 -0.12678859 0.057599284 0.061162394
0000d0 99 a2 f4 3d d7 af 85 bd e4 d4 55 3d da 15 21 be
       0.119450755 -0.065276794 0.05220498 -0.15730992
0000e0 e5 90 6e bc 6e 01 d6 3c 02 70 1a be 1b 80 f2 3b
       -0.014560913 0.026123729 -0.1508179 0.0074005253
0000f0 d7 8e 6e 3c 32 9e f5 3d e4 16 02 3d 56 e9 d3 bc
       0.014560423 0.11993064 0.03176011 -0.0258681
000100 b1 dd 23 3d be 4e f9 3c e8 f1 10 be e6 84 56 bd
       0.040006343 0.030433055 -0.1415478 -0.052372836
000110 7d e0 c3 bd 57 dd 88 3c c4 37 bf 3d 7e 57 19 3d
       -0.09564302 0.016707106 0.09336808 0.037436955
000120 31 58 df 3d 3a ae 6a 3d 5b 6d e4 3c 9d 65 ee bd
       0.10905493 0.05729506 0.027884176 -0.11640475
000130 2c 0d f9 bb 0c 65 d1 bd a0 10 91 3c 0b 62 e5 39
       -0.007600447 -0.10224351 0.017708123 0.0004375133
000140 23 57 9d 3d c0 23 3e 3d cb c4 4b bd a8 8b 2b 3d
       0.07682636 0.046420813 -0.049748223 0.041881233
000150 5f 3e 87 3d 06 9f cc bb 33 23 86 3d c2 5d e5 bc
       0.06603693 -0.006244543 0.065496825 -0.027998809
000160 73 6c 89 be f9 42 cf bd 0a 40 aa 3d ab d1 cc bd
       -0.26840553 -0.10120196 0.08312996 -0.100009285
000170 bc 29 a5 3c be 83 1f 3e 32 22 e2 3c be 62 9a bd
       0.020161502 0.155776 0.027604196 -0.07538365
000180 80 1a bf bd 73 7b be bd 00 17 2d bc 5d 91 48 bb
       -0.09331226 -0.0930089 -0.010564566 -0.0030604221
000190 16 ff 2c bd b9 aa b5 bd f1 af b8 3c ab dc ad bd
       -0.042235456 -0.088704534 0.022544833 -0.08489355
0001a0 db 6c 26 3d 88 88 ef bd 18 46 17 bd 01 41 a2 3d
       0.040631156 -0.11695963 -0.03693208 0.07922555
0001b0 c7 63 bd 3b 26 df a2 3d cc d0 37 be d3 47 da bd
       0.0057797167 0.079527184 -0.17950743 -0.10658231
0001c0 7c 3f 34 3e 0c f6 73 3b fa 41 c6 3d 10 85 0e be
       0.17602342 0.0037225513 0.09680553 -0.13917947
0001d0 77 57 13 3e c2 45 ff 3b 04 7c c4 bd 41 a4 14 3e
       0.14388834 0.007790298 -0.095939666 0.14515783
0001e0 16 db 01 3d 1a bc e3 3d f0 42 d6 3d dd c8 00 3e
       0.031703077 0.11119862 0.10461986 0.12576623
0001f0 5d fa f7 3b 7f 9a c5 3d 88 25 8e 3d a6 12 9a bd
       0.0075676874 0.096486084 0.06940752 -0.07523088
000200 eb c8 29 bc 17 8c 8b bc 4a d8 08 be 65 5a 2a 3e
       -0.010362844 -0.017034573 -0.13363758 0.16636045
000210 7f 14 c7 bd ef 67 01 bd 64 eb da bd dd ad c3 3c
       -0.09720706 -0.03159326 -0.106894284 0.023886615
000220 52 2e e4 3d f8 65 98 bc 08 2a 8d 3d 75 7d e2 bd
       0.111416474 -0.01860331 0.068927824 -0.11059085
000230 28 e2 8c bd 5d 89 1d 3d 1e 81 92 bc 07 12 3b bd
       -0.068790734 0.038461078 -0.017883833 -0.04567149
000240 cb 0e 50 be 0f 75 60 bd 3b 64 15 bd 96 3a d9 bd
       -0.20318143 -0.054799136 -0.03647254 -0.106068775
000250 17 5e a1 3d a7 32 5b 3d 39 ff 9a 3b ad a3 25 3e
       0.07879274 0.053515103 0.004730132 0.16175719
000260 48 ac f2 3d dd 03 8c 3d f4 5f 2f 3d 95 b9 97 3c
       0.11849266 0.06836674 0.042816117 0.01852111
000270 71 94 5b 3d 09 69 4a bc 3a 7f 42 3b 66 a8 ba 3d
       0.05360836 -0.012354144 0.0029677884 0.09114151
000280 3b f5 da bd f9 53 9a bd f6 ad 51 be 86 82 cb bc
       -0.10691305 -0.07535548 -0.20476517 -0.024842512
000290 6c ca 40 bd 48 d7 bb 3c fe 75 38 3b 7c b1 13 3d
       -0.047068045 0.022929803 0.00281465 0.036057934
0002a0 bb f6 85 bd 14 ec 3d 3d c6 ea 81 bc d9 07 ca 3d
       -0.06541201 0.04636772 -0.015859019 0.09864778
0002b0 b0 f6 d5 bd de 94 2f 3d c5 2d bd 3d c0 22 a9 bd
       -0.104474425 0.04286658 0.092372455 -0.08258581
0002c0 99 54 4d 3d ca e3 b0 3d 30 36 02 3e d9 e3 a7 3c
       0.050129507 0.08637197 0.12715983 0.020494388
0002d0 fb 2e 9a 3d d7 78 0b bd bc 8b 2d be a1 55 00 be
       0.07528492 -0.03405079 -0.16947836 -0.12532665
0002e0 b0 4a 2a 3d 0c 9e d2 bc 5c 6b 51 3d 3f 38 ba 3c
       0.041575134 -0.025710128 0.051127777 0.022731898
0002f0 79 af 72 bd 88 bf af bd 2c 46 46 3d 88 98 27 3e
       -0.059249375 -0.085814536 0.048406765 0.1636678
000300 74 c9 0f be b6 ca 92 bc cb 41 e6 3d aa e4 9e 3d
       -0.14041692 -0.017918926 0.11243018 0.07758458
000310 2b bb 88 bd 48 59 f1 bd 30 1c bb bd ef 71 78 ba
       -0.066763245 -0.11784607 -0.09136236 -0.00094774266
000320 51 f3 f7 3b 75 65 3a bd e0 da 76 3d b7 df 18 be
       0.0075668474 -0.045506913 0.06026733 -0.1492909
000330 80 4b 12 be 67 ad 83 bd d9 79 bb bd ac c7 49 3e
       -0.14286613 -0.06429558 -0.091541 0.19705075
000340 91 d3 00 bd fb 76 03 3d 84 ca 0a be ef 46 61 3c
       -0.031451765 0.03209589 -0.13553816 0.013749822
000350 ae e4 2f be 18 5f f8 bc d1 7d 3c be 44 aa 5c bd
       -0.17177078 -0.030318782 -0.1840737 -0.053873315
000360 23 44 c9 bd a2 14 80 bd 09 c9 4c 3d 69 81 2f be
       -0.09827449 -0.062539354 0.04999641 -0.1713921
000370 a7 33 8b bd a6 73 65 3d 35 7b 13 3d 45 80 54 bd
       -0.06796961 0.056018494 0.03600617 -0.05188014
000380 d4 75 42 3d d5 c1 db 3c fb 7a a6 3d d2 ab 03 3e
       0.04747565 0.026825825 0.081289254 0.12858513
000390 15 99 ce 3b ea 5e d2 3d 0f 59 e3 3c df ed a9 3d
       0.00630487 0.1027201 0.027752427 0.082973234
0003a0 85 01 52 3c 32 1a 7e 3b 5c db f2 3d 98 93 14 be
       0.012817745 0.0038772938 0.11858246 -0.14509428
0003b0 28 05 19 be 60 e5 af 3d 6e 5b 64 3d c7 ab 86 3b
       -0.14943373 0.08588672 0.055751257 0.004109833
0003c0 a0 1c 3f be 05 fd 1f 3d b5 c7 e1 3c 55 67 e6 bc
       -0.18663263 0.039059658 0.027561048 -0.028125444
0003d0 ef a5 e6 bd 2e 54 25 bd 9e 9d cf bb c1 a8 de bd
       -0.11262118 -0.040363483 -0.006335928 -0.10872031
0003e0 08 ca b0 bd 4d c9 64 3d a9 fa 43 bd 2d 94 00 bd
       -0.086322844 0.055856038 -0.04784647 -0.03139131
0003f0 16 f2 b9 3c a9 d8 29 be ed c8 a5 3c 7c 3e 29 be
       0.022698443 -0.16586556 0.02023741 -0.16527742
