vwgym/saved_model/vwgym_f_net_step_6500000.pt (torch_old, 382122 bytes, 57 tensors)

f_percept.percept.0.weight f4 [16, 3, 3, 3]
000000 37 66 8b 3d cd 7c 91 bd 17 a2 bf bd 33 40 84 be
       0.06806605 -0.07103882 -0.09357088 -0.2583023
000010 cd 30 f9 3d d7 0b 90 3d d8 3a a6 be 4e ae 1b be
       0.12167511 0.07033508 -0.3246677 -0.1520321
000020 ad 04 57 be 42 a7 9c 3e cf cf 0a be 7d b2 e2 be
       -0.20997877 0.30596358 -0.13555835 -0.442768
000030 ce 80 b4 3b c3 77 ad 3d 6d 5a 95 3e c7 cf 81 bc
       0.005508519 0.08470108 0.29170552 -0.015846146
000040 a6 c3 56 be cd 6f 2b be 4d 8c 5d 3e cb 55 a5 be
       -0.20973071 -0.16741867 0.21635552 -0.32292017
000050 35 d0 b4 3d 6a af 38 be 15 e1 74 bb 09 0a bc 3b
       0.08828775 -0.18035665 -0.0037365605 0.005738501
000060 6b 12 ec bd fa 7d 43 3e 86 b0 cc bd af 66 71 be
       -0.115269504 0.19091025 -0.09994607 -0.23574327
000070 5e 25 51 bd 5e 95 92 3e 7f d2 be bd 6f ec 87 3c
       -0.051061027 0.28629583 -0.09317493 0.016592233
000080 bb 89 30 3e 68 e1 6f be 67 fa 02 be 5d 3d 3a 3e
       0.1724004 -0.2342583 -0.12790833 0.1818747
000090 e5 b4 88 bd 17 ce ce 3e 61 9c 20 3c 58 f2 b3 bb
       -0.06675128 0.4039161 0.009802909 -0.005491536
0000a0 22 ba 3e 3e 5b cf 63 3e 0a e7 8d be f8 09 c8 3d
       0.18625692 0.22247069 -0.2771533 0.097675264
0000b0 56 76 87 be 34 11 3d be 12 22 3e 3d c4 c6 19 be
       -0.2645747 -0.18463594 0.04641921 -0.1501723
0000c0 93 77 ca bd 53 8e ab 3e f1 d8 72 be 26 77 5a 3d
       -0.09886088 0.33507022 -0.23715569 0.053336285
0000d0 65 92 30 bc fc 70 85 3e 1c e2 f9 bd 41 f6 19 3e
       -0.010777091 0.26062763 -0.1220133 0.15035345
0000e0 09 e3 91 3e a8 77 87 3e 80 2c 87 bd 81 2c ea 3d
       0.28493527 0.26458478 -0.066002846 0.1143427
0000f0 9e fd c9 bc e7 95 08 3e dc b5 56 be 73 aa 57 3e
       -0.024657067 0.13338433 -0.20967811 0.21061115
000100 b7 9c 57 bd 99 fc fc bd 5b 63 3b 3d 1d 81 18 bd
       -0.05263969 -0.12352867 0.04574905 -0.037232507
000110 d5 8d e9 bd d0 81 a7 bb 90 db 34 3d 35 b3 4a 3e
       -0.114040054 -0.0051119104 0.044154704 0.19794925
000120 86 46 94 3e 30 8a bf bd ec ab 70 be 01 75 f2 bd
       0.28960055 -0.09352529 -0.23503083 -0.11838723
000130 67 c0 f2 3e a2 2c c9 3e 23 ef 02 3e 47 23 69 be
       0.47412416 0.39291865 0.12786536 -0.22767363
000140 e2 ed c5 3c 3b b0 01 3e 06 03 39 be ff c0 88 3c
       0.024161283 0.12664883 -0.1806756 0.01669359
000150 4b 1b 61 3e a0 70 9b 3e 94 85 1b 3e ca 3b d9 3d
       0.21983068 0.30359364 0.15187675 0.10607107
000160 6e c6 3e be 68 32 93 bc 39 4d bb 3e a6 69 0a 3e
       -0.18630382 -0.017968372 0.36582354 0.13516864
000170 6a 8a 12 3e b4 32 15 be 84 27 05 3d ab f6 1b be
       0.14310613 -0.14570123 0.03250839 -0.15230815
000180 8c 21 82 be 89 79 f5 bd b3 6e f3 bd 09 fa b3 3d
       -0.2541622 -0.119860716 -0.118863486 0.08787925
000190 f6 f1 91 3e 0a c0 c0 3d 37 93 41 3d d3 41 c3 3d
       0.28504914 0.094116285 0.047259536 0.09534039
0001a0 43 70 1b be 54 8d 9b 3d 16 69 92 bd c8 22 09 bf
       -0.15179543 0.075953156 -0.0714895 -0.53568697
0001b0 17 de 94 3e 73 af 62 bd 7c e7 05 3d e2 eb d5 bd
       0.2907569 -0.055343103 0.032691464 -0.10445382
0001c0 25 af 43 be d3 b9 de be 62 61 45 bc a5 f8 b8 3d
       -0.19109781 -0.43501148 -0.012047144 0.090318
0001d0 7f 53 98 3e 17 38 6d 3d 90 6f 03 be ec 21 ef 3d
       0.29751202 0.05791482 -0.12835526 0.11676392
0001e0 c4 64 c8 be 80 76 af 3d 7f 65 a7 3d 7f 9c 1b 3e
       -0.39139378 0.08567524 0.08173656 0.15196417
0001f0 85 af 8d be 64 c6 59 3c a5 c1 be bc d4 bc ab 3d
       -0.27672973 0.013291929 -0.023285696 0.083856255
000200 10 d3 57 3d 7d ae b9 be e5 21 b1 3e 78 2f 78 bd
       0.05269152 -0.36265936 0.34596172 -0.060592145
000210 c4 76 a2 3d a1 f9 98 bd 61 e4 6a ba 16 53 6e 3e
       0.07932809 -0.07469488 -0.0008960423 0.23273882
000220 bb 16 71 3e da ff 20 be 84 21 ac be 30 81 a7 3e
       0.23543827 -0.157226 -0.3361932 0.3271575
000230 c1 08 1f 3e 4b 1c 25 bd 7c 1a 60 3d 99 fd 24 3e
       0.15530683 -0.040310185 0.054712757 0.16112365
000240 2b e8 77 be 5d 2d 4b 3e 41 38 e2 bc 99 80 0a be
       -0.24209659 0.19841523 -0.027614715 -0.13525619
000250 28 b9 8f bd f3 79 93 3c af 87 0b 3e 83 30 63 3e
       -0.070177376 0.018002486 0.13625978 0.22186475
000260 e2 31 0f 3e 64 10 61 3e 03 9f a6 bd dc 7f f5 3d
       0.13983873 0.21978909 -0.08135798 0.11987278
000270 bd 23 64 3e 25 98 8d 3e 81 42 85 3d e5 d8 c2 3e
       0.22279258 0.2765514 0.06506825 0.38056102
000280 d7 61 1c 3e 38 02 f0 bd d4 19 a8 bd 80 95 92 be
       0.15271698 -0.11719173 -0.08208051 -0.28629684
000290 bb a8 b9 3a 1e c4 b3 be 97 e7 4c be 0f 4a 6b 3c
       0.0014164665 -0.35110563 -0.2001022 0.014360919
0002a0 cd 3d cd 3d 33 71 64 3e b1 10 60 3e 40 1a 86 3c
       0.10021553 0.22308807 0.21881367 0.016369939
0002b0 56 20 0c 3e 85 b8 79 3e 54 30 8e 3e b6 26 03 be
       0.1368421 0.24386795 0.27771246 -0.12807736
0002c0 4d 98 8d 3d 7b 94 85 3b 84 0b 0c bd 52 20 9c be
       0.06913815 0.004076538 -0.03419067 -0.30493408
0002d0 b0 f9 48 3e b6 5f 9e bd 42 08 a5 be a4 48 98 bd
       0.19626498 -0.07733099 -0.32232863 -0.0743573
0002e0 91 ba d9 bd 7e e3 99 3e 48 e2 8f 3d 33 26 8c 3c
       -0.10631288 0.30056375 0.070255816 0.017108059
0002f0 16 af a8 be 1e 52 8f bd 3f e9 86 be 5a 1d 6c 3e
       -0.3294608 -0.069980845 -0.26349828 0.23058072
000300 58 4b bc bd c6 18 a3 bc ba 84 c7 3e f1 99 17 3e
       -0.09194058 -0.019909274 0.3896845 0.14804818
000310 61 82 e2 be dc 6d fc 3d 59 22 09 be 96 6f 65 be
       -0.44240096 0.123256415 -0.13392009 -0.22405848
000320 8a 55 95 3d 5f ba a1 be 80 34 e6 3d fc 1f 35 3e
       0.07291706 -0.31587502 0.11240482 0.17687982
000330 54 0b 0f 3e b0 46 0f be 52 c6 5a 3e 0b 4c 1f 3e
       0.13969165 -0.13991809 0.21364716 0.15556352
000340 30 93 42 3d 6c b6 d1 bd 01 de ca 3b 3a b0 73 be
       0.04750365 -0.10239872 0.0061910157 -0.23797694
000350 c8 e9 25 3e 1f 52 31 3e 5b 73 c6 bd b2 95 0b 3e
       0.16202462 0.17316483 -0.09689971 0.13631323
000360 e0 82 d1 be d9 f7 cf 3d 02 f3 4d 3c 71 1b 83 3d
       -0.40920162 0.10154695 0.012570145 0.064017184
000370 e5 62 44 3e 26 d7 61 bd 30 7c ba 3e 66 c6 8c 3e
       0.1917835 -0.055136822 0.36422873 0.27495116
000380 ea b8 19 3e b9 82 73 bd 7c 20 7e be d5 ae e8 bd
       0.15011945 -0.05945084 -0.2481708 -0.113614716
000390 83 b5 24 3d 8d 2c 77 3d 55 8e 4c 3e 3f 4e 71 bd
       0.040212166 0.06034522 0.1997617 -0.058912512
0003a0 c1 1d e4 bd 22 19 44 be 54 d7 de 3e f3 4f 8a 3e
       -0.111384876 -0.19150212 0.43523657 0.2701412
0003b0 cc d8 36 3e 07 e0 86 3b 02 7b 79 3d 4d 0c 20 be
       0.17856139 0.0041160616 0.060908325 -0.15629692
0003c0 01 be 27 3b d2 18 36 3e 2a e4 08 3e e8 f2 b3 bd
       0.002559543 0.17782906 0.13368288 -0.08786565
0003d0 f0 e7 6f 3e 7d 0c 05 bd ce 80 34 be dd 9b 63 3d
       0.23428321 -0.032482613 -0.1762726 0.055568565
0003e0 6d 07 ef 3c 67 ea ae 3e f6 fc f0 bd 7d 56 c3 be
       0.029178346 0.3416321 -0.117669985 -0.38151923
0003f0 44 4f 87 3e 9c ef 33 3e 34 fe a3 3e 9c bf 9b bd
       0.26427662 0.17571872 0.3202988 -0.07604906

f_percept.percept.0.bias f4 [16]
000000 32 a8 e6 ba 70 ba 7d 39 8c 36 96 3a dd ca 02 3b
       -0.0017597734 0.00024197414 0.0011460348 0.0019957342
000010 c9 1e 3b ba 0f c0 e3 ba 7a 27 a2 ba 28 99 ba ba
       -0.0007138071 -0.0017375964 -0.0012371384 -0.0014236318
000020 55 25 99 ba 01 6f e2 b9 ed 68 50 ba 98 a2 f3 b9
       -0.00116841 -0.00043188783 -0.00079502055 -0.00046469714
000030 80 ee 51 38 a1 8f a8 ba 1c b0 23 ba 42 17 4f 3a
       5.0051603e-05 -0.0012860188 -0.0006244199 0.0007899889

f_percept.percept.3.weight f4 [64, 16]
000000 32 ac 93 3d 58 58 08 3d e8 08 af 3c d3 c2 24 be
       0.07210578 0.033287376 0.021366552 -0.16089945
000010 aa a1 99 bd e9 dd 70 bd e5 79 84 bd ae 8f 16 be
       -0.07501538 -0.05880538 -0.06468562 -0.14703247
000020 9f e0 51 3d 45 62 09 be ff 40 d8 3d 6a d9 b6 bd
       0.051239606 -0.13416393 0.10559272 -0.08928187
000030 6b 66 1a 3c 08 e9 11 be 69 da 17 be 77 10 d4 bc
       0.009423832 -0.1424905 -0.1482941 -0.025886757
000040 33 45 17 3e 25 dd 07 be f6 c2 19 3e 71 cd e2 bd
       0.14772491 -0.13267954 0.15015778 -0.11074341
000050 89 71 36 bd 00 ee 66 be 34 fd 1f be 59 cc 11 3e
       -0.04454187 -0.22551727 -0.15623933 0.14238109
000060 c9 17 1d bd a4 46 57 bb f7 7a b2 bb b5 e9 84 3d
       -0.03835276 -0.0032848502 -0.0054467875 0.064898886
000070 33 82 d9 bd 6d 49 f1 bd cc c0 8e be e9 7d 8c bd
       -0.10620537 -0.11781583 -0.27881467 -0.06859953
000080 dc e0 d4 3c 57 45 76 3e 51 0a 74 bd 2c 23 0a be
       0.025986128 0.24049889 -0.05958015 -0.1348998
000090 b7 f0 c6 3d db 4b be bc d7 99 28 3e 78 bc 99 3d
       0.097138815 -0.02322953 0.16464935 0.07506651
0000a0 21 e1 ad 3d f5 d7 7b 3d be 38 83 bd 97 a5 a9 bd
       0.084902056 0.06148525 -0.06407307 -0.08283537
0000b0 de 5a 8b 3e 01 5d 7e bd 70 d3 52 be 22 5b 1d bd
       0.27217764 -0.062100414 -0.2058847 -0.03841699
0000c0 cd 5b 15 3e 0c 35 67 3d 4f 09 6d bd 42 38 25 bd
       0.145858 0.056447074 -0.057870205 -0.040336855
0000d0 8d 38 c7 bd a6 fa 1f be 96 9d 63 3d 46 1f 32 be
       -0.09727583 -0.15622959 0.055570208 -0.17394742
0000e0 92 c5 d0 bd 46 06 93 be cb 17 91 3c 98 38 be 3d
       -0.101939335 -0.28715724 0.01771154 0.09288138
0000f0 45 4b a1 3d 9e 24 29 bd 6e b0 8e bb 24 67 dd 3d
       0.07875685 -0.041294686 -0.004354528 0.10810688
000100 a9 33 fe bd 21 8e 0c be 05 88 97 3d 1a 84 0a 3e
       -0.12412197 -0.13726093 0.073989905 0.13526955
000110 4a ab 05 3e 9a e2 00 3e 03 2f 3f be 54 d8 ac bc
       0.13053623 0.12586442 -0.18670277 -0.021099247
000120 9a fa ea 3d 17 1b 37 3e 2b c8 78 be 98 21 f1 3c
       0.1147358 0.17881428 -0.24295108 0.029434964
000130 d3 38 9a bc 47 ae d5 be 1a 1c ef 3c b3 24 59 bd
       -0.018825924 -0.41734526 0.029188205 -0.053013515
000140 d9 15 f5 bd dc ce 40 bd 01 fe 24 3e 61 07 12 3e
       -0.11967058 -0.047072276 0.1611252 0.14260627
000150 8b d0 92 3d b4 7c 8f bc 9b e3 0d 3e 71 18 27 be
       0.07168683 -0.017515518 0.13856356 -0.16317917
000160 e0 5f 58 3d 32 6e f4 bd 81 b9 43 3e 3b 3b 06 be
       0.05282581 -0.119350806 0.19113733 -0.13108532
000170 fd 20 dc bd b9 d8 f6 3c f4 f9 c8 3d 67 68 0d 3e
       -0.107484795 0.030132638 0.098133 0.13809358
000180 f0 9d cb bd 35 10 50 bd af 48 00 3e 38 0c 9a 3d
       -0.099422336 -0.050796706 0.12527727 0.07521862
000190 21 67 06 be 83 65 2b 3e 14 51 34 3d b6 e8 00 3e
       -0.13125278 0.16737942 0.044022635 0.12588772
0001a0 b6 51 0b 3e 0a 5a fe 39 2b a2 77 3d f0 43 6d bd
       0.13605389 0.0004851374 0.06045739 -0.05792612
0001b0 12 b0 cf 3c 16 8a 6f 3d 14 29 bc bd 29 d9 7f bd
       0.025352512 0.0584813 -0.091875225 -0.06246296
0001c0 f2 97 d2 bd fa bd a6 bd a6 05 96 be 13 d9 23 3e
       -0.102828875 -0.08141704 -0.29301184 0.16000776
0001d0 b6 9f 22 3e 42 d4 35 bd 09 bb 8d be 66 c3 92 bc
       0.15881237 -0.044391878 -0.2768176 -0.017915439
0001e0 21 0a 4f be 1f c2 af 3d 96 54 0e be 29 a6 1e bd
       -0.20218708 0.085819475 -0.13899454 -0.03873268
0001f0 4d e3 03 be f7 1f 47 3d 40 82 22 bd 11 e8 12 3e
       -0.12879677 0.04861447 -0.039674997 0.14346339
000200 2d 10 81 3c 23 a8 63 be 7b 62 da bd af 0e b2 3d
       0.015754784 -0.22232108 -0.10663315 0.08694207
000210 db 8a 5c be 52 9c 17 be 6d 3e e3 3d b9 f0 55 be
       -0.21537344 -0.14805725 0.11095891 -0.2089261
000220 94 47 31 3e d5 58 16 be 1b 46 e7 bd 1b 56 3b be
       0.17312461 -0.14682324 -0.112926684 -0.18294565
000230 63 a6 72 bd 63 97 4a 3e f2 b4 91 bd 53 5c c4 bc
       -0.05924071 0.19784312 -0.07114591 -0.023969805
000240 7f 62 d9 3d 04 6d 72 3e ad 2d 62 bc 56 34 d6 3d
       0.1061449 0.23674399 -0.013804835 0.10459201
000250 af e7 0f 3e 53 8d e7 bc ec d2 04 3d b8 fe 1f be
       0.14053224 -0.02826563 0.032427713 -0.15624511
000260 e7 2e a0 3d de 03 dc 3d 24 4c 9a bd ca 6f 4f 3e
       0.07821446 0.10742925 -0.07534054 0.20257488
000270 60 f0 b7 bc c9 a0 97 3c 87 88 ba 3d 56 83 bb 3c
       -0.022453487 0.018509286 0.09108072 0.022889774
000280 c7 74 90 3d 4b 70 00 be c1 44 e0 bc c2 88 69 be
       0.070535235 -0.12542836 -0.027376534 -0.22806075
000290 0b e6 04 3d ff c4 be bd 1c e3 27 3e 03 e5 e3 3c
       0.03244595 -0.09314918 0.16395229 0.027819162
0002a0 1c a0 ee 3d df 11 c2 3c c9 3b 3e be 28 cf af 3d
       0.11651632 0.023690162 -0.18577494 0.08584434
0002b0 49 8a 18 be 54 59 48 b9 ab 1d 1b 3e 00 3f b1 bd
       -0.14896502 -0.00019106764 0.15148036 -0.086545944
0002c0 77 30 ed 3d 81 a5 96 bd a7 d0 30 3e 5f 6f 37 bd
       0.115815096 -0.07355786 0.17267095 -0.044783946
0002d0 fa 43 69 bd 4c 6b bb bd 08 d2 f2 3d 51 f5 f5 bd
       -0.056949593 -0.09151325 0.118564665 -0.12009681
0002e0 f4 06 86 bc ae 04 c4 3d 74 3d aa bd ac b0 22 bd
       -0.016360737 0.09571205 -0.083125025 -0.03971927
0002f0 4c be 05 bd c2 ac 2b be bc 27 7c bc c2 c3 57 3e
       -0.032652184 -0.1676512 -0.015390333 0.2107077
000300 8d 17 ca 3d 88 49 56 be 4a 6b 17 3d ea 9b 33 3e
       0.09867773 -0.20926487 0.036967553 0.17539945
000310 29 9d 83 bd 14 93 e8 3c e7 73 12 bd e2 62 84 be
       -0.0642646 0.028390445 -0.035755064 -0.25856692
000320 56 48 19 3d 44 57 b8 3d 1e 5d a9 bc 95 35 6f be
       0.0374225 0.090010196 -0.020674285 -0.23360284
000330 e2 a6 96 3d 88 9e 0f 3e cc 2f 38 bd 79 65 23 bc
       0.07356049 0.14025319 -0.044967458 -0.009972923
000340 25 19 81 be ee c1 f9 3c 97 97 38 3e 6d d5 8a 3e
       -0.25214496 0.03048798 0.18026577 0.27115956
000350 e4 17 57 bc 05 42 28 be 01 f0 a1 bc 5c 2a ff 3d
       -0.013128255 -0.16431434 -0.019767763 0.12459251
000360 03 88 05 3e df 88 e6 3c a9 fe 08 3d 73 17 c1 bc
       0.13040166 0.028141437 0.033445988 -0.023570752
000370 ef 69 92 3d e5 98 80 bd 9d 4d 68 3d 80 7f bb 3d
       0.071491115 -0.06279162 0.056714643 0.09155178
000380 7f 9a 0d 3e 0f be 3e 3d 4d 63 58 bd dd 76 17 3e
       0.13828467 0.046567973 -0.052829076 0.14791436
000390 da b2 2c 3e 77 97 f9 bc c0 ca fd 3c 0d a3 59 3e
       0.16865101 -0.030467732 0.030980468 0.21253605
0003a0 2d b9 8a 3c d9 f4 ab bd 17 d5 8e 3d 8c 71 36 be
       0.016934002 -0.0839631 0.069742374 -0.17816752
0003b0 12 8a a5 bd a0 b1 2e be 1b 0f 89 3c f8 bd b1 3a
       -0.080829754 -0.17059946 0.016730836 0.0013560643
0003c0 8c 87 03 3e 3d 77 1f be ff 69 fb bc db 12 91 be
       0.12844676 -0.1557283 -0.030690191 -0.28334698
0003d0 02 62 91 3e 71 73 47 bd 39 47 2e 3d 90 9c f9 3d
       0.28395087 -0.048694078 0.042548392 0.12188065
0003e0 9c 37 9b bb c1 8a 7b bc 39 67 38 3e e3 28 10 3c
       -0.0047368538 -0.015352906 0.18008126 0.008798811
0003f0 3c 85 96 3d 8f 94 6f 3e b8 07 c2 bc 23 d3 cc bc
       0.07349631 0.23396514 -0.023685321 -0.025003022

f_percept.percept.3.bias f4 [64]
000000 c8 f8 2f bb 29 14 43 3b 9e 8b 4e 3b 1e f2 1e 3b
       -0.0026851166 0.0029766655 0.0031516324 0.00242532
000010 86 ae 35 3b 4e c1 93 3b 90 95 b9 ba f8 a6 0d 3b
       0.0027722432 0.0045091277 -0.0014158953 0.0021614414
000020 71 9a da ba 9f 5f 34 3b fe cd 8a 3b 70 a7 17 bb
       -0.0016678107 0.0027522815 0.004235982 -0.0023140572
000030 a5 0b 32 3a 7a e4 8b 3b 11 06 92 b8 74 03 99 bb
       0.00067918963 0.00426918 -6.9629525e-05 -0.004669601
000040 7c 4f 26 bb f0 ef 69 bb 6a 22 5d 3b f1 ec d6 38
       -0.0025376966 -0.0035695992 0.0033742436 0.00010248449
000050 2d df f6 3a aa c6 03 3b e0 3f 62 3b b5 24 bd 3a
       0.0018834822 0.0020107427 0.0034522936 0.0014430495
000060 0f 80 3d ba de 10 55 3a 5e a0 88 3b 92 5c 0a bb
       -0.000722886 0.00081278186 0.004169508 -0.0021112305
000070 4b 99 8c bb 0c be c1 ba 6b 83 18 3b 4c b5 97 bb
       -0.004290735 -0.001478137 0.002327169 -0.0046297666
000080 6c a7 73 3b 13 e8 96 3b a5 f1 0b 38 49 1f c8 ba
       0.0037178649 0.004605302 3.336523e-05 -0.0015268113
000090 80 c5 d4 3a 83 b9 47 3b b0 2c 5e 3b fd d4 c9 ba
       0.0016233176 0.0030475564 0.0033901148 -0.0015398558
0000a0 ca b5 33 bb 2f 51 cc 39 2e f4 b8 3b 08 ee 13 3a
       -0.0027421587 0.000389704 0.005644343 0.00056430744
0000b0 54 c0 56 39 a4 49 a1 ba 66 ec 74 3b 16 51 b9 3a
       0.00020480278 -0.0012305272 0.003737235 0.0014138545
0000c0 10 8d 5c ba 03 bc ff 3b b5 ad 0d bb 7b 22 82 3b
       -0.0008413354 0.007804395 -0.002161843 0.0039713955
0000d0 5f 1c 95 3b ff fc 91 3b cb 52 66 bb 0a 5a 03 3b
       0.0045505012 0.0044552083 -0.0035144563 0.002004268
0000e0 04 1a 73 ba 9a b6 66 3b ee 7b c8 bb 4f 7d 51 3b
       -0.0009273591 0.0035204054 -0.006118289 0.003196556
0000f0 89 07 f4 b8 e7 d3 a5 3b f8 9b d9 ba 95 67 05 3b
       -0.0001163623 0.005060661 -0.0016602268 0.002035593

manager.M_space.weight f4 [64, 64]
000000 58 0f fe bc e2 53 f9 3d 56 18 a3 3e e0 91 24 bd
       -0.031013176 0.121742025 0.31854504 -0.04017818
000010 65 c4 8d 3d fe 48 36 3e ee 59 54 bd 3e 67 39 3e
       0.06922225 0.17801282 -0.051843576 0.1810579
000020 2a 42 42 3e 83 74 16 bd 95 56 e0 bc 6b 09 dc bd
       0.18970552 -0.036732208 -0.027385036 -0.10743984
000030 a2 34 04 be 0e 9d 0e 3e 0a b5 10 be 15 c8 fc 3d
       -0.12910703 0.13927099 -0.14131561 0.1234285
000040 30 b4 3e bc bf db 2f 3d 31 95 e1 bd a4 8a 06 be
       -0.01163964 0.042934176 -0.11014784 -0.13138825
000050 66 51 71 be 52 e1 8b bc 67 f3 47 bd 56 6b 6c 3d
       -0.23566207 -0.017075215 -0.04881611 0.05771955
000060 83 b6 45 3e 50 9a b0 bd 61 68 68 be b3 2e 4e 3d
       0.19307904 -0.08623183 -0.22696067 0.050337505
000070 c3 c7 fe 3c 93 ca 7d be 98 7b 06 be a7 73 3e bd
       0.031101113 -0.24784307 -0.13133085 -0.046497013
000080 f0 bb 9c bd 75 4c f9 ba 98 47 26 bd 7a 5e f5 bd
       -0.07653034 -0.0019019978 -0.04059562 -0.119809106
000090 82 2b 3e be 92 03 ff 3d 66 5b 99 3d 3f 61 49 3e
       -0.18571284 0.12451853 0.07488136 0.19666003
0000a0 f2 0a 32 be 21 d4 b5 bd ce bf 86 3e 40 c4 6b bc
       -0.17386988 -0.08878351 0.2631821 -0.014390051
0000b0 5f 29 1b bd 5c e0 17 bd ef cd be bd 4c b6 e5 3c
       -0.03788125 -0.0370792 -0.093166225 0.028041027
0000c0 92 24 91 bd 45 63 fa bd f0 88 0a be e5 7d aa bc
       -0.07087053 -0.122259654 -0.135288 -0.020811984
0000d0 0f d9 e1 3d 1a 28 06 be 90 be a6 3d 40 87 34 3e
       0.11027729 -0.13101235 0.08141816 0.17629719
0000e0 60 48 0d be a9 4f 9e 3d 9f ad a4 bd 1c bb 08 3e
       -0.1379714 0.07730038 -0.08040928 0.13352627
0000f0 ef 19 1f bd 67 44 42 bc 4c 2c b3 bd de 74 f1 3d
       -0.03884309 -0.011857129 -0.08748683 0.11789869
000100 37 29 c6 3c d2 c3 e7 bb 4b bd 6d ba db db e2 3d
       0.024189575 -0.007072904 -0.00090690394 0.1107709
000110 e9 10 59 bc f9 80 08 bd 81 8a 32 3e 00 b7 5c 3e
       -0.013248661 -0.033326123 0.17435648 0.21554184
000120 47 8b e1 3d 7b fd c2 3d fd 9e 3c bd 0a 7c cb bd
       0.11012893 0.09521004 -0.04605006 -0.09935768
000130 cb 1b 43 bc 2d e1 d7 bd c8 3f 2f bd 5f 0f 71 be
       -0.011908482 -0.10540996 -0.042785436 -0.2354102
000140 d1 5d b4 bd 74 3a d8 bd ee da 3b bd 35 c9 c3 bd
       -0.088069566 -0.10558024 -0.045863084 -0.095598616
000150 1a 24 2b bd 11 16 48 3d bc 0d 8c bd 4e a8 96 3e
       -0.041782476 0.04884917 -0.06838557 0.2942528
000160 41 f4 c5 bd 75 1e e9 3d 24 32 ac bd e4 03 f7 3b
       -0.09665728 0.11382762 -0.08408001 0.0075383056
000170 9a 55 35 be c2 45 20 3e ca 90 63 3e b7 8f 65 3e
       -0.17708436 0.1565161 0.22223201 0.22418104
000180 f2 bb eb 3d a9 0a 04 3e 17 b0 91 bc 61 6c ea 3d
       0.11510457 0.12894692 -0.017784161 0.11446453
000190 03 bb f7 bd 94 83 42 bc b7 47 40 bd 48 db e0 bd
       -0.120962165 -0.011872191 -0.046943393 -0.109793246
0001a0 34 90 12 be e1 59 7b bc 2b b5 51 3d 83 7d 2c 3d
       -0.14312822 -0.015341253 0.051198166 0.042111885
0001b0 64 23 f2 bd 8b 52 1c 3e 58 72 36 3c af 55 c2 3d
       -0.118231565 0.15265863 0.01113566 0.09488999
0001c0 18 83 bd 3d 4a 22 c6 3d 98 02 d5 be 36 c0 c4 3d
       0.0925352 0.09674509 -0.4160354 0.09606974
0001d0 15 ca 82 be 5b 29 85 bd 9e 12 40 3e 4c 00 19 bd
       -0.255448 -0.065020286 0.18757102 -0.0373538
0001e0 9f d9 c8 3d cd bc 7e 3d 96 06 f2 bd a4 37 f8 bc
       0.09807133 0.062191773 -0.118176624 -0.030299969
0001f0 1c d2 e0 3c c0 04 58 3d b3 34 9f 3d 68 90 ba 3d
       0.027443938 0.052738905 0.077737235 0.091095746
000200 62 55 18 be 3f 90 c9 bc 85 a0 f0 3d a3 32 20 bb
       -0.14876321 -0.024604915 0.11749367 -0.0024444244
000210 08 83 e6 3d 31 44 41 be 7e 4a 21 bd a4 4c cc 3e
       0.11255461 -0.18873669 -0.039377682 0.39902222
000220 6a 8a 02 3e db 24 1f be 61 df 50 bd 20 12 cb 3c
       0.12748113 -0.15541403 -0.05099428 0.024788916
000230 c0 ef ae 3d 2e ea ee 3a 41 16 90 3d 17 ef bc 3b
       0.085418224 0.001822775 0.070354946 0.0057658064
000240 36 ee 25 bd c5 1e 4c 3e 7d 53 33 be 13 30 eb 3d
       -0.04051038 0.19933613 -0.17512317 0.11483779
000250 6b 26 68 3e d9 af 23 bd 7f ac 68 be e9 ec 58 be
       0.22670905 -0.039962623 -0.22722052 -0.21184124
000260 39 e2 ad bd 3c f0 f0 3c 41 03 f9 3c f4 87 d8 3c
       -0.08490414 0.029411428 0.03039706 0.026432015
000270 aa 35 09 be 7b 04 89 bd ad 5c aa 3d 77 cb 0d 3e
       -0.13399377 -0.06690308 0.08318458 0.13847147
000280 30 89 00 3e 55 07 a3 3d 71 28 33 b9 ef f6 d5 3d
       0.12552333 0.07960383 -0.00017085836 0.104474895
000290 94 1f 5d 3c 3b f5 40 3d 8e b9 55 3d 43 ff e6 3c
       0.013496298 0.04710887 0.052178912 0.02819789
0002a0 86 4a ff bd 74 68 0d 3e a4 59 d4 bc 12 7c ec bd
       -0.12465386 0.13809377 -0.02592165 -0.11547102
0002b0 50 a6 e5 bd 63 91 23 be 17 94 8e 3a 93 2a 1b 3e
       -0.11213362 -0.1597343 0.0010877874 0.1515296
0002c0 bf 78 1b 3e f0 63 60 bd f9 7b fa 3d 32 10 10 be
       0.1518278 -0.054782808 0.12230677 -0.14068678
0002d0 ff 2e d3 3d 49 66 30 3d ef 2b f9 bc ee f4 8f 3c
       0.10311698 0.043066297 -0.030416457 0.017572846
0002e0 44 47 a1 bd f7 41 05 3e 72 1a 0d 3d 6f bf eb 3d
       -0.07874921 0.13013445 0.03444905 0.115111224
0002f0 46 5f 82 3d ec d1 bc 3c 1a f3 66 3e b1 ef 97 be
       0.06365828 0.023049317 0.22553673 -0.29675058
000300 e3 e2 35 3d fd f7 6b 3e 1d 03 ea bd ff 75 63 3e
       0.04440583 0.23043819 -0.11426375 0.2221298
000310 cc a9 aa 3e eb 05 77 bd 49 11 30 bb 94 dd b7 3d
       0.3333267 -0.06030838 -0.0026865772 0.089778095
000320 0b 93 02 3e c2 6b 84 3c 39 96 1f 3d f3 61 54 be
       0.12751405 0.016164664 0.038961623 -0.2074049
000330 fa a8 b6 3d a3 19 12 3d 88 b3 c4 3d 2f 67 21 bd
       0.089189485 0.03566898 0.09604555 -0.039405044
000340 29 9f 9f 3e 5a 81 b1 3b f7 6a 01 3d ac 7c 0e 3e
       0.31176117 0.0054170312 0.03159615 0.13914746
000350 b7 9c be bd 09 7e 1e 3d b7 3f f8 3b 6b 18 b3 bb
       -0.09307235 0.038694415 0.007575955 -0.0054655573
000360 c9 67 ea ba 3b d7 ed bd b1 e1 2b 3c 3f 53 c9 3d
       -0.0017883714 -0.116133176 0.010490821 0.09830331
000370 68 9b d4 bd 6c 27 46 3d 7c b0 86 3d c3 71 0a be
       -0.10381204 0.04837744 0.065766305 -0.13519959
000380 68 86 74 bb a7 90 dc bc 0b ad 8f 3d ff 41 40 3e
       -0.0037311558 -0.026924444 0.07015427 0.18775176
000390 c0 74 88 3d 3e 72 3c 3e 59 09 c6 3d d3 7b f7 3d
       0.06662893 0.18402955 0.09669752 0.120841645
0003a0 68 2e 8e 3c 81 5a 41 3e 34 09 38 3e 96 dd 21 3e
       0.017356113 0.18882181 0.1797226 0.15807185
0003b0 59 92 cd 3c 84 42 a7 3d 9b 64 50 3e 4b b7 71 3d
       0.025094198 0.08166984 0.20350878 0.059012692
0003c0 3f cb 4d be 8f 20 87 be 90 73 a1 bc 15 4d 1e 3e
       -0.20097063 -0.26392028 -0.019708425 0.15459092
0003d0 22 3c a2 bd cd 22 92 3d f3 de 6a be 7e 66 df bd
       -0.07921626 0.07135544 -0.22936611 -0.10908221
0003e0 6f c2 8f 3d 55 65 04 be ac c3 1a 3d 6e 71 be bd
       0.07019507 -0.1292928 0.037784263 -0.09298979
0003f0 6d 18 85 3a a5 3c ce bc a2 3b a1 bb a3 ca e6 3c
       0.0010154374 -0.025175402 -0.004920439 0.028172797

manager.M_space.bias f4 [64]
000000 61 ff ee b9 b0 18 ea 3a 72 0d a8 3a 87 a7 13 3b
       -0.0004558517 0.0017860141 0.001282139 0.0022530274
000010 ab 86 50 3a 88 40 4e 3b a3 31 2b bb cd 4f 5c bb
       0.00079546374 0.003147157 -0.0026122115 -0.00336169
000020 4b 6f 0b 3b 91 2a 3c 3b 3a fd 20 3a 6c a7 d4 3a
       0.0021276053 0.0028711895 0.00061412493 0.0016224212
000030 a7 3f 3a bb d7 0c a9 3b 59 58 3c 3a aa b5 9a 3a
       -0.0028419287 0.0051590013 0.00071847957 0.0011803408
000040 6f 00 d8 39 83 8e 83 3b 4d 0e 94 ba d4 21 31 bb
       0.00041199054 0.0040147915 -0.0011295766 -0.002702822
000050 90 5f 4c 3b 08 98 ac 39 74 7f 55 ba 0b e4 76 3b
       0.003118489 0.0003291967 -0.0008144297 0.0037672545
000060 77 76 30 3b fd 8c a9 ba 9f f7 2d ba 94 85 85 3a
       0.002692608 -0.0012935695 -0.00066363247 0.0010186904
000070 b5 5e 48 bb 15 b8 31 3b db 69 cb ba 11 05 77 3b
       -0.0030574028 0.0027117778 -0.0015519218 0.0037692229
000080 2d 9a 40 3b 1a ae d1 3b 0f 65 13 3a 72 cf 87 bb
       0.002938877 0.0063989284 0.0005622664 -0.0041446025
000090 b1 88 5e bb c4 8c 6f bb 20 46 a3 b9 a8 f8 8d 3a
       -0.0033955986 -0.0036552409 -0.0003114203 0.0010831552
0000a0 3c ce e5 ba fe b9 f8 ba eb ec 57 bb d1 60 96 bb
       -0.0017532776 -0.0018976328 -0.003294761 -0.004589178
0000b0 f8 e2 95 3a f5 d6 28 3b f4 71 54 bb 4f 6a 66 bb
       0.001143544 0.002576289 -0.0032416554 -0.003515858
0000c0 c5 25 90 3a 5a 45 14 3b ce a6 10 bb 9c 69 00 3b
       0.0010997584 0.0022624345 -0.002207208 0.0019594198
0000d0 17 25 5c bb 52 ed ac bb 75 e6 95 3b 60 f2 e6 ba
       -0.0033591443 -0.005277314 0.0045745918 -0.0017619841
0000e0 b4 a8 2b bb bf 15 80 b9 73 81 a8 3a 0d 2d 8c b9
       -0.0026193084 -0.00024430265 0.0012855962 -0.00026736446
0000f0 84 24 76 3a 7c 08 b8 bb 59 26 c5 bb 67 17 35 3b
       0.00093895965 -0.005616246 -0.0060165343 0.0027632357

manager.M_goals.weight f4 [64, 128]
000000 f7 6f 91 bd 58 d9 0a bd 99 f7 15 bd 17 97 d3 bd
       -0.07101434 -0.03389868 -0.03661308 -0.103315525
000010 90 32 27 3e 65 3e 08 3e 34 93 0d 3d 42 31 76 3d
       0.16327882 0.13305052 0.034564212 0.06010557
000020 a3 f6 0c be f1 26 2a 3e cb 1a e5 3c 44 85 a0 be
       -0.1376596 0.16616417 0.027966877 -0.31351674
000030 17 c7 2a 3e 1a 60 1b 3e 91 8f c5 3c 83 6e 2a 3e
       0.16677509 0.15173379 0.02411631 0.1664372
000040 47 1c 60 bd 75 73 b9 3c 2d b2 f4 bd 69 44 6b 3c
       -0.054714467 0.022638062 -0.11948047 0.014359572
000050 f5 63 98 bd 17 0a 6a 3d ec 89 13 3b c2 fa 25 3c
       -0.0744094 0.05713853 0.0022512628 0.010130586
000060 01 78 ca bc 2b 11 83 bd 3b 0f dd bb 7a b5 20 be
       -0.024715425 -0.06399759 -0.0067462004 -0.15694228
000070 cf 3d f7 39 5d a6 60 be 03 40 4b bd 72 12 ec bc
       0.00047157562 -0.21938463 -0.049621593 -0.02881739
000080 24 2b c5 3d 3f 9e fc bc 78 51 ba bc 4d 29 b0 3d
       0.09627369 -0.030837176 -0.022743925 0.086016275
000090 4b 2f 26 bd b6 e7 94 bd 36 5c ec 3d d6 0d 8e bd
       -0.040572446 -0.07270758 0.11541025 -0.06936233
0000a0 c4 e3 80 bd e6 79 d8 bd 13 4d 10 3e 60 45 2e 3d
       -0.06293443 -0.10570125 0.14091901 0.04254663
0000b0 8c e5 84 3c 86 cc 8f 3c 08 8d ce bd e8 ad fa bd
       0.016222738 0.017553579 -0.10085493 -0.12240201
0000c0 0c 3f e1 bc 96 b8 1c 3b e4 a6 1e 3d 02 65 83 3d
       -0.027495883 0.0023913733 0.038733378 0.0641575
0000d0 fa f1 ac 3d 15 36 1b 3e 7f 25 70 bd 9b 2e 1f 3e
       0.08444591 0.1515735 -0.05862951 0.15545122
0000e0 06 6f 30 3c 71 ed 3d 3d 3b 54 2a be cf 5a 02 bd
       0.010768658 0.04636902 -0.16633694 -0.031824883
0000f0 cf 71 33 3d b0 a4 b4 3d af d9 69 bd 22 52 9e 3b
       0.04380971 0.08820474 -0.057092365 0.0048315683
000100 da 7d af 3d cd 08 2b 3e eb 0d c7 bd 3c 7a 97 3c
       0.08568926 0.16702576 -0.097194515 0.018490903
000110 29 1c 81 bc a3 4b 29 bd a7 7e ec 3d 7c 98 a0 bd
       -0.015760498 -0.0413319 0.115475945 -0.07841584
000120 6e 04 35 bd c2 3a 31 bc 4e 54 94 3d f9 b9 72 bd
       -0.044193678 -0.010817232 0.07242642 -0.05925939
000130 2b a5 23 3e 7e 24 78 bd 88 c3 65 bd 96 e9 67 3d
       0.15980975 -0.060581677 -0.056094676 0.05661925
000140 5b 55 e5 3c 04 54 ce bc 8f 5f 3b 3c 74 57 06 3d
       0.027994802 -0.025186546 0.011436357 0.032798246
000150 31 3f a0 3c 24 6e 58 bd 03 00 ca 3a ed 9a 7c bd
       0.019561382 -0.052839413 0.001541138 -0.061671186
000160 0d 09 54 be 02 a5 18 3c bd e2 64 b9 fc 03 2b 3d
       -0.20706578 0.009316685 -0.00021828241 0.041751847
000170 16 97 49 3d 62 84 09 3e 95 28 ff 3c db 37 d9 3c
       0.049216352 0.13429406 0.03114728 0.026515892
000180 44 fd d4 3d 78 2d 26 bd ef 42 92 3d 38 b6 9e bc
       0.10399869 -0.040570706 0.07141673 -0.019373998
000190 e1 00 49 be 16 bf 84 bd 49 ca fb 3d c1 c2 f9 3a
       -0.19629242 -0.06481759 0.12294442 0.0019055234
0001a0 ac aa 79 3d 87 0b b1 3d c3 b8 8e bc 0d a1 a0 3c
       0.06095378 0.08644777 -0.017422086 0.019608045
0001b0 1a 20 cf 3d b6 b0 a0 3c 9e 76 d8 3b 11 de b2 bc
       0.10113545 0.019615512 0.006605937 -0.021834405
0001c0 25 7f c4 bd f2 b6 1e 3d f6 e1 08 bc 0e a9 01 3d
       -0.095945634 0.03874869 -0.008354655 0.031655364
0001d0 88 eb 17 3d f0 a2 8b 3d ee fa 22 3e 97 4f a2 bd
       0.037089854 0.06818187 0.15916035 -0.07925337
0001e0 d7 d0 0d bd ae f5 35 3c d5 81 0b be 2a da 16 3e
       -0.034622993 0.011105938 -0.13623746 0.1473166
0001f0 67 34 2e 3c d6 64 65 bd 8d 47 b9 3b d6 33 ee 3c
       0.010632611 -0.056004368 0.0056542815 0.029077452
000200 e1 de dc 3d af f2 62 bd 8c d3 e4 bd f4 b4 c5 bd
       0.10784698 -0.055407222 -0.11173162 -0.09653655
000210 c7 43 e9 3d 55 32 0c be ca 1c b2 3d 85 29 2f 3e
       0.113898806 -0.13691075 0.08696897 0.17105682
000220 6e 8b 87 bd a4 ab 07 bb 2a 92 87 bd 28 b8 b3 bc
       -0.06618391 -0.002070167 -0.066196755 -0.021938398
000230 58 5a 15 bd c8 88 5e bd 14 44 30 3d 9c c0 4e bd
       -0.03646311 -0.054329664 0.043033674 -0.050476655
000240 0b bb d6 bd f2 3a f5 bb b7 4f 41 bd 6e d7 8d 3d
       -0.10484894 -0.0074838335 -0.047195163 0.069258556
000250 85 44 4d 3e 87 a2 b5 3d 41 dc 56 bd 4b a3 20 3e
       0.2004567 0.0886889 -0.052456144 0.15687291
000260 57 08 0a 3e 57 83 47 3e 2d 5d 25 be ea 7c 42 3d
       0.13479744 0.19483696 -0.16148825 0.04748241
000270 90 dc 09 3d 36 ac b5 3c d8 ae 7c 3c f7 c7 3e bd
       0.03365761 0.022176843 0.015422545 -0.04657742
000280 36 9b 0a 3d ea 7b 2d 3d 2d 63 a0 3d eb a8 bc 3c
       0.033839427 0.0423545 0.07831416 0.023029765
000290 96 ab 57 bd bf 08 66 3d 28 20 d3 3c 08 ad 4a bd
       -0.05265387 0.056160685 0.02577217 -0.04948142
0002a0 6f 16 6b bc 5a fb c4 3b 56 ce 0d 3e ec b3 09 bc
       -0.01434861 0.0060114088 0.13848242 -0.008404713
0002b0 7a 29 20 be 30 20 c8 3d 47 33 5e 3c 68 09 b2 bd
       -0.15640822 0.09771764 0.01356203 -0.086932
0002c0 c9 96 a2 bd b0 ab c0 3d ae 10 0f be c3 6f c0 3d
       -0.07938916 0.09407747 -0.13971207 0.09396317
0002d0 bb 27 68 bd b6 9a 79 bd ab 39 83 bd 64 77 1d 3c
       -0.056678515 -0.06093856 -0.06407484 0.0096109845
0002e0 16 ed 81 3c d1 71 91 bd 8b a6 9c 3b 9c 8d 6e bd
       0.015860122 -0.07101787 0.0047805957 -0.058240518
0002f0 d7 6e a5 bd 46 ba ca bd e5 a9 f2 3d d7 81 b0 bc
       -0.08077782 -0.0989881 0.11848811 -0.021546287
000300 62 48 c7 bc d3 61 89 3d ef 7d cb bd 61 8f 89 3d
       -0.024326507 0.067081116 -0.09936129 0.067168005
000310 a5 22 06 3d 3c d9 b1 bc a4 5e 8d 3d e0 d5 fa 3d
       0.032747883 -0.02171003 0.06902817 0.12247825
000320 80 4c 76 3c ed 1e a2 bd 29 00 e2 bd 5d fa 42 be
       0.015032887 -0.07916055 -0.11035187 -0.19040819
000330 da f4 fb 3c 2c 37 ae 3c 22 dc ae 3d 72 57 ed bd
       0.030756403 0.021266542 0.08538081 -0.115889445
000340 32 fa 88 3d fc 1e 41 3d 77 db d7 bc c1 81 65 bb
       0.06688346 0.04714869 -0.026349766 -0.0035019966
000350 38 fb 8d 3d 31 b9 a7 3c 38 67 00 3c 39 eb 05 3e
       0.06932682 0.020474048 0.007837109 0.13078012
000360 aa 6a f6 bc a3 1e 56 3d 92 17 1a bd ea ca 6b 3e
       -0.030080158 0.05227531 -0.037620135 0.23026624
000370 ce 5d da bd 11 ca a1 bd e8 8d c3 bc 86 42 17 bd
       -0.10662423 -0.07899869 -0.023871377 -0.036928676
000380 81 8a 8c bd de f7 fe 3d e4 9a d1 3d 33 9b ba bd
       -0.06862355 0.12449621 0.10234621 -0.09111633
000390 ac 63 82 bd 0c 47 26 3e 46 82 43 bd b0 80 43 bd
       -0.06366667 0.1623804 -0.04773166 -0.047730148
0003a0 56 52 02 3c 00 42 32 3e 9f bd 1e 3c 0e 6f 10 be
       0.007954201 0.1740799 0.009688764 -0.14104864
0003b0 b7 6e ae 3d 33 0b 27 3d f5 16 81 3d 5d c9 e9 3b
       0.08517211 0.040782165 0.06303207 0.0071346
0003c0 2a ad c6 bc 40 21 44 bd aa 8d 04 3e 17 40 a2 bb
       -0.024252493 -0.047883272 0.12944666 -0.0049514878
0003d0 8d 0d bc bd a5 b2 1c be 9d 70 f3 bc ca c8 af 3d
       -0.09182272 -0.15302522 -0.029716784 0.08583219
0003e0 89 ad d3 3c d6 6a 28 3d ec cb 1a be 58 5b db bd
       0.025839584 0.04111751 -0.15116853 -0.10710782
0003f0 73 fb 80 3d 7d a7 c6 bc aa 64 5d be 01 71 c7 bd
       0.0629796 -0.024249787 -0.21620432 -0.09738351

manager.M_goals.bias f4 [64]
000000 e0 e4 c5 38 07 23 26 bb 04 ff 51 3b d7 35 09 3b
       9.436323e-05 -0.0025350468 0.003204287 0.0020936632
000010 28 3b 81 bb dd 8a 81 bb 95 c3 2d 3b ee 35 17 bb
       -0.0039438196 -0.0039533214 0.002651428 -0.0023072916
000020 07 49 82 bb 8e 32 34 3b 4e 91 31 3a 36 75 26 3b
       -0.0039759907 0.0027495953 0.0006773666 0.0025399453
000030 09 53 19 3b a6 db 4a bb e6 56 b0 3a d1 3f 2a bb
       0.002339544 -0.0030953675 0.0013453632 -0.002597798
000040 9b aa cb bb 43 ab 3d 3b 9b c4 28 3b 1a 6c e8 b8
       -0.006215406 0.0028941191 0.0025751952 -0.000110827576
000050 dc a9 23 bb 0d 35 f2 39 66 33 00 3b e8 f1 4a 3b
       -0.002497307 0.00046197363 0.0019561886 0.0030966941
000060 fb 10 09 bb 3f a5 70 bb 1a 29 52 bb c4 0c 12 3b
       -0.0020914662 -0.0036719588 -0.0032067955 0.002228544
000070 3c 13 03 3b fa d6 55 3b c6 a4 37 bb 01 f8 19 bb
       0.0020000478 0.0032629357 -0.0028021797 -0.002349377
000080 83 96 cc bb 60 8d e1 ba 18 79 3b bb 67 a1 72 3b
       -0.0062435283 -0.0017208271 -0.0028606113 0.0037022473
000090 88 59 ad bb 1a 80 26 bb d5 28 67 bb 62 b7 15 3b
       -0.005290214 -0.0025405944 -0.003527214 0.00228449
0000a0 5c 0f be 3a 91 e4 89 ba b5 40 d6 b9 02 fa 4f b9
       0.0014500427 -0.0010520389 -0.0004086547 -0.00019834194
0000b0 d6 27 7b 3b 96 ab 4b bb 08 56 c3 ba e9 7c 91 b8
       0.0038323305 -0.0031077615 -0.0014902959 -6.937405e-05
0000c0 05 6c 98 3b 9b 2b f0 ba 5f 4c 63 3b df 39 7a 3b
       0.004651549 -0.0018323542 0.0034682972 0.0038181467
0000d0 33 80 65 bb 8c 8e 17 3b d9 9f 6a 3b 22 f6 32 3b
       -0.003501904 0.0023125736 0.0035800843 0.002730735
0000e0 0b 10 aa 3b 61 75 a7 bb 9e 9a 14 bb ac 53 22 3b
       0.0051899008 -0.005110428 -0.0022675167 0.002476911
0000f0 f0 f4 10 3a 75 1f e9 3a 67 32 51 39 bd 69 09 3b
       0.00055296626 0.0017785864 0.0001995057 0.0020967566

manager.M_value.0.weight f4 [32, 64]
000000 d0 88 17 3e cf 04 27 3e 66 64 1a be d4 82 1e 3e
       0.14798284 0.16310428 -0.15077361 0.15479594
000010 01 e3 2a 3e a3 74 00 bd 39 b0 06 bd b2 47 01 3d
       0.16688158 -0.031361233 -0.032882903 0.031562515
000020 d7 96 0a be dd a7 9f bd 32 3e 9b be 41 18 0b 3e
       -0.13534103 -0.07795689 -0.3032089 0.13583471
000030 28 50 18 3c 6c 24 53 ba 6d 0a a5 3d a7 bd 3f bd
       0.0092964545 -0.00080544385 0.08058629 -0.046811726
000040 89 8e b2 3d 63 ae 07 bd 17 bc e1 bc f7 a9 87 bc
       0.08718593 -0.033125293 -0.027555509 -0.016560538
000050 8a 9d fb 3b 72 a6 15 bd 1b 20 ff bd 8f b3 57 3e
       0.007678692 -0.036535688 -0.124572955 0.2106459
000060 04 d3 d2 bc be 99 90 3e 07 56 b3 3d 05 a7 73 be
       -0.025735386 0.28242296 0.08756643 -0.23794182
000070 0e e3 27 3d 76 61 40 3c f3 5a 24 be 96 c1 29 3e
       0.04098802 0.0117419865 -0.1605032 0.16577753
000080 0a aa 0d 3e 6a 1d 09 3e 7f 78 4a bd 11 a3 bb bd
       0.13834396 0.13390127 -0.04943132 -0.09161962
000090 f7 4c d2 3d ff b8 65 bd dc 6d aa bc 13 5d b5 3d
       0.10268586 -0.05608463 -0.020804338 0.08855643
0000a0 55 d3 10 3e 51 2a aa 3d ad b2 e4 bd 20 57 1c bb
       0.14143117 0.083088525 -0.11166892 -0.0023855641
0000b0 f8 bb 26 be 2a 04 49 be 27 d0 49 3d 9c 23 3b 3e
       -0.16282642 -0.19630495 0.049270775 0.18275303
0000c0 53 a7 bb 3d b2 dc 70 bd 05 ba e2 3d d7 78 8a 3d
       0.09162774 -0.05880422 0.11070637 0.067613296
0000d0 b7 5d 64 3e c4 77 a6 3c 87 ef 15 be 4a 5b bc bb
       0.22301374 0.02032078 -0.14642154 -0.005748187
0000e0 4f ac 4d be e3 50 8b 3d 3c 0e bc bc 1d 59 79 3d
       -0.20085262 0.06802537 -0.022956006 0.060876
0000f0 0f 96 00 be 6b 15 45 be 89 c8 f8 3d 39 07 28 3e
       -0.12557243 -0.19246452 0.12147624 0.16409005
000100 8a 39 2a be cf 57 52 3e 19 97 0b bd 4d a0 33 bd
       -0.16623512 0.20541309 -0.034079645 -0.043854047
000110 51 cf d3 3c a3 4d 44 3d a7 77 1a be a6 1a 27 3d
       0.025855692 0.047925603 -0.15084706 0.0407969
000120 2d 14 2d bd 3c ac aa be fd 94 de 3d d3 24 54 3d
       -0.04225557 -0.3333453 0.10868261 0.05179293
000130 2b 71 a9 be 32 e0 c4 3c 70 80 40 bb d1 ab ca bd
       -0.33094153 0.024032686 -0.002937343 -0.09896053
000140 d2 c6 65 3d 7c 0e 80 3c 2f e4 2d 3e 9e f4 4b be
       0.056097813 0.015631907 0.16981576 -0.19917533
000150 b2 bf 16 bc 8b a7 90 3d 2d 6d cb 3d c0 90 32 3d
       -0.009200977 0.07063206 0.09932933 0.043595076
000160 0c 97 ea bb 98 98 93 bd a5 73 e1 3d 62 a9 32 be
       -0.0071591195 -0.07206839 0.110083856 -0.17447427
000170 4d db 1a be ff cf 74 bd 38 df 22 bd 78 e6 af 39
       -0.15122719 -0.059768673 -0.03976366 0.00033550314
000180 7f 05 1a 3e 3b ad 4f 3b 6d ae ce 3d d8 49 29 3e
       0.15041159 0.0031688947 0.10091863 0.16532075
000190 03 a6 09 3e f4 bd 45 3e 14 1f f2 3c f8 13 89 bd
       0.13442235 0.19310743 0.029555835 -0.06693262
0001a0 ab 94 89 3c df 28 45 3c 39 a4 91 3e 6f 49 d5 3d
       0.016794523 0.01203367 0.28445604 0.10414397
0001b0 ca 72 75 bd 5e 80 b1 3d 18 55 82 3e a3 52 d7 bd
       -0.059923925 0.08667062 0.25455546 -0.105138086
0001c0 d6 54 35 be a4 b5 14 3d 9b 1b da 3c 80 8b 14 be
       -0.17708144 0.03630604 0.026624491 -0.1450634
0001d0 c7 7a a7 bd 4c ab 75 3d fd f8 00 3e b1 fb 11 be
       -0.08177715 0.059977815 0.12594981 -0.14256169
0001e0 0f 61 51 3d b6 7b 70 3d 3a ce da 3d d2 f6 00 3e
       0.051117953 0.05871173 0.10683866 0.12594154
0001f0 5f 0f 3f be 08 76 c8 bd fe db 58 3d cc 98 95 ba
       -0.18658207 -0.09788138 0.052944176 -0.0011413335
000200 0e b2 11 be 58 5c b5 bd 3e 57 14 3d 9c 2c 50 3e
       -0.14228079 -0.08855504 0.036216013 0.20329517
000210 a9 9e 8a 3c 36 60 12 bd 7e 15 2b 3c fe b7 20 3d
       0.016921358 -0.035736285 0.010442136 0.03923797
000220 8d 20 f1 3d a5 9f 74 3e 95 7a 3c bd e1 ee 10 3e
       0.11773787 0.23889025 -0.04601534 0.14153625
000230 fd fa 20 bd f8 f0 36 3d bf 7a 52 bb 49 21 cd be
       -0.03930186 0.0446634 -0.003211662 -0.40064457
000240 e4 08 9e bc ef cc 27 3e 8f ae 34 bd 86 ea 83 3d
       -0.019291349 0.1638677 -0.044111785 0.06441216
000250 cc ee 84 be d4 7f 25 3e 34 bc 1a 3e 7d 5e 11 3e
       -0.25963438 0.16162044 0.15110856 0.141962
000260 0c bd 06 3e db fd 8a bd 05 19 a7 bd 47 18 0d bb
       0.13158053 -0.067867 -0.08159069 -0.0021529363
000270 99 13 31 3e 4c 18 56 3e 97 af 22 3d 2e 6b 95 bc
       0.17292632 0.20907706 0.039718237 -0.018239584
000280 d1 ca 17 3e a0 b0 d5 3d 93 41 f6 bd e1 48 bb bd
       0.14823462 0.10434079 -0.12024226 -0.0914476
000290 0b 41 30 3d d0 14 e4 ba 9b 29 c9 bb 94 0e 27 3e
       0.04303078 -0.0017401222 -0.006138993 0.16314155
0002a0 bf f1 fe 3d f3 71 27 3e 52 5b 75 3d 69 d3 c4 3d
       0.12448453 0.16352062 0.059901543 0.09610636
0002b0 fc 62 24 3e 15 e9 95 3d 49 cd 25 bd e8 cc 26 be
       0.16053385 0.073198475 -0.04047898 -0.16289103
0002c0 89 4d 0f 3e 88 4d d8 3d 02 c6 1c be 5e d9 6d 3b
       0.13994421 0.10561663 -0.15309909 0.003629289
0002d0 cc cf db bd a5 a9 94 bc d4 b7 a9 3d 13 ce 99 bc
       -0.107329935 -0.018147299 0.082870156 -0.018775022
0002e0 04 4c bf bb 8e 0a de bc ea 4a 3a 3e 53 0f 91 bb
       -0.005837919 -0.027104642 0.1819264 -0.0044268756
0002f0 07 84 0b be 74 3b f0 3c 6e 40 6a ba 94 fb 87 3e
       -0.13624583 0.029325224 -0.00089359924 0.26559126
000300 19 c6 3c 3e fc c3 9c bd f2 e3 95 3e e5 ab 43 3d
       0.18434943 -0.076545686 0.2927547 0.047771353
000310 6d 88 48 be 84 c6 0f bd 5d b8 1e be 5f 37 c4 3c
       -0.19583292 -0.03510143 -0.15500017 0.023952184
000320 94 43 0f bb bd 30 93 bd e7 ae 2d 3e af 80 a6 3d
       -0.0021860348 -0.071870305 0.16961251 0.08130013
000330 31 4c b6 3c 1f d4 82 bc 59 a3 85 3d 0f 6c 4a 3e
       0.022253128 -0.015970288 0.06525297 0.19767784
000340 4c 6d 72 3c 8c 6c 76 3c 60 80 27 be 10 cb a7 3d
       0.014796566 0.015040528 -0.16357565 0.08193028
000350 da 25 68 bd 2d d7 12 3b d4 1e 07 be 35 79 e8 bd
       -0.056676723 0.0022406087 -0.13195354 -0.113512434
000360 db b9 a7 bc 40 e2 83 3e 77 4a 8c bd 14 b9 57 bd
       -0.020474365 0.25758553 -0.068501405 -0.05266674
000370 4a 10 4b be f1 cb 3d 3e 0e 8a b4 bc c0 3b 6c 3d
       -0.19830433 0.18534829 -0.022038486 0.05767417
000380 0c 88 05 bd 58 9d d2 3d 31 ee 02 be 95 1b 41 bd
       -0.032600448 0.10283917 -0.12786175 -0.047145445
000390 f0 2c 8e 3d 6c d0 57 3d a6 68 74 bc 96 fb 6a bd
       0.06942165 0.052689 -0.014917528 -0.057368837
0003a0 1f f4 61 3c 3f a3 a9 bd 10 a5 fe 3d e8 da c3 bd
       0.013791113 -0.0828309 0.12433827 -0.095632374
0003b0 e1 c2 76 3d fd e1 76 3e 23 8c 22 3e de b9 0e 3c
       0.060244445 0.24109645 0.1587377 0.008711306
0003c0 0c 7b 91 3e dc 5a 1b 3e 7a 2b ee bd 39 00 d2 3c
       0.2841419 0.15171379 -0.11629386 0.025634872
0003d0 12 b9 92 bd fe 84 48 3e 1b c4 63 be 75 21 ec 3c
       -0.071642056 0.19581982 -0.22242777 0.028824547
0003e0 43 66 89 bd c5 71 79 3c 2a 56 89 3e 13 5b 48 3e
       -0.06708958 0.015224879 0.2682355 0.19565992
0003f0 bc 6d cf bc 23 77 9d 3c 0f 80 ac 3d 0c d7 8f bd
       -0.02532088 0.019221848 0.08422863 -0.07023439

manager.M_value.0.bias f4 [32]
000000 07 5e 3b bb 88 61 c9 bb 1b a9 38 3b 50 a4 18 bb
       -0.002858998 -0.00614566 0.0028176967 -0.0023291297
000010 c1 5f 5e bb c9 bb 5b bb e5 77 3b 3b 1d eb dc 39
       -0.0033931585 -0.0033528677 0.0028605398 0.00042136843
000020 6b 2c 6c 3b 57 72 81 bb 70 12 46 bb 9b c3 5f bb
       0.0036037217 -0.003950398 -0.0030223392 -0.003414369
000030 83 b0 4a 3a 78 65 32 ba 40 96 3c bb 5b ce 2d 3b
       0.0007731991 -0.0006805281 -0.002877608 0.0026520703
000040 7f 4d 18 3b 7d 39 5f bb 4b c6 38 3b b4 b8 75 3b
       0.002323955 -0.0034061365 0.0028194364 0.0037494125
000050 26 85 3a 3b 37 ad 59 bb 9e d4 63 bb 53 ee 7f bb
       0.002846071 -0.0033214816 -0.003476418 -0.0039051964
000060 a2 c7 1c 3b 96 d4 40 3b 61 60 38 3b 34 4c 08 bb
       0.0023922701 0.0029423586 0.0028133618 -0.0020797374
000070 d1 23 9b ba 85 de 5d bb df ed 40 3b ca ec c3 3a
       -0.0011836236 -0.0033854556 0.0029438657 0.0014947888

manager.M_value.2.weight f4 [1, 32]
000000 8b 00 ea 3d c1 9e 44 3e 95 87 ad be 0d ba 07 3e
       0.11425885 0.19201185 -0.33892503 0.13254566
000010 8a cd 67 3e 6b eb d2 3d 03 b0 61 bd c2 05 33 bc
       0.22637 0.10298809 -0.0550995 -0.010926666
000020 aa ff 63 be 73 d2 2a 3e 54 e7 0b 3e de d5 e6 3d
       -0.22265497 0.16681843 0.13662463 0.11271261
000030 1a 1f 53 bd e1 46 90 3d 3e 1d f0 3d 17 00 94 bd
       -0.051543333 0.07044769 0.117243275 -0.0722658
000040 71 3a a6 bd 2a 9c ab 3d 03 85 18 bd 9b 2c 5e bd
       -0.081166156 0.08379395 -0.037236225 -0.054241758
000050 76 49 0a be f6 bc 20 3e 38 fc 9f 3e f3 ab a7 3e
       -0.13504586 0.15697083 0.31247115 0.32748374
000060 1b dd c6 bc 55 74 75 be 02 94 57 be d8 22 76 3d
       -0.024275353 -0.23970158 -0.21052554 0.060091823
000070 fb 98 4a be a4 c0 d8 3e c6 83 78 bd a7 01 8f bd
       -0.1978492 0.42334473 -0.060672544 -0.06982737

worker.f_stateW.0.weight f4 [128, 64]
000000 7d 36 7f 3d 18 a0 4e 3d 4a 64 55 bd 4a e1 1d bd
       0.062307823 0.050445646 -0.052097596 -0.03854493
000010 4a a5 b0 bd ad cb 5d 3d e8 09 2b bc 51 87 4f be
       -0.086252764 0.05414932 -0.010439374 -0.20266463
000020 48 04 c5 3d 93 91 a9 bd 25 23 a2 ba 4d 65 a0 bb
       0.09619957 -0.08279719 -0.0012370093 -0.0048948885
000030 52 c9 3f bc 3d 7c dd 3c ad 04 07 3e 79 09 db bc
       -0.011705713 0.02703678 0.13185377 -0.026737915
000040 e4 5b be 3d 93 02 9b bb 06 a8 6c 3e 70 63 b8 bd
       0.092948705 -0.0047305315 0.23110971 -0.09003341
000050 2d 6e e5 bd d9 a3 f5 bd 7b 22 08 bd 81 f5 b0 3c
       -0.11202655 -0.11994142 -0.03323601 0.02160144
000060 92 91 5c 3e 9b 69 c1 bd 1d eb 1c 3e 2d 5b f5 bd
       0.21539906 -0.09443971 0.15324064 -0.11980281
000070 73 e6 e9 bc 46 65 ff bc 23 6f 9a 3d 00 db 40 3d
       -0.02855227 -0.03117622 0.07540729 0.047083855
000080 be db c9 3d 93 70 4f 3d 1c af aa 3b 16 e9 9c 3c
       0.098563656 0.05064447 0.005208863 0.019154113
000090 4d db dc bc d6 90 b8 bc d6 16 8a 3d 15 a9 90 bd
       -0.02696004 -0.02253 0.06742637 -0.070635
0000a0 c3 2e 19 be 50 1f 7e 3d 50 65 a6 3d ce a5 41 3b
       -0.14959244 0.06204158 0.081247926 0.002954829
0000b0 ea c9 41 bd 03 3e 13 3d 57 a2 dc ba dd db 68 3d
       -0.0473117 0.03594781 -0.0016833049 0.056850303
0000c0 07 23 5b bd f4 90 fc bd f3 a6 78 3d e4 c2 82 3d
       -0.0535002 -0.12332335 0.06070609 0.06384829
0000d0 41 ce fb 3d de 02 80 bd 60 99 65 3d 92 8a 1c be
       0.12295199 -0.06250547 0.056054473 -0.15287235
0000e0 e6 59 4e bc 0b ea ed 3c 23 7b 16 be b0 23 2f 3c
       -0.012594676 0.029042264 -0.1469541 0.010689661
0000f0 b0 0d 94 3c 09 9c fb 3d 86 62 12 3d ad e9 b8 bc
       0.018072933 0.12285621 0.03573849 -0.022572363
000100 7a fb 2e 3d 08 08 08 3d 1b ee 0d be b1 4d 4e bd
       0.042720295 0.033210784 -0.13860361 -0.05036706
000110 90 5d c1 bd da 7b 90 3c 21 ce c3 3d 7c 23 17 3d
       -0.09441674 0.017637182 0.095608 0.036899075
000120 fa e6 e0 3d 32 aa 70 3d b9 25 f7 3c d9 26 ea bd
       0.10981555 0.05875606 0.030169355 -0.11433191
000130 10 05 d1 bb b3 48 d0 bd a1 45 92 3c ac 10 48 3b
       -0.0063787773 -0.10170116 0.017855467 0.0030527515
000140 69 e6 a1 3d e0 50 49 3d dd 6f 45 bd dd 0c 2d 3d
       0.079052754 0.049149394 -0.048202384 0.042248596
000150 af b2 89 3d 3b 78 83 bb c7 fe 88 3d de 2b db bc
       0.06723534 -0.0040121353 0.0668922 -0.026754316
000160 72 63 89 be 94 9f ca bd a2 a1 ad 3d 2f 65 c7 bd
       -0.26833683 -0.09893718 0.08478095 -0.09736096
000170 01 69 ab 3c 99 5b 21 3e 18 4a ea 3c 87 fe 95 bd
       0.020924093 0.15757598 0.028599784 -0.07323938
000180 c6 c3 bd bd 79 28 bc bd a0 2f 01 bc b4 fd 33 ba
       -0.092658564 -0.09187407 -0.00788489 -0.0006866113
000190 9b 58 1d bd bd 60 b2 bd c0 6b c8 3c d7 be a8 bd
       -0.03841458 -0.087098576 0.024465442 -0.08239525
0001a0 bf 0e 2c 3d 77 50 ea bd 8d b9 13 bd 83 66 a7 3d
       0.04200625 -0.11441129 -0.036065627 0.081738494
0001b0 1d 0a 09 3c fb 6f a5 3d ca 6f 35 be 5b c2 d6 bd
       0.008364228 0.08077999 -0.17718425 -0.10486289
0001c0 58 c8 37 3e 23 49 ae 3b d8 fc c7 3d bd 1e 0e be
       0.17947519 0.005318777 0.09765023 -0.13878913
0001d0 de 8e 14 3e 81 76 06 3c 66 dd c1 bd 7f 83 17 3e
       0.14507625 0.0082069645 -0.094660565 0.14796256
0001e0 b7 7d 05 3d db f9 e6 3d 81 04 da 3d 90 c5 02 3e
       0.032590594 0.11278125 0.1064539 0.12770677
0001f0 1a 52 0d 3c f1 d5 c7 3d 66 97 93 3d 4f f7 95 bd
       0.008625532 0.09757603 0.07206611 -0.07322561
000200 1a 26 41 bc 9d ce 9f bc 3b aa 0b be 20 eb 28 3e
       -0.011788869 -0.0195077 -0.13639157 0.16495943
000210 91 96 ca bd 33 32 ff bc 88 f6 df bd eb c1 b3 3c
       -0.098919995 -0.031151867 -0.10935694 0.021943053
000220 55 01 df 3d 9d c0 9e bc 67 a9 87 3d 93 be e3 bd
       0.10888926 -0.019378955 0.06624108 -0.111203335
000230 ab ce 90 bd a9 21 1c 3d 09 a9 a4 bc e3 b1 40 bd
       -0.07070669 0.03811804 -0.020100133 -0.047044646
000240 98 5d 51 be e0 11 6d bd c4 83 1c bd 02 6e db bd
       -0.2044586 -0.057878375 -0.0382116 -0.10714342
000250 65 37 9c 3d 40 f7 55 3d 2d 36 79 3b 92 61 24 3e
       0.07627753 0.05223775 0.0038026676 0.16052845
000260 b6 48 ed 3d 42 e7 86 3d d0 8f 25 3d ba 2b 8a 3c
       0.11586134 0.06587078 0.040420353 0.016866554
000270 03 7b 58 3d ce 28 81 bc 6c 3c de 3a d8 47 b7 3d
       0.052851688 -0.015766528 0.0016955263 0.0894925
000280 ce 8f de bd 33 cd 9a bd 2b f2 54 be 4e 19 ce bc
       -0.10867272 -0.0755867 -0.20795505 -0.02515855
000290 54 c2 46 bd e0 b2 ad 3c 44 df c7 39 49 ca 0a 3d
       -0.04852517 0.021203458 0.00038122584 0.03388432
0002a0 73 cb 88 bd df da 37 3d 7f 11 89 bc db a4 c7 3d
       -0.0667943 0.044886466 -0.016731976 0.097482406
0002b0 fe 90 d9 bd ef 3e 29 3d 1e 61 b9 3d 83 df ac bd
       -0.10623358 0.041319784 0.09051727 -0.08441069
0002c0 93 2b 4c 3d 7a 14 ae 3d dd 52 fe 3d fd d9 92 3c
       0.049846243 0.08499999 0.12418149 0.01792621
0002d0 b5 46 96 3d 59 3e 11 bd 13 c3 2e be 59 f0 02 be
       0.07337705 -0.03545985 -0.17066602 -0.12786998
0002e0 c2 7c 22 3d 22 a3 e2 bc 4c ba 45 3d db 9b ad 3c
       0.03966976 -0.027665678 0.04827337 0.021192482
0002f0 28 c4 78 bd da d6 b4 bd 56 e4 3a 3d 84 29 25 3e
       -0.060733944 -0.08830042 0.045627914 0.16129118
000300 ff db 0c be 23 3d 82 bc ea c9 ed 3d 80 03 a3 3d
       -0.13755797 -0.015898293 0.11610778 0.07959652
000310 30 11 85 bd a8 83 ed bd 65 51 b3 bd 8e e1 51 3a
       -0.06497419 -0.11597377 -0.08755759 0.00080063276
000320 ab bf 12 3c b1 a3 38 bd e1 09 7b 3d 21 53 16 be
       0.00895683 -0.045077983 0.061288718 -0.14680149
000330 ec 70 10 be 24 dc 82 bd 6a 14 b5 bd cd 5e 4d 3e
       -0.14105576 -0.06389645 -0.08841784 0.20055695
000340 23 25 f7 bc bf 62 0d 3d 9f 44 07 be 50 00 6f 3c
       -0.030169075 0.034518 -0.1320977 0.014587477
000350 8f f6 2e be 5e 29 eb bc d9 73 3b be 82 18 53 bd
       -0.17086242 -0.028706249 -0.18305911 -0.051537044
000360 27 77 c4 bd c9 1c 75 bd d6 db 56 3d 66 5f 2c be
       -0.09593039 -0.059841905 0.052455746 -0.16833267
000370 d4 a1 89 bd 9c f1 71 3d 92 0d 23 3d 3c a1 48 bd
       -0.067203194 0.059068307 0.039807864 -0.04898189
000380 49 20 47 3d 23 e1 f0 3c 5b d1 ad 3d 2e 4f 06 3e
       0.048614774 0.029404229 0.08487197 0.13116142
000390 71 7c 22 3c 0f 3e d4 3d e7 72 ee 3c 74 b8 ad 3d
       0.009917364 0.10363399 0.029107524 0.08482447
0003a0 d1 3f 54 3c 39 11 dc 3b ba 26 f8 3d d2 10 12 be
       0.012954668 0.0067159203 0.121167615 -0.14264229
0003b0 3d bf 18 be 54 7a b7 3d 73 9b 65 3d f4 70 c1 3b
       -0.14916702 0.08958879 0.05605645 0.0059033576
0003c0 25 fd 3c be 5e 3d 25 3d dc 18 f5 3c e5 6b e0 bc
       -0.18455942 0.040341727 0.02991908 -0.027395198
0003d0 ff fb e3 bd 72 fb 21 bd cc 1c 8b bb f3 29 d8 bd
       -0.11132049 -0.039546438 -0.004245376 -0.10554876
0003e0 e6 42 ac bd 83 50 71 3d 17 ff 36 bd 96 c7 e6 bc
       -0.08411197 0.058914673 -0.044676866 -0.028171342
0003f0 01 06 cb 3c df e4 26 be af b6 b4 3c d5 b9 26 be
       0.024783136 -0.16298245 0.022059767 -0.16281827
