vwgym/saved_model/.old/vwgym_f_net_step_50000.pt (torch_old, 160564 bytes, 30 tensors)

f_percept.percept.0.weight f4 [16, 3, 3, 3]
00000000: d9bb 29bd 0bcb 583e 0ad8 693d eba9 68bd
00000010: f059 a13e b2e2 353e 01ca 853e 0a53 85be
00000020: 1015 3a3d b5a9 ae3c 5e23 68be c9ab 60be
00000030: 36ef 6fbe eacb 263e 7227 6d3e 642d 3f3e
00000040: 0d8c b2be 42dc a8be 06d7 523e 9e41 d6bc
00000050: 21c4 d53d e9c6 4bbe 0939 49be 01e2 13be
00000060: da64 0e3e 083d 513d 39bc 5b3d 1597 aabe
00000070: c047 1d3e d497 85be 8d46 7abe 1fee 4bbe
00000080: cbea 60be 7e20 10be fea7 c53d f5bd 7d3e
00000090: 4e49 80bd 4ed3 8cbc c6a9 b0bd 7532 00be
000000a0: 4efc 16be 0315 b23d 7309 973e 320c b13d
000000b0: 8824 96be 0012 88bd ce0d d13e 7b7d ac3d
000000c0: 5309 d23d 7033 9c3e bf93 50bd 18d3 443e
000000d0: 81d5 a43c 61fa 72bc 94ee 28bd 5f95 edbe
000000e0: fb17 cd3c 4a2a b3be a85d 843d e6b0 a73e
000000f0: 153c 11be 9c88 093d 7799 1f3d 5473 a4bd
00000100: e51a e43d df7a 293e 2692 86be baa3 d8bd
00000110: b527 76bd 8207 d6be e46e 3fbd ac88 a5be
00000120: 46a9 a43d 62f4 c3bd c4df 153e 6b0d b2bd
00000130: c1fe 4d3e f241 d33c 5d0c 863d 9650 943d
00000140: 2af4 0b3e be5f 2dbd 8cef 5cbd 84a7 9bbd
00000150: 198d 243e a09b dbbd 8734 96bd 77a3 b9bd
00000160: 43cf 80be e8d6 883e 0bbb d4be 571a 4f3e
00000170: 0cd7 f83b 47c7 1b3e 8fc9 59bc 1f2a b7be
00000180: 1526 54bd d5e8 37be cb29 f03c 015f 1b3d
00000190: b653 8dbd 59dd c0bd ce20 55bd 1cc3 84be
000001a0: 6340 63bd 7385 093f 99a2 203e 123a 44bd
000001b0: d017 d3bb 66d0 bbbe 2267 f9bd f163 b33e
000001c0: bbb3 053d bb25 a6be 8b79 3a3e 167d 503e
000001d0: f68e 843c 7b81 0a3c e68d 293e 0b8d 5ebe
000001e0: 0f3e 3ebd 9da7 e13d 6232 433d cce8 863d
000001f0: 71d4 cabb 166e a0be 6da8 05bd e56c 77be
00000200: 4b08 febd 6726 afbe b3de 663e 2740 f0bc
00000210: def4 b5bc 4e9b 19be 0936 96be 1644 55be
00000220: 0807 a73d a71a d2bd 289f debd a412 c0bc
00000230: f989 c7be d6ec e83d ca7b 1b3e 3246 a7bd
00000240: e304 4cbc 001e 103e b19e 4e3d 1e1c 233d
00000250: b60b 05bd d080 8a3e 76c5 22be 5ca5 82be
00000260: 1f96 b23e 9803 a93e 7f95 52be 997f 8c3e
00000270: da77 f7bd bd21 c13d 4efc 523e c2fd 2d3e
00000280: 41c1 8dbd 5957 9e3e 47ff 27be 6613 85bc
00000290: 86ed 55be 0d04 493e 3576 a23e d77d 9dbd
000002a0: bb19 1f3e ee70 35be 64e4 5f3d a15c efbd
000002b0: f912 e4bd 9ddb ce3e 5376 94bd 986b a6bd
000002c0: e32a 253c 46b6 a63d bd04 b53d 2f76 6bbe
000002d0: 1efa 0bbe b813 17be 4741 ca3b 8620 a43e
000002e0: 027a bdbd d15f 073f 776a 04bd d059 1cbe
000002f0: ed6d 193d 22ee 7abd 2dfd e8bc 37dd cebd
00000300: eb2c 4c3d ccd6 88be 0509 be3e fafc 463d
00000310: 0f73 a2be 4f0b 503e 21e4 9bbd bd49 dbbd
00000320: 9423 82be 4998 9f3e a60a 70bd 00bf 863e
00000330: bea4 35bc d484 973e 4e91 893d 27d4 19be
00000340: 9285 32be d703 523e 9c95 75be 614c ed3d
00000350: 0d7c 153e b5ec 4a3d f114 94be 35a0 db3d
00000360: 8444 113e d62a b33b f6ff 513e 9abc 9e3b
00000370: cc48 7bbe b8f2 6cbe 9257 95bb 7047 8fbe
00000380: ba6b 6a3e 7ea6 c239 b7bd 95bd 37c5 6dbe
00000390: b61e 23be de94 99bb 54d2 9dbd 3aa8 17be
000003a0: 6504 d9be 2288 513c 4430 8cbe 84c9 c9bd
000003b0: 421b 913e a9cd 703e 1187 343e 39f3 333e
000003c0: 654d 92be 06cd fc3d 7aea 16be f316 283e
000003d0: abec e5bc 4d76 80be 85c5 10be 60cf 8f3d
000003e0: 6599 cabe 73f8 70be 76d7 debe 70d4 4f3d
000003f0: b05d 0b3e 3b10 f3bd 8b14 1e3e cbfb 213d
-0.04143891 0.21171205 0.057090797 -0.05680267 0.3151393 0.17762259 0.2613068 -0.26039916
0.045430243 0.021321157 -0.22669742 -0.21940531 -0.23431095 0.16288725 0.23159578 0.18669659
-0.34872475 -0.32980543 0.20589837 -0.026154336 0.10437799 -0.19900097 -0.19650663 -0.14441682
0.1390566 0.051083595 0.0536463 -0.3331839 0.15359402 -0.26092398 -0.24440975 -0.19915055
-0.21964566 -0.14074895 0.096511826 0.24779494 -0.06263982 -0.017190602 -0.08626132 -0.12519248
-0.14744684 0.08695414 0.29499397 0.08644904 -0.29324746 -0.06644058 0.40830845 0.08422371
0.10255685 0.30507994 -0.05092215 0.19221151 0.020121338 -0.014830203 -0.04124315 -0.46403024
0.025035849 -0.34993201 0.06463176 0.3275215 -0.14183076 0.033577546 0.038964715 -0.080298096
0.11137942 0.16550778 -0.26283377 -0.10578103 -0.06009646 -0.41802603 -0.046736613 -0.32330835
0.08040099 -0.09568097 0.14636141 -0.086939655 0.20116712 0.025788281 0.06545327 0.07241933
0.1366736 -0.042327635 -0.053939387 -0.076003104 0.1606945 -0.107230425 -0.073342375 -0.090643816
-0.25158128 0.2672646 -0.41548952 0.20224892 0.007593995 0.15212737 -0.013292684 -0.35774323
-0.05179413 -0.17959912 0.029316803 0.0379324 -0.06900732 -0.09417219 -0.052033238 -0.25930107
-0.055481326 0.5371925 0.15687026 -0.047906943 -0.0064420477 -0.36682433 -0.12177874 0.35037187
0.032642107 -0.3245066 0.18210427 0.20360216 0.01618145 0.008453722 0.16558036 -0.21733491
-0.046445902 0.11018298 0.04765547 0.06587371 -0.006189876 -0.3133399 -0.032631326 -0.24162634
-0.124039255 -0.34208986 0.2254589 -0.029327465 -0.022211488 -0.1500065 -0.293381 -0.20826754
0.08155638 -0.1025899 -0.108702004 -0.023446389 -0.38972452 0.11373298 0.1518394 -0.081676856
-0.012452337 0.14073944 0.05044431 0.039821737 -0.03248187 0.270514 -0.15895638 -0.25516784
0.34880158 0.33010554 -0.2056484 0.274411 -0.12083407 0.09430263 0.20604059 0.16991332
-0.06921626 0.30926016 -0.16405974 -0.016244601 -0.20891389 0.19630452 0.3173081 -0.07690018
0.15537159 -0.1771886 0.05466117 -0.116875894 -0.11136431 0.40401927 -0.07249131 -0.08125991
0.010081026 0.08140235 0.088387944 -0.22994302 -0.13669631 -0.14753616 0.0061723324 0.32056063
-0.09251787 0.5288058 -0.032328095 -0.15268636 0.03745835 -0.061262257 -0.028441036 -0.10100787
0.049847525 -0.26726377 0.37116256 0.0485811 -0.31728408 0.20316814 -0.076118715 -0.10707424
-0.2541777 0.31170872 -0.058603905 0.26317596 -0.011086641 0.29593527 0.06717168 -0.15022336
-0.17433766 0.20509277 -0.23982853 0.11586834 0.14598103 0.049542148 -0.28922227 0.107239164
0.14186293 0.005467753 0.20507798 0.0048442604 -0.24539489 -0.23139465 -0.0045575583 -0.2798419
0.22892657 0.0003712661 -0.07311576 -0.23219763 -0.15929684 -0.004686936 -0.077061325 -0.14810267
-0.42386165 0.012788804 -0.27380574 -0.09852889 0.2834111 0.23515953 0.17629649 0.17573251
-0.28574672 0.123437926 -0.14737883 0.16415004 -0.028066954 -0.25090256 -0.14137848 0.070219755
-0.39570156 -0.23532276 -0.4352376 0.050739706 0.13609958 -0.1186833 0.15437524 0.03954677

f_percept.percept.0.bias f4 [16]
00000000: fcec c5b8 734a 8939 711e c838 dcfc 1137
00000010: 38d9 4837 4a4c 3e39 b265 5cb8 6c22 0938
00000020: 83fc 7438 df1b 5738 2700 6db9 6d01 ff37
00000030: a72c efb8 769d e335 76a2 58b7 fbdf 18b8
-9.437834e-05 0.00026186145 9.542413e-05 8.701547e-06 1.1971504e-05 0.00018148232 -5.25468e-05 3.2695403e-05
5.8409303e-05 5.128595e-05 -0.00022602138 3.0399033e-05 -0.00011404725 1.6958645e-06 -1.2912429e-05 -3.6448222e-05

f_percept.percept.3.weight f4 [64, 16]
00000000: 8014 943d e0a8 11be 25ca 0c3d 002a 0cbe
00000010: dc7b c3bd 01fa 61bd f718 59bd 391d 233e
00000020: a8da 9bbd 8187 be3d 7bb9 7cbe db74 2fbe
00000030: cacc c6bc fd8b a63c 6585 9c3d e21b 8b3d
00000040: 0d00 abbd 9be4 fb3d 9301 1d3e 0089 893d
00000050: bc9d e33d cd43 063c be24 39be 84e8 3abe
00000060: 2723 df3d c971 e23c 9cf7 bc3d 7ff3 163d
00000070: 7eb3 b83c 3c70 283e 3772 a4bd d6a9 88bd
00000080: 471a 423b 6ab3 05be c22d 09be 2515 10bd
00000090: b88a 243d 117b 1a3e 7f5e 01be 9de2 8b3c
000000a0: b710 0b3d 9fb6 c9bd 64d5 2cba 8bab 063e
000000b0: 821a 8ebb 147a 24bd 91da 493d f7cd 1d3d
000000c0: c85b 2fbd 84d7 bdbd d549 e33d c718 25bd
000000d0: 6033 95be 760d 683e 6a53 173d 6112 4e3e
000000e0: 93e4 e33d 6b5a 94bd e0b8 c9bd 077b 89bc
000000f0: 9c9a 43be ec90 6cbd 1754 9ebd 1f77 0cbe
00000100: a877 f23d 22d5 f7bd 6179 a3bd 8e76 d33d
00000110: 9f6d 833c ff97 edbd 09a9 54be bf18 23be
00000120: e76e 47be a35d e03b 4315 083e db38 a5bb
00000130: 9813 84bd 2865 5e3e 8cd4 7cbc 5c6a 6b3b
00000140: 6c91 a73e 8d4a 363e 7a7f 273e 737e 39be
00000150: 5db5 f2bc 3196 64be 4ad6 eebd 2441 cb3d
00000160: ba47 9dbd ad71 eebd 6f8c f5bc bc13 c53d
00000170: 0965 79bd 01ce 0abe b32a 02bb a5d4 37be
00000180: 197a a7bd b9c3 fbbd 4fb7 bebc 410c 6abd
00000190: 8919 a33d ebe5 823d 425f 863d 5bef 5ebe
000001a0: a710 febc 048d 51bd 5171 c03d 1ebe 193e
000001b0: 746f fb3c f90a dd3c 0868 1dbe 1932 d53c
000001c0: 76d4 bc3d d2bd e73d 8fa1 12be 7da9 93bd
000001d0: 28c1 b23d de54 bb3d ea67 35be d4b8 903d
000001e0: 5470 ddbd 9bd1 c2be 9fa0 873d f2e3 15bc
000001f0: 3f77 733d 021e e8bd ecf6 89be bb1e 12be
00000200: b13a 8bbc d578 e73d f96f 91be d110 aabd
00000210: 081d 833c c374 90bd 6188 ad3d 17fb 67bd
00000220: 5931 933d bc81 fb3c c7f7 3abb 07a1 21be
00000230: 1dcd 46be 3fac b93c fa40 093e 0f45 153e
00000240: ac4a 6b3c f7c5 b53d c294 b1bd 62ed c2bd
00000250: 9366 48bc bd60 743d 3e52 abbd 5926 51bc
00000260: acaf 28be ca1d 193e 2bb7 373d 558c ba3d
00000270: f158 e5bd 81de b7bd 49f1 ed3d c0c5 2bbc
00000280: 13c3 50be c31f 043d 89e7 07be 7818 08bd
00000290: 0565 d0be 075f acbd 1427 08be 5ca1 1e3d
000002a0: 98ed 423d 81fd ff3d 41ca 66bd 4210 18be
000002b0: bed5 24be 5140 05bc 65c7 b3bc 5aca 92bd
000002c0: d2d7 413d 3d71 9abe 8251 063e 459c 3d3d
000002d0: 0e09 3dbd 4a43 12be d873 6e3e 2f3c 253d
000002e0: f837 0e3e 1f9d d53c 1780 71bc efed 95bc
000002f0: 9fc7 1fbe ffc2 55be 8ae7 a0bd 1799 05be
00000300: b8e8 03be afc0 89be e051 3ebe ddd4 653c
00000310: 9b9c 123c a998 5ebd ce0c 18be 0f1e adbd
00000320: 7dc0 43be f7bf cd3c daf0 5fbc 77ef b33c
00000330: 80bc 123e fe3e 38be ab8e 973e b005 6bbd
00000340: 158f 923d c331 343e c004 eebd 7cbb 23be
00000350: 8d26 d4bd 9608 c13d 2fa3 a63d 8d10 4abe
00000360: 0c12 4c3d 9556 0dbd c468 b43d 364e a53d
00000370: 8e1b 6dbe 9c2b bcbc 2d72 26bd 3e74 bd3d
00000380: 07a7 383d e83e 333c e080 b2bc 46b7 7e3e
00000390: 4a7f 91bd ca7a 353e 6d9c 003e 3e04 493d
000003a0: 2bb1 cd3d d56d efbc 0f18 a53c 4e85 fe3d
000003b0: 56f7 7a3c 6d7f 2ebd 5406 e63d 337f c8bd
000003c0: 4286 fcbd 83ce 45be 6e16 3f3e 098e 0c3e
000003d0: bcce acbd 16b1 0cbe 3f2f 92bd 11e9 b5bd
000003e0: 2e75 a8bb 2560 09bb c26a bf3c d000 843c
000003f0: 6a12 893c 7365 2cbe 9275 9a3c 773c ff3c
0.072304726 -0.14224577 0.034372468 -0.13687897 -0.09545109 -0.055170063 -0.053002324 0.15929116
-0.07610065 0.09303189 -0.2468013 -0.1713442 -0.024267573 0.020330423 0.076426305 0.067924276
-0.08349619 0.122994624 0.15332632 0.06715584 0.1111407 0.008194876 -0.18080422 -0.1825276
0.10895377 0.027642148 0.09226915 0.03685331 0.022546526 0.16449064 -0.08029597 -0.06673019
0.0029617713 -0.13056722 -0.13396361 -0.035176415 0.040171355 0.15086009 -0.12633704 0.017075831
0.033951487 -0.09849285 -0.0006593077 0.13151376 -0.004336656 -0.040155485 0.049280707 0.0385265
-0.04281214 -0.09269622 0.11098067 -0.040306833 -0.2914076 0.22661385 0.036944784 0.20124198
0.111275814 -0.07243808 -0.09849715 -0.016782297 -0.19101948 -0.057755396 -0.077308826 -0.13717316
0.11839229 -0.12101199 -0.079821356 0.10325347 0.016043482 -0.116012566 -0.20767607 -0.15927409
-0.194759 0.0068471 0.1328936 -0.005042178 -0.0644905 0.21718276 -0.0154315345 0.003592155
0.32728136 0.17801876 0.16357222 -0.18114643 -0.029627496 -0.22322918 -0.11661966 0.09924534
-0.076796964 -0.11642776 -0.02997419 0.09622905 -0.06088737 -0.13555147 -0.0019861876 -0.17952211
-0.08177585 -0.122931905 -0.023280768 -0.057140592 0.07963855 0.063915096 0.06561138 -0.21770994
-0.0310138 -0.051159874 0.093966134 0.1501393 0.030692793 0.026982771 -0.15371716 0.026024865
0.09220211 0.11315502 -0.14319442 -0.07210062 0.08728248 0.091470465 -0.17715421 0.07066503
-0.108124405 -0.3805054 0.06622433 -0.009148585 0.059439894 -0.113338485 -0.269462 -0.14269535
-0.01699576 0.11302344 -0.2840574 -0.08303989 0.016005054 -0.070535205 0.08473278 -0.056635942
0.07187147 0.03070151 -0.0028529034 -0.15784083 -0.19414182 0.022665141 0.13403693 0.14577125
0.014361065 0.088756494 -0.086709514 -0.095179334 -0.012231487 0.05966257 -0.08365296 -0.01276549
-0.16473264 0.1495277 0.044852417 0.091087975 -0.11198605 -0.08977986 0.11618287 -0.010484159
-0.20386915 0.032256853 -0.13271917 -0.03322646 -0.40702072 -0.084165625 -0.13296157 0.038728103
0.04758987 0.12499524 -0.056345228 -0.14849952 -0.16097161 -0.00813301 -0.021945665 -0.07167502
0.047324963 -0.3016452 0.1311703 0.04629161 -0.046151213 -0.14283481 0.23286378 0.0403406
0.13888538 0.026075898 -0.014740012 -0.018301932 -0.15603493 -0.20875166 -0.078566626 -0.1304668
-0.12881744 -0.26904818 -0.1858592 0.014027801 0.0089484705 -0.054344807 -0.14848635 -0.08452999
-0.19116397 0.02511595 -0.013668263 0.021964772 0.1432972 -0.1799278 0.29601035 -0.05737847
0.07156197 0.17597108 -0.11622 -0.15989488 -0.103589155 0.09425466 0.081365936 -0.19732876
0.0498219 -0.0345064 0.08809045 0.08071558 -0.23155043 -0.022970013 -0.04063623 0.09250687
0.045081165 0.010940291 -0.021789968 0.24874601 -0.071043566 0.17722622 0.12559672 0.04907631
0.10043558 -0.029227177 0.020153074 0.124277696 0.015317759 -0.04260199 0.11231676 -0.09789886
-0.12330295 -0.19317059 0.186609 0.13726057 -0.08437869 -0.13739428 -0.07137918 -0.088823445
-0.005140922 -0.0020961848 0.023366336 0.016113669 0.016732413 -0.16835575 0.01885489 0.031156762

f_percept.percept.3.bias f4 [64]
00000000: 74e1 9639 fb5e f537 9bd2 2138 7e47 5fb9
00000010: 6251 56b9 5f62 eeb8 1170 48b7 2c08 ae38
00000020: 02e8 2fb5 471c c039 d953 dfb9 c664 0db9
00000030: 373e 89b9 e1f9 bb38 e6a0 b139 8020 98b9
00000040: ec01 5cb8 ebef 2eb9 4c09 f8b7 0345 7bb9
00000050: 0d9f c138 24b9 03b9 8c08 6c35 dd93 2439
00000060: daad b538 9324 a1b8 fa91 8a35 14f5 1fb8
00000070: 9a8b 3bb9 579a 96b9 27c8 27b9 0aa1 5db9
00000080: e085 e2b8 a7fc 4039 aaa0 7e39 489b b838
00000090: 001a ecb8 a2bc a9b9 a7f7 9cb9 8747 4fb8
000000a0: 2b9a b0b9 8bdc 4937 157d 44b9 0c23 11ba
000000b0: 05e0 5ab9 dc26 aeb7 fb62 cab8 661b 84b9
000000c0: 3a19 c3b8 4340 23b9 1c7c adb8 502d 5f38
000000d0: 2bad 15ba a46d efb8 faaa 7239 ba1f 16ba
000000e0: 453a 3f39 2fd0 b4b9 9ba4 2038 299a c2b9
000000f0: 3c7e 6439 a1f6 beb8 4946 69b9 db57 93b9
0.00028778205 2.9250505e-05 3.8581533e-05 -0.0002129357 -0.00020438948 -0.000113670474 -1.1947021e-05 8.298489e-05
-6.5530196e-07 0.00036642162 -0.00042596346 -0.00013484349 -0.0002617703 8.9633984e-05 0.0003387995 -0.00029015914
-5.2453877e-05 -0.0001668331 -2.9568233e-05 -0.00023962934 9.232583e-05 -0.00012562104 8.792929e-07 0.00015695342
8.663135e-05 -7.683891e-05 1.0324286e-06 -3.81368e-05 -0.00017885715 -0.00028725222 -0.00016000924 -0.00021136194
-0.00010801456 0.00018404667 0.0002428318 8.802727e-05 -0.000112582 -0.00032374734 -0.00029939154 -4.941926e-05
-0.000336842 1.2031883e-05 -0.00018738613 -0.00055365334 -0.00020873554 -2.0760512e-05 -9.650547e-05 -0.00025197415
-9.3030234e-05 -0.0001556883 -8.2724e-05 5.3209544e-05 -0.0005709703 -0.0001141683 0.00023142612 -0.00057267735
0.00018236887 -0.00034487384 3.8300273e-05 -0.00037117422 0.000217908 -9.105844e-05 -0.00022246795 -0.00028103482

manager.M_space.weight f4 [64, 64]
00000000: f9c8 483e f464 f1bd fb74 033d 176f dbbd
00000010: d9f9 9dbd e2cc a1bd aa75 563c eb3a 5fbd
00000020: 46ec 0bbe 17b9 853d 1ee5 b33c ad6f 153e
00000030: 13cd 3bbe 82f1 f73c b14d c4bc b65b 1b3e
00000040: 9729 6b3c 5130 7e3e 8e98 b33d 44b4 593e
00000050: 9b17 01bd ce8d af3d 0a78 13be 84ac 603e
00000060: 95cc 143d a35b bd3d 26da 4cbd 0252 65bc
00000070: 9ff9 823d 232b 00be a090 f4bc 0134 03be
00000080: 0c6a 9d3d 6cb7 473e 6717 0c3e 3694 adbe
00000090: af7d b9bd 7389 9fbd 3924 a63d 722d a33c
000000a0: cd2d 12bd a827 90be 77df c5bd 2e4b c4bd
000000b0: bcd1 e0bd 7238 d53c 77de ae3d 9aba 183d
000000c0: b564 bfbd e8ed e73c b789 6abd 91ce d5bd
000000d0: cc1e 453e 091f 743d 358e 8b3e 86a4 bb3d
000000e0: 999d 233e 7255 f73b 6cf6 0ebe 3eaf 513d
000000f0: b525 70bd 1174 4d3e e749 c9bd e69a b63d
00000100: 3d46 c5bd 65a9 73bd cd7e 7bbd 7bc7 8bbc
00000110: 18f1 c23d 8f17 0b3e 01bc 063e e7bf 233e
00000120: d848 893e ad91 4bbd a986 4c3e bd8b 0d3e
00000130: 89fc 86be 2364 25be 7cc4 183e 43f9 ba3d
00000140: 4aea 54bd e22f 2abc 11db bc3c ac59 9bbd
00000150: fb5b 8b3d 7c39 54bd 3a93 bf3b fa53 9dbd
00000160: e0b5 df3e 06a9 45be 4fcc 9ebd ef1a b63c
00000170: 5f53 6bbd 720e cdbd 5a0c 3e3d 8b20 65be
00000180: 3fd8 13bc c503 363d ca0a febd 0c5b 38bd
00000190: e862 7ebd 8a05 313e 735c b03a 84d5 e5bd
000001a0: beea d7bd d128 f03d 8154 dd3a 4049 ccbd
000001b0: 1b5d 1a3e cf88 33be 5f07 c53d cc90 c63d
000001c0: 002e 64bd e5ba 3abd 09ab fabd ef09 063e
000001d0: 8ae0 dfbb 2eb9 02be 9699 de3c 7ac5 06be
000001e0: 421a 013c a56c 783d 49a9 f9bc 4063 b23d
000001f0: 91a1 5ebe 3cb9 433d c899 74bd 8ad1 133e
00000200: 21de b0bd 81de 97bd b0cc 4e3e 024d 393e
00000210: 6adb 503e 013b a53d 88f7 1c3e 7e8c f6bd
00000220: 50bf b13d 2246 55be 385f 0fbe eb9f 22be
00000230: 512f 32bc dde5 04bd 2b2a a63d 9258 1d3d
00000240: 19e0 7dbd 9d59 60bc 7b40 46bd 48f3 323c
00000250: 70db 1f3e 7328 79bc 25e6 943e f8fd 09be
00000260: d290 e5bd 9eae 7b3e 18eb a73c a57e ec3c
00000270: 3531 1bbd b0ac 80bd 5db6 5d3d 23a6 95bd
00000280: 4957 183c 7a34 c0bd 9ecc 0abe 3c87 c5bd
00000290: eb79 0d3d 4b75 a53d 938d 2a3e 8039 943d
000002a0: d3ad 76be 8bba ffbd bdd2 26bc b7ea d1bd
000002b0: 0e01 41bd 579d 4ebe 6343 c8bd 0315 4ebd
000002c0: ac2f 69be 298a cabd d942 8f3d 848d 4bbe
000002d0: 663d f43c 1f38 14be 1335 883d 30d2 833d
000002e0: 17cc af3d cc7d 1d3b 68dd c5bc 28ff 3abe
000002f0: 30e7 1b3e defe 693e 43e5 2e3e ccf8 2a3d
00000300: c2ec 063d 54f2 483d e040 0c3e 41c8 1cbe
00000310: c23c 1dbb bd2c f2bd caf0 9fbd 5f21 9cbc
00000320: 8ff4 95be ac80 b33b 200b b13d b67b c9bd
00000330: 3157 6d3d bb6a dc3d 4360 86be 6a08 d2bb
00000340: be64 8bbd 7ff8 5e3e 98be 8cbc a4d2 883d
00000350: c966 1d3e f17d 783b b668 243e 41f7 34bd
00000360: 4278 4b3e 66b7 5ebd 429f 553d da9a 563e
00000370: 20dd 473e 8466 a63d 2f7a d33d c57d 2cbe
00000380: f85e e8bc 445a f43d 478c 83bd dbae 163e
00000390: 3f54 1abe cd56 64bd 3154 e53d 297f da3d
000003a0: a02f 11be 3dc2 a3bc 0da7 fbbd 9fc5 27be
000003b0: a13c 4e3d 6b6b 23bc d938 6bbd a44f d93d
000003c0: d99d 2d3e 119f 2d3b 5f92 a0bc 56eb 53be
000003d0: 8ce0 11be 0d22 06be 1e2a 4abe e205 27be
000003e0: 36f1 84be 23e6 313e 70e1 eebc 9c4d 073e
000003f0: 44a9 4b3c c9b6 9f3c a6ea 6d3d 2dff 013d
0.19607915 -0.117868334 0.032093983 -0.10714548 -0.0771367 -0.079004064 0.013089577 -0.054499548
-0.1366435 0.06529444 0.021959838 0.14593382 -0.18339948 0.030266527 -0.023962827 0.15171704
0.0143531775 0.24823119 0.08769332 0.21260172 -0.031516653 0.08571969 -0.1440126 0.2194081
0.036327917 0.09245994 -0.05001273 -0.013996603 0.06395268 -0.12516455 -0.029854119 -0.12812807
0.076862425 0.19503564 0.13680802 -0.33902138 -0.09057175 -0.07789888 0.08112378 0.019919131
-0.03568821 -0.28155255 -0.09661763 -0.09584652 -0.10977504 0.026027892 0.085385256 0.037287332
-0.0934538 0.028311685 -0.05726024 -0.1043979 0.1925003 0.05959991 0.27256933 0.0916224
0.15978087 0.0075480277 -0.1396119 0.051192515 -0.05862971 0.20063807 -0.09828549 0.08916263
-0.096325375 -0.05948772 -0.061400224 -0.017062893 0.09518641 0.13583206 0.13157655 0.15991174
0.26813388 -0.049699474 0.19973244 0.13822837 -0.26364544 -0.1615148 0.14918703 0.09129574
-0.051981248 -0.010387393 0.023053678 -0.07585463 0.06804653 -0.051812634 0.005846408 -0.07682033
0.43693447 -0.19302759 -0.077538125 0.02222964 -0.057452556 -0.10012521 0.046398498 -0.22375695
-0.009023725 0.04443719 -0.124044016 -0.045008704 -0.062106043 0.17287269 0.0013455286 -0.112223655
-0.105428204 0.11726535 0.0016886146 -0.09974909 0.1507458 -0.17532657 0.096205465 0.096955866
-0.05570793 -0.045588393 -0.122396536 0.13089727 -0.006832187 -0.12765953 0.027172845 -0.13161269
0.0078797955 0.060650486 -0.03047623 0.08710337 -0.2174132 0.047784075 -0.05971697 0.14435402
-0.08636118 -0.07415486 0.2019527 0.18095782 0.203962 0.08067895 0.153288 -0.120385155
0.08679068 -0.20827535 -0.14001167 -0.15881316 -0.010875539 -0.032445777 0.08113512 0.038414545
-0.061981294 -0.0136932405 -0.048401337 0.010922261 0.15611053 -0.015207398 0.29081836 -0.13475788
-0.11209263 0.2457833 0.020497844 0.028868983 -0.037888724 -0.062829375 0.054128993 -0.07307079
0.009298154 -0.09385009 -0.13554618 -0.096449345 0.0345401 0.080790125 0.16655569 0.0723753
-0.24089746 -0.12486752 -0.01018208 -0.102498464 -0.047120146 -0.20177208 -0.09778478 -0.050313007
-0.22772092 -0.09889633 0.06995172 -0.19878203 0.029814433 -0.14474533 0.06650748 0.064365745
0.08583849 0.002403128 -0.024153426 -0.18261397 0.1522491 0.2285113 0.17079644 0.041741177
0.032940634 0.049059227 0.13696623 -0.15310766 -0.0023992513 -0.118249394 -0.07809599 -0.019058881
-0.29288146 0.0054779854 0.086447 -0.09838049 0.05794448 0.10762545 -0.26245317 -0.0064096944
-0.068063244 0.21774481 -0.017180726 0.066808015 0.1537124 0.0037916864 0.16055569 -0.044181112
0.19870093 -0.05437412 0.052153833 0.20957509 0.19517946 0.08125022 0.10326039 -0.16844852
-0.028365597 0.11931279 -0.0642324 0.1471514 -0.150712 -0.055746842 0.11197699 0.10668785
-0.14178324 -0.019990081 -0.12287722 -0.1638398 0.05035079 -0.009974341 -0.05742726 0.10610893
0.16954745 0.0026492516 -0.019601045 -0.20695242 -0.14245814 -0.13098927 -0.19742629 -0.16310838
-0.2596528 0.17372946 -0.029160231 0.132132 0.012430493 0.019496338 0.058085106 0.031737495

manager.M_space.bias f4 [64]
00000000: 9eed 98b9 e0f7 7eb9 faa1 aeb9 5002 95b9
00000010: 0520 3639 eacb 8938 6b21 8739 7c5c 4739
00000020: c387 9838 dc25 1d39 3de5 a9b9 21c9 dab6
00000030: 879a 2837 aecd e6b9 6739 87b9 76d6 f338
00000040: ee3d 4ab8 5d58 20b9 391c dab9 aec8 ddb7
00000050: eb79 3c39 5d03 b139 7ee0 2bb9 3018 8ab9
00000060: fb2a 07b9 77b4 e839 fcda 90b9 e213 08ba
00000070: 78d6 b537 49cc 5739 0d30 d038 bd30 8439
00000080: 4ba7 acb9 41d5 1fb9 2b34 4839 e488 7839
00000090: dac1 a539 0000 0000 46bb c838 5979 f6b8
000000a0: bce1 3eb8 057b 5f38 69d9 a2b9 ee00 6cb9
000000b0: b21c 9a39 da10 d639 76f8 35b8 9e1e afb7
000000c0: dcfa 71b9 ccc1 c039 8add 5bb7 7fdd 1a3a
000000d0: b580 16b8 e062 4fb9 2fa4 8bb9 d534 cab9
000000e0: 1824 9339 0fd9 5939 9b84 8839 b6d7 1fb9
000000f0: 145c 5939 2ae0 4a3a aa54 2db9 d781 47ba
-0.00029168738 -0.00024315668 -0.00033308548 -0.00028421218 0.00017368801 6.570651e-05 0.00025774105 0.00019012572
7.2732124e-05 0.0001498679 -0.00032404988 -6.5203208e-06 1.0049559e-05 -0.00044022262 -0.00025791975 0.000116270894
-4.821823e-05 -0.00015291707 -0.00041601228 -2.6438702e-05 0.00017974495 0.00033762577 -0.0001639146 -0.00026339432
-0.00012890615 0.00044384945 -0.00027628976 -0.0005190951 2.1676751e-05 0.000205801 9.927163e-05 0.00025213315
-0.0003293104 -0.00015242865 0.0001909292 0.00023702119 0.00031615683 0.0 9.5716256e-05 -0.00011752797
-4.550976e-05 5.3281914e-05 -0.0003106103 -0.0002250706 0.0002939455 0.00040829816 -4.338516e-05 -2.0875883e-05
-0.00023077003 0.00036765484 -1.3104998e-05 0.0005907639 -3.5882655e-05 -0.00019777892 -0.00026634472 -0.00038567805
0.00028064917 0.00020775593 0.0002603874 -0.0001524378 0.00020729034 0.00077390915 -0.00016530105 -0.0007610595

manager.M_goals.weight f4 [64, 128]
00000000: 9591 9dbc 3dc5 b73c 3bc1 603d b59e 0d3e
00000010: 1479 863d 64b4 6d3c bbfd f1bc a142 3fbc
00000020: a7dc 2bbc 60cc 30bc 7a8e 123d 0e1f 08be
00000030: 4022 693d da6a 32bd e696 3fbe 1e8a 93bd
00000040: d2ba 0e3e e79b be3d 6877 c0bc dbfd 013e
00000050: 0a49 5ebe 0e1e 2cbe 9b8c 213c 4087 403d
00000060: 5bcd 01bd 00b0 c53d 9731 d63d 6c4f b6bd
00000070: 43b4 9ebd c181 44be 61d4 8a3c 7bc0 b0bc
00000080: d4b6 a43d b169 4d3c a1bb 273e 92bc b53d
00000090: 3ff3 a8bc ec64 0bbc 9677 103d 2376 54bc
000000a0: 766f ecbd 8284 a53d 169f b9bd 121e 863d
000000b0: 10a7 30be 57bc 513c 3901 26be 037a 353d
000000c0: 3a55 c6bd 8d02 653b b38b a83d 3a8e d63c
000000d0: cbaa e93d 0f70 8dbc 5c9a b1bd 1480 46bd
000000e0: 813d 8a3d 3522 a63d d98c 923d 8310 fb3d
000000f0: 409f 0e3e 1259 3e3d 5764 33be a507 683d
00000100: 7aff e1bd d337 0bbe de5d a9bd 97f5 103d
00000110: d0b6 5a3c 9d1c e93b 331a 18bd 7f6a d4bd
00000120: b3d2 c1bc 8d5e 2d3d 63bb 063e 8175 ccbd
00000130: cf13 863d df33 383c d8d5 18be dc67 8d3d
00000140: 3540 443d eff9 8ebd 0541 e9bd 4d6e 29be
00000150: 7bda b8bc abb3 aebd bc71 583d 05c1 a5bd
00000160: 9d6a c53c adea 113c c5a5 8f3d 5924 89bc
00000170: 2d9b d2bd c00a 1c3d 895c d73d fac1 e03d
00000180: 4b4d 793d a7ed fabd 531b 0a3e fee6 8ebd
00000190: eb89 b03d 844e 163b 9808 ad3d 8964 11bb
000001a0: 88b4 383e e845 223d 44d6 9d3c 5a99 7e3d
000001b0: 5b78 663a f38f eb3d 51d0 413d f15d e2bd
000001c0: 2194 0b3e be5a 11bc 54a8 7e3d 49a0 86bd
000001d0: 7ba8 91bd 2dff dbbd 2d22 5dbd 323f 04be
000001e0: 836a d63d fee1 cfbd 34f5 a6bd d139 2c3d
000001f0: ae86 f9bd a093 f3bc 3310 3f3d 28ab 393b
00000200: e4a8 5f3d 5d3b 8d3c 4162 823d 6f35 1e3d
00000210: 49a9 0d3d 8c7b 763d 1596 cd3d 1fda aabd
00000220: 0d56 be3d d307 2b3d f8d1 f13d 9899 5dbd
00000230: 65ae a0bb a919 6abc a446 603d e544 21bd
00000240: 3700 1b3d c67b a73d 2f9b d4bd 92d7 c5bd
00000250: 13a4 29bd 665c 95bd 4c90 c2bc 001d dcbd
00000260: 4057 4cbe 5818 efbd 7adf 1b3e 958a bfbd
00000270: 970c 2bbd 2442 fa3d e2fa 193d 6f2f 3a3d
00000280: 7f24 fd3c ca4a 98bd 1d8e 9b3d 222f 6a3c
00000290: 4262 97bd c396 79bd 7e09 cd3d 28b2 d1bd
000002a0: 68d2 00be d5d6 5b3e 496a 623d e965 babc
000002b0: fdbd 913d 6fba 4e3e a43d 123d 1079 d33d
000002c0: 11a6 09be 2539 8ebd 1552 c93d 34e5 0a3e
000002d0: b053 09bd 5b21 c73b fc3f d23d cb1d 56bd
000002e0: c6fd 5b3c a316 473d d64c 913d 1b5c ad3d
000002f0: 3486 f13d 9136 abbc a557 3cbc 08e7 0d3d
00000300: 44db 40bc ce57 953d a6bb e3b9 cf3b c2bd
00000310: 2244 bf3d 7c2e 093d b4ae c03d 67ae 243c
00000320: 4205 083e 187e d03d 9408 3cbd c638 b93d
00000330: 8a90 2ebe 0107 1c3d b87c e4bd f9f5 f03a
00000340: e587 b2bd 7c2b e9bd 3af9 8ebd a1ba 953d
00000350: 5135 a7bd e8cc ae3d 4042 573d aaac 43bd
00000360: 3f3e b5bd ab0c fdbd a96f 1db8 af1b 64bc
00000370: b039 3abd faed f7bd 4da3 b23d 5c3c 733d
00000380: c0b8 913b c16c 613d 01f9 d4bd b35a 0fbe
00000390: ed19 f9bd 4d87 7abe 8b7c f93b 27df 30bc
000003a0: 0311 46be 7bdc 97bc 988e 2bbd 5b8d e8bd
000003b0: 0d2b a5bd 0ac5 d5bd 3066 a93a 6843 0abd
000003c0: eb13 c6bd aa96 c2bd 0ce7 4d3d dfad 003e
000003d0: 7a7f 083d 3120 b1bb 8202 0c3e 0984 7fbc
000003e0: 55a0 49bd dc35 8ebc a39d 17be e673 91bd
000003f0: 6c48 eb3d a79d 4f3d 6296 d4bd 1b06 fb3d
-0.019234458 0.022432918 0.05487178 0.13830073 0.065660626 0.0145083405 -0.029539933 -0.0116736
-0.010489619 -0.010790914 0.035780407 -0.13293096 0.05691743 -0.043558933 -0.18709907 -0.07204078
0.13938454 0.0930708 -0.023494437 0.12694494 -0.2170755 -0.1680834 0.009860183 0.047003984
-0.031689983 0.0965271 0.10458677 -0.08901867 -0.07749226 -0.19190122 0.016946973 -0.021576157
0.08042684 0.012537406 0.16380168 0.088738576 -0.020623801 -0.008507948 0.035270296 -0.012967619
-0.11544697 0.080819145 -0.09063546 0.06548704 -0.1725123 0.012801251 -0.16211404 0.044305813
-0.096842244 0.0034944147 0.082297705 0.026190866 0.11409529 -0.017265348 -0.0867202 -0.04846199
0.06750012 0.08111993 0.07155771 0.12259009 0.13927937 0.046471663 -0.17518745 0.056647915
-0.110350564 -0.13595514 -0.08269857 0.035390463 0.01334925 0.0071140067 -0.03713436 -0.10371875
-0.02366004 0.0423265 0.1315742 -0.099833496 0.06546747 0.011242836 -0.14925325 0.06904575
0.047912795 -0.06981265 -0.113893546 -0.16545983 -0.022565117 -0.08530363 0.05284284 -0.08093456
0.024098689 0.008906049 0.0701404 -0.016740965 -0.10283504 0.03809619 0.105156966 0.10974498
0.060864728 -0.1225236 0.13486986 -0.06977652 0.08620056 0.0022934983 0.08448905 -0.0022185168
0.18037617 0.03961745 0.019267209 0.062157966 0.0008791738 0.115020655 0.047317807 -0.11053074
0.13630725 -0.008871732 0.06217225 -0.06573541 -0.07112213 -0.1074203 -0.05398767 -0.12914732
0.10469534 -0.101505265 -0.081522375 0.042047326 -0.12183891 -0.029733479 0.04664631 0.0028330777
0.054604426 0.01724022 0.06366397 0.038625177 0.03458527 0.060176417 0.100383915 -0.083423845
0.09293757 0.04175551 0.118076265 -0.054101557 -0.004903602 -0.014288344 0.05475487 -0.039372344
0.037842 0.08177905 -0.103811614 -0.096602574 -0.04141624 -0.07293014 -0.023750447 -0.10747719
-0.19955158 -0.11674565 0.15221968 -0.09352604 -0.041760053 0.122196466 0.037592776 0.045455392
0.030901192 -0.0743614 0.07595465 0.014293464 -0.07391788 -0.060934793 0.10011576 -0.10239059
-0.12580264 0.2146867 0.055277143 -0.022753673 0.071163155 0.20188306 0.035703316 0.10325825
-0.13442256 -0.06944493 0.09830109 0.13563997 -0.033527076 0.0060769743 0.1026611 -0.052274507
0.0134272035 0.048605572 0.070947334 0.08464833 0.11793175 -0.020900043 -0.011495505 0.034644157
-0.011771027 0.07292138 -0.00043436623 -0.09484064 0.09339167 0.033491597 0.09408322 0.010051346
0.13283256 0.101803005 -0.04590662 0.09044032 -0.17047325 0.038092617 -0.11156601 0.0018383852
-0.08717326 -0.11385247 -0.0698113 0.07310987 -0.08164466 0.085351765 0.052553415 -0.047772087
-0.08849763 -0.12355932 -3.753571e-05 -0.013922616 -0.04546517 -0.12105937 0.087225534 0.059383735
0.0044470727 0.055035356 -0.10399056 -0.13999443 -0.12163148 -0.24465676 0.0076137236 -0.010795391
-0.19342427 -0.01853775 -0.041884035 -0.113550864 -0.08064852 -0.10437973 0.0012924131 -0.03375569
-0.09671768 -0.09501393 0.05026917 0.12566327 0.033324696 -0.005405449 0.13672832 -0.0155954445
-0.04922517 -0.017359667 -0.14806227 -0.07102184 0.11488423 0.05068746 -0.10380246 0.12257024

manager.M_goals.bias f4 [64]
00000000: 4399 5e39 f518 2c39 d2d0 94b9 9c5c 62b9
00000010: 9aa1 8839 17f2 dd38 fead 3739 e2dd 99b9
00000020: 4edf ec38 e2ab 3eb9 6abf e2b9 ba93 98b9
00000030: fec5 8639 a7e4 3bb9 cda0 eb38 ea52 2539
00000040: 90a2 3239 f6a1 9b39 2cb6 8439 d3fa 5ab9
00000050: dead 74b9 5ef6 4c39 5dd2 8bb9 6ffe 9ab8
00000060: 2127 6639 553b 72b9 f843 70b9 c068 4939
00000070: 69d6 a237 0ebe 72b9 725e 4139 f54e 7e38
00000080: 14df 5e39 f9ac 9439 55dc 51b9 ff0e 6b39
00000090: 8ebf 86b9 2688 3d39 9fb2 bfb9 33b8 15b9
000000a0: aa4d 42b9 3d86 1ab8 9b43 2939 34ec 8139
000000b0: 5fa2 4f39 8ea7 2cb9 ee8f 80b9 b8c9 6839
000000c0: 2fc8 10b7 20b6 b539 2093 6db9 7669 55b9
000000d0: d5c4 a239 7d2b 3c39 c7b1 5d39 3025 36b7
000000e0: f4bd b8b8 ecfa 13b9 0a25 2c39 6ee4 8bb9
000000f0: 601f 48b9 954a 62b9 663c ab39 3575 b6b7
0.00021228664 0.00016412495 -0.00028384343 -0.00021587539 0.00026060344 0.00010583194 0.00017517057 -0.0002934775
0.00011294951 -0.00018183843 -0.00043248694 -0.00029101764 0.00025705987 -0.0001791889 0.00011235625 0.00015766514
0.00017035962 0.00029684574 0.0002531273 -0.0002088354 -0.00023334424 0.00019546735 -0.0002666888 -7.390684e-05
0.00021949086 -0.00023101021 -0.00022913504 0.00019207876 1.9411747e-05 -0.0002314972 0.00018441098 6.0631854e-05
0.00021254673 0.00028357634 -0.00020013873 0.00022416933 -0.0002570119 0.00018075164 -0.00036563442 -0.00014278367
-0.00018530214 -3.684148e-05 0.00016142281 0.00024780782 0.00019801546 -0.00016465617 -0.00024521298 0.0002220039
-8.629678e-06 0.00034658704 -0.0002265689 -0.0002035255 0.000310457 0.00017945278 0.0002114243 -1.0856704e-05
-8.809185e-05 -0.00014112488 0.00016416996 -0.0002668234 -0.00019085174 -0.00021580824 0.00032660662 -2.175067e-05

manager.M_value.weight f4 [1, 64]
00000000: 769f 24be 6476 d4bd 2841 d43b 45fe b13d
00000010: d95c 19be 081e 00be 30ff e0bd 8079 7a3e
00000020: 628a 42bd c132 cc3d 86c4 9e3d aeb9 943d
00000030: aa44 05be 3a7f b03d cbf1 2cbe d2a5 2ebe
00000040: 0502 14be 5a5a 87be f202 ddbd 3dff 893d
00000050: f552 13bd 2c5d 0bbe 6050 593e 78f4 353d
00000060: aefc 873b d0fb 183e 2071 d73d 0851 82bd
00000070: 4cff ac3d fbc8 463e 24da 7abd 1814 87bc
00000080: 21ca 89bd b70d f6bd f274 163e 0aa7 78be
00000090: 8369 f23d bad4 8dbc 2029 1f3e e1da 0a3e
000000a0: 2187 3f3e fd89 75bd 9e41 cdbc f077 61be
000000b0: 00e2 d6bd e923 733d 5a84 8f3d d7a4 eebd
000000c0: a1c2 59b8 33cc a3bc c90b c23d d070 5d3d
000000d0: 4709 99bd 16e2 cfbd a6d9 30be 9997 993e
000000e0: cd66 203d 8e27 9abc 9540 7ebc 4c62 8a3d
000000f0: dee3 123d b903 ab3d 13f4 bebd 1818 353e
-0.16076455 -0.10374144 0.006477494 0.08691076 -0.14976825 -0.12511456 -0.10986173 0.24460411
-0.047495253 0.09970618 0.077523276 0.07261978 -0.13014475 0.086180165 -0.16889112 -0.17055443
-0.14453895 -0.2643612 -0.107915774 0.06738136 -0.035967786 -0.13609761 0.21222067 0.044422597
0.004149995 0.14939809 0.10519624 -0.06363112 0.084471315 0.19412605 -0.06124319 -0.016489074
-0.06728006 -0.12014335 0.14693049 -0.2428247 0.11836531 -0.01731335 0.15543032 0.13560058
0.18703891 -0.05994605 -0.025055703 -0.22018409 -0.10492325 0.05936042 0.07007666 -0.116525345
-5.1918094e-05 -0.01999483 0.09474904 0.054062665 -0.07472473 -0.10150544 -0.17270526 0.29998472
0.03916054 -0.01881769 -0.015518327 0.0675703 0.035861842 0.083503194 -0.09323897 0.17684972

worker.f_stateW.weight f4 [40, 64]
00000000: ced1 32bd 9cbc 0bbe c7de 3bbe 52a9 92bd
00000010: e2ab 743d 51b8 423e afbc 76bc 88ba c33d
00000020: fe9b 4cbe 9cff 9cbd 2fa4 ec3d 00bf 33be
00000030: 6ad3 cabd 4932 723e 37dd e63c ac6b b33d
00000040: 62c7 0bbe 3c02 733d 4049 33be 8f1e 0bbd
00000050: ff82 89bd bac8 833d bf6d 0d3d 6c40 95be
00000060: 1fad 053d f09e bc3e c863 b9bd 49c7 46bd
00000070: ebe9 c3bc 407a 0bbe 6c97 323d 7f52 ae3d
00000080: a745 203e 5625 98bc 1cff 653b c31c 38be
00000090: bd45 4e3d c6c3 57be ebe6 313d 0bb1 a93d
000000a0: 8cef 0b3d 23fd 13be 7734 643e 1a0a 663d
000000b0: adfd e43c ca18 08be afa7 a7bd df23 e83c
000000c0: 8ecc 873d ab2c 8ebd 79e7 23bd b54d 653c
000000d0: ff00 ca3c 636a bebd cd87 1bbd adbd 413e
000000e0: 72f3 813c d60e 783e 98ce 363d 25b0 8f3d
000000f0: 24e1 393c 46fe 1bbe a5d0 3fbe 5782 b33d
00000100: 5b15 de3c f2e0 0c3e dc3b 3a3e fe40 b63c
00000110: 983f 30be 5398 24bc 57e0 c0bd 6af8 b6bd
00000120: d9f8 bdbd a260 3ebe a7b9 313e 0fea 5abd
00000130: b954 8cbd c7f1 4abd 19c6 01be 1064 f73b
00000140: 9453 0ebe a9af 733e 53ef 563e 0414 613d
00000150: 086c 37be 7f7f d0bc 8cd9 e33d c9d7 143d
00000160: 0aaf 7b3e e6d7 663e 5264 4ebd 2a21 273c
00000170: 7957 8cbe e31b e43d fef3 1bbe f76b ffbd
00000180: da11 5abe 6e5e 57be dfe8 70bc 0e97 08be
00000190: 6876 1c3e 0072 a6bb 7c2d c8bc d012 fd3d
000001a0: d8e8 d53d 6173 073c 1820 6cbe 0d9a 853d
000001b0: ce91 5e3d 6872 b03d d778 b43d ecdd bd3d
000001c0: 668a ab3b 5dc1 b7bd f50e 093e 64d4 16be
000001d0: 573c 3abd 362c adbc 6ce9 57be 9efe 74bd
000001e0: d66d c6bd 51b0 2b3d 5157 943c 9beb 10bd
000001f0: 3cb0 f03d 5bfd e9bd c4bf ce3d 5e67 1bbd
00000200: b46d 08bd c282 1ebe 0159 b13d 8766 8fbd
00000210: 1ec8 343d 50b9 dd3c 92dd 6f3e f5e2 063e
00000220: 2eac ccbd 393b 5f3c 3db5 7cbd 5dac 1f3e
00000230: e565 86bd 886a 033e 72a6 ecbc 734e 563d
00000240: 1644 873e 1a93 3c3d 77ee f1bb 2f98 5cbe
00000250: 59bf 9d3c 29e4 303d 6be4 d6bd 1c21 4b3d
00000260: c21c f93d f38d 89bd a129 aabe a4ad fb3d
00000270: e034 f6bd bf17 35be a2d5 17be 3ae6 213e
00000280: af16 2dbe cbf4 c73d 18b7 e2bd d7ae ca3d
00000290: fd04 a13c b518 083d 6f58 193e bb53 81bd
000002a0: 03ff 4e3d 0050 d93d d749 fe3c 53a0 c03d
000002b0: c9b2 3d3e e471 373e ac27 8cbd 306f 193c
000002c0: 684a eebc bc70 c83d d56c 803e 00df d8bd
000002d0: 06ba 29bd 56fa 1bbd bd83 8abd be38 14be
000002e0: 8c30 9d3e 5056 cc3c a116 0ebd 8d06 dfbd
000002f0: f77b 023d bcfa 17be 9d13 18be 40f0 843d
00000300: 4971 dc3b 2d46 eb3d 9564 0c3e aa20 e23c
00000310: 1c8a 333d 2a93 8f3e a573 bb3d b146 023e
00000320: bbb5 3b3e 5a46 d33c 090b 4bbe a566 84bd
00000330: 36a3 9ebe a639 1fbd 8ca5 f23c c376 a7bd
00000340: dd60 6d3d 15ab 2a3e 289e 91bc 8a2d 513e
00000350: 5add 6d3e a333 8fbe 41b1 153d 53cf fd3d
00000360: 11e8 1fbe 024c 2c3e 74f0 553d e404 37bc
00000370: f62b bebd 6f5b cdbd 7005 25be 9173 3bbd
00000380: d721 b33c a6d3 a1bc d464 97bc 6421 3abe
00000390: 5a40 19bd 733c f33d dbca 5abd dfcd d5bc
000003a0: 52f8 87be eca0 04be 651f 56bd 3825 183e
000003b0: a622 ca3d f821 2bbe 008b 12bb ec83 2dbe
000003c0: 9018 66be b39c 7e3d 244a 493d 7785 d4bd
000003d0: cf18 ce3d 7abc e1bd e423 fab9 dae0 a43d
000003e0: 4507 993d 2465 3ebd 5ce0 c8bd 1830 d9ba
000003f0: da24 babd 241b aa3b afb3 26bb a2a0 e83c
-0.043657117 -0.13646168 -0.18346702 -0.071612015 0.059734233 0.19015624 -0.015059634 0.095570624
-0.19981381 -0.07665941 0.11554753 -0.1755333 -0.09903605 0.23651995 0.028181655 0.08760771
-0.13650277 0.059328303 -0.17508411 -0.03396469 -0.06714439 0.0643477 0.03452849 -0.29150712
0.032635804 0.3684001 -0.09052235 -0.048529897 -0.023915252 -0.13620853 0.04360144 0.08511829
0.1565157 -0.01857249 0.0035094684 -0.17979722 0.050359476 -0.21070775 0.04343311 0.082857214
0.034163997 -0.14452033 0.22285639 0.056161977 0.027952993 -0.13290706 -0.0818628 0.028337417
0.066308126 -0.069421135 -0.04001567 0.013995578 0.024658678 -0.092976354 -0.037971307 0.18920012
0.015863154 0.2422441 0.044630617 0.07016019 0.011345182 -0.15233716 -0.18731935 0.08765095
0.027109792 0.13757685 0.18186897 0.022247788 -0.17211759 -0.010046083 -0.094177894 -0.089341
-0.092759795 -0.1859155 0.17355977 -0.053445872 -0.06852097 -0.049546983 -0.12673225 0.00754977
-0.1389907 0.23797478 0.20989732 0.05495073 -0.17912304 -0.02545142 0.11125478 0.0363386
0.24578491 0.22543296 -0.05038864 0.010200778 -0.27410486 0.111381315 -0.15229794 -0.124717645
-0.21295872 -0.21032116 -0.014703958 -0.13338873 0.15279543 -0.005079508 -0.024435751 0.12357104
0.10444802 0.008267255 -0.23059118 0.065235235 0.05433827 0.08615571 0.08812111 0.09270844
0.0052350042 -0.08972428 0.13384612 -0.14729458 -0.0454677 -0.021139245 -0.21085137 -0.059813134
-0.09688918 0.041916195 0.018108042 -0.03538094 0.11752364 -0.11425277 0.1009517 -0.037940376
-0.033307746 -0.15479568 0.08659554 -0.070019774 0.04413616 0.027065903 0.23424366 0.13172515
-0.09993778 0.01362496 -0.06169628 0.15593095 -0.065624036 0.12833607 -0.028887961 0.05232091
0.26419133 0.046038724 -0.0073831636 -0.21542428 0.01925628 0.04318634 -0.10492786 0.049592122
0.12163688 -0.06716528 -0.33234885 0.12288979 -0.12021804 -0.1768484 -0.14827588 0.1581048
-0.16903184 0.097634874 -0.110700786 0.09896629 0.019655699 0.033226687 0.14975141 -0.063147984
0.050536167 0.10610962 0.031041069 0.094055794 0.18525232 0.1791454 -0.06843504 0.009364888
-0.029088214 0.097871274 0.25083032 -0.10589409 -0.04143717 -0.038080536 -0.06763408 -0.1447477
0.307011 0.0249435 -0.03468955 -0.10889921 0.031856503 -0.14841741 -0.14851232 0.064911366
0.006727372 0.11487994 0.13710244 0.027603466 0.043832883 0.28041965 0.09152917 0.12722279
0.18331043 0.025790382 -0.19828428 -0.064648904 -0.30983895 -0.038873337 0.029619955 -0.08176949
0.057953704 0.16666825 -0.01777561 0.20427528 0.2322897 -0.27969083 0.036545996 0.123930596
-0.1561587 0.1682587 0.052231267 -0.0111706 -0.09285729 -0.10027205 -0.16115355 -0.04576451
0.021866722 -0.019754242 -0.018480696 -0.181768 -0.037414886 0.11876764 -0.053416114 -0.026099144
-0.2655664 -0.12952012 -0.052276034 0.14857948 0.0986989 -0.16712177 -0.0022360682 -0.16944855
-0.22470307 0.06216116 0.04914297 -0.10377019 0.100633256 -0.11022277 -0.00047710456 0.080506995
0.0747209 -0.046483174 -0.09808418 -0.0016570119 -0.0908906 0.0051912237 -0.002543669 0.028396908

worker.f_stateW.bias f4 [40]
00000000: 28d1 7fb9 eebb 11b9 5ac9 1639 3f30 e9b8
00000010: 1bf0 a1b9 1ee7 a5b8 ea8f 8e38 c114 ee39
00000020: b5f8 bfb9 9d63 f1b8 934e 76b9 24f9 ea38
00000030: e97b 3db7 b5ce 06b9 963c e5b8 e955 2fb9
00000040: d74b 28b9 0399 4cb8 3615 61b9 0159 0e38
00000050: 4b32 87b9 a35a 4e39 989f c038 3f9e 33b8
00000060: 3b5c ae38 c194 f1b7 858a 2e37 771e 8e39
00000070: 68e3 76b9 4ac8 1b38 b199 4e39 3ef8 2238
00000080: 570f a838 05d6 39b7 94fb 64b9 99c5 16b9
00000090: ba6f 5339 952a 12b9 31e4 2db9 4d7e 8839
-0.00024396612 -0.00013898287 0.00014380124 -0.00011119292 -0.00030887206 -7.910862e-05 6.797894e-05 0.0004541036
-0.0003661566 -0.0001151033 -0.0002348966 0.000112043956 -1.1294128e-05 -0.0001285624 -0.00010930856 -0.00016721305
-0.00016049981 -4.8779893e-05 -0.00021465574 3.393833e-05 -0.00025786678 0.00019679456 9.185e-05 -4.2824304e-05
8.314146e-05 -2.8798708e-05 1.040346e-05 0.0002710705 -0.00023545104 3.7141413e-05 0.00019702945 3.8855003e-05
8.0137215e-05 -1.107669e-05 -0.00021837495 -0.00014378726 0.0002016415 -0.00013939508 -0.00016583574 0.00026034043

worker.phi.weight f4 [8, 64]
00000000: 7533 d8bd 6f1e 873e f997 b5bd b55c 00be
00000010: a58e bbbd 9b5a 5a3d 8746 04be 5bf2 89bc
00000020: 5dde d23d be98 c73c f084 96bd 2cd2 4dbe
00000030: 5aa5 aa3d c25e 9ebc 19a8 a13c 45cc 093d
00000040: b8ce bb3d 805d dfbd 035d 683b e0ad 86be
00000050: de55 c4bd 8117 12bd e5b9 51bc 4c0f 45bc
00000060: 79e0 043e 4d28 ae3d 8cc6 b43d f20b 623e
00000070: 4f9c 563e 729c 313e 179b f9bd 78b8 1d3e
00000080: 39b7 c3bd 3a48 69be 8d45 31bd cb0c 013e
00000090: a4ef 993d 1250 6fbd e691 293e b898 3fbe
000000a0: a4bb 083d 221a 70b9 ba9b 26be 0d01 1bbe
000000b0: 8b50 2b3d 660d 8abd 90eb c7bd 76e4 143e
000000c0: 5604 05be a397 bdbc 339e 313e 258c 973d
000000d0: b14c d93d 19db 87bc 293a cfbb e154 853d
000000e0: 28e6 0abe b7b5 b83c 0509 8f3d 23f6 563d
000000f0: 2d64 bc3d 28ef c3bd 71f4 b43e 7013 36be
00000100: 137a 12be 0f0f d8bd cd52 413d 9de6 e8bd
00000110: 150e a3bd 2af1 e53d f643 103e ba34 a33d
00000120: 84eb 813b 60bc e43d 990d 78bc 43bc 243d
00000130: 1c67 b93d 2191 80bd f8cc 1d3d 1263 523e
00000140: aa3d 16be 258c 873d 70a5 ddbc 3dd2 ecbd
00000150: 8b22 9abd 7175 383e 4b10 be3e 90ae 1a3e
00000160: 4d68 3cbe 4f6a 6d3e d0f8 89bb 4862 18bb
00000170: 3090 093c ad2b d6bd 69bb 813d ce62 8cbc
00000180: d9fc c13b 374f ddbd 1163 9e3c 3ead 923e
00000190: 08d9 64bd 842e 70be 9885 733d 160b 02bd
000001a0: 92ce 85bc 7ab9 c73d a445 f6bc aca1 3fbd
000001b0: f170 1e3d 30f3 b7bd 5124 cc3b cc62 d5bd
000001c0: c71e bc3d 9c9b f73c 1ce1 53bc f58d 193e
000001d0: a266 393e d067 303e 2d9c 15bd 36c5 36be
000001e0: 7c56 323e 041a 6e3e 41c6 cf3d 4653 143e
000001f0: 58b0 29be c1c4 e7bd 3067 dfbd d69c cd3d
00000200: e43e 2dbd 9c6f ef3c e858 14be 7e89 68be
00000210: 2b75 4e3e b7ac 423e c4fa 29bd d456 ca3c
00000220: ef37 d5bd acfb 75be 2220 14be ad26 a9bc
00000230: d10a 1bbe 630e 18bd 72e6 b43e b1c2 213e
00000240: df5d 873d c0a8 f8bd 2b1d 383e 3968 34bc
00000250: bd11 adbd e96a b5bd a30d aabd 26a7 d43c
00000260: f49c 7b3c 9ff0 8c3e b232 013d 76ab fe3d
00000270: 1b62 6bbd 846c 4fbc b3b6 cebd 69e2 14be
00000280: f9a3 113e 9515 42be 4ee4 4abd 82a6 1cbd
00000290: f25c 94bd 33a4 903d b48d 35be 4321 6e3e
000002a0: 3a08 7e3d 0ac4 b2bd e9fa 933d 78dc 9c3d
000002b0: a33b 9fbd 2edc f4bd 300c 5c3d bbf1 a2bd
000002c0: 62b7 5e3d 6cd3 23be 216d 9a3d 08d6 c23c
000002d0: 0b43 49be f010 663d 63d2 71bd a23e aabd
000002e0: d6a7 263e e56b ddbd b9fb 2f3e 334d b6bd
000002f0: 7d92 f73c 0f8d 833d 8ba0 4a3d 1e82 2d3d
00000300: 5c87 4dbe ce3a 3d3d ff61 5d3d 29b1 82bd
00000310: 5806 f93d 9572 29bd e652 04be 2144 9ebe
00000320: da7e 633d 6b28 e0bd 54a5 88bd 0408 0e3e
00000330: f502 5f3d b312 f23d fdf9 083e 13f1 16be
00000340: 2214 6c3d 246f 13be c712 ec3d 7c48 c63d
00000350: 1c6b 64ba 7185 e33c 2ae2 4f3e 50d6 18bd
00000360: 6660 bb3e d0dd 2dbe 5791 723e 04b9 e3bc
00000370: c4b6 983c d278 37be b741 6b3d 0093 993c
00000380: 87c1 963b 22b0 f43d 413f 043e 20fb 913e
00000390: 1d35 cc3d 871d 453d f4fb d73d f42a 60bb
000003a0: 8a51 bbbd d992 643d edb1 97bc 7c1d 483b
000003b0: cb91 a53c c6ef e43c 0630 8bbc 67f0 953c
000003c0: 95fb ea3c 36aa f03d 1138 06be 71e0 7d3d
000003d0: fbe7 b7bd 546a 4a3d d1e3 9f3d 3d18 a2be
000003e0: cae2 7e3d 4c80 e83d 2ed5 d6bc d5e5 44be
000003f0: fff3 e03d b6ea d33d cec7 4e3c c1cb 0ebd
-0.1055669 0.26390406 -0.08866877 -0.12535365 -0.09158067 0.053309064 -0.12917529 -0.016839197
0.10296319 0.024364825 -0.073495746 -0.20099705 0.083323196 -0.019332293 0.019733476 0.033642072
0.09170288 -0.109065056 0.003545583 -0.2630453 -0.0958669 -0.035666946 -0.012800668 -0.012027573
0.12976255 0.085037805 0.08826932 0.2207487 0.20958064 0.17344835 -0.12187784 0.154024
-0.09556431 -0.22781458 -0.04327922 0.12602536 0.07516411 -0.05842597 0.16559562 -0.18710601
0.033382073 -0.00022897919 -0.16270342 -0.1513712 0.04182486 -0.06740837 -0.09761727 0.14540276
-0.12989935 -0.023143595 0.17345504 0.07399777 0.10610331 -0.016583966 -0.006324072 0.0651033
-0.1356436 0.022547586 0.06984142 0.052480828 0.091987945 -0.095671 0.35342744 -0.17780852
-0.1430438 -0.10549747 0.047198106 -0.11372111 -0.0796167 0.11227639 0.14088425 0.07969041
0.003964843 0.11168742 -0.015139961 0.040218603 0.0905287 -0.06277681 0.03852555 0.20545605
-0.1467196 0.06618527 -0.027056426 -0.11563537 -0.0752612 0.1801355 0.37121806 0.15105653
-0.18399163 0.23185085 -0.004210569 -0.002325194 0.008396193 -0.10457549 0.06334574 -0.017136957
0.0059200344 -0.10806125 0.019334348 0.28647798 -0.05587104 -0.23455244 0.059453577 -0.031748854
-0.016333852 0.09752174 -0.030062504 -0.04678504 0.038681928 -0.08981931 0.006229915 -0.10419235
0.09185558 0.030225568 -0.012932088 0.14995559 0.18105558 0.17227101 -0.036525894 -0.17848668
0.17415804 0.23252112 0.10145236 0.14484891 -0.16571176 -0.11316825 -0.10908353 0.1003968
-0.042296305 0.029228024 -0.1448704 -0.22708699 0.20161884 0.19011198 -0.041498914 0.024699606
-0.10411059 -0.24021786 -0.14465383 -0.020648325 -0.15140845 -0.037123095 0.35332066 0.15796925
0.06609701 -0.121415615 0.17979877 -0.011011177 -0.08450649 -0.08858282 -0.08303382 0.025958609
0.015357245 0.2752733 0.031542487 0.12435047 -0.057466608 -0.0126601495 -0.10093441 -0.14539494
0.14222707 -0.18953545 -0.049534135 -0.03824473 -0.072442904 0.070625685 -0.17729837 0.23254876
0.062019564 -0.08728798 0.07225592 0.076592386 -0.07775047 -0.119560584 0.05372256 -0.07956263
0.054374106 -0.1599862 0.07540346 0.023783699 -0.19654481 0.056168497 -0.05903853 -0.083127275
0.16274962 -0.10811595 0.17185868 -0.08901443 0.030221218 0.06423389 0.049469512 0.042360418
-0.20071167 0.04619866 0.054048534 -0.06381447 0.12159413 -0.04136904 -0.12922248 -0.30911353
0.055540897 -0.10945209 -0.06672159 0.13870245 0.05444618 0.11819973 0.13376613 -0.147404
0.057636388 -0.14397866 0.11527019 0.09681794 -0.00087134703 0.02777359 0.20301118 -0.03731376
0.36596984 -0.16979146 0.23688255 -0.027798183 0.018641837 -0.17917183 0.057435717 0.018746853
0.004600707 0.11947657 0.12914754 0.28511906 0.09971068 0.048123863 0.10546103 -0.003420529
-0.09146412 0.055804107 -0.018517459 0.0030535152 0.020211121 0.027946364 -0.016990673 0.01830311
0.028684417 0.11751215 -0.13107325 0.061981622 -0.08979794 0.04941781 0.078071244 -0.31659117
0.062228 0.11352596 -0.026224699 -0.19228299 0.109840386 0.10347502 0.012620879 -0.034862284
