vwgym/saved_model/.old/vwgym_f_net_step_2200000.pt (torch_old, 239820 bytes, 45 tensors)

f_percept.percept.0.weight f4 [16, 3, 3, 3]
0	0xbd2c5394	-0.042071894
1	0x3e57e8b4	0.21084863
2	0x3d74b14d	0.0597394
3	0xbd72b2d8	-0.05925259
4	0x3ea024d7	0.31278107
5	0x3e33bd6a	0.17552724
6	0x3e857631	0.26066735
7	0xbe867e9d	-0.26268473
8	0x3d313e3b	0.04327224
9	0x3ca0d863	0.019634431
10	0xbe694897	-0.22781597
11	0xbe5e7c29	-0.21727051
12	0xbe72614d	-0.2366993
13	0x3e2469c9	0.16055979
14	0x3e6ac64f	0.22927211
15	0x3e3d724d	0.18500634
16	0xbeb3b7a0	-0.35101032
17	0xbeaa0b5b	-0.3321179
18	0x3e508aa6	0.2036539
19	0xbcd37061	-0.025810422
20	0x3dd0b7fa	0.10191341
21	0xbe4e2cff	-0.20134352
22	0xbe4abbbb	-0.19798176
23	0xbe144519	-0.14479484
24	0x3e0c34bd	0.13691993
25	0x3d5b6760	0.053565383
26	0x3d5e8185	0.05432274
27	0xbeaa7500	-0.3329239
28	0x3e1dcb32	0.15409544
29	0xbe8595b0	-0.26090765
30	0xbe7ab5ff	-0.24483489
31	0xbe4b824d	-0.19873925
32	0xbe60cc7c	-0.21953005
33	0xbe0fe7e1	-0.14053299
34	0x3dc6bb7e	0.0970373
35	0x3e7dcb76	0.24784645
36	0xbd804269	-0.06262667
37	0xbc88b83e	-0.016689416
38	0xbdb08262	-0.086186185
39	0xbe00fc9b	-0.12596361
40	0xbe166b25	-0.1468931
41	0x3db27d35	0.087152876
42	0x3e972d9c	0.29526985
43	0x3db21fb2	0.08697452
44	0xbe960c2c	-0.2930616
45	0xbd865553	-0.06559243
46	0x3ed0cd92	0.40781838
47	0x3dad10f2	0.08450498
48	0x3dd32088	0.10308939
49	0x3e9c1f32	0.3049255
50	0xbd4f987e	-0.050682537
51	0x3e454e0a	0.19268051
52	0x3ca85575	0.020548562
53	0xbc59e792	-0.01329984
54	0xbd30d802	-0.04317475
55	0xbeecbfcf	-0.46240088
56	0x3cdbe67d	0.026843304
57	0xbeb2c236	-0.34913796
58	0x3d871725	0.06596211
59	0x3ea8a710	0.3293996
60	0xbe0f48b6	-0.13992581
61	0x3cf72a62	0.030171577
62	0x3d254df5	0.04035755
63	0xbda7e043	-0.081970714
64	0x3de844e1	0.113412626
65	0x3e2b54b0	0.16731524
66	0xbe85bbb5	-0.26119772
67	0xbdd5d35b	-0.104407035
68	0xbd6e7754	-0.05821927
69	0xbed4db42	-0.4157353
70	0xbd4a4454	-0.04938157
71	0xbea4c70d	-0.32183114
72	0x3da71b03	0.08159449
73	0xbdc76216	-0.09735505
74	0x3e17cd24	0.14824349
75	0xbdae6f60	-0.08517337
76	0x3e50d3f7	0.20393358
77	0x3ce18cbd	0.02753293
78	0x3d8a486f	0.06752097
79	0x3d921863	0.07133558
80	0x3e0d8cf1	0.13823296
81	0xbd296a54	-0.041361168
82	0xbd5efd43	-0.054440748
83	0xbd9d603b	-0.0768437
84	0x3e2544f7	0.16139589
85	0xbddc3de4	-0.10753992
86	0xbd948ef3	-0.07253828
87	0xbdb73872	-0.08946313
88	0xbe80a5f4	-0.25126612
89	0x3e890135	0.26758733
90	0xbed48319	-0.4150627
91	0x3e4ea8bf	0.20181559
92	0x3bdef8c9	0.00680456
93	0x3e1c506f	0.15265058
94	0xbc62e3d6	-0.013848266
95	0xbeb6c572	-0.35697514
96	0xbd5008b3	-0.050789546
97	0xbe3794e6	-0.17927894
98	0x3cf2ce4c	0.029639386
99	0x3d1f8bd2	0.038951702
100	0xbd8e1327	-0.06937247
101	0xbdc03347	-0.093847804
102	0xbd539eca	-0.051665105
103	0xbe849378	-0.2589376
104	0xbd61e883	-0.05515338
105	0x3f099e1c	0.5375688
106	0x3e219315	0.15778764
107	0xbd44bc91	-0.048031393
108	0xbbb65038	-0.005563762
109	0xbebb37f4	-0.36566126
110	0xbdf994d3	-0.12186589
111	0x3eb377eb	0.35052428
112	0x3d078b2b	0.033091705
113	0xbea69572	-0.32535893
114	0x3e3b5fd6	0.18298277
115	0x3e50e863	0.20401148
116	0x3c774349	0.015091726
117	0x3c1cbe1e	0.009566812
118	0x3e2a7fe4	0.16650349
119	0xbe5e5720	-0.21712923
120	0xbd3f3a92	-0.046686716
121	0x3de2c3ab	0.11072477
122	0x3d439407	0.04774859
123	0x3d885d7b	0.06658455
124	0xbbbc6d5d	-0.005750342
125	0xbea12cfb	-0.3147963
126	0xbd0affa3	-0.0339352
127	0xbe777813	-0.24166898
128	0xbdfd2e8d	-0.123623945
129	0xbeaf182a	-0.34198123
130	0x3e66e47a	0.22548094
131	0xbceb99bc	-0.02875983
132	0xbcb6eb59	-0.02232902
133	0xbe191017	-0.14947544
134	0xbe958b72	-0.2920795
135	0xbe53a581	-0.20668603
136	0x3da66a81	0.08125783
137	0xbdd12d67	-0.10213738
138	0xbddd01e1	-0.10791374
139	0xbcbe4d37	-0.023230178
140	0xbec77fa8	-0.3896458
141	0x3de608cf	0.11232149
142	0x3e1d1e37	0.15343557
143	0xbda70d23	-0.081568025
144	0xbc31b778	-0.010846965
145	0x3e0ff0d8	0.14056718
146	0x3d50d004	0.05097963
147	0x3d260143	0.040528547
148	0xbd03f1cf	-0.03221303
149	0x3e8a5bc1	0.27023128
150	0xbe241b01	-0.16025926
151	0xbe821714	-0.25408232
152	0x3eb2bf0d	0.34911385
153	0x3ea9d01b	0.33166584
154	0xbe52fd13	-0.20604353
155	0x3e8cf0f6	0.2752759
156	0xbdf55a2c	-0.119800895
157	0x3dc09045	0.09402517
158	0x3e518917	0.20462452
159	0x3e2ed570	0.17073607
160	0xbd8e1b32	-0.06938781
161	0x3e9f0dfc	0.31065357
162	0xbe27b8d3	-0.16379099
163	0xbc85ecfe	-0.016348358
164	0xbe56de84	-0.2098332
165	0x3e49f440	0.1972208
166	0x3ea26f15	0.31725374
167	0xbd9de023	-0.07708766
168	0x3e1f1814	0.15536529
169	0xbe358ad2	-0.17728737
170	0x3d61e333	0.055148315
171	0xbdef12a0	-0.11673474
172	0xbde44963	-0.1114681
173	0x3ece3cf3	0.40280876
174	0xbd9231b3	-0.071383856
175	0xbda6af7f	-0.08138942
176	0x3c221980	0.009893775
177	0x3da77857	0.0817725
178	0x3db4d0b9	0.08828873
179	0xbe6b405a	-0.22973767
180	0xbe0bcdb3	-0.13652687
181	0xbe16e382	-0.14735225
182	0x3bd89fe6	0.0066108583
183	0x3ea4060e	0.3203587
184	0xbdbb0da4	-0.09133461
185	0x3f076e5d	0.52902776
186	0xbd05a8c4	-0.03263165
187	0xbe1d34c5	-0.15352161
188	0x3d16721c	0.036729917
189	0xbd782e41	-0.060590986
190	0xbce30b4c	-0.027715348
191	0xbdcd54a0	-0.100259066
192	0x3d4b951f	0.04970276
193	0xbe889310	-0.266747
194	0x3ebe57f5	0.3717648
195	0x3d459040	0.04823327
196	0xbea24fc2	-0.31701475
197	0x3e4e96d4	0.20174724
198	0xbd9a45dc	-0.07532856
199	0xbdd9df8f	-0.106383435
200	0xbe81c0e5	-0.2534248
201	0x3e9fb79b	0.31194767
202	0xbd6e4456	-0.05817064
203	0x3e870df0	0.2637782
204	0xbc37ea9e	-0.011225371
205	0x3e97a742	0.29619795
206	0x3d87b025	0.06625394
207	0xbe19a875	-0.15005668
208	0xbe337892	-0.17526463
209	0x3e524879	0.20535459
210	0xbe75284f	-0.23941158
211	0x3decade9	0.11556608
212	0x3e1664ba	0.14686862
213	0x3d4bca1a	0.049753286
214	0xbe94dc5d	-0.29074374
215	0x3ddc5c80	0.107598305
216	0x3e106e2d	0.14104529
217	0x3bb6c1f3	0.00557732
218	0x3e513230	0.20429301
219	0x3b921bad	0.0044588656
220	0xbe7ce287	-0.24695788
221	0xbe6c4eb4	-0.23076898
222	0xbb893c11	-0.0041880687
223	0xbe8ee4b0	-0.2790885
224	0x3e68e89e	0.22744986
225	0xba18a9f8	-0.0005823667
226	0xbd96e3ec	-0.073676914
227	0xbe6f9870	-0.23397994
228	0xbe2369cc	-0.15958327
229	0xbbcc7051	-0.006238975
230	0xbd9db50b	-0.07700547
231	0xbe1765bf	-0.14784907
232	0xbed8e0ec	-0.42359102
233	0x3c396e9c	0.011317875
234	0xbe8c97bd	-0.27459517
235	0xbdc80bb7	-0.097678594
236	0x3e902d94	0.28159773
237	0x3e6f30cd	0.2335846
238	0x3e364728	0.17800581
239	0x3e34a4ee	0.1764104
240	0xbe9319e9	-0.28730705
241	0x3dfce74d	0.123488046
242	0xbe17745b	-0.1479048
243	0x3e292fb8	0.1652211
244	0xbce0a1d0	-0.027420908
245	0xbe806426	-0.25076407
246	0xbe106b48	-0.14103425
247	0x3d929e1f	0.071590655
248	0xbeca49ea	-0.39509517
249	0xbe71fd43	-0.23631768
250	0xbede3042	-0.43396193
251	0x3d4f1996	0.05056151
252	0x3e0c9829	0.1372992
253	0xbdf0f2c5	-0.117650546
254	0x3e1e978e	0.15487501
255	0x3d225cb4	0.03963919

f_percept.percept.0.bias f4 [16]
0	0x3b11118f	0.002213571
1	0xb9988122	-0.0002908791
2	0xbade501e	-0.0016961133
3	0xb991b8ad	-0.0002779415
4	0xb9247a21	-0.00015685755
5	0xba5c89ad	-0.0008412849
6	0x38f7868e	0.000118029406
7	0xb9c2a96f	-0.000371288
8	0x3add48ea	0.0016882692
9	0xba8ac585	-0.001058743
10	0x3acabc39	0.0015467472
11	0xbb58d843	-0.0033087886
12	0xb9ff54b1	-0.0004870049
13	0x3aa55514	0.0012613856
14	0x39a9c375	0.0003237982
15	0x3a70bcd2	0.000918341

f_percept.percept.3.weight f4 [64, 16]
0	0x3d9127ff	0.07087707
1	0xbe14f0b8	-0.14544952
2	0x3d1553f4	0.036457017
3	0xbe0e732d	-0.13911124
4	0xbdbd6c08	-0.09249121
5	0xbd656d8b	-0.05601267
6	0xbd549bd3	-0.051906418
7	0x3e1e751f	0.15474366
8	0xbd98494e	-0.07435857
9	0x3dc5a459	0.096504875
10	0xbe7dd2d4	-0.24787456
11	0xbe325046	-0.17413434
12	0xbccfbf0f	-0.025359659
13	0x3c98e9d4	0.018666185
14	0x3d9cdf81	0.076598175
15	0x3d8d63bb	0.06903788
16	0xbdae219e	-0.08502506
17	0x3df7b97f	0.120959274
18	0x3e1c926b	0.15290229
19	0x3d8b5f30	0.06805265
20	0x3de7dc89	0.113213606
21	0x3b8cab57	0.0042928862
22	0xbe3bd07d	-0.1834125
23	0xbe3c12e6	-0.18366584
24	0x3ddb1340	0.10697031
25	0x3ccc89e1	0.02496809
26	0x3dbf2cdf	0.0933473
27	0x3d057be4	0.032588854
28	0x3cb01793	0.021495616
29	0x3e261274	0.16217977
30	0xbd9e1b63	-0.07720067
31	0xbd87d17d	-0.066317536
32	0x3bb8dc70	0.0056415126
33	0xbe0795e4	-0.13240772
34	0xbe09b13d	-0.13446517
35	0xbd00cf0b	-0.03144745
36	0x3d1508f9	0.03638551
37	0x3e1bb5a0	0.15206003
38	0xbdff27ff	-0.124588005
39	0x3c96c794	0.018405713
40	0x3cf823f7	0.030290587
41	0xbdc99df8	-0.09844583
42	0xbb66741a	-0.0035164417
43	0x3e022c35	0.12712176
44	0xba78388a	-0.0009468874
45	0xbd247102	-0.040146835
46	0x3d44c35b	0.048037868
47	0x3d0dc846	0.034614824
48	0xbd363656	-0.044485413
49	0xbdbd73d2	-0.092506066
50	0x3de0eb2a	0.10982354
51	0xbd15afb3	-0.036544513
52	0xbe94e4e1	-0.2908087
53	0x3e651b41	0.22373678
54	0x3d0c3280	0.034227848
55	0x3e4d2a69	0.2003571
56	0x3de570a6	0.112031266
57	0xbd973f17	-0.0738508
58	0xbdccad29	-0.09993965
59	0xbc952549	-0.018206256
60	0xbe45bd05	-0.19310386
61	0xbd6ce126	-0.057831906
62	0xbd9815db	-0.074260436
63	0xbe0bcec3	-0.13653092
64	0x3de88dc0	0.11355162
65	0xbdfac7cc	-0.122451395
66	0xbd988b4c	-0.07448444
67	0x3dd01f37	0.10162204
68	0x3c89d64b	0.016825816
69	0xbdec396b	-0.11534389
70	0xbe558739	-0.20852365
71	0xbe248246	-0.1606532
72	0xbe47d357	-0.19514214
73	0x3bb9d700	0.005671382
74	0x3e0a2060	0.13488913
75	0xbc41b7be	-0.011823593
76	0xbd833bd9	-0.064078994
77	0x3e595492	0.21223667
78	0xbc457d20	-0.012053758
79	0x3af3e272	0.0018606915
80	0x3ea7d717	0.32781288
81	0x3e381209	0.1797563
82	0x3e286a12	0.16446713
83	0xbe3b1938	-0.18271339
84	0xbcf720df	-0.030167041
85	0xbe631108	-0.22174466
86	0xbdf12bb0	-0.11775911
87	0x3dce183b	0.10063215
88	0xbd98ace3	-0.074548505
89	0xbdebffdf	-0.11523413
90	0xbd070d37	-0.032971587
91	0x3dca2b66	0.09871559
92	0xbd809a1a	-0.062793925
93	0xbe082bd8	-0.13297975
94	0xbbdb68c8	-0.0066958405
95	0xbe35e42d	-0.17762823
96	0xbda7f660	-0.08201289
97	0xbdf3d053	-0.11904969
98	0xbcaa121b	-0.020760586
99	0xbd6c3269	-0.057665262
100	0x3d9b3a71	0.07579506
101	0x3d874f4b	0.06606921
102	0x3d827a99	0.0637104
103	0xbe612ae8	-0.21989024
104	0xbd0773a5	-0.03306927
105	0xbd4b87f1	-0.04969019
106	0x3dbeba39	0.09312863
107	0x3e19d0ce	0.15021059
108	0x3cff2864	0.03114719
109	0x3cbdd751	0.02317396
110	0xbe1b3681	-0.1515751
111	0x3cbaae2d	0.022788132
112	0x3db1b548	0.08677155
113	0x3de60b46	0.11232619
114	0xbe0f9045	-0.14019878
115	0xbd8aeba2	-0.06783225
116	0x3db03713	0.086042546
117	0x3db8c2c5	0.09021524
118	0xbe383109	-0.17987455
119	0x3d8a517f	0.067538254
120	0xbddf315b	-0.10898086
121	0xbec1f4bb	-0.37882027
122	0x3d817c4d	0.063225366
123	0xbc451e1b	-0.0120311035
124	0x3d8010c9	0.062532015
125	0xbde850c7	-0.11343532
126	0xbe8a1f4e	-0.2697701
127	0xbe11e87a	-0.14248839
128	0xbcd736eb	-0.026271304
129	0x3de5f477	0.112282686
130	0xbe8cfd5a	-0.27537042
131	0xbda77fd5	-0.08178679
132	0x3c7ce0aa	0.015434423
133	0xbd96d007	-0.07363897
134	0x3da26081	0.07928563
135	0xbd6fa636	-0.05850812
136	0x3d8e7c11	0.069572575
137	0x3d041987	0.032250907
138	0xbb5ed254	-0.0033999877
139	0xbe272e76	-0.16326317
140	0xbe45de4d	-0.19323082
141	0x3ca5a3cc	0.020219706
142	0x3e084174	0.13306218
143	0x3e13225b	0.14368574
144	0x3c1b05c2	0.009461822
145	0x3db0051d	0.08594725
146	0xbdaece17	-0.08535402
147	0xbdbfb4ac	-0.09360632
148	0xbc254695	-0.010087629
149	0x3d64d579	0.055867646
150	0xbdb0bba0	-0.08629537
151	0xbc74e40a	-0.014946947
152	0xbe2b5206	-0.16730508
153	0x3e19a98e	0.15006086
154	0x3d329af9	0.043604825
155	0x3db38733	0.087660216
156	0xbde67cc4	-0.11254266
157	0xbdb9ae3c	-0.09066436
158	0x3df0cbfd	0.11757658
159	0xbc281d60	-0.01026091
160	0xbe4e073c	-0.20119947
161	0x3d0bcae3	0.034129035
162	0xbe076a1b	-0.1322407
163	0xbd013f49	-0.031554494
164	0xbecfda6b	-0.40596327
165	0xbdad9a80	-0.08476734
166	0xbe094c2c	-0.13407964
167	0x3d291a53	0.04128487
168	0x3d374116	0.044739805
169	0x3df9dc65	0.1220024
170	0xbd678007	-0.05651858
171	0xbe175d82	-0.14781764
172	0xbe23b462	-0.1598678
173	0xbbadba3d	-0.0053017423
174	0xbcabd51e	-0.020975646
175	0xbd90892d	-0.07057414
176	0x3d522e56	0.05131372
177	0xbe9951a0	-0.29945087
178	0x3e023f35	0.12719424
179	0x3d444a89	0.047922645
180	0xbd31bc4c	-0.043392465
181	0xbe1394d5	-0.14412244
182	0x3e6c813b	0.23096173
183	0x3d31d10b	0.04341225
184	0x3e0c59d7	0.13706146
185	0x3cc16146	0.023605954
186	0xbc89f85f	-0.016842065
187	0xbc97a973	-0.018513417
188	0xbe20d3fd	-0.15705867
189	0xbe544ab8	-0.20731628
190	0xbda4d2dd	-0.080480315
191	0xbe039480	-0.12849617
192	0xbe01b1b1	-0.1266544
193	0xbe8a5176	-0.27015275
194	0xbe435ecc	-0.19079131
195	0x3c54602a	0.01296238
196	0x3c1bb0d4	0.009502608
197	0xbd565c95	-0.052334387
198	0xbe1455c2	-0.14485839
199	0xbdab9f3d	-0.08379982
200	0xbe4171fd	-0.1889114
201	0x3cd84c4b	0.026403567
202	0xbc6b143c	-0.014348086
203	0x3cb86a3c	0.022511594
204	0x3e11e373	0.14246921
205	0xbe390f5e	-0.18072268
206	0x3e974813	0.29547176
207	0xbd68d115	-0.05684002
208	0x3d979cd6	0.07402961
209	0x3e3287cc	0.17434615
210	0xbdf2c695	-0.11854283
211	0xbe26cefb	-0.16289894
212	0xbdd191ea	-0.10232909
213	0x3dc5a99b	0.0965149
214	0x3dac95ad	0.08426986
215	0xbe4a7a82	-0.19773296
216	0x3d5a0c1e	0.053234212
217	0xbd069ca0	-0.032864213
218	0x3db4d816	0.088302776
219	0x3da322a8	0.079655945
220	0xbe6f15ab	-0.2334811
221	0xbcb71191	-0.022347244
222	0xbd28a5a1	-0.04117358
223	0x3dc4c523	0.09607913
224	0x3d43689d	0.04770719
225	0x3c053327	0.008129871
226	0xbccd0555	-0.025026957
227	0x3e7bd7a4	0.24593979
228	0xbd92fba8	-0.07176906
229	0x3e3299fc	0.17441553
230	0x3e018178	0.12647045
231	0x3d3c51a0	0.04597628
232	0x3dc6a2ac	0.09698996
233	0xbcfca84b	-0.030841967
234	0x3c89dc5a	0.016828705
235	0x3dfaf9e1	0.12254692
236	0x3c3b864c	0.011445593
237	0xbd2c79a0	-0.04210818
238	0x3dec3552	0.115336075
239	0xbdc7aae6	-0.09749393
240	0xbdf45ecc	-0.119321436
241	0xbe48157f	-0.1953945
242	0x3e3b008f	0.18261932
243	0x3e0e2453	0.13881044
244	0xbdb0e767	-0.086378865
245	0xbe097c34	-0.13426286
246	0xbd8cd8a0	-0.068772554
247	0xbdaf1b83	-0.08550169
248	0xbb53a123	-0.003229209
249	0x3aaab42a	0.0013023664
250	0x3c93b724	0.018031664
251	0x3c7b179e	0.015325455
252	0x3c9c442e	0.01907548
253	0xbe2676ba	-0.16256228
254	0x3c58a15b	0.013222064
255	0x3d077766	0.03307285

f_percept.percept.3.bias f4 [64]
0	0x3b2983ec	0.0025865985
1	0xba9cc81f	-0.0011961496
2	0xbb9af5bf	-0.0047290022
3	0xbaf30575	-0.0018541055
4	0xbb0dee60	-0.0021656975
5	0x3a446edb	0.00074933254
6	0xbb227e69	-0.0024794585
7	0xbb46a62f	-0.0030311455
8	0xba6bbe00	-0.0008992851
9	0xb9a26a61	-0.00030978306
10	0xbb4bc2c9	-0.0031091443
11	0xbae5cae6	-0.0017531782
12	0xb84c8c5e	-4.8768117e-05
13	0x3b085c77	0.0020807066
14	0xbb017d66	-0.0019758581
15	0xbb7618af	-0.0037551334
16	0x3b408cc3	0.0029380776
17	0x3ab02288	0.0013438025
18	0x3a29ff6c	0.0006484899
19	0xbb814ad0	-0.003945686
20	0xbb4016e3	-0.0029310517
21	0x3ace4086	0.0015735782
22	0xbac7e163	-0.0015249666
23	0x3adc4660	0.0016805641
24	0x3acac5e7	0.0015470356
25	0xbb80ec03	-0.003934385
26	0x3af1abfc	0.0018438096
27	0xbb15acc4	-0.0022838572
28	0x3a271a57	0.00063744694
29	0xb97b4d7a	-0.00023966088
30	0xbb838b63	-0.004014419
31	0x3a68f2da	0.00088862854
32	0xbac02d1c	-0.0014661881
33	0xbaff33c0	-0.0019470379
34	0x3abb75f5	0.0014302122
35	0x3b6fd603	0.0036596067
36	0xbba27e52	-0.004958906
37	0xba465912	-0.0007566373
38	0xbb93d5e2	-0.004511581
39	0x39c510fc	0.00037587422
40	0xb977d4d7	-0.00023635045
41	0x3a1f7ca1	0.000608394
42	0xbb5655c9	-0.003270494
43	0xbaa6fac0	-0.0012739524
44	0x3b8debe2	0.004331098
45	0x3b24180f	0.0025038754
46	0xbb7b0900	-0.0038304925
47	0x39386d8d	0.00017588418
48	0x3b619c18	0.0034425315
49	0xb9d90d36	-0.00041399308
50	0xba8513b6	-0.0010152969
51	0xbaa5207d	-0.0012598183
52	0x3a914c99	0.001108545
53	0x3b12daaa	0.0022408166
54	0x3b91db92	0.0044512236
55	0xbad57063	-0.0016284104
56	0x3b3fccb2	0.0029266295
57	0xbb53bcc7	-0.0032308565
58	0x39fa4989	0.00047738504
59	0xbb9ef183	-0.004850568
60	0x3ad6a162	0.0016375
61	0x3a0fe760	0.00054894947
62	0xbb92bb1d	-0.004477872
63	0x3a6060c6	0.0008559342

manager.M_space.weight f4 [64, 64]
0	0x3e4b42e8	0.19849741
1	0xbdf673a3	-0.12033775
2	0x3cfe523e	0.031045076
3	0xbde0e0d3	-0.10980382
4	0xbda1e154	-0.07904306
5	0xbda0a6ad	-0.07844291
6	0x3c49f9cf	0.012327625
7	0xbd6196f6	-0.05507561
8	0xbe0af359	-0.13569392
9	0x3d868314	0.0656797
10	0x3ca02c42	0.019552354
11	0x3e13eb4a	0.14445224
12	0xbe3af2ef	-0.18256734
13	0x3cf4aec9	0.0298685
14	0xbce09d23	-0.027418679
15	0x3e1a0fc0	0.1504507
16	0x3c61042c	0.013733905
17	0x3e7c9679	0.24666776
18	0x3da95c4a	0.08269556
19	0x3e552061	0.20813133
20	0xbd1316f7	-0.035910573
21	0x3dac1790	0.08402932
22	0xbe17b9ba	-0.14816943
23	0x3e60564e	0.21907923
24	0x3d16fa9f	0.036860105
25	0x3dbc00ed	0.09179864
26	0xbd508dde	-0.050916545
27	0xbc7b144a	-0.0153246615
28	0x3d83116d	0.06399808
29	0xbe020ee2	-0.1270099
30	0xbd0603bb	-0.0327184
31	0xbe0498c2	-0.12948897
32	0x3d9d3195	0.07675473
33	0x3e4706f1	0.19436242
34	0x3e0a128b	0.13483636
35	0xbead73a7	-0.33877298
36	0xbdba8348	-0.09107071
37	0xbd9d93c3	-0.07694199
38	0x3da59768	0.08085519
39	0x3c93a27e	0.018021818
40	0xbd0785a4	-0.033086434
41	0xbe91aa38	-0.2845018
42	0xbdc95d7d	-0.098322846
43	0xbdc36d66	-0.095423505
44	0xbde6de74	-0.11272898
45	0x3cc4d732	0.024028394
46	0x3da95920	0.08268952
47	0x3d1a170b	0.03761963
48	0xbdc7f99c	-0.09764406
49	0x3cd9edfe	0.026602741
50	0xbd6be406	-0.057590507
51	0xbdd14383	-0.10217955
52	0x3e44cd86	0.19219026
53	0x3d5aeb9b	0.053447347
54	0x3e89af87	0.2689173
55	0x3dbcc196	0.09216611
56	0x3e1b9bd2	0.1519616
57	0x3c02db54	0.007986862
58	0xbe14ef8e	-0.14544508
59	0x3d48c560	0.049016356
60	0xbd7ab963	-0.061211955
61	0x3e4d1273	0.20026569
62	0xbdc7cd61	-0.0975597
63	0x3db92daa	0.09041913
64	0xbdca154d	-0.09867344
65	0xbd731f0a	-0.059355773
66	0xbd805c0c	-0.062675565
67	0xbc9a48a5	-0.018833468
68	0x3dc3cefe	0.09560965
69	0x3e0b8ecf	0.13628696
70	0x3e03fe86	0.12890062
71	0x3e23b8d9	0.15988483
72	0x3e88d59d	0.26725474
73	0xbd4c444a	-0.049869813
74	0x3e4bc3ef	0.19898961
75	0x3e093c3a	0.13401881
76	0xbe88ea98	-0.2674148
77	0xbe255ce6	-0.16148719
78	0x3e184f0a	0.14873901
79	0x3db4f95b	0.08836623
80	0xbd6166c4	-0.055029646
81	0xbc24f543	-0.010068241
82	0x3ccb0ca1	0.024786295
83	0xbd9b6831	-0.07588232
84	0x3d8a6ea4	0.06759384
85	0xbd58ba86	-0.052912258
86	0x3b823e14	0.0039746854
87	0xbda24d61	-0.07924915
88	0x3edecff1	0.43518022
89	0xbe486837	-0.19571005
90	0xbd9daf7c	-0.076994866
91	0x3ca1d753	0.019755995
92	0xbd75f8fb	-0.0600519
93	0xbdcfa3c7	-0.1013866
94	0x3d3e16da	0.04640851
95	0xbe67b676	-0.22628197
96	0xbc2e08e7	-0.01062224
97	0x3d2c707c	0.04209946
98	0xbe00b882	-0.12570384
99	0xbd3adf48	-0.045623094
100	0xbd81d53c	-0.06339499
101	0x3e2f8871	0.17141892
102	0x3a1712a2	0.00057629694
103	0xbde643ba	-0.112433866
104	0xbddbc468	-0.10730821
105	0x3decee93	0.11568942
106	0x398a8b44	0.00026425172
107	0xbdcd1d4c	-0.100153536
108	0x3e1976ba	0.14986697
109	0xbe340210	-0.17578912
110	0x3dc17140	0.09445429
111	0x3dc49dbd	0.09600399
112	0xbd616edb	-0.05503736
113	0xbd41b12f	-0.047288116
114	0xbdfe3d10	-0.124139905
115	0x3e022051	0.1270764
116	0xbc1ab839	-0.009443336
117	0xbe05bb91	-0.13059832
118	0x3ce1127b	0.027474632
119	0xbe074f45	-0.13213833
120	0x3bee9509	0.00728095
121	0x3d6c64da	0.057713367
122	0xbcf726a8	-0.0301698
123	0x3db16c49	0.08663232
124	0xbe5ee09a	-0.21765366
125	0x3d365137	0.044511046
126	0xbd7e7ebe	-0.06213259
127	0x3e0fa2cd	0.14026947
128	0xbdb8372c	-0.08994898
129	0xbd98fa61	-0.07469631
130	0x3e4c3e7b	0.1994571
131	0x3e37998d	0.17929669
132	0x3e4f36e4	0.20235783
133	0x3da52142	0.08062984
134	0x3e1ad046	0.15118513
135	0xbdf78d38	-0.12087482
136	0x3dab1b7c	0.083548516
137	0xbe558353	-0.20850877
138	0xbe1040a5	-0.1408716
139	0xbe27677e	-0.16348073
140	0xbc4abc77	-0.012374035
141	0xbd084aa0	-0.033274293
142	0x3da50ae0	0.08058715
143	0x3d0f2797	0.034949865
144	0xbd8050d1	-0.062654145
145	0xbc8243ab	-0.015901407
146	0xbd3fc72c	-0.046820804
147	0x3c13e24e	0.009026123
148	0x3e1e9bd2	0.15489128
149	0xbc81bef4	-0.015838124
150	0x3e937ec2	0.28807646
151	0xbe0d0bc4	-0.1377402
152	0xbde6d522	-0.112711206
153	0x3e7a18a9	0.2442347
154	0x3cab8d0e	0.020941284
155	0x3ce201e9	0.027588801
156	0xbd29b5de	-0.041433208
157	0xbd7e56f2	-0.062094636
158	0x3d5720fb	0.052521687
159	0xbd94d306	-0.07266812
160	0x3c235b97	0.009970567
161	0xbdc2c17f	-0.09509563
162	0xbe0c5d7a	-0.13707533
163	0xbdc9d67f	-0.09855365
164	0x3cff57bf	0.03116977
165	0x3da4521c	0.080234736
166	0x3e28756d	0.16451044
167	0x3d909096	0.070588276
168	0xbe795f23	-0.24352698
169	0xbe018987	-0.12650119
170	0xbc65106a	-0.013980964
171	0xbdd33a41	-0.103138454
172	0xbd4f8b95	-0.050670225
173	0xbe5136b5	-0.20431025
174	0xbdcab442	-0.09897663
175	0xbd559ea9	-0.052153263
176	0xbe6a4adf	-0.22880124
177	0xbdc9f103	-0.098604225
178	0x3d8c595b	0.06852981
179	0xbe4c0e74	-0.19927388
180	0x3ce44db8	0.02786909
181	0xbe17df5b	-0.14831297
182	0x3d888dc1	0.066676624
183	0x3d7f8b9b	0.062388998
184	0x3daf53e9	0.085609265
185	0x3b2b93c7	0.0026180611
186	0xbcc4dc03	-0.024030691
187	0xbe3b1037	-0.18267904
188	0x3e1c7085	0.15277298
189	0x3e67c974	0.22635442
190	0x3e2d351d	0.16914792
191	0x3d21b553	0.039479565
192	0x3d01c04f	0.03167754
193	0x3d4cd62a	0.05000893
194	0x3e0b9cfa	0.136341
195	0xbe1e0e19	-0.15435065
196	0xbb1e80d1	-0.0024185667
197	0xbdf3c225	-0.119022645
198	0xbda1bb61	-0.07897068
199	0xbc9f411b	-0.019440224
200	0xbe962d4f	-0.29331443
201	0x3bb06d3c	0.0053841155
202	0x3db1de6a	0.08685
203	0xbdccdbf9	-0.10002894
204	0x3d6a86d1	0.057257477
205	0x3ddbc087	0.10730081
206	0xbe870c83	-0.26376733
207	0xbbe8e7aa	-0.0071076946
208	0xbd8c5b0f	-0.068533055
209	0x3e5d8990	0.21634507
210	0xbc8dfa3f	-0.01733124
211	0x3d86bc54	0.065788895
212	0x3e1cc7f2	0.15310648
213	0x3b2b2606	0.0026115193
214	0x3e222ff8	0.15838611
215	0xbd3e1cae	-0.04641407
216	0x3e4a433a	0.19752207
217	0xbd5f8816	-0.05457314
218	0x3d54220e	0.05179029
219	0x3e565b4f	0.20933269
220	0x3e46eada	0.19425526
221	0x3da411a1	0.08011175
222	0x3dd23624	0.10264233
223	0xbe2dbf65	-0.16967542
224	0xbceecc94	-0.029150285
225	0x3df090bd	0.11746357
226	0xbd866daf	-0.06563889
227	0x3e15a772	0.14614657
228	0xbe1ba09a	-0.15197983
229	0xbd6521b8	-0.05594036
230	0x3de5bf07	0.11218076
231	0x3ddaf648	0.10691506
232	0xbe10a53a	-0.14125529
233	0xbca42619	-0.020037698
234	0xbe00bad0	-0.12571263
235	0xbe2883e1	-0.16456558
236	0x3d479264	0.048723593
237	0xbc32418b	-0.0108798845
238	0xbd6da89e	-0.058022134
239	0x3dd7a395	0.10529248
240	0x3e2c8582	0.16847804
241	0x3b1096d0	0.0022062548
242	0xbca873e2	-0.02056307
243	0xbe54387b	-0.2072467
244	0xbe127ce0	-0.14305449
245	0xbe04e35b	-0.12977354
246	0xbe4a4b18	-0.19755208
247	0xbe27805f	-0.16357563
248	0xbe851667	-0.25993654
249	0x3e30c466	0.1726242
250	0xbcf28c38	-0.029607877
251	0x3e05b379	0.13056745
252	0x3c4857af	0.012227937
253	0x3c8c15a7	0.017100168
254	0x3d6a99a5	0.057275433
255	0x3d01e2a7	0.031710293

manager.M_space.bias f4 [64]
0	0xbade9adb	-0.0016983406
1	0xbaf02c4f	-0.0018323752
2	0xbb18fb8d	-0.0023343295
3	0xbaa2fb9c	-0.0012434605
4	0x3adfbae2	0.0017069245
5	0xb79f64bf	-1.900119e-05
6	0x3ac014ce	0.0014654638
7	0x3af4ce77	0.0018677254
8	0x3a205b4b	0.00061171193
9	0x3ac029d3	0.0014660902
10	0xb9cdd0bb	-0.00039256163
11	0xba8680b2	-0.0010261743
12	0xbae0d9d0	-0.0017154757
13	0xbb56a921	-0.0032754617
14	0xbaf9be6c	-0.0019053943
15	0x3a795bf1	0.00095122965
16	0xb904a24d	-0.00012648963
17	0xb9ab882c	-0.00032717118
18	0xbb20529a	-0.0024463297
19	0xbb2fc263	-0.0026818744
20	0x3a94ff1f	0.0011367536
21	0x3ac9eb77	0.0015405257
22	0xbb0e3dd5	-0.0021704335
23	0xbaf7f4f0	-0.0018917602
24	0xba9a234a	-0.0011759785
25	0xba36293f	-0.0006948895
26	0xbaffb3f4	-0.0019508586
27	0xbb11495a	-0.0022168965
28	0xb9a38fcc	-0.0003119692
29	0x3a5c246f	0.0008397763
30	0x39b4024c	0.00034333987
31	0x3ab1ab30	0.0013555046
32	0xb9855f24	-0.00025438622
33	0xba558ac5	-0.00081459834
34	0x3ac70783	0.0015184734
35	0x3bb0bd23	0.0053936406
36	0x3a8a0153	0.0010528959
37	0xbaaeb68b	-0.0013329549
38	0x3a1d6e48	0.0006005508
39	0xb98f2606	-0.00027303415
40	0xbb23bb40	-0.0024983436
41	0x3a559b94	0.0008148488
42	0xbb7621a3	-0.003755667
43	0xba71f30f	-0.0009229639
44	0x3b0360fa	0.0020046816
45	0x3a246d28	0.0006272369
46	0xbab17301	-0.0013538302
47	0x390bd2b8	0.00013334572
48	0xbacd5a9d	-0.0015667264
49	0x3ab43c0d	0.0013750807
50	0xba8414a3	-0.0010076951
51	0x3b7be750	0.0038437434
52	0xbb94444c	-0.004524743
53	0xbb263a6a	-0.0025364407
54	0xbb095faf	-0.0020961573
55	0xbb27d011	-0.0025606195
56	0x3ad113ce	0.0015951337
57	0x39f4b9fc	0.00046677876
58	0x3ac2544f	0.0014826151
59	0xbaaa70df	-0.0013003609
60	0xba427c24	-0.0007419011
61	0x3b5e957f	0.0033963618
62	0x394156bf	0.0001843823
63	0xbb288eed	-0.0025719956

manager.M_goals.weight f4 [64, 128]
0	0xbc875766	-0.016521167
1	0x3cbc4113	0.022980249
2	0x3d64405d	0.055725444
3	0x3e0e295b	0.13882963
4	0x3d88a55e	0.06672166
5	0x3c7c143b	0.015385683
6	0xbce3a032	-0.027786348
7	0xbc269560	-0.01016745
8	0xbc1beecb	-0.009517382
9	0xbc25ff64	-0.010131691
10	0x3d19a6c8	0.03751257
11	0xbe061ef0	-0.13097739
12	0x3d67e018	0.056610197
13	0xbd27ca15	-0.040964205
14	0xbe3dc986	-0.18533906
15	0xbd909037	-0.07058757
16	0x3e0ddf17	0.13854633
17	0x3dbfdceb	0.09368309
18	0xbca74d59	-0.020422624
19	0x3e035fe7	0.12829553
20	0xbe5d64ea	-0.21620527
21	0xbe2bb499	-0.16768111
22	0x3c3ae161	0.011406274
23	0x3d4b322d	0.0496084
24	0xbcf5706a	-0.02996083
25	0x3dca0f78	0.09866232
26	0x3dd9361e	0.10606025
27	0xbdb608f6	-0.08888428
28	0xbd9e4de7	-0.077297024
29	0xbe44b0e5	-0.19208105
30	0x3c9409a0	0.018070996
31	0xbcab01d0	-0.020874888
32	0x3da53ce8	0.080682576
33	0x3c463599	0.01209774
34	0x3e28d0e3	0.16485934
35	0x3db84970	0.08998382
36	0xbca1a730	-0.019733042
37	0xbc031c27	-0.0080023175
38	0x3d12edbd	0.035871256
39	0xbc5db500	-0.013531923
40	0xbded0285	-0.11572746
41	0x3da521aa	0.080630615
42	0xbdb9a381	-0.09064389
43	0x3d8b70ef	0.0680865
44	0xbe30718f	-0.17230819
45	0x3c604866	0.013689136
46	0xbe25fac3	-0.16208939
47	0x3d30e0e7	0.043183234
48	0xbdc18fe4	-0.09451273
49	0x3ba44d8c	0.005014127
50	0x3dac3e90	0.0841037
51	0x3cd5c806	0.026096355
52	0x3ded89ca	0.11598547
53	0xbc6a4fbf	-0.0143012395
54	0xbdae761c	-0.08518621
55	0xbd400c58	-0.046886772
56	0x3d88b3b8	0.06674904
57	0x3da34b80	0.07973385
58	0x3d942038	0.07232708
59	0x3dfe6fb5	0.1242365
60	0x3e0ca2d2	0.13733986
61	0x3d496c37	0.049175467
62	0xbe30da3f	-0.17270754
63	0x3d68c617	0.05682954
64	0xbddccd3f	-0.10781335
65	0xbe0a2abc	-0.13492864
66	0xbda73e91	-0.081662305
67	0x3d148251	0.036257092
68	0x3c6ec386	0.014572984
69	0x3bfaa1dc	0.0076486897
70	0xbd114e64	-0.03547515
71	0xbdd1196c	-0.10209927
72	0xbcba5047	-0.022743357
73	0x3d303cee	0.043026857
74	0x3e089c7a	0.13340941
75	0xbdc8adf9	-0.09798808
76	0x3d857f5f	0.06518435
77	0x3c65aaaa	0.01401774
78	0xbe16d8e7	-0.14731179
79	0x3d901a97	0.070363216
80	0x3d4162f8	0.047213525
81	0xbd8d70a8	-0.06906253
82	0xbde2a774	-0.110670954
83	0xbe27ea6b	-0.16398017
84	0xbcb18db8	-0.021674022
85	0xbdafcd23	-0.085840486
86	0x3d5fc3fa	0.054630257
87	0xbda0b5be	-0.078471646
88	0x3cd4446d	0.025911534
89	0x3c38ebbd	0.011286673
90	0x3d930395	0.071784176
91	0xbc862af4	-0.016377904
92	0xbdd34626	-0.10316114
93	0x3d1af6b0	0.037832916
94	0x3dd99ccd	0.106256105
95	0x3de20434	0.11035958
96	0x3d7b39f3	0.06133456
97	0xbdfc2215	-0.12311188
98	0x3e0b0a89	0.13578238
99	0xbd8c45ba	-0.06849237
100	0x3db2c056	0.087280914
101	0x3b1f8622	0.0024341424
102	0x3dad5140	0.08462763
103	0xbb2c4df7	-0.0026291588
104	0x3e37d5f4	0.1795271
105	0x3d211ce0	0.039334178
106	0x3c9b3487	0.018945945
107	0x3d84a5df	0.0647695
108	0x3a4890a0	0.00076509453
109	0x3ded6d61	0.11593128
110	0x3d40d10d	0.047074366
111	0xbde35afb	-0.111013375
112	0x3e0dc27e	0.13843724
113	0xbbf139f9	-0.007361647
114	0x3d82ae09	0.06380851
115	0xbd8660cb	-0.065614305
116	0xbd8dfac9	-0.06932599
117	0xbdd60af7	-0.1045131
118	0xbd5719db	-0.052514892
119	0xbe0238f9	-0.12717046
120	0x3dd7cb3e	0.10536812
121	0xbdd20309	-0.10254485
122	0xbda524ec	-0.08063683
123	0x3d308ff2	0.043106027
124	0xbdfd7d0a	-0.12377365
125	0xbcdf2fd7	-0.027244492
126	0x3d4a01eb	0.049318235
127	0x3b445773	0.002995935
128	0x3d6633c2	0.056201704
129	0x3c90ee9d	0.017691905
130	0x3d83dede	0.06438993
131	0x3d1d35e3	0.03838147
132	0x3d0e905b	0.034805637
133	0x3d7a8ec9	0.061171327
134	0x3dce383c	0.100693196
135	0xbdac842e	-0.08423649
136	0x3dbd8b34	0.092550665
137	0x3d292028	0.041290432
138	0x3df3432c	0.118780464
139	0xbd5df3d0	-0.054187596
140	0xbba8877c	-0.005143104
141	0xbc523856	-0.012830814
142	0x3d6321df	0.055452224
143	0xbd20eb4a	-0.03928689
144	0x3d179d21	0.037015084
145	0x3da4dee0	0.080503225
146	0xbdd4534a	-0.10367449
147	0xbdc25a8f	-0.09489929
148	0xbd28755f	-0.04112756
149	0xbd97b54b	-0.07407626
150	0xbcbd3070	-0.023094386
151	0xbdd75c33	-0.105156325
152	0xbe4b259e	-0.19838569
153	0xbdefed70	-0.117152095
154	0x3e1c3a22	0.15256551
155	0xbdbff6bc	-0.09373233
156	0xbd2fc864	-0.042915717
157	0x3df92f65	0.12167243
158	0x3d181eeb	0.03713886
159	0x3d39fdb1	0.045407955
160	0x3cf63ae7	0.030057384
161	0xbd9b8cd8	-0.07595223
162	0x3d9c7d36	0.076410696
163	0x3c739a92	0.014868395
164	0xbd9556be	-0.072919354
165	0xbd788b2b	-0.060679596
166	0x3dcd2a35	0.10017816
167	0xbdd4687e	-0.10371493
168	0xbe01e748	-0.12685883
169	0x3e5aa56c	0.21352166
170	0x3d5cc77d	0.053901184
171	0xbcadb828	-0.021205977
172	0x3d8fd8ac	0.07023749
173	0x3e4e8b6d	0.20170374
174	0x3d0fc442	0.035099275
175	0x3dd117fa	0.10209651
176	0xbe0962e9	-0.13416637
177	0xbd8ce10f	-0.06878864
178	0x3dca06a2	0.09864546
179	0x3e0ab3b5	0.13545115
180	0xbd06dd5e	-0.032925956
181	0x3c0088e2	0.007845135
182	0x3dd59a24	0.104297906
183	0xbd4ef7ce	-0.050529294
184	0x3c65ebf2	0.0140333045
185	0x3d3ea747	0.046546247
186	0x3d8dc057	0.069214515
187	0x3db063d9	0.086127944
188	0x3dec6409	0.11542518
189	0xbc9d6508	-0.019213215
190	0xbc26d3f3	-0.010182369
191	0x3d0d1e1c	0.034452543
192	0xbc2d9ad0	-0.010595992
193	0x3d972102	0.073793426
194	0x39e5cacf	0.00043829388
195	0xbdc1bc8b	-0.0945979
196	0x3dbff11b	0.09372159
197	0x3d0b20aa	0.033966698
198	0x3dc0fd13	0.0942327
199	0x3c18fcc2	0.009337606
200	0x3e07a5b1	0.132468
201	0x3dcf6794	0.10127178
202	0xbd390e7a	-0.04517982
203	0x3db95624	0.09049633
204	0xbe2ed236	-0.17072377
205	0x3d227d02	0.039669998
206	0xbde2839f	-0.11060261
207	0x3ae4c0d8	0.0017452491
208	0xbdb3e255	-0.08783404
209	0xbdeb1670	-0.11478889
210	0xbd8e3799	-0.06944198
211	0x3d989170	0.07449615
212	0xbda6f2ac	-0.08151755
213	0x3dac72ee	0.084203586
214	0x3d5b1d8d	0.05349498
215	0xbd3be41e	-0.045871846
216	0xbdb277d1	-0.087142594
217	0xbdfd4050	-0.12365782
218	0x3a05d8d3	0.00051058567
219	0xbc64db34	-0.013968278
220	0xbd3fa374	-0.04678674
221	0xbdf903cf	-0.121589296
222	0x3db1c3ab	0.08679899
223	0x3d72eaec	0.05930607
224	0x3b6584eb	0.0035021852
225	0x3d5bd7aa	0.05367247
226	0xbdd478e7	-0.10374623
227	0xbe0ec86e	-0.13943645
228	0xbdf688c8	-0.12037808
229	0xbe7a76b1	-0.2445934
230	0x3bf57405	0.0074906372
231	0xbc3dab88	-0.011576541
232	0xbe475dae	-0.1946933
233	0xbca03406	-0.019556057
234	0xbd3134c3	-0.043263208
235	0xbde598f5	-0.11210815
236	0xbda72f8a	-0.08163364
237	0xbdd616e5	-0.104535855
238	0x39f71102	0.00047124183
239	0xbd0ca4e5	-0.034336943
240	0xbdc5e54e	-0.09662877
241	0xbdc141c9	-0.09436376
242	0x3d4f1766	0.050559424
243	0x3e00ac5f	0.12565754
244	0x3d0acb58	0.03388533
245	0xbb65f60b	-0.003508928
246	0x3e0db436	0.13838276
247	0xbc6205c5	-0.013795321
248	0xbd3cff1b	-0.046141725
249	0xbc9b2583	-0.018938785
250	0xbe19669e	-0.14980552
251	0xbd8f8868	-0.07008439
252	0x3de68826	0.11256437
253	0x3d55d2ae	0.052202873
254	0xbdd148d0	-0.10218966
255	0x3dfaa4c5	0.122384585

manager.M_goals.bias f4 [64]
0	0x3ad9438b	0.0016575916
1	0x3a06810e	0.0005130925
2	0xba317aaf	-0.00067702954
3	0xbad08c43	-0.0015910942
4	0x39c9686d	0.0003841551
5	0x39f8bd23	0.00047443164
6	0x39d4ad04	0.00040564698
7	0xbb09afd9	-0.0021009354
8	0x3a6fa87a	0.00091422314
9	0xbab5602b	-0.0013837864
10	0xbad3c469	-0.0016156557
11	0xbabe6ec2	-0.0014528858
12	0x3a861678	0.0010230085
13	0xba9ddb61	-0.001204353
14	0x3a690f9e	0.0008890572
15	0x3a587929	0.00082578004
16	0x3aee316c	0.0018172688
17	0x3ab5c804	0.0013868813
18	0x3ace2262	0.00157268
19	0xbac2fcee	-0.0014876404
20	0xba32d300	-0.00068216026
21	0x3a9747af	0.0011541749
22	0xbb0ed179	-0.0021792336
23	0xba224933	-0.0006190717
24	0x3972b065	0.0002314463
25	0xbb44105f	-0.0029916984
26	0xbaabff87	-0.0013122418
27	0x3ad9076f	0.0016558002
28	0x3b126218	0.00223363
29	0xbada59b1	-0.001665881
30	0x3aaf7cbd	0.0013388615
31	0x3aafee62	0.0013422484
32	0x3b0c98ec	0.0021453453
33	0x3b6b6cf9	0.0035923107
34	0xbb06c4db	-0.0020564112
35	0xbafbec1f	-0.001922015
36	0xbab72e3f	-0.0013975574
37	0x3a60e7ca	0.0008579461
38	0xbb53a625	-0.0032295075
39	0xb9b2cc10	-0.00034102844
40	0xb9cbda69	-0.00038881905
41	0xb961d5c0	-0.000215373
42	0x3af42599	0.0018626928
43	0x3a87af6f	0.0010351966
44	0x3acbc799	0.0015547156
45	0xba9c7499	-0.0011936604
46	0xba86e3b4	-0.001029125
47	0x3ad8d7eb	0.0016543841
48	0x3aa7feec	0.0012817062
49	0x3aef6807	0.0018265255
50	0xbadf1092	-0.0017018488
51	0xbad3b129	-0.001615082
52	0x3b31487c	0.002705126
53	0x3ab3fb3f	0.0013731493
54	0x3a9b944a	0.0011869755
55	0xbadcfdb3	-0.0016860276
56	0xbb303c5a	-0.002689144
57	0x39abfe79	0.00032805259
58	0x3a8864e8	0.0010406049
59	0xbb15e969	-0.002287472
60	0xba0f499c	-0.0005465986
61	0xbad45db6	-0.0016202244
62	0x3ab0c5cb	0.0013486681
63	0xba4589c9	-0.0007535485

manager.M_value.weight f4 [1, 64]
0	0xbe257718	-0.16158712
1	0xbdd29013	-0.10281386
2	0x3bb424df	0.0054975594
3	0x3daf46df	0.085584395
4	0xbe19804e	-0.1499035
5	0xbdfe2ca0	-0.12410855
6	0xbddf10cb	-0.10891875
7	0x3e787702	0.24264148
8	0xbd443654	-0.047903374
9	0x3dca009c	0.098633975
10	0x3d9ce7a8	0.076613724
11	0x3d90e057	0.070740394
12	0xbe05500e	-0.1301882
13	0x3dae3cf2	0.08507718
14	0xbe2cc674	-0.16872579
15	0xbe2e2799	-0.17007293
16	0xbe152220	-0.14563799
17	0xbe870f7e	-0.26379007
18	0xbdde7f31	-0.108641036
19	0x3d87f4df	0.06638502
20	0xbd0f75bb	-0.035024386
21	0xbe0b59d3	-0.13608484
22	0x3e5674dc	0.20943016
23	0x3d349ce8	0.04409495
24	0x3b80ac00	0.003926754
25	0x3e1606ea	0.14651075
26	0x3dd6efc4	0.104949504
27	0xbd850eeb	-0.06496986
28	0x3db4f4e7	0.08835774
29	0x3e4514f7	0.19246279
30	0xbd7e0e41	-0.062025312
31	0xbc925466	-0.01786251
32	0xbd8e448f	-0.0694667
33	0xbdff49b5	-0.124652304
34	0x3e143b8b	0.14475839
35	0xbe771185	-0.24127777
36	0x3df08fc2	0.117461696
37	0xbc8d94a9	-0.0172828
38	0x3e1bfde8	0.15233576
39	0x3e0b291e	0.13589904
40	0x3e3fbc38	0.18724144
41	0xbd6e964e	-0.05824881
42	0xbcd6886f	-0.026188103
43	0xbe61610e	-0.2200968
44	0xbdda467b	-0.10657974
45	0x3d6f5413	0.05842979
46	0x3d8dacc3	0.06917717
47	0xbdf17b21	-0.11791063
48	0xba3cf185	-0.000720762
49	0xbcc7443d	-0.02432453
50	0x3dbf494f	0.093401544
51	0x3d56d202	0.052446373
52	0xbd9d142e	-0.076698646
53	0xbdd042e1	-0.10169006
54	0xbe30984b	-0.17245595
55	0x3e989cea	0.29807216
56	0x3d18227f	0.037142273
57	0xbc953547	-0.018213881
58	0xbc7c2282	-0.015389087
59	0x3d84ff1a	0.06493969
60	0x3d10d7a8	0.035361916
61	0x3da72f62	0.081633344
62	0xbdc0ad14	-0.09408012
63	0x3e34aca3	0.1764398

worker.f_stateW.weight f4 [40, 64]
0	0xbd391dcd	-0.045194436
1	0xbe0d3e1e	-0.13793227
2	0xbe3f2bad	-0.18669005
3	0xbd96f936	-0.07371752
4	0x3d6b943a	0.057514407
5	0x3e404c8d	0.18779202
6	0xbc8376c5	-0.016047845
7	0x3dbd835a	0.09253569
8	0xbe4f4121	-0.20239688
9	0xbda38893	-0.07985034
10	0x3de58bff	0.11208343
11	0xbe331370	-0.17487884
12	0xbdce0eae	-0.10061394
13	0x3e6dcee9	0.23223461
14	0x3cc5a0ef	0.02412459
15	0x3db35d4b	0.087580286
16	0xbe0cc2d4	-0.13746196
17	0x3d6aec1f	0.05735409
18	0xbe36d3e9	-0.17854275
19	0xbd153234	-0.03642483
20	0xbd8fbe07	-0.07018667
21	0x3d800715	0.06251351
22	0x3d07eefd	0.0331869
23	0xbe96d335	-0.29458013
24	0x3cefa6fa	0.029254425
25	0x3ebb711b	0.3660973
26	0xbdbd8044	-0.0925298
27	0xbd4d2ce3	-0.050091635
28	0xbccab18a	-0.02474286
29	0xbe0eb8f6	-0.13937744
30	0x3d257f22	0.040404446
31	0x3da3ea54	0.08003679
32	0x3e1cddc6	0.15318975
33	0xbcaed65b	-0.021342447
34	0x3ae5ee9e	0.0017542427
35	0xbe3a20f6	-0.18176636
36	0x3d4a1635	0.049337585
37	0xbe5c95ce	-0.21541521
38	0x3d2555a9	0.040364895
39	0x3da79765	0.08183173
40	0x3d04ebec	0.032451555
41	0xbe1877f6	-0.14889511
42	0x3e607936	0.21921238
43	0x3d5defe9	0.054183874
44	0x3cd00c04	0.025396354
45	0xbe0a5a63	-0.13511042
46	0xbdb17064	-0.08664015
47	0x3cc1eda5	0.023672888
48	0x3d822c71	0.06356133
49	0xbd922d5c	-0.07137558
50	0xbd306044	-0.043060556
51	0x3c3dfc0b	0.011595736
52	0x3cb3cc31	0.021947952
53	0xbdbebc87	-0.093133025
54	0xbd282cb3	-0.041058253
55	0x3e3cd21c	0.18439525
56	0x3c55a5a9	0.013039985
57	0x3e765f93	0.24059896
58	0x3d2e89c8	0.042611867
59	0x3d880eae	0.06643425
60	0x3c0e6ca3	0.008692893
61	0xbe1da770	-0.15395904
62	0xbe41aa09	-0.1891252
63	0x3db1cd6e	0.08681761
64	0x3cd7b0c9	0.026329415
65	0x3e0dd39f	0.13850258
66	0x3e3c4696	0.18386301
67	0x3cb2fad4	0.02184812
68	0xbe320849	-0.17385973
69	0xbc2b0520	-0.010438234
70	0xbdc03222	-0.09384562
71	0xbdb41857	-0.08793705
72	0xbdbb3b9e	-0.091422305
73	0xbe4045af	-0.18776582
74	0x3e30a7c7	0.17251502
75	0xbd63ac7a	-0.05558441
76	0xbd933ee8	-0.07189733
77	0xbd44b390	-0.048022807
78	0xbe003078	-0.1251849
79	0x3b86dbad	0.004115543
80	0xbe0b0428	-0.13575804
81	0x3e74b9fa	0.2389907
82	0x3e59d237	0.21271597
83	0x3d707722	0.058707364
84	0xbe37374f	-0.17892192
85	0xbcc0c369	-0.023530679
86	0x3de0cf64	0.109770566
87	0x3d229b0c	0.039698645
88	0x3e7bd70d	0.24593754
89	0x3e67d8d0	0.22641301
90	0xbd596458	-0.05307421
91	0x3c15686f	0.009119137
92	0xbe8d80dc	-0.27637374
93	0x3de39b64	0.11113623
94	0xbe182797	-0.14858852
95	0xbdfe1638	-0.12406582
96	0xbe590efb	-0.21197121
97	0xbe5396ba	-0.20662966
98	0xbc6fd996	-0.014639279
99	0xbe079aa5	-0.13242586
100	0x3e1beb10	0.15226388
101	0xbbc75892	-0.0060835565
102	0xbcbd2436	-0.023088556
103	0x3df621b5	0.12018148
104	0x3dd2783e	0.102768406
105	0x3bf82b9d	0.0075735585
106	0xbe6a3219	-0.22870673
107	0x3d818cae	0.06325661
108	0x3d646432	0.055759616
109	0x3db40f2e	0.08791958
110	0x3db3bdd8	0.08776444
111	0x3dc5791c	0.096422404
112	0x3b9914b0	0.0046716556
113	0xbdb759ea	-0.089526966
114	0x3e07af22	0.13250402
115	0xbe18439e	-0.14869544
116	0xbd2d9461	-0.042377833
117	0xbca4f24a	-0.020135064
118	0xbe573082	-0.21014598
119	0xbd6e3a2b	-0.058160942
120	0xbdc591d7	-0.09646957
121	0x3d2bc6c5	0.04193761
122	0x3ca717d2	0.0203971
123	0xbd14be94	-0.036314562
124	0x3df237a6	0.1182702
125	0xbdeaaa11	-0.11458219
126	0x3dcab663	0.09898069
127	0xbd1f802f	-0.038940605
128	0xbcf7be67	-0.030242158
129	0xbe1a676e	-0.15078518
130	0x3db7d52b	0.089762054
131	0xbd8ad3be	-0.06778668
132	0x3d3f8558	0.046758026
133	0x3cf4d216	0.029885333
134	0x3e741330	0.23835444
135	0x3e0ad812	0.13558987
136	0xbdc4c727	-0.09608298
137	0x3c83b87e	0.016079184
138	0xbd6d186f	-0.05788463
139	0x3e212761	0.15737678
140	0xbd86db72	-0.065848246
141	0x3e07eeb7	0.13274656
142	0xbcdd5427	-0.027017666
143	0x3d5690af	0.052384075
144	0x3e8976a8	0.2684834
145	0x3d498341	0.04919744
146	0xbb28d8b4	-0.002576393
147	0xbe57d8c9	-0.2107879
148	0x3cb818dc	0.022472791
149	0x3d3879ae	0.045037918
150	0xbdd253c7	-0.102698855
151	0x3d578ca0	0.052624345
152	0x3dff0fb0	0.12454164
153	0xbd8335ba	-0.06406732
154	0xbea8e03f	-0.32983586
155	0x3e00403b	0.12524502
156	0xbdf025d8	-0.11725968
157	0xbe338df8	-0.17534626
158	0xbe13fde4	-0.1445232
159	0x3e24fe04	0.16112524
160	0xbe29ef95	-0.165953
161	0x3dd08284	0.10181144
162	0xbdda612e	-0.10663067
163	0x3dd3bf36	0.10339205
164	0x3cb0c3fc	0.021577828
165	0x3d12b2cc	0.035815045
166	0x3e1e2949	0.15445437
167	0xbd811adf	-0.063039534
168	0x3d565024	0.05232252
169	0x3ddef2ef	0.1088618
170	0x3d0ec444	0.034855142
171	0x3dc36dd7	0.09542435
172	0x3e403424	0.1876989
173	0x3e3b1119	0.18268241
174	0xbd867ce7	-0.06566792
175	0x3c4e19d3	0.012579399
176	0xbce22291	-0.027604373
177	0x3dcd6e34	0.10030785
178	0x3e80ef9f	0.25182816
179	0xbdd33c35	-0.10314218
180	0xbd1d9a4b	-0.038477223
181	0xbd0dc8e0	-0.034615397
182	0xbd823791	-0.06358255
183	0xbe0f4953	-0.13992815
184	0x3e9f9155	0.31165567
185	0x3ce3346d	0.02773496
186	0xbcea6ea4	-0.02861721
187	0xbddc91a6	-0.10769968
188	0x3d0efead	0.034910847
189	0xbe17590e	-0.14780065
190	0xbe14410b	-0.14477937
191	0x3d8d3bc1	0.06896163
192	0x3b5e1c11	0.003389124
193	0x3de4693e	0.11152886
194	0x3e072707	0.13198482
195	0x3cbc9369	0.02301951
196	0x3d2ab2f3	0.041674566
197	0x3e8e041a	0.27737504
198	0x3db44c4b	0.08803614
199	0x3dfd45fe	0.123668656
200	0x3e37a89e	0.17935416
201	0x3cb8b7e7	0.022548629
202	0xbe4fe4e8	-0.20302165
203	0xbd88b568	-0.066752255
204	0xbe9e5c31	-0.3092971
205	0xbd3253d9	-0.043536995
206	0x3cceddae	0.02525219
207	0xbda6e6fb	-0.08149525
208	0x3d5c5b84	0.053798214
209	0x3e27467d	0.16335483
210	0xbcb02cdb	-0.021505764
211	0x3e4cec74	0.20012075
212	0x3e6a2fef	0.22869848
213	0xbe910458	-0.28323627
214	0x3d0fb079	0.035080407
215	0x3df55652	0.11979355
216	0xbe239090	-0.15973115
217	0x3e277a4a	0.16355243
218	0x3d4e4581	0.050359253
219	0xbc6b279b	-0.014352704
220	0xbdc29fc8	-0.09503132
221	0xbdd2c55c	-0.102915496
222	0xbe292475	-0.16517814
223	0xbd49f743	-0.049308073
224	0x3c941c53	0.018079912
225	0xbcc94a81	-0.024571659
226	0xbca4a617	-0.020098729
227	0xbe3d5152	-0.18488052
228	0xbd259a98	-0.040430635
229	0x3dede4ff	0.11615943
230	0xbd72088b	-0.05909018
231	0xbcd6b306	-0.026208412
232	0xbe885899	-0.26630095
233	0xbe066ab8	-0.13126647
234	0xbd68b1a6	-0.056810044
235	0x3e160333	0.14649658
236	0x3dc2cb39	0.09511418
237	0xbe2f0fe4	-0.17095906
238	0xbbc46eaf	-0.00599464
239	0xbe32ad30	-0.17448878
240	0xbe685c20	-0.22691393
241	0x3d758bee	0.0599479
242	0x3d42a143	0.047517072
243	0xbdd9f0a3	-0.10641601
244	0x3dc5e17c	0.09662148
245	0xbdeb7e3c	-0.11498687
246	0xbb874115	-0.0041276314
247	0x3d9eec92	0.07759966
248	0x3d931edd	0.07183621
249	0xbd46c50d	-0.048527766
250	0xbdd41010	-0.10354626
251	0xbb27b0db	-0.0025587592
252	0xbdc2f4d7	-0.09519356
253	0x3b480a0f	0.0030523574
254	0xbb91ea4a	-0.0044529783
255	0x3cd3432b	0.025788864

worker.f_stateW.bias f4 [40]
0	0xbb5c91ed	-0.0033656314
1	0x399ccde8	0.0002990805
2	0x3b7de689	0.0038742146
3	0xbb86bf6b	-0.0041121743
4	0xbb9bcbc0	-0.0047545135
5	0x3b059c41	0.0020387324
6	0x3ab32e3c	0.0013670395
7	0x3b03da73	0.002011922
8	0x3b0b70e4	0.0021277005
9	0x3aa033a8	0.0012222426
10	0xbb154ee8	-0.0022782627
11	0x3b8a62a7	0.004223186
12	0x3b3f01b9	0.0029145314
13	0xbb5a4c1d	-0.0033309527
14	0x3a881324	0.0010381681
15	0xbb041377	-0.0020153204
16	0xbb2760a2	-0.0025539775
17	0x3b1a4c20	0.002354391
18	0x39f7480c	0.0004716519
19	0xbb39aa7f	-0.0028330383
20	0xbacf8f3d	-0.0015835535
21	0xbb3df762	-0.0028986563
22	0x3b95322e	0.004553101
23	0xbb4b34ff	-0.003100693
24	0xba32bb78	-0.0006818096
25	0x380a6db6	3.300394e-05
26	0x3ad5d1f5	0.0016313182
27	0x3b84ab8d	0.0040487708
28	0xba5fd04c	-0.00085378136
29	0x3b123083	0.0022306747
30	0xbab4f68f	-0.001380639
31	0x3b27d749	0.0025610498
32	0x39e8b8e4	0.00044388243
33	0x3b196160	0.0023403987
34	0xbb509f59	-0.003183326
35	0xba93b6da	-0.0011269704
36	0x3b04a53c	0.002024009
37	0xbb60feea	-0.0034331628
38	0xbb6376c6	-0.0034708246
39	0x3b90b564	0.0044161547

worker.phi.weight f4 [8, 64]
0	0xbdd5be22	-0.104366556
1	0x3e87689d	0.26447
2	0xbdb5dc35	-0.08879892
3	0xbdfe4026	-0.12414579
4	0xbdbadfda	-0.091247275
5	0x3d57973a	0.052634455
6	0xbe03ef3a	-0.12884226
7	0xbc8087f2	-0.015689824
8	0x3dd25c27	0.10271483
9	0x3ccad985	0.024761925
10	0xbd93cd14	-0.0721685
11	0xbe4c9813	-0.19979887
12	0x3dac232b	0.08405145
13	0xbc961d83	-0.01832462
14	0x3cab3b72	0.02090237
15	0x3d0a694d	0.03379183
16	0x3dbba931	0.0916313
17	0xbdddb5e0	-0.108257055
18	0x3b771cb1	0.003770631
19	0xbe865305	-0.26235214
20	0xbdc5cf05	-0.096586265
21	0xbd0f370e	-0.034964614
22	0xbc49eebf	-0.012324988
23	0xbc430c99	-0.011904859
24	0x3e044680	0.12917519
25	0x3daea84f	0.08528196
26	0x3db6783b	0.08909651
27	0x3e621cdf	0.22081326
28	0x3e5754eb	0.21028487
29	0x3e327b91	0.1742995
30	0xbdf81d75	-0.121149935
31	0x3e1d3e42	0.1535578
32	0xbdc0a716	-0.09406869
33	0xbe68b134	-0.22723848
34	0xbd2f6bdd	-0.042827476
35	0x3dfebd0a	0.124384
36	0x3d9c43c9	0.076301165
37	0xbd70363f	-0.058645483
38	0x3e29d11a	0.16583672
39	0xbe3f286d	-0.18667765
40	0x3d0dae74	0.0345902
41	0xba040659	-0.0005036346
42	0xbe254640	-0.1614008
43	0xbe192880	-0.14956856
44	0x3d308446	0.043094896
45	0xbd8928aa	-0.06697209
46	0xbdc964d3	-0.09833684
47	0x3e145de7	0.14488946
48	0xbe02bcff	-0.12767409
49	0xbcb2160e	-0.021739032
50	0x3e31cd67	0.17363511
51	0x3d973a20	0.07384133
52	0x3dd7a06a	0.105286434
53	0xbc81aa52	-0.015828285
54	0xbbab5975	-0.00522917
55	0x3d852f90	0.065032125
56	0xbe0b9fa8	-0.13635123
57	0x3cab7372	0.020929072
58	0x3d8ec9b9	0.06972069
59	0x3d544822	0.051826604
60	0x3dbf79ed	0.09349427
61	0xbdc36322	-0.095403925
62	0x3eb46995	0.35236803
63	0xbe360802	-0.17776492
64	0xbe1592b2	-0.14606741
65	0xbdde8b5b	-0.10866424
66	0x3d308b33	0.0431015
67	0xbdeeaff2	-0.11654653
68	0xbda38b49	-0.07985551
69	0x3ddd6932	0.1081108
70	0x3e0cfab4	0.1376751
71	0x3d9c95b1	0.07645739
72	0x3b266055	0.0025387008
73	0x3ddd5070	0.10806358
74	0xbc764a38	-0.015032344
75	0x3d2156f6	0.039389573
76	0x3db4e4de	0.088327155
77	0xbd84cf7f	-0.06484889
78	0x3d119dbd	0.03555082
79	0x3e4d1282	0.20026591
80	0xbe177a0b	-0.1479265
81	0x3d8939b4	0.06700459
82	0xbcfb7e47	-0.030699862
83	0xbdf5c843	-0.120010875
84	0xbd9ab4d8	-0.075540245
85	0x3e335bf4	0.17515546
86	0x3ebc0b7a	0.36727506
87	0x3e1947ec	0.14968842
88	0xbe3d1e66	-0.18468627
89	0x3e6bf0a5	0.23041017
90	0xbbc5b389	-0.006033365
91	0xbbaf69c8	-0.0053531863
92	0x3c0f9a19	0.008764767
93	0xbdda7a72	-0.10667886
94	0x3d710d98	0.058850855
95	0xbca437e2	-0.020046178
96	0x3b25ece3	0.0025318197
97	0xbddee6a7	-0.10883837
98	0x3c8bd27a	0.017068136
99	0x3e920a22	0.28523356
100	0xbd6ba159	-0.05752692
101	0xbe72607c	-0.23669618
102	0x3d71e845	0.0590594
103	0xbd051c35	-0.032497603
104	0xbc8a2b49	-0.016866343
105	0x3dc19dbb	0.09453913
106	0xbcf4322c	-0.02980908
107	0xbd4265f2	-0.047460504
108	0x3d0cc3ea	0.034366526
109	0xbdbd13e3	-0.09232309
110	0x3ba26997	0.004956435
111	0xbdd6aeaf	-0.10482537
112	0x3db78a09	0.08961875
113	0x3cf59450	0.029977947
114	0xbc87d9d1	-0.016583355
115	0x3e15ac64	0.14616543
116	0x3e370cdb	0.17875998
117	0x3e2c871c	0.16848415
118	0xbd26e86c	-0.040749
119	0xbe3812a4	-0.17975861
120	0x3e3160d8	0.17322099
121	0x3e6cfa43	0.23142342
122	0x3dc72a54	0.0972487
123	0x3e11bc5d	0.14232011
124	0xbe2b6a6d	-0.16739817
125	0xbdf108f6	-0.11769287
126	0xbde0a5b9	-0.10969109
127	0x3dc7f837	0.0976414
128	0xbd2574ee	-0.040394716
129	0x3cf4f199	0.029900359
130	0xbe135597	-0.14388119
131	0xbe6658f7	-0.22494875
132	0x3e4f2eb9	0.20232667
133	0x3e42e4f2	0.19032648
134	0xbd251bbf	-0.040309664
135	0x3cd62b53	0.026143705
136	0xbdd4f14c	-0.10397586
137	0xbe75efd7	-0.24017273
138	0xbe13afc6	-0.14422521
139	0xbcb4c8b7	-0.022068365
140	0xbe191875	-0.14950736
141	0xbd17f10d	-0.03709512
142	0x3eb47fe8	0.35253835
143	0x3e23065a	0.15920392
144	0x3d88a895	0.066727795
145	0xbdf81bd1	-0.121146806
146	0x3e37dd81	0.17955591
147	0xbc0f1179	-0.008732193
148	0xbdad70bb	-0.08468767
149	0xbdb52c0e	-0.088462934
150	0xbda9275e	-0.08259462
151	0x3cd8d177	0.026467068
152	0x3c5e2c97	0.013560436
153	0x3e8d19f5	0.27558866
154	0x3d088696	0.033331476
155	0x3e01422c	0.12622899
156	0xbd67fed9	-0.056639526
157	0xbc47fceb	-0.012206296
158	0xbdcbdc4f	-0.0995413
159	0xbe1377f1	-0.14401223
160	0x3e133b5b	0.14378111
161	0xbe41021e	-0.18848464
162	0xbd427422	-0.047474034
163	0xbd194152	-0.03741581
164	0xbd938475	-0.072029985
165	0x3d90f237	0.07077449
166	0xbe34bc0e	-0.17649862
167	0x3e6f523f	0.23371218
168	0x3d7f3a85	0.062311668
169	0xbdb2a247	-0.08722358
170	0x3d97332f	0.07382809
171	0x3d9e63e8	0.07733899
172	0xbd9a6eac	-0.0754064
173	0xbdf26640	-0.11835909
174	0x3d5c5c7e	0.053799145
175	0xbda0338b	-0.07822331
176	0x3d65e5a7	0.056127217
177	0xbe237e83	-0.15966229
178	0x3d9bfaf9	0.076162286
179	0x3cc65260	0.024209201
180	0xbe473f25	-0.19457681
181	0x3d67cef4	0.05659385
182	0xbd6f4c07	-0.058422115
183	0xbda64edc	-0.0812051
184	0x3e2781ec	0.16358155
185	0xbddb4fb1	-0.10708559
186	0x3e3078d1	0.17233588
187	0xbdb32ad8	-0.08748406
188	0x3cf61308	0.030038372
189	0x3d86f566	0.06589775
190	0x3d4e3887	0.050346877
191	0x3d2f3fa1	0.04278529
192	0xbe4ef574	-0.2021082
193	0x3d2f0866	0.04273262
194	0x3d4f5c5a	0.050625183
195	0xbd88a442	-0.06671955
196	0x3df7e335	0.12103883
197	0xbd338364	-0.043826476
198	0xbe07a15d	-0.13245149
199	0xbe9f86e7	-0.3115761
200	0x3d5e61e1	0.054292563
201	0xbde6a333	-0.112615965
202	0xbd860f32	-0.06545867
203	0x3e0b8108	0.1362344
204	0x3d59070f	0.052985247
205	0x3dedc1a1	0.116091974
206	0x3e055007	0.1301881
207	0xbe1a8145	-0.15088375
208	0x3d698c62	0.057018645
209	0xbe1349dc	-0.14383644
210	0x3de4f4e4	0.11179522
211	0x3dbfeb44	0.09371045
212	0xbb05c9e3	-0.0020414523
213	0x3cc55ea9	0.024092989
214	0x3e4c4b2d	0.19950552
215	0xbd1c7c65	-0.03820457
216	0x3eba9a87	0.3644602
217	0xbe2f217f	-0.17102621
218	0x3e70a618	0.2350086
219	0xbd013e5d	-0.031553615
220	0x3c8aead0	0.01695767
221	0xbe399ef8	-0.18127048
222	0x3d5f3c61	0.05450094
223	0x3c91246e	0.017717566
224	0x3acf299f	0.0015805251
225	0x3df1c24e	0.11804639
226	0x3e0250b9	0.12726106
227	0x3e913028	0.28357053
228	0x3dc531f6	0.0962867
229	0x3d384186	0.044984363
230	0x3dd414a7	0.103555016
231	0xbbb1d03f	-0.005426436
232	0xbdbe9d9c	-0.09307405
233	0x3d5b3a12	0.053522177
234	0xbc925148	-0.017861024
235	0x3a03e666	0.00050315855
236	0x3c8b22b4	0.016984321
237	0x3ccf78a9	0.02532609
238	0xbc980144	-0.018555291
239	0x3c8af63d	0.016963119
240	0x3cd70280	0.02624631
241	0x3df1a400	0.11798859
242	0xbe09b201	-0.1344681
243	0x3d6e1734	0.058127597
244	0xbdbd77d1	-0.09251369
245	0x3d3a59e6	0.04549589
246	0x3d978284	0.07397941
247	0xbea2386e	-0.31683677
248	0x3d781779	0.06056926
249	0x3de89b61	0.11357761
250	0xbceb0e1e	-0.028693255
251	0xbe46485e	-0.19363543
252	0x3ddc17d8	0.10746735
253	0x3dcc18fc	0.09965703
254	0x3c5148f4	0.012773741
255	0xbd14dea8	-0.036345154
